experiments/checkpoint_resume_test_20250828_130751/checkpoints/final.pt (torch, 213197 bytes, 22 tensors)

layers.0.weight f4 [64, 4]
00000000: fa6f 133e 8073 823b d9ed 40bc 0800 37be
00000010: bb8b 0c3e 5397 3ebe 2a44 203d 04d9 82bc
00000020: 2847 633e d50a 89be 411c 073e 545e 973e
00000030: 423b 213e 35d8 34be fcf9 423c 2fdf 7fbe
00000040: 9c1e 9abd 2bab 41be 3d59 3a3d 6bad 933d
00000050: c7a5 213e a43f 9e3d 4252 73bd c557 453d
00000060: d515 58be 1ab7 15bd e046 953d e367 4ebe
00000070: 00a5 25bc f722 27be c8f5 24bd 18c8 d3bd
00000080: 583a 4cbe 8849 95be 0d88 763e 95f7 4e3e
00000090: fcf8 3ebe 2c80 933e de60 85bc 6243 bb3c
000000a0: f8b3 78be fb23 98bd 2245 153e 74e0 923e
000000b0: dbe4 81be 4a5b 34be 7f33 24be ad5c b33d
000000c0: b711 183e 10ba 8ebe 8a73 b6bc cfbb b2bb
000000d0: 9072 9a3d 7262 84be e607 85be 8c60 75bd
000000e0: 3d6b 143e a65e 80be b42f 453c 636c 25be
000000f0: 9ebd 5a3e 4eb2 573d 9dfa 4abe de41 7dbe
00000100: 9722 843e 7f6e aa3d b357 343e 4ac3 ecbb
00000110: ef99 8e3e a13b 11be 8ee7 96bd 3cfb 133e
00000120: 574d 8fbc 0028 a5bd 7c68 8e3d 44a5 0fbe
00000130: c26d 773e 7255 c0bd 4025 b6bd 1bcc 87be
00000140: 8a61 c43d 1a11 87be d6c5 8c3e 2330 1f3e
00000150: 21e9 3cbe 3745 6cbe c83c 0fbc f4dd acbd
00000160: c86c 293e d343 3e3e cd2c 93be 0475 583b
00000170: cd55 c53d 8110 53bc 1d36 7b3e f940 18be
00000180: 5900 693d 6d8c b9bd 9b0d bebd 5d8b 8a3e
00000190: 9554 8e3d 9b09 983e 3993 77bd a004 80be
000001a0: dac4 223d 065b 583c d42d a13d d93f 183d
000001b0: 91a9 ff3d 71d5 6bbe 0deb 69bd 5592 23bb
000001c0: ddaa 65bc a327 40be 8674 dbbd 7a22 8e3e
000001d0: a49e 673e 61c6 2ebe ea0a 863e d568 913e
000001e0: 3825 47be c2b7 233a 992e 1c3e fa3e 223e
000001f0: de4d 34be e1f7 6bbe b8bb 913e 1ee3 65bd
00000200: 0782 05bd c60c 01be 20bd f7bd b00c 913d
00000210: 2edf 59be fc66 4c3e d7a9 0dbd 2724 273e
00000220: d2f0 573e 69ab 703e 878d 0abe e15a 42be
00000230: 3024 12be 13d0 90be 0bb2 d2bc 1ec3 21be
00000240: 7871 2cbe 8599 003e 9581 893e 8e8b 0bbe
00000250: 0072 753e e544 533e 8b78 80be 9c30 69be
00000260: a4e0 a83c b474 86be 888a 43be 49b2 c7bc
00000270: 1094 843e c999 f53d d7a8 cbbc cd2e 29bd
00000280: 7bf4 3c3e 9d4e 313e 3ac4 873e ea2c 273d
00000290: f43e 413e 0caf 3fbe 4b61 2a3e 3a1f 5dbe
000002a0: bc83 953d 2df3 653e bab8 dc3d cc70 89be
000002b0: 9618 0a3e d456 193e b6aa bdbd 812a 3bbe
000002c0: c6f3 0b3d a623 5f3e 56f4 90be d23d 8bbe
000002d0: 5ee2 87be 6c85 e93d edeb 9ebd 6959 483e
000002e0: cdff 1bbe 4d05 74be 07c9 613e 0213 d33d
000002f0: 01f8 0bbc 3d71 913c b945 91bc e09a ccbd
00000300: 86d1 5ebe 7ff0 1b3e fbe8 833e 9a7d 0fbe
00000310: 1cc9 87be 7767 8ebd 66cd 25bc b69c 3dbd
00000320: cdde 893d 2a7f 653d aab8 8f3d 583a 083e
00000330: c51f 2cbd 9654 833e c218 7f3e 1be6 87be
00000340: bb70 0dbd 5b44 8fbb 2cce 883d 3f7e 0d3d
00000350: efbe 70bd 09ef a6bd fc5d e63c c090 24bc
00000360: 60de 99bc 14f2 f03d ddc4 493e 67f9 9a3d
00000370: 33cf 823e 6944 1fbe 9644 f63d 15de 4f3e
00000380: 9648 853d dc1a 613e 8712 133e 791e d63d
00000390: dc74 4d3e f75b 953d b90f 89be a904 fdbd
000003a0: a40e 5fbd 8918 6abe f4f9 1b3e cab1 55be
000003b0: fe17 903e 69d8 3a3d b3bf 84be 1342 b3bb
000003c0: 4ffd d13d 5792 113e 679f 253e f396 253e
000003d0: 9aea 6abe b56e 823e 8711 8b3e bee6 323e
000003e0: 891c 093d eef4 723e 1d77 873e aa63 7dbe
000003f0: a193 68bd 3507 3cbd 9d71 80bc 3e2d 7d3e
0.14398184 0.003981054 -0.011775457 -0.17871106 0.13725178 -0.18612413 0.039127506 -0.015972622
0.22195113 -0.26766077 0.13194372 0.29564154 0.15745261 -0.17660601 0.011900421 -0.24987482
-0.075253695 -0.18912952 0.04549526 0.07210811 0.15785895 0.07726982 -0.05940462 0.048179407
-0.21102078 -0.036551572 0.07288909 -0.20156817 -0.01011014 -0.16321932 -0.040273458 -0.10340899
-0.19944131 -0.29157662 0.24075337 0.20211633 -0.18649668 0.28808725 -0.016281541 0.022859279
-0.24287403 -0.07428738 0.14577153 0.2868687 -0.25369915 -0.17612949 -0.16035269 0.08757911
0.14850508 -0.2787633 -0.02227189 -0.0054545174 0.07541382 -0.25856358 -0.2598259 -0.059906527
0.14494033 -0.2507221 0.012035299 -0.16154628 0.21361396 0.05266028 -0.19822164 -0.24732158
0.2580764 0.08321857 0.1761158 -0.0072254287 0.27851817 -0.14182903 -0.07368384 0.14451307
-0.017492933 -0.0806427 0.069535226 -0.14027888 0.24162963 -0.093912974 -0.088938236 -0.26522908
0.095889166 -0.26380235 0.27494687 0.15545706 -0.18448307 -0.23073278 -0.008742519 -0.08440772
0.16545403 0.1858056 -0.28745118 0.003302873 0.09635506 -0.012882353 0.24532361 -0.14868535
0.056885097 -0.09059987 -0.09279939 0.2705945 0.069497265 0.29694828 -0.060443137 -0.2500353
0.039738514 0.013205295 0.07870069 0.037170265 0.12483514 -0.2303064 -0.057108928 -0.0024959047
-0.014017788 -0.1876512 -0.107155845 0.2776068 0.2261911 -0.17067863 0.26180202 0.28400293
-0.19447792 0.00062453386 0.1525215 0.15844336 -0.17607829 -0.23043777 0.2846353 -0.0561248
-0.032594707 -0.12602529 -0.120966196 0.07082498 -0.21276543 0.1996116 -0.0345858 0.16322385
0.2108796 0.23502888 -0.13530551 -0.1897998 -0.14271617 -0.28283748 -0.025719663 -0.15797088
-0.1684016 0.12558563 0.26856676 -0.13627455 0.23969269 0.2063175 -0.25091967 -0.2277245
0.02061493 -0.26260912 -0.19095814 -0.024377005 0.25894213 0.11992223 -0.024860783 -0.0413044
0.18452637 0.17315145 0.26516896 0.040814318 0.18871671 -0.18719119 0.16638677 -0.21593943
0.07300517 0.22456045 0.10777421 -0.2684387 0.13485941 0.14974529 -0.09261076 -0.18277933
0.034168027 0.21790943 -0.28311414 -0.27195603 -0.26539892 0.11402401 -0.07759843 0.19565357
-0.15234299 -0.23830147 0.22049342 0.1030636 -0.008543015 0.017754192 -0.017733442 -0.099904776
-0.21759614 0.1522846 0.25763687 -0.14012757 -0.26520622 -0.06953328 -0.010119772 -0.04629203
0.06731949 0.056029476 0.07017644 0.13303506 -0.042022485 0.2565047 0.24911788 -0.26542744
-0.034531336 -0.0043721623 0.06679949 0.034544226 -0.05877584 -0.08151061 0.028120987 -0.010044277
-0.018782794 0.11764923 0.19704004 0.07567101 0.25548705 -0.1555344 0.120248005 0.20299561
0.06507985 0.21982902 0.14362536 0.10455031 0.2006411 0.072929315 -0.26769808 -0.123544045
-0.05445732 -0.22860922 0.15232068 -0.20868602 0.28143305 0.04561654 -0.25927505 -0.005470523
0.10253393 0.1421598 0.16174088 0.16170864 -0.22941056 0.25475088 0.2716181 0.17470834
0.03347448 0.23726246 0.26458064 -0.2474505 -0.056781415 -0.04590531 -0.015679175 0.2472429

layers.0.bias f4 [64]
00000000: 0000 0000 0000 0000 0000 0000 0000 0000
00000010: 0000 0000 0000 0000 0000 0000 0000 0000
00000020: 0000 0000 0000 0000 0000 0000 0000 0000
00000030: 0000 0000 0000 0000 0000 0000 0000 0000
00000040: 0000 0000 0000 0000 0000 0000 0000 0000
00000050: 0000 0000 0000 0000 0000 0000 0000 0000
00000060: 0000 0000 0000 0000 0000 0000 0000 0000
00000070: 0000 0000 0000 0000 0000 0000 0000 0000
00000080: 0000 0000 0000 0000 0000 0000 0000 0000
00000090: 0000 0000 0000 0000 0000 0000 0000 0000
000000a0: 0000 0000 0000 0000 0000 0000 0000 0000
000000b0: 0000 0000 0000 0000 0000 0000 0000 0000
000000c0: 0000 0000 0000 0000 0000 0000 0000 0000
000000d0: 0000 0000 0000 0000 0000 0000 0000 0000
000000e0: 0000 0000 0000 0000 0000 0000 0000 0000
000000f0: 0000 0000 0000 0000 0000 0000 0000 0000
0.0 0.0 0.0 0.0 0.0 0.0 0.0 0.0
0.0 0.0 0.0 0.0 0.0 0.0 0.0 0.0
0.0 0.0 0.0 0.0 0.0 0.0 0.0 0.0
0.0 0.0 0.0 0.0 0.0 0.0 0.0 0.0
0.0 0.0 0.0 0.0 0.0 0.0 0.0 0.0
0.0 0.0 0.0 0.0 0.0 0.0 0.0 0.0
0.0 0.0 0.0 0.0 0.0 0.0 0.0 0.0
0.0 0.0 0.0 0.0 0.0 0.0 0.0 0.0

layers.2.weight f4 [64, 64]
00000000: 5e38 22be aa15 103e 4bf7 073c 3b27 94bd
00000010: 2ffd 12bd 7c97 eebd f69f 623d 4bab eb3d
00000020: 320c ecbd 1fc6 173e daba 393d 9555 88bc
00000030: 9a9f 20be 88d1 4f3e 1bda f4bc 63a5 74bd
00000040: a69b e83d 78f9 3c3e 62fc 503e 975e 1c3d
00000050: 48ef 2ebd 4fbe 523e bc8f 943d b282 223e
00000060: 393c 40be af36 fc3c 1e97 483e dc51 9d3d
00000070: edda 183b bcdf 5a3d eba9 e7bd b518 3abe
00000080: e081 1bbe 818d 1c3e 1faa da3d c244 85bd
00000090: 7538 e7bd 221c e4bd fbb7 e73c c45a 0cbe
000000a0: 3bb9 373e 54e7 d83d a22d d8bd b97b d23c
000000b0: 8632 3abe df0f c7bd a46c f83d 31fd b83d
000000c0: 3e44 59be 219d e43a 341a 923d a62c fdbd
000000d0: 50b7 573e 84bf 33be 15f5 023e 86a3 5b3e
000000e0: fdf6 2b3e 2428 803d c504 333e 706f 3b3b
000000f0: 25cd ac3d 01c0 b6bd 35bf 0e3e 2e9e 93bd
00000100: ef3e 843c e6bd 44be 83a8 b8bd 9253 5d3e
00000110: 579e 343e 7e7c 2b3e c5de cfbd a230 40bb
00000120: ef46 993d 922f dbbd d940 b63c 10fc 953d
00000130: 2d72 103d e94e 4ebe 4de9 a1bd 9d8b 4e3c
00000140: 8ecd 5a3e 908b 0a3e c5a9 293e 5103 d2bd
00000150: 37e2 5c3e 6fb6 ee3b fd78 b63d 2fb3 0a3e
00000160: 0a16 07be 25cc ea3d 2da2 113c 4ea8 ee3c
00000170: cb97 9dbd b498 4f3e b2b4 fa3d bb31 9e3d
00000180: ed81 b7bd 6805 e53d 808d d73d 6d34 74bd
00000190: 085e dc3d 02fd 903d bdd5 243d e895 49be
000001a0: a726 9f3d 3b11 4bbc 03fb a6ba f1ba 2fbe
000001b0: 8f25 4ebd deb2 28be b972 083e 4f04 1f3d
000001c0: 67da febd 6769 8a3d a49c 58be b822 6ebd
000001d0: 2219 c8bc c10d 2fbe 9ec1 eabd c369 203e
000001e0: d7ee c9bd 80ad 0bbe 9450 a83d 5a4a c93d
000001f0: 5247 563d 96c9 3e3e 5df0 393e 68e8 dabd
00000200: f278 54bd 8d69 3e3e 10a5 97bd 57e8 0f3e
00000210: cf45 5c3d eca4 47bc ca9e f53d df03 4a3e
00000220: 7ecf 363e 3342 cdbd 1241 8bbb b9fe ae3d
00000230: 714d c5bd 2ad1 92bd acd3 013e c499 5d3e
00000240: 38ed f33d 6d0a dbbd 0b4d 07be f1f5 acbd
00000250: bc26 0d3e 6ae0 50be 7ddb 13be 18f9 c8bd
00000260: 2605 cbbd 29d9 f23d c29e 163e b5ec 173e
00000270: f757 503e 3121 fbbd 1776 693d 13e8 10be
00000280: 34c1 d4bb a304 323c 6138 16be e122 eb3d
00000290: 4993 c63d 3b5d 063d dcc6 ad3a 78d6 c3bd
000002a0: e10f cb3c cc1f 5cbe 5d21 83bd d8d2 2f3e
000002b0: e361 22be 1468 3d3e 673a b33c 2eb1 31be
000002c0: 00ba 0d3e 597a 783d 4395 403e 5471 213d
000002d0: ae2b a33d d1d0 d13d c339 70bd 5813 39be
000002e0: 167d 963c 240f f13d a799 073c ea9f 59be
000002f0: 213c d3bd 33b5 1bbd 2402 503d de8c 5d3d
00000300: 28b2 20bd 2b91 4a3c 93bb f6bd 14b3 153e
00000310: c376 edbd 95f7 bc3d 065b 14be a073 8bbd
00000320: 27ab 123e c793 4f3e 1b5f a7bd 7b16 fc3c
00000330: ef53 59be 8c68 11be 39e1 403e 2fd9 a3bd
00000340: 1f78 4f3e 4607 c13d 9358 2d3e cd4e 4ebd
00000350: d5d4 093e 1a79 39be f034 8f3d e140 603d
00000360: ac6a 8f3d 8c60 173e 9d90 6cbc 9b56 51be
00000370: c289 97bd 5cab 323e d663 a8bd 92f6 a83d
00000380: f21b fcbc 84b8 9bbd 5149 293c cbef 1e3e
00000390: 7b52 28be 78ad 753d 8fb1 81bd 4863 383e
000003a0: 7328 2ebd 2a13 ec3d 274f 7fbc 347e 16be
000003b0: d68f 48be e66e 38be 7c07 113d 078b 40be
000003c0: 597c 6fbd 0a57 363e 84d0 cb3b c35a 2c3e
000003d0: a696 5f3b a05e a3bd 7ee6 9dbc 8409 0e3e
000003e0: f46a 313e 8217 4cbe f789 05be 8f57 d13d
000003f0: 9bd8 7c3d 64fe 2dbc 14be 173e 276d a7bd
-0.15841815 0.14070764 0.008298705 -0.07234045 -0.035885986 -0.11649987 0.055328332 0.11507281
-0.115257636 0.14821671 0.04534421 -0.016642371 -0.15685883 0.20294774 -0.029889157 -0.059728038
0.113578126 0.1845454 0.20408776 0.038176145 -0.042708665 0.2058041 0.07253978 0.15870169
-0.18772973 0.030787794 0.19588897 0.07681629 0.002332385 0.053436026 -0.11311706 -0.18173487
-0.15186262 0.15288354 0.10676979 -0.06507255 -0.11290065 -0.111381784 0.02828597 -0.137065
0.17941754 0.10590997 -0.10555579 0.025693761 -0.18183336 -0.09719824 0.121300966 0.090326674
-0.21217439 0.0017441848 0.07133904 -0.12362032 0.21066022 -0.17553526 0.12788804 0.21449098
0.16793437 0.06257656 0.17482288 0.0028600357 0.08437566 -0.089233406 0.13940127 -0.07207905
0.01614329 -0.19213066 -0.09016516 0.21613911 0.17638527 0.16746709 -0.10149912 -0.0029325862
0.07484233 -0.10702433 0.022247719 0.07323468 0.035265137 -0.2014729 -0.07905827 0.012606529
0.21367475 0.13529801 0.16568668 -0.10254539 0.21570669 0.0072849314 0.089097954 0.13544916
-0.13192001 0.11464719 0.008888763 0.029132988 -0.07694968 0.20273095 0.12241496 0.07724329
-0.08960328 0.11182672 0.10525036 -0.05962031 0.107601225 0.070795074 0.0402429 -0.19686091
0.07771044 -0.012394245 -0.0012739602 -0.17161156 -0.050328787 -0.16474482 0.13325013 0.03882247
-0.12444001 0.06758385 -0.21153504 -0.05813858 -0.024426047 -0.1709509 -0.11462711 0.15665345
-0.09860008 -0.13640404 0.08218494 0.098286346 0.05231411 0.18631586 0.18158098 -0.10688859
-0.051873155 0.18594952 -0.0740453 0.14053474 0.053777512 -0.0121853165 0.11993177 0.19728039
0.1785259 -0.10022392 -0.0042497003 0.08544678 -0.096339114 -0.07168801 0.12678403 0.21640688
0.1191048 -0.10695348 -0.13212983 -0.08445347 0.13784307 -0.20398107 -0.14439197 -0.09813136
-0.09913091 0.11857826 0.14708999 0.1483639 0.20346056 -0.1226219 0.056997385 -0.1415103
-0.006492758 0.010865363 -0.14669944 0.11481262 0.09696061 0.032803755 0.0013258117 -0.09562391
0.024787845 -0.21496505 -0.06402848 0.17170274 -0.15857653 0.18496734 0.021878434 -0.17352745
0.13840485 0.060663555 0.18806939 0.03941472 0.079673156 0.10244907 -0.058648836 -0.18073785
0.018370192 0.11770466 0.00827638 -0.21252409 -0.10314203 -0.038014602 0.05078329 0.05408942
-0.039232403 0.012363712 -0.12047496 0.14619094 -0.115949176 0.0922691 -0.14487848 -0.06809163
0.14323102 0.20271216 -0.08172437 0.030772438 -0.21223424 -0.14200038 0.18835916 -0.08000409
0.20260666 0.094252154 0.1692832 -0.05036812 0.13460095 -0.18112603 0.06992519 0.054749373
0.07002768 0.14782923 -0.014438775 -0.20443194 -0.07399322 0.17448181 -0.08222167 0.082501546
-0.030775044 -0.07603553 0.010332421 0.15521161 -0.16437714 0.059979886 -0.06332695 0.18006623
-0.042519044 0.11527093 -0.015582836 -0.1469658 -0.19586119 -0.18011054 0.03540753 -0.18803035
-0.058468197 0.1780664 0.0062199254 0.16831498 0.0034116893 -0.07977033 -0.019274946 0.13870817
0.17325956 -0.19930843 -0.1304091 0.102217786 0.06173001 -0.0106197335 0.14818603 -0.08175116

layers.2.bias f4 [64]
00000000: 0000 0000 0000 0000 0000 0000 0000 0000
00000010: 0000 0000 0000 0000 0000 0000 0000 0000
00000020: 0000 0000 0000 0000 0000 0000 0000 0000
00000030: 0000 0000 0000 0000 0000 0000 0000 0000
00000040: 0000 0000 0000 0000 0000 0000 0000 0000
00000050: 0000 0000 0000 0000 0000 0000 0000 0000
00000060: 0000 0000 0000 0000 0000 0000 0000 0000
00000070: 0000 0000 0000 0000 0000 0000 0000 0000
00000080: 0000 0000 0000 0000 0000 0000 0000 0000
00000090: 0000 0000 0000 0000 0000 0000 0000 0000
000000a0: 0000 0000 0000 0000 0000 0000 0000 0000
000000b0: 0000 0000 0000 0000 0000 0000 0000 0000
000000c0: 0000 0000 0000 0000 0000 0000 0000 0000
000000d0: 0000 0000 0000 0000 0000 0000 0000 0000
000000e0: 0000 0000 0000 0000 0000 0000 0000 0000
000000f0: 0000 0000 0000 0000 0000 0000 0000 0000
0.0 0.0 0.0 0.0 0.0 0.0 0.0 0.0
0.0 0.0 0.0 0.0 0.0 0.0 0.0 0.0
0.0 0.0 0.0 0.0 0.0 0.0 0.0 0.0
0.0 0.0 0.0 0.0 0.0 0.0 0.0 0.0
0.0 0.0 0.0 0.0 0.0 0.0 0.0 0.0
0.0 0.0 0.0 0.0 0.0 0.0 0.0 0.0
0.0 0.0 0.0 0.0 0.0 0.0 0.0 0.0
0.0 0.0 0.0 0.0 0.0 0.0 0.0 0.0

output_layer.weight f4 [2, 64]
00000000: a3d7 f7bb 7324 f13d c10b 38be 8fa5 90be
00000010: 3bc8 553e a044 583e e661 40be ed2f ad3d
00000020: 5e2f 843e 991a 8bbe 2c9e 223e fac4 973e
00000030: 8178 8cbc 0c68 64be 8c8a dcbd eab9 1f3e
00000040: bcb2 61be a588 10be 7141 823d 2054 fa3b
00000050: 3ca3 a33c 1239 cdbc d19d 96be f3b4 debd
00000060: e01c 703e 76f2 e83d bea9 943c df56 0a3e
00000070: fd25 a13a 9e22 c83c 1667 fbbd 9a37 3abe
00000080: fb2e b5bd 2af8 3bbe 6c93 0bbe c957 4b3e
00000090: e60f 7abe 4d01 1ebe 4e14 e93d 5128 a7bd
000000a0: 5bf6 603e 8c4a a1bd 219d e6bb 1df9 1dbe
000000b0: 173d 4b3e 4c2a 86be bfbf 23be 8635 163e
000000c0: de26 8dbe c101 c0bd f75f 73bd 0408 1bbe
000000d0: 1090 953e 4ddd 0abe 7f83 983d 3d4d 5ebe
000000e0: 605d 5bbe d946 35be c827 d23d b08e 2fbe
000000f0: 3021 323e 6b85 0ebe 4ccb 45be f41a 863e
00000100: 1c02 47bd 3ae6 67bd d0b1 1c3e 0061 843e
00000110: 6e56 513e c91f 753e f8aa c43d f8f4 39be
00000120: b8a6 22bb e386 3e3e 5bcf 143c 18ff 3c3e
00000130: 9690 15bd 1355 02be 877a 983d c3e4 5b3e
00000140: 784e 003e 987f 773e a777 48be b0ee 11be
00000150: 726a 14be d202 96bd 724e 5dbe a94e 673e
00000160: a3d2 b13d 06df 82be 36e1 5c3d 32c2 40be
00000170: c96b ffbd 4222 173e bd68 363e c4e1 8abc
00000180: fc98 c1bd 36f8 a8bd 8dfb 113e ee69 5ebd
00000190: 5352 58bd 10b4 4e3e 6d65 59be de33 71bc
000001a0: 4134 97bd 7709 ad3d e023 32be 446d 383e
000001b0: 3667 a23d 2f54 423e 736a da3c 02dc 09be
000001c0: e608 403e ff3a 10be 2963 5bbd bcf0 163e
000001d0: e093 cabc e5d9 54be 3b3f 213e 86d2 313d
000001e0: 0614 74be fc8f a9b9 595e 063e 876f 50be
000001f0: e78b 353e 0337 4abe 2a66 8a3d 0134 1f3e
-0.0075635477 0.1177453 -0.17973234 -0.2825131 0.20877163 0.21119928 -0.18787345 0.08456407
0.25817388 -0.2716873 0.1588065 0.2964247 -0.017147304 -0.22305316 -0.10768613 0.15598264
-0.22040838 -0.14114626 0.06360138 0.007639423 0.019975297 -0.025051627 -0.2941728 -0.10874357
0.23448515 0.11374371 0.018147346 0.13509701 0.0012294647 0.02443057 -0.122755215 -0.18185273
-0.088468514 -0.18356386 -0.13630456 0.19857706 -0.24420127 -0.15430184 0.11380826 -0.081619866
0.21968977 -0.07875547 -0.007037774 -0.1542706 0.19847523 -0.26204145 -0.15991114 0.14668855
-0.27568716 -0.093753345 -0.05941769 -0.15139776 0.29211473 -0.13560982 0.07446956 -0.21709152
-0.21422338 -0.17702807 0.10261494 -0.17144275 0.17395473 -0.13918082 -0.19315833 0.2619244
-0.048585996 -0.056616046 0.15302205 0.25855255 0.20443127 0.23937906 0.09602922 -0.18159854
-0.002481861 0.18606143 0.0090826405 0.18456686 -0.03651484 -0.12727766 0.07445245 0.21473984
0.12529933 0.24169767 -0.19576894 -0.14251208 -0.1449373 -0.07324757 -0.21611956 0.225886
0.08682754 -0.25560778 0.053925715 -0.1882408 -0.1247173 0.14759162 0.17813392 -0.016953357
-0.094530076 -0.082504675 0.14256115 -0.05430024 -0.052812885 0.20185876 -0.21230097 -0.014721839
-0.073830135 0.08449071 -0.17396498 0.18010432 0.07929842 0.18977426 0.026662087 -0.13462833
0.18753394 -0.14085005 -0.053561363 0.1474027 -0.024728715 -0.20786245 0.15746777 0.04341366
-0.23835763 -0.0003234147 0.13121928 -0.20355044 0.1772915 -0.19747548 0.067577675 0.15547182

output_layer.bias f4 [2]
00000000: 0000 0000 0000 0000
0.0 0.0

layers.0.weight f4 [64, 4]
00000000: 634a 0abe 404d 3dbe 93a6 313e f990 83be
00000010: e07c 633e 5923 1b3e e72e 92bc 60c6 8e3e
00000020: b070 b93d 3819 9c3c 38ca eb3d b726 36bd
00000030: 9927 0fbe ad47 973e 817f 533e 96a0 4ebe
00000040: 9801 783e 5c4a 3ebe 9751 05be 6b90 36be
00000050: cd3d 04bd 2eb4 ecbd bd43 903e 0e78 20be
00000060: 3258 13be 3db2 3f3d f814 60be b019 4fbe
00000070: 2835 223d 18b1 6dbe 052f f9bd 30dc 5cbd
00000080: 4de5 13be cfb2 0c3e 992e 50be be64 b1bd
00000090: eee1 36be 9bac 88bd 72df 25be 675b 02bd
000000a0: 1b96 7b3e 7030 b83c edd1 d5bd 23a0 253d
000000b0: c7f7 823e 98cf 6bbe ad9d 2b3e 523d 4d3e
000000c0: 9fa5 453e 392f 063e 7887 82be 9912 babd
000000d0: b7cc 003e ae4e 2b3e 022f 753e bdb0 8a3e
000000e0: 27c5 883e 88c6 febd b09b 453e eac4 4a3e
000000f0: dc4c 6d3d 4d8d 483e 6add 073e 1a66 4fbd
00000100: 171f 91be 5f59 de3d d6de 683e a0e2 cebc
00000110: 11f3 503d 9041 e5bc b244 c73d 816e 57bd
00000120: 13d4 64be 9886 c4bd 9c2f 21bb 7590 3bbe
00000130: e2cc ce3d ae0f 283e 7776 863e 1d44 9fbd
00000140: 6726 72be 5650 973d 0f07 91be 9598 b4bd
00000150: f92d 123d 0397 773e 5c30 4e3e ee48 6bbe
00000160: 3b33 0c3d 82a5 8ebc 4cdf 793d 5a83 ec3d
00000170: c0aa 39be ea18 1ebd a2c1 6b3e 4886 50be
00000180: bc1e 45bd 457a 3b3e 0756 413e cd7a 82be
00000190: 12a4 673e dde8 0c3e 5f80 48be 5bac 783e
000001a0: 5cc6 703e 82e7 8dbe bf2e c8bd 6466 42bd
000001b0: 78d1 9f3c 8c2a d43c e55c af3c 54f5 753e
000001c0: ef81 08be a829 0a39 dbe4 523e 9d9b 01be
000001d0: 6f0c 92be b60b 93be 23fb 5e3e 4dd5 873e
000001e0: 74ee 18be 6220 8d3d c930 1c3e bdbb d63d
000001f0: 0558 5d3c a828 80be bb0d 92be 0b29 e9bd
00000200: 1842 7cbd 2a61 74bd aa10 6fbe 5bd4 1a3e
00000210: 5128 e43d 1d2d 9ebd 2da3 b13d 06d7 983d
00000220: ccc7 893d 806e 1ebd b51e 383e 7310 403e
00000230: 674b 063e 1df0 11bd a01f 1ebe 5650 1fbe
00000240: 432c f1bd 8eae 66bd 9157 febd 17c7 71be
00000250: 6ba1 ff3d f8d8 31be 185e 6bbd 22ff 0bbd
00000260: 30ce 103e ba77 f73d 7472 24bc b4d3 b73d
00000270: 7296 203d 5144 2fbd 4e33 33be 16f6 fcbd
00000280: e8f4 1bbe 3fa2 73be f746 f53d 2d96 553e
00000290: ab1c ecbd f57f f03d 2435 753e 8aeb 3d3d
000002a0: dcfa e13b b1f6 2cbe c054 60be 8921 663e
000002b0: 3e27 323e c05f 04be 837e 963d fb94 103d
000002c0: 1b71 87be fe27 523d c7b7 3dbd 24a0 8f3b
000002d0: 8640 a1bd 8671 843b d300 143e 7e4f b43a
000002e0: 6a93 70bd dec5 f8bd 099b 4e3e 8a94 043d
000002f0: 32e1 dd3d fd07 d63d b692 953e 19bf 3c3e
00000300: 3974 88bd 5f42 043e c4ff 6abe 1591 aabd
00000310: 231f 79be 95e7 883e 7394 9ebd 6be9 5bbe
00000320: c623 0cbe bca5 423d 06ae 003d 3b4b 1f3e
00000330: 32be 8ebe 5f9b 1e3e c14b f03d 6142 f53d
00000340: ca71 d2bd 3629 41be a883 6f3d 505d 61bd
00000350: 4e77 41bd 589a 1d3e ca88 5a3e 4755 02bd
00000360: 1243 053e b2d7 a2bd 85f3 583e 9935 093d
00000370: 265f d73d e6d8 093e 8663 95be f731 d1bd
00000380: d328 133d 2baf 2cbc 3a11 c8bd 8eee 72be
00000390: a9c4 19be e7cd 593e fae9 d8bc e417 e8bd
000003a0: 39fb 8cbe a132 0b3e 390f 113e 94b5 303d
000003b0: feec 29be ced9 0abe 4986 1bbe 3644 353e
000003c0: d4b3 1c3d 28be 67be 2959 2d3e 8dea 3c3e
000003d0: ed88 873e c2cf 883e 4cb2 91be dcb7 4b3e
000003e0: 9887 88be f8e4 8d3d 8b78 a43c 9e00 97bd
000003f0: 9896 833e cea0 a5bd 97d2 cc3d 4e90 613e
-0.13504939 -0.184865 0.173487 -0.25696543 0.22215605 0.15150203 -0.01784463 0.27885723
0.090546966 0.019054994 0.115131795 -0.044470515 -0.13979949 0.29546872 0.20654108 -0.20178446
0.24219358 -0.18583053 -0.13019405 -0.17828529 -0.0322855 -0.11557804 0.2817668 -0.15670797
-0.14389113 0.04680084 -0.21882999 -0.20224643 0.039601475 -0.23212087 -0.121671714 -0.053920925
-0.1444294 0.13740085 -0.20330276 -0.08661793 -0.17859623 -0.06673547 -0.16198519 -0.03182545
0.2456898 0.022484034 -0.10440431 0.04043592 0.25579664 -0.2302841 0.16759367 0.20042923
0.1930146 0.13103952 -0.2549398 -0.090855785 0.12578093 0.16729233 0.23943713 0.27087966
0.26712915 -0.124402106 0.19297671 0.19801679 0.057934627 0.19585152 0.13268057 -0.05063448
-0.28344032 0.1085689 0.22741255 -0.025254548 0.051013056 -0.027985364 0.097298995 -0.05259562
-0.22346525 -0.09595984 -0.0024595028 -0.18316825 0.10097672 0.16412231 0.26262257 -0.077766635
-0.23647462 0.0738837 -0.28325698 -0.08818165 0.035688374 0.241787 0.20135635 -0.22977039
0.034228545 -0.017412905 0.061003968 0.11548491 -0.18131542 -0.03859798 0.23023084 -0.20363724
-0.048125014 0.18308361 0.18880473 -0.25484315 0.22621182 0.13760705 -0.1958022 0.24284498
0.23513168 -0.2771569 -0.09774541 -0.04746093 0.019509062 0.025899194 0.0214066 0.24019367
-0.13330816 0.00013176224 0.20595114 -0.12657018 -0.2852511 -0.28719872 0.21775489 0.26529923
-0.14934713 0.06890942 0.15252985 0.10485027 0.013509755 -0.25031018 -0.285261 -0.113847815
-0.06158647 -0.059662975 -0.233462 0.1512007 0.11140502 -0.077234484 0.086737014 0.074628875
0.06727561 -0.0386796 0.17980464 0.18756275 0.13114701 -0.03562938 -0.15441751 -0.1555799
-0.117760204 -0.056318812 -0.12419046 -0.23611103 0.1248196 -0.17367923 -0.05746278 -0.03417886
0.14141154 0.12083383 -0.010037053 0.08975926 0.039205976 -0.04278976 -0.1750004 -0.12351625
-0.15230143 -0.2379236 0.11976426 0.20858069 -0.115289055 0.11743156 0.23946053 0.046367206
0.00689636 -0.1689098 -0.2190733 0.2247373 0.17397782 -0.1292715 0.07348349 0.03529833
-0.2645348 0.05130767 -0.04631784 0.004383104 -0.07873635 0.0040418534 0.1445344 0.0013756601
-0.058734335 -0.12147115 0.20176329 0.03236822 0.10833968 0.104507424 0.29213494 0.18432273
-0.06662793 0.12915944 -0.2294913 -0.083284535 -0.24328284 0.26739183 -0.07743158 -0.2147576
-0.13685521 0.047521338 0.03141596 0.15556042 -0.27879483 0.15488957 0.11733199 0.119755514
-0.1027561 -0.18863377 0.058475167 -0.05502063 -0.04723292 0.15390909 0.21341243 -0.031819608
0.13013867 -0.07951297 0.21186645 0.03349838 0.10516195 0.13461646 -0.29177493 -0.10214608
0.035927605 -0.01053981 -0.09768911 -0.23723814 -0.15016426 0.21269952 -0.026478756 -0.11332682
-0.27535418 0.13593532 0.14165963 0.043141916 -0.16594312 -0.13559648 -0.15187944 0.17701802
0.038257435 -0.22631133 0.16928543 0.18448849 0.26471654 0.26721007 -0.28456342 0.19894356
-0.2666595 0.06928438 0.02007701 -0.073731646 0.2570083 -0.08087312 0.10001104 0.22027704

layers.0.bias f4 [64]
00000000: 0000 0000 0000 0000 0000 0000 0000 0000
00000010: 0000 0000 0000 0000 0000 0000 0000 0000
00000020: 0000 0000 0000 0000 0000 0000 0000 0000
00000030: 0000 0000 0000 0000 0000 0000 0000 0000
00000040: 0000 0000 0000 0000 0000 0000 0000 0000
00000050: 0000 0000 0000 0000 0000 0000 0000 0000
00000060: 0000 0000 0000 0000 0000 0000 0000 0000
00000070: 0000 0000 0000 0000 0000 0000 0000 0000
00000080: 0000 0000 0000 0000 0000 0000 0000 0000
00000090: 0000 0000 0000 0000 0000 0000 0000 0000
000000a0: 0000 0000 0000 0000 0000 0000 0000 0000
000000b0: 0000 0000 0000 0000 0000 0000 0000 0000
000000c0: 0000 0000 0000 0000 0000 0000 0000 0000
000000d0: 0000 0000 0000 0000 0000 0000 0000 0000
000000e0: 0000 0000 0000 0000 0000 0000 0000 0000
000000f0: 0000 0000 0000 0000 0000 0000 0000 0000
0.0 0.0 0.0 0.0 0.0 0.0 0.0 0.0
0.0 0.0 0.0 0.0 0.0 0.0 0.0 0.0
0.0 0.0 0.0 0.0 0.0 0.0 0.0 0.0
0.0 0.0 0.0 0.0 0.0 0.0 0.0 0.0
0.0 0.0 0.0 0.0 0.0 0.0 0.0 0.0
0.0 0.0 0.0 0.0 0.0 0.0 0.0 0.0
0.0 0.0 0.0 0.0 0.0 0.0 0.0 0.0
0.0 0.0 0.0 0.0 0.0 0.0 0.0 0.0

layers.2.weight f4 [64, 64]
00000000: 2c32 c73d 16dd 5c3e f119 523e 93ae 94bc
00000010: 7c63 b3bd f79a 413e cd18 3e3e 9f3e 48be
00000020: f284 013d 41d3 7bbd ac59 063e a51a ae3b
00000030: f2d1 08be 4c3f ccbd 984a 2e3e 5f83 3c3e
00000040: 8cf5 943d 1b4d 32be f316 963d 209f 4b3e
00000050: 861e 1b3e 11e7 38be 20f6 473e 9b58 cfbd
00000060: 5e6d a9bd 370d a23d f3c3 4fbe 6730 cfbd
00000070: 2568 973d d872 33be 6be1 d63d 7539 40be
00000080: b13a 0fbe 3ca8 0c3e d389 e2bd 6bb3 55be
00000090: 4508 da3d a772 c23d b1bf 4e3e c19d 083e
000000a0: 150f 7dbd c326 0b3e 37a5 f03d 4eeb 31bc
000000b0: b077 96bd a903 12be 95c9 c53c 3ac4 503e
000000c0: f805 023e f62b 8ebd 11f2 733c 99c2 353e
000000d0: 39fa 8bbd 0a2f 1cbe 9b44 333e 12ab 293e
000000e0: cbc1 4e3e c352 45be b0cb 0c3e cdfc 4d3d
000000f0: 9cfc 2f3e cf22 b93d 7f0f 3c3e 0e7e 44be
00000100: 119e ecbd a504 023e 9410 063e f370 2f3e
00000110: b7f9 083e 5226 09bd 6dff bb3d fd78 07be
00000120: 4617 16bc 6a2f e13c c4da e9bc 44bd ab3d
00000130: f1c0 27be 1f0e 953d 0194 86bd ed00 173e
00000140: be65 8ebd 93ab 7fbd e236 c73d b3fa 9bba
00000150: cbb0 21bd 92d4 51be fa45 353e 4c59 da3d
00000160: e312 33be e8dc abbd 5cec 22be 990a 103e
00000170: b4ce 8dbc 410b 5b3e 2204 173e 3f77 9fbc
00000180: 3024 743d 6096 003e 1019 4cbe 98bd 6c3d
00000190: 3e11 32be 1524 52be 34dd 383d 086b 1d3e
000001a0: 64a8 87bd 46e4 11be 5b03 4ebe 03de 843b
000001b0: 10df 9fbd eb1e d4bd 05d8 713d 3b0b 913d
000001c0: 6416 0a3e ed83 7c3d 1c47 b8bc e36a 69bc
000001d0: 321c 33be 4e97 1a3e 1b76 d7bd 2644 b3bd
000001e0: acf4 83bc e8b7 73bd 52a5 003d df4b 27be
000001f0: c88f 493e 977f dfbc 4ffa 943d 0949 b43d
00000200: 49d4 49be 94b8 ed3d bb56 9fbd e9fc d5bd
00000210: c94a f83d ec8e 4dbe 2dbf 4ebe 6012 a33d
00000220: f19c c83d cb28 21be bd44 1f3e 42ed 833b
00000230: fb10 93bd e1a4 a0bd cb79 fabd fce5 d73d
00000240: f0da 2dbe 6faf 663d 1aaa 06be f7a7 e6bd
00000250: 448e 303e b37a 5a3e 059d cc3d 883c fcbd
00000260: aaf0 2ebe a76e 42be 47bd 1cbe ebdf 293e
00000270: 315d 0dbe bc4f 6d3d c820 883d 00ea fb3d
00000280: bc15 51be d912 3ebe 52b8 f23d 3a99 98bd
00000290: 9024 12be 7b3b 173e 5aad 51be d1b2 dbbd
000002a0: 36bb 943d a256 5a3d a1a0 af3d e421 393c
000002b0: 8ccf 1ebe 8890 453d d175 cc3c 5c76 1ebc
000002c0: 513c 47be be30 573e f503 11be 0b41 013e
000002d0: 282a 53be 85c4 d43d a279 51be 8a11 19bd
000002e0: 199d 493e e632 3abe b8f3 3cbe 148a 4ebe
000002f0: 3df7 363e ea27 2e3e 003a d53d 2690 aabd
00000300: 1f40 863d 00a8 3a3e 143f 80bd 26a8 4cbe
00000310: 450f ff3d cd7e 833d 32b8 48be 79a8 4cbe
00000320: 576c e0bd abdd 30be 0cb1 223e 4161 d2ba
00000330: a0a6 4dbe 9952 dc3d cc18 2cbe dd95 99bd
00000340: 51be 6dbc 7bec c03d c5dc 443e 6847 a83c
00000350: 85d2 0cbe 1204 2ebe f974 9fbc 0782 e23b
00000360: c16a 013e b55d fbbd 54ad d23d 9f61 d0bd
00000370: f0c8 24bd 4c76 8abd fca3 98bc 7bc6 163d
00000380: 37ee 9c3c d688 f2bd ea45 813c 8876 f2bc
00000390: 2fb3 1b3e 3930 683d 4b5a 5abe cb41 dabb
000003a0: 225b 18bd da62 7c3d 63f9 e4bd 0755 41bc
000003b0: 5b6d 72bd 44d0 d2bd e42f 3bbe 4d44 3e3c
000003c0: 7e72 e73d 5c0d b63d c0a2 23be a4bf 43be
000003d0: 5962 643d 0b08 543e 43f7 73bc dede 143e
000003e0: da69 cebd 96b7 943d f82e 2f3e d5e8 3c3e
000003f0: 9ec1 2cbe 1b46 3ebe 7913 44be 5538 3c3e
0.097263664 0.21568713 0.20517708 -0.01814965 -0.087592095 0.1890677 0.18564148 -0.19555138
0.031620927 -0.061480764 0.13120145 0.005313235 -0.13361338 -0.099730104 0.17020643 0.18409489
0.07273397 -0.17412226 0.07328596 0.1988492 0.15148363 -0.18056895 0.19527483 -0.10124322
-0.08272813 0.07912677 -0.20289592 -0.10116654 0.07392911 -0.17524278 0.10492214 -0.18771918
-0.13987233 0.13736051 -0.11061444 -0.20869224 0.106461085 0.094945244 0.20190312 0.13341428
-0.06178196 0.13589005 0.11750262 -0.010859324 -0.07347047 -0.14259209 0.024143973 0.20387354
0.1269759 -0.06941979 0.014889256 0.17750014 -0.068348356 -0.15252319 0.1750664 0.16569164
0.20191114 -0.19269852 0.13749576 0.050289918 0.17186207 0.09039842 0.18365286 -0.19188711
-0.11553586 0.12697084 0.13092262 0.1713293 0.13376509 -0.03348381 0.09179578 -0.13229747
-0.009160822 0.02748843 -0.028546698 0.08385709 -0.16382195 0.07278084 -0.06571198 0.14746447
-0.069529995 -0.062419485 0.09727265 -0.0011900276 -0.039475244 -0.20491245 0.17702475 0.10661563
-0.17487673 -0.08391744 -0.15910476 0.14066543 -0.017310478 0.21391012 0.1474767 -0.01946604
0.059604824 0.12557364 -0.19931436 0.057798 -0.1738939 -0.20521577 0.04513283 0.1537286
-0.06623915 -0.14247236 -0.20118468 0.004054786 -0.07806218 -0.1035746 0.059043903 0.0708222
0.13485104 0.06164925 -0.022494845 -0.014246675 -0.17491224 0.1509678 -0.10520574 -0.08753233
-0.01610788 -0.05950156 0.03140766 -0.16337536 0.19683754 -0.02728252 0.07274305 0.08802993
-0.19709887 0.11607471 -0.077802144 -0.104486294 0.12123639 -0.20074052 -0.20190115 0.07962489
0.09795559 -0.15738218 0.15553565 0.004026086 -0.07180973 -0.07843948 -0.122302614 0.10541913
-0.1697805 0.05631965 -0.13150826 -0.112625055 0.1724177 0.21335869 0.099908866 -0.12316233
-0.17083994 -0.18987523 -0.15306579 0.16589324 -0.13805081 0.05793737 0.066468775 0.12300491
-0.20418447 -0.18561877 0.118515626 -0.07451101 -0.1427176 0.14768784 -0.20476285 -0.10727466
0.0726227 0.053305276 0.085755594 0.011299584 -0.1550886 0.04823354 0.024958523 -0.009671774
-0.19456603 0.21014687 -0.14161666 0.12622468 -0.2062155 0.103890456 -0.20456555 -0.037370242
0.19688834 -0.18183479 -0.18452346 -0.2016986 0.17867751 0.17007414 0.10411453 -0.083282754
0.06555199 0.1822815 -0.06262031 -0.19986019 0.12454084 0.0642067 -0.19601515 -0.19986142
-0.10958164 -0.1727206 0.1588785 -0.0016050712 -0.20083094 0.10757942 -0.16806334 -0.07499287
-0.014510707 0.09420105 0.19224842 0.020541862 -0.13752182 -0.1699374 -0.019464957 0.006912473
0.1263838 -0.122737326 0.10286966 -0.1017487 -0.04023069 -0.067608446 -0.018632881 0.03681038
0.019156558 -0.11842506 0.015780408 -0.029597536 0.15205072 0.056686614 -0.21323507 -0.006660675
-0.037196286 0.06161771 -0.11180379 -0.011800057 -0.05918632 -0.1029363 -0.18279988 0.011612964
0.113011345 0.08889267 -0.15980053 -0.19116074 0.055757854 0.20706193 -0.014890495 0.14538142
-0.10078783 0.07261579 0.17107761 0.18448193 -0.16870734 -0.1858143 -0.19148053 0.18380864

layers.2.bias f4 [64]
00000000: 0000 0000 0000 0000 0000 0000 0000 0000
00000010: 0000 0000 0000 0000 0000 0000 0000 0000
00000020: 0000 0000 0000 0000 0000 0000 0000 0000
00000030: 0000 0000 0000 0000 0000 0000 0000 0000
00000040: 0000 0000 0000 0000 0000 0000 0000 0000
00000050: 0000 0000 0000 0000 0000 0000 0000 0000
00000060: 0000 0000 0000 0000 0000 0000 0000 0000
00000070: 0000 0000 0000 0000 0000 0000 0000 0000
00000080: 0000 0000 0000 0000 0000 0000 0000 0000
00000090: 0000 0000 0000 0000 0000 0000 0000 0000
000000a0: 0000 0000 0000 0000 0000 0000 0000 0000
000000b0: 0000 0000 0000 0000 0000 0000 0000 0000
000000c0: 0000 0000 0000 0000 0000 0000 0000 0000
000000d0: 0000 0000 0000 0000 0000 0000 0000 0000
000000e0: 0000 0000 0000 0000 0000 0000 0000 0000
000000f0: 0000 0000 0000 0000 0000 0000 0000 0000
0.0 0.0 0.0 0.0 0.0 0.0 0.0 0.0
0.0 0.0 0.0 0.0 0.0 0.0 0.0 0.0
0.0 0.0 0.0 0.0 0.0 0.0 0.0 0.0
0.0 0.0 0.0 0.0 0.0 0.0 0.0 0.0
0.0 0.0 0.0 0.0 0.0 0.0 0.0 0.0
0.0 0.0 0.0 0.0 0.0 0.0 0.0 0.0
0.0 0.0 0.0 0.0 0.0 0.0 0.0 0.0
0.0 0.0 0.0 0.0 0.0 0.0 0.0 0.0

output_layer.weight f4 [1, 64]
00000000: 711f 183e 98dc 4fbe 6275 cdbd c727 9dbc
00000010: 13c6 0fbd f5ab c1bd 4fe1 353e 9417 033e
00000020: 0a8a 983e aaa0 bfbd 74f4 10be b28b 8e3d
00000030: 45e4 48be 9a56 60bd 5bcc 503d 5553 943e
00000040: 09b3 613e 109c 473e f025 16be 349a 42be
00000050: 6077 c8bd 63c7 a0bd 2619 17be afb9 1c3d
00000060: 87a4 f3bd 5e73 d4bc 5872 883e aef5 8bbe
00000070: c9d1 463d 079c 41be f55d 1bbe d7a7 ae3d
00000080: 173f 7dbd fbbd 6f3d 2751 fbbd 565e 10be
00000090: 994e 99bd 7981 743e 56bb 203e fd80 453e
000000a0: 5186 213e cad8 26bd 69d8 763e 3782 b9bd
000000b0: 7e00 853e d556 3a3d ec27 51bd 9f7b 883d
000000c0: 25e9 9bbd 8345 bcbd c090 b5bd 4faf 08bd
000000d0: 9a74 82be ae46 a53c ab92 d03d 6806 51be
000000e0: f9d7 0fbe 626e a73d 7949 143e c6fe 5b3e
000000f0: 8246 c93d ffdf 1e3e 8930 383d b732 98bb
0.14855744 -0.20298994 -0.100321546 -0.019184006 -0.035101008 -0.09456626 0.1776173 0.12801963
0.29792815 -0.09356816 -0.14155751 0.069602385 -0.19618328 -0.05477009 0.05097614 0.28969827
0.22040953 0.19493127 -0.1466291 -0.19004136 -0.09788394 -0.0785053 -0.14755687 0.03826302
-0.118966155 -0.025933918 0.26649737 -0.27335876 0.04853991 -0.18907176 -0.1517256 0.08528107
-0.061827745 0.05853079 -0.12271338 -0.14098486 -0.074856944 0.23877515 0.15696463 0.19287486
0.15773894 -0.04073409 0.24105991 -0.0905804 0.25976938 0.045492966 -0.051063463 0.06664204
-0.07612828 -0.09192946 -0.088654995 -0.033370312 -0.25479585 0.020175304 0.10184225 -0.204126
-0.14047231 0.08175351 0.14481153 0.21483907 0.098279014 0.15515135 0.04496816 -0.0046447176

weight f4 [64, 4]
00000000: fa6f 133e 8073 823b d9ed 40bc 0800 37be
00000010: bb8b 0c3e 5397 3ebe 2a44 203d 04d9 82bc
00000020: 2847 633e d50a 89be 411c 073e 545e 973e
00000030: 423b 213e 35d8 34be fcf9 423c 2fdf 7fbe
00000040: 9c1e 9abd 2bab 41be 3d59 3a3d 6bad 933d
00000050: c7a5 213e a43f 9e3d 4252 73bd c557 453d
00000060: d515 58be 1ab7 15bd e046 953d e367 4ebe
00000070: 00a5 25bc f722 27be c8f5 24bd 18c8 d3bd
00000080: 583a 4cbe 8849 95be 0d88 763e 95f7 4e3e
00000090: fcf8 3ebe 2c80 933e de60 85bc 6243 bb3c
000000a0: f8b3 78be fb23 98bd 2245 153e 74e0 923e
000000b0: dbe4 81be 4a5b 34be 7f33 24be ad5c b33d
000000c0: b711 183e 10ba 8ebe 8a73 b6bc cfbb b2bb
000000d0: 9072 9a3d 7262 84be e607 85be 8c60 75bd
000000e0: 3d6b 143e a65e 80be b42f 453c 636c 25be
000000f0: 9ebd 5a3e 4eb2 573d 9dfa 4abe de41 7dbe
00000100: 9722 843e 7f6e aa3d b357 343e 4ac3 ecbb
00000110: ef99 8e3e a13b 11be 8ee7 96bd 3cfb 133e
00000120: 574d 8fbc 0028 a5bd 7c68 8e3d 44a5 0fbe
00000130: c26d 773e 7255 c0bd 4025 b6bd 1bcc 87be
00000140: 8a61 c43d 1a11 87be d6c5 8c3e 2330 1f3e
00000150: 21e9 3cbe 3745 6cbe c83c 0fbc f4dd acbd
00000160: c86c 293e d343 3e3e cd2c 93be 0475 583b
00000170: cd55 c53d 8110 53bc 1d36 7b3e f940 18be
00000180: 5900 693d 6d8c b9bd 9b0d bebd 5d8b 8a3e
00000190: 9554 8e3d 9b09 983e 3993 77bd a004 80be
000001a0: dac4 223d 065b 583c d42d a13d d93f 183d
000001b0: 91a9 ff3d 71d5 6bbe 0deb 69bd 5592 23bb
000001c0: ddaa 65bc a327 40be 8674 dbbd 7a22 8e3e
000001d0: a49e 673e 61c6 2ebe ea0a 863e d568 913e
000001e0: 3825 47be c2b7 233a 992e 1c3e fa3e 223e
000001f0: de4d 34be e1f7 6bbe b8bb 913e 1ee3 65bd
00000200: 0782 05bd c60c 01be 20bd f7bd b00c 913d
00000210: 2edf 59be fc66 4c3e d7a9 0dbd 2724 273e
00000220: d2f0 573e 69ab 703e 878d 0abe e15a 42be
00000230: 3024 12be 13d0 90be 0bb2 d2bc 1ec3 21be
00000240: 7871 2cbe 8599 003e 9581 893e 8e8b 0bbe
00000250: 0072 753e e544 533e 8b78 80be 9c30 69be
00000260: a4e0 a83c b474 86be 888a 43be 49b2 c7bc
00000270: 1094 843e c999 f53d d7a8 cbbc cd2e 29bd
00000280: 7bf4 3c3e 9d4e 313e 3ac4 873e ea2c 273d
00000290: f43e 413e 0caf 3fbe 4b61 2a3e 3a1f 5dbe
000002a0: bc83 953d 2df3 653e bab8 dc3d cc70 89be
000002b0: 9618 0a3e d456 193e b6aa bdbd 812a 3bbe
000002c0: c6f3 0b3d a623 5f3e 56f4 90be d23d 8bbe
000002d0: 5ee2 87be 6c85 e93d edeb 9ebd 6959 483e
000002e0: cdff 1bbe 4d05 74be 07c9 613e 0213 d33d
000002f0: 01f8 0bbc 3d71 913c b945 91bc e09a ccbd
00000300: 86d1 5ebe 7ff0 1b3e fbe8 833e 9a7d 0fbe
00000310: 1cc9 87be 7767 8ebd 66cd 25bc b69c 3dbd
00000320: cdde 893d 2a7f 653d aab8 8f3d 583a 083e
00000330: c51f 2cbd 9654 833e c218 7f3e 1be6 87be
00000340: bb70 0dbd 5b44 8fbb 2cce 883d 3f7e 0d3d
00000350: efbe 70bd 09ef a6bd fc5d e63c c090 24bc
00000360: 60de 99bc 14f2 f03d ddc4 493e 67f9 9a3d
00000370: 33cf 823e 6944 1fbe 9644 f63d 15de 4f3e
00000380: 9648 853d dc1a 613e 8712 133e 791e d63d
00000390: dc74 4d3e f75b 953d b90f 89be a904 fdbd
000003a0: a40e 5fbd 8918 6abe f4f9 1b3e cab1 55be
000003b0: fe17 903e 69d8 3a3d b3bf 84be 1342 b3bb
000003c0: 4ffd d13d 5792 113e 679f 253e f396 253e
000003d0: 9aea 6abe b56e 823e 8711 8b3e bee6 323e
000003e0: 891c 093d eef4 723e 1d77 873e aa63 7dbe
000003f0: a193 68bd 3507 3cbd 9d71 80bc 3e2d 7d3e
0.14398184 0.003981054 -0.011775457 -0.17871106 0.13725178 -0.18612413 0.039127506 -0.015972622
0.22195113 -0.26766077 0.13194372 0.29564154 0.15745261 -0.17660601 0.011900421 -0.24987482
-0.075253695 -0.18912952 0.04549526 0.07210811 0.15785895 0.07726982 -0.05940462 0.048179407
-0.21102078 -0.036551572 0.07288909 -0.20156817 -0.01011014 -0.16321932 -0.040273458 -0.10340899
-0.19944131 -0.29157662 0.24075337 0.20211633 -0.18649668 0.28808725 -0.016281541 0.022859279
-0.24287403 -0.07428738 0.14577153 0.2868687 -0.25369915 -0.17612949 -0.16035269 0.08757911
0.14850508 -0.2787633 -0.02227189 -0.0054545174 0.07541382 -0.25856358 -0.2598259 -0.059906527
0.14494033 -0.2507221 0.012035299 -0.16154628 0.21361396 0.05266028 -0.19822164 -0.24732158
0.2580764 0.08321857 0.1761158 -0.0072254287 0.27851817 -0.14182903 -0.07368384 0.14451307
-0.017492933 -0.0806427 0.069535226 -0.14027888 0.24162963 -0.093912974 -0.088938236 -0.26522908
0.095889166 -0.26380235 0.27494687 0.15545706 -0.18448307 -0.23073278 -0.008742519 -0.08440772
0.16545403 0.1858056 -0.28745118 0.003302873 0.09635506 -0.012882353 0.24532361 -0.14868535
0.056885097 -0.09059987 -0.09279939 0.2705945 0.069497265 0.29694828 -0.060443137 -0.2500353
0.039738514 0.013205295 0.07870069 0.037170265 0.12483514 -0.2303064 -0.057108928 -0.0024959047
-0.014017788 -0.1876512 -0.107155845 0.2776068 0.2261911 -0.17067863 0.26180202 0.28400293
-0.19447792 0.00062453386 0.1525215 0.15844336 -0.17607829 -0.23043777 0.2846353 -0.0561248
-0.032594707 -0.12602529 -0.120966196 0.07082498 -0.21276543 0.1996116 -0.0345858 0.16322385
0.2108796 0.23502888 -0.13530551 -0.1897998 -0.14271617 -0.28283748 -0.025719663 -0.15797088
-0.1684016 0.12558563 0.26856676 -0.13627455 0.23969269 0.2063175 -0.25091967 -0.2277245
0.02061493 -0.26260912 -0.19095814 -0.024377005 0.25894213 0.11992223 -0.024860783 -0.0413044
0.18452637 0.17315145 0.26516896 0.040814318 0.18871671 -0.18719119 0.16638677 -0.21593943
0.07300517 0.22456045 0.10777421 -0.2684387 0.13485941 0.14974529 -0.09261076 -0.18277933
0.034168027 0.21790943 -0.28311414 -0.27195603 -0.26539892 0.11402401 -0.07759843 0.19565357
-0.15234299 -0.23830147 0.22049342 0.1030636 -0.008543015 0.017754192 -0.017733442 -0.099904776
-0.21759614 0.1522846 0.25763687 -0.14012757 -0.26520622 -0.06953328 -0.010119772 -0.04629203
0.06731949 0.056029476 0.07017644 0.13303506 -0.042022485 0.2565047 0.24911788 -0.26542744
-0.034531336 -0.0043721623 0.06679949 0.034544226 -0.05877584 -0.08151061 0.028120987 -0.010044277
-0.018782794 0.11764923 0.19704004 0.07567101 0.25548705 -0.1555344 0.120248005 0.20299561
0.06507985 0.21982902 0.14362536 0.10455031 0.2006411 0.072929315 -0.26769808 -0.123544045
-0.05445732 -0.22860922 0.15232068 -0.20868602 0.28143305 0.04561654 -0.25927505 -0.005470523
0.10253393 0.1421598 0.16174088 0.16170864 -0.22941056 0.25475088 0.2716181 0.17470834
0.03347448 0.23726246 0.26458064 -0.2474505 -0.056781415 -0.04590531 -0.015679175 0.2472429

bias f4 [64]
00000000: 0000 0000 0000 0000 0000 0000 0000 0000
00000010: 0000 0000 0000 0000 0000 0000 0000 0000
00000020: 0000 0000 0000 0000 0000 0000 0000 0000
00000030: 0000 0000 0000 0000 0000 0000 0000 0000
00000040: 0000 0000 0000 0000 0000 0000 0000 0000
00000050: 0000 0000 0000 0000 0000 0000 0000 0000
00000060: 0000 0000 0000 0000 0000 0000 0000 0000
00000070: 0000 0000 0000 0000 0000 0000 0000 0000
00000080: 0000 0000 0000 0000 0000 0000 0000 0000
00000090: 0000 0000 0000 0000 0000 0000 0000 0000
000000a0: 0000 0000 0000 0000 0000 0000 0000 0000
000000b0: 0000 0000 0000 0000 0000 0000 0000 0000
000000c0: 0000 0000 0000 0000 0000 0000 0000 0000
000000d0: 0000 0000 0000 0000 0000 0000 0000 0000
000000e0: 0000 0000 0000 0000 0000 0000 0000 0000
000000f0: 0000 0000 0000 0000 0000 0000 0000 0000
0.0 0.0 0.0 0.0 0.0 0.0 0.0 0.0
0.0 0.0 0.0 0.0 0.0 0.0 0.0 0.0
0.0 0.0 0.0 0.0 0.0 0.0 0.0 0.0
0.0 0.0 0.0 0.0 0.0 0.0 0.0 0.0
0.0 0.0 0.0 0.0 0.0 0.0 0.0 0.0
0.0 0.0 0.0 0.0 0.0 0.0 0.0 0.0
0.0 0.0 0.0 0.0 0.0 0.0 0.0 0.0
0.0 0.0 0.0 0.0 0.0 0.0 0.0 0.0

weight f4 [64, 64]
00000000: 5e38 22be aa15 103e 4bf7 073c 3b27 94bd
00000010: 2ffd 12bd 7c97 eebd f69f 623d 4bab eb3d
00000020: 320c ecbd 1fc6 173e daba 393d 9555 88bc
00000030: 9a9f 20be 88d1 4f3e 1bda f4bc 63a5 74bd
00000040: a69b e83d 78f9 3c3e 62fc 503e 975e 1c3d
00000050: 48ef 2ebd 4fbe 523e bc8f 943d b282 223e
00000060: 393c 40be af36 fc3c 1e97 483e dc51 9d3d
00000070: edda 183b bcdf 5a3d eba9 e7bd b518 3abe
00000080: e081 1bbe 818d 1c3e 1faa da3d c244 85bd
00000090: 7538 e7bd 221c e4bd fbb7 e73c c45a 0cbe
000000a0: 3bb9 373e 54e7 d83d a22d d8bd b97b d23c
000000b0: 8632 3abe df0f c7bd a46c f83d 31fd b83d
000000c0: 3e44 59be 219d e43a 341a 923d a62c fdbd
000000d0: 50b7 573e 84bf 33be 15f5 023e 86a3 5b3e
000000e0: fdf6 2b3e 2428 803d c504 333e 706f 3b3b
000000f0: 25cd ac3d 01c0 b6bd 35bf 0e3e 2e9e 93bd
00000100: ef3e 843c e6bd 44be 83a8 b8bd 9253 5d3e
00000110: 579e 343e 7e7c 2b3e c5de cfbd a230 40bb
00000120: ef46 993d 922f dbbd d940 b63c 10fc 953d
00000130: 2d72 103d e94e 4ebe 4de9 a1bd 9d8b 4e3c
00000140: 8ecd 5a3e 908b 0a3e c5a9 293e 5103 d2bd
00000150: 37e2 5c3e 6fb6 ee3b fd78 b63d 2fb3 0a3e
00000160: 0a16 07be 25cc ea3d 2da2 113c 4ea8 ee3c
00000170: cb97 9dbd b498 4f3e b2b4 fa3d bb31 9e3d
00000180: ed81 b7bd 6805 e53d 808d d73d 6d34 74bd
00000190: 085e dc3d 02fd 903d bdd5 243d e895 49be
000001a0: a726 9f3d 3b11 4bbc 03fb a6ba f1ba 2fbe
000001b0: 8f25 4ebd deb2 28be b972 083e 4f04 1f3d
000001c0: 67da febd 6769 8a3d a49c 58be b822 6ebd
000001d0: 2219 c8bc c10d 2fbe 9ec1 eabd c369 203e
000001e0: d7ee c9bd 80ad 0bbe 9450 a83d 5a4a c93d
000001f0: 5247 563d 96c9 3e3e 5df0 393e 68e8 dabd
00000200: f278 54bd 8d69 3e3e 10a5 97bd 57e8 0f3e
00000210: cf45 5c3d eca4 47bc ca9e f53d df03 4a3e
00000220: 7ecf 363e 3342 cdbd 1241 8bbb b9fe ae3d
00000230: 714d c5bd 2ad1 92bd acd3 013e c499 5d3e
00000240: 38ed f33d 6d0a dbbd 0b4d 07be f1f5 acbd
00000250: bc26 0d3e 6ae0 50be 7ddb 13be 18f9 c8bd
00000260: 2605 cbbd 29d9 f23d c29e 163e b5ec 173e
00000270: f757 503e 3121 fbbd 1776 693d 13e8 10be
00000280: 34c1 d4bb a304 323c 6138 16be e122 eb3d
00000290: 4993 c63d 3b5d 063d dcc6 ad3a 78d6 c3bd
000002a0: e10f cb3c cc1f 5cbe 5d21 83bd d8d2 2f3e
000002b0: e361 22be 1468 3d3e 673a b33c 2eb1 31be
000002c0: 00ba 0d3e 597a 783d 4395 403e 5471 213d
000002d0: ae2b a33d d1d0 d13d c339 70bd 5813 39be
000002e0: 167d 963c 240f f13d a799 073c ea9f 59be
000002f0: 213c d3bd 33b5 1bbd 2402 503d de8c 5d3d
00000300: 28b2 20bd 2b91 4a3c 93bb f6bd 14b3 153e
00000310: c376 edbd 95f7 bc3d 065b 14be a073 8bbd
00000320: 27ab 123e c793 4f3e 1b5f a7bd 7b16 fc3c
00000330: ef53 59be 8c68 11be 39e1 403e 2fd9 a3bd
00000340: 1f78 4f3e 4607 c13d 9358 2d3e cd4e 4ebd
00000350: d5d4 093e 1a79 39be f034 8f3d e140 603d
00000360: ac6a 8f3d 8c60 173e 9d90 6cbc 9b56 51be
00000370: c289 97bd 5cab 323e d663 a8bd 92f6 a83d
00000380: f21b fcbc 84b8 9bbd 5149 293c cbef 1e3e
00000390: 7b52 28be 78ad 753d 8fb1 81bd 4863 383e
000003a0: 7328 2ebd 2a13 ec3d 274f 7fbc 347e 16be
000003b0: d68f 48be e66e 38be 7c07 113d 078b 40be
000003c0: 597c 6fbd 0a57 363e 84d0 cb3b c35a 2c3e
000003d0: a696 5f3b a05e a3bd 7ee6 9dbc 8409 0e3e
000003e0: f46a 313e 8217 4cbe f789 05be 8f57 d13d
000003f0: 9bd8 7c3d 64fe 2dbc 14be 173e 276d a7bd
-0.15841815 0.14070764 0.008298705 -0.07234045 -0.035885986 -0.11649987 0.055328332 0.11507281
-0.115257636 0.14821671 0.04534421 -0.016642371 -0.15685883 0.20294774 -0.029889157 -0.059728038
0.113578126 0.1845454 0.20408776 0.038176145 -0.042708665 0.2058041 0.07253978 0.15870169
-0.18772973 0.030787794 0.19588897 0.07681629 0.002332385 0.053436026 -0.11311706 -0.18173487
-0.15186262 0.15288354 0.10676979 -0.06507255 -0.11290065 -0.111381784 0.02828597 -0.137065
0.17941754 0.10590997 -0.10555579 0.025693761 -0.18183336 -0.09719824 0.121300966 0.090326674
-0.21217439 0.0017441848 0.07133904 -0.12362032 0.21066022 -0.17553526 0.12788804 0.21449098
0.16793437 0.06257656 0.17482288 0.0028600357 0.08437566 -0.089233406 0.13940127 -0.07207905
0.01614329 -0.19213066 -0.09016516 0.21613911 0.17638527 0.16746709 -0.10149912 -0.0029325862
0.07484233 -0.10702433 0.022247719 0.07323468 0.035265137 -0.2014729 -0.07905827 0.012606529
0.21367475 0.13529801 0.16568668 -0.10254539 0.21570669 0.0072849314 0.089097954 0.13544916
-0.13192001 0.11464719 0.008888763 0.029132988 -0.07694968 0.20273095 0.12241496 0.07724329
-0.08960328 0.11182672 0.10525036 -0.05962031 0.107601225 0.070795074 0.0402429 -0.19686091
0.07771044 -0.012394245 -0.0012739602 -0.17161156 -0.050328787 -0.16474482 0.13325013 0.03882247
-0.12444001 0.06758385 -0.21153504 -0.05813858 -0.024426047 -0.1709509 -0.11462711 0.15665345
-0.09860008 -0.13640404 0.08218494 0.098286346 0.05231411 0.18631586 0.18158098 -0.10688859
-0.051873155 0.18594952 -0.0740453 0.14053474 0.053777512 -0.0121853165 0.11993177 0.19728039
0.1785259 -0.10022392 -0.0042497003 0.08544678 -0.096339114 -0.07168801 0.12678403 0.21640688
0.1191048 -0.10695348 -0.13212983 -0.08445347 0.13784307 -0.20398107 -0.14439197 -0.09813136
-0.09913091 0.11857826 0.14708999 0.1483639 0.20346056 -0.1226219 0.056997385 -0.1415103
-0.006492758 0.010865363 -0.14669944 0.11481262 0.09696061 0.032803755 0.0013258117 -0.09562391
0.024787845 -0.21496505 -0.06402848 0.17170274 -0.15857653 0.18496734 0.021878434 -0.17352745
0.13840485 0.060663555 0.18806939 0.03941472 0.079673156 0.10244907 -0.058648836 -0.18073785
0.018370192 0.11770466 0.00827638 -0.21252409 -0.10314203 -0.038014602 0.05078329 0.05408942
-0.039232403 0.012363712 -0.12047496 0.14619094 -0.115949176 0.0922691 -0.14487848 -0.06809163
0.14323102 0.20271216 -0.08172437 0.030772438 -0.21223424 -0.14200038 0.18835916 -0.08000409
0.20260666 0.094252154 0.1692832 -0.05036812 0.13460095 -0.18112603 0.06992519 0.054749373
0.07002768 0.14782923 -0.014438775 -0.20443194 -0.07399322 0.17448181 -0.08222167 0.082501546
-0.030775044 -0.07603553 0.010332421 0.15521161 -0.16437714 0.059979886 -0.06332695 0.18006623
-0.042519044 0.11527093 -0.015582836 -0.1469658 -0.19586119 -0.18011054 0.03540753 -0.18803035
-0.058468197 0.1780664 0.0062199254 0.16831498 0.0034116893 -0.07977033 -0.019274946 0.13870817
0.17325956 -0.19930843 -0.1304091 0.102217786 0.06173001 -0.0106197335 0.14818603 -0.08175116

bias f4 [64]
00000000: 0000 0000 0000 0000 0000 0000 0000 0000
00000010: 0000 0000 0000 0000 0000 0000 0000 0000
00000020: 0000 0000 0000 0000 0000 0000 0000 0000
00000030: 0000 0000 0000 0000 0000 0000 0000 0000
00000040: 0000 0000 0000 0000 0000 0000 0000 0000
00000050: 0000 0000 0000 0000 0000 0000 0000 0000
00000060: 0000 0000 0000 0000 0000 0000 0000 0000
00000070: 0000 0000 0000 0000 0000 0000 0000 0000
00000080: 0000 0000 0000 0000 0000 0000 0000 0000
00000090: 0000 0000 0000 0000 0000 0000 0000 0000
000000a0: 0000 0000 0000 0000 0000 0000 0000 0000
000000b0: 0000 0000 0000 0000 0000 0000 0000 0000
000000c0: 0000 0000 0000 0000 0000 0000 0000 0000
000000d0: 0000 0000 0000 0000 0000 0000 0000 0000
000000e0: 0000 0000 0000 0000 0000 0000 0000 0000
000000f0: 0000 0000 0000 0000 0000 0000 0000 0000
0.0 0.0 0.0 0.0 0.0 0.0 0.0 0.0
0.0 0.0 0.0 0.0 0.0 0.0 0.0 0.0
0.0 0.0 0.0 0.0 0.0 0.0 0.0 0.0
0.0 0.0 0.0 0.0 0.0 0.0 0.0 0.0
0.0 0.0 0.0 0.0 0.0 0.0 0.0 0.0
0.0 0.0 0.0 0.0 0.0 0.0 0.0 0.0
0.0 0.0 0.0 0.0 0.0 0.0 0.0 0.0
0.0 0.0 0.0 0.0 0.0 0.0 0.0 0.0
