experiments/ppo_pendulum_first_try_20250829_064632/checkpoints/error.pt (torch, 220163 bytes, 22 tensors)

shared_layers.0.weight f4 [64, 3]
000000 67 df 67 be 1f cc 74 3e b9 0e 3b 3e f6 c2 b5 3d
       -0.22643815 0.23905991 0.18267335 0.088750765
000010 77 15 b1 3d db db cd bc fd e0 72 3d e8 7c 17 be
       0.08646672 -0.02512925 0.059296597 -0.14793742
000020 97 dc 12 bd 2d 9a 75 be c3 18 54 be f5 3d 67 3c
       -0.035854902 -0.23984595 -0.20712571 0.014113893
000030 55 dd bf bd 31 7e 70 be 71 fb cc 3d cc 40 54 3e
       -0.093683876 -0.23485638 0.10008896 0.20727843
000040 88 8f 74 3e f0 59 12 3d 7a d5 03 be 70 a5 b4 bd
       0.23882878 0.035730302 -0.12874404 -0.08820617
000050 7e 2a c7 b9 10 72 29 be 29 41 d3 be 59 50 dc be
       -0.00037987897 -0.16547418 -0.4126065 -0.4303005
000060 22 27 43 3e a8 54 06 be 49 2c 95 3d 93 ca 0e be
       0.19057897 -0.13118231 0.07283837 -0.13944463
000070 5d ea 36 be d4 97 80 bd a3 cc 96 bd b0 d3 9b bd
       -0.1786284 -0.06278959 -0.0736325 -0.076087356
000080 35 27 d4 bd 09 cd 44 bd d5 f5 08 3f 0b fd 7e bd
       -0.10359041 -0.0480471 0.5350011 -0.06225304
000090 1b 9c e8 3d d3 6e 2d be 7e 79 41 be d7 22 18 be
       0.113579 -0.16936807 -0.18894002 -0.1485704
0000a0 f9 62 2c 3e 27 4a 33 3e ea 6a 9e bd c3 fe 32 3d
       0.1683463 0.17508756 -0.07735236 0.04369999
0000b0 d1 5e fc bd 38 c2 21 3e b2 11 4f 3d 56 f3 b4 3d
       -0.12322772 0.15796745 0.050553985 0.08835475
0000c0 1d 4a 4f be 12 92 bd 3d e5 a8 8b bb 8f b7 4a 3e
       -0.20243116 0.09256376 -0.004262077 0.19796585
0000d0 be 40 d2 bc a6 38 ff 3d 5d 9f 03 3e 1f 1f 2a bd
       -0.025665637 0.12461977 0.12853761 -0.041533586
0000e0 47 6a 3c 3e 39 c7 92 be fd 56 46 3d ce 15 06 bd
       0.18399917 -0.2866762 0.048422802 -0.03273564
0000f0 74 a1 03 bb 9b 77 cc 3d 8b 7f f0 bb 07 d9 ce bd
       -0.0020085247 0.099837504 -0.007339423 -0.100999884
000100 7a 3c 8f be 09 58 39 3e 28 6e d4 bb 6e cd 10 3c
       -0.27975827 0.18099989 -0.006482858 0.008838041
000110 07 08 c7 be f6 cb ff 3c ec 6b 71 3d 6c 83 6b be
       -0.38873312 0.031225186 0.058940813 -0.22999352
000120 9e f2 e3 bc 92 3a c3 bd c8 f3 8c bd c0 ff 3e 3e
       -0.02782565 -0.09532656 -0.06882435 0.18652248
000130 e8 5e 93 3d 8b e5 55 3d d6 bf c8 bc 7c 6b a1 be
       0.07195836 0.052220862 -0.024505537 -0.31527317
000140 ef 90 1a be 4c d4 de 3d bd 5f c0 3c 67 96 da bd
       -0.1509435 0.10880336 0.023483152 -0.10673218
000150 d6 07 a3 be a4 5e a5 bd a3 30 c0 bc 55 64 85 3e
       -0.31841916 -0.08074692 -0.023460692 0.2605311
000160 27 4b de bc 01 be 7b 3e 81 67 51 3d 01 78 a6 3b
       -0.027135445 0.245842 0.0511241 0.0050802235
000170 44 37 55 be 9d 6b 21 be 03 f2 19 3d b5 f2 e6 3b
       -0.20821863 -0.15763707 0.037584316 0.007047976
000180 5e 3a 6e 3d 4d af df bd 25 99 a1 3e e7 8f f3 be
       0.058161132 -0.10922108 0.31562153 -0.47570726
000190 a8 20 98 bd 76 7a f3 3d 06 a1 80 bd d3 12 fd 3d
       -0.07428104 0.11888592 -0.06280713 0.12357106
0001a0 70 49 a8 3e 2a 23 b9 3d 36 6b 0d be c5 cf bc 3d
       0.32868528 0.0903991 -0.13810429 0.092193164
0001b0 8a 88 97 3e d5 8b 53 3c f5 68 a2 3d 34 f8 d5 bd
       0.2959636 0.0129117565 0.07930175 -0.104477316
0001c0 21 60 69 3c 23 8d 96 bd 08 59 9f 3e d5 e7 89 3d
       0.01424411 -0.073511384 0.31122613 0.067336716
0001d0 dc de ad bd ad c7 20 be 27 60 9e be ac 79 ae bd
       -0.08489773 -0.1570117 -0.30932733 -0.08519301
0001e0 51 b4 8a 3d f2 f3 5b bb 83 6b 5c bc 42 85 f4 3c
       0.06772674 -0.003356215 -0.013453367 0.029848699
0001f0 ce f2 bd 3d ec 93 f4 bd 50 ea ca bd 6a 51 11 be
       0.09274827 -0.11942276 -0.09907973 -0.14191213
000200 50 ba ba 3e a7 7f 13 3e ce f9 81 3d df 40 06 be
       0.3647027 0.14404164 0.063464746 -0.13110684
000210 46 5a d7 be 62 55 e5 bd 07 af 44 bd 01 52 a9 3d
       -0.4206106 -0.11197926 -0.04801848 0.08267594
000220 2a 7f d1 3e 75 db 1c be cd 10 2c be e0 b4 cf 3e
       0.4091733 -0.15318091 -0.16803284 0.40567684
000230 90 bf e8 bc 36 00 f3 3d e7 59 f1 bd c2 8c 74 bc
       -0.028411657 0.118652746 -0.11784726 -0.014926137
000240 40 a8 28 be de 22 42 3d 00 c8 85 bc 74 63 1c 3e
       -0.16470432 0.047396533 -0.016330719 0.15272313
000250 67 0d 99 bc 3c 7a 47 be d8 b4 bc be 5e f5 2c 3e
       -0.018683149 -0.19480222 -0.36856723 0.16890475
000260 41 4b ad bd d0 42 17 3e 8e 38 09 be e0 cc 3b be
       -0.08461619 0.1477158 -0.1340048 -0.18339872
000270 b4 68 3d 3e 21 a0 27 be 47 f4 4f 3e ef 0f 14 be
       0.18496972 -0.16369678 0.20308028 -0.14459203
000280 b6 69 e8 3d 23 b7 79 3e 3e ed 95 3e 9a c4 b6 be
       0.11348288 0.24386267 0.29282564 -0.3569687
000290 ec b1 0e be d6 e3 48 be c5 9e e6 bd 2c 71 fe 3d
       -0.1393506 -0.19618163 -0.11260752 0.124239296
0002a0 8b 8e 32 be 0f 64 e4 3d d6 7d c1 bc d0 c4 0c be
       -0.17437188 0.11151897 -0.023619574 -0.13746953
0002b0 e6 70 05 3e eb 30 be be 69 20 1a be e4 57 ce bc
       0.13031349 -0.37146696 -0.15051426 -0.025188394
0002c0 a2 d0 93 3e 7a 4d 26 be 4a 5b 03 be 98 b8 8b be
       0.28870112 -0.16240492 -0.12827793 -0.2728927
0002d0 fa ed e3 bc b5 f5 10 3e fa 07 62 be 18 8c 7f 3c
       -0.027823437 0.1415623 -0.22073355 0.015597366
0002e0 48 63 26 be f7 85 61 be 24 60 c3 bd 88 2e 79 be
       -0.1624881 -0.2202376 -0.09539822 -0.24334157
0002f0 cf 1d 44 3e f3 5b ab 3b dc 5e 22 3e c1 bf b7 be
       0.19151996 0.005229467 0.15856498 -0.35888484

shared_layers.0.bias f4 [64]
000000 00 00 00 00 00 00 00 00 00 00 00 00 00 00 00 00
       0.0 0.0 0.0 0.0
000010 00 00 00 00 00 00 00 00 00 00 00 00 00 00 00 00
       0.0 0.0 0.0 0.0
000020 00 00 00 00 00 00 00 00 00 00 00 00 00 00 00 00
       0.0 0.0 0.0 0.0
000030 00 00 00 00 00 00 00 00 00 00 00 00 00 00 00 00
       0.0 0.0 0.0 0.0
000040 00 00 00 00 00 00 00 00 00 00 00 00 00 00 00 00
       0.0 0.0 0.0 0.0
000050 00 00 00 00 00 00 00 00 00 00 00 00 00 00 00 00
       0.0 0.0 0.0 0.0
000060 00 00 00 00 00 00 00 00 00 00 00 00 00 00 00 00
       0.0 0.0 0.0 0.0
000070 00 00 00 00 00 00 00 00 00 00 00 00 00 00 00 00
       0.0 0.0 0.0 0.0
000080 00 00 00 00 00 00 00 00 00 00 00 00 00 00 00 00
       0.0 0.0 0.0 0.0
000090 00 00 00 00 00 00 00 00 00 00 00 00 00 00 00 00
       0.0 0.0 0.0 0.0
0000a0 00 00 00 00 00 00 00 00 00 00 00 00 00 00 00 00
       0.0 0.0 0.0 0.0
0000b0 00 00 00 00 00 00 00 00 00 00 00 00 00 00 00 00
       0.0 0.0 0.0 0.0
0000c0 00 00 00 00 00 00 00 00 00 00 00 00 00 00 00 00
       0.0 0.0 0.0 0.0
0000d0 00 00 00 00 00 00 00 00 00 00 00 00 00 00 00 00
       0.0 0.0 0.0 0.0
0000e0 00 00 00 00 00 00 00 00 00 00 00 00 00 00 00 00
       0.0 0.0 0.0 0.0
0000f0 00 00 00 00 00 00 00 00 00 00 00 00 00 00 00 00
       0.0 0.0 0.0 0.0

shared_layers.2.weight f4 [64, 64]
000000 77 de 69 3e 17 1e 12 3e 15 35 70 bd 07 1f e5 3d
       0.2283877 0.14269291 -0.058644373 0.111875586
000010 d0 a1 bb 3e 66 cd e5 3d 77 3c 1b 3e 07 c2 6f 3d
       0.3664689 0.11220817 0.15159784 0.05853465
000020 24 d3 ae bd 12 34 0b be 14 ca f1 3b 78 c8 7d bd
       -0.08536366 -0.13594082 0.007378826 -0.06195876
000030 5e c6 1e be 11 a7 c2 3d e7 bf 1a be 56 fe 97 3e
       -0.15505359 0.09504522 -0.15112267 0.2968623
000040 6a c7 e0 3d 57 c6 16 3e 03 76 79 3d f9 7c d3 3d
       0.10975535 0.14724098 0.06090356 0.10326571
000050 0f a8 5b be d5 0a 5e be 58 56 4a 3e 27 cb 25 bd
       -0.21450828 -0.2168382 0.197595 -0.040476944
000060 bd 92 3e 3e 86 42 71 3c ad 0f 47 3d c8 f6 0d be
       0.18610664 0.014725333 0.048598934 -0.13863671
000070 9b a4 a0 bd 0e f0 5a 3e 85 43 84 be 6d d8 83 bd
       -0.07843896 0.21380636 -0.25832763 -0.06437764
000080 25 2e 8b be f9 72 af be ab a5 11 be e8 21 90 3d
       -0.27183643 -0.34267405 -0.14223354 0.07037717
000090 f3 99 a0 bb 69 19 83 3d 14 1d 1f be dd 76 ed bd
       -0.0049011647 0.06401331 -0.15538436 -0.11594937
0000a0 65 82 77 3d 9d ff 63 be b9 06 9d be e3 34 97 3d
       0.06042709 -0.22265477 -0.3066919 0.07383134
0000b0 04 e3 4b 3e ec d1 a7 bd 79 5e 23 be f2 10 63 3d
       0.19910818 -0.08194336 -0.15954007 0.055436082
0000c0 be f2 25 3e 02 6e 1f 3c 85 0b d5 be b4 e7 93 be
       0.1620588 0.009730818 -0.4161035 -0.28887713
0000d0 6d 46 e3 bc 74 27 aa 3d 46 71 c2 bc f9 8d 24 bd
       -0.027743543 0.08308306 -0.023735654 -0.04017446
0000e0 d9 c7 08 3d 0e 0a 05 be 9f 48 72 3c 17 18 1c bf
       0.033393715 -0.12992117 0.014787822 -0.6097426
0000f0 b1 6d 1f 3d c1 88 25 3e d0 64 50 bc 73 66 ac bd
       0.03892297 0.16165449 -0.012719348 -0.08417978
000100 9d 19 5a 3d c3 ba 44 3e d9 7d 5a 3e 72 6a 09 bd
       0.053247083 0.19211869 0.2133707 -0.03354878
000110 f1 26 bf bb 8c dd ea 3c 9d 5f d6 3c 3c 6e 87 bd
       -0.0058334996 0.028670095 0.026168639 -0.066128224
000120 bc 8b 52 3e f6 d7 6f be d8 68 b7 bc 91 71 5e bd
       0.20561117 -0.23422226 -0.02238886 -0.054307524
000130 16 e1 dd 3d 01 43 1e be 71 c1 83 3d 6b ec 2d be
       0.10833947 -0.15455247 0.064333804 -0.16984718
000140 98 88 a4 3d 00 48 10 3d 18 cc 88 be a8 c3 b2 3e
       0.08033866 0.035224915 -0.2671821 0.349149
000150 79 cc 5c 3c b0 39 80 3d 16 b8 80 3e aa d3 4a 3e
       0.013476484 0.06261003 0.25140446 0.19807306
000160 7f 43 2d 3e 78 7b 8b bc 8e c1 88 3d af c8 53 bd
       0.16920279 -0.017026648 0.066775426 -0.05170506
000170 77 ce d0 bb 8d c8 2a 3e 8e 15 74 3d 64 f1 1c 3e
       -0.006372269 0.16678067 0.05959087 0.15326458
000180 53 4d fb bd 3d 39 8e 3e ed 95 9d bd 98 3e aa be
       -0.12270608 0.27778044 -0.07694612 -0.3325088
000190 00 69 18 be 9f 66 07 3f e6 60 3f 3d 43 5c 3c 3e
       -0.14883804 0.5289096 0.04672327 0.1839457
0001a0 00 62 ac 3e 7d 2b bc 3d dd 52 8e be 88 3d 91 3d
       0.33668518 0.09187982 -0.27797595 0.07091814
0001b0 b6 c2 64 3b 88 41 76 3e a9 3a 96 3c 6f 14 43 3d
       0.0034906096 0.24048436 0.018338518 0.04762691
0001c0 3c a3 da be 7f 07 ef bd cc 79 49 be 3b 7b 14 3e
       -0.42702663 -0.11671352 -0.19675368 0.14500134
0001d0 a2 f6 6b 3e 90 ef 09 3e 24 33 01 be 37 c5 c2 bd
       0.23043302 0.13470292 -0.12617165 -0.09510272
0001e0 06 5b 86 3c 69 30 76 3e 71 d2 1d 3c b3 2a 8c 3d
       0.016400825 0.24041905 0.009632693 0.06844082
0001f0 0c c7 43 be 30 3a 81 3e f6 61 c3 3d 40 c2 8c 3d
       -0.19118899 0.25239706 0.09540169 0.06872988
000200 86 40 a8 3e f4 cd 7b be 93 28 8d 3e 30 36 a1 be
       0.32861727 -0.24590284 0.27570018 -0.31486654
000210 17 a9 c6 3d 7b 99 0b 3d c5 63 3b bd 74 27 56 3d
       0.0970022 0.034081917 -0.045749445 0.05228372
000220 54 3f 94 ba 85 a7 cc 3d 2d aa 10 ba 52 72 8b bd
       -0.0011310377 0.09992889 -0.0005518522 -0.06808914
000230 95 ac 0e bd 82 07 dd 3d 54 40 93 be b4 bb 7f bd
       -0.034832556 0.107924476 -0.28760016 -0.062434867
000240 1e 08 62 3e 0f e7 b4 3c 9b 76 50 3e b9 04 85 bd
       0.22073409 0.022082834 0.20357744 -0.064950414
000250 c3 b2 8c 3c 3f 63 2e 3e 88 03 1f be 69 e8 74 bd
       0.017175084 0.17030047 -0.15528691 -0.059791956
000260 c8 3e 8c be dd ee 1d bd 10 b0 c0 3d c5 90 39 3c
       -0.27391648 -0.038557876 0.09408581 0.01132602
000270 f6 3d 3e 3d 6b 2d 91 3d e6 41 74 bd 7f 83 16 3f
       0.04644581 0.07088741 -0.05963316 0.587944
000280 b2 3d af 3d 3f 32 2a 3c 46 03 89 bd 58 c1 5e 3e
       0.08556689 0.010387956 -0.066900775 0.21753442
000290 e6 cc b4 3d ab 9e 19 bd 94 2b 30 be 46 b1 47 3d
       0.08828144 -0.037504833 -0.17204124 0.048753045
0002a0 d9 1e 99 3e b1 ae 1c be 56 91 1f be 32 e3 cb 3d
       0.29906347 -0.15301014 -0.15582785 0.099554434
0002b0 f2 43 81 3d a0 69 77 be 1f 1d 9f bd bf ab c0 3e
       0.06311788 -0.24161386 -0.07769226 0.37631032
0002c0 8c 2d 4c be 30 ba ee bd 9e 4d d5 3d 79 40 c4 3c
       -0.1993925 -0.11656606 0.10415195 0.023956524
0002d0 81 85 02 be c8 ca 88 be dd 75 26 bc b4 53 74 be
       -0.1274624 -0.2671721 -0.010159937 -0.23860055
0002e0 c6 84 b5 be 27 46 1c bd f7 bc df 3d 80 6e c4 3d
       -0.3545286 -0.03815284 0.10924714 0.09591389
0002f0 00 ad 55 bd 3c 73 06 3e 02 b6 81 be 6c 50 3c 3e
       -0.05216694 0.13129896 -0.25334173 0.18390054
000300 19 12 77 bd 43 b3 ee 3d cc 2f 04 3c 98 23 12 be
       -0.060319994 0.11655285 0.008068036 -0.1427139
000310 c0 54 4d be 5d ce e9 3d dd c0 8c be 23 b3 1e 3e
       -0.20051861 0.11416314 -0.27490893 0.15498023
000320 7a cd 03 bd d9 65 2c 3e f3 ed fe 3c fa 62 c4 be
       -0.03217838 0.16835727 0.031119322 -0.38356763
000330 ad 61 42 be ed 53 d3 3d 93 aa ba 3e e7 52 61 bd
       -0.18982573 0.10318742 0.36458263 -0.055010702
000340 fc 5b ba 3c a3 d2 53 3d c0 da 92 3e 45 a4 15 3d
       0.02274894 0.05171455 0.28682518 0.036533613
000350 3d a6 b9 3e dc 8f 1b 3d cd 76 d0 bd 10 c1 1f bd
       0.36259642 0.037978992 -0.101789095 -0.039002478
000360 af 0d 73 3d e6 fc 01 3e bd b6 75 be 47 04 3c bb
       0.05933922 0.1269413 -0.2399549 -0.0028689073
000370 58 bb c8 3d 10 c0 3d be b9 7d e9 bd 47 c4 18 be
       0.09801358 -0.18530297 -0.11400933 -0.14918624
000380 86 3e 7a be 20 7a 63 3d a4 9c 5c be 16 a5 01 3e
       -0.24437913 0.05553639 -0.21544129 0.12660632
000390 39 b3 ca be 91 6e b6 3b c0 e7 0a 3c b5 60 9e bd
       -0.3958986 0.0055673798 0.008478105 -0.07733289
0003a0 69 8f f4 bd 98 14 6d be ee 07 83 be 37 dd 9d 3e
       -0.11941416 -0.23152387 -0.25591987 0.30832836
0003b0 a3 89 a4 bc c9 6d fd bd 53 17 b8 bd 8f 46 4e be
       -0.020085162 -0.123744555 -0.08988824 -0.20144103
0003c0 59 a3 3a be 6a 03 91 be d5 2e b0 bd 18 1b dc bd
       -0.18226375 -0.28322917 -0.086026825 -0.10747355
0003d0 4b d5 d1 3c d5 15 52 be 41 14 a5 be b7 1a 9c bb
       0.025614401 -0.20516141 -0.32242015 -0.004763927
0003e0 1b f8 17 3e b7 b7 b2 bd 5f 9f 75 bd 75 eb 86 3c
       0.14840738 -0.08726447 -0.05996644 0.016469697
0003f0 7c f1 f5 bd 09 91 5c be d5 77 e4 3d e8 82 9d 3e
       -0.1200895 -0.21539702 0.11155669 0.30763936

shared_layers.2.bias f4 [64]
000000 00 00 00 00 00 00 00 00 00 00 00 00 00 00 00 00
       0.0 0.0 0.0 0.0
000010 00 00 00 00 00 00 00 00 00 00 00 00 00 00 00 00
       0.0 0.0 0.0 0.0
000020 00 00 00 00 00 00 00 00 00 00 00 00 00 00 00 00
       0.0 0.0 0.0 0.0
000030 00 00 00 00 00 00 00 00 00 00 00 00 00 00 00 00
       0.0 0.0 0.0 0.0
000040 00 00 00 00 00 00 00 00 00 00 00 00 00 00 00 00
       0.0 0.0 0.0 0.0
000050 00 00 00 00 00 00 00 00 00 00 00 00 00 00 00 00
       0.0 0.0 0.0 0.0
000060 00 00 00 00 00 00 00 00 00 00 00 00 00 00 00 00
       0.0 0.0 0.0 0.0
000070 00 00 00 00 00 00 00 00 00 00 00 00 00 00 00 00
       0.0 0.0 0.0 0.0
000080 00 00 00 00 00 00 00 00 00 00 00 00 00 00 00 00
       0.0 0.0 0.0 0.0
000090 00 00 00 00 00 00 00 00 00 00 00 00 00 00 00 00
       0.0 0.0 0.0 0.0
0000a0 00 00 00 00 00 00 00 00 00 00 00 00 00 00 00 00
       0.0 0.0 0.0 0.0
0000b0 00 00 00 00 00 00 00 00 00 00 00 00 00 00 00 00
       0.0 0.0 0.0 0.0
0000c0 00 00 00 00 00 00 00 00 00 00 00 00 00 00 00 00
       0.0 0.0 0.0 0.0
0000d0 00 00 00 00 00 00 00 00 00 00 00 00 00 00 00 00
       0.0 0.0 0.0 0.0
0000e0 00 00 00 00 00 00 00 00 00 00 00 00 00 00 00 00
       0.0 0.0 0.0 0.0
0000f0 00 00 00 00 00 00 00 00 00 00 00 00 00 00 00 00
       0.0 0.0 0.0 0.0

output_layer.weight f4 [2, 64]
000000 b8 ba 2e ba c0 cc 9f ba 45 dc 9b 39 dc 63 4b ba
       -0.00066653965 -0.0012191758 0.00029728017 -0.00077587157
000010 6a 19 7f ba 80 4b e8 b9 04 05 9d ba 69 38 eb b9
       -0.0009731265 -0.0004430674 -0.0011979644 -0.00044864722
000020 c6 07 c1 ba cf 65 4d ba 9e 6b 35 3a de 26 2d 3a
       -0.0014727048 -0.00078353 0.0006920638 0.0006605218
000030 d7 71 33 3a 94 d5 98 ba 5d 21 f3 b9 f5 6a e0 ba
       0.00068452716 -0.0011660331 -0.0004637343 -0.001712172
000040 d3 49 8a ba 00 d9 a2 ba 94 c2 f0 3a 54 c7 e0 b8
       -0.0010550566 -0.001242429 0.0018368536 -0.0001071828
000050 73 56 92 ba b9 76 4b b9 22 de 95 3a dc 97 a5 39
       -0.001116468 -0.00019403816 0.0011433999 0.00031584396
000060 73 02 ae 3a 64 c6 98 ba be 95 2a bb e2 1a 27 3b
       0.0013275876 -0.0011655805 -0.0026029195 0.00254982
000070 6d c3 48 3a f3 3b 13 ba f2 44 9c b9 6f ff 3a 3a
       0.0007658515 -0.0005616538 -0.00029806007 0.00071333995
000080 e6 73 37 ba 99 41 7e 39 3d fc a6 39 25 79 d9 3a
       -0.0006998166 0.00024247765 0.0003184992 0.001659189
000090 5d 1f 3a ba 6b 4e f5 3a 09 fb 03 bb 43 dd 91 ba
       -0.00071000104 0.0018715387 -0.0020138642 -0.0011128563
0000a0 ec ad ef 39 55 4a 8a b9 7b 8b c0 b9 34 3c a3 3a
       0.00045715214 -0.00026376793 -0.00036725015 0.0012453855
0000b0 b4 03 ff 3a 37 d3 a8 b9 72 b2 4e 3a 32 fb 6e ba
       0.001945606 -0.00032200824 0.0007884867 -0.00091164105
0000c0 f5 1b be ba f7 5d 02 ba 37 0f 16 ba ab 83 ff 37
       -0.0014504181 -0.00049731083 -0.0005724313 3.0459682e-05
0000d0 2b ef 5c ba af 9b 57 39 8d d4 ac b9 d5 b4 03 3b
       -0.0008427973 0.00020561994 -0.0003296476 0.0020096798
0000e0 3d f8 2d 3b dd 21 be 38 09 dd b9 3a 06 2f f7 3a
       0.0026545667 9.0662135e-05 0.0014180253 0.0018858619
0000f0 26 f2 d9 ba bb 1c d9 ba f9 25 69 3b 1e 3e 7b 3a
       -0.0016627952 -0.0016564348 0.0035575612 0.00095841463
000100 29 ca 97 ba c7 ac f8 3a 2f f4 9b 39 46 84 6e 3a
       -0.0011580634 0.001897239 0.00029745835 0.000909869
000110 84 d2 de 3a 99 d3 2c bb bb 44 93 ba 2b 84 71 ba
       0.0016999994 -0.002637124 -0.0011235693 -0.0009213115
000120 55 e9 f0 b8 1d e1 0b ba ad 53 95 3a fb 8b 45 b9
       -0.00011487553 -0.00053359737 0.0011392735 -0.00018839531
000130 99 b8 6e 3a 9d b1 bc ba 40 dc 2e ba 02 38 64 39
       0.00091064867 -0.0014396195 -0.0006670393 0.00021764639
000140 57 aa 37 3a fb 5a 5b b6 0e 44 db 3a 00 e7 dd 3a
       0.00070062786 -3.26865e-06 0.0016728656 0.0016929805
000150 da 39 09 3a 70 07 44 ba 5c e4 be ba de a2 9a 39
       0.0005234756 -0.0007477915 -0.0014563906 0.00029494514
000160 53 d3 a5 37 73 ea ef ba dc ce be 39 e2 fe c0 ba
       1.9767938e-05 -0.0018304124 0.00036393746 -0.0014724398
000170 9e c6 46 3b 06 db 0f 3b de ef 53 3a f7 bc b2 3a
       0.0030330787 0.0021950617 0.0008084754 0.0013636638
000180 86 12 43 ba 66 f1 7f 3a 78 8d dc 3a d5 b0 f0 ba
       -0.000744142 0.0009763449 0.0016826829 -0.0018363247
000190 f8 c4 1d bb 39 53 a0 3a 50 b8 5d ba e1 93 0a b9
       -0.0024073701 0.0012231834 -0.00084579457 -0.00013215795
0001a0 b7 0c 80 3a 32 82 74 3a d4 0e 73 ba a0 cf 1e 3a
       0.0009769414 0.0009327262 -0.0009271924 0.000605816
0001b0 d9 89 62 3a 8d 76 11 ba 15 63 65 ba af 49 24 ba
       0.0008641757 -0.00055489765 -0.0008750421 -0.0006267083
0001c0 3b 0b cf 3a 30 9f 43 ba 06 71 f4 b9 d4 37 d1 ba
       0.0015796194 -0.00074623805 -0.00046623516 -0.0015962073
0001d0 6f f6 89 3a eb 49 a1 b9 6f e4 5d ba 85 db ec b9
       0.0010525713 -0.00030763386 -0.000846452 -0.00045176983
0001e0 44 b7 c9 ba e9 19 84 3a 7e 59 58 3b 74 21 88 ba
       -0.00153897 0.0010078523 0.0033012326 -0.0010385946
0001f0 fb 76 2b 3a 90 d1 69 39 f6 6d 25 3a 09 1b 4c 3a
       0.0006540862 0.0002229868 0.0006310636 0.0007786011

output_layer.bias f4 [2]
000000 00 00 00 00 00 00 c0 bf
       0.0 -1.5

layers.0.weight f4 [64, 3]
000000 5e 19 4a be f7 cd 2e 3e c7 27 2f 3e 1c 0a 60 3e
       -0.1973624 0.17070757 0.17105018 0.21878856
000010 06 18 5e be 36 fd 5c 3e 63 33 09 be 55 09 71 be
       -0.21688852 0.21580967 -0.13398509 -0.23538716
000020 7a 3b 65 bc 6d 76 bb 3d f3 c6 4e be 7f 7e 86 bd
       -0.013991231 0.09153447 -0.2019308 -0.06567096
000030 94 f1 35 be 4b ba c3 bd 3e 1d 8a be 35 05 08 be
       -0.17767936 -0.09557017 -0.26975435 -0.13283236
000040 1e 03 13 bd 9a 6d 02 be dc df 65 be b5 be 58 3d
       -0.035891645 -0.12737122 -0.22448677 0.052916247
000050 c6 ca 8e be e8 1a 12 be 3f 42 a3 bc a2 9c 85 3e
       -0.2788908 -0.14268076 -0.01992905 0.26096064
000060 bd 4d c3 3c 8f 67 d2 bd 61 21 cc bd 62 95 44 bd
       0.02384078 -0.102736585 -0.09967304 -0.047994025
000070 d0 dd 4b 3e 22 7c e5 bd 32 ff 3c 3b 56 9d 8a be
       0.19908834 -0.11205317 0.0028838632 -0.27073163
000080 8b 24 f6 3c aa e2 2a 3e 65 da 27 3e 41 a8 36 be
       0.030046722 0.16688028 0.16391905 -0.17837621
000090 5a 82 64 3e 32 36 12 be 2b da 88 3e 64 a9 0c 3c
       0.2231535 -0.14278486 0.2672895 0.008585308
0000a0 3f fa 50 bd 53 92 79 be cd 2a 58 3e 5a a2 1b be
       -0.051019903 -0.24372225 0.21110077 -0.15198651
0000b0 24 9c 57 be e6 35 99 be 56 67 59 be 14 82 af 3d
       -0.21055657 -0.29923934 -0.21230826 0.08569732
0000c0 dd a0 2f bd 9d 88 90 be e7 45 29 3e 19 67 21 3e
       -0.04287802 -0.28229228 0.16530572 0.15761985
0000d0 4e a1 b5 3c d9 0c 02 3d 5d 61 53 bd 22 14 51 bd
       0.022171643 0.031750534 -0.051606525 -0.05104459
0000e0 1c 3f 3c 3d 9b 7a c8 bd b2 e5 18 be 08 aa 6b be
       0.045958623 -0.0978901 -0.14931372 -0.2301408
0000f0 e9 99 3e 3e 09 27 95 be f7 16 7d 3e 4a ce 88 be
       0.186134 -0.29131344 0.24715792 -0.26719886
000100 36 6a 80 bd 11 87 f4 bd 67 66 9e bd 84 39 98 be
       -0.06270258 -0.119398244 -0.077343754 -0.2973138
000110 a1 ee 4d be b5 ec ff 3d 42 15 df bc e9 bb 93 3e
       -0.20110561 0.1249632 -0.027231816 0.28854302
000120 dd 7d cc bc 08 1c 07 be 0c 1a 7b 3d 19 28 29 3e
       -0.02496236 -0.13194287 0.061304137 0.16519202
000130 38 6e 10 3d 02 65 e6 bc f1 5c fc 3d 47 ab 26 3e
       0.035261363 -0.028124336 0.12322415 0.16276275
000140 83 b4 43 be cf 43 0a 3e a5 a3 3f be 81 00 ec bd
       -0.19111829 0.1350243 -0.18714769 -0.115235336
000150 65 5e 37 3e c5 7b 74 3e e5 82 83 3e 5c c9 78 3e
       0.17907102 0.2387534 0.25685802 0.24295563
000160 dc 7d e2 3d d3 ce 41 be 9a 28 82 be 38 3a 13 3e
       0.11059162 -0.18926553 -0.25421602 0.14377677
000170 a2 f8 73 be 29 d4 1e 3e 40 12 98 3e 83 e2 d5 3c
       -0.23825315 0.1551062 0.29701424 0.026108986
000180 c7 06 08 3d 39 10 85 3e ea 1f 30 3e 97 69 18 bd
       0.03320959 0.2598894 0.17199674 -0.037210073
000190 3f 30 9f bc b6 df 37 be 56 48 18 3e 48 1d 46 be
       -0.019432185 -0.17956433 0.14871344 -0.19347107
0001a0 2d 5d 80 bc 9c 3b 68 be 9d c5 93 be 19 a4 07 3c
       -0.01566943 -0.22678989 -0.28861704 0.00827887
0001b0 53 45 18 3e 01 df 8f be d3 a4 2c be e3 21 06 3e
       0.14870195 -0.28099826 -0.1685975 0.13098864
0001c0 16 b8 a2 3d 1a 50 20 be 03 46 7e 3e c0 f5 42 3e
       0.07945268 -0.15655556 0.24831395 0.19039059
0001d0 ca e9 e3 3d 60 cb 06 3e 97 48 7c 3d 78 d8 f6 3d
       0.11128576 0.13163519 0.061592665 0.12053007
0001e0 e0 99 3b 3e 03 2c a0 bd 64 49 2f 3e 71 e7 9b 3d
       0.18320417 -0.078208946 0.1711784 0.07612503
0001f0 c8 c9 38 be d9 3f 19 be 46 11 6e 3e 75 f8 38 3d
       -0.18045723 -0.14965762 0.23248777 0.045158822
000200 13 38 5a 3e af 7e ca bd 0a 0d bf 3d fb 76 96 3e
       0.21310453 -0.09887444 0.09328659 0.2938765
000210 b9 bc 81 3d 02 f9 03 bd 75 85 2b be fd 37 cc 3d
       0.06334824 -0.032219894 -0.16750129 0.099716164
000220 89 61 f8 3b c7 e0 04 be 9f ee 3c be a6 52 b8 3d
       0.0075799865 -0.12976371 -0.18450402 0.09000139
000230 77 fb d0 bd 15 c4 82 be cf bf 71 be 52 59 93 3d
       -0.10204213 -0.25540224 -0.23608325 0.07194771
000240 75 6c 8c 3e d8 75 93 3d 47 4c 7e 3d 86 14 6f be
       0.27426496 0.07200211 0.062084462 -0.23347673
000250 18 b7 6a 3e db 97 c8 bd 32 1f 09 be 22 fc fb 3d
       0.22921407 -0.09794589 -0.13390806 0.1230395
000260 42 fc 4f bc b7 9d cc 3d c1 0e 8e be c1 7a 87 3e
       -0.01269442 0.09991019 -0.2774563 0.2646084
000270 db ff 34 3c e6 9f 75 3d e8 86 3f 3e 13 1c 8a be
       0.011047329 0.059966944 0.18703806 -0.26974544
000280 7a 90 83 be 73 14 96 bd 54 ad 33 3e b9 8d 83 be
       -0.25696164 -0.07328119 0.17546588 -0.25694063
000290 39 07 92 bd 47 b5 8d bd f6 04 94 3c 30 8b 88 3e
       -0.07130284 -0.069193415 0.018068772 0.26668692
0002a0 7d 54 9b bc 7d aa bc 3d 74 84 ce 3d 5e 96 b9 bd
       -0.018961186 0.092122056 0.10083857 -0.090618834
0002b0 74 06 60 bc ce 1b 87 be 17 97 42 3e eb 79 93 3e
       -0.013673414 -0.263884 0.19002949 0.28803954
0002c0 7d 35 8e 3e 00 f0 88 3e 2f 5e 86 be 2b 37 0b 3e
       0.27775183 0.26745605 -0.2624373 0.13595264
0002d0 11 b4 83 3e 59 1d 7a 3e 56 45 7c be ca f9 d6 3c
       0.25723317 0.24425258 -0.24635825 0.026242156
0002e0 f9 c1 3f 3e 92 d6 27 3d d8 e3 95 be 65 2c e8 3b
       0.18726338 0.040976115 -0.29275393 0.0070853704
0002f0 3f 1a e4 3c d6 58 96 be 07 d6 9b bd 73 cd 0c 3c
       0.027844546 -0.2936465 -0.07609182 0.008593905

layers.0.bias f4 [64]
000000 00 00 00 00 00 00 00 00 00 00 00 00 00 00 00 00
       0.0 0.0 0.0 0.0
000010 00 00 00 00 00 00 00 00 00 00 00 00 00 00 00 00
       0.0 0.0 0.0 0.0
000020 00 00 00 00 00 00 00 00 00 00 00 00 00 00 00 00
       0.0 0.0 0.0 0.0
000030 00 00 00 00 00 00 00 00 00 00 00 00 00 00 00 00
       0.0 0.0 0.0 0.0
000040 00 00 00 00 00 00 00 00 00 00 00 00 00 00 00 00
       0.0 0.0 0.0 0.0
000050 00 00 00 00 00 00 00 00 00 00 00 00 00 00 00 00
       0.0 0.0 0.0 0.0
000060 00 00 00 00 00 00 00 00 00 00 00 00 00 00 00 00
       0.0 0.0 0.0 0.0
000070 00 00 00 00 00 00 00 00 00 00 00 00 00 00 00 00
       0.0 0.0 0.0 0.0
000080 00 00 00 00 00 00 00 00 00 00 00 00 00 00 00 00
       0.0 0.0 0.0 0.0
000090 00 00 00 00 00 00 00 00 00 00 00 00 00 00 00 00
       0.0 0.0 0.0 0.0
0000a0 00 00 00 00 00 00 00 00 00 00 00 00 00 00 00 00
       0.0 0.0 0.0 0.0
0000b0 00 00 00 00 00 00 00 00 00 00 00 00 00 00 00 00
       0.0 0.0 0.0 0.0
0000c0 00 00 00 00 00 00 00 00 00 00 00 00 00 00 00 00
       0.0 0.0 0.0 0.0
0000d0 00 00 00 00 00 00 00 00 00 00 00 00 00 00 00 00
       0.0 0.0 0.0 0.0
0000e0 00 00 00 00 00 00 00 00 00 00 00 00 00 00 00 00
       0.0 0.0 0.0 0.0
0000f0 00 00 00 00 00 00 00 00 00 00 00 00 00 00 00 00
       0.0 0.0 0.0 0.0

layers.2.weight f4 [64, 64]
000000 73 8e 25 be 86 64 17 be 4e 68 1d be 89 2b 2e 3e
       -0.16167621 -0.1478444 -0.1537182 0.17008795
000010 4b c9 54 be 2a a0 29 3e a4 a7 d1 3d 36 60 26 be
       -0.20779912 0.16565004 0.10237053 -0.16247639
000020 ec 28 ef bd 13 79 af 3d 9a 86 c5 bd a8 58 5e 3d
       -0.11677727 0.08568015 -0.09644814 0.054283768
000030 21 40 02 be 6d d5 1f 3d ae 2b b5 bd e4 75 da 3d
       -0.12719776 0.039021898 -0.08846222 0.10667017
000040 05 e7 27 be 6b b2 1c be fe a0 3c be 6e ba a9 bd
       -0.1639672 -0.15302436 -0.18420789 -0.08287512
000050 7b 4b 1a be 3e 78 7b bd a7 3d 0b 3e 3a bc 74 bd
       -0.15067856 -0.06139397 0.13597737 -0.05974982
000060 93 01 46 3d ad 41 c6 3d 47 7e 0d be 16 ee 4c ba
       0.048341345 0.096804954 -0.13817702 -0.000781746
000070 68 7b eb bd 81 d2 53 bd 08 cc 56 be b4 cc 29 be
       -0.11498147 -0.051714424 -0.20976269 -0.16581994
000080 e0 e6 b0 bd 09 99 80 3d df 35 6c 3d 1a e1 6c 3d
       -0.08637786 0.06279189 0.057668563 0.05783186
000090 3e b7 54 bd 1b 48 20 3e 7e ac f4 bd 49 31 02 be
       -0.051932566 0.15652506 -0.11946963 -0.12714113
0000a0 8c 1e 1f be af 11 24 be 23 1f 94 3d 9c 4d be 3c
       -0.15538996 -0.16022371 0.07232501 0.023230366
0000b0 21 1d 37 be 0b 22 30 3c 91 db 43 3d 12 5d 57 3d
       -0.17882206 0.010750304 0.047816817 0.052578993
0000c0 fb d7 20 3e 53 5c 3f 3d 35 57 32 be 1c 84 11 3d
       0.1570739 0.046718907 -0.1741608 0.03552638
0000d0 11 3b 9e bd f8 56 b8 bd 2b 8b 49 3e a9 93 0b be
       -0.0772611 -0.09000963 0.19681995 -0.13630547
0000e0 09 e1 0e 3e bd 95 06 bd a9 1f 5e bd 06 52 9d bd
       0.13953032 -0.032857645 -0.054229412 -0.0768166
0000f0 6c 53 39 be 76 b0 34 be 89 3d 1d bd a8 4c a8 3c
       -0.18098229 -0.1764544 -0.038388763 0.020544365
000100 74 1b 1c 3e 6e 2f 11 3e ab ea 56 3e d0 5a 9e 3c
       0.15244848 0.14178249 0.20987956 0.019330412
000110 12 a5 ad bd 0c c5 64 3d 39 6b 13 bb b3 00 44 be
       -0.0847875 0.05585198 -0.002249433 -0.19140892
000120 cb b6 63 3d 1a 6f 2f 3c f7 d7 fb bd a0 db b1 3d
       0.055594247 0.010707641 -0.122970514 0.08684468
000130 5b a7 07 be af f0 de bd 48 5e 2f 3e ce d3 8d bd
       -0.13247435 -0.108857505 0.17125809 -0.06925164
000140 11 8c 52 3e 8e 28 1e bd cb 00 45 be 46 ac 15 be
       0.20561244 -0.038612895 -0.19238584 -0.14616498
000150 49 47 ca bd 74 47 9f 3d d9 a7 f1 bd cd 2a 84 3c
       -0.09876878 0.077773005 -0.117995925 0.01613369
000160 f1 1e c4 bd d2 9b 3b 3c 6d 24 20 3d fe 08 7d 3d
       -0.09576214 0.011450725 0.03909724 0.061776154
000170 86 e3 37 be 92 72 4b 3e 24 73 dc bc 46 84 1e 3d
       -0.17957887 0.19867924 -0.026910372 0.038700365
000180 ea a8 11 3e 89 39 d9 bd 8a 98 8b bb 50 ac 22 3e
       0.14224592 -0.10606677 -0.0042601274 0.15886045
000190 05 80 58 be 17 3b 86 3d f0 9b 1b 3e c7 cb 48 bd
       -0.21142586 0.06554239 0.15196204 -0.049022462
0001a0 ec cb 41 3e ca fb 45 be 85 c6 4d be 08 10 05 3e
       0.18925446 -0.19334331 -0.2009526 0.12994397
0001b0 bd 3d e3 bd b4 f3 3e be d4 4e 83 bc e3 f3 ed bd
       -0.1109576 -0.18647653 -0.0160288 -0.11618783
0001c0 00 5f 37 be 8c 36 49 3e 4d 6d 7c 3d f7 fb 59 be
       -0.17907333 0.19649714 0.061627675 -0.21287523
0001d0 64 dc 5f bd f9 4d c3 bd 5c 5c 7f 3b 80 a7 ed bd
       -0.05465354 -0.095363565 0.0038964963 -0.11604214
0001e0 a6 d2 41 be c0 59 3c 3e e5 7e 19 3e 96 23 a3 3c
       -0.18928012 0.18393612 0.14989813 0.01991443
0001f0 c6 15 19 3e e8 23 d3 bd 30 20 01 bb ef 75 fc 3d
       0.14949712 -0.10309583 -0.0019703023 0.123271815
000200 87 95 31 3e 9b b5 05 3e 90 a8 45 3c 5d 05 53 bd
       0.17342196 0.13057558 0.012064114 -0.051518787
000210 6a 38 fe bd ab cc 0b be e7 51 bc 3b 0d 0a 81 bd
       -0.12413104 -0.13652293 0.005747068 -0.06300745
000220 18 53 13 be 08 43 18 be aa e7 bb bd 84 95 97 bd
       -0.14387167 -0.1486932 -0.09175046 -0.07401565
000230 f4 6b 4c 3e 15 c9 67 bd 94 6b 15 be af e6 47 bd
       0.19963056 -0.05658825 -0.14591819 -0.04880398
000240 14 5e 22 3c f1 df 4a be f5 ec 3b bd 12 01 b8 3d
       0.009910125 -0.1981199 -0.045880277 0.08984579
000250 cf ee 33 3c 65 7d b5 3d 3c e8 00 3e b2 fc a2 bd
       0.010982229 0.08861808 0.1258859 -0.07958354
000260 2b 11 01 3d ea 9a 9f 3d 21 bb ec bd de 9c ce 3d
       0.031510513 0.077932194 -0.115591295 0.10088514
000270 3d 43 d4 3d 90 11 57 3c 37 7c 30 3e cb a4 36 bd
       0.10364387 0.013126746 0.17234884 -0.044590753
000280 f7 91 2c be e4 9d 05 bd 7b 80 1b 3c 19 e5 3c bd
       -0.16852556 -0.03262128 0.009491081 -0.046116922
000290 ab fe 5a 3e 7c 60 fc bd 0c 06 1e be 7b a2 72 3c
       0.2138621 -0.123230904 -0.15431994 0.014809246
0002a0 8f 30 3c 3e df 5e d2 bd 31 36 ee bd e5 38 fa 3d
       0.18377899 -0.102720015 -0.1163143 0.12217883
0002b0 2c 28 28 bc 56 8b 11 3e e2 26 34 bb 1a 5e 2d be
       -0.010263484 0.14213309 -0.0027488996 -0.16930428
0002c0 90 8f 27 3d bc cc ec 3d 4b a2 1a bd a7 aa 43 be
       0.040908396 0.115624875 -0.03775243 -0.19108067
0002d0 4b bf f0 bd d7 ac 94 3c 4c 50 e9 3d 96 b0 1b 3e
       -0.11755236 0.018148823 0.113922685 0.15204081
0002e0 40 8a b2 bd ec e1 09 3d fd ec f0 bd f9 02 aa 3d
       -0.08717775 0.03366272 -0.11763952 0.08301348
0002f0 9f 66 3e 3e f5 bd 58 be 98 06 82 3d f3 75 d6 bc
       0.18593834 -0.21166213 0.06348914 -0.02617929
000300 95 55 5a be 82 83 2c 3d 86 b5 4d 3e 51 f0 45 3e
       -0.2132171 0.042117603 0.20088777 0.19329955
000310 f9 8d a8 bd 50 88 d1 bb 54 f3 e4 3d 82 e5 1b be
       -0.08230204 -0.0063944235 0.11179224 -0.15224269
000320 66 28 f2 3d c8 a0 2b be a6 b7 3a be 2d 6c d0 3d
       0.11824112 -0.16760552 -0.18234119 0.10176883
000330 25 b4 3d be 66 92 3e 3e 0d 6c 1d 3e ee e6 23 3a
       -0.18525751 0.18610534 0.1537325 0.0006252368
000340 28 fd 83 3d 3e 05 50 3e 6c c4 61 3d 02 9d fe 3d
       0.0644477 0.203145 0.055118963 0.124322906
000350 f3 47 25 3e fa 23 af 3c b2 0a e0 3b 2f 52 8d 3d
       0.16140728 0.02137946 0.0068372125 0.06900441
000360 b3 43 f6 3d 79 f7 3c 3d 80 ed 03 3e 47 10 38 bd
       0.12024631 0.046134446 0.12883568 -0.0449374
000370 98 2c 2c 3e f7 88 b5 3d 7e 02 33 bc 48 2b d6 3d
       0.16813886 0.088640146 -0.010925887 0.10457474
000380 47 3e b1 3d 34 35 c7 bc dc b6 ce 3c 14 dc 00 3e
       0.086544566 -0.024317361 0.025233679 0.12583953
000390 17 ee 84 bd 88 f1 50 be a9 87 7f 3b 90 74 52 3e
       -0.064907245 -0.20404637 0.0038990772 0.20552278
0003a0 79 f7 f5 3d 57 59 f4 bd bd 7c da bd 77 f5 64 3d
       0.12010092 -0.11931103 -0.10668323 0.055898156
0003b0 87 a3 3f 3e 73 07 fa 3d ae b1 aa 3d 6b 50 52 be
       0.18714724 0.12208452 0.08334671 -0.2053849
0003c0 46 af f6 3c ba 54 b9 bd 04 98 26 3e bb e7 3d be
       0.030112874 -0.090493634 0.16268927 -0.1854543
0003d0 a2 be 12 be 16 72 87 3c e5 43 42 be 05 6a 69 3c
       -0.14330533 0.016533893 -0.18971212 0.014246468
0003e0 de 1b 0d bc 05 bc a5 bd e5 dd 13 be 68 f7 72 3d
       -0.008612601 -0.080925025 -0.14440115 0.059317976
0003f0 5a a9 0f be 42 9b 40 3e 1b ea 90 bd 5f 15 9c bd
       -0.14029446 0.18809226 -0.07075902 -0.07621264

layers.2.bias f4 [64]
000000 00 00 00 00 00 00 00 00 00 00 00 00 00 00 00 00
       0.0 0.0 0.0 0.0
000010 00 00 00 00 00 00 00 00 00 00 00 00 00 00 00 00
       0.0 0.0 0.0 0.0
000020 00 00 00 00 00 00 00 00 00 00 00 00 00 00 00 00
       0.0 0.0 0.0 0.0
000030 00 00 00 00 00 00 00 00 00 00 00 00 00 00 00 00
       0.0 0.0 0.0 0.0
000040 00 00 00 00 00 00 00 00 00 00 00 00 00 00 00 00
       0.0 0.0 0.0 0.0
000050 00 00 00 00 00 00 00 00 00 00 00 00 00 00 00 00
       0.0 0.0 0.0 0.0
000060 00 00 00 00 00 00 00 00 00 00 00 00 00 00 00 00
       0.0 0.0 0.0 0.0
000070 00 00 00 00 00 00 00 00 00 00 00 00 00 00 00 00
       0.0 0.0 0.0 0.0
000080 00 00 00 00 00 00 00 00 00 00 00 00 00 00 00 00
       0.0 0.0 0.0 0.0
000090 00 00 00 00 00 00 00 00 00 00 00 00 00 00 00 00
       0.0 0.0 0.0 0.0
0000a0 00 00 00 00 00 00 00 00 00 00 00 00 00 00 00 00
       0.0 0.0 0.0 0.0
0000b0 00 00 00 00 00 00 00 00 00 00 00 00 00 00 00 00
       0.0 0.0 0.0 0.0
0000c0 00 00 00 00 00 00 00 00 00 00 00 00 00 00 00 00
       0.0 0.0 0.0 0.0
0000d0 00 00 00 00 00 00 00 00 00 00 00 00 00 00 00 00
       0.0 0.0 0.0 0.0
0000e0 00 00 00 00 00 00 00 00 00 00 00 00 00 00 00 00
       0.0 0.0 0.0 0.0
0000f0 00 00 00 00 00 00 00 00 00 00 00 00 00 00 00 00
       0.0 0.0 0.0 0.0

output_layer.weight f4 [1, 64]
000000 c8 5b 91 be d1 96 69 bc 3c 0f 81 3e 9f 44 53 3e
       -0.28390336 -0.014257149 0.25206935 0.20631646
000010 9c 0a 8e be 6c f1 9d bd 0d 31 0f 3e 1f 38 1c 3e
       -0.2774247 -0.07712063 0.13983555 0.15255783
000020 3e ac 8e ba a8 70 ba bc a3 3c b6 bd a2 75 68 3e
       -0.0010885072 -0.022758797 -0.08898284 0.22701123
000030 bd a2 35 be fd bd 93 be 86 e0 04 be eb fe 80 3e
       -0.17737861 -0.28855887 -0.12976274 0.25194487
000040 f3 d3 68 3e e4 00 0b 3e 01 15 76 be 69 af d4 bd
       0.22737102 0.13574558 -0.2403145 -0.10385019
000050 d9 a6 08 be 79 66 90 3e ff 17 47 be 82 f5 3e be
       -0.13344897 0.2820318 -0.19442748 -0.18648341
000060 6d bf 49 bc 7d 88 5e bd 94 df 64 3e 26 39 04 be
       -0.012313706 -0.054329384 0.22350913 -0.12912425
000070 22 51 0e 3e 16 c2 8f bd 32 48 6d 3d 93 89 2c 3d
       0.13898137 -0.07019441 0.05793018 0.04212339
000080 5a c6 87 be 6b 9d 93 3e 23 39 80 3d 9a e1 52 be
       -0.26518518 0.28831038 0.06260898 -0.20593873
000090 1b 01 81 3d eb a0 1e 3e c5 ca 8d 3e ab c3 86 bd
       0.06299039 0.15491073 0.27693763 -0.065802895
0000a0 d4 5b ae bc f2 e5 ad 3c 34 b1 7e be 79 8d 17 3e
       -0.021284021 0.02122781 -0.24872285 0.14800061
0000b0 4d 6a f2 3d 2b 0a ca 3c f0 12 7f be db e9 56 3e
       0.118366815 0.024663052 -0.24909568 0.20987646
0000c0 82 ac 2b 3e 76 76 17 be df f6 91 be 17 bf 8b be
       0.16765025 -0.14791283 -0.2850866 -0.27294227
0000d0 93 98 79 bd f4 f6 13 be 2f 04 13 be 42 26 91 be
       -0.06093652 -0.14449674 -0.14357065 -0.283495
0000e0 c9 9b b8 3c 71 e5 44 3e 58 ee 41 3e cb f2 90 3e
       0.022535222 0.1922815 0.18938577 0.28310236
0000f0 48 b2 7b be 57 fb 5f be 30 2b e7 3d a0 23 2c be
       -0.24579728 -0.21873222 0.11287534 -0.16810465

weight f4 [64, 3]
000000 67 df 67 be 1f cc 74 3e b9 0e 3b 3e f6 c2 b5 3d
       -0.22643815 0.23905991 0.18267335 0.088750765
000010 77 15 b1 3d db db cd bc fd e0 72 3d e8 7c 17 be
       0.08646672 -0.02512925 0.059296597 -0.14793742
000020 97 dc 12 bd 2d 9a 75 be c3 18 54 be f5 3d 67 3c
       -0.035854902 -0.23984595 -0.20712571 0.014113893
000030 55 dd bf bd 31 7e 70 be 71 fb cc 3d cc 40 54 3e
       -0.093683876 -0.23485638 0.10008896 0.20727843
000040 88 8f 74 3e f0 59 12 3d 7a d5 03 be 70 a5 b4 bd
       0.23882878 0.035730302 -0.12874404 -0.08820617
000050 7e 2a c7 b9 10 72 29 be 29 41 d3 be 59 50 dc be
       -0.00037987897 -0.16547418 -0.4126065 -0.4303005
000060 22 27 43 3e a8 54 06 be 49 2c 95 3d 93 ca 0e be
       0.19057897 -0.13118231 0.07283837 -0.13944463
000070 5d ea 36 be d4 97 80 bd a3 cc 96 bd b0 d3 9b bd
       -0.1786284 -0.06278959 -0.0736325 -0.076087356
000080 35 27 d4 bd 09 cd 44 bd d5 f5 08 3f 0b fd 7e bd
       -0.10359041 -0.0480471 0.5350011 -0.06225304
000090 1b 9c e8 3d d3 6e 2d be 7e 79 41 be d7 22 18 be
       0.113579 -0.16936807 -0.18894002 -0.1485704
0000a0 f9 62 2c 3e 27 4a 33 3e ea 6a 9e bd c3 fe 32 3d
       0.1683463 0.17508756 -0.07735236 0.04369999
0000b0 d1 5e fc bd 38 c2 21 3e b2 11 4f 3d 56 f3 b4 3d
       -0.12322772 0.15796745 0.050553985 0.08835475
0000c0 1d 4a 4f be 12 92 bd 3d e5 a8 8b bb 8f b7 4a 3e
       -0.20243116 0.09256376 -0.004262077 0.19796585
0000d0 be 40 d2 bc a6 38 ff 3d 5d 9f 03 3e 1f 1f 2a bd
       -0.025665637 0.12461977 0.12853761 -0.041533586
0000e0 47 6a 3c 3e 39 c7 92 be fd 56 46 3d ce 15 06 bd
       0.18399917 -0.2866762 0.048422802 -0.03273564
0000f0 74 a1 03 bb 9b 77 cc 3d 8b 7f f0 bb 07 d9 ce bd
       -0.0020085247 0.099837504 -0.007339423 -0.100999884
000100 7a 3c 8f be 09 58 39 3e 28 6e d4 bb 6e cd 10 3c
       -0.27975827 0.18099989 -0.006482858 0.008838041
000110 07 08 c7 be f6 cb ff 3c ec 6b 71 3d 6c 83 6b be
       -0.38873312 0.031225186 0.058940813 -0.22999352
000120 9e f2 e3 bc 92 3a c3 bd c8 f3 8c bd c0 ff 3e 3e
       -0.02782565 -0.09532656 -0.06882435 0.18652248
000130 e8 5e 93 3d 8b e5 55 3d d6 bf c8 bc 7c 6b a1 be
       0.07195836 0.052220862 -0.024505537 -0.31527317
000140 ef 90 1a be 4c d4 de 3d bd 5f c0 3c 67 96 da bd
       -0.1509435 0.10880336 0.023483152 -0.10673218
000150 d6 07 a3 be a4 5e a5 bd a3 30 c0 bc 55 64 85 3e
       -0.31841916 -0.08074692 -0.023460692 0.2605311
000160 27 4b de bc 01 be 7b 3e 81 67 51 3d 01 78 a6 3b
       -0.027135445 0.245842 0.0511241 0.0050802235
000170 44 37 55 be 9d 6b 21 be 03 f2 19 3d b5 f2 e6 3b
       -0.20821863 -0.15763707 0.037584316 0.007047976
000180 5e 3a 6e 3d 4d af df bd 25 99 a1 3e e7 8f f3 be
       0.058161132 -0.10922108 0.31562153 -0.47570726
000190 a8 20 98 bd 76 7a f3 3d 06 a1 80 bd d3 12 fd 3d
       -0.07428104 0.11888592 -0.06280713 0.12357106
0001a0 70 49 a8 3e 2a 23 b9 3d 36 6b 0d be c5 cf bc 3d
       0.32868528 0.0903991 -0.13810429 0.092193164
0001b0 8a 88 97 3e d5 8b 53 3c f5 68 a2 3d 34 f8 d5 bd
       0.2959636 0.0129117565 0.07930175 -0.104477316
0001c0 21 60 69 3c 23 8d 96 bd 08 59 9f 3e d5 e7 89 3d
       0.01424411 -0.073511384 0.31122613 0.067336716
0001d0 dc de ad bd ad c7 20 be 27 60 9e be ac 79 ae bd
       -0.08489773 -0.1570117 -0.30932733 -0.08519301
0001e0 51 b4 8a 3d f2 f3 5b bb 83 6b 5c bc 42 85 f4 3c
       0.06772674 -0.003356215 -0.013453367 0.029848699
0001f0 ce f2 bd 3d ec 93 f4 bd 50 ea ca bd 6a 51 11 be
       0.09274827 -0.11942276 -0.09907973 -0.14191213
000200 50 ba ba 3e a7 7f 13 3e ce f9 81 3d df 40 06 be
       0.3647027 0.14404164 0.063464746 -0.13110684
000210 46 5a d7 be 62 55 e5 bd 07 af 44 bd 01 52 a9 3d
       -0.4206106 -0.11197926 -0.04801848 0.08267594
000220 2a 7f d1 3e 75 db 1c be cd 10 2c be e0 b4 cf 3e
       0.4091733 -0.15318091 -0.16803284 0.40567684
000230 90 bf e8 bc 36 00 f3 3d e7 59 f1 bd c2 8c 74 bc
       -0.028411657 0.118652746 -0.11784726 -0.014926137
000240 40 a8 28 be de 22 42 3d 00 c8 85 bc 74 63 1c 3e
       -0.16470432 0.047396533 -0.016330719 0.15272313
000250 67 0d 99 bc 3c 7a 47 be d8 b4 bc be 5e f5 2c 3e
       -0.018683149 -0.19480222 -0.36856723 0.16890475
000260 41 4b ad bd d0 42 17 3e 8e 38 09 be e0 cc 3b be
       -0.08461619 0.1477158 -0.1340048 -0.18339872
000270 b4 68 3d 3e 21 a0 27 be 47 f4 4f 3e ef 0f 14 be
       0.18496972 -0.16369678 0.20308028 -0.14459203
000280 b6 69 e8 3d 23 b7 79 3e 3e ed 95 3e 9a c4 b6 be
       0.11348288 0.24386267 0.29282564 -0.3569687
000290 ec b1 0e be d6 e3 48 be c5 9e e6 bd 2c 71 fe 3d
       -0.1393506 -0.19618163 -0.11260752 0.124239296
0002a0 8b 8e 32 be 0f 64 e4 3d d6 7d c1 bc d0 c4 0c be
       -0.17437188 0.11151897 -0.023619574 -0.13746953
0002b0 e6 70 05 3e eb 30 be be 69 20 1a be e4 57 ce bc
       0.13031349 -0.37146696 -0.15051426 -0.025188394
0002c0 a2 d0 93 3e 7a 4d 26 be 4a 5b 03 be 98 b8 8b be
       0.28870112 -0.16240492 -0.12827793 -0.2728927
0002d0 fa ed e3 bc b5 f5 10 3e fa 07 62 be 18 8c 7f 3c
       -0.027823437 0.1415623 -0.22073355 0.015597366
0002e0 48 63 26 be f7 85 61 be 24 60 c3 bd 88 2e 79 be
       -0.1624881 -0.2202376 -0.09539822 -0.24334157
0002f0 cf 1d 44 3e f3 5b ab 3b dc 5e 22 3e c1 bf b7 be
       0.19151996 0.005229467 0.15856498 -0.35888484

bias f4 [64]
000000 00 00 00 00 00 00 00 00 00 00 00 00 00 00 00 00
       0.0 0.0 0.0 0.0
000010 00 00 00 00 00 00 00 00 00 00 00 00 00 00 00 00
       0.0 0.0 0.0 0.0
000020 00 00 00 00 00 00 00 00 00 00 00 00 00 00 00 00
       0.0 0.0 0.0 0.0
000030 00 00 00 00 00 00 00 00 00 00 00 00 00 00 00 00
       0.0 0.0 0.0 0.0
000040 00 00 00 00 00 00 00 00 00 00 00 00 00 00 00 00
       0.0 0.0 0.0 0.0
000050 00 00 00 00 00 00 00 00 00 00 00 00 00 00 00 00
       0.0 0.0 0.0 0.0
000060 00 00 00 00 00 00 00 00 00 00 00 00 00 00 00 00
       0.0 0.0 0.0 0.0
000070 00 00 00 00 00 00 00 00 00 00 00 00 00 00 00 00
       0.0 0.0 0.0 0.0
000080 00 00 00 00 00 00 00 00 00 00 00 00 00 00 00 00
       0.0 0.0 0.0 0.0
000090 00 00 00 00 00 00 00 00 00 00 00 00 00 00 00 00
       0.0 0.0 0.0 0.0
0000a0 00 00 00 00 00 00 00 00 00 00 00 00 00 00 00 00
       0.0 0.0 0.0 0.0
0000b0 00 00 00 00 00 00 00 00 00 00 00 00 00 00 00 00
       0.0 0.0 0.0 0.0
0000c0 00 00 00 00 00 00 00 00 00 00 00 00 00 00 00 00
       0.0 0.0 0.0 0.0
0000d0 00 00 00 00 00 00 00 00 00 00 00 00 00 00 00 00
       0.0 0.0 0.0 0.0
0000e0 00 00 00 00 00 00 00 00 00 00 00 00 00 00 00 00
       0.0 0.0 0.0 0.0
0000f0 00 00 00 00 00 00 00 00 00 00 00 00 00 00 00 00
       0.0 0.0 0.0 0.0

weight f4 [64, 64]
000000 77 de 69 3e 17 1e 12 3e 15 35 70 bd 07 1f e5 3d
       0.2283877 0.14269291 -0.058644373 0.111875586
000010 d0 a1 bb 3e 66 cd e5 3d 77 3c 1b 3e 07 c2 6f 3d
       0.3664689 0.11220817 0.15159784 0.05853465
000020 24 d3 ae bd 12 34 0b be 14 ca f1 3b 78 c8 7d bd
       -0.08536366 -0.13594082 0.007378826 -0.06195876
000030 5e c6 1e be 11 a7 c2 3d e7 bf 1a be 56 fe 97 3e
       -0.15505359 0.09504522 -0.15112267 0.2968623
000040 6a c7 e0 3d 57 c6 16 3e 03 76 79 3d f9 7c d3 3d
       0.10975535 0.14724098 0.06090356 0.10326571
000050 0f a8 5b be d5 0a 5e be 58 56 4a 3e 27 cb 25 bd
       -0.21450828 -0.2168382 0.197595 -0.040476944
000060 bd 92 3e 3e 86 42 71 3c ad 0f 47 3d c8 f6 0d be
       0.18610664 0.014725333 0.048598934 -0.13863671
000070 9b a4 a0 bd 0e f0 5a 3e 85 43 84 be 6d d8 83 bd
       -0.07843896 0.21380636 -0.25832763 -0.06437764
000080 25 2e 8b be f9 72 af be ab a5 11 be e8 21 90 3d
       -0.27183643 -0.34267405 -0.14223354 0.07037717
000090 f3 99 a0 bb 69 19 83 3d 14 1d 1f be dd 76 ed bd
       -0.0049011647 0.06401331 -0.15538436 -0.11594937
0000a0 65 82 77 3d 9d ff 63 be b9 06 9d be e3 34 97 3d
       0.06042709 -0.22265477 -0.3066919 0.07383134
0000b0 04 e3 4b 3e ec d1 a7 bd 79 5e 23 be f2 10 63 3d
       0.19910818 -0.08194336 -0.15954007 0.055436082
0000c0 be f2 25 3e 02 6e 1f 3c 85 0b d5 be b4 e7 93 be
       0.1620588 0.009730818 -0.4161035 -0.28887713
0000d0 6d 46 e3 bc 74 27 aa 3d 46 71 c2 bc f9 8d 24 bd
       -0.027743543 0.08308306 -0.023735654 -0.04017446
0000e0 d9 c7 08 3d 0e 0a 05 be 9f 48 72 3c 17 18 1c bf
       0.033393715 -0.12992117 0.014787822 -0.6097426
0000f0 b1 6d 1f 3d c1 88 25 3e d0 64 50 bc 73 66 ac bd
       0.03892297 0.16165449 -0.012719348 -0.08417978
000100 9d 19 5a 3d c3 ba 44 3e d9 7d 5a 3e 72 6a 09 bd
       0.053247083 0.19211869 0.2133707 -0.03354878
000110 f1 26 bf bb 8c dd ea 3c 9d 5f d6 3c 3c 6e 87 bd
       -0.0058334996 0.028670095 0.026168639 -0.066128224
000120 bc 8b 52 3e f6 d7 6f be d8 68 b7 bc 91 71 5e bd
       0.20561117 -0.23422226 -0.02238886 -0.054307524
000130 16 e1 dd 3d 01 43 1e be 71 c1 83 3d 6b ec 2d be
       0.10833947 -0.15455247 0.064333804 -0.16984718
000140 98 88 a4 3d 00 48 10 3d 18 cc 88 be a8 c3 b2 3e
       0.08033866 0.035224915 -0.2671821 0.349149
000150 79 cc 5c 3c b0 39 80 3d 16 b8 80 3e aa d3 4a 3e
       0.013476484 0.06261003 0.25140446 0.19807306
000160 7f 43 2d 3e 78 7b 8b bc 8e c1 88 3d af c8 53 bd
       0.16920279 -0.017026648 0.066775426 -0.05170506
000170 77 ce d0 bb 8d c8 2a 3e 8e 15 74 3d 64 f1 1c 3e
       -0.006372269 0.16678067 0.05959087 0.15326458
000180 53 4d fb bd 3d 39 8e 3e ed 95 9d bd 98 3e aa be
       -0.12270608 0.27778044 -0.07694612 -0.3325088
000190 00 69 18 be 9f 66 07 3f e6 60 3f 3d 43 5c 3c 3e
       -0.14883804 0.5289096 0.04672327 0.1839457
0001a0 00 62 ac 3e 7d 2b bc 3d dd 52 8e be 88 3d 91 3d
       0.33668518 0.09187982 -0.27797595 0.07091814
0001b0 b6 c2 64 3b 88 41 76 3e a9 3a 96 3c 6f 14 43 3d
       0.0034906096 0.24048436 0.018338518 0.04762691
0001c0 3c a3 da be 7f 07 ef bd cc 79 49 be 3b 7b 14 3e
       -0.42702663 -0.11671352 -0.19675368 0.14500134
0001d0 a2 f6 6b 3e 90 ef 09 3e 24 33 01 be 37 c5 c2 bd
       0.23043302 0.13470292 -0.12617165 -0.09510272
0001e0 06 5b 86 3c 69 30 76 3e 71 d2 1d 3c b3 2a 8c 3d
       0.016400825 0.24041905 0.009632693 0.06844082
0001f0 0c c7 43 be 30 3a 81 3e f6 61 c3 3d 40 c2 8c 3d
       -0.19118899 0.25239706 0.09540169 0.06872988
000200 86 40 a8 3e f4 cd 7b be 93 28 8d 3e 30 36 a1 be
       0.32861727 -0.24590284 0.27570018 -0.31486654
000210 17 a9 c6 3d 7b 99 0b 3d c5 63 3b bd 74 27 56 3d
       0.0970022 0.034081917 -0.045749445 0.05228372
000220 54 3f 94 ba 85 a7 cc 3d 2d aa 10 ba 52 72 8b bd
       -0.0011310377 0.09992889 -0.0005518522 -0.06808914
000230 95 ac 0e bd 82 07 dd 3d 54 40 93 be b4 bb 7f bd
       -0.034832556 0.107924476 -0.28760016 -0.062434867
000240 1e 08 62 3e 0f e7 b4 3c 9b 76 50 3e b9 04 85 bd
       0.22073409 0.022082834 0.20357744 -0.064950414
000250 c3 b2 8c 3c 3f 63 2e 3e 88 03 1f be 69 e8 74 bd
       0.017175084 0.17030047 -0.15528691 -0.059791956
000260 c8 3e 8c be dd ee 1d bd 10 b0 c0 3d c5 90 39 3c
       -0.27391648 -0.038557876 0.09408581 0.01132602
000270 f6 3d 3e 3d 6b 2d 91 3d e6 41 74 bd 7f 83 16 3f
       0.04644581 0.07088741 -0.05963316 0.587944
000280 b2 3d af 3d 3f 32 2a 3c 46 03 89 bd 58 c1 5e 3e
       0.08556689 0.010387956 -0.066900775 0.21753442
000290 e6 cc b4 3d ab 9e 19 bd 94 2b 30 be 46 b1 47 3d
       0.08828144 -0.037504833 -0.17204124 0.048753045
0002a0 d9 1e 99 3e b1 ae 1c be 56 91 1f be 32 e3 cb 3d
       0.29906347 -0.15301014 -0.15582785 0.099554434
0002b0 f2 43 81 3d a0 69 77 be 1f 1d 9f bd bf ab c0 3e
       0.06311788 -0.24161386 -0.07769226 0.37631032
0002c0 8c 2d 4c be 30 ba ee bd 9e 4d d5 3d 79 40 c4 3c
       -0.1993925 -0.11656606 0.10415195 0.023956524
0002d0 81 85 02 be c8 ca 88 be dd 75 26 bc b4 53 74 be
       -0.1274624 -0.2671721 -0.010159937 -0.23860055
0002e0 c6 84 b5 be 27 46 1c bd f7 bc df 3d 80 6e c4 3d
       -0.3545286 -0.03815284 0.10924714 0.09591389
0002f0 00 ad 55 bd 3c 73 06 3e 02 b6 81 be 6c 50 3c 3e
       -0.05216694 0.13129896 -0.25334173 0.18390054
000300 19 12 77 bd 43 b3 ee 3d cc 2f 04 3c 98 23 12 be
       -0.060319994 0.11655285 0.008068036 -0.1427139
000310 c0 54 4d be 5d ce e9 3d dd c0 8c be 23 b3 1e 3e
       -0.20051861 0.11416314 -0.27490893 0.15498023
000320 7a cd 03 bd d9 65 2c 3e f3 ed fe 3c fa 62 c4 be
       -0.03217838 0.16835727 0.031119322 -0.38356763
000330 ad 61 42 be ed 53 d3 3d 93 aa ba 3e e7 52 61 bd
       -0.18982573 0.10318742 0.36458263 -0.055010702
000340 fc 5b ba 3c a3 d2 53 3d c0 da 92 3e 45 a4 15 3d
       0.02274894 0.05171455 0.28682518 0.036533613
000350 3d a6 b9 3e dc 8f 1b 3d cd 76 d0 bd 10 c1 1f bd
       0.36259642 0.037978992 -0.101789095 -0.039002478
000360 af 0d 73 3d e6 fc 01 3e bd b6 75 be 47 04 3c bb
       0.05933922 0.1269413 -0.2399549 -0.0028689073
000370 58 bb c8 3d 10 c0 3d be b9 7d e9 bd 47 c4 18 be
       0.09801358 -0.18530297 -0.11400933 -0.14918624
000380 86 3e 7a be 20 7a 63 3d a4 9c 5c be 16 a5 01 3e
       -0.24437913 0.05553639 -0.21544129 0.12660632
000390 39 b3 ca be 91 6e b6 3b c0 e7 0a 3c b5 60 9e bd
       -0.3958986 0.0055673798 0.008478105 -0.07733289
0003a0 69 8f f4 bd 98 14 6d be ee 07 83 be 37 dd 9d 3e
       -0.11941416 -0.23152387 -0.25591987 0.30832836
0003b0 a3 89 a4 bc c9 6d fd bd 53 17 b8 bd 8f 46 4e be
       -0.020085162 -0.123744555 -0.08988824 -0.20144103
0003c0 59 a3 3a be 6a 03 91 be d5 2e b0 bd 18 1b dc bd
       -0.18226375 -0.28322917 -0.086026825 -0.10747355
0003d0 4b d5 d1 3c d5 15 52 be 41 14 a5 be b7 1a 9c bb
       0.025614401 -0.20516141 -0.32242015 -0.004763927
0003e0 1b f8 17 3e b7 b7 b2 bd 5f 9f 75 bd 75 eb 86 3c
       0.14840738 -0.08726447 -0.05996644 0.016469697
0003f0 7c f1 f5 bd 09 91 5c be d5 77 e4 3d e8 82 9d 3e
       -0.1200895 -0.21539702 0.11155669 0.30763936

bias f4 [64]
000000 00 00 00 00 00 00 00 00 00 00 00 00 00 00 00 00
       0.0 0.0 0.0 0.0
000010 00 00 00 00 00 00 00 00 00 00 00 00 00 00 00 00
       0.0 0.0 0.0 0.0
000020 00 00 00 00 00 00 00 00 00 00 00 00 00 00 00 00
       0.0 0.0 0.0 0.0
000030 00 00 00 00 00 00 00 00 00 00 00 00 00 00 00 00
       0.0 0.0 0.0 0.0
000040 00 00 00 00 00 00 00 00 00 00 00 00 00 00 00 00
       0.0 0.0 0.0 0.0
000050 00 00 00 00 00 00 00 00 00 00 00 00 00 00 00 00
       0.0 0.0 0.0 0.0
000060 00 00 00 00 00 00 00 00 00 00 00 00 00 00 00 00
       0.0 0.0 0.0 0.0
000070 00 00 00 00 00 00 00 00 00 00 00 00 00 00 00 00
       0.0 0.0 0.0 0.0
000080 00 00 00 00 00 00 00 00 00 00 00 00 00 00 00 00
       0.0 0.0 0.0 0.0
000090 00 00 00 00 00 00 00 00 00 00 00 00 00 00 00 00
       0.0 0.0 0.0 0.0
0000a0 00 00 00 00 00 00 00 00 00 00 00 00 00 00 00 00
       0.0 0.0 0.0 0.0
0000b0 00 00 00 00 00 00 00 00 00 00 00 00 00 00 00 00
       0.0 0.0 0.0 0.0
0000c0 00 00 00 00 00 00 00 00 00 00 00 00 00 00 00 00
       0.0 0.0 0.0 0.0
0000d0 00 00 00 00 00 00 00 00 00 00 00 00 00 00 00 00
       0.0 0.0 0.0 0.0
0000e0 00 00 00 00 00 00 00 00 00 00 00 00 00 00 00 00
       0.0 0.0 0.0 0.0
0000f0 00 00 00 00 00 00 00 00 00 00 00 00 00 00 00 00
       0.0 0.0 0.0 0.0
