experiments/acrobot_random_baseline_20250829_000931/checkpoints/final.pt (torch, 210253 bytes, 11 tensors)

weight f4 [64, 6]
00000000: 185f 493e 5bb4 2a3e f40d 8d3e 2429 4c3e
00000010: f417 17be 7f1f ccbd 4f9a 81bc f5e5 603c
00000020: ea5d 923d ad31 4b3e bc91 2f3e 0dac 823e
00000030: 81eb a6bd d147 793e 32ea 563e 61c6 3c3e
00000040: 7993 aa3d a621 1d3e bec2 953e 18a4 cbbc
00000050: 0108 303d ce21 393e 56f2 633c f6f0 16bb
00000060: bd84 e6bd fdf9 c93d a2fe 70be 7627 8dbe
00000070: f9a5 1a3d 0835 6a3e 46eb efbc cdf2 753e
00000080: 29cc d0bd ffce 383e b597 703e 22d5 6cbe
00000090: 5b70 603e 232f 8dbe 672a d83d 28df 18bc
000000a0: c6db e53c 06a2 f33d 0361 7fbe 523b 863e
000000b0: 0a15 7f3e f4ca 083c fe6c a4bd cc60 90be
000000c0: f484 533e 3184 6bbe 530f 17be cbad 673e
000000d0: 016b 8f3e 80b4 423d 1312 55be 52e0 7a3e
000000e0: a9aa 92bd e252 18bd 8c2b 633d 2ea3 df3d
000000f0: 0432 d6bd 6a55 2dbe 0e2e 8dbe ff16 77be
00000100: 0313 bb3d 7999 723e d075 103e 40ab dd3d
00000110: a307 bcbd a03f 743e 06ad c3bc be7a 883e
00000120: ad70 753e 34f4 c7bd 9917 933e a27d a7bc
00000130: 3be7 8b3e cb8d b13d 20e0 9ebd b1da 16be
00000140: f93b 873e 2275 55be 3a58 7fbc 3df9 213e
00000150: 97aa 843e d8d6 d0bd 4c31 95be 92cb 60be
00000160: 06b4 ecbd c515 8d3e e4af 05be 9b2d b2bd
00000170: cdf0 b13d 8fcf 79be 658c 923e 9e87 83be
00000180: 14dd bdbd 2956 ffbd 0558 653e 5774 973c
00000190: 7d9e 0e3e 8497 4e3d 492d 8f3e bf14 6d3e
000001a0: 80f0 333e 28e3 ec3d 0f87 a93d c96f 0fbe
000001b0: 595f 5a3e 9d4e 4e3d 77bb 09be d8fe f6bd
000001c0: 73e3 7e3e 624b 6bbe 041e e63c f23d 3d3e
000001d0: fd22 893e f6a3 263e c002 d23c 3ba7 e63d
000001e0: 502c 5f3e 0e88 d03c 3f29 853d 0448 6e3e
000001f0: 7a8c 9bbd c4b8 203d 8599 a93d a5b1 443e
00000200: 3aea 96bc e0b1 82be f906 ab3d c949 46be
00000210: ed9f 0fbd e4fc 06be b77c 633e dca9 2fbe
00000220: 4c33 a0bd e01d 013e ee90 0bbe a6f8 e93d
00000230: 26d0 92be aa72 253e b368 bf3c 01b6 12be
00000240: 0c29 e4bd a2c7 08be d05e 103d 7fc6 5bbd
00000250: 4650 953c 385d 3a3e 1c0d 133e e522 2b3e
00000260: e210 edbc 7214 86be 3132 17be 73d3 db3d
00000270: d127 90be 9679 67be f2f4 32bc 13eb a53b
00000280: cce4 33be e157 12bc 6484 f8bd 82a2 11ba
00000290: 181d 853d 2699 f9bd 2a5c 873e 32bf ddbd
000002a0: a69b 613e a603 42be a766 abbd 0c34 54be
000002b0: 00aa 1bbe 8be4 473d 996c 41bd ac7c 8bbe
000002c0: e8f7 773e f445 0b3e 6eca 913e 988d 0a3e
000002d0: 3ca0 d73d a7ed 43bd ebd6 88be c742 4d3e
000002e0: e166 8abe c525 183e a29d 6cbe aa93 dbbd
000002f0: 6a29 8cbe 9e4b 22bd 21f5 8cbe 6f02 28be
00000300: b0de 913d 6801 833e bfdb 62be 6eff 8b3e
00000310: a793 ec3c 9dfd a53d 454b 3b3e a8fc 6dbe
00000320: 4b78 02be 8d3b 8cbe b9b6 673d 77a8 823d
00000330: a016 ca3d 63d2 f5bd 61df f5bd 8ad1 243e
00000340: d644 8dbe 9097 cfbd 651e 1dbe fc9a 3fbc
00000350: b43d 8bbd 189f 923d 0349 833d 0a69 be39
00000360: 5a3d 51be f521 6fbd 49d8 843e 5301 54be
00000370: afc1 413e 8411 7d3e 0980 06be cbc7 d9bd
00000380: f85c 85be 9111 813d fd80 d4bc 7773 5f3e
00000390: 5209 843e 5d17 3abe 0fe7 45be 60cb 2bbe
000003a0: 15d0 4f3e 0c9b 303e b850 e6bd 16f3 73be
000003b0: e288 6dbd 74e7 35be 4332 e73d c3a0 dfbc
000003c0: 7401 1c3d 1101 f03d 9d92 1e3d ec48 933e
000003d0: 4b8a 483e cbcb 58be d791 673e 5d1e c8bc
000003e0: 894d 6cbd e6df 023e 1e92 ccbc a3d4 75be
000003f0: 9920 89be c788 85be 84ba 843e 6577 42be
0.19665182 0.16670363 0.27549708 0.19937569 -0.14755231 -0.09966945 -0.01582065 0.013726701
0.07146819 0.19843169 0.17145437 0.2552189 -0.081503876 0.24343802 0.20987776 0.1843505
0.083289094 0.15344867 0.2925014 -0.02485852 0.042976383 0.18079302 0.013912758 -0.0023031808
-0.112557866 0.098621346 -0.23534635 -0.2756917 0.03775594 0.22871792 -0.029286992 0.24018402
-0.101951905 0.18047713 0.23495372 -0.23128179 0.2191786 -0.27575025 0.105549626 -0.009330548
0.028058898 0.11896138 -0.24939351 0.26217133 0.2491037 0.008349169 -0.08028601 -0.2819885
0.20656186 -0.22999646 -0.1475194 0.2262489 0.28011325 0.04753542 -0.20807676 0.24499634
-0.07161457 -0.03718842 0.05546145 0.10919796 -0.104587585 -0.16927114 -0.275742 -0.24129866
0.091344856 0.23691358 0.14107442 0.10823679 -0.09181144 0.23852396 -0.023886215 0.26656145
0.23968764 -0.09763375 0.2872894 -0.020445649 0.27324852 0.08669623 -0.07757592 -0.14731862
0.26412943 -0.20845464 -0.015585 0.15817733 0.259114 -0.10197228 -0.29139173 -0.21952656
-0.11557774 0.2755567 -0.13055378 -0.08700105 0.08688507 -0.24395584 0.28622738 -0.25689405
-0.09270683 -0.124676056 0.22396858 0.018488092 0.13927646 0.050437465 0.27964237 0.23152445
0.17572212 0.11566764 0.082777135 -0.14007486 0.21325435 0.05036794 -0.13450418 -0.12060326
0.24891452 -0.22977975 0.028090484 0.18480662 0.26784506 0.16273484 0.025636077 0.112623654
0.21794248 0.0254555 0.06502008 0.2326966 -0.07595153 0.039238706 0.08281235 0.19208391
-0.018422235 -0.25526333 0.08350939 -0.19364084 -0.035064626 -0.13182408 0.22215544 -0.1715464
-0.07822284 0.12609053 -0.13629505 0.11424379 -0.2867443 0.16157022 0.023365354 -0.14327241
-0.111406416 -0.13357404 0.03524667 -0.053656098 0.018226754 0.18199623 0.1436047 0.1671253
-0.028938714 -0.26187474 -0.1476524 0.1073369 -0.28155378 -0.22604975 -0.010922657 0.0050634234
-0.17567748 -0.008932085 -0.121346265 -0.00055555266 0.0649969 -0.12187414 0.26437503 -0.10827483
0.22032031 -0.18946704 -0.08369189 -0.2072298 -0.15201569 0.04880194 -0.047222707 -0.27243555
0.24215662 0.13600904 0.28474754 0.13530576 0.10528609 -0.047834065 -0.2672647 0.20045005
-0.27031615 0.14858158 -0.23107007 -0.10721524 -0.27375346 -0.039622895 -0.2753077 -0.16407178
0.071225524 0.2558701 -0.22154139 0.27343315 0.028879 0.081050135 0.18290432 -0.23240912
-0.127412 -0.27389184 0.056570742 0.06379788 0.098675966 -0.12003019 -0.12005497 0.16095558
-0.2759158 -0.1013633 -0.15343626 -0.011694666 -0.06798878 0.07159251 0.0641041 0.00036317884
-0.2043356 -0.058381993 0.25946262 -0.2070363 0.1892154 0.24713713 -0.13134779 -0.106338106
-0.26047492 0.06302179 -0.025940413 0.2182139 0.2578836 -0.18172975 -0.19326423 -0.167768
0.20294221 0.17246646 -0.11245865 -0.23823199 -0.05799187 -0.17764074 0.112888835 -0.027298337
0.038087323 0.117189534 0.03871404 0.28766572 0.19584005 -0.21171491 0.22614227 -0.02442854
-0.05769113 0.12780723 -0.024972018 -0.24006896 -0.26782683 -0.26080915 0.2592355 -0.18990858

bias f4 [64]
00000000: 0000 0000 0000 0000 0000 0000 0000 0000
00000010: 0000 0000 0000 0000 0000 0000 0000 0000
00000020: 0000 0000 0000 0000 0000 0000 0000 0000
00000030: 0000 0000 0000 0000 0000 0000 0000 0000
00000040: 0000 0000 0000 0000 0000 0000 0000 0000
00000050: 0000 0000 0000 0000 0000 0000 0000 0000
00000060: 0000 0000 0000 0000 0000 0000 0000 0000
00000070: 0000 0000 0000 0000 0000 0000 0000 0000
00000080: 0000 0000 0000 0000 0000 0000 0000 0000
00000090: 0000 0000 0000 0000 0000 0000 0000 0000
000000a0: 0000 0000 0000 0000 0000 0000 0000 0000
000000b0: 0000 0000 0000 0000 0000 0000 0000 0000
000000c0: 0000 0000 0000 0000 0000 0000 0000 0000
000000d0: 0000 0000 0000 0000 0000 0000 0000 0000
000000e0: 0000 0000 0000 0000 0000 0000 0000 0000
000000f0: 0000 0000 0000 0000 0000 0000 0000 0000
0.0 0.0 0.0 0.0 0.0 0.0 0.0 0.0
0.0 0.0 0.0 0.0 0.0 0.0 0.0 0.0
0.0 0.0 0.0 0.0 0.0 0.0 0.0 0.0
0.0 0.0 0.0 0.0 0.0 0.0 0.0 0.0
0.0 0.0 0.0 0.0 0.0 0.0 0.0 0.0
0.0 0.0 0.0 0.0 0.0 0.0 0.0 0.0
0.0 0.0 0.0 0.0 0.0 0.0 0.0 0.0
0.0 0.0 0.0 0.0 0.0 0.0 0.0 0.0

weight f4 [64, 64]
00000000: cc2f c0bd 9b32 b53d 0486 043e 8e68 5d3e
00000010: fa80 2fbe 1eb6 263e c275 41be 4ff2 1c3e
00000020: 2b45 2ebe 74e1 49be 6fef 293d 164e 86bd
00000030: 2d6e 2abe 6523 03bd df06 d1bd f4ef 243e
00000040: 091b 5c3e ca53 0fbd e38c 51be ccca 04bd
00000050: 3482 cabd bc70 a1bd 76bd 973c 27a5 0abe
00000060: 8d6e 2c3e 5bc8 0e3e 245b 623d 2581 413e
00000070: db40 d9bc 8aa0 33be 4a60 4a3e 32b4 a23d
00000080: bc32 4c3e 7738 0abe d968 1fbb 08d6 8cbd
00000090: a6ec b7bd 5048 cabd e18c f6bd afaf 0b3e
000000a0: d944 50be c37e 59be e7b5 b53b 9549 93bd
000000b0: 9c61 a7bd 387d 3abe 57bf 29be 8f2d 0a3e
000000c0: 0052 303e 943b c2bd 9ee6 9bbd 2883 d3bd
000000d0: 98fb d7bd b434 a33d 29dd 013e 2ece d43d
000000e0: 8f9b 7ebd d906 c03b bf67 91bd df2b c0bd
000000f0: 7da3 eebc 569e c83d fdd5 a83d 1ed7 243d
00000100: 3f5f aabd d87a cb3d e906 2fbd 43c5 61bd
00000110: ae3e 533e ae6f ea3d bf66 2bbe 0539 1cbe
00000120: 2a8d 33bb be4b 08be 4831 f1bc abde 0abe
00000130: 7644 18be 6fb6 963d 125a 82bd 5660 8d3c
00000140: 19dc 04be 0c62 243e c6a1 173d afd9 fbbd
00000150: 7c76 3fbe 847f 0c3e 0c5b 393c 9e01 f03d
00000160: 3e35 b7bd 2076 03bd aa61 453e 1a93 c53d
00000170: 1eef 42bd f42f 12be 15a3 c73d 19e0 003e
00000180: f881 483e d73c 1cbe 799d 31bd fdd0 0ebe
00000190: c8c5 d0bc 4ff3 8b3d e5f6 513d 6fff 363e
000001a0: 5fd7 3dbe 119b 04be ac1e f33d 680f 95bc
000001b0: 917b 063e e7ac 44be d22f 08be b636 26be
000001c0: e3f3 523e e1fe 543d d394 67bd 88ad 153e
000001d0: 53e1 03be bbe0 d43d db9f ce3c 6f87 663d
000001e0: 4581 b3bd 9f4d 5abe d73a 12bd 8359 3c3e
000001f0: d50c 483e eb30 fe3d fce0 53be 4e4c b3bd
00000200: c9ae 0ebd 37c3 46bc 70d7 19be 2d30 fcbd
00000210: 2767 5f3d cd4d 573e 38fb c3bd bd41 063e
00000220: b2f9 1dbe f821 9c3d a237 43be 71ac f2bc
00000230: a5bd 243e 4647 8f3d 47ee 043d 5a4b 27be
00000240: 01d4 82bd 62e7 54be 989a 1dbe 562f 3fbe
00000250: b0f7 503c 0cd4 12be 784c 0fbe 454f 3bbe
00000260: 120d 24be 66fb 803d 2f42 69b9 52b2 a33c
00000270: 8a6e 9ebd b3ba 143c 2724 403e fe97 20be
00000280: a724 bcbc 1bf0 7e3c 3534 263d b968 573e
00000290: ab57 373e 9ce2 d63d 692e 373b 43cc a13b
000002a0: 3c91 d2bd a896 783d 1157 323e bc82 173e
000002b0: 47d8 ab3d 102e 67bd e5ef 88bd dce1 5a3e
000002c0: 21f2 b43d af58 133d 80e7 7ebd b8b8 59be
000002d0: eb72 303e ea3b 9d3d 5988 02bc 5ae5 3abe
000002e0: 6dd0 843c 93c4 403e e7ff a4bd 17ae a93d
000002f0: ac19 073e 256b 99bd 889a 09bd dde3 00be
00000300: dd0b f33c 3ae4 2e3e a8d3 34be e3a1 8dbd
00000310: 71a3 5c3e db59 123e 42f8 5bbe 5e02 35be
00000320: 01e7 8aba 6cbf b33d 398f cbbd a485 14be
00000330: 914b fcbd 7b5e 213e a585 413e 8f0d eebc
00000340: 11f6 f5bd a8a6 fe3d cfd2 0ebd 52c4 cb3d
00000350: 09d5 2fbe 2c3a 0ebe 9728 fa3d 1517 783d
00000360: 3e1a 023e 0960 413e 4e41 b83d 2b0b 0dbd
00000370: bf83 2a3e e406 a9bd ac0c 853d 8065 a8bc
00000380: 8a2a 523e 98fc 28bd 1e66 fdbd d483 bb3d
00000390: 861f f0bd a807 16be 0df1 89bc 42ed 03be
000003a0: 60c8 093e c70f 26be 7cea 25be cc50 273e
000003b0: e59a 1a3e 6037 123e 86ef 38bd 24fd 8fbd
000003c0: 710b 5b3e 8e73 903c 0133 1d3e 8564 1fbc
000003d0: aa17 fb3d 4f42 cd3c b80e 48be 9497 31be
000003e0: 7a7b 233e b380 e9bd 2646 07be 9ca7 dbbd
000003f0: ebc5 1fbd 004c 09be d967 d33d edec b03d
-0.093841165 0.08847543 0.12941748 0.21621916 -0.17139044 0.1628041 -0.18892577 0.15326808
-0.17018573 -0.1971491 0.041488107 -0.065578625 -0.16643591 -0.032016177 -0.10206389 0.1610716
0.21494688 -0.034992017 -0.204639 -0.032419965 -0.098881155 -0.078828305 0.01852296 -0.13539563
0.16839047 0.13943617 0.0552627 0.18896921 -0.026520183 -0.1754171 0.19763294 0.07944526
0.19941229 -0.13498102 -0.0024323969 -0.06876761 -0.08980684 -0.09877074 -0.12038589 0.13641237
-0.20338763 -0.21239762 0.005545366 -0.07191769 -0.081729144 -0.1821183 -0.16576897 0.13493942
0.1721878 -0.0948402 -0.07612346 -0.103277504 -0.105460346 0.07969037 0.12682022 0.10390888
-0.06216007 0.0058601913 -0.07099866 -0.09383368 -0.029130692 0.09795825 0.0824394 0.040244214
-0.08318948 0.0993554 -0.0427312 -0.055119764 0.20629379 0.114470825 -0.16738413 -0.15256126
-0.0027397373 -0.13310143 -0.029442444 -0.13561504 -0.14869866 0.07359015 -0.06364836 0.01725785
-0.12974586 0.16053027 0.037019514 -0.12297379 -0.18697542 0.13720518 0.011313211 0.117190585
-0.08945702 -0.032095075 0.19275537 0.09647198 -0.04759132 -0.14276105 0.09747902 0.12585486
0.19580829 -0.15257584 -0.04336307 -0.1394691 -0.025484934 0.06833517 0.051260848 0.17870878
-0.18539189 -0.12949778 0.118710846 -0.018195823 0.13133074 -0.19206582 -0.13299492 -0.16231808
0.20600848 0.052000884 -0.056538414 0.14616978 -0.12878923 0.103944264 0.02522271 0.056281503
-0.087648906 -0.21318673 -0.035700645 0.18393521 0.19536145 0.12411674 -0.20691293 -0.08754788
-0.034834657 -0.012131504 -0.15023589 -0.12313876 0.054541733 0.21025772 -0.095694005 0.13111015
-0.15427282 0.076236665 -0.19064191 -0.029623242 0.16087969 0.06996016 0.0324538 -0.16337338
-0.06388093 -0.2079139 -0.15391004 -0.18670401 0.012754366 -0.14338702 -0.13994014 -0.18291958
-0.16020611 0.062979504 -0.00022245267 0.01998249 -0.077359274 0.009077716 0.18763791 -0.1568298
-0.022966696 0.015560175 0.040577132 0.21036042 0.17904536 0.10492441 0.0027951247 0.00493768
-0.102816075 0.060690552 0.17416026 0.14795965 0.08390861 -0.056440413 -0.06686381 0.21375221
0.08835245 0.035973247 -0.062232494 -0.21261871 0.17231338 0.07677443 -0.007967078 -0.18251553
0.016212666 0.18824987 -0.08056622 0.08285158 0.13193387 -0.07491139 -0.033594638 -0.12586923
0.029668743 0.17079249 -0.17658865 -0.06915643 0.21546723 0.1429209 -0.21481422 -0.17676684
-0.0010597409 0.08776745 -0.09939427 -0.14504105 -0.12319101 0.15758698 0.18898638 -0.0290592
-0.12009824 0.12434131 -0.03486901 0.099495545 -0.1717111 -0.13889378 0.12214773 0.060568888
0.12705323 0.18884291 0.08996831 -0.03443448 0.1665182 -0.082532674 0.064965576 -0.020556211
0.2052404 -0.041256517 -0.12372993 0.091560036 -0.117247626 -0.14651358 -0.016838575 -0.12883475
0.13455343 -0.16216956 -0.1620273 0.16339415 0.1509815 0.14278936 -0.045150302 -0.070307046
0.21391083 0.017633226 0.15351488 -0.009728556 0.12260373 0.025056032 -0.19536865 -0.17342979
0.15965071 -0.114015006 -0.13210353 -0.10725328 -0.03900711 -0.13407898 0.10322542 0.0863894

bias f4 [64]
00000000: 0000 0000 0000 0000 0000 0000 0000 0000
00000010: 0000 0000 0000 0000 0000 0000 0000 0000
00000020: 0000 0000 0000 0000 0000 0000 0000 0000
00000030: 0000 0000 0000 0000 0000 0000 0000 0000
00000040: 0000 0000 0000 0000 0000 0000 0000 0000
00000050: 0000 0000 0000 0000 0000 0000 0000 0000
00000060: 0000 0000 0000 0000 0000 0000 0000 0000
00000070: 0000 0000 0000 0000 0000 0000 0000 0000
00000080: 0000 0000 0000 0000 0000 0000 0000 0000
00000090: 0000 0000 0000 0000 0000 0000 0000 0000
000000a0: 0000 0000 0000 0000 0000 0000 0000 0000
000000b0: 0000 0000 0000 0000 0000 0000 0000 0000
000000c0: 0000 0000 0000 0000 0000 0000 0000 0000
000000d0: 0000 0000 0000 0000 0000 0000 0000 0000
000000e0: 0000 0000 0000 0000 0000 0000 0000 0000
000000f0: 0000 0000 0000 0000 0000 0000 0000 0000
0.0 0.0 0.0 0.0 0.0 0.0 0.0 0.0
0.0 0.0 0.0 0.0 0.0 0.0 0.0 0.0
0.0 0.0 0.0 0.0 0.0 0.0 0.0 0.0
0.0 0.0 0.0 0.0 0.0 0.0 0.0 0.0
0.0 0.0 0.0 0.0 0.0 0.0 0.0 0.0
0.0 0.0 0.0 0.0 0.0 0.0 0.0 0.0
0.0 0.0 0.0 0.0 0.0 0.0 0.0 0.0
0.0 0.0 0.0 0.0 0.0 0.0 0.0 0.0

weight f4 [3, 64]
00000000: f5e0 69be 7753 2b3d c85b 563e 787d b03d
00000010: e245 56be 17f2 9abd 2449 94be bc0d 85be
00000020: 5624 343e f277 b3bd 8fae 8e3e c1e4 4ebc
00000030: 5020 f4bd 8ab6 193e 1eac 65be 1c9d 313e
00000040: a68e 7fbc 3e4d 0e3b b588 703e bc09 91bd
00000050: 5bc0 e63d 6071 7ebe 9029 20be 8583 363e
00000060: fddc 17be 6dee 84be 91af 4b3e b144 a6bd
00000070: f57e 89be 18d7 43be b1c0 163d f97d 5d3e
00000080: 915d f4bd 3192 5dbe 307c 5e3e 67e3 5fbe
00000090: d82f cdbc 57a6 f4bd 2d7e 8d3e 598e 363e
000000a0: 5349 563e 4038 8c3e 3934 6e3e 8bca 483e
000000b0: d5bd 74be 1527 c5bb 545f 8b3e fe90 d6bd
000000c0: f861 90bd afc9 ddbc e96b 8c3d 351d b9bd
000000d0: 1894 59be 98e8 d73c 9adb 22be 8450 d73d
000000e0: 0fcd 87be 1340 70be 7f95 e73d 0287 d6bd
000000f0: f732 08be 412b 84be ec59 983e 8c80 89be
00000100: 0c82 20be 2109 673e 8aaf 913e e479 ac3d
00000110: e472 d7bd cabc 95bc bbfb db3d afb3 6d3e
00000120: 5147 3ebe e015 98bd a7b7 3abe 9f6f d7bc
00000130: d4a5 54bd 6480 40be 9851 32bd 1021 f6bd
00000140: 51d9 60be ac3e 8cbe 7955 5f3e bd6b 58bd
00000150: 9122 8cbe c435 2dbe 52cb 21be cff8 6c3e
00000160: 159b d5bd 8b16 bc3d 45c6 713e 7789 49be
00000170: 6916 f0bc 3cd8 493e bba4 913c c0cd 8ebd
00000180: f38a 5b3e 883f 0ebe 4ca7 69be c367 013e
00000190: c514 b2bc 0252 4ebe 399f d2bc 7654 3d3e
000001a0: 6898 74bd 7dd6 02be b0a0 92be ffbc 883e
000001b0: 5903 7fbd cce7 96be d0ee 64be 3a77 a6bd
000001c0: 14a8 25be f9e3 83be aaa3 9fbd 072d 7e3e
000001d0: 47e0 4abe 895f 653d 7140 17be 0f54 083d
000001e0: 205b 2d3e 700e 73be bef4 d8bd 4b3f 25be
000001f0: e345 25be 8746 633d fe96 c4bc 4551 693e
00000200: 6478 bdbd 7a2c 6cbe 103f fdbd 393e 0e3e
00000210: e276 203e 42d6 593e 71d0 8bbe 7603 c4bc
00000220: 3a4e 783e 2b70 86bd 6353 01bc b2fb 9bbb
00000230: 3334 ffbc f816 fa3d 8bee 8d3e 5215 7fbe
00000240: d53b 603e 3a93 8cbd 62f2 1bbe 50ae 0e3d
00000250: 65e3 cb3d d5b4 6c3e 9423 e23d aa6b 453e
00000260: f6a4 29be c8cf 1bbd 5685 6cbe c49a 6a3d
00000270: d980 3fbe e0fa 443e ab4e 38bd 0135 383c
00000280: 2e04 64be d88a 7a3e 0e5c 423e 4611 743e
00000290: 15e6 55be 738e 8bbe 1369 58be 0aa7 443e
000002a0: 0fff 91be eba4 8cbe e6da 613e ccac 823c
000002b0: 7fe7 9bbc 1c96 343d e882 3a3d 9adc 4ebd
000002c0: 76a7 653e 98ed a7bd 8da7 97be 4bec 2dbd
000002d0: d07f 4d3e 36af 90bd 63d1 33be c053 80bd
000002e0: b109 27be 06d2 343e 762e 523e 951b a6bd
000002f0: c937 6dbe 347d 27bd c3f5 f33b fff8 9cbd
-0.2283972 0.041827645 0.2093345 0.08617681 -0.20925096 -0.07565706 -0.28962052 -0.2598704
0.17591986 -0.08763112 0.27867553 -0.012627781 -0.119202256 0.1501104 -0.22428939 0.17345089
-0.015597975 0.002171352 0.2348965 -0.07081935 0.11267158 -0.24847937 -0.15640855 0.17823608
-0.14830394 -0.25963154 0.19891192 -0.081185706 -0.26854673 -0.1912502 0.03680486 0.21630086
-0.11931909 -0.21637799 0.21727061 -0.21864091 -0.025047228 -0.11945789 0.27635327 0.17827739
0.20926408 0.27386665 0.23262109 0.19608514 -0.2390054 -0.006016622 0.27221167 -0.10476874
-0.07049936 -0.02707371 0.0685652 -0.09038774 -0.212479 0.026356027 -0.15904084 0.10513404
-0.26523635 -0.23461942 0.11307811 -0.104749694 -0.13300692 -0.2581425 0.29756105 -0.26855886
-0.15674609 0.22562076 0.28454238 0.08421686 -0.105199605 -0.018278498 0.10741373 0.23213075
-0.18581893 -0.07426047 -0.1823412 -0.026298342 -0.05191596 -0.18798977 -0.043534845 -0.12018025
-0.219579 -0.27391565 0.21809949 -0.052837122 -0.27370122 -0.16915041 -0.15800217 0.23141788
-0.1042997 0.09183987 0.2361079 -0.19681345 -0.029307561 0.19711393 0.017778745 -0.069728374
0.21439724 -0.13891423 -0.22817725 0.12637238 -0.02173842 -0.20148471 -0.025710689 0.1848925
-0.05971566 -0.12777133 -0.2863822 0.26706693 -0.062259052 -0.29473722 -0.22356725 -0.081282094
-0.16177398 -0.25759867 -0.07794888 0.24821864 -0.19812118 0.055999313 -0.14770676 0.03328329
0.16929293 -0.23735976 -0.10593556 -0.16137426 -0.16139941 0.055487182 -0.02399778 0.22784908
-0.09251478 -0.23063841 -0.12365544 0.13890924 0.1567035 0.21273139 -0.27307466 -0.023927432
0.24248591 -0.06564363 -0.007893416 -0.004760229 -0.03115282 0.12211412 0.27721056 -0.24910477
0.21897824 -0.06864019 -0.1522918 0.034834206 0.099554814 0.23115857 0.11041942 0.19279352
-0.16566834 -0.038039953 -0.23097739 0.057276502 -0.18701495 0.19236326 -0.0449969 0.011243106
-0.2226722 0.24467027 0.18980429 0.23834714 -0.2088855 -0.27257118 -0.21133833 0.19204345
-0.28514907 -0.27469572 0.2205616 0.015951537 -0.019031284 0.044088468 0.045535 -0.05050335
0.22427163 -0.08199614 -0.2962002 -0.042461675 0.20068288 -0.07064669 -0.17560343 -0.06265974
-0.1631229 0.17658243 0.20525536 -0.081107296 -0.23165812 -0.040890887 0.0074450686 -0.0766468

bias f4 [3]
00000000: 0000 0000 0000 0000 0000 0000
0.0 0.0 0.0

weight f4 [64, 6]
00000000: 2201 4f3c 538b 853d e89f 35be 5623 7f3e
00000010: 947f 6dbe 8996 49be c18e 2dbe 62a8 66bd
00000020: d72b 5c3e 27fe a83d 9bdb 823d cce5 38be
00000030: c18d 22be be8c 00bd 0a16 92be 615d 82be
00000040: 758f 043e abd9 03be a475 913e f392 3dbe
00000050: e14f b4bb 305b 133e e074 fa3d e626 cfbd
00000060: f5f0 523d 2dc2 72be 830d 423e 4a8b 6dbe
00000070: e12a 633e ec5a 843e 6c56 833d ef75 08be
00000080: 653b bf3c 789b 953e 2899 9bbd 79bc 13be
00000090: e6bf 76be dff2 27be 82f0 5f3e 7f87 3cbe
000000a0: 0aa5 383c 0f31 953d d216 80be 97fb 823e
000000b0: ad4f 82be 6360 80bc 0c6f 883e cb5a cfbc
000000c0: dfbd 223e 1508 803d 5065 4bbe 8dee b5bd
000000d0: 15fa 22be 5d3e 7dbe 5b35 60be 4be4 6ebe
000000e0: 7e1d 6ebe 52d2 9f3d ac69 8b3d 436a 6e3e
000000f0: 81f7 93be 38e4 73be 0017 b9bd 1a59 20bd
00000100: db9e 903e 3274 81be 03ae df3d b41b 8fbe
00000110: fb58 88be 382f 0a3d ee61 a1bd 7b7b deba
00000120: 23af 70be a69e 95be c90d e83d d0c6 04be
00000130: 018d 80be 04aa 42be a340 523d dfd1 923e
00000140: ffa0 853e a0cd a4bd 5b7b 213e fe85 8cbe
00000150: da7d 4f3e b42b 58be 395c 2c3e 0221 45be
00000160: 678b dabc 651f 7e3e 315f 92be e829 6fbe
00000170: 51ce 683e 52bd 9abc e7d6 02be dac0 333e
00000180: 02a2 603e 29f5 8f3c 169b 95be 74c8 d93d
00000190: b425 36bd 6490 8a3e 017e 6f3e 3e3c 7ebd
000001a0: 5568 73bd be8c 883d 3809 dbbd cade 8c3d
000001b0: be45 bcbd bfa3 81be 0583 ce3d b7de 323e
000001c0: 7317 9a3d ace2 fb3c ab26 6d3e dc60 223e
000001d0: ae08 3a3d 0916 5bbe 0880 203e d6c2 e33d
000001e0: 58af 82bd 4e0b 3dbe 32e7 213d f261 56be
000001f0: 643b 8cbe 8113 3f3d 77b4 baba 2da1 423d
00000200: 39cc c1bc 5ad0 88be dff6 853e 844c 92bd
00000210: d70e 01be 44b7 8f3e f2dc 7c3e 9226 50be
00000220: 88cd 393e 7c54 19be b94f a7bd a1a0 aa3d
00000230: eaf8 5a3e 6367 8d3d 86ec 85bd f021 653c
00000240: 38e0 0fbe 06c3 993d c86c 21bc b08a 4d3e
00000250: 3617 c0bd 2ba1 353e a677 493d b832 77be
00000260: 4083 e9bc 3535 743e 022f 8f3e 95b0 72be
00000270: af82 bfbd d105 d9bd 3c47 393d 3351 83be
00000280: 4e16 303e 2a05 f03d 011c b23a f398 7fbe
00000290: 4af1 863e c010 34bd 91f8 64be 3ee3 cf3d
000002a0: c4ec b83c f58f bc3d e5bd 873e f5c3 913d
000002b0: 9faa 2e3e 2476 38be 1b00 f93d 8590 9fbd
000002c0: cf6b 4fbd 08c4 febd cb79 17bd 0e32 233e
000002d0: 7043 823e 3372 213c a855 763e d77f 92be
000002e0: 8f53 3c3e 9bbb ef3d b8c6 14be ceb5 6dbe
000002f0: 41cb 4bbd 03a7 85be 989b 6f3e ff63 c53d
00000300: 3d0f 7ebe 6de4 1e3e 6a3a 3e3e 10b2 683c
00000310: 6859 0f3c 4de5 263e b2de e23c e238 013e
00000320: 6ede 45be 6561 f3bd 8bd5 943e b690 02be
00000330: e739 8cbe 7fca bebd 4aed 933e 5452 823e
00000340: 118b 9b3a e9b9 0a3e 2021 c83d 077c 87bd
00000350: c7c5 f93c 97fb a8bd 48fa 173d b73b 28bd
00000360: 424b df3d de5c fc3d 4452 6e3e d5ff 56be
00000370: b6b3 63be 0964 28be fe13 243e 81e2 27be
00000380: 8dcb f8bd 2aa1 e9bd 63c0 b33d c87b 72be
00000390: 5f64 4a3e 165e dd3d 2c8c a4bd 9ccd 7cbe
000003a0: 89bd 813e 5319 c53d 66d8 71be b7fe 7a3d
000003b0: bf93 d23d 2541 87be 6a10 2dbe 0436 2c3e
000003c0: c981 863e 5a6f 2e3e 722e 5b3e 4b35 b0bd
000003d0: ceaa 0abd b068 78be 4cbc 823c 452c 4d3e
000003e0: f291 2dbe e1b4 843e 92af 9dbd 4a40 b03d
000003f0: 5178 5abe a93a 63be 6b19 1c3e 3ae6 af3d
0.012634547 0.065207146 -0.1773678 0.24915823 -0.23193198 -0.19686331 -0.16948988 -0.056312926
0.21501099 0.08251601 0.06389543 -0.1805641 -0.15874387 -0.031384222 -0.2853244 -0.25461867
0.1294535 -0.12876002 0.28410065 -0.18513088 -0.0055026864 0.14390254 0.122293234 -0.10114841
0.051499326 -0.23706885 0.18950467 -0.23197666 0.22184326 0.25850618 0.06412968 -0.13326238
0.023343751 0.29220176 -0.075975716 -0.14427365 -0.24096641 -0.16401242 0.2186909 -0.18411063
0.011269817 0.07284748 -0.2501741 0.25582573 -0.25451413 -0.01567096 0.26647222 -0.025311848
0.15892743 0.062515415 -0.19862866 -0.088833906 -0.15915711 -0.24730821 -0.21895353 -0.23329274
-0.23253438 0.07803787 0.06807265 0.23282723 -0.28899768 -0.23817527 -0.0903759 -0.039147474
0.28246197 -0.25283962 0.10921862 -0.27950823 -0.26630387 0.033736438 -0.07880007 -0.0016974056
-0.2350431 -0.29222602 0.11330754 -0.12966466 -0.25107577 -0.19010168 0.051331174 0.28675744
0.26099393 -0.08047032 0.15769713 -0.27445978 0.20262852 -0.21110421 0.16832055 -0.19250873
-0.0266778 0.24816664 -0.2858825 -0.2335583 0.22734953 -0.018889103 -0.12777291 0.17554036
0.21936801 0.017572956 -0.29219884 0.106339365 -0.04446955 0.27063286 0.2338791 -0.06206917
-0.05942567 0.066674694 -0.10695118 0.06878431 -0.0919299 -0.2532024 0.10083584 0.17467771
0.07524004 0.030747734 0.23159282 0.15857261 0.045418434 -0.21395124 0.1567384 0.111211464
-0.063811004 -0.18461344 0.039527126 -0.209358 -0.2738906 0.04664946 -0.0014244457 0.04751699
-0.023656951 -0.2672146 0.2616491 -0.071435004 -0.12603317 0.28069508 0.24693659 -0.20327213
0.1814481 -0.14973634 -0.08169503 0.08331419 0.21384016 0.06904485 -0.06539254 0.013985142
-0.14050376 0.07507901 -0.009852596 0.20072436 -0.09379427 0.17737262 0.04918637 -0.24140441
-0.028504968 0.23848422 0.27965552 -0.23700173 -0.09351098 -0.105968125 0.04523395 -0.25647888
0.17196009 0.11719735 0.0013588668 -0.24960689 0.26355964 -0.043961287 -0.22360446 0.10150765
0.022573836 0.09207145 0.26512066 0.07117454 0.17057274 -0.18013817 0.12158223 -0.07791237
-0.050639924 -0.12439734 -0.036981385 0.15937063 0.25442076 0.009853887 0.24056113 -0.2861316
0.1839125 0.11705705 -0.1452893 -0.23213884 -0.049754385 -0.26103982 0.23399198 0.09638213
-0.248105 0.15516825 0.1857697 0.01420261 0.008749343 0.16298409 0.02769408 0.12619355
-0.19323131 -0.11883811 0.2906917 -0.12750515 -0.27387926 -0.09315967 0.28891975 0.25453436
0.0011867007 0.13547482 0.09771943 -0.06615453 0.030489815 -0.08251112 0.03710392 -0.041072574
0.10903026 0.123224005 0.2327357 -0.2099603 -0.22236523 -0.1644441 0.16023251 -0.16394998
-0.12148199 -0.11407693 0.08776929 -0.23680031 0.19764851 0.10808961 -0.08034548 -0.24687809
0.25339916 0.09623971 -0.23617706 0.06127807 0.102820866 -0.2641689 -0.16900793 0.1681748
0.26270893 0.17034665 0.21404436 -0.08603915 -0.0338543 -0.24258685 0.015958928 0.20036419
-0.16950205 0.2591925 -0.07699503 0.08606012 -0.2133496 -0.22190346 0.15244071 0.08588834

bias f4 [64]
00000000: 0000 0000 0000 0000 0000 0000 0000 0000
00000010: 0000 0000 0000 0000 0000 0000 0000 0000
00000020: 0000 0000 0000 0000 0000 0000 0000 0000
00000030: 0000 0000 0000 0000 0000 0000 0000 0000
00000040: 0000 0000 0000 0000 0000 0000 0000 0000
00000050: 0000 0000 0000 0000 0000 0000 0000 0000
00000060: 0000 0000 0000 0000 0000 0000 0000 0000
00000070: 0000 0000 0000 0000 0000 0000 0000 0000
00000080: 0000 0000 0000 0000 0000 0000 0000 0000
00000090: 0000 0000 0000 0000 0000 0000 0000 0000
000000a0: 0000 0000 0000 0000 0000 0000 0000 0000
000000b0: 0000 0000 0000 0000 0000 0000 0000 0000
000000c0: 0000 0000 0000 0000 0000 0000 0000 0000
000000d0: 0000 0000 0000 0000 0000 0000 0000 0000
000000e0: 0000 0000 0000 0000 0000 0000 0000 0000
000000f0: 0000 0000 0000 0000 0000 0000 0000 0000
0.0 0.0 0.0 0.0 0.0 0.0 0.0 0.0
0.0 0.0 0.0 0.0 0.0 0.0 0.0 0.0
0.0 0.0 0.0 0.0 0.0 0.0 0.0 0.0
0.0 0.0 0.0 0.0 0.0 0.0 0.0 0.0
0.0 0.0 0.0 0.0 0.0 0.0 0.0 0.0
0.0 0.0 0.0 0.0 0.0 0.0 0.0 0.0
0.0 0.0 0.0 0.0 0.0 0.0 0.0 0.0
0.0 0.0 0.0 0.0 0.0 0.0 0.0 0.0

weight f4 [64, 64]
00000000: 1303 873b 7d57 313e 1a37 f9bd 2521 883d
00000010: 8cf9 053e 5865 e53d 9780 423e ec06 8d3d
00000020: a612 333d 8d53 3dbe 2ca6 b33c 96f0 273e
00000030: db7f 953d 1633 553b 734a 203d 13c3 8f3d
00000040: 02e3 c5bd 43e3 12be 50d0 223d cdcf 9d3d
00000050: 440e 5a3b 0899 25be 8e84 57be c471 653d
00000060: c7d1 c7bd f370 10be eb64 dcbd 38d7 86bd
00000070: 9e0e b3bd 39b5 803d 76a4 463e 24af 513e
00000080: adc4 83bd ed29 e23d ebd5 70bd 7bd0 4abe
00000090: 0373 16be c6e8 e4bd 6128 4f3e a2c4 203e
000000a0: 33b6 c4bd 4f71 1dbd e561 403e 6c79 10be
000000b0: b984 e7bd 6bea 4cbe cde4 0c3e 5b8e 873d
000000c0: 961c 4e3e cd00 3bbe 515d 7ebc 2fc9 203e
000000d0: 6240 3dbe 8229 8d3a 84cb b3ba aa01 b53c
000000e0: 8487 323d 2118 3cbe 6da6 45bd 5374 80bd
000000f0: 2987 39bd 3801 dc3d ffe9 8dbd 7d28 073e
00000100: bcd8 4b3e e3d4 a2bc f006 40be 91c6 8f3c
00000110: 4123 003d 8941 0f3e 3e7c cebb 7168 743d
00000120: 944c 503e ae65 bebd 3f65 0c3d 7462 f83d
00000130: 4421 1a3e ca37 693d e609 753d 2cef 093e
00000140: 2974 393d 5db2 4dbe 567d 2cbd bd4f 323d
00000150: 96af 4a3e de23 57be 459b 6dbd c389 52be
00000160: d8f3 0fbd fdea d43c d665 d43b 0962 adbd
00000170: 7d18 44be 6c58 15be d515 973c b931 18bc
00000180: d38c 49be 86af c63d 0475 bcbd 613e 423e
00000190: 8290 d8bc b727 1bbd 05aa d3bd 1a4f 6b3c
000001a0: 2dfa 673c 71bf 01be 1b42 31bd 8237 323e
000001b0: 6384 f53d 646b 55be 6d9e 5ebd da68 3cbe
000001c0: 2c63 503e 3bfb 43be f6b5 45bd 85fa 1dbb
000001d0: ad7b 443d 5205 e73d d0d5 813d 76df a83d
000001e0: 7092 ba3c 2b08 debc 40cd ef3d fdb4 56be
000001f0: 721e 4abd 9835 7a3d 8c52 773d 5487 0dbe
00000200: fbe7 e8bd b815 8c3d 6c5e 1a3e 655f 3f3e
00000210: 0908 283e 0338 05be fd4f 323e be7d 3e3e
00000220: c4f7 2b3e 5c28 983c 69ed f33c ca7e a5bd
00000230: a0a8 653d 761a 2abc 7e8b 86bd fe88 23be
00000240: 0a21 bf3d 52c3 31be b1ef e0bd 3367 00be
00000250: f727 9abd cb45 b738 fc80 263d 9343 b53d
00000260: ed20 17bd 527d 2e3d 9c19 a5bc 81a0 ac3d
00000270: 9189 5abd 7ffd d13c 9370 053e 9f54 fd3d
00000280: 4814 44be 568b 373e 2d64 3d3e 1719 0f3c
00000290: 9843 54be 0a1a 2e3e 2edf 523e c512 9e3a
000002a0: bfbd 543e f251 8e3d 6dec 2a3e 81eb e43d
000002b0: 0489 37bc 87f5 db3d 29ae 153d 4d1b 9abc
000002c0: 81a6 0f3e 6e6a b3bd 988d 0e3e 8de4 823d
000002d0: 0235 4cbe 5bda fabd 9a6a d4bc 3ac9 a8bd
000002e0: 85ca 163e 6ec2 373e 776a 47be e2df 1c3e
000002f0: ea2d 213e 0d04 cbbd 6f14 533e ba18 b63d
00000300: 40f8 2bbe 4334 40be d425 153e 7ea5 3dbe
00000310: 6c25 ce3d facc 7ebd f465 853d 0305 2d3e
00000320: 0e22 8bbc f6b1 a73c 0e5c 353b 4e99 58bd
00000330: 363b adbb 2a0c c2bd 40f0 93bd 26d0 28be
00000340: 70cb d5bd 242f 3b3e 47d8 f6bd 2992 58bd
00000350: 3b12 29be 057e a8bd c32d 423e bf5a 4dbd
00000360: 22e6 2a3e 3563 9dbd 2923 473e ca36 45bc
00000370: 8267 eabd b720 37bd 4f5c 81bd a9ec 97bc
00000380: ee69 5dbe 8f5e fbbc 68ae de3d a52c f73d
00000390: 7e2e 20bd 067d d33d 7b9c 7bbd 2262 cdb9
000003a0: 15f2 82bd b173 03be 679d dfbd 47af d53d
000003b0: 6e80 87bb aa86 61bc a625 40bd 0ec5 c9bc
000003c0: 8643 0d3e 6c24 933c bd05 cabb f5b4 d93c
000003d0: 595d 56bd c8bd 79bd 6ebc 5a3e a4e4 d43d
000003e0: 6da8 8e3d 3240 40bd 8eaa 8cbd be87 d3bd
000003f0: ead1 283e 9d1c 223e af94 4abe 491e bbbd
0.0041202395 0.1731853 -0.12168713 0.06646947 0.13083476 0.112009704 0.18994366 0.06886086
0.043718956 -0.18488903 0.021929823 0.1640037 0.07299777 0.003253167 0.0391335 0.07019629
-0.09662439 -0.14344506 0.039749444 0.077056505 0.0033272663 -0.16171658 -0.2104666 0.0560167
-0.09756809 -0.14105587 -0.10761436 -0.065840185 -0.087430224 0.062845655 0.19398674 0.20476967
-0.06433997 0.11043153 -0.058797758 -0.19806091 -0.14692311 -0.111772105 0.20230247 0.1570001
-0.09605064 -0.038438138 0.18787344 -0.14108819 -0.11304612 -0.20011298 0.13759156 0.06618949
0.20128092 -0.18262024 -0.015525178 0.15701745 -0.18481591 0.0010769817 -0.0013717269 0.02209552
0.04358627 -0.1836858 -0.04825442 -0.06272187 -0.045294914 0.1074242 -0.06929397 0.13199039
0.19906896 -0.019876903 -0.18752646 0.017550739 0.03128362 0.13989843 -0.006301432 0.059669916
0.20341712 -0.092967376 0.034276243 0.121281534 0.15051752 0.05693797 0.059823893 0.13470143
0.045276795 -0.20087571 -0.042111717 0.043533076 0.19793543 -0.21009776 -0.058009405 -0.20560364
-0.035144657 0.025990957 0.0064818664 -0.08465964 -0.19149967 -0.14584512 0.018443028 -0.009289199
-0.19682626 0.09701447 -0.092020065 0.18969108 -0.026436094 -0.037879672 -0.10335163 0.014362121
0.014158768 -0.12670685 -0.043275934 0.17403987 0.119881414 -0.20841748 -0.054350305 -0.18399373
0.20350331 -0.19138806 -0.048269235 -0.002410562 0.04796951 0.11280312 0.063396096 0.08245747
0.022774905 -0.027103504 0.1170907 -0.20967479 -0.04934544 0.061086267 0.060381457 -0.13821155
-0.11372372 0.0684008 0.15075082 0.18688734 0.16409315 -0.13009648 0.17413326 0.18602654
0.16793734 0.018573932 0.029776292 -0.08080824 0.056069016 -0.010382285 -0.06569575 -0.15970227
0.093324736 -0.17359665 -0.109832175 -0.12539367 -0.07527154 8.73912e-05 0.040650353 0.088507794
-0.036896635 0.042599984 -0.020153813 0.08429051 -0.05335385 0.025633572 0.13031225 0.12369656
-0.19148362 0.17924246 0.18495245 0.008734009 -0.2072891 0.1700212 0.20592949 0.0012060037
0.20775507 0.069492236 0.16691752 0.11177731 -0.011202101 0.1074019 0.036543045 -0.018811846
0.1402836 -0.08760534 0.13921201 0.06391249 -0.19942096 -0.12248679 -0.025929738 -0.08241506
0.14725693 0.17945263 -0.19474207 0.1531978 0.15740171 -0.09912882 0.20613264 0.08891435
-0.16793919 -0.18769936 0.14565212 -0.18520162 0.100657314 -0.0622072 0.06513587 0.16896443
-0.016984012 0.0204706 0.0027673277 -0.052880578 -0.0052865995 -0.09474976 -0.072235584 -0.16485652
-0.10439193 0.18279701 -0.120529704 -0.052873764 -0.1651086 -0.08227161 0.18962769 -0.05013537
0.16689351 -0.07684938 0.19447006 -0.0120369885 -0.11445524 -0.044708934 -0.063164346 -0.018545466
-0.2162244 -0.030684737 0.10873109 0.12069062 -0.03910684 0.10326581 -0.06142853 -0.00039173762
-0.0639383 -0.12837102 -0.10918694 0.10433822 -0.004135183 -0.013765017 -0.046910904 -0.024630096
0.1379529 0.017961703 -0.006165235 0.026575545 -0.052335117 -0.060972005 0.21360943 0.10395172
0.069657184 -0.04693622 -0.06868468 -0.10328625 0.16486326 0.15831228 -0.19783281 -0.09136636

bias f4 [64]
00000000: 0000 0000 0000 0000 0000 0000 0000 0000
00000010: 0000 0000 0000 0000 0000 0000 0000 0000
00000020: 0000 0000 0000 0000 0000 0000 0000 0000
00000030: 0000 0000 0000 0000 0000 0000 0000 0000
00000040: 0000 0000 0000 0000 0000 0000 0000 0000
00000050: 0000 0000 0000 0000 0000 0000 0000 0000
00000060: 0000 0000 0000 0000 0000 0000 0000 0000
00000070: 0000 0000 0000 0000 0000 0000 0000 0000
00000080: 0000 0000 0000 0000 0000 0000 0000 0000
00000090: 0000 0000 0000 0000 0000 0000 0000 0000
000000a0: 0000 0000 0000 0000 0000 0000 0000 0000
000000b0: 0000 0000 0000 0000 0000 0000 0000 0000
000000c0: 0000 0000 0000 0000 0000 0000 0000 0000
000000d0: 0000 0000 0000 0000 0000 0000 0000 0000
000000e0: 0000 0000 0000 0000 0000 0000 0000 0000
000000f0: 0000 0000 0000 0000 0000 0000 0000 0000
0.0 0.0 0.0 0.0 0.0 0.0 0.0 0.0
0.0 0.0 0.0 0.0 0.0 0.0 0.0 0.0
0.0 0.0 0.0 0.0 0.0 0.0 0.0 0.0
0.0 0.0 0.0 0.0 0.0 0.0 0.0 0.0
0.0 0.0 0.0 0.0 0.0 0.0 0.0 0.0
0.0 0.0 0.0 0.0 0.0 0.0 0.0 0.0
0.0 0.0 0.0 0.0 0.0 0.0 0.0 0.0
0.0 0.0 0.0 0.0 0.0 0.0 0.0 0.0

weight f4 [1, 64]
00000000: f659 443e 11b0 143e 2e6d 023e 823d e4bd
00000010: 9efd 8bbe 481c 3f3e 0041 2d3e 4d78 45bd
00000020: 6fee 673e 078e 6bbe 5347 883e 2b1c 863e
00000030: 0bb4 983e 8016 23be b52d 9bbd 3473 e1bd
00000040: 9feb 17bb 9ead 14bd 7580 74bc ffcb 283e
00000050: 4e42 243d 6d6e c03c fda3 6b3e 4f0f df3b
00000060: 48c5 58be 8280 983e 3fff 003e 6f88 40be
00000070: 4696 023c 0be9 48bd 9ea1 0f3e 1b36 5e3e
00000080: e4e6 70be bd83 31be 7743 9dbd 62b8 48be
00000090: 76b7 4f3e fc9b a6bd ece9 44be d94e 1ebe
000000a0: cd25 8e3e 0fba 0d3e 1abb 643e 1e58 9abe
000000b0: ce71 40be 918f 0f3e f254 283d b927 113e
000000c0: 779e 773e 2290 883e a5e8 d9bd da40 dd3d
000000d0: 5747 f9bc eee4 eb3d 443b 1a3e 030f 383e
000000e0: 6f1a b3bd fff4 883e de37 803e 427d 1dbe
000000f0: d29a 313e 9908 a93d 3708 823d 3732 51bd
0.19174942 0.14520289 0.12736961 -0.11144544 -0.27341932 0.18663132 0.16919327 -0.04821043
0.22649549 -0.23003398 0.26616916 0.26193365 0.29824862 -0.15926552 -0.07577077 -0.110083014
-0.0023181213 -0.036298387 -0.014923205 0.16484068 0.040102296 0.023490155 0.23011775 0.006807245
-0.21169007 0.29785544 0.12597369 -0.18802045 0.007970398 -0.049050372 0.14026496 0.21700327
-0.23525578 -0.1733541 -0.076788835 -0.19601586 0.20284829 -0.081352204 -0.19229859 -0.15459765
0.27763215 0.13840507 0.22336999 -0.30145353 -0.18793413 0.1401961 0.041096635 0.14175309
0.24181543 0.26672465 -0.106400765 0.10803385 -0.030429525 0.11518274 0.1506167 0.17974477
-0.08745276 0.26749417 0.25042623 -0.15379813 0.17344216 0.08253593 0.06349223 -0.05107328
