experiments/ppo_cartpole_homework_20250828_121102/checkpoints/auto_step_10000.pt (torch, 282091 bytes, 44 tensors)

layers.0.weight f4 [64, 4]
0.20245312 0.123688005 -0.050347734 -0.07731263 0.20254909 -0.024250686 -0.20859328 -0.022484493
-0.024788134 -0.22761764 -0.06203025 -0.13848671 0.18825018 -0.25219932 -0.025246624 -0.06038626
0.17776228 0.2437145 -0.17103705 0.15461415 -0.025547227 0.020591822 0.24878098 0.047299847
0.05448411 0.20740859 0.26491052 0.10428284 -0.18614943 -0.09313696 -0.10806352 -0.14719735
0.06501228 -0.18396078 0.12842548 0.110102125 0.08819106 0.16608678 0.17053214 0.009765888
-0.30742878 -0.0717409 -0.059034657 0.16166662 0.3198614 -0.0023141748 -0.34544173 -0.3010042
0.2586107 -0.24771506 -0.15678076 0.11676579 0.17292407 -0.13983515 0.06499829 0.19279052
0.279574 -0.093570955 -0.23936646 0.05881518 0.021077326 0.044459157 0.080888115 0.020490263
0.23692042 -0.21549006 0.20237455 -0.17662771 -0.11024243 0.17242222 -0.24296919 -0.17349589
-0.08173248 0.2672183 0.03606947 0.25425264 -0.20278585 -0.06992319 -0.08966821 -0.11012004
-0.20925763 0.25370908 -0.15636703 -0.16602995 0.2560353 -0.14971331 -0.30082855 0.10629686
-0.09896656 -0.27669394 -0.045007735 0.16559897 -0.16750959 -0.2918359 -0.31462798 -0.24823807
-0.14944468 -0.11863922 0.21810356 0.051175706 0.16412286 0.12097072 -0.07320809 -0.25862575
-0.21793242 0.323358 -0.10162468 0.15196636 0.05352643 0.012653773 0.14362752 -0.08908838
0.117695816 0.0039579486 0.08519424 -0.27893597 -0.103189334 0.2871773 0.027396958 -0.11061339
0.2776671 0.24133298 -0.2529141 -0.09694917 0.0103362575 -0.03602278 -0.17492804 0.044676468
0.16399252 -0.13553202 0.34376627 -0.05282693 0.19967309 -0.21050984 -0.0619566 -0.12657282
0.15001163 -0.12873556 0.03216195 0.050977957 0.06927136 -0.13465458 -0.31733802 -0.083316706
-0.25261036 -0.06291723 -0.09641587 0.23148851 0.2108861 0.26940876 0.30483985 0.29447985
-0.22779194 0.08548653 0.1294862 0.07536221 -0.04302614 0.2014339 -0.07907678 -0.34393367
-0.17065305 -0.13383505 -0.09579483 -0.3051799 0.1508059 -0.2506612 -0.18365027 -0.132524
-0.16797364 0.1068565 0.19949514 0.124187164 -0.0029996873 0.21381469 0.2549623 0.010028558
0.17824678 0.04149515 0.22090694 0.054855563 0.116443954 0.23012589 0.0023583816 0.13557297
-0.116563305 -0.20771597 0.16414018 0.2541801 0.18400389 0.030866843 0.018870335 -0.25073212
-0.22886856 0.26696244 0.0017177376 -0.07700724 -0.027394375 0.0056249923 0.2566219 0.24294929
-0.11277232 0.16987355 0.25768766 0.121051386 -0.31672037 -0.1463918 -0.10793374 -0.00041469804
0.21132772 -0.15068989 -0.23005679 -0.28293738 0.21529381 -0.103703886 0.017197188 -0.09166586
0.20795469 0.10192444 0.04741198 -0.08087387 0.07668058 -0.059546623 -0.2843458 -0.16682091
-0.0408295 0.08766665 0.19543166 0.26428998 0.02003593 -0.22273594 -0.17976724 0.20141149
0.29627994 0.011335107 -0.21157645 -0.25689813 0.08544211 -0.15216741 -0.16882467 0.19146597
0.052380368 0.06424784 -0.148439 -0.27962953 0.054944698 0.18754402 -0.27843145 0.15336142
-0.13197163 0.11469348 -0.049033787 0.17980042 0.3079279 -0.100954674 -0.3297621 0.15120465
00000000: df4f 4f3e 2350 fd3d 6d39 4ebd 1656 9ebd
00000010: 0769 4f3e 60a9 c6bc 7a99 55be 6631 b8bc
00000020: 7c10 cbbc 9914 69be 6e13 7ebd 76cf 0dbe
00000030: a8c4 403e 4520 81be 02d2 cebc 9557 77bd
00000040: 5107 363e 4b90 793e 5624 2fbe 2c53 1e3e
00000050: 6b48 d1bc 2eb0 a83c 71c0 7e3e 7cbd 413d
00000060: bb2a 5f3d eb62 543e 5aa2 873e 3e92 d53d
00000070: f59d 3ebe 97be bebd 6850 ddbd e7ba 16be
00000080: 2925 853d 3760 3cbe f881 033e 397d e13d
00000090: 849d b43d a712 2a3e fa9f 2e3e 1a01 203c
000000a0: 4e67 9dbe e5ec 92bd 53ce 71bd ef8b 253e
000000b0: e0c4 a33e 69a9 17bb bddd b0be 391d 9abe
000000c0: 9f68 843e 04a9 7dbe 238b 20be e722 ef3d
000000d0: 0213 313e f230 0fbe d31d 853d e16a 453e
000000e0: 5324 8f3e 21a2 bfbd 7b1c 75be 30e8 703d
000000f0: 5baa ac3c ce1a 363d aba8 a53d 32db a73c
00000100: 449b 723e 6da9 5cbe 463b 4f3e e5dd 34be
00000110: c8c6 e1bd 738f 303e eacc 78be e8a8 31be
00000120: 5c63 a7bd d6d0 883e 95bd 133d 672d 823e
00000130: 18a7 4fbe e433 8fbd f7a3 b7bd 9e86 e1bd
00000140: a247 56be 28e6 813e ae1e 20be c103 2abe
00000150: 0f17 833e 724e 19be 3306 9abe 2bb2 d93d
00000160: fbae cabd d4aa 8dbe 085a 38bd c792 293e
00000170: a287 2bbe 846b 95be eb16 a1be 1f32 7ebe
00000180: 0708 19be 1ff9 f2bd 8a56 5f3e 9e9d 513d
00000190: d30f 283e 7fbf f73d 20ee 95bd 986a 84be
000001a0: ad29 5fbe 2e8f a53e 9a20 d0bd 129d 1b3e
000001b0: 883e 5b3d c551 4f3c 1813 133e f873 b6bd
000001c0: 810a f13d aeb1 813b 517a ae3d b2d0 8ebe
000001d0: ee54 d3bd e708 933e 966f e03c 4689 e2bd
000001e0: 622a 8e3e fe1f 773e f57d 81be 498d c6bd
000001f0: 6859 293c 9f8c 13bd 5620 33be acfe 363d
00000200: a8ed 273e e8c8 0abe 2202 b03e 0d61 58bd
00000210: 1a77 4c3e e48f 57be 34c6 7dbd 4e9c 01be
00000220: a69c 193e 41d3 03be 40bc 033d 43ce 503d
00000230: 25de 8d3d e4e2 09be 217a a2be f3a1 aabd
00000240: 2556 81be c0da 80bd af75 c5bd 530b 6d3e
00000250: 87f2 573e f2ef 893e f813 9c3e 10c6 963e
00000260: 4a42 69be 9013 af3d 0898 043e 8157 9a3d
00000270: 2e3c 30bd b044 4e3e 02f3 a1bd 1318 b0be
00000280: acbf 2ebe 0e0c 09be 1430 c4bd 8a40 9cbe
00000290: dd6c 1a3e aa56 80be d10e 3cbe 5fb4 07be
000002a0: 4801 2cbe 95d7 da3d 7448 4c3e d755 fe3d
000002b0: 6796 44bb 3df2 5a3e 6b8a 823e d24e 243c
000002c0: 5386 363e d2f6 293d 6e35 623e 3ab0 603d
000002d0: 2b7a ee3d 1fa6 6b3e 148f 1a3b a4d3 0a3e
000002e0: beb8 eebd 7fb3 54be 5d14 283e e523 823e
000002f0: 846b 3c3e 76dc fc3c f695 9a3c f65f 80be
00000300: 855c 6abe 4daf 883e b625 e13a f9b5 9dbd
00000310: 2b6a e0bc db51 b83b f263 833e b3c7 783e
00000320: 2df5 e6bd 55f3 2d3e a3ef 833e cae9 f73d
00000330: 2c29 a2be bbe7 15be 5d0c ddbd d46b d9b9
00000340: 4b66 583e 734e 1abe 0294 6bbe 2bdd 90be
00000350: fb75 5c3e b462 d4bd 1ee1 8c3c 4fbb bbbd
00000360: 13f2 543e c3bd d03d 1033 423d 33a1 a5bd
00000370: b50a 9d3d 29e7 73bd c695 91be 1ad3 2abe
00000380: d53c 27bd 938a b33d 3d1f 483e 0451 873e
00000390: 6422 a43c e414 64be e714 38be d03e 4e3e
000003a0: 01b2 973e e2b6 393c 7fa7 58be 2788 83be
000003b0: 46fc ae3d c6d1 1bbe 60e0 2cbe a80f 443e
000003c0: cc8c 563d 5f94 833d 6500 18be 9a2b 8fbe
000003d0: b10d 613d 8a0b 403e 918e 8ebe c70a 1d3e
000003e0: 9223 07be 6ae4 ea3d a7d7 48bd 9a1d 383e
000003f0: baa8 9d3e 53c1 cebd 94d6 a8be 64d5 1a3e

layers.0.bias f4 [64]
0.003012184 0.003558979 -0.00059167563 0.000380736 -0.00050053105 -0.006673524 3.9099054e-05 0.00077771937
-0.0010951118 -0.0038894382 -0.0017530436 0.0032827237 0.005031082 -0.0020039524 0.0035648 -0.00017181676
0.0006093886 0.003975094 -0.0012326197 0.00055751536 -0.0019676161 0.0010580774 -0.0023292245 0.0010861191
-0.0019334326 -0.00028838072 0.0008008455 -0.0012237983 0.0023595162 -0.00062302116 0.0025987676 0.0003993765
-0.0013401173 -0.00020240428 0.0019532212 0.0011587444 -0.0024445471 -0.002908351 -0.0022609148 0.005475751
0.0007049454 0.0037542838 0.0077820607 -0.002536009 0.0005423159 -0.0002661905 -0.0037576 0.0061352635
-0.0023154437 -0.009616428 -0.0044316174 -0.0010455826 0.0026961109 0.0024012967 0.00069658965 6.7246685e-05
-0.0021379197 0.0013967853 0.0024529377 0.0033836197 0.0022347858 0.0042165997 -0.0005845082 0.0029247915
00000000: 1068 453b c23d 693b ae1a 1bba 859d c739
00000010: 1236 03ba 94ad dabb 4afe 2338 dddf 4b3a
00000020: db89 8fba f2e5 7ebb 62c6 e5ba f722 573b
00000030: c6db a43b be54 03bb 6b9f 693b b629 34b9
00000040: 60bf 1f3a 8141 823b db8f a1ba 3926 123a
00000050: 1ff3 00bb 30af 8a3a e7a5 18bb 1c5c 8e3a
00000060: 3c6b fdba ce31 97b9 d5ef 513a db67 a0ba
00000070: 1da2 1a3b 3e52 23ba 1650 2a3b 6863 d139
00000080: e0a6 afba 7c3c 54b9 9d01 003b 03e1 973a
00000090: b234 20bb 089a 3ebb db2b 14bb ee6d b33b
000000a0: 16cc 383a 6e0a 763b a800 ff3b 2c33 26bb
000000b0: 342a 0e3a 7c8f 8bb9 1142 76bb 520a c93b
000000c0: b3be 17bb 398e 1dbc 1a37 91bb ee0b 89ba
000000d0: 3cb1 303b 135f 1d3b 579b 363a ca06 8d38
000000e0: 571c 0cbb 5614 b73a 77c1 203b b8bf 5d3b
000000f0: 7c75 123b 672b 8a3b ae39 19ba dcad 3f3b

layers.2.weight f4 [64, 64]
-0.15658629 -0.008677465 0.14758164 -0.065248795 -0.010808989 -0.07610016 0.08119624 0.15931278
-0.16628213 -0.11894806 0.099171795 0.19147551 -0.055010717 0.06945096 -0.23463798 -0.1616584
0.020083232 0.08676776 0.155057 0.13173959 -0.20026979 -0.059122957 0.10684468 -0.12517686
0.22236824 0.18557166 0.16199796 -0.050240993 -0.08979738 0.12561615 -0.042635407 -0.11690149
-0.19810471 -0.17810144 0.055757888 0.055159464 0.062169738 -0.022750616 0.06876801 -0.09856617
0.14503464 -0.10405724 0.09160114 -0.019379327 0.14335363 0.14209239 0.15340322 -0.07872814
0.11784778 0.0541668 0.14170597 0.034499407 -0.06485617 -0.09996519 -0.12442907 -0.080349684
-0.05471868 0.15725741 0.069100186 -0.045177698 0.0063858773 -0.21139096 -0.02573895 -0.08728988
0.1181019 0.04878838 -0.029927935 -0.1565771 -0.042002726 0.033083227 0.2070603 -0.109797485
-0.092935234 -0.100830756 0.0037250055 0.17005481 -0.009621178 -0.057219427 -0.043999795 0.086915456
-0.05433793 -0.06574119 0.015494991 0.012287022 0.050319474 -0.10710173 0.13992639 -0.12057476
0.106886566 0.0034968548 -0.124848776 0.08956602 0.04594443 -0.0052294615 -0.12194943 -0.06256064
0.2146648 -0.052975424 0.038630046 0.010011835 -0.08147803 -0.026754733 0.07988311 -0.00042353282
-0.10088104 0.08686517 -0.092295766 0.13551272 0.0027731701 0.0318148 -0.11205293 0.10200788
0.026387913 0.21290125 -0.16559117 0.05554878 -0.007072295 -0.04706259 0.19765066 -0.07593754
0.05543155 -0.081504636 -0.06808578 -0.20210281 -0.16186978 0.013195642 -0.06495546 -0.016492598
-0.0679312 0.23607846 0.2220587 -0.08895143 -0.06341064 0.097748555 0.10920048 0.2195063
0.08567403 -0.09654539 -0.15209639 0.2272793 0.17168647 -0.2043251 0.17084026 -0.061098065
-0.17278357 -0.032921173 0.074358396 0.13553935 -0.022051357 -0.1060857 -0.16090135 -0.11211103
0.19589038 -0.17392804 0.08794492 0.15506749 -0.004223235 -0.071702436 0.2154489 -0.15550761
-0.07828313 0.02129024 -0.10259852 -0.040598433 -0.21543753 -0.06394291 -0.0064857486 -0.17609154
-0.12017929 -0.1864553 -0.09597361 0.12581432 -0.19381844 0.09982555 -0.1353165 -0.10552867
-0.21215618 -0.08434875 -0.018449392 -0.14291507 -0.107727505 0.06729998 0.105721384 0.17552754
-0.1151606 -0.026857326 0.052911572 0.063379265 0.18421759 -0.10111163 0.13220203 0.18591419
0.14798605 -0.1402942 0.0008433995 0.11240256 0.09756116 -0.17826924 0.14982729 -0.03152926
0.041370098 -0.15706746 -0.04291641 -0.053079963 -0.112950854 -0.17867114 0.13665955 -0.031290945
-0.16607042 -0.0070458725 0.20105457 -0.11153266 0.088283256 0.10240538 -0.13804473 0.041231234
0.07390375 -0.01589938 -0.12437412 0.06255944 0.122999206 -0.12462777 0.13241228 -0.090221
-0.08839539 0.050546348 -0.14611606 0.07626853 -0.13780949 0.1847632 -0.2422123 0.17421515
-0.14096038 0.24238124 0.118151896 0.06424139 0.19638783 0.096041024 0.04966591 0.0011590939
-0.15586579 0.018698694 -0.095807366 0.18594158 -0.1109855 0.06310706 0.018712359 0.17978765
-0.046425257 0.15797582 0.1511242 -0.16486259 -0.16961592 -0.072891116 -0.1487003 -0.1385487
00000000: 2858 20be ed2b 0ebc a41f 173e 29a1 85bd
00000010: 3018 31bc 67da 9bbd 374a a63d e422 233e
00000020: dd45 2abe 0a9b f3bd 951a cb3d 2812 443e
00000030: eb52 61bd 4e3c 8e3d f044 70be c889 25be
00000040: 9785 a43c 4cb3 b13d 43c7 1e3e bee6 063e
00000050: 8613 4dbe ea2a 72bd 62d1 da3d 5d2e 00be
00000060: 80b4 633e 7f06 3e3e cbe2 253e 80c9 4dbd
00000070: b0e7 b7bd 85a1 003e 77a2 2ebd 0c6a efbd
00000080: f6db 4abe 3960 36be 6262 643d e4ee 613d
00000090: b2a5 7e3d 805f babc 3ed6 8c3d 0fdd c9bd
000000a0: f683 143e f61b d5bd 6199 bb3d 65c1 9ebc
000000b0: 4bcb 123e ab80 113e bc15 1d3e 383c a1bd
000000c0: 2d5a f13d 02de 5d3d 5f1b 113e 404f 0d3d
000000d0: 50d3 84bd 8dba ccbd abd4 febd 608e a4bd
000000e0: b220 60bd 1608 213e 6684 8d3d 400c 39bd
000000f0: 9f40 d13b df76 58be 7eda d2bc 09c5 b2bd
00000100: 69df f13d 53d6 473d 6e2b f5bc bf55 20be
00000110: 0d0b 2cbd 4782 073d 9e07 543e 81dd e0bd
00000120: d454 bebd 5b80 cebd 391f 743b d922 2e3e
00000130: 25a2 1dbc eb5e 6abd 2139 34bd bb00 b23d
00000140: 7391 5ebd 51a3 86bd b4de 7d3c 814f 493c
00000150: cb1b 4e3d 2758 dbbd dd48 0f3e e6ef f6bd
00000160: 58e7 da3d 7d2b 653b b7b0 ffbd 646e b73d
00000170: 3a30 3c3d e75b abbb 9fc0 f9bd cb1f 80bd
00000180: 17d1 5b3e c2fc 58bd 8a3a 1e3d ae08 243c
00000190: f4dd a6bd be2c dbbc c299 a33d 9d0d deb9
000001a0: b89a cebd 5ee6 b13d 9005 bdbd d9c3 0a3e
000001b0: 13be 353b 3c50 023d 027c e5bd 82e9 d03d
000001c0: 772b d83c c902 5a3e bb90 29be 1e87 633d
000001d0: b6be e7bb b4c4 40bd ef64 4a3e 2485 9bbd
000001e0: 310c 633d e7eb a6bd 8f70 8bbd 0af4 4ebe
000001f0: 31c1 25be 8932 583c 5e07 85bd 7c1b 87bc
00000200: 831f 8bbd 8dbe 713e 5b63 633e 2b2c b6bd
00000210: 70dd 81bd 6530 c83d 80a4 df3d 42c6 603e
00000220: de75 af3d 97b9 c5bd 28bf 1bbe e8bb 683e
00000230: 94ce 2f3e 993a 51be c0f0 2e3e f741 7abd
00000240: 2dee 30be 5ad8 06bd 3749 983d d4ca 0a3e
00000250: 0ca5 b4bc 7643 d9bd 53c3 24be 789a e5bd
00000260: 7d97 483e 311a 32be 771c b43d 03ca 1e3e
00000270: 1063 8abb bad8 92bd a39e 5c3e 633d 1fbe
00000280: e852 a0bd df68 ae3c 2c1f d2bd 8b4a 26bd
00000290: a89b 5cbe 80f4 82bd 6786 d4bb 5751 34be
000002a0: 8f20 f6bd 23ee 3ebe d08d c4bd 78d5 003e
000002b0: 5778 46be 5771 cc3d 6990 0abe 6a1f d8bd
000002c0: 783f 59be 0abf acbd 2e23 97bc 5458 12be
000002d0: 3da0 dcbd 92d4 893d 7484 d83d 7ebd 333e
000002e0: 52d9 ebbd e503 dcbc ceb9 583d fdcc 813d
000002f0: 89a3 3c3e 9d13 cfbd f85f 073e 4a60 3e3e
00000300: a889 173e 48a9 0fbe 9517 5d3a 5033 e63d
00000310: 25ce c73d 368c 36be 536c 193e d324 01bd
00000320: b173 293d 4bd6 20be 1ec9 2fbd 606a 59bd
00000330: c752 e7bd 91f5 36be 7bf0 0b3e ef2a 00bd
00000340: 5d0e 2abe 10e1 e6bb 40e1 4d3e 3c6b e4bd
00000350: dacd b43d e9b9 d13d 995b 0dbe 15e2 283d
00000360: d95a 973d 6b3f 82bc dcb7 febd 2a1f 803d
00000370: 02e7 fb3d d83c ffbd 1697 073e cac5 b8bd
00000380: a408 b5bd b009 4f3d 739f 15be ad32 9c3d
00000390: ee1d 0dbe 9032 3d3e 8006 78be 7565 323e
000003a0: eb57 10be ca32 783e 9ff9 f13d fd90 833d
000003b0: e419 493e 28b1 c43d 7b6e 4b3d bdec 973a
000003c0: 489b 1fbe 012e 993c a736 c4bd 7867 3e3e
000003d0: 5e4c e3bd 463e 813d a94a 993c 411a 383e
000003e0: 6928 3ebd 6ac4 213e 4dc0 1a3e bdd1 28be
000003f0: ccaf 2dbe f047 95bd e444 18be b6df 0dbe

layers.2.bias f4 [64]
-0.00073948974 -0.0002183566 0.0005718967 0.00032260653 -0.0003934285 0.00016734112 4.093936e-05 -0.00018411205
-0.00012144324 0.00073692465 0.00040672751 7.525414e-05 -0.00025094175 0.00040979052 -1.0881835e-05 0.00017914244
0.00042494625 -8.938523e-05 -0.0012223879 -0.00028746025 -0.00033187127 -0.0004100879 -0.00028167502 0.0001429526
0.00033048738 0.00043732498 -8.047371e-05 0.0005418688 -0.0005227556 -8.125986e-05 0.00068872335 0.0004976992
-0.0014819523 -0.00011252249 0.00019633007 -0.0006899613 8.841809e-05 -0.0013335092 -0.0010302245 0.0009462445
-0.0015636213 -0.0025637937 -0.0002959533 -0.0019129661 -0.00018192934 -0.0002977085 0.0005949968 -0.002034885
0.0010662863 0.00040895026 -9.054344e-05 -0.00029161983 -0.0032167437 -7.125962e-05 -2.2089782e-05 -0.00045063545
-2.772695e-05 -0.000238043 -0.00020416614 0.0010740914 0.00062216417 -0.0009369999 0.00092719245 7.125508e-05
00000000: 51da 41ba a7f6 64b9 56eb 153a 8423 a939
00000010: 1445 ceb9 4a78 2f39 4eb6 2b38 340e 41b9
00000020: 58af feb8 2d2e 413a 0b3e d539 c2d1 9d38
00000030: d590 83b9 27d9 d639 2091 36b7 2fd8 3b39
00000040: 52cb de39 5474 bbb8 8838 a0ba 43b6 96b9
00000050: 02ff adb9 1101 d7b9 c8ad 93b9 8ce5 1539
00000060: 4445 ad39 c448 e539 fec3 a8b8 330c 0e3a
00000070: 8909 09ba 0e6a aab8 718b 343a 0778 023a
00000080: 113e c2ba 0dfa ebb8 f4dd 4d39 85de 34ba
00000090: 1a6d b938 25c9 aeba 9908 87ba 650d 783a
000000a0: 6df2 ccba 5205 28bb 2e2a 9bb9 7ebc faba
000000b0: 49c4 3eb9 c215 9cb9 8ff9 1b3a b55b 05bb
000000c0: a2c2 8b3a 6068 d639 24e2 bdb8 8de4 98b9
000000d0: 01d0 52bb 3871 95b8 724d b9b7 4443 ecb9
000000e0: 2c97 e8b7 2e9b 79b9 6e15 56b9 87c8 8c3a
000000f0: bb18 233a 00a1 75ba d50e 733a c86e 9538

output_layer.weight f4 [2, 64]
0.08587625 -0.25647742 0.21625945 0.067205 0.20758466 0.019007869 0.04750585 0.181667
0.14096132 0.069048695 0.18786508 -0.056078482 -0.1710876 0.16016965 0.1405625 0.037605956
0.06297295 -0.06472643 -0.23799933 0.11702639 0.10701552 0.106372654 -0.06534186 -0.09302006
-0.0046985066 0.10298411 0.19082657 -0.0033719735 -0.2423439 0.2540386 0.20622456 0.17785779
-0.25702533 -0.18237583 -0.19406289 -0.10709462 0.14120924 0.27547225 0.22168523 0.12416684
-0.16527116 -0.24420574 0.22130853 -0.24162142 -0.149794 -0.16028519 -0.0065052644 -0.08879294
0.27918136 0.03468361 0.0308208 -0.12424619 -0.0844342 -0.008268163 0.22826855 -0.21783319
0.14860797 -0.192955 -0.121285945 -0.15613867 -0.06573656 0.15323061 -0.093689226 -0.16915424
0.17348486 0.1702319 -0.3024185 -0.08259117 0.30160797 -0.10151328 0.009218344 -0.13559888
-0.053280964 -0.110726304 0.22580905 0.2460948 -0.23913358 -0.30315098 -0.06418417 0.29736176
-0.052451957 0.24607615 -0.031384893 0.21454561 0.27379328 0.017556973 0.25433886 0.23242386
-0.090859845 -0.06682543 -0.013091233 -0.21745448 -0.0015755579 0.12051167 0.13800487 0.032915607
-0.12808424 -0.0771293 0.08416264 0.17904891 -0.28895482 0.31410566 0.2675084 0.032783784
0.24006945 -0.19014715 0.29426065 0.13444506 0.047165062 -0.07956814 -0.2629768 0.26987875
-0.011533942 -0.25227734 -0.025918754 0.0155507475 0.1757241 0.21076852 -0.21410598 -0.05881694
0.23447558 -0.12742092 -0.0749932 -0.15697423 -0.108347125 0.2187652 -0.12823549 0.16668524
00000000: e3df af3d 0251 83be 1e73 5d3e c6a2 893d
00000010: 1391 543e 64b6 9b3c 7f95 423d ea06 3a3e
00000020: 2a58 103e 6769 8d3d b45f 403e 8db2 65bd
00000030: 9631 2fbe 8303 243e 9eef 0f3e b408 1a3d
00000040: f6f7 803d 4a8f 84bd 19b6 73be 88ab ef3d
00000050: f42a db3d e8d9 d93d f4d1 85bd 4d81 bebd
00000060: eef5 99bb 55e9 d23d 0a68 433e 54fc 5cbb
00000070: 0029 78be 5911 823e 882c 533e 5a20 363e
00000080: d398 83be bbc0 3abe 6cb8 46be 6d54 dbbd
00000090: 2899 103e b30a 8d3e 7401 633e 2f4b fe3d
000000a0: d83c 29be 1211 7abe b49e 623e 9b6b 77be
000000b0: 9963 19be cd21 24be 1d2a d5bb 13d9 b5bd
000000c0: dcf0 8e3e 6710 0e3d e77b fc3c c974 febd
000000d0: d6eb acbd 3077 07bc 3bbf 693e aa0f 5fbe
000000e0: b02c 183e ff95 45be c464 f8bd d1e2 1fbe
000000f0: e4a0 86bd 7ce8 1c3e 23e0 bfbd c536 2dbe
00000100: 04a6 313e 4551 2e3e 99d6 9abe 8f25 a9bd
00000110: 5c6c 9a3e 32e6 cfbd 8a08 173c 6fda 0abe
00000120: 243d 5abd 79c4 e2bd 7d3a 673e 4600 7c3e
00000130: 6fdf 74be 9b36 9bbe fd72 83bd cd3f 983e
00000140: ddd7 56bd 63fb 7b3e 728d 00bd d8b1 5b3e
00000150: a22e 8c3e a4d3 8f3c b438 823e 8500 6e3e
00000160: ba14 babd c5db 88bd 9c7c 56bc 63ac 5ebe
00000170: f382 ceba d3ce f63d 2651 0d3e 84d2 063d
00000180: 8428 03be f7f5 9dbd 765d ac3d 9958 373e
00000190: e3f1 93be 75d2 a03e dcf6 883e 4a48 063d
000001a0: c4d4 753e efb5 42be 55a9 963e f7ab 093e
000001b0: 2730 413d 9ff4 a2bd e5a4 86be 8c2d 8a3e
000001c0: dcf8 3cbc 7f2a 81be 9153 d4bc 90c8 7e3c
000001d0: 05f1 333e b4d3 573e 993e 5bbe 08ea 70bd
000001e0: 5e1a 703e a17a 02be 0996 99bd dabd 20be
000001f0: 19e5 ddbd fc03 603e 2a50 03be 89af 2a3e

output_layer.bias f4 [2]
-0.00023374865 0.00023374756
00000000: 6d1a 75b9 221a 7539

layers.0.weight f4 [64, 4]
0.17258024 0.15122904 0.17282736 -0.12811092 -0.06931168 0.17996532 -0.14843176 -0.08607552
-0.06344744 -0.19717667 0.21001895 0.11330289 -0.25134727 0.24477409 0.28424808 -0.02091149
-0.07673985 -0.1414846 0.266187 0.24267551 0.23876345 -0.05657081 -0.10272254 0.26054013
0.006919924 0.19674887 -0.28217933 -0.2644523 -0.18955949 0.24254957 -0.24839653 0.059381448
-0.19951947 -0.042450044 0.09563 -0.117882684 0.11420877 -0.14462218 0.16002174 0.086720556
0.13985369 0.24856868 0.14992426 -0.018733665 -0.17018148 -0.06945892 0.07369503 0.0770628
0.032867912 -0.2847608 -0.1783925 -0.1655246 0.2123688 -0.16006088 0.2653539 0.23702446
-0.057869785 -0.15499566 -0.16393302 0.24168307 -0.27956483 -0.15890542 0.23362273 0.1451838
0.16263431 -0.1891976 -0.15555118 0.24473606 -0.29735908 0.04821886 -0.2732659 0.24749522
-0.13668488 0.22863746 -0.21875644 0.042250697 0.27786833 0.113231815 0.20344652 0.16570796
-0.0398267 0.119646475 0.13593306 -0.009205 -0.0027210799 -0.09378725 0.18211845 0.2734275
0.10811005 -0.017317658 -0.12888163 -0.120547175 -0.14113285 0.28384808 0.2389568 0.2551501
0.058410086 -0.18248837 0.19626398 -0.10517311 -0.046546757 0.20207141 0.24684381 0.17491908
0.14728431 -0.11440538 0.12864967 -0.113895945 0.12992874 0.059654422 0.18987252 -0.2534578
-0.21014194 0.090558514 0.18681286 0.030178284 -0.04954846 0.016969677 0.25659555 -0.095339
0.27231076 0.27241224 -0.08857692 -0.16494304 0.0006558309 -0.13090228 -0.009091718 -0.23553441
-0.2749218 -0.0038799709 -0.06551776 0.054961096 -0.1007853 -0.110704556 0.2913509 -0.06191469
-0.19432817 -0.27503696 0.17370535 -0.014825962 -0.26772076 -0.27970442 -0.21204373 0.22563751
-0.24475376 -0.101704605 -0.15249276 0.029345928 -0.063115515 -0.19488266 0.1453853 0.057873394
-0.08883474 0.16364007 0.009000274 0.074534796 -0.10048518 -0.06468362 -0.2839509 0.07377961
0.07075188 0.25749022 -0.20562643 0.2544609 0.10326684 -0.15460129 0.26769313 -0.15691686
-0.043569636 0.026627377 0.039472867 0.0825587 0.2227941 0.05667648 -0.18790518 -0.13987364
-0.20732696 -0.049089476 0.13140795 -0.24689652 0.15947948 -0.06648728 0.05206248 0.032213453
-0.25770202 -0.05163006 -0.2341824 -0.12375667 -0.1728976 -0.21037258 -0.11097671 -0.015947405
0.1788234 -0.04549998 -0.24449204 -0.102169804 0.26561475 -0.10986304 -0.025995089 0.1592586
-0.29257795 0.25879002 0.111612275 -0.0003509389 -0.15742894 -0.26613355 0.20177664 0.016344642
-0.05200503 -0.083983324 -0.20137252 0.1998328 0.14540225 0.26387045 -0.043284636 0.20433566
-0.06359874 -0.016446793 -0.11421109 0.23526627 0.05989918 -0.27998707 -0.16927882 0.062063128
0.21071848 -0.051029302 0.29679513 0.29432344 0.16165297 -0.17214844 -0.29778314 0.019845942
-0.1573184 -0.12049994 0.24603802 0.035588216 -0.032368865 -0.2186646 -0.022264408 -0.042483974
0.22621797 0.16040522 0.0012853345 -0.08263409 -0.07987439 0.21908349 0.08388864 -0.037175268
0.0029716925 -0.2209875 0.1517442 -0.2937584 0.14868034 0.049057383 -0.106084734 -0.21481252
00000000: e0b8 303e c9db 1a3e a8f9 303e 822f 03be
00000010: 48f3 8dbd d448 383e 7ffe 17be 5d48 b0bd
00000020: bbf0 81bd aee8 49be 350f 573e 580b e83d
00000030: 97b0 80be 0fa6 7a3e f788 913e 934e abbc
00000040: c829 9dbd 57e1 10be aa49 883e ee7f 783e
00000050: 687e 743e cbb6 67bd 3260 d2bd 8465 853e
00000060: 88c0 e23b 8978 493e cf79 90be 4b66 87be
00000070: e21b 42be ea5e 783e a95b 7ebe f639 733d
00000080: d54e 4cbe 19e0 2dbd a9d9 c33d 7a6c f1bd
00000090: 4ae6 e93d d617 14be bddc 233e 8c9a b13d
000000a0: ce35 0f3e ca88 7e3e bf85 193e 5877 99bc
000000b0: 0e44 2ebe 7a40 8ebd 6bed 963d 1ad3 9d3d
000000c0: 81a0 063d 2bcc 91be 86ac 36be 487f 29be
000000d0: 3577 593e 00e7 23be 77dc 873e 8ab6 723e
000000e0: de08 6dbd 2fb7 1ebe 0fde 27be c47b 773e
000000f0: 1f23 8fbe 1ab8 22be cc3a 6f3e 10ab 143e
00000100: 9c89 263e 04bd 41be cf48 1fbe 179c 7a3e
00000110: 733f 98be 2481 453d 82e9 8bbe 636f 7d3e
00000120: 1ff7 0bbe f01f 6a3e b001 60be 110f 2d3d
00000130: c244 8e3e 15e6 e73d 4954 503e 59af 293e
00000140: 5221 23bd 3609 f53d 0932 0b3e 91d0 16bc
00000150: 2554 32bb 8813 c0bd 427d 3a3e b0fe 8b3e
00000160: cd68 dd3d c3dd 8dbc 8cf9 03be 70e1 f6bd
00000170: 2185 10be 8954 913e 17b1 743e 09a3 823e
00000180: 6a3f 6f3d 3bde 3abe 6df9 483e 0065 d7bd
00000190: d0a7 3ebd cfeb 4e3e a0c4 7c3e fd1d 333e
000001a0: b3d1 163e 5e4d eabd bdbc 033e 4742 e9bd
000001b0: 0a0c 053e 3258 743d f16d 423e 39c5 81be
000001c0: 732f 57be be76 b93d df4b 3f3e 7338 f73c
000001d0: 53f3 4abd fe03 8b3c 7e60 833e 1841 c3bd
000001e0: 516c 8b3e 9e79 8b3e d167 b5bd d4e6 28be
000001f0: 11ec 2b3a 3f0b 06be 6ef5 14bc ef2f 71be
00000200: 8dc2 8cbe 1c47 7ebb 2d2e 86bd e31e 613d
00000210: 8668 cebd 12b9 e2bd f22b 953e 429a 7dbd
00000220: f7fd 46be a5d1 8cbe d1df 313e 97e8 72bc
00000230: b212 89be 6b35 8fbe fe21 59be 850d 673e
00000240: bba0 7abe 814a d0bd 1027 1cbe df66 f03c
00000250: b542 81bd 528f 47be e2df 143e a70c 6d3d
00000260: fdee b5bd 4391 273e e375 133c b3a5 983d
00000270: 2dcb cdbd d978 84bd 0362 91be c419 973d
00000280: 5de6 903d c2d5 833e bc8f 52be b348 823e
00000290: 917d d33d cd4f 1ebe 130f 893e d0ae 20be
000002a0: 1376 32bd a821 da3c 4dae 213d 8914 a93d
000002b0: 2324 643e 9925 683d 376a 40be 093b 0fbe
000002c0: 854d 54be 0c12 49bd ce8f 063e 71d2 7cbe
000002d0: 974e 233e 7c2a 88bd 783f 553d 41f2 033d
000002e0: 85f1 83be 0b7a 53bd 83cd 6fbe 2374 fdbd
000002f0: 120c 31be e96b 57be c247 e3bd 22a4 82bc
00000300: 7b1d 373e 305e 3abd 1f5c 7abe 673e d1bd
00000310: a8fe 873e e0ff e0bd a7f3 d4bc b014 233e
00000320: c7cc 95be 2080 843e fa94 e43d 39fe b7b9
00000330: 0d35 21be a842 88be 899e 4e3e 33e5 853c
00000340: 3a03 55bd 73ff abbd 9934 4ebe f8a0 4c3e
00000350: 54e4 143e 071a 873e 3b4b 31bd 5e3d 513e
00000360: 0e40 82bd 6dbb 86bc 81e7 e9bd a4e9 703e
00000370: d858 753d 775a 8fbe 6d57 2dbe e835 7e3d
00000380: 96c6 573e 1a04 51bd 88f5 973e 90b1 963e
00000390: 5b88 253e ae47 30be 0877 98be f593 a23c
000003a0: 1318 21be acc8 f6bd 64f1 7b3e f3c4 113d
000003b0: 3795 04bd 9de9 5fbe d963 b6bc ad03 2ebd
000003c0: afa5 673e 4441 243e ab78 a83a 103c a9bd
000003d0: 2f95 a3bd 6c57 603e cfcd ab3d 1845 18bd
000003e0: bac0 423b 8c4a 62be d562 1b3e 8067 96be
000003f0: a93f 183e 65f0 483d f442 d9bd d0f7 5bbe

layers.0.bias f4 [64]
-0.059745595 0.05367984 -0.048299763 0.038979176 -0.046855234 0.04449217 0.04188627 -0.05168923
0.056510035 0.04843471 0.04608127 -0.055686146 -0.04705065 0.062263723 0.050901383 -0.046053052
-0.047829498 0.052104186 -0.057449736 -0.061013382 -0.056404937 0.044756476 -0.04861175 -0.04846963
-0.065704115 0.047766 0.06611232 0.05085426 0.05212815 0.053441633 0.039074454 -0.05359539
-0.06566562 0.06573329 0.05876902 -0.041069664 -0.0508941 -0.048522823 -0.060306586 -0.05704714
0.047283422 -0.058123346 -0.05642545 0.06045385 -0.058237083 -0.063504174 -0.06251412 0.05458391
0.076526016 0.063833475 0.050316103 0.060939603 0.051666483 0.056326024 -0.053347535 -0.063383885
-0.04634613 0.05549032 0.05362007 -0.054608498 0.05561596 -0.049097203 0.049556043 -0.044539392
00000000: ccb7 74bd 64df 5b3d f9d5 45bd a1a8 1f3d
00000010: 46eb 3fbd 6c3d 363d f090 2b3d 16b8 53bd
00000020: 1177 673d 7963 463d b7bf 3c3d 2817 64bd
00000030: 2fb8 40bd 3f08 7f3d f87d 503d 20a2 3cbd
00000040: dde8 43bd 336b 553d 6a50 6bbd 2be9 79bd
00000050: dd08 67bd 9152 373d 1d1d 47bd 1788 46bd
00000060: e18f 86bd 48a6 433d e565 873d 8e4c 503d
00000070: 5484 553d 9de5 5a3d 890c 203d d786 5bbd
00000080: b27b 86bd 2d9f 863d c9b7 703d aa38 28bd
00000090: 5576 50bd debf 46bd 0a04 77bd 43aa 69bd
000000a0: 43ac 413d bf12 6ebd 5f1e 67bd 759e 773d
000000b0: 028a 6ebd 7a0e 82bd 6707 80bd 6193 5f3d
000000c0: acb9 9c3d 20bb 823d 4218 4e3d ce9b 793d
000000d0: 3ca0 533d 1eb6 663d f282 5abd 69cf 81bd
000000e0: 71d5 3dbd d149 633d b8a0 5b3d 29ad 5fbd
000000f0: 90cd 633d 261a 49bd 47fb 4a3d f06e 36bd

layers.2.weight f4 [64, 64]
-0.16958305 -0.050474938 -0.010959865 -0.09044556 -0.063124 0.21981432 0.22107299 0.008910464
0.13676153 0.18333907 -0.10952558 0.13824612 0.17073272 0.13287657 -0.13371345 0.14506616
0.16004068 -0.15488954 0.007328994 0.16677116 0.07577461 -0.07238668 0.07865978 0.08757099
-0.11311889 0.068404004 -0.15830715 0.12023469 0.18081476 0.06330299 -0.036222927 -0.13324594
-0.16295959 -0.020597761 -0.039242815 -0.029859548 -0.19775862 0.09326547 -0.1139341 -0.09594963
0.012127914 -0.15947053 -0.091354005 0.073310636 -0.18514945 0.044076815 -0.08735754 0.21220402
0.111655176 0.13977201 0.099968396 -0.07093528 0.1858447 -0.010419089 -0.10111194 0.17390318
0.16552716 0.035798464 -0.031963915 -0.2006728 -0.19974825 -0.027777411 -0.16748504 0.1676601
0.007881926 0.18696107 0.07726663 0.19454831 -0.05857833 0.06840856 -0.020854244 -0.1522844
0.23158804 0.19789255 0.21460272 -0.198261 0.055560112 0.0066524483 -0.16704108 -0.0003648172
-0.16061036 -0.17481312 -0.24328691 -0.18840455 -0.13743442 0.033811554 -0.006405471 -0.17756541
-0.01709875 0.0203922 -0.06545997 -0.006551761 -0.13605401 0.11610477 0.21199566 0.12841038
0.1581015 -0.008454849 0.12834989 -0.036447685 -0.115480565 0.05107394 0.0995542 -0.13861606
0.23298374 -0.079219244 0.06875214 -0.105437964 0.12857454 -0.053527396 -0.19670016 -0.09630421
-0.14692879 -0.027448392 0.10457072 0.09499031 -0.0829405 0.1676972 0.08502075 -0.032633185
-0.09387468 -0.19024637 0.18533167 -0.088027775 0.033086445 -0.1584162 -0.04464123 0.04481384
-0.04199334 0.09781676 -0.14306653 0.12705228 0.06574452 0.18564191 -0.07050457 -0.1479249
0.11732173 -0.176029 -0.17000467 -0.10363779 -0.12333299 0.084823914 0.007443031 0.11469163
-0.14436466 0.19954062 -0.031176966 0.06723352 0.15964843 -0.120694056 -0.016688706 -0.20589541
0.03827608 0.08259355 0.15641664 -0.11923791 0.2686379 0.037935946 0.053862914 -0.22318843
-0.014233468 0.2526138 0.14539135 -0.06286991 -0.121656515 -0.15898679 -0.14511468 -0.07496772
0.018623589 -0.16243279 0.08138746 -0.16276476 0.15755625 -0.2635869 -0.096535556 0.14379127
-0.035373494 -0.12660332 0.12332151 0.17715131 -0.048861615 0.121711746 -0.082859755 0.03565791
-0.16907585 0.1703557 -0.045540314 0.12408636 -0.121668056 -0.21767664 -0.08060642 -0.07991949
-0.10545617 -0.13238168 0.16532394 0.08934106 -0.17763825 0.018626377 0.14852998 0.06700658
-0.19151539 -0.051225744 -0.1595504 0.16276711 0.009053131 0.026832063 0.13250199 0.14983702
0.11552988 -0.09088629 0.13862693 -0.098958366 -0.12904851 0.13691314 -0.085868314 0.22766429
0.18085444 0.17281504 -0.15739258 0.18205175 0.054578245 0.16054647 0.16797405 -0.18363056
-0.10774525 -0.16792467 -0.03794372 0.087836474 0.12249288 0.17300065 0.046693813 -0.1654741
-0.09136115 0.06498353 0.18636729 -0.018927863 -0.039457604 0.019310892 -0.049436446 0.022485724
0.10579417 -0.22418466 -0.10601402 0.10757577 -0.030953456 0.06834461 -0.06874499 0.13291858
0.10291453 0.008237362 0.07660414 -0.055917557 0.0908583 -0.18197119 -0.08534267 0.016220123
00000000: 2ea7 2dbe cfbe 4ebd 0191 33bc 863b b9bd
00000010: 2847 81bd 0117 613e f560 623e 32fd 113c
00000020: 370b 0c3e 3dbd 3b3e f34e e0bd 6490 0d3e
00000030: 8fd4 2e3e cc10 083e 2eec 08be 398c 143e
00000040: b4e1 233e 5d9b 1ebe 0f28 f03b 0fc6 2a3e
00000050: b82f 9b3d 783f 94bd 6118 a13d 6b58 b33d
00000060: e0aa e7bd 6617 8c3d 451b 22be 9b3d f63d
00000070: 8127 393e ffa4 813d 7e5e 14bd a071 08be
00000080: e1de 26be a3bc a8bc 13bd 20bd 039c f4bc
00000090: 3c81 4abe f701 bf3d 4856 e9bd 3d81 c4bd
000000a0: 28b4 463c 3e4c 23be cf17 bbbd e323 963d
000000b0: d197 3dbe e489 343d 83e8 b2bd 034c 593e
000000c0: 78ab e43d 6520 0f3e 3bbc cc3d 8446 91bd
000000d0: 134e 3e3e d4b4 2abc c713 cfbd ad13 323e
000000e0: f47f 293e 69a1 123d 98ec 02bd 2c7d 4dbe
000000f0: ce8a 4cbe 748d e3bc 3381 2bbe 17af 2b3e
00000100: 3223 013c b972 3f3e f83d 9e3d ac37 473e
00000110: d5ef 6fbd c919 8c3d 85d6 aabc 71f0 1bbe
00000120: 6a25 6d3e 58a4 4a3e d1c0 5b3e ee04 4bbe
00000130: 0093 633d c8fc d93b d10c 2bbe f044 bfb9
00000140: 0b77 24be 3602 33be 3420 79be 1fed 40be
00000150: 9cbb 0cbe fc7d 0a3d fce4 d1bb b5d3 35be
00000160: ae12 8cbc 8b0d a73c e00f 86bd 28b0 d6bb
00000170: be51 0bbe 56c8 ed3d 6415 593e 037e 033e
00000180: 5ce5 213e 3586 0abc 276e 033e 2b4a 15bd
00000190: 1381 ecbd e832 513d 13e3 cb3d 5ef1 0dbe
000001a0: 4a93 6e3e b33d a2bd eccd 8c3d dcef d7bd
000001b0: 0ba9 033e 8b3f 5bbd c46b 49be 243b c5bd
000001c0: 8074 16be 73db e0bc 2c29 d63d 488a c23d
000001d0: b5dc a9bd d1b8 2b3e 5c1f ae3d 60aa 05bd
000001e0: 5e41 c0bd f2cf 42be 96c7 3d3e e847 b4bd
000001f0: a785 073d db37 22be b9d9 36bd b88e 373d
00000200: 3501 2cbd 2754 c83d 0880 12be fe19 023e
00000210: 10a5 863d ea18 3e3e b364 90bd a079 17be
00000220: 6046 f03d f240 34be b415 2ebe 0d40 d4bd
00000230: 0296 fcbd 29b8 ad3d abe4 f33b 72e3 ea3d
00000240: 54d4 13be 6054 4c3e d666 ffbc bab1 893d
00000250: e17a 233e 722e f7bd c1b6 88bc 3fd6 52be
00000260: 61c7 1c3d cf26 a93d af2b 203e 0133 f4bd
00000270: e88a 893e b962 1b3d 5c9f 5c3d 828b 64be
00000280: 7e33 69bc 9956 813e 78e1 143e f0c1 80bd
00000290: 0d27 f9bd 6fcd 22be f198 14be ad88 99bd
000002a0: 7f90 983c c854 26be 78ae a63d ceab 26be
000002b0: 6d56 213e ddf4 86be 6fb4 c5bd 053e 133e
000002c0: cce3 10bd 4da4 01be fd8f fc3d 2767 353e
000002d0: 1e23 48bd 0244 f93d 60b2 a9bd 070e 123d
000002e0: 3822 2dbe ba71 2e3e 7b88 3abd fd20 fe3d
000002f0: 1a2d f9bd a0e6 5ebe fb14 a5bd d4ac a3bd
00000300: 68f9 d7bd 108f 07be ae4a 293e 72f8 b63d
00000310: cde6 35be 5896 983c 3e18 183e bf3a 893d
00000320: 9c1c 44be 16d2 51bd 2e61 23be 6cac 263e
00000330: 9553 143c eace db3c 9aae 073e e06e 193e
00000340: ee9a ec3d 9722 babd 38f4 0d3e afaa cabd
00000350: 4b25 04be f532 0c3e badb afbd d420 693e
00000360: e831 393e 6df6 303e 852b 21be c66b 3a3e
00000370: 708d 5f3d 4b66 243e 6401 2c3e a609 3cbe
00000380: 8ba9 dcbd 72f4 2bbe e06a 1bbd 9ce3 b33d
00000390: 8cdd fa3d 1527 313e 0342 3f3d 0b72 29be
000003a0: 8e1b bbbd 1616 853d 11d7 3e3e 9b0e 9bbc
000003b0: 4c9e 21bd e031 9e3c df7d 4abd fb33 b83c
000003c0: 9daa d83d aa90 65be e11d d9bd af50 dc3d
000003d0: 1a92 fdbc 42f8 8b3d 2cca 8cbd cf1b 083e
000003e0: dac4 d23d 00f6 063c a2e2 9c3d cf09 65bd
000003f0: eb13 ba3d a856 3abe 23c8 aebd 10e0 843c

layers.2.bias f4 [64]
0.040901236 0.040581033 0.053165384 -0.040555757 -0.04077018 0.041682567 -0.04455873 -0.04105266
-0.041520763 0.049290508 -0.042225156 0.040877398 0.0410954 -0.041049697 0.04086147 0.044371102
-0.041136235 -0.05201204 -0.04289011 0.05253647 -0.0421054 0.04161806 -0.06148692 0.040684808
-0.041244738 0.040801995 0.041568384 0.04436219 0.04209467 0.045146693 -0.043580603 -0.042897344
-0.04301144 -0.04181013 0.040949464 -0.041447524 -0.039627 0.04015014 0.040296245 0.041796245
0.053042766 0.047251783 -0.041814957 -0.041867703 0.04117834 0.05829757 0.04190623 -0.042132374
-0.039801054 -0.043086555 0.04186684 0.042636793 -0.040575434 0.044038597 -0.050940357 0.043178517
-0.01941474 0.041866127 0.040962275 -0.041764412 0.0407021 -0.04600707 0.04156219 -0.041757517
00000000: 0e88 273d 4c38 263d f2c3 593d cb1d 26bd
00000010: a2fe 26bd 57bb 2a3d 3783 36bd d626 28bd
00000020: ad11 2abd d8e4 493d 49f4 2cbd 0f6f 273d
00000030: a653 283d ba23 28bd 5b5e 273d 79be 353d
00000040: 787e 28bd 940a 55bd 8aad 2fbd 7b30 573d
00000050: b676 2cbd b377 2a3d b5d9 7bbd 1da5 263d
00000060: 3ef0 28bd fe1f 273d 9c43 2a3d 21b5 353d
00000070: 766b 2c3d bdeb 383d 9381 32bd 20b5 2fbd
00000080: c42c 30bd 1941 2bbd a0ba 273d e1c4 29bd
00000090: ec4f 22bd 7974 243d ad0d 253d 8a32 2b3d
000000a0: 5f43 593d 168b 413d 2946 2bbd 787d 2bbd
000000b0: 9eaa 283d 6fc9 6e3d dea5 2b3d ff92 2cbd
000000c0: 6e06 23bd 877b 30bd 907c 2b3d eba3 2e3d
000000d0: 6d32 26bd d161 343d d6a6 50bd f5db 303d
000000e0: a90b 9fbc d17b 2b3d 0fc8 273d 2911 2bbd
000000f0: 3fb7 263d e971 3cbd 1d3d 2a3d ee09 2bbd

output_layer.weight f4 [1, 64]
0.13069582 0.18537672 0.07183324 -0.11095439 -0.31371477 0.34183106 -0.10917539 -0.27246428
-0.22409447 0.09428933 -0.13945293 0.24101388 0.20091332 -0.290111 0.2540322 0.09390216
-0.034928933 -0.091530465 -0.25649258 0.09025291 -0.2771791 0.34788588 -0.052590054 0.048270345
-0.2152528 0.1790075 0.23367472 0.1400977 0.21508361 0.14269167 -0.18362668 -0.20303436
-0.2546891 -0.18573156 0.08444584 -0.28501216 -0.11607963 0.30554006 0.114853986 0.14103158
0.059629817 0.109291576 -0.35568672 -0.31965256 0.16964367 0.06278923 0.18891987 -0.28966713
-0.10085873 -0.22037415 0.20089014 0.11162608 -0.23972012 0.071043216 -0.081541464 0.08297875
0.0025361697 0.16766457 0.13817146 -0.36307353 0.06586727 -0.07322474 0.18208338 -0.36608934
00000000: 20d5 053e 65d3 3d3e 4e1d 933d 0e3c e3bd
00000010: 399f a0be 7b04 af3e 5997 dfbd 7080 8bbe
00000020: 0579 65be c41a c13d c0cc 0ebe 58cc 763e
00000030: 39bc 4d3e 6e89 94be 8210 823e c74f c03d
00000040: a411 0fbd 5374 bbbd ff52 83be 85d6 b83d
00000050: 6bea 8dbe 191e b23e ab68 57bd 20b7 453d
00000060: 3b6b 5cbe be4d 373e 6d48 6f3e c575 0f3e
00000070: e13e 5c3e c41d 123e a208 3cbe 3de8 4fbe
00000080: 9c66 82be 6a30 3ebe f1f1 ac3d 1ded 91be
00000090: 28bb edbd bf6f 9c3e 9138 eb3d 956a 103e
000000a0: 653e 743d 43d4 df3d 921c b6be 80a9 a3be
000000b0: 12b7 2d3e a497 803d 3674 413e 404f 94be
000000c0: 068f cebd c3a9 61be 25b6 4d3e 379c e43d
000000d0: 3179 75be 1b7f 913d 36ff a6bd c3f0 a93d
000000e0: de35 263b 43b0 2b3e d27c 0d3e c6e4 b9be
000000f0: 6be5 863d daf6 95bd 1174 3a3e 1070 bbbe

exp_avg f4 [64, 4]
-0.0002947822 0.00014054241 0.00018642598 2.709678e-05 -0.0002680725 0.0017359772 0.00035089903 -0.0012303685
-0.00021964403 0.0016430401 0.0002527821 -0.0013521067 -0.00018671197 0.005156884 0.00078333303 -0.003858729
0.0001094183 -0.0028673282 -0.00056116004 0.0017516154 0.00023136284 -0.002172673 -0.00068924966 0.00081802165
0.00017396804 -0.0031774966 -0.00049497734 0.0023703945 -0.00032127486 0.0039334977 0.0008013518 -0.0024913088
0.00013943974 0.00059108663 -7.710654e-05 -0.0007094646 -2.142253e-05 -0.00039707153 -9.141396e-05 0.00015418751
0.0004989615 -0.0035570138 -0.00075478666 0.002404725 -0.0007812374 0.0039714687 0.0010443868 -0.0024517374
-0.00023408505 0.0011411324 0.00026194175 -0.0008479924 0.00041432536 -0.0063249073 -0.0015065882 0.0034607025
-0.00018938446 0.0028246243 0.00052522315 -0.0019177303 0.00019934849 -0.006048557 -0.0009590658 0.0042859646
0.000114759634 -0.0004773591 -3.033812e-05 0.00052023237 -5.862593e-05 0.0011881292 0.00039169114 -0.00033762582
0.0001256252 -0.0036558404 -0.00076083903 0.002172311 -4.1128e-05 0.004296259 0.0008016865 -0.0026238523
-0.000106951375 -0.0013551988 -0.00019389547 0.0009131351 9.141026e-05 0.0024182762 0.00034326085 -0.0016838697
0.0004002925 -0.0013506763 -0.00037647973 0.0009106568 -0.00016473804 0.0052206535 0.0009957298 -0.0032432785
0.0002149516 -0.0021867026 -0.00049468613 0.001328484 0.000124404 5.806514e-05 8.2714156e-05 0.0002852705
-6.863559e-05 -0.0013169001 -6.6800356e-05 0.0012198848 2.5538673e-05 -0.0020294022 -0.000373534 0.001286905
-6.533329e-05 -0.00033872563 0.00015555411 0.0007037355 0.00014645814 -0.0015506636 -0.00013034166 0.0015659138
-0.0014418688 0.005650801 0.0014613867 -0.003817307 5.1339888e-05 0.00048771032 -1.7897282e-05 -0.000511292
0.00051289453 -0.0041569425 -0.00090588286 0.002678836 -0.00024731783 0.0045584133 0.0006770949 -0.003506626
0.00018344382 0.00039346193 -3.2510365e-05 -0.00035687748 -0.0006606936 0.008103746 0.0016101861 -0.0053674267
-0.00012799221 0.00073714595 -8.050098e-05 -0.0011422355 0.00013085442 -0.0032684559 -0.00083747384 0.0015013885
0.0001499533 0.00012018226 -0.00017781579 -0.00043059216 -0.00023300858 0.0023588561 0.0008673208 -0.0005875934
1.3407603e-05 0.0020062884 0.0004241555 -0.0010720715 1.6987904e-05 0.00070642063 0.00035915928 0.00016509465
0.00011624743 -0.0017003564 -0.0001988592 0.0014773086 -6.0093156e-05 -0.001099727 -0.00014525726 0.00080902415
1.5334128e-05 0.00058885175 9.329318e-05 -0.00039775466 -0.00015694466 0.0019773282 0.00023164377 -0.00170774
0.00050432765 -0.002451995 -0.0008105406 0.001120963 -0.00012848382 0.00084743823 0.00026433272 -0.00038869324
2.886822e-05 -0.0031149464 -0.00057011505 0.0019955367 0.00018550214 -0.001691848 -0.00048589002 0.0007958597
0.00022117171 -0.0022760474 -0.00045738308 0.0015353647 0.00022703057 -0.0014572153 -0.0002781996 0.0010721184
-0.00029409965 0.002702272 0.0006493813 -0.0016111464 -6.831757e-05 0.0026337982 0.0005194638 -0.0016160428
-0.00045617935 0.0017531454 0.00034000428 -0.0015096244 -8.772552e-05 0.0042033913 0.00064904004 -0.0029742587
0.00022855967 -0.0047186683 -0.0011359841 0.0024652206 -0.00041168992 0.001980474 0.0003102717 -0.0018461148
-0.0004740391 0.0033395935 0.0007541191 -0.0021536015 -9.915534e-05 0.0014038596 0.0003396178 -0.00077629025
-0.00037666614 0.004370813 0.0009985159 -0.0026092012 4.567619e-05 0.0005807269 0.00017170167 -0.00013298454
-0.00010969809 0.000440219 1.2336987e-05 -0.0005405627 0.00014183373 0.0031404034 0.0005485185 -0.0018547048
00000000: ff8c 9ab9 915e 1339 587b 4339 e44d e337
00000010: 158c 8cb9 bb89 e33a dff8 b739 5144 a1ba
00000020: 3f50 66b9 475b d73a d787 8439 2c39 b1ba
00000030: 1dc8 43b9 14fb a83b 9758 4d3a bbe2 7cbb
00000040: 8177 e538 c9e9 3bbb d01a 13ba 7696 e53a
00000050: fd99 7239 6763 0ebb c3ae 34ba 8170 563a
00000060: 316b 3639 8c3d 50bb 5ec1 01ba 9f58 1b3b
00000070: c870 a8b9 92e4 803b cf11 523a 3a45 23bb
00000080: 9236 1239 27f3 1a3a 42b4 a1b8 5dfb 39ba
00000090: 88b4 b3b7 0a2e d0b9 7fb5 bfb8 65ad 2139
000000a0: bdcc 023a ca1c 69bb e0dc 45ba 9798 1d3b
000000b0: f4cb 4cba 1823 823b cee3 883a 54ad 20bb
000000c0: ba74 75b9 0d92 953a 3a55 8939 cf4b 5eba
000000d0: cf39 d939 2b41 cfbb b678 c5ba f4cc 623b
000000e0: 8195 46b9 551d 393b 21af 093a 5a5c fbba
000000f0: 3408 5139 f932 c6bb d169 7bba 4771 8c3b
00000100: 1cab f038 0e46 fab9 9e7e feb7 3460 083a
00000110: 1de5 75b8 00bb 9b3a e55b cd39 5f03 b1b9
00000120: 42ba 0339 d396 6fbb 0b73 47ba 555d 0e3b
00000130: db80 2cb8 a2c7 8c3b 4528 523a f0f4 2bbb
00000140: 154b e0b8 eda0 b1ba 6b50 4bb9 765f 6f3a
00000150: 82b3 bf38 f17b 1e3b b1f7 b339 4bb5 dcba
00000160: 5ade d139 2d09 b1ba 4162 c5b9 25b9 6e3a
00000170: 88bd 2cb9 0412 ab3b 2683 823a 2f8d 54bb
00000180: a164 6139 c84e 0fbb d3ad 01ba 8720 ae3a
00000190: 7272 0239 f88a 7338 d376 ad38 5c90 9539
000001a0: 74f0 8fb8 d69b acba 2b17 8cb8 8be4 9f3a
000001b0: e23b d637 b8ff 04bb e3d6 c3b9 5ead a83a
000001c0: 8b03 89b8 fc96 b1b9 3d1c 2339 e47a 383a
000001d0: 8f92 1939 a33f cbba 53ac 08b9 593f cd3a
000001e0: 17fd bcba 5b2a b93b 008c bf3a c92b 7abb
000001f0: c955 5738 5fb3 ff39 1f22 96b7 3a08 06ba
00000200: c573 063a f636 88bb c578 6dba 698f 2f3b
00000210: 70aa 81b9 be5e 953b 127f 313a 6ccf 65bb
00000220: d35a 4039 9149 ce39 bd5b 08b8 491b bbb9
00000230: 6632 2dba 93c5 043c e10c d33a 3de1 afbb
00000240: a635 06b9 073d 413a a2d2 a8b8 10b7 95ba
00000250: f735 0939 9733 56bb eb89 5bba 3dca c43a
00000260: c83c 1d39 5c0a fc38 1074 3ab9 1ac1 e1b9
00000270: c453 74b9 0a97 1a3b ea5c 633a ba08 1aba
00000280: 37f1 6037 ef7b 033b 3061 de39 c084 8cba
00000290: 3f81 8e37 162f 393a 8b4d bc39 421d 2d39
000002a0: ddc9 f338 7ede deba dc84 50b9 40a2 c13a
000002b0: 890c 7cb8 b724 90ba 3350 18b9 b114 543a
000002c0: caa1 8037 2c5d 1a3a 65a6 c338 ba89 d0b9
000002d0: 8391 24b9 1096 013b 67e5 7239 3fd6 dfba
000002e0: db34 043a a6b1 20bb 757a 54ba 47ed 923a
000002f0: 9db9 06b9 9e26 5e3a 2396 8a39 86c9 cbb9
00000300: 082a f237 2124 4cbb c673 15ba 8dc7 023b
00000310: 5a83 4239 00c1 ddba 0ebf feb9 3ea1 503a
00000320: 54ea 6739 bd29 15bb ebcc efb9 4a3e c93a
00000330: 0e0f 6e39 0800 bfba 51db 91b9 5386 8c3a
00000340: 6331 9ab9 9a18 313b 3e3b 2a3a 1a2d d3ba
00000350: b745 8fb8 cd9b 2c3b a02c 083a 66d1 d3ba
00000360: 5b2b efb9 ccc9 e53a 9a42 b239 97de c5ba
00000370: 48f9 b7b8 9abc 893b 5724 2a3a c8eb 42bb
00000380: 85a9 6f39 0f9f 9abb 4de5 94ba 8a8f 213b
00000390: 16d8 d7b9 d7ca 013b f6ab a239 55f9 f1ba
000003a0: 7388 f8b9 15dd 5a3b 13b0 453a 7023 0dbb
000003b0: 9ef1 cfb8 b601 b83a bb0e b239 f57f 4bba
000003c0: 467b c5b9 0939 8f3b a2e0 823a 22ff 2abb
000003d0: 7094 3f38 ec3b 183a d10a 3439 c471 0bb9
000003e0: b70d e6b8 32cd e639 f5fa 4e37 8cb4 0dba
000003f0: 34b9 1439 3acf 4d3b 74ca 0f3a 9119 f3ba

exp_avg_sq f4 [64, 4]
3.3008857e-07 1.0653998e-06 4.3177078e-08 1.6004972e-06 2.1199608e-06 5.019921e-06 1.8661662e-07 5.0280146e-06
1.6982849e-06 4.3889745e-06 1.6797104e-07 4.262464e-06 2.158469e-05 6.0547718e-05 2.2886388e-06 6.1328814e-05
7.3955953e-06 3.1259384e-05 1.3718364e-06 3.9228096e-05 3.825249e-06 7.853374e-06 3.1038982e-07 6.046361e-06
6.6296566e-06 1.6516795e-05 5.3934815e-07 1.3446739e-05 1.2509295e-05 3.98987e-05 1.7101285e-06 4.3201333e-05
2.7629457e-07 2.1011742e-06 6.992802e-08 3.0512651e-06 4.623589e-08 2.3163132e-07 1.0381858e-08 3.083213e-07
1.2202245e-05 3.300778e-05 1.5368649e-06 3.5462304e-05 1.8079196e-05 3.659006e-05 1.7831857e-06 3.3909582e-05
1.3875343e-06 2.2534668e-06 1.2803291e-07 2.2454176e-06 4.098193e-05 0.0001110925 5.5621567e-06 0.00012063427
5.4649827e-06 1.1173667e-05 4.4755046e-07 8.397523e-06 2.8356917e-05 8.263e-05 2.899091e-06 7.8524026e-05
2.217593e-07 2.175464e-06 8.555596e-08 3.7512802e-06 1.6197794e-06 3.202953e-06 1.418854e-07 2.1075434e-06
1.0984693e-05 2.790203e-05 1.0858041e-06 2.4029414e-05 1.4312994e-05 5.039747e-05 1.9445167e-06 5.2882267e-05
1.9903875e-06 6.3080242e-06 2.849014e-07 7.3796004e-06 3.6451133e-06 8.374606e-06 2.6517296e-07 5.9242143e-06
2.6226814e-06 5.6341974e-06 3.4101245e-07 6.8712416e-06 1.8517518e-05 6.2085746e-05 2.5667832e-06 6.5454784e-05
4.6214386e-06 9.88892e-06 4.3111825e-07 8.615417e-06 8.032608e-08 8.69708e-07 4.9174908e-08 1.7990245e-06
8.4420515e-07 2.419225e-06 6.035382e-08 1.934484e-06 3.425391e-06 9.9475965e-06 3.693807e-07 9.623064e-06
1.346333e-07 1.3820078e-06 4.438211e-08 2.2101249e-06 1.9801114e-06 5.6167596e-06 2.3067389e-07 6.908657e-06
3.4687506e-05 9.104231e-05 5.361911e-06 0.000117884825 4.6244432e-07 4.2608804e-06 2.2073273e-07 7.400375e-06
1.4638629e-05 3.469285e-05 1.4603614e-06 3.270189e-05 1.5672931e-05 3.759953e-05 1.2285564e-06 3.096286e-05
9.159835e-08 3.781615e-07 1.0435185e-08 3.2983473e-07 5.585428e-05 0.00013346093 5.351946e-06 0.000121196455
4.2064954e-07 2.7589092e-06 9.426181e-08 4.534784e-06 7.5200064e-06 2.239038e-05 1.1011418e-06 2.173003e-05
8.484595e-07 1.061441e-05 3.7967177e-07 1.730754e-05 7.066282e-06 1.2858816e-05 7.7494985e-07 1.0281311e-05
3.0544793e-06 9.1484435e-06 3.3001717e-07 7.857491e-06 6.078372e-07 4.546785e-06 1.762774e-07 7.4482555e-06
1.9215352e-06 4.027903e-06 1.10746015e-07 2.83688e-06 5.902284e-07 1.6444037e-06 5.1520512e-08 1.4843125e-06
1.1671083e-06 7.6092324e-06 3.6617405e-07 1.20789455e-05 4.131001e-06 1.7313458e-05 7.174083e-07 2.4290503e-05
8.183762e-06 1.555436e-05 9.277753e-07 1.5244473e-05 9.134435e-07 1.4840714e-06 7.365018e-08 1.0146097e-06
7.902331e-06 2.1349688e-05 9.560675e-07 2.1660937e-05 2.672008e-06 4.641286e-06 2.1488269e-07 2.9570774e-06
3.7303982e-06 6.605846e-06 2.2869884e-07 4.045296e-06 2.0667603e-06 7.125035e-06 3.5233884e-07 9.465426e-06
6.6730486e-06 1.27914955e-05 5.691061e-07 9.939911e-06 6.008874e-06 1.3425319e-05 5.03855e-07 9.8974415e-06
3.6288761e-06 8.928171e-06 4.6526137e-07 1.1715273e-05 1.2131293e-05 3.1358246e-05 9.4524887e-07 2.4086947e-05
2.090222e-05 5.0755087e-05 2.1911358e-06 4.4448807e-05 4.4065782e-06 1.242045e-05 6.611649e-07 1.780062e-05
1.0775866e-05 2.5064142e-05 1.1053453e-06 2.3284048e-05 1.8580633e-06 4.89266e-06 2.7829174e-07 5.82327e-06
1.9366604e-05 4.645319e-05 2.1447845e-06 4.4759498e-05 3.216697e-07 2.5545382e-06 9.262409e-08 3.9307847e-06
5.0649555e-07 3.9181955e-06 1.5808172e-07 6.319833e-06 6.518567e-06 1.68571e-05 6.1177946e-07 1.3134535e-05
00000000: 0737 b134 dcfe 8e35 b371 3933 aad0 d635
00000010: a644 0e36 cb70 a836 c960 4834 51b6 a836
00000020: a0f0 e335 0145 9336 875b 3434 4906 8f36
00000030: c510 b537 9ef4 7d38 8496 1936 a89d 8038
00000040: ae27 f836 821c 0338 f11f b835 d988 2438
00000050: a45a 8036 fcc1 0337 a7a3 a634 d8e1 ca36
00000060: 5174 de36 8c8d 8a37 b9c7 1035 4e99 6137
00000070: 03df 5137 e758 2738 9187 e535 1433 3538
00000080: a355 9434 e601 0d36 562b 9633 56c4 4c36
00000090: e694 4633 55b6 7834 e55b 3232 5b87 a534
000000a0: 3eb8 4c37 d571 0a38 4746 ce35 5cbd 1438
000000b0: c7a8 9737 4778 1938 cb55 ef35 233a 0e38
000000c0: 513b ba35 443a 1736 6b79 0934 fbaf 1636
000000d0: 03e4 2b38 55fa e838 90a2 ba36 08fd fc38
000000e0: d85f b736 8976 3b37 de46 f034 16e3 0c37
000000f0: 04e0 ed37 a549 ad38 018e 4236 44ad a438
00000100: bb1c 6e34 30fe 1136 e3ba b733 81be 7b36
00000110: 3267 d935 50f2 5636 2959 1834 526f 0d36
00000120: e64a 3837 270f ea37 f2bb 9135 c692 c937
00000130: d721 7037 df61 5338 8b7e 0236 e7cd 5d38
00000140: 9992 0536 84a9 d336 8df4 9834 499e f736
00000150: 929e 7436 a980 0c37 185d 8e34 9dc8 c636
00000160: 5301 3036 630d bd36 6514 b734 848f e636
00000170: 1156 9b37 0834 8238 0041 2c36 c544 8938
00000180: db11 9b36 97e8 2537 7174 e734 ef8a 1037
00000190: bb7f ac33 e175 6935 6234 5333 0376 f135
000001a0: 569d 6235 f859 2236 dd9b 8133 2fd2 0136
000001b0: c5df 6536 9ae4 2637 4c4f c634 bf72 2137
000001c0: b88f 1034 6d7d b935 a59e 3e33 a851 1436
000001d0: 0ee2 0436 9977 bc36 28af 7734 e9d0 e736
000001e0: 6d7d 1138 f8ed be38 77ea b336 ef38 f738
000001f0: dd45 f834 aff8 8e36 8d02 6d34 bd50 f836
00000200: 6f98 7537 2a83 1138 a301 c435 6329 0938
00000210: 5d79 8337 30b4 1d38 e0e4 a435 1ede 0138
00000220: bab4 c433 1f06 cb34 6e46 3332 2414 b134
00000230: 1445 6a38 a5f1 0b39 de94 b336 da2a fe38
00000240: a2d5 e134 b325 3936 fa6c ca33 7f29 9836
00000250: 5d54 fc36 fad2 bb37 f2ca 9335 e248 b637
00000260: b1c1 6335 8b14 3237 b1d5 cb34 a92f 9137
00000270: e61a ed36 32bc 5737 2606 5035 e57d 2c37
00000280: 8efb 4c36 447c 1937 372d b134 abd3 0337
00000290: 412a 2335 9690 9836 c346 3d34 07ec f936
000002a0: b9f3 0036 6c27 8736 44d3 ed33 3a61 3e36
000002b0: 3070 1e35 48b5 dc35 6747 5d33 9738 c735
000002c0: 89a5 9c35 cf52 ff36 9496 c434 ada6 4a37
000002d0: 079d 8a36 5e3c 9137 ec93 4035 75c3 cb37
000002e0: fd4c 0937 bc7a 8237 3c0c 7935 83c2 7f37
000002f0: 5c33 7535 4e30 c735 9d29 9e33 b92d 8835
00000300: 4194 0437 1b18 b337 3b52 8035 82b4 b537
00000310: bf50 3336 58bc 9b36 81ba 6634 3472 4636
00000320: c157 7a36 c9a7 dd36 4290 7534 d4bc 8736
00000330: acb2 0a36 9613 ef36 1529 bd34 b2cd 1e37
00000340: 0de9 df36 0e9b 5637 acc4 1835 98c3 2637
00000350: d69f c936 4e3d 6137 a740 0735 300d 2637
00000360: 9e87 7336 34ca 1537 09c9 f934 b78c 4437
00000370: 8287 4b37 a986 0338 02bd 7d35 530e ca37
00000380: 2d57 af37 dce1 5438 6d0b 1336 8b6e 3a38
00000390: 38dc 9336 6d61 5037 e87a 3135 8a52 9537
000003a0: fec9 3437 d640 d237 605b 9435 1d52 c337
000003b0: 9262 f935 a12b a436 2068 9534 8265 c336
000003c0: 7775 a237 bcd6 4238 1eef 0f36 25bc 3b38
000003d0: f2b1 ac34 a26e 2b36 a2e8 c633 2fe5 8336
000003e0: 1cf6 0735 0b79 8336 2cbd 2934 f40e d436
000003f0: 10ba da36 5968 8d37 2a39 2435 665c 5c37
