experiments/reproducibility_test_run_2_20250828_130732/checkpoints/final.pt (torch, 137613 bytes, 22 tensors)

layers.0.weight f4 [64, 4]
0	0xbe296a14	-0.16544372
1	0xbe8fd461	-0.2809172
2	0x3e2ebfb6	0.1706532
3	0x3b512f24	0.0031918967
4	0x3e972d13	0.29526576
5	0xbe79380b	-0.24337785
6	0xbe76b6b2	-0.2409313
7	0x3d51eb48	0.051249772
8	0x3e4bde83	0.199091
9	0x3e48ec88	0.1962148
10	0x3e9734c9	0.2953246
11	0x3e41a5fb	0.18910973
12	0x3e07ddad	0.13268156
13	0xbe3b062c	-0.18264073
14	0x3e95e00e	0.29272503
15	0xbe069dd3	-0.13146143
16	0x3e439a71	0.19101883
17	0x3dfa44c2	0.12220146
18	0xbe344b28	-0.17606795
19	0xbcd962cd	-0.02653637
20	0xbcca9ed6	-0.024733942
21	0x3e65ad69	0.22429432
22	0x3e68c17c	0.22730058
23	0x3d826f61	0.063689
24	0xbe2cdc0f	-0.1688082
25	0x3dad42c8	0.08460003
26	0x3e7936c8	0.24337304
27	0xbe212ee0	-0.15740538
28	0x3e73c625	0.23806055
29	0x3d8978a8	0.067124665
30	0x3e2841a4	0.1643129
31	0x3dd0ac97	0.10189169
32	0x3e400830	0.18753123
33	0xbe8164d5	-0.2527224
34	0x3dfb3fd0	0.12268031
35	0xbe83e34c	-0.2575935
36	0xbca60cd1	-0.020269783
37	0x3e6ddeba	0.23229495
38	0xbe797143	-0.24359612
39	0xbe675dfb	-0.22594444
40	0xbe055043	-0.13018899
41	0x3c371c1d	0.011176136
42	0xbd2836ce	-0.04106789
43	0xbe6ec203	-0.23316197
44	0x3d1e883b	0.03870414
45	0xbd98d237	-0.0746197
46	0xbe0e0ffc	-0.13873285
47	0x3b547c88	0.003242286
48	0x3dce9824	0.10087612
49	0x3d433250	0.047655404
50	0xbe49a35f	-0.19691227
51	0x3e4e3180	0.2013607
52	0x3d658e89	0.056044135
53	0xbdf91826	-0.12162809
54	0x3e83a51e	0.25711912
55	0x3d754370	0.059878767
56	0x3e1e2cb4	0.1544674
57	0x3e571235	0.21003039
58	0xbbad760a	-0.0052936124
59	0x3e7aae43	0.24480538
60	0xbaadb257	-0.0013252002
61	0x3e73577c	0.23763841
62	0x3d139435	0.036030013
63	0x3e0bf67e	0.13668248
64	0x3e192d40	0.14958668
65	0xbe289441	-0.16462804
66	0x3e84e83b	0.25958428
67	0x3c1393ba	0.009007389
68	0x3ddf9718	0.10917491
69	0xbe606ce9	-0.21916546
70	0xbde313f9	-0.11087794
71	0x3e464829	0.19363464
72	0xbe3ff72c	-0.18746632
73	0x3d28905d	0.0411533
74	0x3e858c35	0.26083532
75	0xbe9074b7	-0.28214046
76	0xbb570546	-0.003280954
77	0x3d45b5db	0.048269134
78	0x3e475be2	0.19468644
79	0xbdcc668a	-0.09980495
80	0xbe94a304	-0.2903062
81	0xbe3c4297	-0.18384777
82	0x3db694d4	0.089151055
83	0xbe5fff44	-0.2187472
84	0xbe8230b0	-0.2542777
85	0xbbf5956c	-0.007494619
86	0x3d9f9e73	0.07793894
87	0xbe3ebc7b	-0.18626587
88	0xbdec492b	-0.11537393
89	0x3e266249	0.1624843
90	0xbe4da913	-0.20084028
91	0xbe7a32c7	-0.24433433
92	0xbdb7dcc8	-0.089776576
93	0x3e7465eb	0.23867004
94	0xbdb25bbc	-0.08708903
95	0xbe4e2fe3	-0.20135455
96	0xbe57c926	-0.21072826
97	0xbd8ef94b	-0.069811426
98	0x3e580af9	0.21097936
99	0x3de4a79a	0.1116478
100	0xbdcb1e8c	-0.09917936
101	0xbe83f059	-0.25769308
102	0xbe3893b7	-0.18025099
103	0x3d80786d	0.062729694
104	0x3e7fc44d	0.24977227
105	0x3e1ca666	0.15297851
106	0xbd1b852e	-0.037968807
107	0x3e2159d6	0.15756926
108	0x3caf3dee	0.021391835
109	0x3d2733bf	0.040820833
110	0x3e0dd130	0.1384933
111	0xbd95bfd4	-0.07311979
112	0x3db13b15	0.08653847
113	0x3cd8f76b	0.026485166
114	0x3db9990d	0.09062395
115	0xbd8220d9	-0.063539214
116	0x3e44a028	0.1920172
117	0xbe89024e	-0.2675957
118	0x3e4a080f	0.19729637
119	0xbe7af8bd	-0.24508949
120	0xbe4ca676	-0.19985375
121	0xbe3b0869	-0.18264927
122	0xbceaf173	-0.028679585
123	0xbcf13746	-0.029445302
124	0xbe93e41f	-0.2888498
125	0x3e216614	0.15761596
126	0x3d95a9ae	0.073077545
127	0x3e94997c	0.2902335
128	0xbe591278	-0.21198452
129	0xbe74983d	-0.238862
130	0x3d922e7e	0.07137774
131	0x3e6a5434	0.22883683
132	0x3e4b122c	0.19831151
133	0x3df6c70b	0.12049683
134	0x3d4ca00e	0.049957328
135	0x3e179eaf	0.14806627
136	0xbdf21d13	-0.11821952
137	0xbe97b1b4	-0.29627764
138	0xbe7d3aa1	-0.24729396
139	0xbe42871f	-0.18996857
140	0x3d87d888	0.06633097
141	0x3e882adb	0.26595196
142	0x3e444c96	0.1916984
143	0xbe468958	-0.1938833
144	0x3da9a3ab	0.0828317
145	0x3e8688b5	0.26276174
146	0x3bef51ae	0.007303438
147	0xbd62b018	-0.055343717
148	0xbe24c6e3	-0.16091494
149	0xbcb0d58c	-0.021586202
150	0x3e64e49b	0.22352831
151	0xbdabc5a8	-0.08387309
152	0xbd37bded	-0.04485886
153	0x3e139542	0.14412406
154	0xbde934bd	-0.11387012
155	0xbe0c85ee	-0.13722965
156	0x3d4d7a92	0.05016572
157	0x3e5c3b2c	0.21506947
158	0x3d01c871	0.031685296
159	0xbc440176	-0.011963239
160	0xbe71a130	-0.23596644
161	0x3e35a1c8	0.17737496
162	0x3c5e17e9	0.013555505
163	0xbe05e52c	-0.13075703
164	0xbe85ce48	-0.26133943
165	0xbe1050e2	-0.14093354
166	0xbe55c3b5	-0.20875438
167	0x3d79265a	0.06082759
168	0x3e5ee3c6	0.21766576
169	0xbd708172	-0.0587172
170	0x3e392459	0.18080272
171	0xbd81478a	-0.06312473
172	0xbe10c3fd	-0.14137264
173	0xbe8b2ee3	-0.2718421
174	0xbe4bd4f1	-0.1990545
175	0x3e645679	0.22298612
176	0x3e4cdf0a	0.20006958
177	0x3e92bdfe	0.28660578
178	0xbcf5840b	-0.02997019
179	0x3dcda419	0.10041065
180	0xbd1553da	-0.03645692
181	0x3e968852	0.2940088
182	0xbe728b0e	-0.23685858
183	0xbda52f47	-0.08065658
184	0xbe91d2f0	-0.28481245
185	0x3cf04eb0	0.029334396
186	0xbe6cceae	-0.23125717
187	0xbe5553fd	-0.2083282
188	0x3d8cb04e	0.06869565
189	0x3e975113	0.29554042
190	0x3e7d86d4	0.24758464
191	0x3e50fc5e	0.2040877
192	0xbd9691bf	-0.073520176
193	0xbc12efe8	-0.008968331
194	0xbe88b91d	-0.2670373
195	0x3e4c789d	0.19967885
196	0x3da6369c	0.08115885
197	0x3e81179d	0.25213328
198	0xbe93da9e	-0.2887773
199	0xbd945bb1	-0.07244051
200	0xbe43e5cd	-0.19130631
201	0xbe68c79a	-0.22732392
202	0xbe34d5fd	-0.17659755
203	0x3dc03199	0.0938446
204	0x3e4a3589	0.19746985
205	0x3e095d11	0.13414408
206	0xbdd05f36	-0.1017441
207	0x3e062d0f	0.13103126
208	0x3e95cbed	0.29257146
209	0x3c6dffa5	0.014526282
210	0xbddaeac5	-0.1068931
211	0xbe702f5e	-0.23455569
212	0x3e570512	0.20998028
213	0xbd8b0711	-0.06788457
214	0xbe6ea44c	-0.23304862
215	0x3e2fe66b	0.17177741
216	0x3d728f36	0.059218608
217	0xbdf589e9	-0.11989195
218	0xbe95b391	-0.2923856
219	0x3d18a0a6	0.03726258
220	0xbdb42b70	-0.087973475
221	0xbd52fba3	-0.05150951
222	0xbdcaf073	-0.09909143
223	0x3e7a2e7f	0.244318
224	0x3e217473	0.15767078
225	0x3e7125e0	0.23549604
226	0x3de5ae8a	0.11214931
227	0x3dad9c3f	0.08477067
228	0x3e9618aa	0.29315692
229	0xba8a391a	-0.0010545582
230	0x3e2edd53	0.17076616
231	0x3df75eb4	0.1207861
232	0xbe918de5	-0.2842857
233	0x3e4ea473	0.2017992
234	0xbceea06b	-0.029129228
235	0xbe4d63f0	-0.20057654
236	0x3e4cfc39	0.2001809
237	0xbe765b32	-0.24058226
238	0x3e0e9ec3	0.1392775
239	0xbe7a3501	-0.24434282
240	0xbdae7d2a	-0.08519967
241	0xbe8eafb6	-0.27868432
242	0x3e5988b8	0.2124356
243	0x3d96675d	0.07343934
244	0x3e783439	0.24238671
245	0x3db9ab9d	0.09065936
246	0xbe16d200	-0.14728546
247	0x3d36f345	0.044665594
248	0x3e4dd7ef	0.20101903
249	0xbe6b2a5f	-0.22965382
250	0xbe4aea47	-0.19815932
251	0xbd9abd1a	-0.075555995
252	0xbe3e07b1	-0.18557622
253	0xbd5d081d	-0.053962816
254	0x3e90057d	0.28129187
255	0x3e2922cf	0.16517185

layers.0.bias f4 [64]
0	0x00000000	0.0
1	0x00000000	0.0
2	0x00000000	0.0
3	0x00000000	0.0
4	0x00000000	0.0
5	0x00000000	0.0
6	0x00000000	0.0
7	0x00000000	0.0
8	0x00000000	0.0
9	0x00000000	0.0
10	0x00000000	0.0
11	0x00000000	0.0
12	0x00000000	0.0
13	0x00000000	0.0
14	0x00000000	0.0
15	0x00000000	0.0
16	0x00000000	0.0
17	0x00000000	0.0
18	0x00000000	0.0
19	0x00000000	0.0
20	0x00000000	0.0
21	0x00000000	0.0
22	0x00000000	0.0
23	0x00000000	0.0
24	0x00000000	0.0
25	0x00000000	0.0
26	0x00000000	0.0
27	0x00000000	0.0
28	0x00000000	0.0
29	0x00000000	0.0
30	0x00000000	0.0
31	0x00000000	0.0
32	0x00000000	0.0
33	0x00000000	0.0
34	0x00000000	0.0
35	0x00000000	0.0
36	0x00000000	0.0
37	0x00000000	0.0
38	0x00000000	0.0
39	0x00000000	0.0
40	0x00000000	0.0
41	0x00000000	0.0
42	0x00000000	0.0
43	0x00000000	0.0
44	0x00000000	0.0
45	0x00000000	0.0
46	0x00000000	0.0
47	0x00000000	0.0
48	0x00000000	0.0
49	0x00000000	0.0
50	0x00000000	0.0
51	0x00000000	0.0
52	0x00000000	0.0
53	0x00000000	0.0
54	0x00000000	0.0
55	0x00000000	0.0
56	0x00000000	0.0
57	0x00000000	0.0
58	0x00000000	0.0
59	0x00000000	0.0
60	0x00000000	0.0
61	0x00000000	0.0
62	0x00000000	0.0
63	0x00000000	0.0

layers.2.weight f4 [64, 64]
0	0xbe33bed0	-0.17553258
1	0xbdef4241	-0.11682559
2	0x3e31eaaf	0.17374681
3	0xbc8805bf	-0.016604302
4	0xbdbab41b	-0.09116384
5	0x3d2d6088	0.042328387
6	0xbd0ccb8b	-0.0343738
7	0x3d95640c	0.07294473
8	0x3b82b206	0.003988507
9	0x3dfc1e4a	0.12310465
10	0x3df415ca	0.119182184
11	0x3d9babcc	0.07601127
12	0x3d89586e	0.0670632
13	0xbd63bbbf	-0.05559897
14	0xbe4d30bc	-0.20038122
15	0xbcaac0f5	-0.020843962
16	0xbe28619a	-0.16443482
17	0xbe31588b	-0.17318933
18	0xbe433858	-0.19064462
19	0xbd5d9b75	-0.054103334
20	0xbe23f39f	-0.16010903
21	0x3d15f03f	0.03660607
22	0x3dbf7af2	0.09349622
23	0x3e03b646	0.128625
24	0xbe55fc2c	-0.20896977
25	0x3e3a8a63	0.18216853
26	0x3d83eedb	0.064420424
27	0x3e33e9bf	0.17569636
28	0x3dd6d8de	0.10490583
29	0x3d213671	0.03935856
30	0xbd2a3650	-0.041555703
31	0x3e397a90	0.1811316
32	0xbe104c33	-0.14091568
33	0x3e2ceec7	0.16887961
34	0x3e415fa3	0.18884139
35	0x3d10d3ed	0.03535836
36	0xbdbe2757	-0.09284847
37	0xbe331887	-0.17489825
38	0xbc42f8f1	-0.011900173
39	0x3e3c6374	0.18397313
40	0x3c23f9a8	0.010008253
41	0xbd5f37d2	-0.054496594
42	0xbddc8364	-0.10767248
43	0x3c8488b6	0.01617847
44	0x3df53750	0.11973441
45	0x3d2cc37c	0.042178616
46	0x3d18e836	0.03733083
47	0xbe196b23	-0.14982276
48	0x3dd6956d	0.104777195
49	0x3cb8593e	0.022503491
50	0xbe59e790	-0.2127974
51	0x3e386803	0.18008427
52	0x3e0cfdff	0.13768767
53	0x3ade725e	0.001697134
54	0xbd2f2a4f	-0.042764958
55	0x3e472100	0.19446182
56	0x3e5c1908	0.21493924
57	0x3d108541	0.03528333
58	0x3e4dcd9f	0.2009797
59	0x3dbb732f	0.09152829
60	0x3dd39b6e	0.1033238
61	0xbc5216c6	-0.012822812
62	0xbc818d4f	-0.015814452
63	0x3e0dc922	0.13846257
64	0xbdc23646	-0.09483008
65	0xbe1e5c99	-0.1546501
66	0x3e0a6d1e	0.13518187
67	0xbd54d82e	-0.051963978
68	0x3e1c86da	0.15285817
69	0xbd135947	-0.035973813
70	0xbe070fb3	-0.13189583
71	0xbb7013a8	-0.003663281
72	0xbccc7bb7	-0.024961336
73	0x3d4b8d66	0.049695395
74	0xbe2b0b23	-0.16703467
75	0xbe3bb5b8	-0.18331039
76	0x3c376fe7	0.011196113
77	0x3e481b45	0.19541653
78	0xbe0c24e2	-0.13685945
79	0xbddf0d51	-0.10891212
80	0x3ca94620	0.020663321
81	0x3e26077f	0.16213797
82	0x3e29e794	0.16592246
83	0xbd392b5c	-0.045207366
84	0xbc39f680	-0.011350274
85	0xbe2e8cfa	-0.17045966
86	0x3e588866	0.21145782
87	0x3e06b1ba	0.13153735
88	0x3d62bd45	0.055356283
89	0xbe575eb2	-0.21032217
90	0x3dfaa561	0.12238575
91	0xbdf9d57a	-0.121989205
92	0x3c13a0cf	0.009010508
93	0x3dd4bfc8	0.10388142
94	0xbc0d46a1	-0.008622796
95	0xbdd8450f	-0.10560047
96	0x3e15bff8	0.14624012
97	0x3e16449e	0.14674613
98	0x3cacc668	0.021090701
99	0xbe0a8cea	-0.13530317
100	0xbde5b404	-0.11215976
101	0xbe472784	-0.19448668
102	0xbded514e	-0.11587773
103	0xbe460865	-0.1933914
104	0xbc9c815e	-0.019104656
105	0xbe1d7340	-0.15375996
106	0x3dfc855f	0.12330126
107	0xbe3365a7	-0.17519246
108	0xbe18d8a8	-0.14926398
109	0xbe089c9c	-0.13340992
110	0xbd69012d	-0.056885887
111	0x3dad85cc	0.08472785
112	0x3e1f8f4c	0.15582007
113	0x3e5be41c	0.21473736
114	0xbd53802e	-0.051635914
115	0x3d5032c6	0.05082967
116	0x3c79bf84	0.015243415
117	0x3df48c4c	0.11940822
118	0x3dd05e33	0.10174217
119	0x3e025a6f	0.1272981
120	0x3e173913	0.14767866
121	0x3e388f81	0.18023492
122	0x3c35388c	0.011060845
123	0x3e1b3388	0.15156376
124	0xbdf92637	-0.12165492
125	0xbd3a3cf9	-0.045468304
126	0xbd77c1b9	-0.060487483
127	0xbd84c338	-0.064825475
128	0x3c4b1f69	0.0123976255
129	0xbe50966c	-0.20369881
130	0xbdfb4f33	-0.122709654
131	0xbca6434f	-0.020295767
132	0x3d325866	0.043541335
133	0x3e1d1494	0.15339881
134	0xbe1838ac	-0.14865369
135	0x3d585ef5	0.052824933
136	0x3dcca040	0.09991503
137	0xbdec96d3	-0.11552205
138	0x3d16cf16	0.036818586
139	0xbde867cf	-0.11347925
140	0xbbbd24c7	-0.0057722065
141	0xbdf3a6fe	-0.118970856
142	0xbd782bbb	-0.06058858
143	0xbdaf6898	-0.085648715
144	0x3e3fd252	0.18732575
145	0x3d5608a4	0.052254334
146	0xbe5716d2	-0.21004799
147	0x3ce0703d	0.02739727
148	0x3df1cc2e	0.11806522
149	0xbdc1183e	-0.09428452
150	0xbe0494c6	-0.12947378
151	0xbd2e2032	-0.042511173
152	0xbe43d48a	-0.19124046
153	0xbda4f95a	-0.080553725
154	0x3cd9decc	0.026595496
155	0xbe2567d6	-0.16152892
156	0xbe52937a	-0.2056407
157	0xbe03ce28	-0.12871611
158	0xbe21f3ba	-0.1581563
159	0x3bd0543a	0.006357697
160	0x3da041a7	0.07825022
161	0x3e0bb09c	0.1364159
162	0x3e5d88cd	0.21634217
163	0x3de7c285	0.113163985
164	0xbdc83045	-0.09774832
165	0xbceb9864	-0.028759189
166	0xbde3b3df	-0.11118292
167	0x3e054010	0.13012719
168	0x3d93d49f	0.07218289
169	0x3dcc6143	0.09979489
170	0xbe14f3a0	-0.1454606
171	0x3e2cd4d5	0.16878064
172	0xbe432e45	-0.19060619
173	0x3dde9b79	0.10869498
174	0xbe416458	-0.18885934
175	0x3e29c317	0.16578327
176	0xbe036f5a	-0.12835446
177	0xbe2c88e6	-0.16849098
178	0x3dddd9a9	0.10832531
179	0x3e4490c5	0.1919585
180	0xbc80fe6a	-0.015746314
181	0x3db9926b	0.0906113
182	0x3e4ad7c1	0.19808866
183	0xbe342b7c	-0.17594713
184	0x3db44bda	0.0880353
185	0x3d4c1fc8	0.049834996
186	0xbdfc4acb	-0.12318953
187	0x3e03a7ba	0.12856951
188	0x3e457bcf	0.1928551
189	0x3e2a7b48	0.1664859
190	0xbe1f4e67	-0.15557252
191	0x3e4409c0	0.19144344
192	0x3e3a7c09	0.18211378
193	0x3da89c08	0.082328856
194	0xbcf33a4e	-0.029690888
195	0x3e2a986e	0.1665971
196	0xbe0faec5	-0.14031513
197	0xbe06b2d6	-0.13154158
198	0x3df3d9b2	0.119067565
199	0x3e13e1e5	0.1444164
200	0xbcb30f7b	-0.021857968
201	0x3e4be30f	0.19910835
202	0x3de97ddb	0.11400958
203	0x3dd8e1b0	0.105899215
204	0x3e33bd5a	0.175527
205	0x3e5a4312	0.21314648
206	0x3e1b0e27	0.15142117
207	0x3e34a7e7	0.17642175
208	0x3ca72c53	0.020406878
209	0x3e2dc1a8	0.16968405
210	0x3dee46cf	0.116345994
211	0xbdda0e97	-0.10647314
212	0x3df7cf00	0.12100029
213	0x3c774194	0.015091319
214	0xbd990efe	-0.07473563
215	0x3e265121	0.16241886
216	0x3d67fa8e	0.056635432
217	0x3e2cc26a	0.16871038
218	0x3d3f31c1	0.04667831
219	0x3d846869	0.06465227
220	0x3e051f4a	0.13000217
221	0xbd5d1caa	-0.053982414
222	0x3e09c66f	0.13454603
223	0xbde5319d	-0.111911036
224	0xbcfb411d	-0.030670697
225	0x3ca2b5ed	0.01986214
226	0x3e193ea4	0.14965302
227	0x3dc369bd	0.09541652
228	0x3e55e83f	0.20889376
229	0xbdee1865	-0.11625747
230	0xbc8c45da	-0.017123152
231	0xbc93e04c	-0.018051289
232	0x3e34ae3f	0.17644595
233	0x3e514c77	0.20439325
234	0x3d5fd229	0.054643784
235	0xbe332ac1	-0.17496778
236	0xbe20d15e	-0.15704867
237	0x3d22c45a	0.039738037
238	0xbe434d77	-0.19072519
239	0xbd9aa992	-0.07551874
240	0xbe263c36	-0.16233906
241	0x3de36671	0.111035235
242	0xbcf36bd5	-0.029714504
243	0xbe2d9455	-0.16951115
244	0x3e10de52	0.14147308
245	0xbe448f80	-0.19195366
246	0xbcad6397	-0.021165652
247	0x3e557643	0.20845895
248	0x3dde45c7	0.10853153
249	0xbe4014af	-0.1875789
250	0x3cbf5ea0	0.02336055
251	0xbd0403a4	-0.032230034
252	0x3dc572c0	0.096410275
253	0x3e4cd6d1	0.20003821
254	0x3e3cf629	0.18453278
255	0xbca947a4	-0.020664044

layers.2.bias f4 [64]
0	0x00000000	0.0
1	0x00000000	0.0
2	0x00000000	0.0
3	0x00000000	0.0
4	0x00000000	0.0
5	0x00000000	0.0
6	0x00000000	0.0
7	0x00000000	0.0
8	0x00000000	0.0
9	0x00000000	0.0
10	0x00000000	0.0
11	0x00000000	0.0
12	0x00000000	0.0
13	0x00000000	0.0
14	0x00000000	0.0
15	0x00000000	0.0
16	0x00000000	0.0
17	0x00000000	0.0
18	0x00000000	0.0
19	0x00000000	0.0
20	0x00000000	0.0
21	0x00000000	0.0
22	0x00000000	0.0
23	0x00000000	0.0
24	0x00000000	0.0
25	0x00000000	0.0
26	0x00000000	0.0
27	0x00000000	0.0
28	0x00000000	0.0
29	0x00000000	0.0
30	0x00000000	0.0
31	0x00000000	0.0
32	0x00000000	0.0
33	0x00000000	0.0
34	0x00000000	0.0
35	0x00000000	0.0
36	0x00000000	0.0
37	0x00000000	0.0
38	0x00000000	0.0
39	0x00000000	0.0
40	0x00000000	0.0
41	0x00000000	0.0
42	0x00000000	0.0
43	0x00000000	0.0
44	0x00000000	0.0
45	0x00000000	0.0
46	0x00000000	0.0
47	0x00000000	0.0
48	0x00000000	0.0
49	0x00000000	0.0
50	0x00000000	0.0
51	0x00000000	0.0
52	0x00000000	0.0
53	0x00000000	0.0
54	0x00000000	0.0
55	0x00000000	0.0
56	0x00000000	0.0
57	0x00000000	0.0
58	0x00000000	0.0
59	0x00000000	0.0
60	0x00000000	0.0
61	0x00000000	0.0
62	0x00000000	0.0
63	0x00000000	0.0

output_layer.weight f4 [2, 64]
0	0xbe8c41ab	-0.2739385
1	0xbe0ec6b7	-0.13942991
2	0xbe5eece1	-0.2177005
3	0xbe926156	-0.28589886
4	0x3e034180	0.12817955
5	0x3d8d63ee	0.06903826
6	0x3e92e22a	0.28688174
7	0xbdaa208b	-0.08306988
8	0xbe4c6bdd	-0.19963022
9	0xbe84e37a	-0.259548
10	0x3c981a62	0.018567268
11	0xbe2934ee	-0.16524097
12	0x3d5b18cd	0.05349045
13	0x3e4c3b03	0.19944386
14	0x3e83fe2a	0.2577985
15	0xbd496b44	-0.049174562
16	0xbe48c45a	-0.19606152
17	0xbe27a6ea	-0.16372266
18	0x3e44132b	0.19147937
19	0x3d9fcc9b	0.07802697
20	0x3c9c64dd	0.019091064
21	0xbe95fcba	-0.29294378
22	0x3e264d0b	0.16240327
23	0x3e435196	0.19074091
24	0x3cfee7f3	0.031116461
25	0xbd5e897a	-0.054330327
26	0xbe128325	-0.1430784
27	0x3b21641a	0.0024626316
28	0x3c7569eb	0.014978866
29	0x3dae30cb	0.085054
30	0xbc515e77	-0.01277887
31	0x3e925baf	0.28585574
32	0x3e4704fb	0.19435494
33	0x3d8b6938	0.06807178
34	0xbe890d8e	-0.26768154
35	0xbe136b90	-0.143965
36	0x3df19f78	0.117979944
37	0xbe47880c	-0.19485492
38	0x3dac2763	0.0840595
39	0x3d97a43f	0.07404374
40	0xbe421c5c	-0.1895613
41	0x3d74fa8c	0.059809253
42	0xbd1fba41	-0.038995985
43	0x3e65f6e2	0.2245746
44	0xbd883afd	-0.06651876
45	0x3e86b8a0	0.26312733
46	0x3e861ffb	0.26196274
47	0xbdccba19	-0.09996433
48	0x3d4f3a04	0.050592437
49	0xbda8cc23	-0.08242061
50	0x3e773c91	0.24144198
51	0x3e140783	0.1445599
52	0x3a58aa07	0.0008265082
53	0x3e3ab780	0.18234062
54	0xbe77e866	-0.24209747
55	0xbd9de99b	-0.07710572
56	0x3d7c18cf	0.061547097
57	0xbe92414d	-0.28565446
58	0x3e86edd6	0.2635333
59	0x3ccaee2e	0.024771776
60	0x3e886147	0.26636717
61	0xbdb3b894	-0.0877544
62	0x3c93110b	0.017952463
63	0xbdaa4eb6	-0.08315794
64	0xbdfd2b51	-0.123617776
65	0xbde4d119	-0.11172695
66	0x3e5588dd	0.2085299
67	0x3e8ab46c	0.27090776
68	0x3db1b0d9	0.08676309
69	0x3e2c6740	0.16836262
70	0x3e064d91	0.13115527
71	0x39c62172	0.00037790422
72	0xbe65d067	-0.2244278
73	0x3d9ae7ff	0.07563781
74	0xbdd42ed1	-0.10360492
75	0x3dec6dc9	0.11544377
76	0xbe48e571	-0.19618775
77	0xbca7e1f5	-0.020493487
78	0xbdf2b858	-0.11851567
79	0xbe8ecf5c	-0.27892578
80	0xbe8eb7ba	-0.27874547
81	0x3e8e6db1	0.27818063
82	0xb9abf97b	-0.0003280154
83	0xbe8513b6	-0.259916
84	0x3d4a81dc	0.04944025
85	0xbc9b036a	-0.018922526
86	0x3e7e5a06	0.24839029
87	0x3e917d74	0.28416026
88	0xbd9eb72e	-0.077497825
89	0xbe3943cf	-0.18092273
90	0xbe30ef75	-0.17278846
91	0xbda42fa5	-0.080169
92	0xbe297b44	-0.16550928
93	0x3e8b24dd	0.27176562
94	0xbdec0737	-0.115248136
95	0x3e1f11fe	0.15534207
96	0x3e0bb97a	0.13644972
97	0x3d90602a	0.07049592
98	0x3e16839d	0.14698644
99	0x3e82b935	0.25531927
100	0x3e035dd0	0.12828755
101	0x3e07db51	0.13267256
102	0xbe818741	-0.25298503
103	0xbcdae4dd	-0.026720459
104	0x3be42009	0.0069618267
105	0x3e71ccaf	0.23613237
106	0x3e03edc2	0.12883666
107	0x3e701ce9	0.23448528
108	0x3e6ecfcc	0.23321456
109	0xbe100471	-0.14064194
110	0x3d2f343a	0.042774417
111	0x3e933349	0.28750065
112	0x3dda4c60	0.106590986
113	0x3e2e919e	0.17047736
114	0x3dfafed7	0.12255638
115	0xbdc1d6c2	-0.0946479
116	0x3d937434	0.07199898
117	0xbe5554d3	-0.20833139
118	0x3e8e6b51	0.2781625
119	0x3c8d5306	0.017251503
120	0x3e6f41b4	0.23364908
121	0xbe5909d3	-0.21195154
122	0xbe8dd116	-0.27698582
123	0x3d13df2a	0.036101498
124	0xbd1e3a0d	-0.03862958
125	0xbdf9c6a9	-0.121960945
126	0x3e21c4cd	0.1579773
127	0xbe48d8a0	-0.19613886

output_layer.bias f4 [2]
0	0x00000000	0.0
1	0x00000000	0.0

layers.0.weight f4 [64, 4]
0	0xbe29fd5c	-0.16600555
1	0x3e177284	0.14789778
2	0xbe90c52d	-0.28275433
3	0x3e4951c0	0.19660091
4	0x3e697869	0.22799839
5	0xbc8dfb9a	-0.017331887
6	0xbe3c875b	-0.18411009
7	0x3d1abff1	0.037780706
8	0x3e5c1f98	0.21496427
9	0x3d22e343	0.039767515
10	0x3d6397a3	0.055564534
11	0x3e049416	0.12947115
12	0x3e2c089a	0.16800156
13	0x3d84bbc0	0.06481123
14	0xbe25c748	-0.16189301
15	0x3c07edff	0.008296489
16	0xbe01b8f7	-0.12668215
17	0x3e190f23	0.1494718
18	0xbe1c69e5	-0.1527477
19	0x3e84ef54	0.25963843
20	0x3e000192	0.12500599
21	0xbe97ed5a	-0.29673272
22	0xbdfed2a8	-0.12442523
23	0xbd36e688	-0.044653445
24	0xbdc53d2a	-0.09630807
25	0xbc22a596	-0.009927174
26	0xbe22bf8d	-0.15893383
27	0x3e55d104	0.20880514
28	0x3e0a98bb	0.13534825
29	0xbce68cea	-0.028143365
30	0xbe04bc05	-0.12962349
31	0xbe687b14	-0.227032
32	0xbe2f4e57	-0.17119728
33	0xbe27eb73	-0.1639841
34	0x3e8eea71	0.2791324
35	0xb9a5579f	-0.00031536535
36	0xbe2d86df	-0.1694598
37	0xbcbbc0bc	-0.022919051
38	0xbc3ec6af	-0.01164405
39	0x3d93e6ad	0.07221732
40	0x3dc619b8	0.09672874
41	0x3e3ec466	0.18629608
42	0xbe177f43	-0.1479464
43	0xbd837924	-0.0641959
44	0xbe828649	-0.25493076
45	0xbddabf0c	-0.106809705
46	0xbe85b72a	-0.26116306
47	0xbcd2f0b8	-0.02574955
48	0xbe37de1c	-0.17955822
49	0xbdd04358	-0.10169095
50	0x3e8e4ed4	0.27794516
51	0x3e89b117	0.2689292
52	0x3d1e5842	0.038658388
53	0x3e1ac7b4	0.15115243
54	0x3e4487ec	0.19192475
55	0x3c5608f0	0.013063654
56	0x3d72522b	0.059160393
57	0xbca398cb	-0.019970318
58	0xbe729e45	-0.23693188
59	0x3e724a2d	0.23661108
60	0xbe615dce	-0.2200844
61	0xbdb5eb8c	-0.088828176
62	0xbe7d3034	-0.2472542
63	0xbe343461	-0.17598106
64	0x3e97694e	0.2957253
65	0xbce0891d	-0.02740913
66	0x3dbe75fb	0.09299847
67	0x3d933138	0.07187122
68	0x3e6da109	0.23205961
69	0x3d7eac2b	0.06217591
70	0x3c2c0601	0.010499478
71	0xbe0b97ec	-0.13632172
72	0x3d5f3178	0.054490536
73	0x3d8420bb	0.06451555
74	0xbe517d73	-0.20458011
75	0xbe5bfe3d	-0.21483703
76	0xbe0384fa	-0.12843695
77	0x3e82d7d2	0.25555283
78	0x3df1b064	0.11801222
79	0x3e2a48b7	0.16629301
80	0x3e4ab9bd	0.19797416
81	0xbb422ef4	-0.0029630037
82	0xbe4b1a68	-0.19834292
83	0x3e91b944	0.2846166
84	0x3d486df1	0.048932973
85	0xbddad5dd	-0.106853224
86	0x3df4d51f	0.11954712
87	0xbe55934e	-0.20856974
88	0x3c2b89fc	0.01046991
89	0x3e8d3a41	0.27583507
90	0x3dc88d60	0.0979259
91	0xbe8e8d0e	-0.2784199
92	0x3e849c69	0.2590058
93	0x3d81ca98	0.0633747
94	0xbda295e6	-0.07938747
95	0x3e6f4314	0.23365432
96	0x3e071941	0.13193227
97	0x3e31b3d7	0.1735376
98	0x3e14c981	0.14529993
99	0xbe2a5c4f	-0.16636775
100	0xbe5bc59e	-0.21462104
101	0x3e5a7275	0.21332724
102	0xbc965710	-0.018352062
103	0x3e77035c	0.24122375
104	0x3e1721c4	0.14758974
105	0xbe929cbd	-0.28635207
106	0x3e263e95	0.1623481
107	0x3e17affa	0.14813223
108	0xbe926bc8	-0.28597856
109	0x3c8fc7df	0.01755136
110	0xbe730744	-0.2373324
111	0x3e14f4ba	0.14546481
112	0x3e21e86f	0.15811323
113	0x3db92d6d	0.090418674
114	0x3e3e651b	0.18593256
115	0xbe28c691	-0.16481997
116	0xbc29c5e3	-0.010362121
117	0xbda4d379	-0.08048148
118	0x3e687b86	0.2270337
119	0x3e5920a9	0.21203865
120	0xbdd6a106	-0.104799315
121	0xbe810e98	-0.25206447
122	0xbc29a912	-0.010355251
123	0x3e6dbf61	0.23217537
124	0xbd8344ce	-0.06409608
125	0x3ddfe663	0.10932615
126	0xbe5d1b29	-0.21592392
127	0xbe4a3bf1	-0.19749428
128	0xbe828778	-0.2549398
129	0xbe82d191	-0.2555051
130	0xbdf747a0	-0.12074208
131	0xbe01b8ad	-0.12668104
132	0x3deaecff	0.11470985
133	0x3e7ab013	0.2448123
134	0x3d157c8c	0.03649573
135	0x3df53750	0.11973441
136	0xbe426128	-0.18982375
137	0xbe03c26d	-0.12867136
138	0xbe8e1562	-0.2775069
139	0x3e8e6944	0.27814686
140	0x3d01dba3	0.031703603
141	0xbda6b224	-0.081394464
142	0xbe8af6c3	-0.2714139
143	0x3d6404fd	0.05566882
144	0xbe953e42	-0.2914906
145	0x3e4c7389	0.19965948
146	0xbe8eaa35	-0.27864233
147	0x3d8238be	0.06358479
148	0x3e3cbe1f	0.184319
149	0xbe75c2c9	-0.24000086
150	0x3e5f6621	0.21816303
151	0x3e92024a	0.2851737
152	0x3e548d28	0.20756972
153	0x3e8a19d8	0.26972842
154	0xbe0e527a	-0.1389865
155	0xbd557373	-0.052112054
156	0x3e8876bb	0.26653084
157	0x3e10181a	0.14071694
158	0xbe4e76be	-0.20162484
159	0x3e95cc42	0.292574
160	0xbd4da5f9	-0.050207112
161	0xbdc5e429	-0.09662659
162	0x3d27c569	0.04095975
163	0x3e925601	0.2858124
164	0xbe194711	-0.14968516
165	0x3cd5b175	0.026085595
166	0xbd0f169c	-0.03493367
167	0xbdb63a49	-0.08897836
168	0x3e0c4881	0.13699533
169	0x3c926e19	0.017874764
170	0xbe798ca5	-0.24370058
171	0xbbf05207	-0.007333997
172	0x3e402b21	0.18766452
173	0xbe103a43	-0.14084725
174	0x3e871ee7	0.26390764
175	0xbe7a9973	-0.24472599
176	0x3dce0667	0.10059815
177	0x3e3c9ec6	0.18419942
178	0x3dd551dd	0.10416005
179	0x3df049a3	0.11732795
180	0x3d32ef20	0.04368508
181	0xbd8026c2	-0.062573925
182	0x3e59fc6b	0.21287696
183	0xbd86dd83	-0.06585219
184	0x3e7f99c4	0.24961
185	0x3e917cb0	0.28415442
186	0xbe83ada0	-0.25718403
187	0x3e77581d	0.24154706
188	0x3d976132	0.073915854
189	0xbe4f7699	-0.20260085
190	0xbe291557	-0.16512047
191	0xbd27d615	-0.04097565
192	0x3e8e27d7	0.2776477
193	0x3e39b696	0.18136057
194	0xbda1c959	-0.07899732
195	0xbe35972e	-0.17733452
196	0xbe44dc20	-0.19224596
197	0xbe19b050	-0.15008664
198	0xbbdcc4d5	-0.0067373314
199	0xbe840843	-0.25787553
200	0xbe87be10	-0.26512194
201	0xbe3f02b2	-0.18653372
202	0x3da7a650	0.081860185
203	0x3dd7f3b1	0.10544527
204	0x3db365fb	0.087596856
205	0x3e7cec84	0.24699599
206	0x3d9342b0	0.07190454
207	0xbdec3bee	-0.11534868
208	0x3df17e9a	0.117917255
209	0xbe0dedbe	-0.13860223
210	0x3e87463f	0.2642078
211	0xbde98064	-0.11401442
212	0xbe3df995	-0.18552239
213	0xbd695bba	-0.056972243
214	0xbe29a2cc	-0.16566008
215	0xbcf46377	-0.029832585
216	0xbd4b5727	-0.04964366
217	0x3d0e900c	0.034805343
218	0xbd210333	-0.03930969
219	0xbe53ea84	-0.2069493
220	0xbe8e7a5e	-0.27827734
221	0xbe5be7de	-0.21475169
222	0xbe8d854a	-0.27640754
223	0xbe97a9aa	-0.2962163
224	0x3e939790	0.2882657
225	0x3e321b3f	0.17393206
226	0x3e09ea12	0.13468197
227	0x3e43db65	0.19126661
228	0x3db8e791	0.09028543
229	0xbdc8f682	-0.09812643
230	0xbd171b09	-0.036891017
231	0xbdfa0def	-0.12209689
232	0x3e093411	0.13398768
233	0x3d9c9230	0.076450706
234	0xbe7f7d1d	-0.2495007
235	0x3d3d13b3	0.046161365
236	0xbe6a2a38	-0.22867668
237	0x3e64b884	0.22336012
238	0x3d042eba	0.032271124
239	0xbb9636c2	-0.0045841644
240	0xbe33d7fb	-0.17562859
241	0x3d3b7192	0.045762606
242	0x3d1ad03e	0.03779625
243	0x3d9c2e03	0.076259635
244	0xbe55076b	-0.20803611
245	0xbe0073af	-0.1254413
246	0xbe53f508	-0.20698941
247	0xbe3e2517	-0.18568836
248	0xbe26b2ba	-0.16279116
249	0xbe755731	-0.23959042
250	0x3e956c23	0.29184064
251	0xbe8fed49	-0.28110722
252	0xbd9f4b47	-0.0777803
253	0x3c4e54b6	0.012593439
254	0xbdf4fb7a	-0.11962028
255	0xbda8be26	-0.08239393

layers.0.bias f4 [64]
0	0x00000000	0.0
1	0x00000000	0.0
2	0x00000000	0.0
3	0x00000000	0.0
4	0x00000000	0.0
5	0x00000000	0.0
6	0x00000000	0.0
7	0x00000000	0.0
8	0x00000000	0.0
9	0x00000000	0.0
10	0x00000000	0.0
11	0x00000000	0.0
12	0x00000000	0.0
13	0x00000000	0.0
14	0x00000000	0.0
15	0x00000000	0.0
16	0x00000000	0.0
17	0x00000000	0.0
18	0x00000000	0.0
19	0x00000000	0.0
20	0x00000000	0.0
21	0x00000000	0.0
22	0x00000000	0.0
23	0x00000000	0.0
24	0x00000000	0.0
25	0x00000000	0.0
26	0x00000000	0.0
27	0x00000000	0.0
28	0x00000000	0.0
29	0x00000000	0.0
30	0x00000000	0.0
31	0x00000000	0.0
32	0x00000000	0.0
33	0x00000000	0.0
34	0x00000000	0.0
35	0x00000000	0.0
36	0x00000000	0.0
37	0x00000000	0.0
38	0x00000000	0.0
39	0x00000000	0.0
40	0x00000000	0.0
41	0x00000000	0.0
42	0x00000000	0.0
43	0x00000000	0.0
44	0x00000000	0.0
45	0x00000000	0.0
46	0x00000000	0.0
47	0x00000000	0.0
48	0x00000000	0.0
49	0x00000000	0.0
50	0x00000000	0.0
51	0x00000000	0.0
52	0x00000000	0.0
53	0x00000000	0.0
54	0x00000000	0.0
55	0x00000000	0.0
56	0x00000000	0.0
57	0x00000000	0.0
58	0x00000000	0.0
59	0x00000000	0.0
60	0x00000000	0.0
61	0x00000000	0.0
62	0x00000000	0.0
63	0x00000000	0.0

layers.2.weight f4 [64, 64]
0	0x3dcf87a0	0.1013329
1	0xbd4bc6a3	-0.04974998
2	0xbcd19b6c	-0.025586806
3	0x3e43a1e7	0.1910473
4	0xbd9f2dbe	-0.077723965
5	0xbc1cf184	-0.009579066
6	0x3e0d0ae3	0.13773684
7	0xbd4ff52e	-0.05077093
8	0xbe30d936	-0.1727036
9	0x3e2ab8eb	0.16672103
10	0xbe3f113e	-0.18658921
11	0xbe5a8301	-0.21339037
12	0xbde3afc5	-0.1111751
13	0x3ceb4602	0.028719906
14	0x3e33a1fb	0.1754226
15	0xbe2d12f1	-0.16901757
16	0xbddcb5b4	-0.107768446
17	0x3e484571	0.1955774
18	0x3e2d151f	0.16902588
19	0x3da7ec11	0.08199323
20	0xbe3bb1a0	-0.18329477
21	0x3df3ae38	0.11898464
22	0xbc616dfc	-0.0137591325
23	0xbe2a6718	-0.1664089
24	0x3e2dad7e	0.16960713
25	0xbe17a224	-0.14807945
26	0x3d10866b	0.03528444
27	0xbdf196f2	-0.11796369
28	0x3e3bf40f	0.1835482
29	0x3bdcdf04	0.0067404527
30	0xbd56b277	-0.05241629
31	0x3df96b14	0.12178627
32	0x3e49bfd0	0.19702077
33	0xbc8a16fe	-0.016856667
34	0x3e166929	0.14688553
35	0xbd9f423e	-0.077763066
36	0xbdef81c6	-0.11694674
37	0xbdefd231	-0.11710013
38	0xbe54d2a3	-0.20783477
39	0x3e441eee	0.19152424
40	0x3d5b9ccc	0.05361633
41	0xbe1c809a	-0.15283433
42	0xbe403b8c	-0.18772715
43	0x3e0b1b22	0.13584569
44	0x3c290c43	0.010317865
45	0xbe1788d1	-0.14798285
46	0xbcb0fd79	-0.02160524
47	0xbda133bc	-0.07871196
48	0x3ce7143f	0.028207896
49	0xbdb74c76	-0.08950131
50	0xbdcf762f	-0.101299636
51	0xbe01f02c	-0.12689275
52	0xbdb7112b	-0.089388214
53	0x3b63ae8a	0.0034741485
54	0x3dd7c2f3	0.105352305
55	0x3d3ce906	0.046120666
56	0x3e0d6568	0.13808215
57	0xbd8a841d	-0.0676348
58	0xbd98f0dc	-0.07467815
59	0xbe053ef2	-0.13012293
60	0xbe3f2045	-0.18664654
61	0xbe08071b	-0.1328396
62	0xbd389506	-0.045063995
63	0x3e50c5f0	0.20388007
64	0xbe58153d	-0.21101852
65	0x3e25dd5e	0.16197726
66	0x3de39de2	0.11114098
67	0x3ddcb61c	0.10776922
68	0x3deb8dfc	0.11501691
69	0x3dee2a80	0.116292
70	0x3e3fb92d	0.18722983
71	0x3da4377f	0.080183975
72	0xbd387c20	-0.04504025
73	0x3da8b6c2	0.08237983
74	0xbc842fba	-0.016136039
75	0xbdd6acb6	-0.10482161
76	0x3da267a5	0.07929925
77	0x3e5da863	0.21646266
78	0x3e264dfa	0.16240683
79	0xbdbf2c61	-0.093346365
80	0xbc9d20c5	-0.019180665
81	0x3da9cd66	0.0829113
82	0x3df5fe8a	0.1201144
83	0xbe41062d	-0.18850012
84	0x3cf15f74	0.02946446
85	0xbcd16b3f	-0.025563834
86	0x3e54bb80	0.2077465
87	0x3d7c0fe7	0.061538603
88	0xbdc703bf	-0.097175114
89	0xbd8d4a8d	-0.06898985
90	0x3e34daae	0.17661545
91	0xbd8332d9	-0.06406183
92	0x3d24d75c	0.040244445
93	0x3e41eec1	0.18938734
94	0xbe43f148	-0.1913501
95	0xbc914efc	-0.017737858
96	0xbe47e7e4	-0.19522053
97	0xbd86b0d7	-0.06576698
98	0x3da2a71c	0.0794203
99	0x38fe11f9	0.000121150115
100	0x3ddbd71f	0.107343905
101	0xbe16e235	-0.14734729
102	0x3dc58e57	0.0964629
103	0xbdc0d9ac	-0.094165176
104	0x3e0fbb69	0.14036335
105	0xbd6649d7	-0.056222763
106	0x3e356e3a	0.1771783
107	0x3c8e8fc5	0.017402539
108	0x3d97b1a6	0.074069306
109	0xbe27d89d	-0.16391225
110	0x3d01d561	0.031697635
111	0x3e239559	0.1597494
112	0xbe293464	-0.16523892
113	0x3e2405ae	0.16017792
114	0x3da54663	0.08070066
115	0xbdbcbb65	-0.0921543
116	0xbe109c21	-0.14122058
117	0x3e082d4c	0.1329853
118	0xbd86f01a	-0.065887645
119	0x3dd7e5d9	0.10541887
120	0x3cd899c4	0.026440509
121	0x3e4f0ab6	0.2021893
122	0xbe18a1a9	-0.14905418
123	0xbcf83b89	-0.030301826
124	0x3dc21ea6	0.09478502
125	0xbdd9e0be	-0.10638569
126	0xbd73a203	-0.05948068
127	0xbd42396a	-0.047418036
128	0x3e59769e	0.21236655
129	0x3dc2d873	0.09513941
130	0xbe4d9c00	-0.2007904
131	0x3d77ad58	0.060468048
132	0x3e3b56fa	0.18294898
133	0x3ddf6738	0.10908359
134	0x3e496291	0.19666506
135	0xbd2f921f	-0.04286396
136	0x3cb02be5	0.021505306
137	0x3e58a5fc	0.21157068
138	0x3e4c5d3e	0.19957444
139	0xbd824348	-0.06360489
140	0x3d3ace3f	0.045606848
141	0x3c101f10	0.008796468
142	0x3e43a665	0.19106443
143	0xbdc2b723	-0.09507587
144	0xbcdb1f47	-0.026748313
145	0x3da24a80	0.07924366
146	0xbd09c84b	-0.03363828
147	0xbdd0acc7	-0.10189205
148	0x3e3cc643	0.18435006
149	0xbda48050	-0.08032286
150	0x3e083583	0.13301663
151	0xbd47afa3	-0.048751485
152	0xbe5aa956	-0.21353659
153	0xbe1942c4	-0.14966875
154	0x3d635813	0.055503916
155	0x3e1ec7cb	0.15505902
156	0xbcf95257	-0.03043477
157	0x3e106457	0.14100777
158	0x3d22e47a	0.039768673
159	0x3dbc8d10	0.09206593
160	0x3e5b8724	0.21438271
161	0x3e173f1f	0.14770173
162	0x3e2bbf36	0.1677216
163	0xbe0cdfc8	-0.13757241
164	0xbe238944	-0.15970331
165	0x3e2fc54e	0.1716511
166	0x3e4c793c	0.19968122
167	0x3de14f56	0.1100146
168	0x3dafee2e	0.08590351
169	0xbd4d2ea9	-0.050093327
170	0x3d9b505d	0.075836875
171	0xbdd595ec	-0.10428986
172	0xbc15fd82	-0.009154679
173	0x3e4f7568	0.2025963
174	0xbe0bac14	-0.13639861
175	0xbe3a52fd	-0.1819572
176	0xbc8a2888	-0.01686503
177	0x3de746fd	0.11292837
178	0xbe4e30f9	-0.20135869
179	0x3e0d1eb4	0.13781244
180	0x3c1e1e23	0.00965074
181	0x3cd4338e	0.02590349
182	0x3e0947c7	0.13406287
183	0x3de02fde	0.1094663
184	0xbc4933f1	-0.01228045
185	0xbe52edc1	-0.20598508
186	0x3e3fbf71	0.18725373
187	0xbd8f8e19	-0.07009525
188	0xbdf64b8c	-0.12026128
189	0x3d944c06	0.07241063
190	0x3e15025b	0.1455168
191	0x3cfc8e0c	0.030829452
192	0xbdfc4d98	-0.12319487
193	0xbe495720	-0.19662142
194	0x3dc108df	0.0942552
195	0x3d9b361c	0.0757868
196	0x3e03c79f	0.12869118
197	0x3e5ce7eb	0.21572845
198	0xbdf18897	-0.117936306
199	0x3d89bb16	0.06725137
200	0x3e5bf02c	0.21478337
201	0xbbdd7e94	-0.006759474
202	0xbda4a154	-0.080385834
203	0xbe2d113d	-0.16901107
204	0x3b6359ab	0.0034690897
205	0xbddff180	-0.10934734
206	0xbe16ef25	-0.14739664
207	0xbe52cc32	-0.20585707
208	0x3db6fb15	0.08934609
209	0xbcffd7c5	-0.031230817
210	0x3dbf2b72	0.093344584
211	0x3ded635f	0.11591219
212	0xbe5c53a5	-0.21516283
213	0xbda0c0b3	-0.078492545
214	0x3e4591e8	0.1929394
215	0xbd18cf9d	-0.03730737
216	0x3e155c48	0.14585984
217	0xbe3fac16	-0.1871799
218	0x3e4aa349	0.19788851
219	0x3dbb41af	0.091433875
220	0xbe1bafe9	-0.15203823
221	0x3d50408d	0.05084281
222	0x3e0d46ed	0.13796587
223	0x3deee63d	0.11665008
224	0x3d2c2c48	0.042034417
225	0xbdac43f6	-0.084114
226	0xbd8acc82	-0.06777288
227	0xbe20ebaa	-0.15714899
228	0x3e59eaf8	0.2128104
229	0x3d293165	0.041306872
230	0x3d402ab5	0.04691573
231	0xbe000ee0	-0.12505674
232	0xbe2d1dea	-0.16905943
233	0xbcd07776	-0.025447588
234	0x3de4ebb5	0.1117777
235	0x3e273c5c	0.16331619
236	0xbcade3d1	-0.021226795
237	0x3dba3c4f	0.09093534
238	0xbd1c2645	-0.038122434
239	0xbd83a441	-0.06427813
240	0x3e5d8f24	0.21636635
241	0x3d57f77e	0.05272626
242	0x3e59a510	0.21254373
243	0xbe597a26	-0.21238002
244	0x3c8ca911	0.01717046
245	0xbd97d4a7	-0.07413607
246	0x3e2bb36c	0.16767663
247	0x3dde428f	0.10852539
248	0x3d13f144	0.03611876
249	0x3e0a0def	0.13481878
250	0xbe039225	-0.12848718
251	0xbd688486	-0.05676701
252	0x3de10a4f	0.10988294
253	0xbe00e5ff	-0.12587737
254	0x3d55394f	0.052056607
255	0x3d904295	0.070439495

layers.2.bias f4 [64]
0	0x00000000	0.0
1	0x00000000	0.0
2	0x00000000	0.0
3	0x00000000	0.0
4	0x00000000	0.0
5	0x00000000	0.0
6	0x00000000	0.0
7	0x00000000	0.0
8	0x00000000	0.0
9	0x00000000	0.0
10	0x00000000	0.0
11	0x00000000	0.0
12	0x00000000	0.0
13	0x00000000	0.0
14	0x00000000	0.0
15	0x00000000	0.0
16	0x00000000	0.0
17	0x00000000	0.0
18	0x00000000	0.0
19	0x00000000	0.0
20	0x00000000	0.0
21	0x00000000	0.0
22	0x00000000	0.0
23	0x00000000	0.0
24	0x00000000	0.0
25	0x00000000	0.0
26	0x00000000	0.0
27	0x00000000	0.0
28	0x00000000	0.0
29	0x00000000	0.0
30	0x00000000	0.0
31	0x00000000	0.0
32	0x00000000	0.0
33	0x00000000	0.0
34	0x00000000	0.0
35	0x00000000	0.0
36	0x00000000	0.0
37	0x00000000	0.0
38	0x00000000	0.0
39	0x00000000	0.0
40	0x00000000	0.0
41	0x00000000	0.0
42	0x00000000	0.0
43	0x00000000	0.0
44	0x00000000	0.0
45	0x00000000	0.0
46	0x00000000	0.0
47	0x00000000	0.0
48	0x00000000	0.0
49	0x00000000	0.0
50	0x00000000	0.0
51	0x00000000	0.0
52	0x00000000	0.0
53	0x00000000	0.0
54	0x00000000	0.0
55	0x00000000	0.0
56	0x00000000	0.0
57	0x00000000	0.0
58	0x00000000	0.0
59	0x00000000	0.0
60	0x00000000	0.0
61	0x00000000	0.0
62	0x00000000	0.0
63	0x00000000	0.0

output_layer.weight f4 [1, 64]
0	0x3dc1ae07	0.09457021
1	0x3e2374cf	0.15962528
2	0xbdf46c15	-0.119346775
3	0x3e07312b	0.1320235
4	0x3de834dd	0.11338208
5	0xbe0c46d8	-0.136989
6	0xbd61a73c	-0.055091128
7	0x3e2cd0dc	0.16876549
8	0x3d9926e5	0.07478122
9	0xbc48b0b9	-0.012249165
10	0xbbb3b721	-0.005484477
11	0xbe56bc1a	-0.20970193
12	0xbd30efa7	-0.0431973
13	0x3cfeb553	0.031092322
14	0x3dff66b8	0.12470764
15	0xbde2f999	-0.11082763
16	0x3de12b38	0.109945714
17	0x3d3e5dee	0.046476297
18	0x3e8e09a4	0.2774173
19	0x3df1da67	0.11809235
20	0xbe999297	-0.29994652
21	0xbd97d8b0	-0.07414377
22	0xbcadf4e9	-0.021234946
23	0xbe084189	-0.1330625
24	0xbddfa47c	-0.10920045
25	0x3c61e8f0	0.013788447
26	0xbbe7cad4	-0.0070737395
27	0xbda34551	-0.079722054
28	0xbdffdcbc	-0.124932736
29	0xbe0bd4b9	-0.13655366
30	0x3dd1efaa	0.102507904
31	0x3dc828a1	0.09773374
32	0x3d62c2a9	0.055361424
33	0x3e5ed823	0.21762137
34	0x3cd30226	0.02575786
35	0x3e905c5e	0.2819547
36	0xbd807ec4	-0.062741786
37	0x3b3e9450	0.00290801
38	0xbe21ecab	-0.15812938
39	0xbe76993c	-0.24081892
40	0xbe0608f8	-0.13089359
41	0x3d93c871	0.072159655
42	0x3cba7e41	0.02276528
43	0x3e003fd7	0.12524353
44	0x3dc71308	0.09720427
45	0xbe97749f	-0.29581162
46	0x3e813061	0.25232223
47	0xbdaac1a7	-0.083377175
48	0xbe70bbb0	-0.23509097
49	0x3df2a70b	0.11848267
50	0x3da320be	0.079652295
51	0xbe2fb691	-0.17159487
52	0x3b833a2f	0.0040047388
53	0x3e82fc01	0.2558289
54	0x3da5dded	0.080989696
55	0xbdaec559	-0.08533735
56	0xbd95261f	-0.07282662
57	0x3dc98bc2	0.0984111
58	0x3e9405e1	0.28910735
59	0xbdacf3ef	-0.08444964
60	0x3e897d3c	0.2685336
61	0xbdf910bf	-0.12161397
62	0x3e5a99c1	0.21347715
63	0x3cf00cbf	0.029302953

weight f4 [64, 4]
0	0xbe296a14	-0.16544372
1	0xbe8fd461	-0.2809172
2	0x3e2ebfb6	0.1706532
3	0x3b512f24	0.0031918967
4	0x3e972d13	0.29526576
5	0xbe79380b	-0.24337785
6	0xbe76b6b2	-0.2409313
7	0x3d51eb48	0.051249772
8	0x3e4bde83	0.199091
9	0x3e48ec88	0.1962148
10	0x3e9734c9	0.2953246
11	0x3e41a5fb	0.18910973
12	0x3e07ddad	0.13268156
13	0xbe3b062c	-0.18264073
14	0x3e95e00e	0.29272503
15	0xbe069dd3	-0.13146143
16	0x3e439a71	0.19101883
17	0x3dfa44c2	0.12220146
18	0xbe344b28	-0.17606795
19	0xbcd962cd	-0.02653637
20	0xbcca9ed6	-0.024733942
21	0x3e65ad69	0.22429432
22	0x3e68c17c	0.22730058
23	0x3d826f61	0.063689
24	0xbe2cdc0f	-0.1688082
25	0x3dad42c8	0.08460003
26	0x3e7936c8	0.24337304
27	0xbe212ee0	-0.15740538
28	0x3e73c625	0.23806055
29	0x3d8978a8	0.067124665
30	0x3e2841a4	0.1643129
31	0x3dd0ac97	0.10189169
32	0x3e400830	0.18753123
33	0xbe8164d5	-0.2527224
34	0x3dfb3fd0	0.12268031
35	0xbe83e34c	-0.2575935
36	0xbca60cd1	-0.020269783
37	0x3e6ddeba	0.23229495
38	0xbe797143	-0.24359612
39	0xbe675dfb	-0.22594444
40	0xbe055043	-0.13018899
41	0x3c371c1d	0.011176136
42	0xbd2836ce	-0.04106789
43	0xbe6ec203	-0.23316197
44	0x3d1e883b	0.03870414
45	0xbd98d237	-0.0746197
46	0xbe0e0ffc	-0.13873285
47	0x3b547c88	0.003242286
48	0x3dce9824	0.10087612
49	0x3d433250	0.047655404
50	0xbe49a35f	-0.19691227
51	0x3e4e3180	0.2013607
52	0x3d658e89	0.056044135
53	0xbdf91826	-0.12162809
54	0x3e83a51e	0.25711912
55	0x3d754370	0.059878767
56	0x3e1e2cb4	0.1544674
57	0x3e571235	0.21003039
58	0xbbad760a	-0.0052936124
59	0x3e7aae43	0.24480538
60	0xbaadb257	-0.0013252002
61	0x3e73577c	0.23763841
62	0x3d139435	0.036030013
63	0x3e0bf67e	0.13668248
64	0x3e192d40	0.14958668
65	0xbe289441	-0.16462804
66	0x3e84e83b	0.25958428
67	0x3c1393ba	0.009007389
68	0x3ddf9718	0.10917491
69	0xbe606ce9	-0.21916546
70	0xbde313f9	-0.11087794
71	0x3e464829	0.19363464
72	0xbe3ff72c	-0.18746632
73	0x3d28905d	0.0411533
74	0x3e858c35	0.26083532
75	0xbe9074b7	-0.28214046
76	0xbb570546	-0.003280954
77	0x3d45b5db	0.048269134
78	0x3e475be2	0.19468644
79	0xbdcc668a	-0.09980495
80	0xbe94a304	-0.2903062
81	0xbe3c4297	-0.18384777
82	0x3db694d4	0.089151055
83	0xbe5fff44	-0.2187472
84	0xbe8230b0	-0.2542777
85	0xbbf5956c	-0.007494619
86	0x3d9f9e73	0.07793894
87	0xbe3ebc7b	-0.18626587
88	0xbdec492b	-0.11537393
89	0x3e266249	0.1624843
90	0xbe4da913	-0.20084028
91	0xbe7a32c7	-0.24433433
92	0xbdb7dcc8	-0.089776576
93	0x3e7465eb	0.23867004
94	0xbdb25bbc	-0.08708903
95	0xbe4e2fe3	-0.20135455
96	0xbe57c926	-0.21072826
97	0xbd8ef94b	-0.069811426
98	0x3e580af9	0.21097936
99	0x3de4a79a	0.1116478
100	0xbdcb1e8c	-0.09917936
101	0xbe83f059	-0.25769308
102	0xbe3893b7	-0.18025099
103	0x3d80786d	0.062729694
104	0x3e7fc44d	0.24977227
105	0x3e1ca666	0.15297851
106	0xbd1b852e	-0.037968807
107	0x3e2159d6	0.15756926
108	0x3caf3dee	0.021391835
109	0x3d2733bf	0.040820833
110	0x3e0dd130	0.1384933
111	0xbd95bfd4	-0.07311979
112	0x3db13b15	0.08653847
113	0x3cd8f76b	0.026485166
114	0x3db9990d	0.09062395
115	0xbd8220d9	-0.063539214
116	0x3e44a028	0.1920172
117	0xbe89024e	-0.2675957
118	0x3e4a080f	0.19729637
119	0xbe7af8bd	-0.24508949
120	0xbe4ca676	-0.19985375
121	0xbe3b0869	-0.18264927
122	0xbceaf173	-0.028679585
123	0xbcf13746	-0.029445302
124	0xbe93e41f	-0.2888498
125	0x3e216614	0.15761596
126	0x3d95a9ae	0.073077545
127	0x3e94997c	0.2902335
128	0xbe591278	-0.21198452
129	0xbe74983d	-0.238862
130	0x3d922e7e	0.07137774
131	0x3e6a5434	0.22883683
132	0x3e4b122c	0.19831151
133	0x3df6c70b	0.12049683
134	0x3d4ca00e	0.049957328
135	0x3e179eaf	0.14806627
136	0xbdf21d13	-0.11821952
137	0xbe97b1b4	-0.29627764
138	0xbe7d3aa1	-0.24729396
139	0xbe42871f	-0.18996857
140	0x3d87d888	0.06633097
141	0x3e882adb	0.26595196
142	0x3e444c96	0.1916984
143	0xbe468958	-0.1938833
144	0x3da9a3ab	0.0828317
145	0x3e8688b5	0.26276174
146	0x3bef51ae	0.007303438
147	0xbd62b018	-0.055343717
148	0xbe24c6e3	-0.16091494
149	0xbcb0d58c	-0.021586202
150	0x3e64e49b	0.22352831
151	0xbdabc5a8	-0.08387309
152	0xbd37bded	-0.04485886
153	0x3e139542	0.14412406
154	0xbde934bd	-0.11387012
155	0xbe0c85ee	-0.13722965
156	0x3d4d7a92	0.05016572
157	0x3e5c3b2c	0.21506947
158	0x3d01c871	0.031685296
159	0xbc440176	-0.011963239
160	0xbe71a130	-0.23596644
161	0x3e35a1c8	0.17737496
162	0x3c5e17e9	0.013555505
163	0xbe05e52c	-0.13075703
164	0xbe85ce48	-0.26133943
165	0xbe1050e2	-0.14093354
166	0xbe55c3b5	-0.20875438
167	0x3d79265a	0.06082759
168	0x3e5ee3c6	0.21766576
169	0xbd708172	-0.0587172
170	0x3e392459	0.18080272
171	0xbd81478a	-0.06312473
172	0xbe10c3fd	-0.14137264
173	0xbe8b2ee3	-0.2718421
174	0xbe4bd4f1	-0.1990545
175	0x3e645679	0.22298612
176	0x3e4cdf0a	0.20006958
177	0x3e92bdfe	0.28660578
178	0xbcf5840b	-0.02997019
179	0x3dcda419	0.10041065
180	0xbd1553da	-0.03645692
181	0x3e968852	0.2940088
182	0xbe728b0e	-0.23685858
183	0xbda52f47	-0.08065658
184	0xbe91d2f0	-0.28481245
185	0x3cf04eb0	0.029334396
186	0xbe6cceae	-0.23125717
187	0xbe5553fd	-0.2083282
188	0x3d8cb04e	0.06869565
189	0x3e975113	0.29554042
190	0x3e7d86d4	0.24758464
191	0x3e50fc5e	0.2040877
192	0xbd9691bf	-0.073520176
193	0xbc12efe8	-0.008968331
194	0xbe88b91d	-0.2670373
195	0x3e4c789d	0.19967885
196	0x3da6369c	0.08115885
197	0x3e81179d	0.25213328
198	0xbe93da9e	-0.2887773
199	0xbd945bb1	-0.07244051
200	0xbe43e5cd	-0.19130631
201	0xbe68c79a	-0.22732392
202	0xbe34d5fd	-0.17659755
203	0x3dc03199	0.0938446
204	0x3e4a3589	0.19746985
205	0x3e095d11	0.13414408
206	0xbdd05f36	-0.1017441
207	0x3e062d0f	0.13103126
208	0x3e95cbed	0.29257146
209	0x3c6dffa5	0.014526282
210	0xbddaeac5	-0.1068931
211	0xbe702f5e	-0.23455569
212	0x3e570512	0.20998028
213	0xbd8b0711	-0.06788457
214	0xbe6ea44c	-0.23304862
215	0x3e2fe66b	0.17177741
216	0x3d728f36	0.059218608
217	0xbdf589e9	-0.11989195
218	0xbe95b391	-0.2923856
219	0x3d18a0a6	0.03726258
220	0xbdb42b70	-0.087973475
221	0xbd52fba3	-0.05150951
222	0xbdcaf073	-0.09909143
223	0x3e7a2e7f	0.244318
224	0x3e217473	0.15767078
225	0x3e7125e0	0.23549604
226	0x3de5ae8a	0.11214931
227	0x3dad9c3f	0.08477067
228	0x3e9618aa	0.29315692
229	0xba8a391a	-0.0010545582
230	0x3e2edd53	0.17076616
231	0x3df75eb4	0.1207861
232	0xbe918de5	-0.2842857
233	0x3e4ea473	0.2017992
234	0xbceea06b	-0.029129228
235	0xbe4d63f0	-0.20057654
236	0x3e4cfc39	0.2001809
237	0xbe765b32	-0.24058226
238	0x3e0e9ec3	0.1392775
239	0xbe7a3501	-0.24434282
240	0xbdae7d2a	-0.08519967
241	0xbe8eafb6	-0.27868432
242	0x3e5988b8	0.2124356
243	0x3d96675d	0.07343934
244	0x3e783439	0.24238671
245	0x3db9ab9d	0.09065936
246	0xbe16d200	-0.14728546
247	0x3d36f345	0.044665594
248	0x3e4dd7ef	0.20101903
249	0xbe6b2a5f	-0.22965382
250	0xbe4aea47	-0.19815932
251	0xbd9abd1a	-0.075555995
252	0xbe3e07b1	-0.18557622
253	0xbd5d081d	-0.053962816
254	0x3e90057d	0.28129187
255	0x3e2922cf	0.16517185

bias f4 [64]
0	0x00000000	0.0
1	0x00000000	0.0
2	0x00000000	0.0
3	0x00000000	0.0
4	0x00000000	0.0
5	0x00000000	0.0
6	0x00000000	0.0
7	0x00000000	0.0
8	0x00000000	0.0
9	0x00000000	0.0
10	0x00000000	0.0
11	0x00000000	0.0
12	0x00000000	0.0
13	0x00000000	0.0
14	0x00000000	0.0
15	0x00000000	0.0
16	0x00000000	0.0
17	0x00000000	0.0
18	0x00000000	0.0
19	0x00000000	0.0
20	0x00000000	0.0
21	0x00000000	0.0
22	0x00000000	0.0
23	0x00000000	0.0
24	0x00000000	0.0
25	0x00000000	0.0
26	0x00000000	0.0
27	0x00000000	0.0
28	0x00000000	0.0
29	0x00000000	0.0
30	0x00000000	0.0
31	0x00000000	0.0
32	0x00000000	0.0
33	0x00000000	0.0
34	0x00000000	0.0
35	0x00000000	0.0
36	0x00000000	0.0
37	0x00000000	0.0
38	0x00000000	0.0
39	0x00000000	0.0
40	0x00000000	0.0
41	0x00000000	0.0
42	0x00000000	0.0
43	0x00000000	0.0
44	0x00000000	0.0
45	0x00000000	0.0
46	0x00000000	0.0
47	0x00000000	0.0
48	0x00000000	0.0
49	0x00000000	0.0
50	0x00000000	0.0
51	0x00000000	0.0
52	0x00000000	0.0
53	0x00000000	0.0
54	0x00000000	0.0
55	0x00000000	0.0
56	0x00000000	0.0
57	0x00000000	0.0
58	0x00000000	0.0
59	0x00000000	0.0
60	0x00000000	0.0
61	0x00000000	0.0
62	0x00000000	0.0
63	0x00000000	0.0
