experiments/ppo_cartpole_homework_20250828_114234/checkpoints/auto_step_92160.pt (torch, 146283 bytes, 44 tensors)

layers.0.weight f4 [64, 4]
00000000: db41 f2bd f4ae 793e 28ba d43e 951f 513e
00000010: 1179 ba3b 1bb1 443e 63c2 313d 58be a4bd
00000020: fc13 4d3c 210d f0bb 5b48 70be 7a60 dbbd
00000030: f409 5dbe 1359 2bbe 99c3 a8be 6e84 3fbe
00000040: 7a63 36be 798d c9bc 6beb 53be 227a abbe
00000050: 7221 513e c694 97be 5561 c9be d1d0 833d
00000060: d734 21be e3cf 61be 3dc7 993e 9d96 b8be
00000070: eb92 9ebd 682d 81be 4e5f dbbe ad46 843d
00000080: c1db 873e 39c8 203d 2e01 28be 9a93 21be
00000090: 5c13 9cbe 9c21 a43d d588 d8be 77d4 3bbe
000000a0: e412 74be e192 c7bd 0a9f b1be e8f8 8fbe
000000b0: f2e1 12be 5219 57be a123 f23e e5b6 8a3c
000000c0: 6abd bdbe f4b5 4b3e 3aae 1abe 8c84 30be
000000d0: e9ed 473e 98a4 0bbe e44f 8a3d aca4 28be
000000e0: dab1 393d ea16 2bbd 79a0 d63e cea1 03bb
000000f0: e51f 55be d73f 2b3e 63f7 11be b8d0 553d
00000100: 8330 f73d b5a1 bebc 7663 86be 95a0 1abe
00000110: f3df 34be 73eb 8a3e f074 8a3e 6213 803e
00000120: 4418 54be 16e3 9cbe 7850 003f 99f3 ba3e
00000130: 1538 b1be a09c 8fbb b999 cfbe b8b6 4cbe
00000140: 4f4f ed3d 4d94 7a3e 01b6 943d a162 293e
00000150: 1f10 febd 78f0 f13d 06e3 e9be f60a cfbd
00000160: 4e8a 963e 0891 50bd b893 76be 8d23 07bd
00000170: e69a 5e3d 4901 2bbe 9242 f83e 76a6 a53e
00000180: 1115 79be 8b1a 723e 73de 023e ad1e 0ebd
00000190: 2c54 38be aee7 79be 0de2 05bf ad29 9cbe
000001a0: 209a 15be fb6e 953e 6582 91bd 7802 87be
000001b0: 7880 14be 791d 123e 778f f53e 3049 763e
000001c0: 2396 33be 2556 b23d 5888 2d3e 119e 423e
000001d0: abc2 6c3e d5c1 413e a3e8 123f fd87 953e
000001e0: 7fec 6cbe 170d 36be 3d49 79be 5937 93be
000001f0: 15fe 16be c482 2c3e 739b 123f 4b64 d5bd
00000200: 1540 853e 8ea3 523c 9f25 34be a9f2 c7bd
00000210: fa16 83be 80cd 31b9 0715 bd3e f93f b4bc
00000220: f0dc e7bd f9b9 13bd 051f 163e c571 023e
00000230: f939 193e 7313 463e 7283 b03e ccf5 6f3e
00000240: f2ec a23e d356 463e e879 073e a1ba 063e
00000250: b211 483e f328 473e ab72 3d3e f89c 8c3e
00000260: bdf4 f23c 0cdd 33be ff83 e93c 7087 5fbe
00000270: 4f81 2d3e e9f6 0cbe aaf9 86be 59ca 553e
00000280: 46bb 2fbe af25 423d 7a14 9d3e a166 b1be
00000290: 8b16 433e e830 43be a85e 223e e273 a1be
000002a0: 6d04 5cbe 0396 b0bd a20b ccbe 12b9 34be
000002b0: eb4f 4c3e 5381 33be 29ee b83d 5fda 6c3e
000002c0: 5af9 f73b f0ac 7c3d 965f fb3d e587 d2be
000002d0: d91c 73be bcbd 77be 06e6 943e 2b1d 873c
000002e0: d91d 24bd 76d0 9d3e dc57 b7be 56ee a5be
000002f0: 3b3a d03d df37 ca3d 72d4 b83e 3f79 f73d
00000300: 2fe3 0c3c 54ff 4e3e 4ae1 e2bd 0549 0dbe
00000310: 9971 913e 39de 6c3e 847a c73e 641c 973e
00000320: 2593 9dbc 6064 53be 0653 7b3e 2c47 83be
00000330: ade2 913e ad42 f33d 5756 8ebe 0fb6 933e
00000340: 6429 27be 4a5a 60be 448a a8be 1da4 8ebe
00000350: 7f11 8dbe 5ae3 c9bd 739b 853e 19aa c73d
00000360: a3e9 8cbe 8b0e bd3d 1783 95be 543e 88be
00000370: f278 853e 73f9 8dbd dfdb 033f 85f1 963d
00000380: 96dc 17be edb8 6ebd 7222 e33e 6cf9 ce3d
00000390: ebcc 50be 984e 213e 3ae1 0e3f e2c9 5d3e
000003a0: 501c 2e3e 1716 5d3e 6159 6cbc 5760 4d3e
000003b0: 3604 83be 8ff8 48be 16dc 8d3e 8ef8 2c3e
000003c0: e88c 493e 4308 84be acc6 5a3e 73d4 94be
000003d0: 5798 56bd e591 aa3e 93f3 95be 5ef6 93be
000003e0: c058 87be 03fa 5c3e 59cc 0bbe 117c b03e
000003f0: 6322 ffbd 46b4 1fbe 13b6 993e 6a4f 743e
-0.11828967 0.24383146 0.41548276 0.20422204 0.005690702 0.19208185 0.043398272 -0.08044118
0.012516972 -0.007325784 -0.23465101 -0.10711761 -0.21585828 -0.16733198 -0.3296173 -0.18702862
-0.17811385 -0.024603592 -0.20695274 -0.33491617 0.20422915 -0.29605693 -0.3933207 0.06436313
-0.15742813 -0.22051959 0.3003482 -0.3605241 -0.07742866 -0.25229955 -0.4284615 0.06458793
0.26534846 0.039253447 -0.164067 -0.15778962 -0.3048352 0.08014223 -0.42291895 -0.18342768
-0.23835331 -0.09744812 -0.3469165 -0.28119588 -0.14344004 -0.21005753 0.47292808 0.016932914
-0.37058574 0.19893628 -0.15105525 -0.17238063 0.1952435 -0.13637006 0.06753519 -0.16469067
0.045335628 -0.0417699 0.41919306 -0.0020085457 -0.20812948 0.16723572 -0.14254527 0.052201003
0.120698 -0.023270467 -0.26247758 -0.1510032 -0.17663555 0.27132758 0.2704234 0.25014788
-0.20712382 -0.30642003 0.50122786 0.36513975 -0.346131 -0.004382685 -0.4054697 -0.19991577
0.115873925 0.24470635 0.07261277 0.1654153 -0.124054186 0.11813444 -0.45681018 -0.101095125
0.29402393 -0.050919563 -0.24079788 -0.03299289 0.05434694 -0.16699709 0.4848829 0.32353562
-0.24324442 0.23642938 0.1278017 -0.034697223 -0.18000859 -0.24404785 -0.5229805 -0.30500546
-0.14609575 0.29186234 -0.07104949 -0.2636907 -0.14502132 0.14269055 0.47961017 0.24051356
-0.17537741 0.08707837 0.16946542 0.1900561 0.23121135 0.18921597 0.57386225 0.29205313
-0.23137091 -0.17778431 -0.24344344 -0.28753164 -0.14745362 0.16846758 0.57268447 -0.1041952
0.26025453 0.012856377 -0.17592476 -0.097630806 -0.25603467 -0.0001695659 0.36930105 -0.02200316
-0.11321437 -0.03606603 0.1466027 0.12738712 0.14963521 0.19343357 0.34475285 0.23433608
0.318214 0.19369058 0.13230097 0.13157131 0.19538 0.19449215 0.18500774 0.27463508
0.029657716 -0.17564791 0.028505323 -0.21829009 0.16943859 -0.13766064 -0.26362354 0.20877971
-0.17161283 0.04739922 0.30679685 -0.34648612 0.19051568 -0.19061625 0.15856421 -0.31533724
-0.21486063 -0.086223625 -0.39852625 -0.17648724 0.19952361 -0.17529802 0.090298004 0.23130177
0.007567567 0.061688364 0.12274091 -0.41119304 -0.23741473 -0.24193472 0.29081744 0.0164934
-0.040067527 0.30823106 -0.3580922 -0.32408398 0.101673566 0.09873938 0.36099583 0.12083673
0.008599087 0.20214587 -0.11078127 -0.13797386 0.2840698 0.23131646 0.3896066 0.29513848
-0.019235203 -0.20643759 0.2454339 -0.25640237 0.28493252 0.11877952 -0.27800247 0.28849837
-0.16324383 -0.21909443 -0.32917988 -0.27859583 -0.2755241 -0.09857817 0.2609516 0.097492404
-0.27522 0.092312895 -0.29201576 -0.26610053 0.26068836 -0.06932344 0.5150737 0.07370285
-0.1483024 -0.058281828 0.44362217 0.10106167 -0.2039067 0.15752637 0.5581242 0.21659043
0.17002988 0.21590458 -0.0144256065 0.20056282 -0.2558915 -0.19626068 0.27706975 0.16891691
0.19682658 -0.25787553 0.2136485 -0.29068336 -0.052391376 0.33314434 -0.29287395 -0.288989
-0.26434898 0.21579747 -0.13652171 0.34469655 -0.124577306 -0.15596113 0.30021724 0.23858419

layers.0.bias f4 [64]
00000000: 7080 ad3b 52bf ddbb 7910 23bd ba2b 123c
00000010: 6382 e6bc 3d10 11bb b9b3 d1bc aa1b eb3b
00000020: 01a6 d1bb 9dbb a7bb f82c e539 e975 2cbc
00000030: 9e58 fcbb d14c 4a3b 93d7 c93b a20c c1bc
00000040: 4d3e dfbb af76 ff3b ff57 573b 3fd8 543b
00000050: 362a 493c 1b65 77bc 408b de3a f0b2 473c
00000060: 72ac 1c3b 651b 103c ac51 91bc 1534 883c
00000070: d2e4 eb3c be77 033b 04c1 73bb de55 0b3c
00000080: 8e74 30bb b8ec d9ba 9e19 193b e672 c03b
00000090: fd37 043d fcee cb3c 99b0 f4bc 3fbf 063d
000000a0: 73d1 47bc 485b 333b 6a37 e7bc 79ee f73c
000000b0: a801 cbba 845f acb9 0dd5 d1bb 84b0 043c
000000c0: 7737 bbbc ef14 e0ba c4a3 39bb 164c 773c
000000d0: 4973 4fbb bf64 b9bb 73fe c7bc c30c 273c
000000e0: c799 c63b abbe 9a3b 2f52 013d ca97 c3b9
000000f0: 50e4 3abc 6c9b b1bb 16ba e43c 6573 b23c
0.005294852 -0.006767192 -0.03981063 0.008921558 -0.028138345 -0.0022134923 -0.025598394 0.0071749287
-0.006397963 -0.005118801 0.00043711788 -0.010526159 -0.0077009937 0.003086854 0.0061597317 -0.023565594
-0.0068128468 0.0077961306 0.0032858846 0.0032477526 0.01227813 -0.015099789 0.0016978756 0.012188658
0.0023906496 0.008795594 -0.01773914 0.016626397 0.028795633 0.0020060386 -0.0037193904 0.008504359
-0.002692494 -0.0016626334 0.0023361216 0.005873072 0.032279957 0.02489423 -0.029869365 0.03289723
-0.012195933 0.002736764 -0.028224666 0.03026508 -0.0015488164 -0.0003287756 -0.0064035715 0.008098725
-0.022853596 -0.0017096082 -0.0028326372 0.015093824 -0.0031654409 -0.005657762 -0.024413323 0.010195914
0.006060812 0.0047224364 0.031572517 -0.0003730639 -0.011406973 -0.005420139 0.027920764 0.02178354

layers.2.weight f4 [64, 64]
00000000: a9a0 d6bd 9d19 c83d cb6d 223e 4c26 d5bb
00000010: 5368 e13c 9480 d5bd 83d7 25bd 5ab1 d93d
00000020: 64e7 333e 3c54 d63d b6cf 1a3d 6c68 27be
00000030: e224 923c 470d 09be 5062 afbd b961 053e
00000040: 5955 71bc 6b91 14be b5e9 383d 370e e5bd
00000050: b204 083e f8b2 ab3d 669f 42be 16de c4bd
00000060: 9f54 3c3e 80af df3d ea20 8ebd 1c05 4cbd
00000070: 45d6 46be 8931 febd dc57 183d 5881 653e
00000080: a5b2 43be 5976 1f3e 1d8f c33d 0d89 103e
00000090: 0b20 233e 74ac 72bd 867a 743d b130 223d
000000a0: 7515 843d 901f 163e cdd7 7dbd 4ed2 cabd
000000b0: 0c26 e9bd d4bf 253e 32b5 a6bb f07b c8bd
000000c0: 7a80 203e 4872 473e dafe 5b3e 85b6 bd3c
000000d0: bca8 b7bd b298 08be 665d 863d 4597 dabd
000000e0: 5c70 09bd 5d9b ccbd 9ddb 5ebd 22e2 413e
000000f0: e6c5 c2bd 25e7 23be ea49 9c3d 3cab a8bd
00000100: c414 e0bd 32bf c5bd 360b aebd 30e2 113d
00000110: 4fa8 5fbe 47b1 21be 9d5d 2a3e 8163 94bd
00000120: a2da 5dbb 847c 96be 44fd 98be f96b 0cbe
00000130: 744e 49be 1d00 313d 9925 1a3e 6a4c 053e
00000140: 2701 60be 1210 c8bd e164 e4bd 5d46 ffbd
00000150: 652b 0c3e d38f c33d 676b 6dbd bc54 483e
00000160: 193a 383e f246 cfbd cf95 313e f3e1 f4bd
00000170: f83e 823d 45d2 d03c 5902 cdbc 721f 723d
00000180: 25fc bfbd 2908 9b3d 5247 263d 9bdb 163e
00000190: 9919 5c3e 7838 883d 9533 30be 708a 32be
000001a0: 5a59 09bd 86c6 bc3d 7fa5 4bbe 015f 6f3d
000001b0: 19fd e03d 8ed9 21be a474 89be c1d2 823e
000001c0: fcf1 b7bd 3a8f 393e 45e7 63bd f8cc 663e
000001d0: ada6 a8bd 6f16 c3bd afee 8abe f5c3 163e
000001e0: fd9d 0bbe d83c 853e 7a92 343e 498a f8bc
000001f0: e347 10be 24ed 5abe 4695 dd3c 7629 c2bd
00000200: 4482 93bd 65d1 00be c88c abbc 76fc 07bc
00000210: 3803 2e3e 64e0 f53d 5af6 913e 2904 f4bd
00000220: d0f9 0e3e cb8e c83e 2462 d03d 5ee0 ed3d
00000230: f840 8b3e 5bf9 503e e63e 74bd 4b3f 053d
00000240: 67a3 923c 91ca fcbd adf8 f13d b352 d4bc
00000250: 1fe8 54be a4bb 843e 8f89 283e 6464 8ebe
00000260: f7a8 193e 7e52 823d 1ced 463e 931e 99be
00000270: 64b2 db3c c3d6 9dbe 08e3 bc3e 9cff 083e
00000280: 291f 1a3b 6246 0f3e 3799 febd fc16 4fbe
00000290: ef97 4abe b9fb 3cbe c327 d5bd 5028 79be
000002a0: 91ac 4a3e ac8c 093e c005 5f3d b9e6 ee3d
000002b0: 73a9 4a3d 1692 d8bd 99cd 843e b906 a6bd
000002c0: 276a 153e 6ca2 b6be a512 3c3e 83d5 98bd
000002d0: 456f e13d 5da4 053e 4fbc bb3e 5384 30be
000002e0: a2f5 9c3d ace6 85be 3fbf 97be 7ea0 b93d
000002f0: a7b2 c4bd 6049 773e 183a 93bc e31b 083e
00000300: 685c e8bd f00b 51be 3d32 12be 9fd8 80bd
00000310: 4f01 103e 0f5c 1cbd c2e4 923c 486f 2bbe
00000320: e047 24be 1716 3f3e d779 223e 8857 523d
00000330: 4544 0d3b 1270 a33d 4bda 313e 5979 653d
00000340: f7cb d9bc ab1f 9abd 6591 57be bf98 9f3d
00000350: 423b 52be 61b2 3dbe 2ddc 7a3e 1a13 a23d
00000360: 3533 16be 5855 37be e06f 673d bc5c f33d
00000370: 0247 063e 5c2c 863d 7a25 34be e75c e9bd
00000380: 87d0 08bd 9254 103e 73db 413e c387 09bd
00000390: 1707 033d 80a8 10bd 7706 3c3e b563 553e
000003a0: 345d c93d 927d 5d3c 5255 883c f859 40bd
000003b0: 6f29 97bd eadc 7ebd 55d3 a63d d2ea 87bc
000003c0: cf10 28be 5967 3c3e 6077 3c3e ab68 3b3d
000003d0: 4ca2 fb3d 2cd4 1d3c 5d1f 48be e28b 78bd
000003e0: 950c 7ebe 984b af3d 57df 8d3d daa2 633d
000003f0: 7e2f 29be d240 5d3d b10a 953c 1ae4 223e
-0.10479862 0.0977051 0.15862195 -0.0065048095 0.027515566 -0.10424915 -0.04048873 0.1062953
0.17568737 0.10465285 0.037795745 -0.16348428 0.017839853 -0.13383971 -0.085636735 0.1302556
-0.014729821 -0.14508598 0.045144755 -0.11184352 0.13283041 0.08383745 -0.19006118 -0.09612672
0.18391655 0.10922146 -0.069398716 -0.04980956 -0.19417675 -0.12411792 0.037193164 0.22412622
-0.19111116 0.1557249 0.09548781 0.1411478 0.15930192 -0.059246495 0.05968716 0.039597217
0.06449405 0.14660478 -0.06197338 -0.09903394 -0.1138421 0.16186458 -0.005087518 -0.09789264
0.1567401 0.19477189 0.21483937 0.023158321 -0.089677304 -0.13339499 0.06560783 -0.106733836
-0.03355442 -0.09990571 -0.05440866 0.18933919 -0.095104024 -0.16006143 0.076312855 -0.08235785
-0.10941461 -0.09655608 -0.08498232 0.0356161 -0.21841548 -0.15790282 0.16637273 -0.07245541
-0.003385224 -0.29391873 -0.29880726 -0.13713063 -0.19658834 0.043213 0.15053405 0.13017431
-0.2187544 -0.0976869 -0.111520536 -0.124645926 0.13688429 0.09548917 -0.057963755 0.19563574
0.17990912 -0.101209536 0.17342304 -0.11957159 0.063596666 0.02549089 -0.025025534 0.05911202
-0.09374265 0.07569916 0.04059536 0.1473221 0.2149414 0.066513956 -0.17207177 -0.17435622
-0.033532478 0.09217553 -0.1988735 0.058440212 0.109857745 -0.15805647 -0.26846802 0.25551417
-0.08981702 0.18121043 -0.055640478 0.22539127 -0.08234916 -0.09525763 -0.27135226 0.14723189
-0.13634486 0.26022983 0.17634001 -0.030339377 -0.14089923 -0.21379524 0.027048718 -0.09480564
-0.072025806 -0.12579878 -0.020941153 -0.0082999375 0.16993415 0.1200569 0.28508264 -0.11914856
0.13962483 0.39171442 0.10174969 0.1161506 0.27198005 0.20407622 -0.059630297 0.032531064
0.017900182 -0.12343324 0.11815009 -0.02591834 -0.20791672 0.25924408 0.16458724 -0.27810967
0.15005861 0.063633904 0.19426388 -0.2990614 0.026818462 -0.30827913 0.3689196 0.13378757
0.0023517108 0.13991693 -0.12431567 -0.20223612 -0.1978452 -0.184554 -0.104079746 -0.24331784
0.19792391 0.13432568 0.054448843 0.116651006 0.049478006 -0.10574739 0.2593811 -0.08106751
0.14591275 -0.35670793 0.18366487 -0.07462599 0.11007551 0.13050981 0.36667106 -0.17237978
0.07664038 -0.2615255 -0.29638097 0.090638146 -0.09604388 0.24149084 -0.017972037 0.13291888
-0.1134575 -0.2041471 -0.14276977 -0.06291317 0.14062999 -0.03817373 0.017931346 -0.16741669
-0.16043043 0.1866077 0.1586679 0.051353008 0.0021555584 0.0798036 0.17368428 0.05602393
-0.026586516 -0.075255714 -0.21051557 0.07792806 -0.20530418 -0.18525077 0.24498053 0.079137996
-0.14667971 -0.1790365 0.056503177 0.11882922 0.13113025 0.0655143 -0.17592421 -0.11394673
-0.033401992 0.14094761 0.1893137 -0.033576738 0.031989183 -0.035316944 0.18361841 0.20838816
0.0983223 0.013518708 0.016642246 -0.0469608 -0.0738095 -0.0622224 0.08145777 -0.016591463
-0.16412662 0.18398799 0.18404913 0.045754116 0.12286815 0.009633105 -0.19543214 -0.060680278
-0.24809487 0.0855934 0.06927364 0.05557523 -0.16522023 0.054016896 0.018193575 0.15907326

layers.2.bias f4 [64]
00000000: 3f0f 8c3b 8fb0 7bbb cd0a aebc 1a7a b1bb
00000010: 108a 2ebb 4b1b a23b 1c67 833b a5c6 133c
00000020: e17d cbbb 985b 6e3b c3c6 48bb 5924 673c
00000030: 6997 f839 4b89 99bb 5a96 69ba 597a ceb9
00000040: cb1b 1a3c e3f3 aebb ceda e8b9 1430 60bb
00000050: 1515 9e3b d9dc fe3b 368a b239 3af8 c63b
00000060: f9fc ffbb 4841 b83b 27e0 1dbb 4df3 0ebc
00000070: d098 3cbb bb16 56bb d4a3 ecb9 1fe6 b0bc
00000080: 13d8 dc3b 65cb 10bd 7373 f8bb a9ea a93b
00000090: c961 fc3b c5e8 f23a 2cfd 913b 3108 83bb
000000a0: 15e2 9d3b b6e1 7abc 25e9 c43b e1e7 113c
000000b0: b5dd cb38 ea0c 873a e9e5 d13b 67d0 3bbc
000000c0: fb4b ebbb f707 b53b 2ded 8e3b 780a a33b
000000d0: d45e d9bb ee83 0abc 584b 843b 579a f33a
000000e0: 8b05 79bb 907c 02bb f1e0 2e3b 958d 14bb
000000f0: 7c09 b13b 2840 09bb c125 973a f834 cc38
0.0042742784 -0.0038404798 -0.021245385 -0.005416167 -0.0026632585 0.004947101 0.0040100943 0.0090195285
-0.0062100743 0.0036370512 -0.003063605 0.014107787 0.00047415055 -0.004685556 -0.0008910649 -0.00039382538
0.00940604 -0.005339132 -0.0004441351 -0.0034208344 0.0048242905 0.007777792 0.0003405378 0.0060720714
-0.007812139 0.0056230165 -0.0024089904 -0.008725 -0.0028777607 -0.0032667357 -0.0004513549 -0.021594105
0.0067396252 -0.035350222 -0.007582122 0.0051854444 0.0077020866 0.0018532505 0.0044552293 -0.003998779
0.004818211 -0.015312603 0.0060092383 0.008905382 9.7210905e-05 0.0010303531 0.0064055813 -0.011463261
-0.0071806884 0.005524631 0.0043617697 0.004975613 -0.006633619 -0.008454306 0.004037302 0.0018585426
-0.0037997689 -0.001991067 0.0026684368 -0.0022667397 0.005402742 -0.002094278 0.0011531637 9.737344e-05

output_layer.weight f4 [2, 64]
00000000: c9ae 4bbe f065 2abd ed0a 9bbc 6c7b 36be
00000010: cb41 07bb 0d8d 51be c178 bbbc 152f 7ebd
00000020: df82 cabd cc2f 53be 108f 3d3e ae95 c5bd
00000030: 3f7a acbd 1055 9e3d 1ca3 813e ac2c 6abd
00000040: 2132 46be 649b 3f3e 322b 7abb bfed 78bc
00000050: 3ce5 88be bef7 663c 58df 743e 9efd 93bc
00000060: 1cef 413e 5d07 2fbe ba43 963e d0bc e13d
00000070: b476 553e d038 293e 5a66 893c b102 70bd
00000080: aa45 0bbe daf4 353e 6347 4b3e 07c8 023e
00000090: 6fc2 9abe 730f 613e 8e83 533e ce45 843e
000000a0: 536d f93c fd6a 513d 4432 2ebd 159a 0cbe
000000b0: da5f 213e bca4 debd bd55 95be ead2 ff3a
000000c0: 9a85 b0bd 6470 eabd 64fc 5abe c85a d03d
000000d0: 7ba6 9a3c c4b8 933e 3995 f23d e6df e4bd
000000e0: 75b0 26be 1045 793e 3e07 90bd 87d0 54bd
000000f0: cd68 dabd 3221 423e 62af 0c3e 8d68 1cbe
00000100: d260 d63d 5e09 fe3d f21b 8abe e6ec 4cbe
00000110: 67e2 503e c50a ee3c 07a7 113e d524 7bbd
00000120: f9bf 1bbe d0d1 60bd 68c6 7fbe ef23 51bd
00000130: 68c2 273d 564d 3bbe 016c a13d ebac e8bd
00000140: f99c 19be ea6e 55be 021c 33be 6851 7fbe
00000150: 01bf 7e3e 569f 8fbd 5f99 53be d1ce eb3d
00000160: 806c 1e3e cff3 b83d 53fe 1b3c 1815 8abe
00000170: 0296 f33d 3f21 47bd 8718 f63d c80c 85be
00000180: ab3b 1d3d 6b9d 90be 5e45 833e 6074 3a3e
00000190: 7570 5fbe 6933 063e 67b3 713e 02cd 5bbe
000001a0: 7d1f 3a3e a630 5a3d 5256 0e3e e92f f1bd
000001b0: 61e9 d83c ae6f e83d b11b c5b9 eed0 a4be
000001c0: 4f33 a6bd fd86 503e 965e fabc cfa7 babd
000001d0: 2587 7ebe 6eca 4a3e 7b0e 6d3e c0a8 eabc
000001e0: ce81 24be 870d 3fbd d258 7b3d 0c05 33be
000001f0: 2fed 8e3e 8154 3dbd 2961 96be cb0f 053e
-0.19890894 -0.04160112 -0.018926108 -0.17820519 -0.002063858 -0.20463963 -0.022884728 -0.06205662
-0.09888243 -0.20623702 0.18511605 -0.0964769 -0.08421754 0.07731068 0.25319755 -0.05717151
-0.1935506 0.1871162 -0.003817272 -0.015193402 -0.26737392 0.014097152 0.23913324 -0.01806527
0.18938869 -0.17092653 0.29348546 0.11022341 0.20846063 0.16525578 0.016772438 -0.058596317
-0.13600793 0.17769185 0.1985145 0.12771617 -0.30226466 0.2197855 0.20655653 0.25834507
0.030447638 0.051127423 -0.042528406 -0.13730653 0.1575922 -0.10871264 -0.29166976 0.0019517813
-0.086192325 -0.11447218 -0.21385342 0.10173565 0.018878212 0.28851902 0.11844868 -0.11175518
-0.1627825 0.24342752 -0.07032631 -0.05195668 -0.106645204 0.18957976 0.13738778 -0.15274258
0.10467686 0.124041304 -0.26974446 -0.20012245 0.20398866 0.02905787 0.14223872 -0.061314423
-0.1520995 -0.054887593 -0.2497803 -0.05105966 0.040956885 -0.1829122 0.07881928 -0.113611065
-0.15001287 -0.20843092 -0.17491153 -0.24933398 0.2487755 -0.07012813 -0.20663975 0.115140565
0.15471077 0.09030878 0.009521085 -0.26969218 0.11893846 -0.04861569 0.12016397 -0.25986314
0.038386982 -0.282451 0.2563886 0.18208456 -0.21820243 0.13105549 0.23603593 -0.21464923
0.18176074 0.05326905 0.13900116 -0.11776716 0.026478471 0.11349426 -0.000375954 -0.3219065
-0.08115255 0.20363994 -0.03056268 -0.09114038 -0.24856241 0.19803783 0.23150055 -0.02864492
-0.16065142 -0.04664376 0.061364003 -0.17482394 0.27915332 -0.046223167 -0.29371002 0.12994306

output_layer.bias f4 [2]
00000000: f4b5 abbb 12b6 ab3b
-0.0052401964 0.0052402103

layers.0.weight f4 [64, 4]
00000000: 6e3a 26be 8dfc 483e ad84 d13d 2143 603d
00000010: 398a 97bd c7cb f6bd 2256 cd3b e1f6 53be
00000020: 4064 6cbe 7c41 873d 9216 873d 085b 77be
00000030: 4682 3abe 68e5 923d f728 813e 222a dcbc
00000040: 2505 ab3d cb99 303e e0ca 65be 2b47 e8bd
00000050: 9a95 693e aacc 543d 43cd 01be 9b22 cebd
00000060: 7b22 8dbd 4e3a 88bd f534 c53c e8b8 643e
00000070: 7f5d 85be ac51 e53d c448 d23d ee7c 79bd
00000080: 6fc5 7dbd fd9f d83d 0100 1c3e 2ad1 133d
00000090: 567f bb3d 19ad 603e b01d 9cbd d718 81be
000000a0: a982 5abd 6ec5 c0bc b1d1 edbd 97ed 6ebd
000000b0: 433c 50be 73f2 78be 278e 553e 3fd2 4dbe
000000c0: 5244 72be 90ca 533e 8bd6 783e 49f7 75be
000000d0: 808f 9bbd 740d 8dbb 4490 aabd 3225 e7bd
000000e0: aebe 27be 4f37 be3c 4bc1 0e3d cc97 493e
000000f0: 1c1a a33d 1ee4 253e 957e 99be 72b7 2b3e
00000100: c5b4 97bd 235c 403e 712f 6d3d 29b0 16be
00000110: bbb8 ccbd aae6 4dbe 6ed2 a2be 94d3 813e
00000120: 27f5 1e3d 53e4 7dbd b61d 59be 16a3 2a3e
00000130: 3fea 4f3e d51d 193e 69ad 20be 0dcc 4a3e
00000140: 611e 5d3e 4402 8ebe 7be6 33bd 467e 06be
00000150: 08c1 c73c 328c 94be c49b 77be 61a6 21be
00000160: eead 4abe 18a7 893e 4d58 8b3e 9c57 6abd
00000170: 129f 223e 1c95 1f3e 882f 8f3e c728 04be
00000180: 8029 643e 2870 35be 9f54 8b3e f9cc 4a3e
00000190: c605 2a3e d64b 51be 6a26 2a3d 6d8a 2fbc
000001a0: c53f 5e3d f67c 0cbd 1be4 273d 1baa 70bd
000001b0: 54ca b8bd d736 1d3c 5f78 d83d 51dd 5cbe
000001c0: 6771 ef3d 8a46 55be 5869 9d3d e980 bebc
000001d0: a863 a8bc a276 e53d 49a0 09be 41cb babd
000001e0: 6470 593e 2a2a cebc 6a6d 813e 144a 2a3e
000001f0: c6ec dfbd 6df0 72be a0ca fa3d beba 9c3d
00000200: d8c8 5a3a fa04 c4bd 4ebd 15be 717e f6bd
00000210: 5952 633e ddf9 1b3d f833 513e cf9a 7cbe
00000220: 5f7e 8dbd f510 32be 4f9a 77bd 33da eabd
00000230: 5dc7 6abe d5d2 0cbe 39ce 343e c5e0 5bbe
00000240: d784 6bbe cfb3 87be 6656 6e3e f097 34bc
00000250: e76b 3b3e 376d 023e 9fcb fd3d f6bb 383e
00000260: 4e57 313e 8db0 8ebd 4475 2b3e e853 153e
00000270: 3f11 ecbd c08a 503d 4aac 8a3e 2810 67bd
00000280: 97e0 b83d 4147 693d def6 833e f0f3 83bd
00000290: b2c2 cc3d 6bfb 81bc d397 323e aac9 623e
000002a0: c8ba 34be 06ee 883e 3a80 9cbe 67ae b5bd
000002b0: b7ec 483e c1cd 1e3e 2f1d 44be 868c 7a3d
000002c0: 80b4 ebbd ea72 54be 9523 183e 5dce 783d
000002d0: 57d5 3e3e 3f2c 85be a87b e23d 6d77 74bc
000002e0: 335c 253e c46a 133d 94b8 ebbd 049d 373e
000002f0: 04ca 6dbc 7d41 573d 63a1 f6bd d54b 483e
00000300: ad67 4b3e bc57 903e 120b 01be a376 0cbd
00000310: d793 53be 3487 10be 3439 563e 857c 0fbd
00000320: 1bc0 e8bd 2de9 2dbe 0dae 09be 42d9 023e
00000330: a251 413d 87cb 403e b470 79be 2045 103c
00000340: 42cb 5c3e 538b 86bc c84b 0dbe 077c 993d
00000350: af04 643e 522d 333e 734c 1b3e 863e 3d3d
00000360: cedb 213e 9da0 5bbe b91b ebbd 2e08 85be
00000370: fa2c 063e 77dd e8bd 9b10 1ebe 759c 4abe
00000380: efc1 893e 9d04 90be f880 633e 9a27 14be
00000390: ff3e 883e 9612 9cbd 7e52 82be 2f62 ec3d
000003a0: c151 203e 5aa3 2c3e c126 e03d c200 1dbe
000003b0: a09d 52be 705d b83d 4ab5 7abe 2ef6 ca3d
000003c0: 2673 223c 832f c53d 7085 6a3e 9fe2 903e
000003d0: 8e75 bdbc 3daa e5bd 7de4 823e fde5 393e
000003e0: 9162 7abe a90b b4bd 1278 f83d 8ba1 b9bd
000003f0: 645f 8c3d 2c99 58bc c907 b33d 878c 45be
-0.16233227 0.1962759 0.10230384 0.05475152 -0.07399411 -0.12050586 0.0062663713 -0.20699646
-0.23085117 0.06604287 0.06596102 -0.2415582 -0.18213758 0.07172662 0.25226566 -0.02687556
0.083505906 0.17246167 -0.22440672 -0.11341699 0.22810975 0.051952995 -0.12675957 -0.10065194
-0.06891342 -0.06651746 0.024073103 0.22336161 -0.26047894 0.11197218 0.10267785 -0.060910158
-0.061955865 0.1057739 0.15234376 0.036088146 0.09155147 0.21941032 -0.0762285 -0.25214264
-0.053347263 -0.023531642 -0.11612261 -0.058332052 -0.20335488 -0.24311237 0.20855008 -0.20099734
-0.23658875 0.2068274 0.24300592 -0.24020113 -0.0759573 -0.0043045823 -0.08328298 -0.11286391
-0.16381332 0.023219733 0.034852307 0.19686812 0.07963964 0.16200301 -0.29979387 0.16769198
-0.07407526 0.18785147 0.05790657 -0.14715637 -0.09996172 -0.20107523 -0.3180117 0.25356734
0.038808014 -0.061985325 -0.2120274 0.16663775 0.20304202 0.14952786 -0.1569115 0.19804402
0.2159362 -0.27736104 -0.043920975 -0.13134107 0.024384037 -0.2901321 -0.24180514 -0.15786125
-0.19792911 0.26885295 0.27215806 -0.057212457 0.15880993 0.15584224 0.2796595 -0.1290618
0.22281456 -0.17718565 0.27212998 0.19804753 0.16603765 -0.20439085 0.04154054 -0.010714156
0.054260034 -0.03429886 0.040989023 -0.058755975 -0.09022966 0.009595594 0.10569834 -0.215688
0.11691552 -0.2082769 0.07686108 -0.023254829 -0.020555332 0.11204268 -0.1344005 -0.09120799
0.2123428 -0.02516659 0.2527879 0.16629821 -0.10933833 -0.23724528 0.12245679 0.07652806
0.0008345968 -0.09571262 -0.14622995 -0.120358355 0.22199382 0.038080085 0.20429981 -0.2466843
-0.06908869 -0.17389281 -0.060449895 -0.114673994 -0.22927614 -0.13752301 0.17656793 -0.21472462
-0.22999893 -0.2650437 0.23275146 -0.011022553 0.1830288 0.12736975 0.12392353 0.18040451
0.1731846 -0.06967268 0.16743952 0.14582789 -0.11526727 0.050913572 0.2708457 -0.056411892
0.09027212 0.05695272 0.25774282 -0.06443012 0.09998073 -0.015866956 0.17440729 0.22147241
-0.17649376 0.26744097 -0.3056658 -0.08871155 0.1962155 0.15508176 -0.19151758 0.06116917
-0.11509037 -0.20746961 0.14857323 0.06074368 0.1863607 -0.2601032 0.11058742 -0.014921051
0.16148452 0.03599049 -0.11509815 0.1793099 -0.014513496 0.05255269 -0.12042501 0.19560178
0.19863768 0.28191936 -0.12601879 -0.03429283 -0.20661865 -0.14114076 0.20920259 -0.03503086
-0.11364766 -0.16983481 -0.13445301 0.1277819 0.04719699 0.1882764 -0.24359399 0.008805543
0.21561912 -0.016423857 -0.1379844 0.074943595 0.22267412 0.17497757 0.15165882 0.046202205
0.15806505 -0.21447988 -0.11479897 -0.25982803 0.13103095 -0.11370366 -0.15436022 -0.19786246
0.26905772 -0.2812852 0.22217166 -0.14468232 0.26610562 -0.076207325 -0.25453562 0.115421645
0.15656187 0.16859189 0.10944892 -0.1533232 -0.20567942 0.09002197 -0.24483219 0.09910236
0.009915149 0.09628203 0.22902465 0.28297898 -0.023127344 -0.11214111 0.25564948 0.1815414
-0.24451663 -0.087912865 0.121322766 -0.09064015 0.06854132 -0.013220113 0.08741719 -0.19291888

layers.0.bias f4 [64]
00000000: cab7 7d3e be1a 943e 8a5d 7bbe 3362 72be
00000010: 8348 653e 071b 86be 6f18 9f3e f7bd 91be
00000020: 9627 943e 2f89 933e 7bdc 823e d273 9b3e
00000030: 6879 81be 2522 7bbe 40cc 60be 9f18 76be
00000040: 2262 993e 7d1f 75be 2006 9dbe 1d7e 90be
00000050: b58a 7c3e cfdf 833e c77c 5a3e cd2d 9ebe
00000060: efa3 4bbe 647f 753e 0a07 8b3e 4080 a93e
00000070: 91cf 73be 65b3 593e dccc 8ebe ebbc 76be
00000080: c9bb 813e 3ff0 833e 15d5 71be 92f2 75be
00000090: 22f2 7a3e 9d6c 923e 06bc 6f3e 1ad6 90be
000000a0: 8999 923e 40eb a03e 48c5 8dbe 6303 963e
000000b0: 4162 853e 6068 76be 6607 7cbe 0fb9 98be
000000c0: c265 54be fa7e 56be 1f9d 6b3e 5c9d 5c3e
000000d0: cf28 8dbe b852 90be 7f44 90be 373f a63e
000000e0: 1803 773e feed 98be 1958 5e3e 2af4 7bbe
000000f0: b612 943e 8449 9e3e 999c 8d3e fcc6 8c3e
0.24777141 0.28926653 -0.24547401 -0.23670273 0.22390942 -0.26192495 0.3107333 -0.28465244
0.28936452 0.288156 0.25558838 0.303618 -0.25287938 -0.24524744 -0.21952915 -0.2403283
0.29957682 -0.23937793 -0.30668736 -0.28221217 0.24662288 0.2575669 0.21336661 -0.30894318
-0.19886754 0.23974377 0.27153808 0.3310566 -0.23809649 0.2125984 -0.2789067 -0.24095504
0.2533858 0.2576923 -0.2361644 -0.24018314 0.24506429 0.2859849 0.23411569 -0.28288347
0.28632763 0.31429482 -0.27689576 0.2929946 0.26051524 -0.24063253 -0.24612197 -0.29828689
-0.20741943 -0.20946875 0.23009156 0.21544403 -0.27570197 -0.2818811 -0.28177258 0.32470104
0.24122274 -0.29869074 0.21713294 -0.2460486 0.28920525 0.30915463 0.27658537 0.27495563

layers.2.weight f4 [64, 64]
00000000: d501 403d 5813 803e a6a9 a0be 494b a6be
00000010: 0d93 4e3e a565 66bd 5a7d 83bc ab70 03bd
00000020: 0462 9b3d 16ae 2e3e b301 a83d 8ed3 533e
00000030: ba19 37be c9d8 d2be 05ae 42be 2f0e aebe
00000040: 1ef9 983e 5164 0abd 0018 b8bd 2171 f0bd
00000050: ff69 b93e 2cc2 7b3e cd4b 363c 5af4 95be
00000060: 8b05 06be f054 8b3e 17dc ef3e 5a61 b93d
00000070: cab9 82be 373a 9d3d 435f 0ebe b6ff f5bd
00000080: 1523 1c3e 5b9c 873e a78c 9dbb e638 61be
00000090: 28ed 143e e2cd 673e 88a5 8f3e bf9b aebe
000000a0: 54d8 c43e abdb 4f3e f9d9 0abd 083d 00bd
000000b0: 5892 b5bc 414f 8a3d 97d4 8cbe 8c74 033d
000000c0: 0eda 55be d756 46be f37c c43d 3e9c b73e
000000d0: e530 dcbc 9bc1 823d 82ad 85be 0068 2d3e
000000e0: 9541 613e cad9 31be f135 fc3d b253 b0be
000000f0: ca5c b73e 0349 55bc 88c0 c13e 1a0b 023e
00000100: 7572 903c d51c 42be d01b 4abc 4558 e73e
00000110: 0c81 59be d937 563d e5af cf38 92a7 923e
00000120: 31e1 08be 6b43 30bd 404b d9be d8df 88be
00000130: e7c6 33bd 62fd ce3e aa8c 713e 8f17 d93e
00000140: 9046 5fbd b226 193b d1a8 063e 4739 b03e
00000150: 6934 6cbe 656a 27be e6d6 bcbd ffb9 ad3d
00000160: 2164 853e 5064 5bbe 8814 c8be 59b8 b7be
00000170: eeb1 133e 3924 08be 8aa6 983e bb8f 483c
00000180: 38fd e9be ee89 0c3d 5f0c 973c 958e 0c3e
00000190: d7e3 53bd a639 50bb fef7 81be d237 903e
000001a0: 6d75 94be cafa c0be 70f8 623e 70e5 84be
000001b0: f99e 3cbd 79d7 703e c54a a23e 5a8d c03c
000001c0: d6ba 0abd 4ac7 2e3e eabc c6bc bc59 c7bd
000001d0: 22bb 883e 7fda 2ebd 9c80 893e 1bdf b9be
000001e0: 7bbe d2be c164 843e 258e c2bd d6c5 003e
000001f0: ddc1 9ebe 57b8 1a3d 859f 43be a57f 57bc
00000200: 593a e4bc 1377 d4be d52b b4bc f93b bd3e
00000210: f518 6cbd ec77 f4bc 0dc8 23be fbb9 883e
00000220: 1819 8dbe 0310 ebbd 3921 e4be d81b 61bd
00000230: 685d 583a 8694 dc3e 47a9 803e 2b0e cf3e
00000240: cbce 97be 49b9 c6ba 5060 e53d 14dc 4b3e
00000250: 0179 e1bd 298f 57be 47a3 66be 0753 1dbd
00000260: 90a3 153e f9bf 59bd 43bb 98bd 086e 97be
00000270: 9f6c 9b3e f4c2 09be dff0 a73e 757a ba3c
00000280: ed30 ecbe 8c64 643d 4def 113e b463 e13c
00000290: 7d6c 9fbe d12e 26bd 7cdb f4bc 1716 c93e
000002a0: d47b 0abe 4c9c 81bc da97 873e 31a8 b0be
000002b0: ed53 02be f210 613e 4405 a03e 2449 943e
000002c0: 7275 bdba 1061 523c 7cb9 a7bd 7aa4 bdbe
000002d0: ec54 073d 1014 b93e 74b5 d33e 8bb6 abbe
000002e0: d136 93be f97f 3c3e 8362 8d3d bcd7 983e
000002f0: a5f2 c0be 1f46 8abe 2685 49bd 8bc8 85be
00000300: c29a 983b a14a 44be 88fe dd3d 7ea1 d43e
00000310: e8f7 67be 1def 593e 4c92 7cbe 273e 273e
00000320: f86d 5bbe 98ee 8fbe 6f65 d1be 36ae adbc
00000330: 0207 7a3e ad83 6d3c d6f9 5f3d d516 cb3e
00000340: eb7d 00bd d732 b7bd 4d10 903e 2838 533e
00000350: 7e4e 40be bb96 aabe 9932 15be 975d c4bc
00000360: e782 603e c226 51be a653 dbbd ade7 20be
00000370: 6e4a efbc d926 0fbe d65e 893d 107d a63d
00000380: 9a3f d4be 0f94 93bd 70c5 0e3e a879 343e
00000390: a7f6 1ebe e825 cabc d14d a2be 2c19 943e
000003a0: acda 95be d1f7 18be d3bb 8e3d 8278 adbe
000003b0: 715a 12be fe17 c43d 0d8a 233e fb7f 853e
000003c0: c420 8a3e bc00 893e 34e5 2dbe 8b61 9fbe
000003d0: f690 623e f1cc 833d 78f9 883e 9067 c8be
000003e0: d694 cdbd d915 513e f820 e73d 34e4 bf3e
000003f0: 43e9 21be bd31 a2be d28a 8dbe 01fb ad3c
0.046876747 0.25014758 -0.3137943 -0.32479313 0.20173283 -0.05624928 -0.016050983 -0.03208987
0.07587054 0.17058596 0.08203449 0.2068617 -0.17880908 -0.4118102 -0.19011696 -0.33995196
0.2987756 -0.033787075 -0.08988953 -0.117403276 0.3621368 0.2458579 0.011126471 -0.29287988
-0.13088052 0.2721324 0.46847603 0.090517715 -0.2553237 0.07677119 -0.13903527 -0.120116636
0.15247758 0.26486477 -0.004808027 -0.21994361 0.14543593 0.22637132 0.28055978 -0.341032
0.38446295 0.2029864 -0.03389928 -0.031308204 -0.022164509 0.06753398 -0.27505943 0.03209357
-0.20883963 -0.19369064 0.09594145 0.3586139 -0.026878783 0.063845836 -0.26108938 0.16934204
0.21997674 -0.17368236 0.12314976 -0.34438854 0.3581298 -0.013017896 0.37842202 0.12699547
0.017632702 -0.18956311 -0.012335733 0.45184532 -0.21240634 0.052299354 9.903292e-05 0.2864347
-0.13367154 -0.043033045 -0.42440224 -0.2673328 -0.04389086 0.4042769 0.23588815 0.42400786
-0.054510653 0.0023369011 0.13150336 0.344187 -0.23066868 -0.1634918 -0.09220676 0.084827416
0.26052955 -0.21424985 -0.39078164 -0.35882834 0.14423344 -0.13295068 0.2981456 0.012241299
-0.45701003 0.034311228 0.018438516 0.13726266 -0.051730957 -0.0031772642 -0.25384516 0.28167588
-0.2899584 -0.37691337 0.22165084 -0.25956297 -0.046050046 0.23519696 0.3169767 0.023504902
-0.033869587 0.1706821 -0.024260003 -0.09733912 0.2670527 -0.042688843 0.26855934 -0.36303028
-0.4116095 0.2585812 -0.09499768 0.12575468 -0.3100728 0.037773456 -0.1910382 -0.013152991
-0.027859854 -0.41497096 -0.021993557 0.36959818 -0.05764099 -0.02984234 -0.15994282 0.26704392
-0.27558208 -0.11477663 -0.44556597 -0.054958194 0.0008253665 0.43082064 0.25129148 0.40440497
-0.29649958 -0.001516142 0.11200011 0.19908172 -0.11009408 -0.21050705 -0.22523223 -0.03840926
0.14613175 -0.053161595 -0.07457592 -0.29576135 0.3035631 -0.13453275 0.32800958 0.02276347
-0.46131077 0.05575995 0.14251442 0.027513362 -0.31137457 -0.04057199 -0.029889815 0.39274666
-0.13523799 -0.015821598 0.2648304 -0.3450332 -0.12727328 0.2197912 0.31254017 0.28962052
-0.0014454557 0.012840524 -0.08189675 -0.37039548 0.033039972 0.3614812 0.41349375 -0.33537707
-0.2875276 0.18408193 0.06903555 0.29852092 -0.37685123 -0.27006623 -0.049199246 -0.26129565
0.0046571204 -0.19169094 0.108395636 0.4152946 -0.22653162 0.2128262 -0.24665183 0.16332303
-0.21428668 -0.2811172 -0.408977 -0.021201234 0.24416736 0.014496726 0.05468162 0.39665857
-0.031370085 -0.08945244 0.28137437 0.2062689 -0.18779942 -0.33318123 -0.14570083 -0.023970408
0.21924935 -0.20424941 -0.10709314 -0.15713377 -0.029210296 -0.13979663 0.06707542 0.081293225
-0.41454774 -0.07205974 0.13942504 0.17624533 -0.15523778 -0.024676278 -0.31699994 0.28925455
-0.29268396 -0.14938284 0.069694184 -0.33881003 -0.14292313 0.09574889 0.15970631 0.26074204
0.26978123 0.26758373 -0.16981965 -0.31129107 0.2212561 0.06435574 0.2675283 -0.39141512
-0.10038154 0.2041849 0.11285585 0.37478793 -0.15811639 -0.31678572 -0.27644974 0.021237852

layers.2.bias f4 [64]
00000000: d8f9 063e 3007 06be 182e 12be d4d9 f4bd
00000010: 074f 133e 9438 fbbd 20aa 01be c558 193e
00000020: 369a 493e 9963 03be 31a7 f23d f1c1 5bbe
00000030: 1151 1bbe cde0 f83d d3cd 643e e4bb 02be
00000040: 8dd1 0b3e 3745 05be 067d f3bd d2f7 3ebe
00000050: 4a0d 1e3e 24e8 e33d 123c ff3d cd49 183e
00000060: 3d81 0fbe 2ba0 373e ec5d 353e 49cd 1dbe
00000070: 5ffb 2b3e df36 053e ecb3 05be c7c0 4fbe
00000080: 7dd6 51be b62c 083e de45 363e 68f6 313e
00000090: 6220 03be f24f 073e f079 033e dc47 34be
000000a0: 4472 0dbe ea35 023e 27cf 1f3e eff0 163e
000000b0: ab18 f13d a2e8 f93d da0f 053e 923f 07be
000000c0: f452 ebbd a278 213e 5e53 2abe b760 01be
000000d0: b35f 78be 1e8e ffbd 361d 0bbe dbc9 08be
000000e0: 2155 0ebe b05c 72be a560 f2bd 5a85 34be
000000f0: cd65 143e a59e 01be 21e8 1e3e d3a6 2a3e
0.13181245 -0.1308868 -0.14275396 -0.1195561 0.14385615 -0.12266651 -0.12662554 0.14975269
0.19687733 -0.12830962 0.118482955 -0.21460702 -0.15167643 0.12152252 0.2234414 -0.12766987
0.13654156 -0.13014685 -0.11889081 -0.18649223 0.15434757 0.11128262 0.124626294 0.14871903
-0.14014144 0.17932193 0.1771161 -0.15410341 0.16795109 0.13009213 -0.13056916 -0.20288382
-0.20491977 0.13298306 0.1780009 0.17379153 -0.12805322 0.1321409 0.12839484 -0.17605537
-0.1381312 0.12715879 0.15606366 0.14740346 0.11772283 0.12202574 0.12994328 -0.13207844
-0.114904314 0.15768674 -0.16633365 -0.1263455 -0.24255256 -0.124782786 -0.13585362 -0.13358252
-0.13899662 -0.2366817 -0.1183484 -0.17628995 0.14491959 -0.12658174 0.15518238 0.16665201

output_layer.weight f4 [1, 64]
00000000: d483 343f c551 13bf 4f0d f7be 2a96 2dbf
00000010: 1319 313f 4cce 11bf d6bb 16bf 9abc 053f
00000020: 99ea e93e e9be 1bbf dd03 2a3f 2d49 eabe
00000030: 8772 01bf ff16 263f 60fd c73e 5e7e 2cbf
00000040: 9103 403f 947d 31bf 753b 1cbf 7295 edbe
00000050: 3f13 1d3f 6169 2d3f 3cbd 183f 9bc3 153f
00000060: 293a 17bf eb60 f93e 44a5 fe3e 3c7a 13bf
00000070: 7a76 e53e 2efe 1d3f 2dc7 04bf 8117 e7be
00000080: 3ecf f1be 3255 173f 6bad f33e d6ea d13e
00000090: cc1d 25bf 7dd0 273f d426 3c3f 2c59 f4be
000000a0: 4401 ffbe 35d2 1d3f ad65 0d3f bff6 053f
000000b0: b772 153f 529d 133f f9ee 1f3f 27a1 2abf
000000c0: 2daa 3dbf d434 fd3e b34e d3be 92a8 1dbf
000000d0: ceaa dabe 340e 1fbf da93 1bbf 7c3c 17bf
000000e0: 0372 0abf d9e7 debe 9007 3bbf 1ab8 c9be
000000f0: 4b71 263f 994f 31bf 9a54 0b3f a797 ed3e
0.70513654 -0.57546645 -0.4825234 -0.6780726 0.69178885 -0.5695541 -0.58880365 0.5224091
0.45686796 -0.6083818 0.66412145 -0.45758954 -0.5056538 0.6487884 0.39060497 -0.6738032
0.7500544 -0.6933224 -0.61028224 -0.4640308 0.6135749 0.6773892 0.5966375 0.58501595
-0.5907312 0.48706755 0.49735463 -0.5760839 0.44816953 0.6171597 -0.5186642 -0.4513512
-0.47228426 0.5911437 0.47593245 0.40999478 -0.6449859 0.655525 0.73496747 -0.47724283
-0.49805653 0.61648875 0.5523327 0.5232963 0.58378166 0.57661927 0.6247402 -0.6665215
-0.7408779 0.49454367 -0.4127098 -0.6158534 -0.4270844 -0.6213105 -0.6077248 -0.59076667
-0.5408022 -0.4353626 -0.73058414 -0.3939827 0.6501662 -0.6926208 0.54425967 0.46404764

exp_avg f4 [64, 4]
00000000: 1ab6 f03b 1027 b139 d30b 113a a320 413b
00000010: 0008 863b d036 b038 7a33 9b39 02eb c63a
00000020: 0322 cb3a 4ed4 8fb8 1735 b037 b0a8 283a
00000030: 37b5 9cba 0fcc fcb8 5338 88b9 439c fcb9
00000040: 357c d73a eee0 6f39 61c6 67b9 a856 1f3a
00000050: 6385 97bb c52a bcb9 d065 abb9 9fb0 ebba
00000060: fe83 843b a9f4 9339 27b8 5e39 a893 b33a
00000070: d251 36bb a59d 39b9 e06b 8fb9 b697 99ba
00000080: f64f ecba 115c b5b9 bf75 85b8 bc30 4bba
00000090: 18b2 cfba da0c 65b9 83f4 cfb9 5db1 53ba
000000a0: 303c 22ba 203b c9b8 e60f 73b9 3787 41b9
000000b0: 2a63 be3b 87b3 383a c4b0 7f39 0a0d 0a3b
000000c0: 97b0 983a 5a7b d437 342f bab8 deef f839
000000d0: 3590 1839 0459 ef36 51de a838 d44d 8238
000000e0: b7de 033c 27fc df39 1469 3a3a fc25 573b
000000f0: f6a9 4b3b 5e5b 3039 0651 12b8 b449 a53a
00000100: 6dfc 55bb 8c6a e0b9 fdac 43b9 c156 a9ba
00000110: d020 8e3b d2e8 9839 42d1 b339 6448 da3a
00000120: e22c e33b 4846 4b3a 57c8 4439 dd30 3c3b
00000130: b502 12b9 adf1 29b8 2538 3fb9 cb16 3fb9
00000140: 1fa5 9139 3bda 4f38 c3f3 2e39 fb22 a438
00000150: 167e 85bb 0d30 6db9 19eb bcb9 e5c4 d2ba
00000160: ae20 cbbb 8fce 30ba 358e a3b9 406e 2bbb
00000170: e626 af3a 8981 fb38 38bb 7039 0151 d139
00000180: 1f3f b13b 6b8a 1e39 a81d ae39 3f8b 0e3b
00000190: ce5c 2fbb b9b0 14b9 f70e feb9 e885 8dba
000001a0: 9e87 c3ba 42a9 15b9 941b 30b8 0fc1 e4b9
000001b0: c386 163a 71ad 0739 646d 5d39 cbf2 b239
000001c0: 524e 8fb9 6745 ca37 d5dd 54b8 1387 86b8
000001d0: 4e4a f73a 330e 3639 ce9b d439 4b70 4c3a
000001e0: df82 d3ba eb86 8cb9 9e56 c6b9 9716 22ba
000001f0: 9c54 213c aa7d ed39 6bc7 433a 6d9b 793b
00000200: 9626 dcbb 2cba 1dba 74ad ceb9 b8b4 35bb
00000210: fb3b 913b fa42 c939 b47a 9639 8e14 e03a
00000220: 5387 2a3b 0564 7239 72b5 2c39 3fcd 883a
00000230: 1431 b33a 2768 a6b8 f9fa 0c3a 58a1 323a
00000240: 5342 81ba 1621 31b9 607b d837 d26e 01ba
00000250: dc8a 04ba 1f9f b9b8 948c 3639 af01 81b9
00000260: 869d 383b db55 9d38 15e9 9138 1122 8e3a
00000270: f4fa 58ba 7884 bf37 fd8c ceb8 4292 f6b9
00000280: 0a02 ac3b 14e8 d939 2e10 9f39 b273 013b
00000290: 53bd 093c 3d8d 9f39 3e19 f839 aa21 5b3b
000002a0: d1ff bc3a f9e1 80b7 f0e8 67b8 31f1 183a
000002b0: 23a6 c8ba 4dbc 69b7 3299 8bb7 d5de 38ba
000002c0: 6119 9d3b f041 b738 3792 8739 2bff eb3a
000002d0: b76b a03b 2d3c 103a 11e4 6039 410c f53a
000002e0: b667 8ebb b954 06ba 22b9 95b9 e6e8 b8ba
000002f0: dd25 813b 3604 8638 640e 3a3a a7fb e83a
00000300: c936 1c3b fd17 e0b8 29bd 3b39 c679 5a3a
00000310: 69b7 b83a 5d08 c439 63d3 dc39 5821 ed39
00000320: b0d3 a53b 94cb c239 4be2 8439 1a12 fd3a
00000330: e9cd 80bb 3365 b5b9 c060 f3b8 b20c bcba
00000340: c38f 8aba f25f 9338 6dc0 c8b9 f584 06ba
00000350: b3f7 323b e35b cc39 ba2d cb37 fce2 923a
00000360: e8f4 ea39 ba23 b838 3237 6eb9 e785 0739
00000370: a409 9b3a a680 0c38 3599 cf39 6dea 323a
00000380: f379 813b 0236 f339 6664 1f39 e986 c73a
00000390: 0ef7 c23b ac2b 113a 6844 eb39 aa9d 133b
000003a0: 399f 02bb 45d5 56b9 055b 8f38 8bc6 4dba
000003b0: cf33 823b 8cfd 113a 7677 1539 f955 dd3a
000003c0: f7ad 883b 6d56 8f37 5c56 b939 7d9a df3a
000003d0: 9d2a c0bb 9495 4fba c01e 02b9 7a51 0dbb
000003e0: bf6b e2ba 26bd 10b8 b5dd 16b9 1ec6 39ba
000003f0: 9035 11ba 0753 5238 b3d5 a6b7 0806 cfb8
0.007345927 0.00033789175 0.0005533073 0.0029468916 0.004090309 8.4025436e-05 0.00029602257 0.0015176239
0.0015497807 -6.858316e-05 2.1005557e-05 0.0006433828 -0.0011955862 -0.00012054305 -0.00025981906 -0.0004818161
0.0016440215 0.00022876609 -0.00022103779 0.00060782814 -0.0046240552 -0.0003589002 -0.00032691518 -0.0017981714
0.004044055 0.0002822031 0.00021240172 0.0013700621 -0.0027819765 -0.00017701702 -0.0002735546 -0.0011718187
-0.0018029201 -0.00034591605 -6.363866e-05 -0.00077510974 -0.0015845923 -0.0002184393 -0.00039664292 -0.00080754404
-0.0006188778 -9.59544e-05 -0.00023180209 -0.00018456286 0.005810161 0.00070457946 0.00024384545 0.00210649
0.0011649308 2.532981e-05 -8.8779634e-05 0.0004748096 0.00014549571 7.133118e-06 8.052274e-05 6.21338e-05
0.008048705 0.00042721743 0.0007110995 0.0032829037 0.0031076646 0.00016818705 -3.488457e-05 0.0012610466
-0.0032651678 -0.00042803993 -0.00018661092 -0.0012919531 0.0043374076 0.00029165164 0.0003429745 0.0016653654
0.0069328407 0.0007754308 0.00018766649 0.0028715648 -0.00013924653 -4.0517818e-05 -0.00018236095 -0.0001822367
0.0002777958 4.955589e-05 0.00016684741 7.826645e-05 -0.0040738685 -0.00022619982 -0.00036033316 -0.0016080408
-0.006198964 -0.0006744647 -0.00031195735 -0.0026158243 0.0013363033 0.000119927405 0.00022957928 0.0003992394
0.005409136 0.00015119619 0.00033209962 0.0021750478 -0.0026758197 -0.00014180214 -0.00048457805 -0.0010797353
-0.0014917736 -0.00014272801 -4.1987354e-05 -0.0004363139 0.0005742127 0.00012939215 0.00021116954 0.000341317
-0.0002733344 2.4112594e-05 -5.0751336e-05 -6.4147775e-05 0.0018866749 0.00017362162 0.00040551875 0.00077987154
-0.0016137025 -0.00026803403 -0.00037830038 -0.0006183176 0.009846833 0.0004529779 0.0007468375 0.0038087026
-0.006718467 -0.00060168165 -0.00039420614 -0.0027726125 0.004432199 0.0003838761 0.0002870165 0.001709597
0.00260206 0.00023116179 0.00016470792 0.0010437145 0.0013671243 -7.934897e-05 0.0005377974 0.0006814203
-0.0009861685 -0.00016892361 2.5806658e-05 -0.0004937473 -0.0005056092 -8.851126e-05 0.00017409242 -0.00024606052
0.0028170063 7.502335e-05 6.957554e-05 0.0010843893 -0.0008277141 2.283066e-05 -9.8491066e-05 -0.00047029747
0.0052492665 0.00041562377 0.00030338898 0.0019752798 0.008406955 0.00030432074 0.00047321053 0.0033436813
0.0014419501 -1.5364016e-05 -5.529163e-05 0.000583428 -0.0015308302 -1.3931724e-05 -1.6641428e-05 -0.00070522475
0.004794285 8.738402e-05 0.00025858145 0.0018005123 0.004895653 0.0005502131 0.00021447266 0.0018695669
-0.0043458594 -0.0005124319 -0.0002855743 -0.0014107495 0.0039412812 6.390402e-05 0.0007097481 0.0017775194
0.0023836365 -0.000106856205 0.00017904177 0.00083341857 0.0014092746 0.00037390264 0.00042119165 0.00045229006
0.0050606355 0.0003715424 0.00025345603 0.0019307763 -0.0039307964 -0.0003459841 -0.00011605164 -0.0014347045
-0.0010571409 7.0273774e-05 -0.0003829034 -0.00051315065 0.0027308285 0.00038978373 2.4220779e-05 0.0011206563
0.00044814427 8.780458e-05 -0.0002271801 0.00012924486 0.0011828435 3.3498414e-05 0.00039596265 0.00068250933
0.003951305 0.0004638881 0.00015200823 0.0015222701 0.0059498614 0.00055378187 0.0004487366 0.0022524395
-0.001993133 -0.0002048808 6.835725e-05 -0.00078497146 0.003973461 0.00055690925 0.0001425425 0.0016886584
0.004171129 1.7087174e-05 0.00035350292 0.0017059591 -0.005864455 -0.0007918712 -0.00012409221 -0.0021563456
-0.0017274542 -3.4508434e-05 -0.00014387707 -0.00070867117 -0.00055392925 5.0145227e-05 -1.9888254e-05 -9.8716526e-05

exp_avg_sq f4 [64, 4]
00000000: 8fe9 603a 1131 fe39 fd18 b636 02b7 2139
00000010: 5734 2339 982e 9e38 2f7b 4c35 a3cb ba37
00000020: 1238 c437 2b46 6c37 4a30 5334 8aa6 6936
00000030: d5b8 de38 e2ec cd38 9188 9335 1bcc ed37
00000040: 9295 9d38 5132 8d38 3f26 3335 d3de 9537
00000050: 349a 9339 ecec 1439 8349 fa35 df20 4f38
00000060: 8eb9 0439 a1d9 4938 985c 3e35 4877 aa37
00000070: 6f07 0439 84a2 a938 aa8f 9035 f84e f437
00000080: 01f3 6f38 e35b 2738 9577 3035 c703 8c37
00000090: 7878 aa39 a0f6 a139 1006 5d36 e0c7 b038
000000a0: 836b bc38 b2a6 be38 4f0d 7c35 fa46 ca37
000000b0: a387 9c39 4006 2139 817a 2736 4bd6 9338
000000c0: c412 0738 54da e837 e2aa a334 11e8 f836
000000d0: f8e1 4037 5f75 2837 6af7 e933 4d6f 3636
000000e0: 2724 9d3a 4c68 553a f14e 1d37 6e88 8539
000000f0: 2beb 9438 9c87 d337 cdd7 e934 c906 5137
00000100: 0549 5039 658e 0b39 19e6 ee35 c3c9 4438
00000110: 256c c439 da4b 8139 ba77 3636 a807 a038
00000120: 0194 d339 2163 4239 ce86 7d36 2e38 c538
00000130: 4edd 6c38 83fc 7c38 0c2a 2d35 22ec 8b37
00000140: 5e8c 2f38 fb59 1b38 1328 e934 4b97 2637
00000150: de25 b939 641e 7839 1478 3d36 ff8c 9738
00000160: 15f9 113a 7cdc af39 f1b8 9636 7c97 0739
00000170: 2600 2039 0ab6 f238 ec8e bf35 64b3 f337
00000180: c38a ba39 5ebb 3139 f4db 0a36 4549 6f38
00000190: b5d4 c739 8407 a539 c72e 6e36 ca4f c038
000001a0: 4289 2b38 d91b 9e37 d2f0 9334 17f3 bb36
000001b0: 7a5c f238 5985 ed38 e13d 9735 9fe4 0038
000001c0: c4c4 b236 4717 6936 6928 2a33 3e54 5735
000001d0: a524 9339 f9b9 8539 1b28 4536 1dac 9738
000001e0: c4a2 8c39 f6dc 8739 1d03 4536 bcd7 9838
000001f0: 0a41 a13a 6a31 323a 8a5f 0937 3dc7 6839
00000200: ecb9 2c3a 7f75 d439 b7c3 b536 9596 1d39
00000210: f81a 8d39 334d 2f39 5514 0f36 2b81 7838
00000220: 3fd9 2239 1920 c938 974c 9c35 32c6 fe37
00000230: c017 d339 6d0a c039 e7b8 7636 f3d6 c938
00000240: ae2f 2c37 e3fa 6236 694a c133 d87d 8836
00000250: 6d04 1638 ea78 1a38 ee9f b634 7755 2137
00000260: 3424 1f38 7d03 3f37 39e7 4f34 2de4 c236
00000270: 6ea5 5637 59ad e136 fafa a233 9af4 0d36
00000280: 0868 9e39 6dd0 0939 8510 eb35 0c93 4438
00000290: 1823 373a e6bd be39 5df0 9336 12d4 0439
000002a0: c0c7 de37 00c3 c037 6a6c a434 d618 e636
000002b0: 36aa 8637 d8cf d036 2ef9 d433 918e 0d36
000002c0: ad77 1939 28c4 6738 e7cf 4635 03f5 9c37
000002d0: 9bc2 7639 ffe6 0239 57c4 0636 51fb 6138
000002e0: 9ef2 c039 3b22 4b39 eb72 4b36 424c 8138
000002f0: a33c 633a 9044 3a3a b43f f436 e615 4b39
00000300: 076c 3838 6e72 9c37 cde2 2e34 3449 7b36
00000310: d5c3 a139 956a a639 73d8 7f36 7305 c138
00000320: d5f3 7539 c9fb e938 e909 cd35 fa9e 3f38
00000330: bc29 0f39 6c05 4138 a633 5135 d21e a937
00000340: e8fd 4939 898b 3339 6d2d f035 edb4 3d38
00000350: 8a59 6b38 5fef be37 2413 f934 3835 7737
00000360: ca09 e738 01f7 ee38 ebc3 a435 5065 ef37
00000370: 1471 9f39 b5b7 9839 1e53 4836 c438 9e38
00000380: dce8 3539 62fc c538 536a bb35 e4be 2738
00000390: 6ad6 2f3a aab2 f039 9adf ad36 1e37 1539
000003a0: 8d66 bf37 3924 0937 6169 3334 6a56 b136
000003b0: 6251 3939 968a d138 a974 ea35 acdd 5138
000003c0: 28c2 8139 d48a 2739 e204 d235 c630 4438
000003d0: d261 c539 30ba 2139 e5b8 4a36 5945 9738
000003e0: f32c 6438 d053 1538 5177 b934 5342 2a37
000003f0: 9bec a336 f593 9836 fcf2 a333 55a4 b635
0.0008579725 0.00048483213 5.4269317e-06 0.00015422332 0.0001556439 7.542706e-05 7.617518e-07 2.2267754e-05
2.339113e-05 1.4083033e-05 1.9668474e-07 3.4816644e-06 0.000106202126 9.8192846e-05 1.09921e-06 2.8347646e-05
7.514203e-05 6.732776e-05 6.673835e-07 1.7865945e-05 0.00028152915 0.0001420264 1.8647846e-06 4.938326e-05
0.00012657625 4.8124817e-05 7.091526e-07 2.0321124e-05 0.0001259127 8.088819e-05 1.0770648e-06 2.912384e-05
5.7208355e-05 3.990148e-05 6.5739124e-07 1.669106e-05 0.00032514683 0.00030892063 3.2935095e-06 8.4295636e-05
8.984564e-05 9.0909554e-05 9.389668e-07 2.4113328e-05 0.00029855696 0.00015356485 2.4956246e-06 7.0494214e-05
3.2203985e-05 2.7758222e-05 3.048545e-07 7.417992e-06 1.1496704e-05 1.0040908e-05 1.0894912e-07 2.71849e-06
0.0011988924 0.00081408466 9.376309e-06 0.00025469385 7.1009934e-05 2.5216308e-05 4.3556648e-07 1.2458951e-05
0.00019863628 0.00013309119 1.7799349e-06 4.6917947e-05 0.00037464607 0.0002466131 2.7189803e-06 7.6308206e-05
0.00040355328 0.0001853821 3.7778404e-06 9.404156e-05 5.647289e-05 6.031665e-05 6.450871e-07 1.668005e-05
4.185398e-05 3.703868e-05 4.342879e-07 9.929597e-06 0.00035314163 0.00023662444 2.823309e-06 7.226504e-05
0.0005568427 0.00033542875 4.4918784e-06 0.00012931036 0.00015258844 0.00011573367 1.4272205e-06 2.9051393e-05
0.0003558007 0.00016949835 2.0691632e-06 5.7050278e-05 0.00038114717 0.00031476852 3.5491992e-06 9.170135e-05
4.089741e-05 1.8848035e-05 2.7556104e-07 5.6013337e-06 0.00011556684 0.000113258786 1.1268386e-06 3.0730498e-05
5.32772e-06 3.4733255e-06 3.9617962e-08 8.021633e-07 0.00028065327 0.00025506297 2.9378632e-06 7.2323e-05
0.0002682415 0.00025913835 2.93571e-06 7.2881085e-05 0.0012302708 0.00067975244 8.188081e-06 0.00022199466
0.0006588984 0.00040523332 5.4170046e-06 0.00015028783 0.0002691371 0.0001671806 2.1320495e-06 5.9248105e-05
0.00015530454 9.5904055e-05 1.1645196e-06 3.0371451e-05 0.0004026275 0.00036628862 3.6764484e-06 9.624464e-05
1.02631e-05 3.382266e-06 9.000798e-08 4.067766e-06 3.576691e-05 3.682907e-05 3.4016506e-07 9.616247e-06
3.794227e-05 1.1385299e-05 1.9362496e-07 5.8082137e-06 1.2793911e-05 6.725703e-06 7.589365e-08 2.1153014e-06
0.00030213618 0.00013142983 1.7513672e-06 4.686699e-05 0.00069861254 0.0003638111 4.4089234e-06 0.00012667503
2.6557478e-05 2.2978988e-05 3.0626262e-07 6.8574254e-06 1.6053305e-05 6.2230793e-06 9.917345e-08 2.1093622e-06
0.000146358 5.5257377e-05 7.4063286e-07 1.8710742e-05 0.00023532884 0.00012483819 2.008184e-06 5.3878237e-05
0.00036801858 0.0001937234 3.0316248e-06 6.1654035e-05 0.00086683984 0.00071055535 7.2791827e-06 0.00019367746
4.3969627e-05 1.8649935e-05 1.6287522e-07 3.7444524e-06 0.0003085422 0.00031741397 3.812395e-06 9.203972e-05
0.00023455855 0.000111572044 1.5276574e-06 4.5686007e-05 0.0001365309 4.6019835e-05 7.7933726e-07 2.0160722e-05
0.00019263441 0.00017122751 1.7894614e-06 4.522961e-05 5.6111756e-05 2.276123e-05 4.639379e-07 1.4734738e-05
0.00011016762 0.000113947324 1.2275972e-06 2.8538198e-05 0.00030411093 0.00029128572 2.9850703e-06 7.5446005e-05
0.00017348252 9.440702e-05 1.396353e-06 3.9993683e-05 0.00067076704 0.00045909482 5.1818324e-06 0.0001423028
2.2816728e-05 8.17427e-06 1.670901e-07 5.285071e-06 0.00017673292 9.99171e-05 1.7468311e-06 5.003593e-05
0.00024749455 0.00015978079 1.564764e-06 4.6775465e-05 0.0003764765 0.00015423517 3.0207968e-06 7.213158e-05
5.44013e-05 3.5602425e-05 3.454575e-07 1.0148232e-05 4.885323e-06 4.5471775e-06 7.6344776e-08 1.3607884e-06
