experiments/ppo_cartpole_homework_20250828_114234/checkpoints/auto_step_81920.pt (torch, 146283 bytes, 44 tensors)

layers.0.weight f4 [64, 4]
0	0xbdf458c4	-0.11930993
1	0x3e74f89a	0.23922959
2	0x3ed2c91c	0.4116906
3	0x3e55cc26	0.20878658
4	0x3bb99fef	0.0056648175
5	0x3e40fa98	0.18845594
6	0x3d31074b	0.043219846
7	0xbd950fe6	-0.07278423
8	0x3c841a4d	0.016125822
9	0x3b269df7	0.0025423744
10	0xbe6c134c	-0.23054236
11	0xbdccd407	-0.100013785
12	0xbe5b27c6	-0.21401891
13	0xbe2390c7	-0.15973197
14	0xbea5ea19	-0.32405165
15	0xbe3fd412	-0.18733242
16	0xbe2e25e7	-0.17006646
17	0xbc0c5805	-0.008565907
18	0xbe503f20	-0.2033658
19	0xbeacf601	-0.33781436
20	0x3e525702	0.20541003
21	0xbe966b3a	-0.29378682
22	0xbec750b1	-0.3892875
23	0x3d796173	0.06088395
24	0xbe20581a	-0.15658608
25	0xbe648d87	-0.22319613
26	0x3e95d548	0.29264283
27	0xbeb5dff0	-0.35522413
28	0xbda09b96	-0.07842176
29	0xbe7de6b9	-0.24795045
30	0xbed7f816	-0.42181462
31	0x3d821d7a	0.063532785
32	0x3e883c46	0.26608485
33	0x3d26c4dd	0.040715087
34	0xbe2260de	-0.15857264
35	0xbe1f57e3	-0.1556087
36	0xbe9a0ef2	-0.30089527
37	0x3db42b96	0.08797376
38	0xbed606da	-0.41802102
39	0xbe3d5a4b	-0.18491475
40	0xbe6e5913	-0.23276167
41	0xbdb2a5f9	-0.08723063
42	0xbeae917a	-0.34095365
43	0xbe908edd	-0.28233996
44	0xbe10eadd	-0.14152093
45	0xbe58bc9c	-0.21165699
46	0x3eee24f4	0.46512568
47	0x3c8d62c8	0.017259017
48	0xbeb9aaab	-0.36263022
49	0x3e5c69e9	0.21524777
50	0xbe1ae8cc	-0.15127867
51	0xbe317017	-0.17327915
52	0x3e457430	0.19282603
53	0xbe155bbd	-0.14585777
54	0x3d6da7e3	0.058021437
55	0xbe26ddc6	-0.16295537
56	0x3d333b53	0.043757748
57	0xbd47b9cf	-0.048761185
58	0x3ed38da5	0.41319004
59	0x3ac622ab	0.0015116533
60	0xbe4ee5af	-0.20204805
61	0x3e3935c0	0.1808691
62	0xbe12ee5f	-0.14348744
63	0x3d62577d	0.055259217
64	0x3df96db2	0.12179126
65	0xbca261ad	-0.019821966
66	0xbe83cc10	-0.25741625
67	0xbe1b0249	-0.1513759
68	0xbe3710c0	-0.17877483
69	0x3e8840c5	0.26611915
70	0x3e88d787	0.26726934
71	0x3e81bb6d	0.25338307
72	0xbe4fa350	-0.20277143
73	0xbe9caece	-0.30602115
74	0x3efbc285	0.49171844
75	0x3eba5565	0.36393276
76	0xbeaef2ed	-0.34169713
77	0x3b8cd003	0.004297258
78	0xbeccf01f	-0.40026948
79	0xbe4cc8a3	-0.19998412
80	0x3de751ba	0.11294885
81	0x3e722d54	0.23650104
82	0x3d8953fa	0.067054704
83	0x3e28ec51	0.16496398
84	0xbdfc0925	-0.12306432
85	0x3e009cbe	0.12559792
86	0xbee63904	-0.44965374
87	0xbdd62791	-0.104567654
88	0x3e968be6	0.2940361
89	0xbd4ad285	-0.049517173
90	0xbe71bf5a	-0.23608151
91	0xbd0d5782	-0.034507282
92	0x3d5842ae	0.052797966
93	0xbe3335af	-0.17500947
94	0x3ef3c84b	0.4761375
95	0x3ea58c5c	0.32333648
96	0xbe790ab0	-0.24320483
97	0x3e6f0231	0.2334068
98	0x3dfbc646	0.12293677
99	0xbceedcf3	-0.029158091
100	0xbe356e7e	-0.1771793
101	0xbe71eb52	-0.23624924
102	0xbf044ed3	-0.51682776
103	0xbe9cfa61	-0.30659774
104	0xbe166951	-0.14688613
105	0x3e982ad2	0.2972017
106	0xbd82b8b6	-0.06382887
107	0xbe8906d8	-0.26763034
108	0xbe19ff3f	-0.15038775
109	0x3e09ea2b	0.13468234
110	0x3ef46645	0.47734275
111	0x3e77b77f	0.24191092
112	0xbe37056e	-0.17873165
113	0x3db19961	0.08671833
114	0x3e2462d0	0.16053319
115	0x3e33eefe	0.17571637
116	0x3e693dd3	0.2277749
117	0x3e38ec35	0.18058856
118	0x3f1130a0	0.5671482
119	0x3e95bbd5	0.29244867
120	0xbe698f8a	-0.22808662
121	0xbe2e3f4f	-0.17016338
122	0xbe73b125	-0.23798044
123	0xbe932996	-0.28742665
124	0xbe181955	-0.14853413
125	0x3e26ba4c	0.16282004
126	0x3f115090	0.56763554
127	0xbdcae6b3	-0.09907284
128	0x3e850f99	0.25988463
129	0x3c7f3c2d	0.015578312
130	0xbe2e7473	-0.1703661
131	0xbdcb7513	-0.099344395
132	0xbe835150	-0.25647974
133	0xbb790bf4	-0.003800151
134	0x3eba3379	0.36367396
135	0xbca23bde	-0.019803938
136	0xbdeb42de	-0.11487363
137	0xbd21b769	-0.039481554
138	0x3e11c9ff	0.14237212
139	0x3e048ded	0.12944765
140	0x3e1480e9	0.145023
141	0x3e3c7f41	0.18407919
142	0x3eae3c6d	0.34030476
143	0x3e7268c7	0.23672782
144	0x3ea01ba3	0.31271085
145	0x3e367057	0.17816292
146	0x3e09ade1	0.13445236
147	0x3e062245	0.1309901
148	0x3e40d564	0.18831402
149	0x3e38f4e7	0.18062173
150	0x3e3b2524	0.18275887
151	0x3e8dcb54	0.2769419
152	0x3d0c77e3	0.03429402
153	0xbe33d54f	-0.1756184
154	0x3cc857c1	0.024455907
155	0xbe55b2e1	-0.20869018
156	0x3e2d06b3	0.16897087
157	0xbe0f25d3	-0.13979273
158	0xbe843422	-0.25821024
159	0x3e531daa	0.20616785
160	0xbe2eb3ce	-0.17060778
161	0x3d4560e7	0.048188116
162	0x3e9a986a	0.30194408
163	0xbeaf537b	-0.34243378
164	0x3e439c40	0.19102573
165	0xbe4769a8	-0.19473898
166	0x3e1c7f63	0.15282969
167	0xbe9ef812	-0.31048638
168	0xbe565b59	-0.20933284
169	0xbd97e4fa	-0.07416721
170	0xbec8d7e1	-0.39227203
171	0xbe2f1928	-0.1709944
172	0x3e48867c	0.19582552
173	0xbe43f188	-0.19135106
174	0x3db6cdd1	0.08925975
175	0x3e6a8eee	0.22906086
176	0x3c1392fd	0.009007213
177	0x3d748b16	0.059702955
178	0x3df24b61	0.11830784
179	0xbecf261b	-0.4045876
180	0xbe724bbc	-0.23661703
181	0xbe799ed2	-0.24376991
182	0x3e911fc1	0.2834454
183	0x3c8c9532	0.017160986
184	0xbd28a703	-0.0411749
185	0x3e9f7776	0.3114583
186	0xbeb23cb4	-0.34811938
187	0xbea5798d	-0.32319298
188	0x3dca25f0	0.09870517
189	0x3db9e732	0.090773
190	0x3eb677cc	0.35638273
191	0x3dfe1a3e	0.12407349
192	0x3c2271c9	0.009914824
193	0x3e4b40b8	0.19848907
194	0xbde1756a	-0.11008723
195	0xbdf95297	-0.12173956
196	0x3e9018bd	0.28143874
197	0x3e658666	0.2241455
198	0x3ec48774	0.38384593
199	0x3e95f463	0.29288015
200	0xbc983e9e	-0.018584546
201	0xbe56aa34	-0.20963365
202	0x3e74d8c7	0.23910819
203	0xbe812331	-0.2522216
204	0x3e91389c	0.28363502
205	0x3dee4838	0.116348684
206	0xbe8a2a32	-0.26985317
207	0x3e911a6d	0.28340474
208	0xbe231958	-0.15927637
209	0xbe563d8f	-0.2092192
210	0xbea61805	-0.324402
211	0xbe8feb90	-0.28109407
212	0xbe8c6d9b	-0.27427372
213	0xbdc1176f	-0.09428298
214	0x3e83b219	0.25721815
215	0x3dc77ed3	0.09740987
216	0xbe897d7d	-0.26853552
217	0x3dd86b64	0.10567358
218	0xbe92ba27	-0.28657648
219	0xbe89083e	-0.267641
220	0x3e836b41	0.25667766
221	0xbd9fa90b	-0.07795914
222	0x3f0270ef	0.50953573
223	0x3d9a9c3a	0.07549329
224	0xbe1754a9	-0.14778389
225	0xbd77c67c	-0.060492024
226	0x3edfe2e2	0.43727785
227	0x3dd10719	0.10206432
228	0xbe5318ee	-0.20614979
229	0x3e1c486c	0.15262002
230	0x3f0de34c	0.5542495
231	0x3e605595	0.21907647
232	0x3e285ba8	0.16441214
233	0x3e4c5754	0.19955188
234	0xbc41b660	-0.011823267
235	0x3e4b00fe	0.19824597
236	0xbe81930a	-0.25307494
237	0xbe489d5d	-0.1959128
238	0x3e8a3099	0.26990202
239	0x3e2b90c8	0.16754448
240	0x3e47f41c	0.19526714
241	0xbe87df67	-0.2653763
242	0x3e55a14a	0.20862308
243	0xbe9145bf	-0.28373525
244	0xbd614f5e	-0.05500733
245	0x3eaa6c17	0.3328559
246	0xbe91b0c6	-0.2845518
247	0xbe93f210	-0.28895617
248	0xbe87f5e6	-0.26554793
249	0x3e606a20	0.21915483
250	0xbe057b48	-0.1303531
251	0x3eadfb24	0.33980668
252	0xbe05603d	-0.13024993
253	0xbe2308a0	-0.15921259
254	0x3e9516a5	0.2911884
255	0x3e68fb97	0.22752224

layers.0.bias f4 [64]
0	0x3afc0960	0.0019228868
1	0xbb939981	-0.004504383
2	0xbca8137a	-0.0205171
3	0x3ca4ff31	0.020141216
4	0xbc2db7a4	-0.010602865
5	0xba22bb22	-0.00062076945
6	0xbcceee21	-0.025260033
7	0x3c855281	0.016274692
8	0xb9f4eb08	-0.0004671442
9	0x3b967b90	0.0045923665
10	0x3c3e3ab8	0.011610679
11	0xbc830610	-0.015994102
12	0x3c4ed3a2	0.012623699
13	0xbc2d6385	-0.010582809
14	0xba22ce98	-0.00062105944
15	0xbb92d1a8	-0.0044805594
16	0xbad1a2e8	-0.0015993984
17	0x3b5b96e3	0.0033506684
18	0xbb70d349	-0.003674703
19	0x3c7c9ff7	0.015418998
20	0x39c25d64	0.00037072145
21	0xbbece9a8	-0.0072300024
22	0x3b9de2bc	0.0048182886
23	0x3abb322d	0.0014281921
24	0x3b204637	0.0024455914
25	0x3c97ec33	0.018545246
26	0xbc558e1b	-0.013034369
27	0x3bef2548	0.0072981454
28	0x3c9e8e00	0.01935482
29	0xbc124131	-0.008926676
30	0x3bd3d0e1	0.0064641093
31	0x3b9b39c2	0.00473711
32	0x3b094c2f	0.002094995
33	0xbbc76f66	-0.006086278
34	0xb9f0ab75	-0.00045904113
35	0xbb870b31	-0.004121207
36	0x3cd1f3d1	0.025628956
37	0x3c258991	0.010103599
38	0xbcae7d7d	-0.021300072
39	0x3d051634	0.032491878
40	0xbc1ffa26	-0.00976423
41	0x39cb710a	0.00038803398
42	0xbc24e48f	-0.010064258
43	0x3bf03fda	0.0073318304
44	0x3b0c728c	0.002143058
45	0xbbb21ab8	-0.005435314
46	0x3aa81c60	0.0012825839
47	0xb9447f81	-0.00018739516
48	0xbc1aba59	-0.009443843
49	0xbc577a30	-0.01315169
50	0xbba5075b	-0.005036277
51	0x3c1b2b15	0.009470721
52	0x3c026c2e	0.007960362
53	0xbb9ada4f	-0.0047257314
54	0xbc231856	-0.009954533
55	0xb83c01ca	-4.482436e-05
56	0x3ad4e8eb	0.0016243731
57	0x3887bc33	6.4723565e-05
58	0x3c512243	0.012764516
59	0xbbdfc856	-0.006829302
60	0xbc7fde18	-0.015616916
61	0xba24e17c	-0.00062897033
62	0x3cfdeb53	0.030996
63	0x3c2c8836	0.010530522

layers.2.weight f4 [64, 64]
0	0xbddeb0da	-0.108735755
1	0x3dbd6e45	0.09249548
2	0x3e1f11d6	0.15534148
3	0xbbaff0fd	-0.005369304
4	0x3ccbff53	0.024902022
5	0xbdc78860	-0.09742808
6	0xbd22118d	-0.03956752
7	0x3de26277	0.11053937
8	0x3e321a51	0.17392851
9	0x3dd349c3	0.10316803
10	0x3d1a7991	0.03771359
11	0xbe24c908	-0.16092312
12	0x3c73d0d8	0.014881335
13	0xbe084465	-0.1330734
14	0xbdaa8ff0	-0.08328235
15	0x3e022c32	0.12712172
16	0xbc8de551	-0.01732126
17	0xbe17819f	-0.1479554
18	0x3d41aea7	0.047285702
19	0xbde55918	-0.11198634
20	0x3e05bdfb	0.13060753
21	0x3da1d837	0.07902568
22	0xbe42f45d	-0.1903853
23	0xbdb99949	-0.0906244
24	0x3e379328	0.1792723
25	0x3de2b9b1	0.11070574
26	0xbd9b9eea	-0.0759867
27	0xbd4abeb5	-0.04949828
28	0xbe461223	-0.19342856
29	0xbe005c61	-0.1253524
30	0x3d1bc7f6	0.038032494
31	0x3e5e551e	0.21712157
32	0xbe45246a	-0.19252172
33	0x3e1fd0ee	0.15607044
34	0x3dca8835	0.09889261
35	0x3e0f21c5	0.13977726
36	0x3e2137a7	0.15743886
37	0xbd775664	-0.060385123
38	0x3d7e3fa8	0.062072426
39	0x3d377c7e	0.04479646
40	0x3d764011	0.060119692
41	0x3e150977	0.14554392
42	0xbd7aa45d	-0.061191905
43	0xbdbf4f2c	-0.09341273
44	0xbdf5baf3	-0.11998548
45	0x3e27b222	0.16376546
46	0xbc2ad3db	-0.010426487
47	0xbdcada99	-0.099049754
48	0x3e1b554a	0.15169254
49	0x3e46024d	0.19336815
50	0x3e5d6861	0.21621849
51	0x3cba3e01	0.022734644
52	0xbdb50219	-0.08838291
53	0xbe06ecd4	-0.1317628
54	0x3d80a4fc	0.06281468
55	0xbdd90cde	-0.10598157
56	0xbd008f15	-0.031386454
57	0xbdcd5f5e	-0.100279555
58	0xbd6652b2	-0.05623121
59	0x3e43ec3f	0.1913309
60	0xbdbefe8b	-0.09325894
61	0xbe2995e4	-0.16561085
62	0x3d9d4ba3	0.07680442
63	0xbda21237	-0.079136305
64	0xbdf20ad0	-0.118184686
65	0xbdcd2e63	-0.10018613
66	0xbd9d51d3	-0.07681622
67	0x3d2a402f	0.041565116
68	0xbe58e643	-0.21181588
69	0xbe1d2f13	-0.15349989
70	0x3e343904	0.17599875
71	0xbd8c104a	-0.068390444
72	0xbb8e4264	-0.0043414105
73	0xbe94fa44	-0.29097188
74	0xbe957fb6	-0.29198998
75	0xbe08a2bb	-0.13343327
76	0xbe493e0f	-0.1965258
77	0x3d415076	0.047195874
78	0x3e19df44	0.15026575
79	0x3e0376a0	0.1283822
80	0xbe5f0c16	-0.21781954
81	0xbdd7b580	-0.10532665
82	0xbde6cc35	-0.11269418
83	0xbdf6bfa2	-0.1204827
84	0x3e04c858	0.1296705
85	0x3dc42b14	0.09578529
86	0xbd73d92d	-0.059533287
87	0x3e47db1c	0.19517177
88	0x3e353ffc	0.1770019
89	0xbdbe4b0a	-0.09291656
90	0x3e2fe801	0.17178346
91	0xbe0059b4	-0.12534219
92	0x3d756d83	0.05991889
93	0x3c8df100	0.017326832
94	0xbc8ffe12	-0.017577205
95	0x3d61d077	0.05513045
96	0xbdc32d63	-0.09530141
97	0x3da00f49	0.078154154
98	0x3d2c31bb	0.042039614
99	0x3e0df542	0.1386309
100	0x3e55de2c	0.20885533
101	0x3d6b8c97	0.057507124
102	0xbe225213	-0.15851621
103	0xbe33fb5a	-0.17576352
104	0xbcfb41cd	-0.030671025
105	0x3dc79bdf	0.09746527
106	0xbe43892e	-0.19095299
107	0x3d6f6d1a	0.058453657
108	0x3de342a7	0.11096697
109	0xbe1ee2dd	-0.15516229
110	0xbe89e1be	-0.2693004
111	0x3e7ce14a	0.24695316
112	0xbdbc110a	-0.091829374
113	0x3e328183	0.17432217
114	0xbd3a08d2	-0.045418568
115	0x3e60294b	0.21890752
116	0xbd97015e	-0.07373308
117	0xbdbf3616	-0.09336488
118	0xbe894252	-0.2680841
119	0x3e138bd7	0.14408813
120	0xbe0a907f	-0.13531683
121	0x3e833209	0.2562411
122	0x3e2c24ce	0.16810915
123	0xbcef3b14	-0.029202975
124	0xbe0804ce	-0.13283083
125	0xbe5c5540	-0.21516895
126	0x3cae6a4a	0.021290917
127	0xbdc1ce7e	-0.094632134
128	0xbd72d5ec	-0.059286043
129	0xbdeadcc7	-0.11467891
130	0xbcb3caa7	-0.021947218
131	0xbcb1b053	-0.021690523
132	0x3e222915	0.15835984
133	0x3de18930	0.110124946
134	0x3e88749b	0.26651463
135	0xbe05465c	-0.13015121
136	0x3e1715b9	0.1475438
137	0x3ec55098	0.3853805
138	0x3db25f62	0.08709599
139	0x3dd5de1b	0.10442754
140	0x3e8b93ff	0.2726135
141	0x3e4ff308	0.20307553
142	0xbd870b06	-0.065938994
143	0x3d12f423	0.03587736
144	0x3cc0df70	0.023544043
145	0xbde83f37	-0.11340182
146	0x3de5437b	0.111945115
147	0xbd144d6e	-0.036206655
148	0xbe457980	-0.1928463
149	0x3e87c9e2	0.26521212
150	0x3e307126	0.17230663
151	0xbe91d94d	-0.284861
152	0x3e204c53	0.15654115
153	0x3d4312e2	0.04762543
154	0x3e4f9d7f	0.20274924
155	0xbe98259c	-0.29716194
156	0x3ccf0d48	0.025274888
157	0xbe95bfab	-0.29247794
158	0x3eb4fbeb	0.35348448
159	0x3e10daef	0.14146017
160	0x3c3017a0	0.01074782
161	0x3e05c430	0.13063121
162	0xbe07e44e	-0.13270685
163	0xbe3e0205	-0.18555458
164	0xbe3c9a4a	-0.18418232
165	0xbe2b283e	-0.1671457
166	0xbdfec0e7	-0.12439137
167	0xbe7ad7c2	-0.24496368
168	0x3e480591	0.19533373
169	0x3e06a2df	0.13148068
170	0x3d2137bd	0.039359797
171	0x3de38cbd	0.11110828
172	0x3d5efe0f	0.054441508
173	0xbdee65c4	-0.11640504
174	0x3e88ff55	0.26757303
175	0xbd854109	-0.06506545
176	0x3e1f74c8	0.15571892
177	0xbeaf31f5	-0.34217802
178	0x3e287b07	0.16453181
179	0xbd76b44f	-0.06023055
180	0x3dbf1f67	0.093321614
181	0x3df8594d	0.12126408
182	0x3eb99a7f	0.36250684
183	0xbe292ac6	-0.16520223
184	0x3d8b6c2f	0.06807744
185	0xbe85ef71	-0.26159242
186	0xbe8f6d56	-0.28013104
187	0x3da7e495	0.081978954
188	0xbdd986c9	-0.10621411
189	0x3e802442	0.25027663
190	0xbc7becf4	-0.015376318
191	0x3e00832a	0.12550035
192	0xbde3c80e	-0.11122142
193	0xbe4f18e1	-0.20224334
194	0xbe114da2	-0.14189771
195	0xbd804404	-0.06262973
196	0x3e11cacf	0.14237522
197	0xbd2acec6	-0.0417011
198	0x3c9325ee	0.017962422
199	0xbe2cb911	-0.16867472
200	0xbe247eac	-0.16063946
201	0x3e408392	0.1880019
202	0x3e2344a3	0.15944152
203	0x3d50a783	0.050941
204	0x3b84ce06	0.00405288
205	0x3d9fe97b	0.07808205
206	0x3e2fc311	0.17164256
207	0x3d6fc119	0.05853376
208	0xbcd7b24b	-0.026330134
209	0xbd958cb1	-0.073022254
210	0xbe576d38	-0.21037757
211	0x3da1400d	0.07873545
212	0xbe51e260	-0.20496511
213	0xbe3ade5b	-0.18248884
214	0x3e7a1da9	0.24425377
215	0x3d9d5591	0.07682336
216	0xbe135edc	-0.14391655
217	0xbe374611	-0.17897822
218	0x3d7392d6	0.059466206
219	0x3df525c4	0.11970094
220	0x3e071853	0.13192873
221	0x3d85d016	0.0653383
222	0xbe33cf0c	-0.17559451
223	0xbde1b231	-0.110203154
224	0xbd0a1c07	-0.033718135
225	0x3e110543	0.14162163
226	0x3e41185a	0.18856946
227	0xbd09f7c7	-0.033683565
228	0x3d037c77	0.03210112
229	0xbd114a57	-0.035471287
230	0x3e3a993a	0.18222514
231	0x3e52de98	0.20592725
232	0x3dcdf547	0.100565486
233	0x3c4f236b	0.012642722
234	0x3c8b81cb	0.017029664
235	0xbd4c0a84	-0.049814716
236	0xbd926e5d	-0.071499564
237	0xbd7ecc21	-0.06220639
238	0x3daaf9c4	0.0834842
239	0xbc8a1d92	-0.016859803
240	0xbe26382d	-0.16232367
241	0x3e3c52f5	0.1839102
242	0x3e3c14ad	0.18367262
243	0x3d39ef86	0.045394443
244	0x3dfbe110	0.12298787
245	0x3c218c8b	0.009860168
246	0xbe463c9b	-0.19359057
247	0xbd7d90f6	-0.061905824
248	0xbe7e2424	-0.24818474
249	0x3db1f356	0.08688991
250	0x3d8e4c33	0.069481276
251	0x3d641733	0.055686187
252	0xbe2b8637	-0.16750418
253	0x3d6641b8	0.056215018
254	0x3c9e2ed0	0.019309431
255	0x3e22479f	0.15847634

layers.2.bias f4 [64]
0	0x3b15c8cd	0.0022855282
1	0xbc5e0b38	-0.013552479
2	0xbc2449fe	-0.010027407
3	0xbb875164	-0.0041295756
4	0xbc37ac6b	-0.011210541
5	0x3b4e0a43	0.0031439222
6	0xbb8e8fec	-0.004350653
7	0x3c3f77b0	0.011686251
8	0xbb9a2d4e	-0.004705108
9	0xbba6e02a	-0.0050926404
10	0xba859d18	-0.0010193912
11	0x3c55c48b	0.013047348
12	0xbb1cad6b	-0.0023907076
13	0xbb37abd2	-0.0028025997
14	0x3b413d81	0.0029486122
15	0x3b08e4e7	0.002088839
16	0x3c026365	0.007958268
17	0xbb6349e2	-0.0034681489
18	0x3b35f102	0.002776206
19	0x3a1c34bc	0.0005958786
20	0x3aa7e45b	0.0012809144
21	0x3c204775	0.009782662
22	0x3bdabef4	0.0066755954
23	0x3b9305b7	0.0044867652
24	0xbbec246e	-0.007206491
25	0x3b860bee	0.0040907776
26	0x3aabca1d	0.0013106499
27	0x3b3082d0	0.002693344
28	0xbab79499	-0.0014006078
29	0x3a0357b8	0.00050103245
30	0xbbddc534	-0.006767893
31	0xbcb2d03c	-0.02182781
32	0x3baa04bf	0.005188554
33	0xbcaf68ca	-0.021412272
34	0xbc6601ca	-0.0140385125
35	0x3b83cea0	0.0040224344
36	0x3bbaf64d	0.005705631
37	0x3bc61096	0.0060444577
38	0x3b662625	0.003511795
39	0xba25bba0	-0.0006322209
40	0x3b549ccd	0.0032442093
41	0xbca3aceb	-0.019979915
42	0x395bed00	0.00020973757
43	0x3c0515c7	0.008122868
44	0x3b5dd8d9	0.0033851175
45	0xbb79d70b	-0.003812256
46	0x3ba09041	0.004900009
47	0xbaaab2df	-0.0013023278
48	0xbc18d08d	-0.009327066
49	0x3b8053f3	0.0039162575
50	0x3af6bda1	0.0018824824
51	0x3c80ed7f	0.015738247
52	0xbba74697	-0.0051048505
53	0xbb9067dc	-0.0044069123
54	0x3afea06c	0.0019426472
55	0xbb055015	-0.0020341922
56	0xbb9d84ad	-0.004807076
57	0x3b3d23c2	0.0028860425
58	0xbac43def	-0.0014972071
59	0xb99ebf96	-0.0003027885
60	0x3b74564e	0.0037282887
61	0x3ace7559	0.0015751525
62	0x3bba15c2	0.0056788633
63	0xbc150d6a	-0.009097436

output_layer.weight f4 [2, 64]
0	0xbe492915	-0.19644578
1	0xbd238b87	-0.039927986
2	0xbcb69429	-0.022287445
3	0xbe3ab533	-0.18233185
4	0xbaba4175	-0.0014210182
5	0xbe4c060d	-0.19924183
6	0xbcb9ac8f	-0.02266529
7	0xbd79eb54	-0.061015442
8	0xbdbc3424	-0.091896325
9	0xbe515d67	-0.20445786
10	0x3e3c67db	0.18398993
11	0xbdc33b2e	-0.09532772
12	0xbdac4063	-0.08410718
13	0x3d94f358	0.07272977
14	0x3e80d5bb	0.25163063
15	0xbd655655	-0.055990536
16	0xbe409736	-0.18807682
17	0x3e39495e	0.18094394
18	0xbbc07029	-0.0058727455
19	0xbc7e3a70	-0.015516862
20	0xbe892c8e	-0.26791805
21	0x3c505957	0.012716613
22	0x3e74c639	0.23903741
23	0xbc70f19d	-0.014706043
24	0x3e4497fb	0.19198601
25	0xbe3070bf	-0.17230509
26	0x3e97c95c	0.29645813
27	0x3dda88fe	0.106706604
28	0x3e50bca6	0.20384464
29	0x3e2aed0a	0.16691986
30	0x3c8e39c9	0.017361538
31	0xbd705469	-0.05867425
32	0xbe0d92ea	-0.13825575
33	0x3e31acf8	0.17351139
34	0x3e49a4b4	0.19691736
35	0x3e0552ec	0.13019913
36	0xbe9b546e	-0.30337852
37	0x3e635c48	0.22203171
38	0x3e52d436	0.20588765
39	0x3e85c51f	0.26126954
40	0x3d1375c5	0.036000986
41	0x3d437c9c	0.04772626
42	0xbd300800	-0.04297638
43	0xbe110968	-0.14163744
44	0x3e219d49	0.15782656
45	0xbde14205	-0.1099892
46	0xbe92ef60	-0.28698254
47	0x388c6536	6.694572e-05
48	0xbdb292d4	-0.087194115
49	0xbddfee67	-0.109341435
50	0xbe5ab66b	-0.2135865
51	0x3dcb788f	0.09935104
52	0x3ca5693c	0.020191781
53	0x3e955820	0.29168797
54	0x3dfbeb31	0.123007186
55	0xbde28333	-0.110601805
56	0xbe26fa61	-0.1630645
57	0x3e79c5f5	0.24391921
58	0xbd900f02	-0.070341125
59	0xbd4049fb	-0.046945553
60	0xbdd7a98c	-0.105303854
61	0x3e42f55d	0.19038911
62	0x3e0d8cb3	0.13823204
63	0xbe1a6c7c	-0.15080446
64	0x3dd15578	0.1022138
65	0x3dfa9c25	0.122368135
66	0xbe886364	-0.2663833
67	0xbe48b320	-0.19599581
68	0x3e5039e5	0.20334585
69	0x3cc1d30d	0.023660207
70	0x3e116d8c	0.14201945
71	0xbd7f687a	-0.062355496
72	0xbe22e75c	-0.15908569
73	0xbd681b74	-0.056666806
74	0xbe7e9f37	-0.24865423
75	0xbd55d8f4	-0.052208856
76	0x3d274ebf	0.040846583
77	0xbe369c84	-0.17833143
78	0x3da4a16c	0.08038601
79	0xbdeb1811	-0.114792
80	0xbe1f37e4	-0.15548664
81	0xbe4f1ce3	-0.20225863
82	0xbe310126	-0.17285594
83	0xbe7efc9d	-0.24901052
84	0x3e7f4dac	0.24931973
85	0xbd8ccb8a	-0.068747595
86	0xbe538040	-0.20654392
87	0x3de4ed95	0.11178128
88	0x3e1bc3a1	0.15211345
89	0x3dbbc6a0	0.09168744
90	0x3bd694a8	0.006548483
91	0xbe884817	-0.266175
92	0x3dfd0a49	0.12355477
93	0xbd4df239	-0.05027983
94	0x3df4e3a3	0.11957481
95	0xbe85028e	-0.25978512
96	0x3d26707a	0.04063461
97	0xbe8e796f	-0.2782702
98	0x3e8416a7	0.25798532
99	0x3e37e97b	0.1796016
100	0xbe5e4c85	-0.21708877
101	0x3e03e694	0.12880927
102	0x3e7262be	0.2367048
103	0xbe5ecb97	-0.21757351
104	0x3e346fa1	0.17620708
105	0x3d681f06	0.05667021
106	0x3e0ecbca	0.13944927
107	0xbde8514f	-0.113436334
108	0x3cd6fd74	0.026243903
109	0x3deb0cf6	0.114770815
110	0xbba5e9e9	-0.0050632847
111	0xbea3d9e1	-0.32002166
112	0xbda42615	-0.08015076
113	0x3e4b4612	0.19850948
114	0xbcfc8e32	-0.030829523
115	0xbdb5c598	-0.08875579
116	0xbe7fdf7d	-0.24987598
117	0x3e478bda	0.19486943
118	0x3e68637c	0.226942
119	0xbcf41bd7	-0.029798431
120	0xbe2437e1	-0.16036941
121	0xbd411118	-0.047135442
122	0x3d7b683d	0.061378706
123	0xbe3826ae	-0.17983505
124	0x3e8e3d5b	0.27781186
125	0xbd40a540	-0.047032595
126	0xbe96cfc1	-0.2945538
127	0x3e0313ba	0.12800494

output_layer.bias f4 [2]
0	0xbb7551f3	-0.0037432879
1	0x3b75523b	0.0037433046

layers.0.weight f4 [64, 4]
0	0xbe223826	-0.15841731
1	0x3e4ad64b	0.19808309
2	0x3dd2a263	0.10284879
3	0x3d5c0bab	0.053722065
4	0xbd8d48f8	-0.06898683
5	0xbdf35a29	-0.11882431
6	0x3bdd31b4	0.00675031
7	0xbe55775f	-0.20846318
8	0xbe7161cc	-0.23572463
9	0x3d8637b1	0.06553591
10	0x3d89c962	0.06727864
11	0xbe774a3b	-0.2414941
12	0xbe3f3131	-0.18671109
13	0x3d914acd	0.07094345
14	0x3e81aaf0	0.25325727
15	0xbcd866ad	-0.026416147
16	0x3db57610	0.08860409
17	0x3e322418	0.17396581
18	0xbe66e9ff	-0.225502
19	0xbdea3d68	-0.114374936
20	0x3e64a3ce	0.22328112
21	0x3d50a0dc	0.050934657
22	0xbe021b02	-0.12705615
23	0xbdce1b5c	-0.10063812
24	0xbd8378bf	-0.06419515
25	0xbd876b4d	-0.06612263
26	0x3cc21416	0.023691218
27	0x3e655319	0.2239498
28	0xbe87e9bb	-0.2654551
29	0x3de40f2c	0.11135706
30	0x3dd532b9	0.10410065
31	0xbd77ab5a	-0.060466148
32	0xbd6cd2c6	-0.057818197
33	0x3ddb62ff	0.107122414
34	0x3e1bd2ca	0.15217128
35	0x3d10a68b	0.035315078
36	0x3dcaa53a	0.09894796
37	0x3e64d20a	0.22345749
38	0xbd9aadd8	-0.07552689
39	0xbe82842d	-0.25491467
40	0xbd488fc2	-0.048965223
41	0xbcb60555	-0.02221934
42	0xbdee2321	-0.11627794
43	0xbd727fb5	-0.059203822
44	0xbe4a578a	-0.19759956
45	0xbe779b1c	-0.24180263
46	0x3e56ad0b	0.20964448
47	0xbe4eba0c	-0.20188159
48	0xbe77b2eb	-0.24189346
49	0x3e53dac8	0.20688927
50	0x3e7a46a5	0.24441011
51	0xbe7687f1	-0.24075295
52	0xbda504c4	-0.080575496
53	0xbba6c4e4	-0.005089389
54	0xbda8868d	-0.082287885
55	0xbde65372	-0.11246385
56	0xbe2d3c75	-0.16917594
57	0x3cb43727	0.021998955
58	0x3d1469e0	0.036233783
59	0x3e4ab0c8	0.19793999
60	0x3d99b035	0.07504312
61	0x3e24caa2	0.16092923
62	0xbe998daa	-0.29990894
63	0x3e2c71f9	0.16840352
64	0xbd8d54b2	-0.0690092
65	0x3e42a6de	0.19008967
66	0x3d6c4d7c	0.057691082
67	0xbe18e7a7	-0.14932118
68	0xbdd7e8f0	-0.10542476
69	0xbe4fc2da	-0.20289174
70	0xbea20e49	-0.31651524
71	0x3e82a82d	0.25518933
72	0x3d095ec3	0.033537637
73	0xbd831bed	-0.06401811
74	0xbe58dae3	-0.21177249
75	0x3e2cde9c	0.16881794
76	0x3e4a5153	0.19757585
77	0x3e17ab99	0.14811553
78	0xbe2126da	-0.15737477
79	0x3e4bcff2	0.19903544
80	0x3e61daa1	0.22056057
81	0xbe8dbfd8	-0.27685428
82	0xbd38e0ae	-0.045136146
83	0xbe06d3ab	-0.13166682
84	0x3cf0dfb1	0.02940354
85	0xbe94401a	-0.28955156
86	0xbe788367	-0.24268876
87	0xbe21e2b3	-0.15809135
88	0xbe464c74	-0.19365102
89	0x3e8ad70d	0.27117196
90	0x3e8be882	0.27325827
91	0xbd7083b2	-0.058719344
92	0x3e1d2aad	0.15348311
93	0x3e1f6859	0.15567149
94	0x3e8f74b0	0.28018713
95	0xbe04eb3d	-0.12980361
96	0x3e5f20cb	0.21789853
97	0xbe381d1b	-0.17979853
98	0x3e8add03	0.27121744
99	0x3e4d20ac	0.20031995
100	0x3e2eff32	0.17089537
101	0xbe50a6d7	-0.20376144
102	0x3d2641e5	0.040590186
103	0xbc349f80	-0.011024356
104	0x3d708657	0.058721866
105	0xbd08601a	-0.033294775
106	0x3d259157	0.04042181
107	0xbd731dd6	-0.059354626
108	0xbdae047e	-0.084969506
109	0x3c433c94	0.011916298
110	0x3ddaa963	0.10676839
111	0xbe5efc3e	-0.2177591
112	0x3de644f4	0.112436205
113	0xbe57896d	-0.21048518
114	0x3d9bcc68	0.07607347
115	0xbcb36751	-0.021899851
116	0xbc80d3e7	-0.015726043
117	0x3de97106	0.11398511
118	0xbe0994b7	-0.13435636
119	0xbdbdf75b	-0.09275695
120	0x3e53f898	0.207003
121	0xbce56c63	-0.028005784
122	0x3e8090ce	0.25110477
123	0x3e2ce2f4	0.16883451
124	0xbdebe78a	-0.11518772
125	0xbe757e59	-0.23973979
126	0x3dfc3591	0.123149045
127	0x3da08e49	0.07839639
128	0x3bb1c9c1	0.0054256623
129	0xbdc1ce34	-0.09463158
130	0xbe15f59c	-0.14644474
131	0xbdf7f71c	-0.12107679
132	0x3e68e094	0.2274192
133	0x3d227e4c	0.039671227
134	0x3e4ff61e	0.2030873
135	0xbe7ddc3f	-0.24791048
136	0xbd96a07c	-0.07354829
137	0xbe336f30	-0.17522883
138	0xbd7505bc	-0.05981992
139	0xbde952e5	-0.11392764
140	0xbe6fe9b6	-0.23428997
141	0xbe0dd79e	-0.13851783
142	0x3e360f44	0.17779261
143	0xbe5b6f07	-0.21429072
144	0xbe657896	-0.22409281
145	0xbe8785e4	-0.26469338
146	0x3e6f8f81	0.23394586
147	0xbc2b2ffa	-0.01044845
148	0x3e402bdf	0.18766735
149	0x3e03a0e3	0.12854342
150	0x3dfc6be4	0.12325266
151	0x3e384844	0.17996317
152	0x3e36302b	0.17791812
153	0xbd8d5dba	-0.069026425
154	0x3e2a598f	0.16635726
155	0x3e150fb2	0.14556769
156	0xbdf59545	-0.119913615
157	0x3d4dc805	0.05023958
158	0x3e8b4db3	0.27207717
159	0xbd65ac32	-0.05607242
160	0x3dc355ff	0.09537887
161	0x3d6e7d4d	0.058224965
162	0x3e8368b0	0.25665808
163	0xbd8627fe	-0.06550597
164	0x3dd6c5fb	0.104869805
165	0xbc7ae70d	-0.015313876
166	0x3e319fd2	0.17346123
167	0x3e62eb74	0.2216013
168	0xbe39d318	-0.18146932
169	0x3e88c363	0.26711568
170	0xbe9bdce5	-0.30441967
171	0xbdb56d1e	-0.08858703
172	0x3e4e333f	0.20136736
173	0x3e2064d0	0.15663457
174	0xbe4549aa	-0.19266382
175	0x3d772995	0.06034239
176	0xbde13f62	-0.109984174
177	0xbe53bc9c	-0.20677418
178	0x3e188617	0.14894901
179	0x3d79efe4	0.061019793
180	0x3e3a64ca	0.1820251
181	0xbe862a86	-0.26204318
182	0x3de22a7a	0.11043258
183	0xbc6050f9	-0.01369118
184	0x3e204c71	0.1565416
185	0x3d0aa04d	0.03384428
186	0xbdedefa3	-0.11617973
187	0x3e3990cd	0.18121643
188	0xbc9ea80a	-0.019367237
189	0x3d50a132	0.050934978
190	0xbdf6efb2	-0.12057437
191	0x3e49be92	0.19701603
192	0x3e461d2d	0.19347067
193	0x3e8fecef	0.28110453
194	0xbe01c99b	-0.12674563
195	0xbd0dd6e5	-0.034628768
196	0xbe5890ff	-0.21149062
197	0xbe11fd91	-0.14256884
198	0x3e5722af	0.21009324
199	0xbd0bcd97	-0.034131613
200	0xbddeb873	-0.10875025
201	0xbe2d3520	-0.16914797
202	0xbe09c5d7	-0.13454376
203	0x3e03052a	0.12794939
204	0x3d550c8a	0.05201391
205	0x3e425969	0.1897942
206	0xbe7a4d7d	-0.24443622
207	0x3c008460	0.007844061
208	0x3e5842a2	0.21119168
209	0xbc94b629	-0.018153267
210	0xbe0dedbf	-0.13860224
211	0x3d9bba7c	0.076039284
212	0x3e5e816d	0.2172906
213	0x3e323c36	0.17405781
214	0x3e1a796c	0.15085381
215	0x3d3cc807	0.0460892
216	0x3e1dc8cd	0.1540863
217	0xbe5d3647	-0.21602736
218	0xbdec6d8f	-0.11544334
219	0xbe84db6c	-0.25948656
220	0x3e0b6461	0.1361251
221	0xbde68864	-0.11256483
222	0xbe1f1e11	-0.15538813
223	0xbe4bb76e	-0.19894192
224	0x3e8c1be9	0.27365044
225	0xbe8fc8ac	-0.28082788
226	0x3e623fcb	0.22094648
227	0xbe146c89	-0.14494528
228	0x3e85e416	0.26150578
229	0xbda15bd4	-0.07878843
230	0xbe83428b	-0.25636706
231	0x3df09429	0.11747009
232	0x3e25b138	0.16180885
233	0x3e2eb0cc	0.1705963
234	0x3dde20fc	0.10846135
235	0xbe1e7633	-0.15474777
236	0xbe5753aa	-0.21028009
237	0x3db68e19	0.08913822
238	0xbe79ae21	-0.24382831
239	0x3dcc3213	0.099704884
240	0x3c6e7b8e	0.014555825
241	0x3dc7789b	0.097398005
242	0x3e6a55b3	0.22884254
243	0x3e90d177	0.2828481
244	0xbc948df8	-0.018134102
245	0xbde4db28	-0.11174613
246	0x3e82f789	0.2557948
247	0x3e3a81cc	0.18213576
248	0xbe7559cc	-0.23960036
249	0xbdb14892	-0.0865642
250	0x3df9c9a7	0.12196665
251	0xbdbb03ad	-0.091315605
252	0x3d972e12	0.07381834
253	0xbc381d35	-0.011237432
254	0x3db381d2	0.08764996
255	0xbe471a03	-0.19443516

layers.0.bias f4 [64]
0	0x3e6fe5dd	0.2342753
1	0x3e8ca4c7	0.27469465
2	0xbe6c2d89	-0.23064245
3	0xbe64b07d	-0.2233295
4	0x3e558062	0.20849755
5	0xbe7df49a	-0.2480034
6	0x3e973187	0.29529974
7	0xbe89dd53	-0.2692667
8	0x3e8cfe04	0.2753755
9	0x3e896432	0.26834255
10	0x3e78038e	0.24220106
11	0x3e94657b	0.28983673
12	0xbe722edd	-0.2365069
13	0xbe6c873a	-0.2309846
14	0xbe50b30d	-0.20380802
15	0xbe694d38	-0.22783363
16	0x3e9098a1	0.28241447
17	0xbe629f47	-0.22131072
18	0xbe93e69d	-0.2888688
19	0xbe893695	-0.26799455
20	0x3e6e3ad0	0.23264623
21	0x3e796a08	0.24356854
22	0x3e4d31ac	0.2003848
23	0xbe964e47	-0.29356596
24	0xbe3e0637	-0.18557058
25	0x3e66a551	0.22524
26	0x3e83e3be	0.2575969
27	0x3ea134a7	0.31485483
28	0xbe654ae9	-0.22391857
29	0x3e4bafdc	0.19891304
30	0xbe86d88e	-0.26337093
31	0xbe65a385	-0.22425659
32	0x3e75ef60	0.24017096
33	0x3e7688ef	0.24075674
34	0xbe64133e	-0.22272965
35	0xbe684c4b	-0.22685353
36	0x3e6c6200	0.23084259
37	0x3e8b18e4	0.27167428
38	0x3e60e6c1	0.21963026
39	0xbe897dd4	-0.26853812
40	0x3e8a3566	0.26993865
41	0x3e989110	0.29798174
42	0xbe85880e	-0.26080364
43	0x3e8df86c	0.27728593
44	0x3e7bbd38	0.245839
45	0xbe6780d6	-0.22607741
46	0xbe6d70d1	-0.23187567
47	0xbe90e50a	-0.28299743
48	0xbe47bb4b	-0.1950504
49	0xbe494ee2	-0.19658998
50	0x3e5dd0f5	0.21661742
51	0x3e4e2f91	0.20135333
52	0xbe862cd5	-0.2620608
53	0xbe893764	-0.26800072
54	0xbe8915b2	-0.26774365
55	0x3e9e24c0	0.30887413
56	0x3e68b0ea	0.22723737
57	0xbe91866e	-0.28422874
58	0x3e4e1e0f	0.20128654
59	0xbe6daac9	-0.2320968
60	0x3e8bf822	0.27337748
61	0x3e96389f	0.29340073
62	0x3e871e65	0.26390377
63	0x3e842c08	0.25814843

layers.2.weight f4 [64, 64]
0	0x3d090a09	0.033456836
1	0x3e763134	0.24042207
2	0xbe9d3b1b	-0.30709156
3	0xbea023ea	-0.312774
4	0x3e44d180	0.19220543
5	0xbd3ef0eb	-0.046616476
6	0xbce1dd61	-0.027571382
7	0xbcb7a072	-0.022415373
8	0x3d7b3acd	0.061335374
9	0x3e2591a2	0.16168836
10	0x3d8f876a	0.0700825
11	0x3e4b5c80	0.19859505
12	0xbe308f0a	-0.17242065
13	0xbecab07b	-0.3958777
14	0xbe38828d	-0.18018551
15	0xbea96fc1	-0.33093074
16	0x3e92f841	0.28705028
17	0xbcda0306	-0.02661277
18	0xbd9f81f7	-0.07788461
19	0xbddeee4a	-0.10885294
20	0x3eb39411	0.35073903
21	0x3e72eb59	0.2372259
22	0x36d05b4f	6.209513e-06
23	0xbe912191	-0.28345922
24	0xbdfac955	-0.12245432
25	0x3e85050e	0.2598042
26	0x3ee84b3e	0.45369905
27	0x3da330e9	0.07968313
28	0xbe76e167	-0.24109422
29	0x3d83145c	0.064003676
30	0xbe04baf7	-0.12961946
31	0xbde5b0d6	-0.112153694
32	0x3e1071b0	0.14105868
33	0x3e83da9d	0.25752726
34	0x3c03cbb1	0.008044169
35	0xbe5b8ddd	-0.21440835
36	0x3e0d2235	0.1378258
37	0x3e5e536c	0.2171151
38	0x3e8a9b69	0.27071694
39	0xbea6deae	-0.32591766
40	0x3ebd3c74	0.36960185
41	0x3e41ef1d	0.1893887
42	0xbcc1db69	-0.023664193
43	0xbd251efb	-0.04031275
44	0xbcff565e	-0.031169113
45	0x3da41213	0.0801126
46	0xbe881cc2	-0.2658444
47	0x3d34040c	0.043949172
48	0xbe4ea173	-0.20178775
49	0xbe40ef84	-0.18841368
50	0x3db2682c	0.087112755
51	0x3eb16739	0.34649065
52	0xbc8b6521	-0.017015995
53	0x3d942e9b	0.07235452
54	0xbe7b6ff8	-0.24554431
55	0x3e205031	0.1565559
56	0x3e56dcc0	0.20982647
57	0xbe27ce66	-0.16387329
58	0x3def9805	0.11698917
59	0xbeaa41c6	-0.33253306
60	0x3eaf7370	0.3426776
61	0xbcc8f714	-0.024531879
62	0x3ebd4137	0.36963817
63	0x3de92b34	0.113851935
64	0x3d00a126	0.031403683
65	0xbe35f6a5	-0.17769869
66	0xbcaa0f2c	-0.020759188
67	0x3ee1bf33	0.44091186
68	0xbe509e8a	-0.20372978
69	0x3d2754ce	0.04085236
70	0x3c419580	0.011815429
71	0x3e8d99ce	0.27656406
72	0xbdf5f42f	-0.12009465
73	0xbd0ea88c	-0.034828708
74	0xbed27bef	-0.4111018
75	0xbe838d19	-0.25693586
76	0xbd549eba	-0.051909186
77	0x3ec85418	0.39126658
78	0x3e67ec21	0.2264867
79	0x3ed357d6	0.4127795
80	0xbd308356	-0.043094
81	0xbb85225e	-0.004062935
82	0x3df44a69	0.11928255
83	0x3eaab206	0.33338946
84	0xbe611525	-0.21980722
85	0xbe1c3e25	-0.15258081
86	0xbda5c2b5	-0.08093778
87	0x3d973ee3	0.073850416
88	0x3e8090e0	0.2511053
89	0xbe4fa705	-0.20278557
90	0xbec146a4	-0.37749207
91	0xbeb1780a	-0.34661895
92	0x3e05847e	0.13038823
93	0xbdf76cbd	-0.12081287
94	0x3e92b58a	0.28654128
95	0x3b9b4343	0.004738243
96	0xbee36907	-0.44416067
97	0x3d2a4e84	0.041578785
98	0x3beb2e64	0.007177161
99	0x3e052cc2	0.13005355
100	0xbd2d28c4	-0.042275205
101	0x3bcd72eb	0.006269803
102	0xbe7970aa	-0.24359384
103	0x3e89dcbd	0.26926222
104	0xbe8e2a7b	-0.27766785
105	0xbebaf033	-0.36511382
106	0x3e585e42	0.21129707
107	0xbe804773	-0.2505451
108	0xbd10a3f6	-0.035312615
109	0x3e6382b0	0.22217822
110	0x3e9c7023	0.30554304
111	0x3c339086	0.01095975
112	0xbd2efdc2	-0.04272247
113	0x3e284086	0.16430864
114	0xbc614d22	-0.0137513
115	0xbdb1a560	-0.08674121
116	0x3e82a5db	0.25517163
117	0xbd5a6d7c	-0.05332707
118	0x3e823095	0.2542769
119	0xbeb3b861	-0.35101607
120	0xbecdb101	-0.40174106
121	0x3e7cd968	0.24692309
122	0xbdb63eec	-0.0889872
123	0x3debe95b	0.115191184
124	0xbe981188	-0.29700875
125	0x3d49e787	0.049293067
126	0xbe388c4e	-0.18022272
127	0xba203f58	-0.00061129546
128	0xbc780221	-0.015137226
129	0xbece5455	-0.40298715
130	0xbcf6bb69	-0.030118661
131	0x3eb84d9f	0.3599672
132	0xbd4c1e7a	-0.049833752
133	0xbd28c98b	-0.04120783
134	0xbe186f73	-0.14886265
135	0x3e8425be	0.25810045
136	0xbe86e768	-0.26348424
137	0xbddba31e	-0.107244715
138	0xbedd9a83	-0.43281946
139	0xbd356126	-0.0442821
140	0xbbec9a06	-0.0072205095
141	0x3ed6d65f	0.41960427
142	0x3e787786	0.24264345
143	0x3ec92a65	0.39290157
144	0xbe927e30	-0.28611898
145	0xbbf36748	-0.0074280836
146	0x3dce1e65	0.10064391
147	0x3e40797b	0.18796341
148	0xbdccfa9d	-0.10008738
149	0xbe4c12f7	-0.1992911
150	0xbe5c2edc	-0.2150225
151	0xbd4a08a6	-0.049324654
152	0x3e0c57fe	0.13705441
153	0xbd2ed3fc	-0.042682633
154	0xbd80c3ab	-0.06287321
155	0xbe916064	-0.28393853
156	0x3e95052d	0.2910551
157	0xbdfd1c37	-0.12358897
158	0x3ea1e134	0.3161713
159	0x3c8249d9	0.015904354
160	0xbee5dec6	-0.44896525
161	0x3d8061ec	0.06268677
162	0x3e082200	0.1329422
163	0x3ca85559	0.02054851
164	0xbe9a87e7	-0.3018181
165	0xbd03c947	-0.032174375
166	0xbca825e9	-0.02052589
167	0x3ec3952a	0.3819974
168	0xbdff704a	-0.12472589
169	0xbbb108a8	-0.0054026432
170	0x3e829646	0.25505275
171	0xbeac8487	-0.3369486
172	0xbdee8913	-0.116472386
173	0x3e54c1df	0.20777081
174	0x3e9a065b	0.30082974
175	0x3e8e488c	0.27789724
176	0xbc2aaa44	-0.010416571
177	0x3bd89b5e	0.006610318
178	0xbd921aae	-0.07133995
179	0xbeb8f2c7	-0.36122724
180	0x3cad5a81	0.02116132
181	0x3eb3843c	0.35061824
182	0x3ecd24c5	0.40067115
183	0xbea63a3c	-0.32466304
184	0xbe8e8915	-0.2783896
185	0x3e30ab42	0.1725283
186	0x3d991f0f	0.07476627
187	0x3e941769	0.2892411
188	0xbebb1b04	-0.3654405
189	0xbe84b4b4	-0.25919116
190	0xbd1ccabf	-0.03827929
191	0xbe7ffe96	-0.2499946
192	0x3c8a1496	0.01685552
193	0xbe3951fc	-0.18097681
194	0x3dd10785	0.10206512
195	0x3ecf8dce	0.40537876
196	0xbe5fc72b	-0.2185332
197	0x3e4ee6ad	0.20205183
198	0xbe7185eb	-0.23586242
199	0x3e1e6739	0.15469064
200	0xbe4ebd6f	-0.2018945
201	0xbe8c020a	-0.27345306
202	0xbecb1b7d	-0.3966941
203	0xbc3db5a8	-0.011578955
204	0x3e745ae3	0.23862796
205	0x3b1d782f	0.0024027934
206	0x3d3d65e3	0.046239745
207	0x3ec5c23f	0.3862476
208	0xbcb1ccc5	-0.021704087
209	0xbdc40720	-0.095716715
210	0x3e8abf5e	0.27099127
211	0x3e49091d	0.19632383
212	0xbe35e65f	-0.17763661
213	0xbea55ab5	-0.32295766
214	0xbe0b5588	-0.13606846
215	0xbd0b87cc	-0.034065053
216	0x3e5838c0	0.21115398
217	0xbe466dc5	-0.19377811
218	0xbdc1eed5	-0.09469382
219	0xbe15fd81	-0.14647485
220	0xbd289715	-0.041159708
221	0xbe04a02e	-0.12951729
222	0x3d68f1c6	0.056871198
223	0x3d97d42f	0.07413518
224	0xbece23b9	-0.4026163
225	0xbd857e8a	-0.06518276
226	0x3e043f58	0.12914789
227	0x3e2e223d	0.17005248
228	0xbe1661bc	-0.1468572
229	0xbc854da6	-0.016272377
230	0xbe9df50d	-0.3085102
231	0x3e8e19f1	0.27754167
232	0xbe9030f0	-0.28162336
233	0xbe0e34ab	-0.13887279
234	0x3d798192	0.060914584
235	0xbea93b40	-0.33053017
236	0xbe084bec	-0.13310212
237	0x3dad3e2d	0.08459125
238	0x3e1929d8	0.14957368
239	0x3e7fa97f	0.24967001
240	0x3e863afa	0.2621687
241	0x3e85eac6	0.2615568
242	0xbe243cfa	-0.16038886
243	0xbe9a7940	-0.3017063
244	0x3e57727a	0.21039763
245	0x3d5f2d30	0.054486454
246	0x3e821685	0.25407806
247	0xbec2d75f	-0.3805494
248	0xbdbb37be	-0.09141491
249	0x3e46657d	0.19374652
250	0x3df35ffa	0.118835405
251	0x3ebae152	0.3650003
252	0xbe15d19a	-0.14630738
253	0xbe9cd26b	-0.30629286
254	0xbe8865d5	-0.26640192
255	0x3d0371f5	0.0320911

layers.2.bias f4 [64]
0	0x3e0074e5	0.12544592
1	0xbe008006	-0.12548837
2	0xbe0cdca9	-0.1375605
3	0xbdebb4ea	-0.11509116
4	0x3e0a6cdb	0.13518088
5	0xbdf19d4f	-0.11797582
6	0xbdf9f706	-0.12205319
7	0x3e12d1e4	0.1433788
8	0x3e439f3d	0.19103713
9	0xbdfd2f0b	-0.12362488
10	0x3deadd25	0.11467961
11	0xbe532892	-0.20620945
12	0xbe13d194	-0.14435416
13	0x3dec696a	0.11543544
14	0x3e5e0097	0.21679913
15	0xbdf8931b	-0.12137433
16	0x3e06f562	0.13179544
17	0xbdffaf26	-0.12484579
18	0xbde87932	-0.11351241
19	0xbe37ab1d	-0.17936368
20	0x3e138644	0.14406687
21	0x3dd9ac8c	0.10628614
22	0x3df1c62a	0.11805375
23	0x3e10b64a	0.14132038
24	0xbe0a12fe	-0.13483807
25	0x3e31383c	0.17306608
26	0x3e2ce9d8	0.1688608
27	0xbe1829ce	-0.14859697
28	0x3e22de87	0.159052
29	0x3dfec8ce	0.12440644
30	0xbdffb923	-0.12486484
31	0xbe46e173	-0.1942194
32	0xbe48fae3	-0.19626956
33	0x3e01e8a5	0.12686403
34	0x3e2d94de	0.1695132
35	0x3e2bde51	0.16784026
36	0xbdfaea9f	-0.12251782
37	0x3e00bed7	0.125728
38	0x3dfac7c4	0.122451335
39	0xbe2e3e41	-0.17015935
40	0xbe088564	-0.13332134
41	0x3df97093	0.12179675
42	0x3e17e898	0.14834821
43	0x3e114e15	0.14189942
44	0x3de7e2da	0.113225654
45	0x3def855d	0.11695359
46	0x3dfde3d2	0.12396969
47	0xbe0227c6	-0.12710485
48	0xbde20364	-0.11035803
49	0x3e1b559e	0.15169379
50	0xbe248768	-0.16067278
51	0xbdf978ac	-0.121812195
52	0xbe702ed2	-0.2345536
53	0xbdf55990	-0.11979973
54	0xbe042edf	-0.12908505
55	0xbe039616	-0.12850222
56	0xbe0627ae	-0.13101074
57	0xbe6b07e2	-0.22952226
58	0xbdea4460	-0.11438823
59	0xbe2e2fda	-0.17010441
60	0x3e0e0c03	0.1387177
61	0xbdf4f93e	-0.11961602
62	0x3e186689	0.14882864
63	0x3e247f05	0.16064079

output_layer.weight f4 [1, 64]
0	0x3f27b578	0.65511274
1	0xbf068d81	-0.5255967
2	0xbedda4f2	-0.43289906
3	0xbf20db9a	-0.62835085
4	0x3f243003	0.6413576
5	0xbf051dc6	-0.51998556
6	0xbf0a07c5	-0.53918105
7	0x3ef20c17	0.4727485
8	0x3ed0b45e	0.4076261
9	0xbf0eff1e	-0.5585803
10	0x3f1d5469	0.61456925
11	0xbed0f528	-0.4081204
12	0xbee964bd	-0.4558467
13	0x3f194f8b	0.59887
14	0x3eaebf0a	0.34130126
15	0xbf1fb1e9	-0.62380844
16	0x3f333231	0.6999846
17	0xbf24a9b7	-0.64321464
18	0xbf0f8566	-0.56062925
19	0xbed43c3c	-0.41452205
20	0x3f100a53	0.56265754
21	0x3f20ae53	0.62766
22	0x3f0bfc18	0.5468154
23	0x3f08f04c	0.53491664
24	0xbf0a778c	-0.54088664
25	0x3edff961	0.43744949
26	0x3ee51fc4	0.44750798
27	0xbf06befd	-0.52635175
28	0x3ecbe4ed	0.39823094
29	0x3f1134e9	0.5672136
30	0xbef02689	-0.469044
31	0xbecda95e	-0.4016828
32	0xbed86b60	-0.4226942
33	0x3f0a939c	0.54131484
34	0x3eda426c	0.426288
35	0x3eb8d0f6	0.36096925
36	0xbf18594f	-0.59511274
37	0x3f1af3b0	0.6052809
38	0x3f2f577d	0.6849287
39	0xbedb1262	-0.42787462
40	0xbee5a78e	-0.44854397
41	0x3f1116bf	0.5667533
42	0x3f009fab	0.50243634
43	0x3ef28fa7	0.47375223
44	0x3f08c25f	0.53421587
45	0x3f06e095	0.52686435
46	0x3f132764	0.5748198
47	0xbf1dd3cf	-0.6165132
48	0xbf30f139	-0.69118077
49	0x3ee3db04	0.44503033
50	0xbeba21a1	-0.36353782
51	0xbf10f4bb	-0.5662343
52	0xbec17364	-0.3778335
53	0xbf125176	-0.5715555
54	0xbf0eb8b5	-0.5575059
55	0xbf0a8a23	-0.5411703
56	0xbefb2391	-0.49050573
57	0xbec5aa33	-0.38606414
58	0xbf2e4e9c	-0.680887
59	0xbeb0984d	-0.34491196
60	0x3f199d60	0.6000576
61	0xbf2481b4	-0.6426041
62	0x3efd1ada	0.4943455
63	0x3ed43788	0.41448617

exp_avg f4 [64, 4]
0	0xbbe81ce0	-0.0070835203
1	0xbb9d5251	-0.0048010726
2	0xb961ac7e	-0.0002152193
3	0x3a6b4984	0.0008975493
4	0xbaeb290b	-0.0017941309
5	0xbaa2983d	-0.001240499
6	0xb911ba6b	-0.00013897724
7	0x3a0fa89d	0.00054801424
8	0x3a12b71b	0.0005596743
9	0x3a174087	0.0005769808
10	0xb8f2d368	-0.00011578837
11	0xb93cec61	-0.00018017135
12	0x3b416023	0.0029506765
13	0x3b0e2b6f	0.002169337
14	0x3788b242	1.6295471e-05
15	0xba0c3919	-0.00053490844
16	0x3adbaa65	0.0016759156
17	0x3ab451d9	0.0013757303
18	0xb81f67b6	-3.8005142e-05
19	0xba25d7ad	-0.00063263887
20	0x3b8cf789	0.0043019694
21	0x3b417ec0	0.0029525012
22	0x394fed54	0.0001982947
23	0xb9f71aa7	-0.0004713137
24	0xbb673901	-0.003528178
25	0xbb23e415	-0.0025007774
26	0xb8d21f73	-0.00010019438
27	0x39e8bad7	0.00044389695
28	0x3b3c92ad	0.002877395
29	0x3b0c208a	0.00213817
30	0x37d7723d	2.5683194e-05
31	0xba120a11	-0.0005570958
32	0x3b4016ca	0.0029310458
33	0x3b0c0fb9	0.0021371676
34	0xb6ee7105	-7.10611e-06
35	0xb9626f77	-0.00021594563
36	0x3bc65257	0.006052296
37	0x3b8f6ca2	0.0043769637
38	0x38b4576e	8.599354e-05
39	0xba5b4ddb	-0.00083657884
40	0x3b50d76d	0.0031866685
41	0x3b0f116f	0.002183046
42	0x3897a9ca	7.231867e-05
43	0xb9a6d947	-0.00031823872
44	0xbbc17ebb	-0.005905
45	0xbb87970a	-0.0041378783
46	0xb8915349	-6.929652e-05
47	0x3a045a40	0.00050488487
48	0x3a8499ea	0.0010116671
49	0x3a6e2698	0.00090847304
50	0xb8cb1868	-9.68434e-05
51	0xb9d56cde	-0.00040707638
52	0xbabd6694	-0.0014450126
53	0xba8690b7	-0.0010266517
54	0xb790f281	-1.7279062e-05
55	0x39164f11	0.0001433457
56	0xbc30f9d7	-0.010801754
57	0xbbf03be6	-0.007331359
58	0xb9839d8b	-0.00025103646
59	0x3a9f91b4	0.001217416
60	0xb78e4baf	-1.6962962e-05
61	0x3906c291	0.00012851717
62	0xb8bcef76	-9.009142e-05
63	0xb9373be4	-0.00017474551
64	0x3b9315c8	0.0044886805
65	0x3b4e4119	0.0031471907
66	0x3884df94	6.335895e-05
67	0xb9c88bd4	-0.00038251153
68	0xbba4df7d	-0.0050315247
69	0xbb61fff3	-0.0034484833
70	0xb8bdf128	-9.057141e-05
71	0x3a15c05b	0.0005712562
72	0xbbe1e203	-0.006893398
73	0xbb9420e0	-0.0045205206
74	0xb823a6ed	-3.901769e-05
75	0x38dc3649	0.00010500529
76	0x3b15c45b	0.0022852633
77	0x3ad04968	0.0015891017
78	0x383b6bc3	4.4684635e-05
79	0xb96ad5d4	-0.00022395636
80	0xbad1f31f	-0.001601789
81	0xba97fe00	-0.0011596084
82	0xb76ffbb7	-1.4304117e-05
83	0x39a04ec3	0.0003057626
84	0x3bc92a4f	0.006139077
85	0x3b88ccac	0.0041747894
86	0x38d03c3d	9.929433e-05
87	0xba3e191b	-0.0007251666
88	0x3beed5f3	0.0072886883
89	0x3ba962bc	0.0051692408
90	0x3912e39d	0.00014008438
91	0xba2a2ff6	-0.0006492132
92	0xbb86fa8f	-0.0041192244
93	0xbb2f5484	-0.0026753256
94	0xb8e3e3af	-0.00010866613
95	0x39c5875c	0.0003767562
96	0xbb9a8457	-0.004715483
97	0xbb4967de	-0.0030732076
98	0xb94ac8a0	-0.0001933896
99	0x39eaa849	0.0004475734
100	0x3bc9d014	0.006158838
101	0x3b8bd70d	0.0042675794
102	0x38cd116e	9.778408e-05
103	0xba4739d4	-0.00075998646
104	0x3b0a248a	0.0021078908
105	0x3aab6b07	0.0013078161
106	0x3870ebbb	5.744e-05
107	0xb8e30664	-0.00010825394
108	0xbb408f5c	-0.0029382324
109	0xbb1be2c0	-0.0023786277
110	0x38448b9b	4.686006e-05
111	0x3a39835f	0.0007076766
112	0xb9cc1e59	-0.00038932523
113	0xb820671b	-3.8242997e-05
114	0x36aba7c9	5.11573e-06
115	0xb9c19566	-0.0003692314
116	0xbbb4f69b	-0.0055225617
117	0xbb7be7bd	-0.0038437687
118	0xb882fd05	-6.2460116e-05
119	0x3a2aa0b4	0.0006508932
120	0x3bb12a8c	0.0054066833
121	0x3b7ed895	0.0038886417
122	0x3873a654	5.809062e-05
123	0xba42da81	-0.00074330723
124	0xbc229e0a	-0.009925375
125	0xbbe167bc	-0.006878821
126	0xb9994a68	-0.0002923787
127	0x3ab3b8cf	0.0013711693
128	0x3c01954d	0.007909131
129	0x3bb81d10	0.005618699
130	0x39031c9e	0.00012503794
131	0xba67a0a7	-0.000883589
132	0xbba97411	-0.005171307
133	0xbb7210e6	-0.0036936342
134	0xb8d3427f	-0.0001007365
135	0x3a2a1854	0.00064886105
136	0xbb69043f	-0.003555551
137	0xbb1b62b4	-0.0023709955
138	0xb902fb8a	-0.00012491472
139	0x398b2c80	0.000265453
140	0xbbbbc20f	-0.0057299207
141	0xbb867509	-0.004103307
142	0xb8e5dc3c	-0.00010960593
143	0x3a81bdaf	0.0009898449
144	0x39fd15a6	0.0004827205
145	0x3a1a2078	0.0005879472
146	0xb81f3192	-3.795472e-05
147	0xb959ac51	-0.00020758926
148	0xba91f33e	-0.0011135114
149	0xba5b9c5a	-0.0008377485
150	0xb6ca2969	-6.02489e-06
151	0x39b39d19	0.00034258587
152	0xbab3e416	-0.0013724591
153	0xba66a39c	-0.00087981834
154	0xb8910844	-6.9156784e-05
155	0x397131bc	0.00023002079
156	0x3a0ed56b	0.0005448672
157	0x39f89f2d	0.0004742084
158	0x3836f996	4.3624626e-05
159	0xb926582a	-0.00015863837
160	0xbb89e43c	-0.004208116
161	0xbb4abaf5	-0.003093419
162	0xb9546c7b	-0.00020258308
163	0x3a1fac37	0.00060910307
164	0xbbf21d0f	-0.007388718
165	0xbba1443b	-0.004921464
166	0xb98493d5	-0.00025287145
167	0x3a5f3f87	0.0008516241
168	0x3a794996	0.00095095614
169	0x3a2e7e00	0.00066563487
170	0xb813b431	-3.5215347e-05
171	0xb7d39e7a	-2.5226956e-05
172	0xb938ee0c	-0.00017636287
173	0xb9a60843	-0.00031668143
174	0x38b7bc59	8.7612025e-05
175	0x398557bf	0.00025433113
176	0xbb0d7c0b	-0.0021588828
177	0xbaae23d0	-0.001328582
178	0xb93f73e1	-0.00018258348
179	0x39a79fc3	0.00031971754
180	0xbbb45919	-0.0055037853
181	0xbb80c01a	-0.0039291503
182	0xb89e7dd1	-7.557462e-05
183	0x3a04e58d	0.0005069606
184	0x3bd65574	0.0065409485
185	0x3b86ffbc	0.0041198414
186	0x397471fb	0.00023312114
187	0xb95dac47	-0.0002114038
188	0xbc073279	-0.00825178
189	0xbbc3635d	-0.0059627728
190	0xb91cc600	-0.0001495108
191	0x3abf6b68	0.0014604153
192	0xb8f1c4b1	-0.00011528412
193	0x36091c9a	2.043124e-06
194	0xb8f3dfdb	-0.00011628839
195	0x3978da42	0.0002373243
196	0xbbb9794e	-0.0056602126
197	0xbb8518b1	-0.0040617813
198	0xb81916dc	-3.6499332e-05
199	0x3a507650	0.00079522
200	0xbb9f2128	-0.0048562475
201	0xbb6367b7	-0.003469927
202	0xb8dc44a0	-0.000105032
203	0x3a23e032	0.0006251364
204	0x3b6ff841	0.0036616477
205	0x3b2914d2	0.0025799763
206	0x391b06c7	0.00014784477
207	0xb95e302a	-0.00021189512
208	0x3b741973	0.0037246614
209	0x3b2fbbac	0.0026814742
210	0x3821b978	3.8558122e-05
211	0xba3ed8a0	-0.00072802044
212	0xbb20f1ec	-0.002455826
213	0xbae8d66f	-0.0017764102
214	0xb7beca43	-2.274395e-05
215	0x38d87776	0.00010321934
216	0x3b59131a	0.0033122958
217	0x3b134bfc	0.002247571
218	0x34831931	2.441898e-07
219	0xb9de00b6	-0.0004234367
220	0xbbb6f837	-0.0055837887
221	0xbb81050e	-0.00393737
222	0xb8e3b478	-0.000108578184
223	0x3a3cef33	0.00072072743
224	0xbb94fa47	-0.004546437
225	0xbb4d3546	-0.003131227
226	0xb857769e	-5.1370465e-05
227	0x39904c25	0.00027522552
228	0xbbfde32d	-0.0077480287
229	0xbbaf9a3a	-0.0053589614
230	0xb93338e1	-0.0001709196
231	0x3a69d5ac	0.0008920084
232	0x3a2c0f89	0.0006563594
233	0x39ecb8d6	0.0004515114
234	0x37495a99	1.20016275e-05
235	0x38c9d42c	9.623947e-05
236	0xbb90f408	-0.004423622
237	0xbb562b43	-0.0032679595
238	0x3795b609	1.784695e-05
239	0x39e1bb45	0.0004305487
240	0xbb97b410	-0.0046296194
241	0xbb5a2de9	-0.0033291525
242	0xb90c22b3	-0.00013364367
243	0x3a79a672	0.00095233985
244	0x3bda423b	0.0066607273
245	0x3b898173	0.0041963398
246	0x38fe31bb	0.00012120927
247	0x38a4285d	7.827648e-05
248	0x3affa762	0.001950484
249	0x3ab50813	0.001381161
250	0x38dc16e8	0.00010494684
251	0xb9a84456	-0.0003209437
252	0xba7a0a02	-0.00095382344
253	0xba2c512d	-0.00065733754
254	0x3636fa0c	2.726566e-06
255	0xb88fae58	-6.8512454e-05
