experiments/ppo_cartpole_homework_20250828_114234/checkpoints/final.pt (torch, 269785 bytes, 44 tensors)

layers.0.weight f4 [64, 4]
-0.11747482 0.24226874 0.40920326 0.20296496 0.00468803 0.19136082 0.030119663 -0.08669083
0.009667487 -0.0072335983 -0.25897253 -0.115759194 -0.2204269 -0.16716996 -0.33478406 -0.18868403
-0.18486208 -0.029371139 -0.22321358 -0.3337094 0.2061048 -0.29186687 -0.38369617 0.06636674
-0.15574828 -0.22176945 0.28460547 -0.3615996 -0.08001558 -0.25027964 -0.42722002 0.06287501
0.26900107 0.04764391 -0.1617211 -0.16104095 -0.3085562 0.08072432 -0.42720863 -0.1848408
-0.24183837 -0.098058335 -0.35373992 -0.28026953 -0.14506873 -0.21600908 0.46584064 0.018004641
-0.37425447 0.19690451 -0.17318977 -0.17445847 0.20016496 -0.1351764 0.07340695 -0.16391179
0.04653172 -0.04354081 0.4161504 -0.0028350495 -0.21492212 0.1591616 -0.16991124 0.048472244
0.12262112 -0.01852114 -0.2592558 -0.15119028 -0.17620766 0.2695747 0.26722732 0.24907659
-0.2109769 -0.31695387 0.49565232 0.36859253 -0.35255954 -0.005407862 -0.4146252 -0.20146269
0.12039413 0.24491103 0.0797883 0.16739783 -0.12540038 0.11998253 -0.45421344 -0.1008585
0.2947632 -0.04633114 -0.23419166 -0.033599682 0.0559454 -0.16774666 0.48852226 0.32342324
-0.24402225 0.23342066 0.11479393 -0.03767903 -0.1847205 -0.2442879 -0.52517205 -0.30579212
-0.1423559 0.29644617 -0.06390668 -0.26087767 -0.1428357 0.1415483 0.48520696 0.24190749
-0.18341443 0.07786936 0.18120039 0.19663821 0.23526429 0.18854941 0.5779615 0.29340056
-0.2352098 -0.17710818 -0.2482528 -0.28912836 -0.1483456 0.16552746 0.5639429 -0.106812224
0.2608548 0.017030658 -0.17012066 -0.09761546 -0.25650838 -0.0037873934 0.36282235 -0.02257838
-0.11365585 -0.038873926 0.14166985 0.12672345 0.1546557 0.19475377 0.3490824 0.23374388
0.31805772 0.20483464 0.14901352 0.124306455 0.19970901 0.19772342 0.19853714 0.2712047
0.02712244 -0.17912713 0.0030136127 -0.22344808 0.16682263 -0.13482025 -0.25077432 0.20787744
-0.17213722 0.043675516 0.29280344 -0.34703162 0.18971004 -0.19360138 0.14869297 -0.3178449
-0.2171987 -0.08621577 -0.42042628 -0.17971629 0.20460711 -0.16727543 0.12109535 0.2347276
0.0038854314 0.056864265 0.105490275 -0.41718388 -0.23963033 -0.24820761 0.28291494 0.016828306
-0.039374538 0.31230927 -0.35482928 -0.32516763 0.105213 0.098804936 0.36216947 0.12050185
0.009060546 0.20561245 -0.13340828 -0.15199266 0.28857553 0.23057713 0.39645377 0.29774252
-0.01961098 -0.21003155 0.23399901 -0.25723812 0.2855384 0.12320357 -0.25887656 0.28879485
-0.16782111 -0.21994387 -0.33362424 -0.27814114 -0.2821334 -0.10979338 0.24921294 0.09766931
-0.27934995 0.091023475 -0.3033885 -0.26578078 0.26434115 -0.069413014 0.52008396 0.0739507
-0.15057519 -0.06408266 0.43658826 0.10142205 -0.20516786 0.15445824 0.5541997 0.21517275
0.17668688 0.2265123 0.012293891 0.19931076 -0.257121 -0.20425652 0.2728035 0.17289652
0.19767855 -0.2585539 0.20579402 -0.2941514 -0.04838318 0.34253833 -0.2859489 -0.29164103
-0.26789033 0.21474744 -0.13127217 0.3463584 -0.13014635 -0.16508022 0.3093506 0.24508144
00000000: a396 f0bd 4c15 783e 1783 d13e 0cd6 4f3e
00000010: 0c9e 993b 17f4 433e 83bd f63c f68a b1bd
00000020: 6164 1e3c d207 edbb 0c98 84be 2813 edbd
00000030: 97b7 61be 9a2e 2bbe d168 abbe 6336 41be
00000040: 7c4c 3dbe be9b f0bc 1a92 64be f5db aabe
00000050: 230d 533e 936f 95be d373 c4be 49eb 873d
00000060: 7a7c 1fbe 8817 63be cfb7 913e 9523 b9be
00000070: 35df a3bd a724 80be 95bc dabe 9dc4 803d
00000080: 82ba 893e 4326 433d 379a 25be ebe7 24be
00000090: 14fb 9dbe cb52 a53d 17bb dabe e846 3dbe
000000a0: 7aa4 77be cfd2 c8bd 661d b5be 7d7f 8fbe
000000b0: e68c 14be 7c31 5dbe aa82 ee3e 787e 933c
000000c0: 489e bfbe 56a1 493e a958 31be 3ea5 32be
000000d0: 0bf8 4c3e af6b 0abe 6256 963d 7ed8 27be
000000e0: 0b98 3e3d d957 32bd aa11 d53e 3dcc 39bb
000000f0: 8b14 5cbe 42fb 223e 36fd 2dbe d58a 463d
00000100: c820 fb3d a5b9 97bc 2dbd 84be a0d1 1abe
00000110: c86f 34be b205 8a3e 05d2 883e ef0d 7f3e
00000120: 540a 58be c747 a2be 24c6 fd3e 29b8 bc3e
00000130: af82 b4be 6f34 b1bb c149 d4be 3c4c 4ebe
00000140: 3391 f63d f5c9 7a3e 0c68 a33d 566a 2b3e
00000150: f568 00be 67b9 f53d aa8e e8be e78e cebd
00000160: 34eb 963e b9c5 3dbd f0cf 6fbe d29f 09bd
00000170: 0127 653d c8c5 2bbe 971f fa3e bb97 a53e
00000180: f8e0 79be d305 6f3e 1419 eb3d 5455 1abd
00000190: 5f27 3dbe 9b26 7abe ad71 06bf c990 9cbe
000001a0: bfc5 11be cbc7 973e 81e1 82bd c291 85be
000001b0: 8643 12be 0af2 103e 0c6d f83e 99b6 773e
000001c0: fed0 3bbe f979 9f3d 988c 393e 875b 493e
000001d0: 1fe9 703e 1913 413e 49f5 133f 9938 963e
000001e0: d6da 70be d95b 35be fb35 7ebe a208 94be
000001f0: e9e7 17be 0880 293e 905e 103f 5ec0 dabd
00000200: c38e 853e e183 8b3c 1c34 2ebe 9dea c7bd
00000210: 1155 83be eb35 78bb dac3 b93e 4bf6 b8bc
00000220: 66c4 e8bd 443a 1fbd e711 113e cbc3 013e
00000230: 105e 1e3e 886d 473e eeba b23e 8e5a 6f3e
00000240: 76d8 a23e 2cc0 513e 0097 183e 6294 fe3d
00000250: 8580 4c3e 0278 4a3e 524d 4b3e 58db 8a3e
00000260: e12f de3c 1a6d 37be 0880 453b 93cf 64be
00000270: 8dd3 2a3e 520e 0abe 7e65 80be d3dd 543e
00000280: bd44 30be 19e5 323d 55ea 953e 21ae b1be
00000290: 5943 423e 713f 46be f842 183e 91bc a2be
000002a0: 5669 5ebe e591 b0bd 1d42 d7be 8c07 38be
000002b0: 8784 513e 404a 2bbe d700 f83d 6f5c 703e
000002c0: b9a2 7e3b 81ea 683d 490b d83d 2099 d5be
000002d0: a761 75be 232a 7ebe 3ada 903e 84db 893c
000002e0: 3247 21bd 00e7 9f3e 2fac b5be 5f7c a6be
000002f0: ea79 d73d 3e5a ca3d 476e b93e adc9 f63d
00000300: af72 143c 128c 523e 2e9c 08be f7a3 1bbe
00000310: 2cc0 933e 691c 6c3e fdfb ca3e b571 983e
00000320: 35a7 a0bc 8312 57be 709d 6f3e b7b4 83be
00000330: 1732 923e 2752 fc3d 788b 84be ebdc 933e
00000340: 4cd9 2bbe f738 61be ccd0 aabe 8468 8ebe
00000350: ca73 90be 5adb e0bd ad31 7f3e d906 c83d
00000360: f506 8fbe 846a ba3d bd55 9bbe 6b14 88be
00000370: b957 873e 6928 8ebd 3924 053f 7773 973d
00000380: 6230 1abe c53d 83bd 7f88 df3e 5db6 cf3d
00000390: 8617 52be 4d2a 1e3e 08e0 0d3f 3f56 5c3e
000003a0: 68ed 343e d7f2 673e 516c 493c 1f18 4c3e
000003b0: 5da5 83be 9f28 51be e6ac 8b3e c90b 313e
000003c0: 3f6c 4a3e 2d61 84be abbb 523e 039b 96be
000003d0: 712d 46bd 2f61 af3e e567 92be f951 95be
000003e0: ec28 89be c1e6 5b3e 366c 06be e355 b13e
000003f0: 1645 05be ca0a 29be 3463 9e3e a1f6 7a3e

layers.0.bias f4 [64]
0.006736571 -0.0026100564 -0.039427493 0.0073557273 -0.031236071 -0.004344803 -0.023972755 0.006168112
-0.006254522 -0.006568342 -0.0018139052 -0.0096746385 -0.010425872 0.005697953 0.0076386738 -0.024309602
-0.0076919002 0.00922397 0.002594248 0.0020740486 0.013390762 -0.01634706 0.0011062358 0.014077028
0.004162633 0.007321301 -0.019425306 0.018075593 0.025173066 0.003057572 -0.0052500498 0.010650081
-0.0036984996 -0.0002072947 0.003619796 0.0078104953 0.03604581 0.028352376 -0.026776373 0.030721221
-0.010437954 0.0045479634 -0.029188722 0.03360216 0.0014572656 0.00059049885 -0.007667282 0.0098849675
-0.016850721 -0.00043370534 -0.001592533 0.0146766305 -0.0048732734 -0.0058197146 -0.026114332 0.01199381
0.0067950385 0.0067010806 0.034575135 -0.0010327508 -0.008462502 -0.0053006574 0.024637349 0.021025402
00000000: 74be dc3b 7b0d 2bbb b97e 21bd 5008 f13b
00000010: cae2 ffbc d95e 8ebb 8362 c4bc e01d ca3b
00000020: bcf2 ccbb 3f3b d7bb 8fc0 edba 6082 1ebc
00000030: 47d1 2abc e5b5 ba3b d74d fa3b ee24 c7bc
00000040: 560c fcbb 2220 173c 4204 2a3b c3ec 073b
00000050: ed64 5b3c 45ea 85bc 1dff 903a 56a3 663c
00000060: b266 883b 86e7 ef3b d221 9fbc 4413 943c
00000070: bf37 ce3c 8c61 483b 9c08 acbb ad7d 2e3c
00000080: 8762 72bb 3f5d 59b9 193a 6d3b 2fef ff3b
00000090: c5a4 133d 3e43 e83c 205a dbbc 12ab fb3c
000000a0: f403 2bbc 1507 953b 301d efbc 6ba2 093d
000000b0: b801 bf3a b5cb 1a3a d33d fbbb 8ff4 213c
000000c0: 860a 8abc f262 e3b9 8abc d0ba 4076 703c
000000d0: fbaf 9fbb 4eb3 bebb b9ed d5bc af81 443c
000000e0: eaa8 de3b bd94 db3b a89e 0d3d 5e5d 87ba
000000f0: 4ea6 0abc 23b1 adbb 44d4 c93c 773d ac3c

layers.2.weight f4 [64, 64]
-0.11350751 0.09684816 0.16338263 -0.0061999676 0.028171994 -0.10039306 -0.04088558 0.10822133
0.1777166 0.10414701 0.037892643 -0.16492903 0.016313804 -0.13013193 -0.09196169 0.12707105
-0.009951783 -0.15330525 0.045054663 -0.112854674 0.13191684 0.08601308 -0.18746322 -0.098662645
0.18087934 0.110133916 -0.069388 -0.057589263 -0.1983087 -0.12443193 0.037179306 0.21971586
-0.18891945 0.15328084 0.09269827 0.13995548 0.16027145 -0.0594056 0.06297375 0.041600022
0.063840084 0.15122996 -0.061761297 -0.09843121 -0.112371355 0.16116865 -0.004220468 -0.10015627
0.1570998 0.19523767 0.21586034 0.024522528 -0.08874738 -0.13510695 0.065261655 -0.10658609
-0.036840826 -0.10706699 -0.05421083 0.18846083 -0.09025513 -0.15955503 0.07238194 -0.08398855
-0.109787494 -0.09760695 -0.08916007 0.028491315 -0.22845523 -0.15380198 0.16039358 -0.07394549
-0.0003436483 -0.30404043 -0.3083831 -0.13822609 -0.20502488 0.048527125 0.16043729 0.121590026
-0.21717764 -0.099862926 -0.10970869 -0.13407321 0.1409687 0.08691195 -0.052568536 0.2003388
0.17357273 -0.10904625 0.16911817 -0.11973968 0.06097019 0.034507953 -0.03288082 0.055586576
-0.08970892 0.07081483 0.038795292 0.15486129 0.2208073 0.07418118 -0.1747807 -0.16809648
-0.040307816 0.09519205 -0.20875773 0.06584069 0.106616095 -0.16016333 -0.27196088 0.26404482
-0.09157731 0.1887073 -0.059078045 0.232175 -0.089798644 -0.09821927 -0.2811761 0.15793455
-0.13771953 0.25853902 0.18205339 -0.03145549 -0.13709755 -0.21712375 0.023547418 -0.09416942
-0.0733552 -0.12658487 -0.017444737 -0.004194591 0.17697625 0.12003127 0.2875478 -0.11681155
0.13788004 0.39867985 0.10763731 0.11666326 0.27678895 0.20056902 -0.069794595 0.038536265
0.016927632 -0.12291147 0.11718884 -0.02016902 -0.210428 0.2651317 0.16208212 -0.27983233
0.15252554 0.06842545 0.19505301 -0.2997959 0.028074978 -0.3139622 0.37323365 0.13233966
0.00022996467 0.14180115 -0.12273187 -0.20695621 -0.20121576 -0.18907696 -0.10230373 -0.24520728
0.19956559 0.13131171 0.061212298 0.113208964 0.049071677 -0.10476112 0.26027963 -0.087263435
0.14580543 -0.360841 0.1844427 -0.07756544 0.1145115 0.13200699 0.37336993 -0.18032832
0.07707584 -0.26158923 -0.2997138 0.09128313 -0.09908621 0.24220014 -0.015451054 0.13303478
-0.10343657 -0.20181048 -0.14790408 -0.06362486 0.14025688 -0.0437379 0.018160036 -0.17057616
-0.16187704 0.18720914 0.15844862 0.052053787 0.0040725335 0.076223575 0.18007271 0.059382025
-0.03101712 -0.06573359 -0.2115333 0.0787835 -0.20371959 -0.18673116 0.2425457 0.080451876
-0.14269163 -0.18032452 0.05797826 0.12706669 0.13508958 0.06618201 -0.17618951 -0.107795276
-0.035152845 0.14324865 0.19132006 -0.031944793 0.031666223 -0.03474041 0.17976993 0.20554708
0.09980308 0.009357805 0.01602543 -0.048445325 -0.07374885 -0.0622317 0.08204133 -0.013858038
-0.1630642 0.18392856 0.182853 0.044543553 0.121558696 0.010740982 -0.19475481 -0.060669675
-0.2452383 0.093387306 0.06971821 0.05563149 -0.17047593 0.055038135 0.02198159 0.15972336
00000000: a076 e8bd 5458 c63d c74d 273e 1929 cbbb
00000010: f4c8 e63c e09a cdbd a377 27bd 25a3 dd3d
00000020: 57fb 353e 074b d53d 5135 1b3d 28e3 28be
00000030: 87a4 853c 4e41 05be 6956 bcbd ea1e 023e
00000040: ce0c 23bc 0dfc 1cbe 3d8b 383d 5a20 e7bd
00000050: 3515 073e a027 b03d 5cf6 3fbe a40f cabd
00000060: 6f38 393e e48d e13d 4c1b 8ebd b8e2 6bbd
00000070: 7011 4bbe 2bd6 febd 5449 183d 32fd 603e
00000080: 1a74 41be a7f5 1c3e 97d8 bd3d 7d50 0f3e
00000090: 331e 243e 4953 73bd 62f8 803d c964 2a3d
000000a0: 97be 823d 07dc 1a3e 6af9 7cbd 4d96 c9bd
000000b0: f422 e6bd 6509 253e da4b 8abb bb1e cdbd
000000c0: c5de 203e 62ec 473e 7e0a 5d3e 78e3 c83c
000000d0: 30c1 b5bd 7a59 0abe e7a7 853d cf49 dabd
000000e0: 68e6 16bd f045 dbbd 2d0c 5ebd e0fb 403e
000000f0: aed7 b8bd 6562 23be fc3c 943d 3002 acbd
00000100: 44d8 e0bd 27e6 c7bd 8e99 b6bd 9e66 e93c
00000110: 2bf0 69be 447e 1dbe 373e 243e bc70 97bd
00000120: b22b b4b9 30ab 9bbe 64e4 9dbe 248b 0dbe
00000130: 0bf2 51be 61c4 463d ac49 243e 3104 f93d
00000140: d163 5ebe ef84 ccbd f3ae e0bd 7d4a 09be
00000150: 195a 103e e4fe b13d 1b52 57bd 9d25 4d3e
00000160: 0dbd 313e a453 dfbd 502d 2d3e 143a f5bd
00000170: e1bb 793d 3658 0d3d 0aae 06bd c0ae 633d
00000180: 4fb9 b7bd 5e07 913d d0e7 1e3d f593 1e3e
00000190: 4f1b 623e 4dec 973d b6f9 32be 7c21 2cbe
000001a0: cf19 25bd 0df4 c23d 96c4 55be 7cd7 863d
000001b0: 8a59 da3d db01 24be 753e 8bbe e230 873e
000001c0: e28c bbbd 7d3c 413e d2fb 71bd 48bf 6d3e
000001d0: 5ae8 b7bd 2f27 c9bd 50f6 8fbe 98b9 213e
000001e0: 5906 0dbe 3a5f 843e 346c 3a3e 79d7 00bd
000001f0: 4d63 0cbe b055 5ebe 84e6 c03c e6db c0bd
00000200: 403b 96bd 779f 01be 44e8 8ebc c872 89bb
00000210: 4339 353e f4d2 f53d 7739 933e e53a efbd
00000220: 6d30 0d3e c41f cc3e f370 dc3d 26ed ee3d
00000230: 48b7 8d3e f761 4d3e 78f0 8ebd 34d8 1d3d
00000240: d1ab 8a3c 02b9 fbbd b400 f03d 8039 a5bc
00000250: 707a 57be 58bf 873e dbf8 253e 2f46 8fbe
00000260: a82f 1c3e a422 8c3d fabb 473e d97e 99be
00000270: 7ffd e53c a7bf a0be 7b18 bf3e 0c84 073e
00000280: ac22 7139 5234 113e d95a fbbd 54ec 53be
00000290: 810b 4ebe 649d 41be 9e84 d1bd 9e17 7bbe
000002a0: ec5a 4c3e 9476 063e bfb9 7a3d 1ada e73d
000002b0: 62ff 483d 008d d6bd 5f43 853e 2cb7 b2bd
000002c0: 054e 153e 27c0 b8be 8cde 3c3e a1da 9ebd
000002d0: 0185 ea3d d72c 073e 582a bf3e fda7 38be
000002e0: f0d9 9d3d 06ef 85be 1674 99be a6f2 ba3d
000002f0: b6ed cabd 5003 783e 6b26 7dbc 453a 083e
00000300: 8dd6 d3bd 68a7 4ebe 2b74 17be c04d 82bd
00000310: 809f 0f3e 8326 33bd 5bc4 943c 84ab 2ebe
00000320: 18c3 25be c1b3 3f3e 5b40 223e 5a36 553d
00000330: e372 853b 1b1b 9c3d fb64 383e 913a 733d
00000340: 9e17 febc 559f 86bd 2f9c 58be 3e59 a13d
00000350: de9b 50be 7436 3fbe e65d 783e f4c3 a43d
00000360: c11d 12be fea6 38be 9d7a 6d3d c51d 023e
00000370: ec54 0a3e 6f8a 873d 066b 34be c5c3 dcbd
00000380: 6efc 0fbd c6af 123e 68e9 433e 8bd8 02bd
00000390: 71b4 013d f64b 0ebd 9c15 383e ef7a 523e
000003a0: 8f65 cc3d 7b51 193c c347 833c 9b6e 46bd
000003b0: a309 97bd abe6 7ebd 4905 a83d d30c 63bc
000003c0: 4dfa 26be c557 3c3e d13d 3b3e 4d73 363d
000003d0: c4f3 f83d f2fa 2f3c ce6d 47be c480 78bd
000003e0: c01f 7bbe d841 bf3d 6cc8 8e3d d8dd 633d
000003f0: 3e91 2ebe ab6f 613d bc12 b43c 858e 233e

layers.2.bias f4 [64]
0.0061406074 -0.003054038 -0.024083417 -0.0061767157 -0.002162991 0.0071740225 0.005370475 0.0057513868
-0.008209726 0.0045051067 -0.006101412 0.016104255 0.0020837672 -0.0066913757 -0.0017468678 -0.0030668569
0.011665166 -0.00788774 -0.0016166235 -0.0022238665 0.0057186536 0.005748272 -0.00034093903 0.007938806
-0.009743615 0.008028332 -0.003859753 -0.0106668845 -0.005091218 -0.0043494985 -0.0047625066 -0.02077301
0.00799504 -0.03803515 -0.00782299 0.006736698 0.009174093 0.0004738805 0.0071280184 -0.005386603
0.0068067904 -0.0141092 0.0072494885 0.010784938 -0.0017665297 0.0012043301 0.009394417 -0.012915384
-0.005879565 0.0076771528 0.0057403143 0.004406139 -0.009004167 -0.009946567 0.005848558 0.0028754459
-0.001363519 -0.0020270888 0.0028559174 -0.0037373444 0.0074912068 -0.0039004066 0.00046375336 0.0023512288
00000000: 2637 c93b 4126 48bb 964a c5bc 0c66 cabb
00000010: f8c0 0dbb 1014 eb3b cffa af3b 2176 bc3b
00000020: 1682 06bc 939f 933b 5aee c7bb 12ed 833c
00000030: d08f 083b 5443 dbbb 28f7 e4ba 52fd 48bb
00000040: 411f 3f3c 943b 01bc e2e4 d3ba 4abe 11bb
00000050: 8b63 bb3b 005c bc3b 10c0 b2b9 c411 023c
00000060: afa3 1fbc 4489 033c e9f3 7cbb 28c4 2ebc
00000070: 3bd4 a6bb 3d86 8ebb cd0e 9cbb 292c aabc
00000080: a1fd 023c bfca 1bbd 002c 00bc 85bf dc3b
00000090: ef4e 163c 2a73 f839 2792 e93b 1a82 b0bb
000000a0: 7f0b df3b 462a 67bc 1e8d ed3b 4fb3 303c
000000b0: e78a e7ba 9dda 9d3a 0aeb 193c 0c9b 53bc
000000c0: 5ea9 c0bb a090 fb3b 3f19 bc3b 5f61 903b
000000d0: 3786 13bc edf6 22bc 43a5 bf3b fa71 3c3b
000000e0: 1bb8 b2ba e8d8 04bb 582a 3b3b 3cee 74bb
000000f0: cc78 f53b f79d 7fbb ec23 f339 1317 1a3b

output_layer.weight f4 [2, 64]
-0.20015082 -0.04421088 -0.014931393 -0.17763206 -0.0034283963 -0.20426385 -0.02510325 -0.053339586
-0.1035177 -0.20846523 0.18332082 -0.089622594 -0.082195446 0.06966813 0.2482229 -0.059149668
-0.19019385 0.1826531 -0.0065251235 -0.014420675 -0.26649755 0.014062202 0.23891497 -0.008701388
0.1799212 -0.16801429 0.2929639 0.11464494 0.1992196 0.16483314 0.014211037 -0.059573155
-0.13412212 0.18272814 0.19736056 0.12901588 -0.2916365 0.22011414 0.2097957 0.2582984
0.03178215 0.046770953 -0.04322789 -0.12945323 0.15662023 -0.10906865 -0.28819975 0.0056777173
-0.089684255 -0.11033474 -0.20574804 0.105232835 0.015423323 0.28685585 0.12279721 -0.10844032
-0.16168188 0.24361077 -0.07031306 -0.047407247 -0.106842496 0.18836303 0.13731828 -0.15590182
0.10591855 0.12665106 -0.2737392 -0.20069557 0.20535323 0.02868202 0.14445734 -0.07003146
-0.14746433 -0.052659277 -0.24798508 -0.05791398 0.038934737 -0.17526962 0.08379379 -0.11163286
-0.15336962 -0.20396781 -0.17220378 -0.25010687 0.24789922 -0.07009305 -0.20642148 0.105776645
0.16417827 0.08739647 0.010042492 -0.2741135 0.12817954 -0.048193038 0.12272538 -0.25888634
0.03650135 -0.2874872 0.25754216 0.18078485 -0.2288305 0.13072684 0.23279676 -0.21460256
0.18042615 0.05762552 0.13970073 -0.1256203 0.027450366 0.113850266 -0.0038460847 -0.3256327
-0.07766062 0.19950251 -0.03866794 -0.094637565 -0.24510713 0.1997007 0.22715193 -0.031959765
-0.16175205 -0.046826985 0.061350755 -0.17937332 0.2793507 -0.045006473 -0.29364088 0.1331023
00000000: 56f4 4cbe 7816 35bd cda2 74bc 2ee5 35be
00000010: f2ae 60bb 8b2a 51be 55a5 cdbc 9c7a 5abd
00000020: 1701 d4bd e977 55be 74b8 3b3e 0d8c b7bd
00000030: 1656 a8bd 2aae 8e3d 252e 7e3e ec46 72bd
00000040: 2dc2 42be 6a09 3b3e b4d0 d5bb b244 6cbc
00000050: 5e72 88be 2665 663c 20a6 743e 4490 0ebc
00000060: 433d 383e f00b 2cbe 5dff 953e f7ca ea3d
00000070: 3900 4c3e 05ca 283e 69d5 683c fb02 74bd
00000080: 4f57 09be 161d 3b3e e318 4a3e bd1c 043e
00000090: 6151 95be 9a65 613e afd4 563e b03f 843e
000000a0: 002e 023d e692 3f3d ba0f 31bd 638f 04be
000000b0: 0e61 203e 625f dfbd eb8e 93be 250c ba3b
000000c0: 61ac b7bd 2ef7 e1bd 9daf 52be 5084 d73d
000000d0: 1bb2 7c3c c5de 923e 1b7d fb3d f515 debd
000000e0: ef8f 25be 1a75 793e 4b00 90bd 1a2e 42bd
000000f0: 3dd0 dabd 3de2 403e 2a9d 0c3e baa4 1fbe
00000100: d3eb d83d d1b0 013e 8b27 8cbe 2483 4dbe
00000110: 1e48 523e 8ef6 ea3c a0ec 133e a76c 8fbd
00000120: e400 17be 41b1 57bd cdef 7dbe 3637 6dbd
00000130: 087a 1f3d e179 33be 149c ab3d c59f e4bd
00000140: ed0c 1dbe f0dc 50be 3056 30be 020e 80be
00000150: 4bd9 7d3e f28c 8fbd 2760 53be 6da1 d83d
00000160: 591e 283e ecfc b23d 4489 243c 9b58 8cbe
00000170: 7f41 033e 1066 45bd 7257 fb3d c08c 84be
00000180: 7182 153d 8631 93be 91dc 833e aa1f 393e
00000190: 8b52 6abe 42dd 053e 4662 6e3e c6c0 5bbe
000001a0: a2c1 383e bd08 6c3d b50d 0f3e 9ca2 00be
000001b0: 97df e03c 542a e93d 980e 7cbb 54b9 a6be
000001c0: 880c 9fbd 634a 4c3e 4662 1ebd 57d1 c1bd
000001d0: 5dfd 7abe 577e 4c3e 849a 683e 3ee8 02bd
000001e0: 54a2 25be a7cd 3fbd ee4a 7b3d a4ad 37be
000001f0: 0e07 8f3e b558 38bd 1958 96be f84b 083e

output_layer.bias f4 [2]
-0.0072695324 0.0072695427
00000000: 4235 eebb 5835 ee3b

layers.0.weight f4 [64, 4]
-0.16222426 0.19628732 0.10287211 0.05549783 -0.07426256 -0.120463796 0.0067628305 -0.20623867
-0.23092784 0.06516745 0.064368196 -0.24164696 -0.18217118 0.07113565 0.25091782 -0.02726226
0.08364726 0.17291176 -0.22289571 -0.11262241 0.22835685 0.05159276 -0.12744716 -0.10094759
-0.06893764 -0.06568651 0.02525541 0.22348909 -0.26053226 0.111170605 0.10104915 -0.061216954
-0.061791364 0.106068216 0.1532895 0.036743633 0.091260314 0.21890779 -0.075309455 -0.25038388
-0.053384624 -0.023301333 -0.11527584 -0.057721928 -0.20396656 -0.24295673 0.20875193 -0.20054366
-0.23654893 0.2055724 0.24129237 -0.23994744 -0.07614711 -0.004985004 -0.08470586 -0.1133366
-0.16393462 0.022667252 0.03320042 0.19601694 0.079829596 0.16171601 -0.30043757 0.16723442
-0.073902495 0.18794085 0.05893522 -0.14596225 -0.10026198 -0.20156005 -0.31976175 0.25236055
0.038725268 -0.06212132 -0.21307246 0.16546735 0.20346652 0.14936182 -0.15743148 0.19753252
0.21603973 -0.27657047 -0.042472318 -0.13098966 0.024199301 -0.28947195 -0.24059209 -0.15759045
-0.19786711 0.26867694 0.2724643 -0.05629469 0.15909037 0.15494362 0.27844447 -0.12908632
0.22291565 -0.17688468 0.2717881 0.19694151 0.16609047 -0.20362805 0.04290992 -0.0103802355
0.054330826 -0.03383321 0.042115342 -0.058216885 -0.09044311 0.009407729 0.105991095 -0.21456508
0.116871625 -0.20818199 0.07634613 -0.024147142 -0.020565292 0.112082854 -0.1335624 -0.090303876
0.21275996 -0.024633572 0.25284338 0.16504934 -0.10930511 -0.23727638 0.12108584 0.07533128
0.00068709964 -0.09539406 -0.14539441 -0.11988176 0.22206828 0.038459957 0.20589441 -0.24565007
-0.069272324 -0.1742698 -0.061667763 -0.115318134 -0.22922203 -0.138064 0.17506951 -0.21505073
-0.23068017 -0.26438174 0.23304364 -0.0111087775 0.1830728 0.12783146 0.12517907 0.18079512
0.17330647 -0.06890212 0.16889654 0.1461296 -0.11539281 0.050206475 0.2693243 -0.05683722
0.090512566 0.05751254 0.25927 -0.063579 0.10016841 -0.014950712 0.17593724 0.22171436
-0.17663424 0.26640284 -0.30722097 -0.08894834 0.19633216 0.15549059 -0.1899124 0.061925773
-0.11541063 -0.20688376 0.14927973 0.060889993 0.1862093 -0.2601857 0.10977873 -0.015736157
0.16181447 0.036223967 -0.11528826 0.17838994 -0.014481808 0.052373894 -0.12117189 0.19475728
0.19908647 0.28145927 -0.12651758 -0.03436919 -0.20659341 -0.14143093 0.2079058 -0.035686754
-0.11387702 -0.16926076 -0.13355473 0.12799188 0.047361813 0.18864667 -0.24223335 0.009561555
0.21579744 -0.016386604 -0.13842641 0.07428375 0.22321229 0.17461208 0.15123367 0.046072893
0.15798384 -0.2146342 -0.11540711 -0.26033893 0.13104387 -0.113217995 -0.15298581 -0.19715099
0.26920992 -0.28044838 0.2236471 -0.14432552 0.26637784 -0.07572883 -0.25436306 0.11435336
0.15669271 0.1688062 0.11092534 -0.15223712 -0.20582776 0.08943173 -0.24621587 0.098529264
0.010130247 0.096866496 0.23019001 0.28343093 -0.023267545 -0.11129214 0.25655872 0.18155679
-0.24488558 -0.08779787 0.121722646 -0.090218976 0.06854342 -0.013082965 0.08828882 -0.19193146
00000000: 1e1e 26be 8bff 483e 9dae d23d b151 633d
00000010: f816 98bd b9b5 f6bd bc9a dd3b 3b30 53be
00000020: 5978 6cbe 8376 853d 79d3 833d 4d72 77be
00000030: 158b 3abe 91af 913d 4d78 803e 1a55 dfbc
00000040: 414f ab3d c80f 313e c63e 64be 94a6 e6bd
00000050: 61d6 693e ee52 533d 8281 02be 9cbd cebd
00000060: 2d2f 8dbd a686 86bd 6fe4 ce3c 53da 643e
00000070: 7c64 85be 6aad e33d dbf2 ce3d a1be 7abd
00000080: f118 7dbd 4b3a d93d ecf7 1c3e 7e80 163d
00000090: b0e6 ba3d 5d29 603e d83b 9abd 5132 80be
000000a0: d6a9 5abd 70e2 bebc bd15 ecbd d46d 6cbd
000000b0: 9cdc 50be a6c9 78be 11c3 553e 515b 4dbe
000000c0: e239 72be 9281 523e 5915 773e c8b4 75be
000000d0: 04f3 9bbd 3f59 a3bb 447a adbd 051d e8bd
000000e0: 7ade 27be acb0 b93c 2afd 073d aab8 483e
000000f0: b37d a33d e298 253e f4d2 99be 803f 2b3e
00000100: 315a 97bd 9173 403e 0f66 713d 2177 15be
00000110: 2756 cdbd c265 4ebe d0b7 a3be 6735 813e
00000120: 639e 1e3d ed72 7ebd ab2f 5abe 4670 293e
00000130: 8759 503e 4ef2 183e b835 21be f745 4a3e
00000140: 8539 5d3e a59a 8dbe 74f7 2dbd 2722 06be
00000150: 9d3d c63c ab35 94be c65d 76be 645f 21be
00000160: ad9d 4abe 0690 893e 7180 8b3e 4395 66bd
00000170: 96e8 223e 8aa9 1e3e 4690 8e3e 342f 04be
00000180: 0044 643e 4221 35be cf27 8b3e 09ab 493e
00000190: 9f13 2a3e df83 50be 50c2 2f3d dd11 2abc
000001a0: 008a 5e3d b194 0abd 2381 2c3d d474 6ebd
000001b0: 3d3a b9bd e022 1a3c dc11 d93d f3b6 5bbe
000001c0: 645a ef3d a92d 55be 5c5b 9c3d 3ad0 c5bc
000001d0: 8b78 a8bc b28b e53d 95c4 08be 3df1 b8bd
000001e0: bfdd 593e 58cc c9bc b074 813e b202 293e
000001f0: 5cdb dfbd 94f8 72be dafb f73d 4947 9a3d
00000200: 7a1e 343a f65d c3bd 46e2 14be 9184 f5bd
00000210: de65 633e 3088 1d3d fcd5 523e b18b 7bbe
00000220: a6de 8dbd c873 32be 5697 7cbd ea2b ecbd
00000230: 2eb9 6abe a660 0dbe 6c45 333e 4236 5cbe
00000240: 6c37 6cbe 0b5d 87be fea2 6e3e 9701 36bc
00000250: 7077 3b3e 40e6 023e f12e 003e 5b22 393e
00000260: 4077 313e 8e1c 8dbd 37f3 2c3e ffa2 153e
00000270: 1153 ecbd 4ea5 4d3d e0e4 893e 25ce 68bd
00000280: a75e b93d 4592 6b3d 0abf 843e b535 82bd
00000290: 1825 cd3d d5f3 74bc e428 343e 1709 633e
000002a0: 9bdf 34be f465 883e 114c 9dbe 8c2a b6bd
000002b0: 4c0b 493e ed38 1f3e 6578 42be e1a5 7d3d
000002c0: 695c ecbd 56d9 53be c9dc 183e c967 793d
000002d0: a7ad 3e3e 0f37 85be acd3 e03d 1de9 80bc
000002e0: b1b2 253e 955f 143d 401c ecbd daab 363e
000002f0: 1b45 6dbc 0286 563d f828 f8bd 746e 473e
00000300: 53dd 4b3e 6e1b 903e d38d 01be b5c6 0cbd
00000310: 398d 53be 45d3 10be 42e5 543e 462c 12bd
00000320: 5b38 e9bd b152 2dbe 92c2 08be 4e10 033e
00000330: 76fe 413d 982c 413e 050c 78be 12a8 1c3c
00000340: 01fa 5c3e 333d 86bc a7bf 0dbe 1422 983d
00000350: c391 643e 82cd 323e 00dd 1a3e eeb6 3c3d
00000360: 84c6 213e 11c9 5bbe 905a ecbd 254b 85be
00000370: 5d30 063e d6de e7bd 50a8 1cbe f3e1 49be
00000380: e2d5 893e ee96 8fbe bf03 653e 12ca 13be
00000390: ad62 883e b817 9bbd e03b 82be 1832 ea3d
000003a0: 0e74 203e 88db 2c3e d32c e33d 0ce4 1bbe
000003b0: 83c4 52be fc27 b73d 0320 7cbe b6c9 c93d
000003c0: 56f9 253c f161 c63d eeb6 6b3e dc1d 913e
000003d0: 949b bebc 22ed e3bd aa5b 833e 06ea 393e
000003e0: 49c3 7abe 5fcf b3bd b949 f93d bac4 b8bd
000003f0: 7e60 8c3d ef59 56bc c5d0 b43d ae89 44be

layers.0.bias f4 [64]
0.25412273 0.29615602 -0.25194156 -0.24264489 0.23072267 -0.26858813 0.31792936 -0.29135728
0.29568478 0.29760218 0.2617397 0.31033385 -0.2602573 -0.25151306 -0.22640587 -0.24613822
0.30733675 -0.24698344 -0.31476757 -0.2889678 0.25274196 0.26393208 0.21965042 -0.3162057
-0.20537505 0.24622285 0.27779433 0.33881184 -0.24488644 0.21901411 -0.2866022 -0.24851803
0.2595068 0.2650786 -0.24211517 -0.24601202 0.25221282 0.29235137 0.24047329 -0.28917393
0.29342702 0.32153943 -0.28394136 0.29984596 0.26760113 -0.24742955 -0.25302944 -0.30533096
-0.21351412 -0.21515258 0.23649597 0.22172135 -0.28217807 -0.28869355 -0.28847018 0.33174568
0.24729986 -0.30580303 0.22407575 -0.25213614 0.29642063 0.31661746 0.28266132 0.2827625
00000000: 601c 823e c3a1 973e 7cfe 80be e777 78be
00000010: 9042 6c3e 6284 89be a3c7 a23e c82c 95be
00000020: ff63 973e 505f 983e bf02 863e 14e4 9e3e
00000030: 7240 85be 52c6 80be f1d6 67be a80b 7cbe
00000040: 3e5b 9d3e 3ae9 7cbe 3729 a1be 96f3 93be
00000050: 6567 813e 1b22 873e 0aec 603e b7e5 a1be
00000060: d64d 52be d821 7c3e 0f3b 8e3e bf78 ad3e
00000070: 83c3 7abe 3c45 603e 86bd 92be 837b 7ebe
00000080: 13de 843e 62b8 873e 0aed 77be 93ea 7bbe
00000090: 0a22 813e 14af 953e a13e 763e 9b0e 94be
000000a0: 113c 963e d1a0 a43e c360 91be 6985 993e
000000b0: 0403 893e 2c5e 7dbe 138d 81be 5754 9cbe
000000c0: 72a3 5abe f550 5cbe 002c 723e ec0a 633e
000000d0: a579 90be a4cf 93be 5db2 93be 92da a93e
000000e0: 2d3c 7d3e 3792 9cbe 1d74 653e fd17 81be
000000f0: 72c4 973e af1b a23e fcb8 903e 3fc6 903e

layers.2.weight f4 [64, 64]
0.051852625 0.2538001 -0.31821305 -0.33182368 0.20690411 -0.05943598 -0.011550432 -0.038213078
0.08177855 0.17531069 0.08669178 0.20961806 -0.1827683 -0.41952384 -0.19608779 -0.3432126
0.30363595 -0.037865438 -0.09488783 -0.12026018 0.36860412 0.2492423 0.015142934 -0.29617476
-0.1336657 0.2787059 0.47512853 0.094732754 -0.26087323 0.082290106 -0.14225946 -0.12474202
0.15712932 0.26970774 -0.011487687 -0.22395808 0.14778717 0.23188739 0.28635168 -0.34839556
0.39178964 0.20956515 -0.03918769 -0.02582552 -0.019008799 0.062922746 -0.2782472 0.027060712
-0.21093121 -0.19766784 0.098978825 0.36478618 -0.03024541 0.06107771 -0.2670131 0.17544562
0.22668602 -0.17702004 0.12720375 -0.35158348 0.36507797 -0.008339854 0.3812879 0.13314642
0.011469191 -0.19502592 -0.0072148405 0.4582211 -0.2173892 0.05718461 -0.0053762468 0.292392
-0.14012001 -0.047720045 -0.43062523 -0.27181372 -0.039169304 0.4111268 0.24163058 0.4290874
-0.060020387 0.0061869672 0.13743775 0.3488291 -0.23695575 -0.16873011 -0.097137846 0.089699626
0.2644798 -0.22064418 -0.39753568 -0.36451316 0.15064062 -0.13899343 0.30317023 0.016731756
-0.4632116 0.029602591 0.024598377 0.1419244 -0.055688005 -0.008703984 -0.25979358 0.28824672
-0.2965491 -0.38307938 0.2272957 -0.2649605 -0.05084594 0.24098055 0.32197616 0.02968306
-0.030204138 0.17500713 -0.028922014 -0.103132665 0.27216908 -0.038153693 0.2750514 -0.36937356
-0.4177722 0.26355982 -0.098924324 0.13211156 -0.3166166 0.03226671 -0.19560575 -0.01972097
-0.034235705 -0.42101055 -0.017084964 0.37525693 -0.06226561 -0.024359455 -0.1656283 0.27239978
-0.2818726 -0.119231634 -0.45208648 -0.06010343 0.005571271 0.4370633 0.2565425 0.41014147
-0.30196226 0.0021272819 0.11797963 0.20443706 -0.11589448 -0.21630017 -0.23028536 -0.03301704
0.15045576 -0.05914191 -0.08090586 -0.30177987 0.30998725 -0.14041777 0.33375177 0.026961623
-0.46773705 0.051382124 0.1480195 0.031912435 -0.31591445 -0.04557019 -0.035409406 0.39870763
-0.14116076 -0.02157932 0.27034077 -0.349908 -0.1326381 0.22579344 0.31826118 0.2958149
0.0027889642 0.016903227 -0.087123916 -0.37566832 0.03878699 0.3666913 0.420004 -0.3412818
-0.29306588 0.18963984 0.06533395 0.3040874 -0.38302517 -0.27572927 -0.054403584 -0.26753443
-0.0009127945 -0.19669968 0.11244738 0.4212074 -0.23105721 0.21746498 -0.2517564 0.1686986
-0.22025837 -0.28540218 -0.41479987 -0.025409617 0.24764127 0.020980837 0.059789352 0.40144008
-0.036096282 -0.085815415 0.28648546 0.21062312 -0.19384949 -0.33814678 -0.15004487 -0.01946433
0.22277325 -0.21026212 -0.11347017 -0.16218115 -0.023582973 -0.1449606 0.071592204 0.08548128
-0.4203752 -0.076397695 0.14509317 0.18033819 -0.15875338 -0.029675253 -0.32210752 0.29555526
-0.298661 -0.15500265 0.07466122 -0.34377939 -0.14734255 0.10082158 0.1642316 0.2662619
0.2729119 0.27162692 -0.17401813 -0.3165233 0.22602554 0.06859977 0.27373183 -0.39720547
-0.10618581 0.20875564 0.10910937 0.38074973 -0.16414657 -0.32187998 -0.280763 0.015514282
00000000: 6b63 543d 16f2 813e d2ec a2be cbe4 a9be
00000010: acde 533e 2473 73bd 063e 3dbc 5185 1cbd
00000020: 837b a73d a584 333e 768b b13d 1ea6 563e
00000030: 9d27 3bbe d4cb d6be 3dcb 48be 90b9 afbe
00000040: 2c76 9b3e ca18 1bbd 8d54 c2bd f84a f6bd
00000050: aeb9 bc3e 6039 7f3e 121a 783c 38a4 97be
00000060: a9df 08be 8ab2 8e3e 0c44 f33e 3f03 c23d
00000070: 2d91 85be b787 a83d 77ac 11be bf78 ffbd
00000080: 82e6 203e 2217 8a3e da36 3cbc 4455 65be
00000090: 8555 173e e373 6d3e b09c 923e e760 b2be
000000a0: a798 c83e 3f98 563e 4583 20bd 0a90 d3bc
000000b0: 57b8 9bbc a4dd 803d 6b76 8ebe 6dae dd3c
000000c0: 5afe 57be 7069 4abe 69b5 ca3d 41c5 ba3e
000000d0: 39c5 f7bc 9f2c 7a3d f1b5 88be 04a8 333e
000000e0: 6120 683e be44 35be b341 023e c002 b4be
000000f0: 80eb ba3e e2a3 08bc 2b38 c33e 8957 083e
00000100: 46e9 3b3c e0b4 47be 786a ecbb f59b ea3e
00000110: 469b 5ebe 693a 6a3d 3a2b b0bb 67b4 953e
00000120: 9f7b 0fbe 1876 43bd e97a dcbe 2b2b 8bbe
00000130: fe6f 20bd 367f d23e 026e 773e 58b1 db3e
00000140: f0d7 75bd 0bbc ca3b 7bbc 0c3e ba99 b23e
00000150: 87a4 72be 96c7 2cbe 35f0 c6bd 70b4 b73d
00000160: e569 873e 8cf0 61be cc89 cbbe 78a1 babe
00000170: 8941 1a3e 4b54 0ebe 2139 9b3e 0911 893c
00000180: 122a edbe 2281 f23c 8982 c93c a154 113e
00000190: 1b19 64bd 289b 0ebc aa03 85be 1395 933e
000001a0: 49d5 97be fb22 c4be 34c0 683e e7a8 87be
000001b0: d543 50bd 9bc3 763e 0fda a43e e329 f33c
000001c0: ab6e f7bc 1235 333e dced ecbc 3837 d3bd
000001d0: bf59 8b3e 0c47 1cbd 89d3 8c3e 881e bdbe
000001e0: 3de6 d5be 50f1 863e d698 cabd 4148 073e
000001f0: 921b a2be 192a 043d e04c 48be df8d a1bc
00000200: bd3a 0cbd b28e d7be c4f5 8bbc ad21 c03e
00000210: 390a 7fbd 7b8d c7bc 779a 29be fc77 8b3e
00000220: 9b51 90be b72f f4bd e177 e7be 042f 76bd
00000230: 358f b63b c3c6 df3e 8a59 833e 10fe d13e
00000240: cc9a 9abe de69 0b3b 4e9f f13d f357 513e
00000250: 165a edbd cb7d 5dbe edcf 6bbe e03c 07bd
00000260: 1311 1a3e ca3e 72bd f9b1 a5bd e482 9abe
00000270: a6b6 9e3e adc9 0fbe 83e1 aa3e 9fde dc3c
00000280: 3b7b efbe 1076 523d 6c92 173e 9db6 023d
00000290: 8abf a1be cfa7 3abd 7409 11bd 6823 cc3e
000002a0: 728c 10be 1dc7 b0bc 1b6a 8a3e 2427 b3be
000002b0: 48d2 07be 6536 673e 21f3 a23e 0d75 973e
000002c0: 0ec7 363b a378 8a3c 066e b2bd 9957 c0be
000002d0: 1bdf 1e3d f6be bb3e c40a d73e 7dbc aebe
000002e0: bb0c 96be f230 423e cecd 853d 58b1 9b3e
000002f0: e01b c4be 632c 8dbe 4bd6 5ebd 46fa 88be
00000300: 9a48 6fba a46b 49be d04a e63d 7fa8 d73e
00000310: 439a 6cbe 24af 5e3e 37e6 80be 53bf 2c3e
00000320: 698b 61be 3c20 92be a660 d4be d427 d0bc
00000330: ac95 7d3e 01e0 ab3c aee5 743d 8e89 cd3e
00000340: b2d9 13bd febf afbd 39ae 923e 96ad 573e
00000350: 7b80 46be 9321 adbe 5da5 19be a973 9fbc
00000360: ac1e 643e f44e 57be 0c63 e8bd d112 26be
00000370: 1431 c1bc 8d70 14be ef9e 923d cf10 af3d
00000380: 6b3b d7be 6576 9cbd 4e93 143e 93aa 383e
00000390: 3f90 22be 8419 f3bc 47eb a4be 0553 973e
000003a0: 18ea 98be 04b9 1ebe fbe7 983d da03 b0be
000003b0: f7e0 16be 8b7b ce3d 542c 283e 7b53 883e
000003c0: 1cbb 8b3e af12 8b3e cf31 32be 580f a2be
000003d0: 3d73 673e 097e 8c3d 9426 8c3e 845e cbbe
000003e0: f277 d9bd 0ac4 553e bc74 df3d a1f1 c23e
000003f0: 0a16 28be 74cd a4be 2bc0 8fbe 9d2f 7e3c

layers.2.bias f4 [64]
0.13443302 -0.13345736 -0.1454219 -0.12170799 0.14694569 -0.12489627 -0.12888367 0.15262403
0.19967903 -0.1307104 0.120452784 -0.21800628 -0.15477447 0.12394463 0.22691612 -0.13023512
0.13906772 -0.13270605 -0.12113173 -0.18978214 0.15785661 0.11334495 0.12714076 0.1518774
-0.14278837 0.18254857 0.18066654 -0.15687452 0.1716284 0.132714 -0.13309759 -0.20667234
-0.20838057 0.13563605 0.18123767 0.17646421 -0.13057026 0.13496865 0.13097467 -0.17891505
-0.14060953 0.12955934 0.15918717 0.15006423 0.11983073 0.124373 0.13253753 -0.13458143
-0.116941854 0.16052511 -0.16902927 -0.12855655 -0.24584018 -0.12711997 -0.1387951 -0.13595638
-0.14216374 -0.24006931 -0.12037756 -0.17926683 0.14784758 -0.12909827 0.15824042 0.16968791
00000000: cfa8 093e 0ca9 08be 7be9 14be 0a42 f9bd
00000010: ee78 163e 9ec9 ffbd 15fa 03be 7949 1c3e
00000020: a978 4c3e f2d8 05be f3af f63d 0a3d 5fbe
00000030: 337d 1ebe afd6 fd3d b35c 683e 5b5c 05be
00000040: c567 0e3e 18e4 07be ea13 f8bd 4056 42be
00000050: 2aa5 213e 6621 e83d 3031 023e c085 1b3e
00000060: 1d37 12be 03ee 3a3e a600 393e b7a3 20be
00000070: 5bbf 2f3e 2ee6 073e bc4a 08be eaa1 53be
00000080: b761 55be 2de4 0a3e 5e96 393e 09b3 343e
00000090: 36b4 05be 3935 0a3e 391e 063e 8235 37be
000000a0: f2fb 0fbe 34ab 043e f601 233e 70aa 193e
000000b0: d069 f53d 45b7 fe3d ebb7 073e b7cf 09be
000000c0: 367f efbd b260 243e 0216 2dbe 54a4 03be
000000d0: 87bd 7bbe bd2b 02be 4d20 0ebe 2638 0bbe
000000e0: 5f93 11be bbd4 75be 8388 f6bd b991 37be
000000f0: 5b65 173e 5632 04be c709 223e abc2 2d3e

output_layer.weight f4 [1, 64]
0.734481 -0.6047176 -0.5116658 -0.7072697 0.7213407 -0.5986907 -0.6179557 0.5515824
0.48587054 -0.6375977 0.69324434 -0.48669016 -0.5348918 0.6780947 0.41961956 -0.70313704
0.77936584 -0.72266644 -0.63947195 -0.49313614 0.643338 0.7066156 0.62590927 0.6143734
-0.6199639 0.5162042 0.5266007 -0.60527223 0.47745502 0.64644855 -0.54782575 -0.4805202
-0.50143677 0.6203949 0.505113 0.43891612 -0.67425054 0.6849425 0.7643105 -0.5062939
-0.5271587 0.645699 0.5816164 0.5524176 0.6129203 0.60583174 0.6540285 -0.6958176
-0.77007866 0.52365184 -0.44168562 -0.64500636 -0.4560963 -0.65052193 -0.6371308 -0.6199149
-0.57025516 -0.46438405 -0.7597646 -0.42291647 0.6795112 -0.72198915 0.57351893 0.49316528
00000000: f206 3c3f c6ce 1abf 88fc 02bf a10f 35bf
00000010: c9a9 383f cb43 19bf 5832 1ebf 8134 0d3f
00000020: 06c4 f83e 9a39 23bf 7678 313f 742f f9be
00000030: abee 08bf 9d97 2d3f 60d8 d63e ca00 34bf
00000040: 8584 473f ab00 39bf 6fb4 23bf 577c fcbe
00000050: cdb1 243f c3e4 343f 973b 203f 9347 1d3f
00000060: f4b5 1ebf f525 043f 4ecf 063f 1ff3 1abf
00000070: fc74 f43e a77d 253f 4f3e 0cbf be06 f6be
00000080: 295e 00bf 33d2 1e3f 164f 013f 9db9 e03e
00000090: af9b 2cbf 6458 2f3f daa9 433f 7a9c 01bf
000000a0: dff3 06bf 884c 253f d0e4 143f 3d6b 0d3f
000000b0: 58e8 1c3f ca17 1b3f 696e 273f 1a21 32bf
000000c0: e023 45bf 0c0e 063f 9e24 e2be 231f 25bf
000000d0: 7485 e9be 9b88 26bf 011b 23bf beb2 1ebf
000000e0: 3efc 11bf bfc3 edbe ef7f 42bf 8288 d8be
000000f0: 72f4 2d3f 48d4 38bf 23d2 123f 2980 fc3e

exp_avg f4 [64, 4]
-0.0034954809 -0.005726441 -0.00016797171 0.003006325 -0.0029938526 -0.0032175798 -8.63071e-05 0.0008832416
-0.0020339065 -0.0011871097 -1.0903606e-05 -0.000536 0.00077167025 0.0020565419 0.00014381844 -0.001521502
3.818866e-05 0.00054822257 0.00013780974 -0.0007264122 0.0028861072 0.004526807 0.00014582688 -0.002048735
-0.0019029476 -0.0027823665 -4.72859e-07 0.0012977199 0.00074449775 0.0021131102 6.418683e-05 -0.0016329305
-0.00025323787 0.0016964953 4.059937e-05 -0.0017642261 0.0017243444 0.0041860095 0.00028772373 -0.002792757
0.0010225709 0.0020003647 0.00020017625 -0.0011477043 -0.0010836258 -0.0042981743 -5.532674e-05 0.003358818
-0.0008103842 -8.119647e-05 8.047684e-05 -0.0006866376 -0.00044435306 -0.0008960982 -5.7056484e-05 0.0005693038
-0.004352121 -0.008085907 -0.0003639045 0.0045821005 -0.0012166162 -0.0014089016 9.416382e-05 0.00034855804
0.00065474113 0.0029736273 0.00011318258 -0.0022770385 -0.0016709256 -0.0035436472 -0.00013928446 0.0022149172
-0.0011243214 -0.004415169 -0.000132699 0.0030745433 0.0005969276 0.0014508038 0.00015934701 -0.00096850283
-0.0003989666 -0.001010774 -9.364412e-05 0.00075602497 0.00212313 0.0042702863 0.00016738308 -0.002636449
0.0022957462 0.0061148037 0.00013386106 -0.0041087037 -0.0007941573 -0.0018243281 -0.00016204614 0.0011571931
-0.0036963592 -0.004951532 -0.00010160596 0.0019867313 0.0021318013 0.004118399 0.00026171067 -0.0025039308
0.00082913844 0.0012379553 3.9388124e-05 -0.00051875104 0.0006851345 -0.001025771 -6.7031e-05 0.0017005547
0.0009705922 0.00091246684 2.2432112e-06 -0.00022393609 -0.0013950897 -0.0035190256 -0.00026113424 0.0024256743
0.0013454189 0.0036545952 0.0002667066 -0.0025858616 -0.0061876844 -0.009518827 -0.00030552983 0.004466192
0.0026953293 0.0067253346 0.00016175382 -0.0044827303 -0.0021337867 -0.0044536307 -0.00012980746 0.0026552973
-0.0014059659 -0.0025699877 -0.00012355327 0.0012628039 -0.0024715008 -0.0041439836 -0.00032991046 0.0022721915
-0.00052753254 0.00044082094 -9.199912e-05 -0.0008976915 -0.00057455857 -0.00084276224 -0.00014396844 0.00043887127
-0.001646844 -0.0019499833 2.9438226e-05 0.0006893827 0.0007785728 0.001026422 2.4924519e-05 -0.00037982536
-0.0032998214 -0.004614312 -9.8625285e-05 0.0017794314 -0.0054723276 -0.008097702 -0.00022870484 0.003626614
-0.0007461811 -0.00022432323 0.00013371289 -0.00029639207 0.0011081982 0.0008824089 -1.9264542e-05 8.574823e-05
-0.0035595095 -0.0038118192 -0.00012882189 0.0008150617 -0.0012494178 -0.004224091 -5.5547105e-05 0.0031345617
0.0022093426 0.003988014 0.00021627237 -0.0019313418 -0.0035655736 -0.0063774134 -0.00037754583 0.0036685811
-0.002450627 -0.0016408713 -5.318677e-05 -0.00026251518 -0.0011847953 -0.0038880133 -0.00032816437 0.0029137342
-0.0020146782 -0.0040686545 -3.8540966e-05 0.0024603389 0.0019430146 0.0028265847 -1.075531e-05 -0.0011467872
0.0014436026 0.0026048496 0.00020553735 -0.0015785128 -7.138182e-05 -0.0019768146 1.3989467e-05 0.0017830415
0.00015594198 0.0011966276 0.00017877044 -0.0011930976 -0.001808767 -0.003775233 -0.00030577526 0.0023100346
-0.0005269604 -0.002940942 -3.4433204e-05 0.002453717 -0.002948816 -0.006165881 -0.0002612338 0.0036188588
-7.12666e-05 0.00048190402 -0.000114975126 -0.000509066 -3.2732438e-05 -0.0032645985 -2.4754836e-05 0.0031656744
-0.0036789994 -0.005246875 -0.00016642491 0.0023613381 0.0011500607 0.0036785277 9.913434e-05 -0.0023769208
0.0019319019 0.0024698894 0.00010955588 -0.0008853248 0.0007174086 8.094262e-05 -3.459215e-05 0.00036582098
00000000: 7014 65bb dea4 bbbb 9021 30b9 c405 453b
00000010: 8334 44bb 08de 52bb c6ff b4b8 5789 673a
00000020: 4a4b 05bb cb98 9bba a2ee 36b7 5a82 0cba
00000030: ea49 4a3a 0cc7 063b f8cd 1639 236d c7ba
00000040: c32c 2038 98b6 0f3a 0581 1039 b36c 3eba
00000050: d824 3d3b 9c55 943b 1be9 1839 1244 06bb
00000060: 536c f9ba 5d58 36bb 3fdd fdb4 4118 aa3a
00000070: 662a 433a 1b7c 0a3b 0b9c 8638 0e08 d6ba
00000080: 03c5 84b9 f05c de3a 3e49 2a38 9b3d e7ba
00000090: 6603 e23a cb2a 893b a0d9 9639 b006 37bb
000000a0: c907 863a 8d18 033b 67e6 5139 916e 96ba
000000b0: 7308 8eba b3d7 8cbb a20e 68b8 9d1f 5c3b
000000c0: f76f 54ba 0648 aab8 adc5 a838 78ff 33ba
000000d0: 0ff8 e8b9 22e8 6aba ef4f 6fb8 553d 153a
000000e0: 3d9c 8ebb c17a 04bc 6fca beb9 7225 963b
000000f0: de76 9fba e5aa b8ba d179 c538 abbe b639
00000100: efa2 2b3a 30e1 423b 6f5c ed38 5e3a 15bb
00000110: f602 dbba 893c 68bb e30c 12b9 2528 113b
00000120: f75d 93ba 1fad 90bb 1e25 0bb9 477e 493b
00000130: 227b 1c3a e628 be3a 6316 2739 20e3 7dba
00000140: 642c d1b9 f37b 84ba ce62 c4b8 fa2f 463a
00000150: 3624 0b3b c2ed 8b3b 8e83 2f39 46c8 2cbb
00000160: 3b74 163b b15e c83b 0e5d 0c39 4ea2 86bb
00000170: ff2e 50ba 4b1e efba eeea 29b9 f5ac 973a
00000180: 9e3e 72bb 7640 a2bb 4915 d5b8 d233 023b
00000190: b1b5 0b3b a3f3 863b 3636 8939 fd18 24bb
000001a0: 8a5a 593a e342 a23a ad34 2538 cbfc 07ba
000001b0: 999a 333a 2a73 86ba fe92 8cb8 26e5 de3a
000001c0: 576f 7e3a 9d32 6f3a 138a 1636 63d0 6ab9
000001d0: 71db b6ba 749f 66bb d8e8 88b9 10f8 1e3b
000001e0: c458 b03a ef81 6f3b c1d4 8b39 8f77 29bb
000001f0: 0fc2 cabb dbf4 1bbc 852f a0b9 2259 923b
00000200: 1fa4 303b 3260 dc3b 769c 2939 dee3 92bb
00000210: 00d7 0bbb c3ef 91bb ed1c 08b9 7f04 2e3b
00000220: 6348 b8ba 3d6d 28bb 148e 01b9 ab84 a53a
00000230: e7f8 21bb 41ca 87bb d5f7 acb9 0ce9 143b
00000240: 1c4a 0aba fc1d e739 a7ef c0b8 0f53 6bba
00000250: f99d 16ba d1ec 5cba 3cf6 16b9 4e18 e639
00000260: eada d7ba 9596 ffba 1cf2 f637 b1b7 343a
00000270: 2319 4c3a 0289 863a ff14 d137 4c23 c7b9
00000280: d141 58bb a833 97bb 0cd5 ceb8 cf3b e93a
00000290: 3651 b3bb 39ac 04bc 7dd0 6fb9 7dac 6d3b
000002a0: 5e9b 43ba 4f38 6bb9 4835 0c39 1265 9bb9
000002b0: f640 913a 7551 673a 4a9a a1b7 bbd3 b338
000002c0: a946 69bb b7cf 79bb 5d14 07b9 dda9 553a
000002d0: 81c3 a3ba 3e6a 8abb 40fb 68b8 386d 4d3b
000002e0: 9eca 103b e3ad 823b 2cc7 6239 1425 fdba
000002f0: 66ac 69bb 9ff9 d0bb 58f1 c5b9 946c 703b
00000300: b39a 20bb 8112 d7ba dc14 5fb8 31a2 89b9
00000310: 224b 9bba 0ace 7ebb 7a0d acb9 59f4 3e3b
00000320: b108 04bb 5952 85bb 0ca7 21b8 a33d 213b
00000330: c0ac fe3a 393e 393b b471 34b7 cb4f 96ba
00000340: 4437 bd3a 20b6 2a3b 8385 5739 1ae6 ceba
00000350: d3b2 95b8 728d 01bb 4eb4 6a37 f2b4 e93a
00000360: 5b84 2339 29d8 9c3a 5374 3b39 b661 9cba
00000370: 2614 edba e669 77bb 7650 a0b9 f363 173b
00000380: b723 0aba d2bc 40bb 5f6c 10b8 8ace 203b
00000390: ec40 41bb 290b cabb 35f6 88b9 602a 6d3b
000003a0: f774 95b8 10a8 fc39 cd1e f1b8 d772 05ba
000003b0: 304a 09b8 e0f2 55bb 9ba8 cfb7 3477 4f3b
000003c0: 5e1b 71bb faed abbb 5982 2eb9 aec0 1a3b
000003d0: a2bd 963a 7413 713b 58e6 cf38 1dc6 1bbb
000003e0: df37 fd3a dedd 213b 5dc1 e538 2415 68ba
000003f0: 7a10 3c3a bdbf a938 0a17 11b8 a9cb bf39

exp_avg_sq f4 [64, 4]
0.0007636933 0.00041676356 5.7990865e-06 0.00016274732 0.00015290616 7.103867e-05 8.924726e-07 2.5234769e-05
2.6565718e-05 1.5166004e-05 2.3676107e-07 3.6833273e-06 8.899592e-05 8.539523e-05 1.1346198e-06 2.7484646e-05
6.8682784e-05 5.856805e-05 6.662076e-07 1.7993816e-05 0.00029052235 0.00014148852 2.416578e-06 6.159192e-05
0.00013330663 4.9221315e-05 8.96475e-07 2.5979334e-05 0.000110481946 7.11159e-05 1.1413767e-06 3.101313e-05
6.001687e-05 3.8380203e-05 8.34379e-07 2.3405208e-05 0.00027696785 0.0002686849 3.5123655e-06 8.31868e-05
7.584139e-05 7.957764e-05 9.754606e-07 2.2843136e-05 0.00030539985 0.00014856951 3.0928463e-06 9.614306e-05
3.1034757e-05 2.5854606e-05 3.3495732e-07 7.4650034e-06 9.302227e-06 8.3384e-06 9.84562e-08 2.3994685e-06
0.0010737707 0.0007166656 1.02138465e-05 0.00026655823 8.172136e-05 2.6685222e-05 5.6149867e-07 1.9286997e-05
0.0001820329 0.0001174125 2.013038e-06 5.3942935e-05 0.00032280036 0.00020828005 2.8526065e-06 7.748628e-05
0.00041467228 0.00018374597 4.681264e-06 0.0001269278 4.6955432e-05 5.2591215e-05 6.69872e-07 1.5764963e-05
3.395025e-05 3.1531134e-05 4.1962582e-07 9.089614e-06 0.00030881277 0.0002047384 2.9727034e-06 7.534606e-05
0.00055469276 0.0003090074 5.411344e-06 0.00016485812 0.000121963996 9.6586555e-05 1.3889555e-06 2.6418036e-05
0.00036167918 0.00016251266 2.548592e-06 7.121726e-05 0.00032951852 0.00027665956 3.7211441e-06 8.926629e-05
3.367851e-05 1.52298e-05 2.6159333e-07 5.474419e-06 9.358462e-05 9.436744e-05 1.1720854e-06 3.0299236e-05
5.513858e-06 3.4293835e-06 4.1763116e-08 8.8948786e-07 0.00024006775 0.00022554815 3.1244012e-06 7.101646e-05
0.00022847184 0.00022849941 3.1116829e-06 7.169274e-05 0.0012337503 0.0006486403 1.0082635e-05 0.00026808126
0.00064776535 0.0003726304 6.4187893e-06 0.00019089688 0.00027088082 0.00015698692 2.6094426e-06 7.415382e-05
0.00013829129 8.241723e-05 1.2568648e-06 3.111381e-05 0.0003435092 0.00031700116 3.7409716e-06 9.085633e-05
1.4101162e-05 3.5712892e-06 1.2214146e-07 7.5089856e-06 3.1960197e-05 3.2282267e-05 3.4166084e-07 9.726842e-06
4.6930985e-05 1.3401988e-05 2.782519e-07 1.0293113e-05 1.6308624e-05 7.7733e-06 1.2623732e-07 3.490991e-06
0.0003235567 0.00013452822 2.3373811e-06 6.137427e-05 0.0007103343 0.00034904122 5.4544453e-06 0.00015841448
2.69893e-05 2.1554233e-05 3.367344e-07 7.67252e-06 2.1083832e-05 7.636725e-06 1.4658366e-07 3.327073e-06
0.00016717783 6.276961e-05 1.090801e-06 2.5632262e-05 0.0002533658 0.00012546514 2.6162866e-06 7.7260105e-05
0.0003227672 0.00017343742 3.237673e-06 6.330609e-05 0.00074149866 0.0006096121 7.4923773e-06 0.00018790322
4.5329987e-05 1.8984236e-05 1.9475216e-07 3.900537e-06 0.00026354313 0.0002855658 4.105602e-06 9.15878e-05
0.00024295138 0.0001072138 1.9098966e-06 6.135866e-05 0.00014975427 4.990927e-05 1.0473366e-06 2.7750788e-05
0.00016274833 0.0001477809 1.8050522e-06 4.276618e-05 6.846007e-05 2.4963669e-05 6.727066e-07 2.4607349e-05
9.021562e-05 9.668158e-05 1.1999668e-06 2.6155782e-05 0.00025411005 0.0002505485 3.1044444e-06 7.1724986e-05
0.0001721778 8.7103566e-05 1.6872111e-06 5.3365784e-05 0.00062287704 0.00040926793 5.9861213e-06 0.00016024038
2.9236428e-05 9.031711e-06 2.1896697e-07 9.208664e-06 0.00018757295 9.732265e-05 2.2036604e-06 7.459917e-05
0.00025039812 0.00015006748 1.8944698e-06 5.6043802e-05 0.00035005214 0.00014150943 3.4110321e-06 8.5418775e-05
5.1343024e-05 3.230514e-05 3.821978e-07 1.0418022e-05 4.470804e-06 4.396227e-06 8.973714e-08 1.4237241e-06
00000000: 9732 483a 0f81 da39 c695 c236 27a7 2a39
00000010: 6f55 2039 98fa 9438 4092 6f35 41af d337
00000020: 72d9 de37 7e71 7e37 6338 7e34 152f 7736
00000030: 52a3 ba38 3716 b338 3d49 9835 d48e e637
00000040: ca09 9038 f7a6 7538 70d5 3235 6df1 9637
00000050: 4051 9839 895c 1439 7e2c 2236 e92a 8138
00000060: 3ac8 0b39 fc72 4e38 4ba5 7035 32ee d937
00000070: 8bb2 e738 0f24 9538 6831 9935 1814 0238
00000080: a0ba 7b38 6efa 2038 17fa 5f35 4d56 c437
00000090: ff35 9139 47de 8c39 fbb5 6b36 9374 ae38
000000a0: 090d 9f38 ece2 a638 92ec 8235 439f bf37
000000b0: 131e a039 53c9 1b39 b28e 4f36 6aa0 c938
000000c0: 512b 0238 58e2 d837 2fd4 b334 e47b fa36
000000d0: c310 1c37 28e5 0b37 de6e d333 8e06 2136
000000e0: c4bd 8c3a 9dde 3b3a 235c 2b37 d7c0 8b39
000000f0: d261 ab38 14da df37 e5b9 1635 83ca a137
00000100: 16e0 3e39 5b3b f638 bb17 0736 c940 6238
00000110: 883d a939 c065 5a39 686f 3f36 2180 a238
00000120: 5f68 d939 efab 4039 c013 9d36 ec17 0539
00000130: 03f2 4438 6395 5c38 41d1 3335 003f 8437
00000140: ce65 0e38 4c40 0438 ef48 e134 987f 1837
00000150: 26e8 a139 0caf 5639 a87e 4736 1c03 9e38
00000160: cd68 113a 4502 a239 1793 b536 c4dd 2c39
00000170: ecc6 ff38 838e ca38 266c ba35 4d9c dd37
00000180: c29f bd39 2968 2a39 7a08 2b36 7a5a 9538
00000190: 3ac3 ac39 9e0c 9139 c5b8 7936 7934 bb38
000001a0: 0642 0d38 7e83 7f37 1d71 8c34 e7b0 b736
000001b0: dc42 c438 22e7 c538 8c50 9d35 1d2b fe37
000001c0: ae03 b936 5c24 6636 085f 3333 24c5 6e35
000001d0: b2ba 7b39 1f81 6c39 ceac 5136 acee 9438
000001e0: f191 6f39 5899 6f39 4ed2 5036 bf59 9638
000001f0: cab5 a13a 8409 2a3a 9628 2937 428d 8c39
00000200: ccce 293a 9b5d c339 fb60 d736 7e2b 4839
00000210: 0205 8e39 db9c 2439 e21d 2f36 0783 9b38
00000220: 4902 1139 6ad7 ac38 8cb1 a835 3380 0238
00000230: 0619 b439 2d33 a639 670d 7b36 1f8a be38
00000240: 0894 6c37 48aa 6f36 fd25 0334 b2f5 fb36
00000250: 000d 0638 d266 0738 826d b734 7830 2337
00000260: c3d7 4438 1ad9 6037 a662 9534 95b0 2c37
00000270: 81ce 8837 126a 0237 da8b 0734 c546 6a36
00000280: 0ca3 a939 2510 0d39 e7db 1c36 0fb6 8038
00000290: ba35 3a3a 85ff b639 5405 b736 101c 2639
000002a0: 1567 e237 5dcf b437 6cc8 b434 39b9 0037
000002b0: 2fdd b037 7c1f 0037 9c64 1d34 ae46 5f36
000002c0: 754c 2f39 2ea3 8338 a367 9235 dd04 d737
000002d0: 2fd6 8439 4b8f 0339 7693 2f36 b406 a238
000002e0: 1539 a939 c1dc 3539 cc46 5936 33c3 8438
000002f0: 2261 423a 60ce 1f3a 0867 fb36 e307 4539
00000300: b420 3e38 5640 9f37 111d 5134 5ce1 8236
00000310: 292c 8a39 feb7 9539 dac2 8936 d312 c038
00000320: c4c0 7e39 f8d7 e038 c62b 0036 aead 8038
00000330: 5b07 1d39 ac55 5138 3692 8c35 5dca e837
00000340: 6ca7 2a39 a2f5 1a39 1f45 f235 d65f 3338
00000350: 3892 8f38 1269 d137 0c94 3435 e16b ce37
00000360: 2432 bd38 87c1 ca38 8c0e a135 1d69 db37
00000370: 133a 8539 0d5c 8339 f355 5036 0f6b 9638
00000380: a08a 3439 5fab b638 2274 e235 13d5 5f38
00000390: 9248 233a 0393 d639 64dc c836 3306 2839
000003a0: c040 f537 e786 1737 2f1d 6b34 e97e 1a37
000003b0: 3baf 4439 b319 cc38 99e2 1336 2072 9c38
000003c0: de47 8339 6f5b 1d39 7d45 fe35 9310 6b38
000003d0: 3487 b739 2662 1439 16e9 6436 db22 b338
000003e0: 2759 5738 617f 0738 de30 cd34 10c9 2e37
000003f0: ea03 9636 4d83 9336 84b5 c033 ca16 bf35
