experiments/ppo_pendulum_first_try_20250829_065010/checkpoints/final.pt (torch, 218703 bytes, 44 tensors)

shared_layers.0.weight f4 [64, 3]
000000 c9 70 a3 3a d2 80 65 3d 98 c7 bd 3d 42 34 af be
       0.0012469526 0.056031056 0.09266585 -0.34219557
000010 75 a7 6a 3c 67 cd 92 3e c2 ca ff bb 2d 4b d8 bd
       0.014322151 0.28672335 -0.007806153 -0.10561214
000020 8a 23 a5 be 3f 28 ed 3d eb ed 96 be ac c1 a0 bd
       -0.32253677 0.11579942 -0.29478392 -0.0784944
000030 3b 44 c5 3e cc a1 2f be ef c8 7d be 78 3b 37 3e
       0.38528618 -0.17151564 -0.24783681 0.1789378
000040 1f 3f 9c bc 39 51 a8 3d 2b cf 8b 3e b0 18 c7 bd
       -0.019073067 0.08218617 0.27306494 -0.09721506
000050 72 47 34 3e c2 32 17 be 5a ed 6e be d4 ab 45 bd
       0.17605379 -0.14765456 -0.2333273 -0.04825957
000060 0a d1 30 3e 9f f5 25 3d ba 32 b6 be e6 c5 a4 bd
       0.17267242 0.040517446 -0.35585576 -0.08045559
000070 0c 3b f8 bb 3f 53 65 bc 92 22 6e bc be 6a 41 3c
       -0.0075753983 -0.013996898 -0.014534609 0.0118052345
000080 98 fa c2 bd a3 18 0a bd 2d 30 53 bc b7 d1 ae 3d
       -0.09520453 -0.0337149 -0.012889904 0.08536094
000090 dc 56 86 be ac 47 88 3c 11 5a e4 bd 73 a1 07 3e
       -0.26238143 0.016635738 -0.11149991 0.13245182
0000a0 5e df 40 be be d8 82 3e 45 f1 1c 3d ab 72 6d bd
       -0.18835208 0.25555986 0.03831603 -0.057970684
0000b0 80 77 14 3e 4a 4f 32 3e a0 8d e8 3c 95 10 4b 3d
       0.1449871 0.17413059 0.028387845 0.04957636
0000c0 9b 1f a7 be cb cb 05 be 69 ff 94 be 0e ba 81 3e
       -0.326413 -0.13066022 -0.29101112 0.2533726
0000d0 7d ba 62 3d eb 96 15 be a2 ac 95 be 8a f8 11 be
       0.05535363 -0.14608352 -0.2923327 -0.14254966
0000e0 38 89 04 3c 41 59 73 3e 8a c6 0d 3d fa 38 38 bd
       0.008089356 0.23764516 0.03461317 -0.044976212
0000f0 42 5c 09 bd 7d 4c 4a be cd 3a 02 3e 8f 88 2f bd
       -0.03353525 -0.1975574 0.12717743 -0.04285484
000100 de 74 85 3d 35 45 9b 3d 89 8a 58 3d cf 64 04 be
       0.06516431 0.075815596 0.052866492 -0.1292908
000110 8c e4 69 3e 6b bd 06 3d 92 32 2b 3b c0 c5 71 3e
       0.2284109 0.032895487 0.0026122672 0.23610592
000120 69 29 03 3e 84 19 e7 bd 1a 27 15 3e 96 e9 30 be
       0.12808765 -0.112841636 0.14565697 -0.17276606
000130 d5 97 1b 3e 39 be 03 3e be c2 ac 3d 22 ad e7 bc
       0.15194638 0.12865533 0.084355816 -0.028280798
000140 22 bc 52 bd e4 8b 6d 3e 21 28 23 3d c2 64 aa 3e
       -0.05144895 0.23197895 0.03983319 0.33279997
000150 ad 67 7b bd 39 fe b9 3e e7 f8 16 3e f5 c9 9b be
       -0.06137817 0.3632677 0.14743386 -0.30427518
000160 9f 57 a5 3e d6 30 ba bd d4 38 dd bd 17 f6 10 3e
       0.32293412 -0.09091346 -0.10801855 0.14156376
000170 47 cd e1 bc 19 bf ac bc 0e 1e 1a be 0c 4e 06 be
       -0.027563704 -0.021087216 -0.15050527 -0.1311571
000180 ef cb b5 be 59 f1 97 be 86 e3 02 3e 04 6f 42 bd
       -0.3550715 -0.2967632 0.12782106 -0.047469154
000190 47 cb d5 bc 73 79 7b 3e 4f ee ab be 4c 47 3b bb
       -0.026097907 0.24558048 -0.33580253 -0.0028576432
0001a0 a7 b5 80 3d 77 04 c1 bd 74 1b 4a 3e 4b 42 91 bd
       0.062846474 -0.0942468 0.19737035 -0.070927225
0001b0 7b 6d 9c 3e 43 11 6f 3e 00 07 e4 3e 25 0f 31 3e
       0.30552277 0.23346429 0.4453659 0.17290933
0001c0 87 07 24 3e d1 5b 10 be 15 1d dc 3c 8d 5a aa be
       0.16018496 -0.14097525 0.026869336 -0.3327221
0001d0 a6 2e 1b be 3d 77 a2 3e ef 18 db 3c 6c 05 2c be
       -0.15154514 0.31731597 0.026745288 -0.16798943
0001e0 58 32 41 3e 1f 6a 26 3e 56 85 3d bd 6a 77 f2 bc
       0.18866861 0.1625142 -0.046269737 -0.029597957
0001f0 77 b4 48 be 41 4d 44 be 19 96 20 3e d4 06 1f bd
       -0.19600092 -0.19170095 0.15682258 -0.03882487
000200 b9 a4 cf bd 32 5f 7b be 52 5a 42 3e 5d 29 81 be
       -0.1013884 -0.24548033 0.18979767 -0.2522687
000210 9e a9 5d be 61 33 66 3e a1 aa 5a 3e 56 12 ab 3d
       -0.21646735 0.22480537 0.21354152 0.08353107
000220 e8 3e 4c 3e d5 92 05 3e d0 f1 86 3e 73 7a b0 bc
       0.19945872 0.13044293 0.26356363 -0.021542763
000230 e8 8c 3b 3d d8 d7 fb bd c8 cf 88 bc 07 2e f2 bd
       0.045788676 -0.12297028 -0.01670064 -0.11825185
000240 1b 42 45 be 35 94 9a be cd f7 22 3e 0f 53 4e be
       -0.19263498 -0.30191198 0.15914841 -0.20148872
000250 24 d7 9f 3e 01 34 b9 3d ba 1e 12 3e 26 50 3d 3d
       0.31218827 0.09043122 0.14269534 0.046219014
000260 75 10 c3 bd 00 c1 01 3e 17 f7 67 bc e8 9b a9 3e
       -0.09524623 0.1267128 -0.014158032 0.3312676
000270 eb b7 16 be aa 6e c4 bc 9a cf 53 be 45 3e 97 bb
       -0.14718597 -0.02397855 -0.20684662 -0.0046155774
000280 32 ec 30 be 4e 61 85 3e 9b 57 1a bd 7e 0d ab 3e
       -0.17277601 0.260508 -0.037681203 0.3340873
000290 14 82 e8 bd 22 8b c5 bd 7e c3 0a 3e 50 0b ac 3d
       -0.113529354 -0.09645678 0.13551137 0.08400595
0002a0 b0 9c 5a be 6a 7e df 3e 92 20 b9 bd 5c 22 55 3e
       -0.21348834 0.43651134 -0.090394154 0.20813888
0002b0 41 dd da bd 7a 04 80 3e b9 91 be be f3 a1 bd be
       -0.10686732 0.25003415 -0.37220553 -0.3703762
0002c0 b7 33 00 3e 71 ef 0d 3e 9c 7d 24 3e 0b be bf 3d
       0.12519728 0.13860871 0.16063541 0.0936242
0002d0 3f bc 14 3d 3e b7 11 3e ed 87 f3 3e 5c 66 88 be
       0.036312338 0.14230058 0.4756464 -0.26640594
0002e0 95 c6 82 bd ff db 42 3e 0e 5c aa bd f2 3e 95 3d
       -0.06385533 0.19029234 -0.08318339 0.072873965
0002f0 d3 00 e7 bd 49 08 93 bc 90 8d 1b 3e 1f 26 82 bc
       -0.11279454 -0.017948287 0.1519072 -0.015887318

shared_layers.0.bias f4 [64]
000000 65 98 b1 bb af 4c ac 3b b6 fc d2 3b a3 d5 c6 bb
       -0.005419778 0.005258165 0.006438817 -0.006067948
000010 ef 62 67 bc 4d 52 e8 bc c5 28 d9 bc 2e 73 01 3d
       -0.014122709 -0.028359557 -0.026508698 0.031603985
000020 35 1e 23 bc fb 29 d0 3c 6a b2 a0 3c 54 e5 a9 3b
       -0.009955932 0.025410643 0.019616324 0.0051848087
000030 bc 27 d5 3c 53 5a 05 bd a1 29 ea bc 5e 5a 12 bc
       0.026019923 -0.032556843 -0.028584303 -0.008932678
000040 8c d2 f9 3c df af b6 bc 2a 05 f5 3c 8a 94 d3 bc
       0.030495904 -0.022300659 0.029909689 -0.025827665
000050 2f fc 00 3c d3 cd ed bb 94 36 98 bc bd 2b 80 3c
       0.007872625 -0.007257202 -0.018580712 0.015645856
000060 fc bb ed bc 01 d1 59 3c b2 47 dc bc 7a be f4 bc
       -0.029020302 0.013294459 -0.026889656 -0.029875983
000070 32 65 43 3c b4 3f ca 3c 46 c0 88 3c 63 81 38 3c
       0.011925982 0.02468858 0.016693246 0.011261317
000080 b9 29 e3 3c ab 83 8c bc e4 a2 ad 3c be d2 dc 3c
       0.027729856 -0.017152628 0.021195836 0.026955958
000090 41 11 b7 bc 16 b2 ae bb 11 5c 80 bb 6a d3 b2 bc
       -0.022347094 -0.005331288 -0.003917225 -0.021829326
0000a0 e8 97 ba bc e7 73 5f 3b 43 86 26 bc 72 af bf 3c
       -0.022777513 0.0034096183 -0.010163846 0.023399089
0000b0 bc 72 66 3c eb 20 9c bc aa 84 6e bc d9 60 0b 3d
       0.014065441 -0.019058665 -0.014557997 0.034027908
0000c0 ca f8 c3 3c 2c 5b 8f 3c aa 68 b4 bc 34 1f bd 3b
       0.023922343 0.017499529 -0.022022564 0.005771542
0000d0 0c f7 f4 3c 99 b1 44 3b 11 b9 51 3c 95 04 43 3c
       0.029902957 0.0030013083 0.012800471 0.011902948
0000e0 ed a5 c2 3c 68 2c 6e bb 1c ae be 3c 6b a3 a9 bc
       0.02376076 -0.0036342386 0.023276381 -0.020707807
0000f0 99 ae 2d 3b 65 7b 88 3c 4e cf 98 bc 91 cb 02 3d
       0.0026501773 0.016660402 -0.018653538 0.031932417

shared_layers.2.weight f4 [64, 64]
000000 36 e9 f6 3d d7 e6 18 be 44 5d 9e be ce 10 16 be
       0.120562 -0.14931808 -0.3093053 -0.14654848
000010 dd 5c ab be 6c 08 20 3d 17 97 72 3d f0 8b 80 3d
       -0.33469287 0.03907053 0.05922612 0.06276691
000020 73 37 bc bd a0 de 8a bd 84 d2 64 3d 78 1f 4d 3d
       -0.091902636 -0.067807436 0.055864826 0.05007884
000030 c4 92 52 be 2e f3 b4 3c 2a be ea bd 61 68 a5 bd
       -0.20563799 0.022088613 -0.11462052 -0.08076549
000040 75 54 ac bc e8 18 b0 be 1f 09 53 3e 33 52 6e 3c
       -0.021036366 -0.34394002 0.20608948 0.014545965
000050 86 36 62 bd dd c9 e7 3d 92 2d ee 3d 34 15 af be
       -0.05522778 0.11317799 0.116297856 -0.34195864
000060 82 44 9e 3d 89 4a ea 3a 43 12 76 be ea 44 cd be
       0.077279106 0.0017874996 -0.24030404 -0.4009164
000070 89 fc ce 3d 5e 64 d9 bd dd 88 93 bd ef 61 c3 3d
       0.10106761 -0.10614847 -0.07203839 0.09540164
000080 eb 4f 50 be 18 58 1b 3d f6 74 58 3c 9a 14 63 3e
       -0.20342986 0.03792581 0.013211479 0.22175828
000090 e9 21 c1 3d 6a 79 62 be da 89 dd bd c4 fd d3 3d
       0.09430296 -0.22116628 -0.10817309 0.10351136
0000a0 eb 25 c6 3d 08 18 85 3d 8d 11 30 3e d4 3d 19 3d
       0.09675201 0.06498724 0.17194195 0.03741248
0000b0 97 e6 27 3e 79 5f 7f 3e 6c 26 ca be 04 da 2a 3e
       0.16396557 0.24938764 -0.3948244 0.16684729
0000c0 fb 44 2b be 8a 96 51 3d 5b 4e d7 bd d8 8a c0 3e
       -0.16725533 0.051168956 -0.10512992 0.3760593
0000d0 73 8f 83 3e a4 8b 81 be f6 c0 a1 3c 09 67 2f 3c
       0.2569538 -0.2530185 0.019745331 0.010705718
0000e0 09 fd 9a 3e fb c7 b1 3e ab ea 33 3d e9 ea 0b 3e
       0.30271176 0.34722885 0.04392497 0.1366383
0000f0 a7 0d 3f bd e1 94 4d 3e 8f 6c 48 be 81 30 0c bd
       -0.04664388 0.20076324 -0.19572662 -0.034225944
000100 2b fb 91 be 29 a8 c4 3d ae 95 af 3d bf f5 81 be
       -0.28511938 0.096023865 0.08573471 -0.25382802
000110 22 f4 cc 3c 45 2a 27 be 82 87 ce bd ef 13 2a bd
       0.025018755 -0.16324718 -0.1008444 -0.041522916
000120 70 23 78 3d 8e 08 a9 3d 31 fc 02 3e 3c aa 25 3d
       0.06058067 0.08253585 0.12791516 0.04044555
000130 5f 59 56 3e 98 6c 1f be 8a e6 a8 be 54 b9 cd be
       0.2093253 -0.15568769 -0.32988387 -0.40180457
000140 e3 e8 6e be 6e 3a fe bd 38 b4 b4 bd 51 4e a9 bd
       -0.23331027 -0.12413488 -0.088234365 -0.08266891
000150 4a 3c b1 bd 18 7b 91 be 18 ce 11 3e 2f 18 3d 3e
       -0.08654077 -0.28414226 0.14238775 0.18466257
000160 a3 26 79 be 57 31 53 3d de eb 94 3e 4a 02 40 3e
       -0.24331145 0.051560726 0.29086202 0.18750873
000170 9b 7a af be a1 2f e9 bc 34 09 bb be 78 79 b9 3c
       -0.34273228 -0.028465094 -0.3653046 0.022640929
000180 da e7 80 be 9f 10 33 be 74 70 a8 3d b8 be 51 3d
       -0.2517689 -0.17486809 0.08224574 0.051207274
000190 77 dc bd bc d9 76 8c 3d b4 e5 b2 3d c1 f0 b6 3c
       -0.023176415 0.06858606 0.08735219 0.022331597
0001a0 d2 33 b8 3d e1 fd 7e 3e c0 f4 f3 bd bf b0 06 be
       0.08994259 0.24901535 -0.11911917 -0.13153361
0001b0 34 b6 9e 3e bf 1a e5 3d fc 12 99 3d aa 5b 44 3e
       0.30998385 0.11186742 0.07474324 0.19175592
0001c0 0c 61 69 be 7e a5 42 3e 6c 53 ad bd c0 ab 45 be
       -0.22790927 0.19008443 -0.08463177 -0.19303799
0001d0 4d 27 dc 3d 36 12 e3 3d 15 92 96 3e a1 21 1a 3e
       0.107496835 0.11087458 0.29408327 0.15051891
0001e0 37 10 f5 3d 2a 8e 3f 3d 36 70 46 be 9f e2 8a 3e
       0.11965983 0.046766438 -0.19378743 0.27126023
0001f0 5a 9d 8e bd eb 62 8b b9 74 78 21 be 2f b9 7e bd
       -0.06963606 -0.00026585846 -0.15768605 -0.062188324
000200 14 0e 23 3e 96 12 0a bd 57 fd 8b 3e ac a8 8b bc
       0.15923339 -0.03370913 0.2734172 -0.017048202
000210 70 15 58 be 57 11 b2 bd 07 e2 21 be c5 8f 39 3e
       -0.21101928 -0.086947136 -0.15808879 0.1812125
000220 2e a2 90 3e 0a 5e cf 3e 22 ff 85 3d 99 6b 63 3e
       0.28248733 0.40501434 0.06542803 0.22209014
000230 80 f0 83 3d 49 95 ae bd 8d 51 43 3d 02 cf a6 3e
       0.06442356 -0.08524568 0.047685195 0.3257981
000240 48 b0 98 3e 89 a2 11 be ea 32 06 3e 34 85 79 bd
       0.29821992 -0.14222158 0.1310536 -0.060918048
000250 73 4a 5b 3e b6 ad 59 3e eb 8e 00 be a0 fa e7 3c
       0.21415119 0.21257672 -0.12554519 0.02831775
000260 b1 fa da bd b0 95 60 be 1b 1a c4 3d 91 b4 a7 3a
       -0.10692347 -0.21932101 0.09575292 0.0012794902
000270 47 b8 86 be 74 2a 2d 3e b7 24 53 3d a6 5e e1 3d
       -0.26312467 0.16910726 0.051548686 0.11004381
000280 fe a3 ef bd cd e8 d2 bd 40 9e 06 3e b0 eb 0b bc
       -0.11701201 -0.102983095 0.13146305 -0.008540079
000290 6e c1 00 3e 1c 90 65 bd ef 7a 63 3c 7c 11 dc bd
       0.12573788 -0.056045637 0.01388429 -0.107455224
0002a0 7f f6 8d 3e 77 a9 d7 bd e2 a5 e9 3c de fe 21 3e
       0.27727124 -0.1053037 0.028521482 0.1581988
0002b0 26 7d ba 3d a9 d7 12 3e 03 66 ff bd 2c 7e 71 bd
       0.091059014 0.1434008 -0.12470629 -0.058958218
0002c0 0a 8f 9c be 02 4c f4 3d 34 c8 2f be 52 a1 cf be
       -0.3057788 0.1192856 -0.17166215 -0.40552765
0002d0 dd f2 cf 3e 86 c1 8b be 77 f1 a0 bc 2a 90 47 3e
       0.40614977 -0.27296084 -0.01964639 0.19488588
0002e0 92 fe f3 bd 3f f9 70 bd df f9 94 3d d8 00 90 be
       -0.1191379 -0.05883145 0.07274222 -0.28125644
0002f0 08 87 89 3e c9 0f 39 be 64 a3 f2 3d 54 45 92 bd
       0.26860833 -0.18072428 0.118475705 -0.071421295
000300 d3 a4 41 be 87 82 91 bc 0c 44 db 3e 32 58 25 be
       -0.18910532 -0.017762436 0.42825353 -0.16146925
000310 c1 fd 3f 3d e8 b5 cd bc fa 10 48 3e 3a 31 77 be
       0.046872858 -0.025111154 0.19537726 -0.24139872
000320 45 0c d9 3d 9c 87 25 3e 7e 5c 4b be 44 b0 d9 bd
       0.10598043 0.16165012 -0.19859502 -0.10629323
000330 cf e8 81 3d 64 d9 a0 3d 2d f0 33 3d e5 4d 68 3d
       0.06343233 0.07853964 0.04393022 0.05671491
000340 ee e3 c8 bc a6 8e 33 3e b3 09 ae bc 26 e1 31 bd
       -0.024522748 0.17534885 -0.02124486 -0.04342761
000350 70 93 6d 3d fd 01 e6 bd 7d 19 a1 3c ee 3f 54 be
       0.058001935 -0.11230848 0.019665474 -0.20727512
000360 9a 46 8e bd a0 d1 34 be 2a 9d 09 3e b4 e2 7c be
       -0.0694706 -0.1765809 0.1343886 -0.24695855
000370 4d 0e bd 3e 31 f2 52 bb 3d 58 04 3b 18 89 03 bd
       0.36924973 -0.0032187814 0.0020194196 -0.032113165
000380 20 a1 94 be 40 30 62 3e 41 0b 32 3c 06 15 39 3c
       -0.2902918 0.22088718 0.010866941 0.011296516
000390 9b 56 8f bd 77 5e 2a 3e 92 b6 76 bc 3c 2f b8 bd
       -0.069989406 0.16637598 -0.015058177 -0.08993384
0003a0 a1 31 30 3d 20 19 6f 3d 54 53 52 3e ef 8d a8 be
       0.04301608 0.05837357 0.205396 -0.32920787
0003b0 99 31 b1 3e 0a f6 d3 bd 34 b3 31 bd d4 05 9f bd
       0.34608153 -0.103496626 -0.043383792 -0.077647835
0003c0 af f1 35 3d a0 c1 67 be cb e7 7c bd e5 79 0e 3d
       0.04441994 -0.22632456 -0.061744493 0.034784216
0003d0 f6 9d 4d 3d b9 3d 31 be 11 3d fc 3d c2 8f 04 be
       0.05019947 -0.17308702 0.12316335 -0.12945464
0003e0 3c 8e f6 3e 46 6d d4 be 4e b5 5b be 26 11 4c be
       0.4815539 -0.4148962 -0.21455881 -0.19928417
0003f0 9f eb 24 3e 2e 00 8d 3d e4 4b c5 3d 06 b5 a3 3e
       0.16105507 0.068848 0.096336156 0.31974047

shared_layers.2.bias f4 [64]
000000 65 b9 32 3c 72 2f aa 3a 54 5e a8 3c 7f 54 c3 bb
       0.010908459 0.001298411 0.020552792 -0.0059610005
000010 59 1e 75 3c 71 9e d3 bc a7 78 aa bc c4 43 b3 bc
       0.014960849 -0.025832387 -0.020809485 -0.0218829
000020 3e a0 e1 bb 9d 38 c0 3c eb 02 b4 bb 88 9c a5 3c
       -0.0068855574 0.023464495 -0.005493512 0.020216241
000030 d7 86 15 3c 84 88 50 bc 17 0a 01 bd 92 ad 5a bc
       0.009126387 -0.01272786 -0.031503763 -0.013347046
000040 29 6c ad bc d7 dd 0f bd fe e1 08 3d 59 0d f0 ba
       -0.021169739 -0.035123672 0.033418648 -0.0018314525
000050 67 4d a1 bc 13 1f c8 3c 5d cb 83 3c 99 11 1b 3c
       -0.019690229 0.02442888 0.016088182 0.009464645
000060 45 75 d3 bc 05 0c e2 3c ce 65 31 bc b8 9d c6 bc
       -0.025812754 0.027593622 -0.010827495 -0.024245128
000070 b1 e1 01 3b f7 c2 84 3b 3c cb ff bc 8a 79 1a 3b
       0.001981836 0.004051562 -0.03122484 0.0023570978
000080 cf be 29 bb 7f 3f b9 ba ea 67 64 bc a0 51 e4 3c
       -0.0025901084 -0.0014133303 -0.013940791 0.027870953
000090 34 d4 d6 bc 35 d0 d8 3c 70 ab 41 ba 36 00 fb bc
       -0.026224233 0.026466468 -0.0007387912 -0.030639749
0000a0 76 8a ef bc 4f 36 0f bd a5 ba 95 bc 21 69 9f bc
       -0.029240828 -0.034963902 -0.018277476 -0.019459309
0000b0 f8 02 ba 3c 32 4f 90 bc 13 75 f3 3c 05 08 d2 bc
       0.022706494 -0.017615888 0.029718911 -0.02563859
0000c0 d8 43 ff 3c 00 b2 dc ba e7 68 f0 3c 94 5d 81 bc
       0.03116028 -0.0016837716 0.029346896 -0.015791692
0000d0 21 c9 03 3d 05 e2 e6 bb 6a fe 60 bc 61 73 9a bc
       0.032174233 -0.0070459866 -0.013732532 -0.018853845
0000e0 46 ff d1 b9 be 06 26 3b ce ca 97 3c a6 9e 58 bc
       -0.0004005378 0.0025333609 0.018529322 -0.0132214185
0000f0 a4 9b 0a 3b c2 00 f0 bc d6 9c e3 3c 85 8c 54 3c
       0.0021149898 -0.029297236 0.027784746 0.012972956

output_layer.weight f4 [2, 64]
000000 50 01 5b 3c 64 b7 a0 bb ee 40 80 b9 5c 7e 1a bc
       0.013367012 -0.0049046744 -0.0002446244 -0.0094295405
000010 ca e2 5c 3c 4d bd 2f bc a6 52 27 bc 9e 46 65 bc
       0.013481805 -0.010726285 -0.010212576 -0.013993887
000020 7b 41 00 3c fc 98 5e 3c a1 f8 49 bc ca 67 81 b9
       0.007828112 0.013586279 -0.012327344 -0.00024682126
000030 7b 52 62 3c e4 58 20 bc 50 0f f1 bb 8d 18 3c bc
       0.01381361 -0.009786818 -0.0073565617 -0.011480463
000040 b9 53 4f bc 33 68 4f bb cd 39 ba 3b 7b a4 20 3c
       -0.012654238 -0.00316478 0.00568316 0.00980484
000050 90 fa 46 bc 21 83 0d bb 1c 05 5b 3c 69 0f b2 bb
       -0.0121447 -0.0021593051 0.013367917 -0.005433966
000060 b0 03 dc bb f7 55 12 3c 40 9b 3f bc 41 f4 30 bc
       -0.006714307 0.008931628 -0.011694729 -0.010800422
000070 d6 bc 19 bc d8 fe b0 3b 5d 89 f0 bb ee e2 3e 3c
       -0.009383401 0.0054014735 -0.0073405937 0.011650784
000080 b5 40 39 bc ea 4a 27 3c 06 0f 48 bc df 49 af 3a
       -0.011306931 0.010210732 -0.012210613 0.0013373456
000090 5d 53 2d 3b 42 2b ed 3b c7 d4 45 bc a4 be b3 bb
       0.0026447393 0.0072378227 -0.012074656 -0.0054853726
0000a0 38 0e 5c 3b 0c 40 8a bb de 72 02 ba d2 52 4b bc
       0.003357781 -0.0042190608 -0.0004976223 -0.012409883
0000b0 a3 41 54 bb 5c fc 61 bc eb 11 34 3c 60 ea 35 bc
       -0.0032387755 -0.013793077 0.0109906 -0.011103243
0000c0 54 fa 10 3c 62 af 03 3c 90 24 1a 3c 45 98 78 3b
       0.008848745 0.00803742 0.009408131 0.0037932557
0000d0 31 a4 a6 3b fe 33 31 bc 1f 5c 3a bc 80 1d 08 bc
       0.005085491 -0.010815619 -0.011374502 -0.008307815
0000e0 72 db 23 bc 3e fd 0f bc 71 48 15 bb 1c 1f 5a bc
       -0.01000105 -0.008788405 -0.0022778774 -0.013313081
0000f0 fa 96 52 bc 3f 2b e2 bb cb 9f 4b 3c c5 1e 10 bc
       -0.012853378 -0.006902128 0.012428234 -0.0087963985
000100 d8 62 9e 3a 6d aa 01 3c e6 37 b4 3c 58 fb dd 3b
       0.0012083901 0.007914168 0.02199931 0.0067743473
000110 a9 ae 11 3b 9b d1 dc bc 42 63 ab bc a0 ad c4 bc
       0.002222935 -0.026955416 -0.020921353 -0.024008572
000120 de 57 bb bc c3 e5 e3 3c 03 13 62 3c 34 f3 b7 3c
       -0.022869047 0.02781952 0.013798478 0.022454835
000130 19 fb 84 bb c5 2c 12 bc 8b 34 c2 bc 37 0e 58 bc
       -0.0040582535 -0.008921807 -0.023706695 -0.013186983
000140 45 14 c6 bc 34 3f e3 bc da 0d de 3c 81 d5 a4 bc
       -0.024179587 -0.027740099 0.027106214 -0.020121338
000150 26 86 53 bc 3d bf bf 3c 8a a4 c9 3b 44 ba 94 3c
       -0.012910401 0.02340662 0.006153648 0.018155225
000160 6b 91 66 bc 71 54 c9 3c a0 e1 d2 ba 2d 51 ad bc
       -0.014072756 0.024576398 -0.001608897 -0.021156872
000170 ef 0a 11 3c f9 c7 a2 ba a1 64 01 bd 55 46 e1 bb
       0.008852704 -0.0012419216 -0.031590108 -0.0068748393
000180 0d df 44 3c 59 ae a7 bc b0 7d 81 bb dd 78 cd 3c
       0.01201607 -0.020468878 -0.0039517507 0.025082046
000190 f3 c5 c4 bc 8c 99 d2 3c b5 bc 87 3c 7b 1f f5 bc
       -0.02402017 0.025707982 0.016569475 -0.029922238
0001a0 a8 2e ed bc 39 63 da bc 2b fa a4 bc 65 5a 67 bc
       -0.028952911 -0.026658641 -0.02013882 -0.014120673
0001b0 b5 fa cc 3c 68 fe 56 bc 11 c6 d6 3c b3 64 f4 bc
       0.02502189 -0.013122179 0.026217492 -0.029833173
0001c0 c0 6a e3 3c ef dd 99 bc 22 7b d4 3c 0c a2 ae bc
       0.027760863 -0.018782584 0.02593762 -0.021317504
0001d0 fb b6 ca 3c 6a 79 89 3b c8 60 b4 38 54 ec a1 bc
       0.024745455 0.004195382 8.601096e-05 -0.01976601
0001e0 50 5e 8c 3c 18 fe 90 3c 67 76 95 3c 3b 5e c3 bb
       0.017134815 0.017699286 0.018244935 -0.005962161
0001f0 df 33 93 3c 81 ff e4 bc dd 76 d8 3c a2 63 cb 3c
       0.01796907 -0.027953865 0.026423866 0.024827782

output_layer.bias f4 [2]
000000 44 6f 29 3c 8c 5a bc bf
       0.010341469 -1.4715133

layers.0.weight f4 [64, 3]
000000 d3 73 92 3e 03 f4 8a bd 7b e5 10 3e 28 51 29 be
       0.28603992 -0.06784823 0.1415004 -0.16534865
000010 a7 d6 96 3e 9b 5b 2d be da b2 32 bd da 8d 87 3e
       0.29460642 -0.16929476 -0.043627597 0.26475412
000020 46 06 4c 3d 8a e2 39 be 38 6f 1b 3e 7f aa bf bc
       0.04981067 -0.18152824 0.15179145 -0.023396729
000030 6f 5e 1f be a3 01 44 3e 47 b1 7b be 0d 9c 46 bc
       -0.15563367 0.1914125 -0.24579345 -0.012122166
000040 22 c7 54 3e 81 e3 89 3e 84 90 d4 bd c6 d2 e5 bc
       0.20779088 0.26931384 -0.10379127 -0.028054606
000050 77 c2 92 3e 2a 17 8b 3e d6 0a 20 be 03 ed 80 bd
       0.2866399 0.2716611 -0.15629134 -0.062952064
000060 3e ce c0 3d 8d 6d 80 3e d5 67 8f be ac c5 df 3d
       0.094143376 0.2508358 -0.28008905 0.10926375
000070 8f 7a 60 3e 85 d0 53 3e 75 45 95 be 95 f5 7f 3e
       0.21921752 0.20685013 -0.29154554 0.24996026
000080 a4 12 6b 3d 8d 27 59 3e 1b 69 92 3e df 6f 52 3d
       0.057390824 0.21206494 0.28595814 0.05137622
000090 ad 79 dc bd 4f 5c 31 3b d2 57 cc bc 86 15 70 be
       -0.10765395 0.0027063077 -0.02494422 -0.2344571
0000a0 f0 c3 91 3e b0 5e 99 3e a4 38 86 3e 63 5e 0e 3e
       0.284698 0.29955053 0.26215088 0.13903193
0000b0 9e 33 6c be cb a5 91 3e 9c 84 c1 3c e3 25 04 3e
       -0.23066565 0.28446802 0.023622803 0.12905078
0000c0 be 65 51 3e 2b 22 b4 bd 7c 74 39 bd eb 08 15 bd
       0.20448968 -0.087955795 -0.045277104 -0.036385458
0000d0 1e c8 42 3d cc fc f8 bc 2e f5 3e bd 61 49 6b be
       0.047554128 -0.03039398 -0.04662054 -0.2297721
0000e0 3e 38 40 3e 14 2b 28 bc 12 34 89 3e 6e e2 86 be
       0.18771455 -0.010264177 0.2679754 -0.26344627
0000f0 4c 20 8b 3e 73 de 29 3e f6 5b 07 be d2 c5 59 bd
       0.27173078 0.16588764 -0.13218674 -0.05316717
000100 b2 0f 66 bd 6a 25 17 be ef 06 5b 3e de bc 20 be
       -0.056167312 -0.14760366 0.21389364 -0.15697047
000110 ee 52 d4 bd eb ea 0f be e6 f1 7e bb 60 f5 6a 3e
       -0.1036738 -0.14054458 -0.0038901507 0.22945166
000120 d8 1c 38 be 7a 79 20 3e 06 3f 96 be a9 43 e6 3b
       -0.17979753 0.1567134 -0.29344958 0.0070271087
000130 51 85 42 3e 1e 42 d4 bb a2 0b 78 be d6 f8 b9 3d
       0.18996169 -0.0064776083 -0.24223188 0.09080665
000140 53 d7 46 3e cd f0 a4 3c 94 99 89 3e e2 7c 25 3e
       0.19418077 0.020134354 0.26874983 0.1616092
000150 1f cd 4b 3e e7 bb 1e be d4 99 45 3e 71 da 7f be
       0.19902466 -0.15501367 0.19296962 -0.24985673
000160 2c 2a 2e be 10 6d 8d be 33 91 42 3e 8f 01 35 be
       -0.17008275 -0.2762227 0.19000702 -0.17676376
000170 71 8c b8 bd 99 d2 f2 bc 67 d4 aa 3c a0 ea 22 3e
       -0.09011162 -0.029641436 0.020853234 0.15909815
000180 a6 3f 37 3e 61 8f 6d 3e b1 50 d8 3d ee 64 43 bd
       0.17895374 0.23199226 0.10562266 -0.047703676
000190 4c b9 44 3e 19 cc 05 3e 9f 39 4f 3e 79 92 22 3e
       0.1921131 0.13066138 0.20236824 0.15876187
0001a0 95 ed 80 be 5d 7d 83 be 17 24 08 3e 07 fc b6 3c
       -0.2518126 -0.25681582 0.13295017 0.022336973
0001b0 57 96 13 bd a1 e8 6c be c1 2b 49 3e 1e b1 23 3e
       -0.036032047 -0.23135616 0.19645597 0.15985534
0001c0 65 6f 4b be 16 20 94 3b 05 dd 1a 3e 22 23 54 be
       -0.19866712 0.0045204265 0.15123375 -0.20716527
0001d0 39 11 4d 3e b8 01 4f be 38 44 3e bd 40 0a 80 ba
       0.20026101 -0.202155 -0.046451777 -0.000976868
0001e0 0c b1 d9 3d b3 47 02 be f0 f1 00 3e 2e 95 4a be
       0.10629472 -0.12722664 0.12592292 -0.1978347
0001f0 10 ff 80 be 28 d1 47 bd 2c 6c 86 3e 8f 3f 56 be
       -0.25194597 -0.04878345 0.26254404 -0.20922683
000200 d2 19 26 3d 53 ae 12 be bd 25 21 3e dd 2d a5 3d
       0.040551968 -0.14324312 0.15737052 0.08065388
000210 6b 36 23 3d d4 c1 dc 3d af 7a c3 3d 7c 43 94 3e
       0.03984682 0.10779157 0.095448844 0.28957736
000220 0c da a7 3d 58 c2 45 3e 73 19 76 3d d3 67 0f 3e
       0.08195886 0.19312418 0.060082864 0.1400445
000230 2e fa eb bd 37 d6 cd 3c 7c 42 a8 3d 05 80 3d 3e
       -0.11522327 0.02512656 0.08215806 0.18505867
000240 81 29 b1 bd 08 11 79 bd c4 1d 93 3e 60 5d 9b bc
       -0.08650494 -0.060807258 0.28733647 -0.018965423
000250 0d f3 18 be ef dc 8e 3d 52 79 86 3e 4c c3 b4 3d
       -0.14936467 0.069757335 0.26264435 0.088263124
000260 97 32 91 3e bb b2 11 3e d6 07 23 3e 4d 74 e4 ba
       0.2835891 0.14228337 0.15920958 -0.001742968
000270 47 bc 4d be a4 a3 90 3e 84 8d 97 be ee a7 83 be
       -0.20091353 0.28249848 -0.29600155 -0.25714058
000280 47 8d 6d be 55 5b 95 3e 32 2a 6a 3d 66 fa 00 bc
       -0.23198424 0.29171243 0.057169147 -0.0078722
000290 8d 1c c3 bd 49 13 89 bd eb de f2 bd 56 de 10 3d
       -0.0952693 -0.066931315 -0.118589245 0.035368286
0002a0 4f 35 5c 3e b9 00 29 3e 04 5c 0c be 53 8d 80 be
       0.2150471 0.16504182 -0.13706976 -0.25107822
0002b0 b1 d2 8a be 49 f3 35 3e aa c6 99 3e 55 78 96 be
       -0.2711387 0.17768587 0.3003438 -0.2938868
0002c0 0a 2f 94 3e 3d 75 75 bd 98 6a 81 bd 0a 81 87 be
       0.28942138 -0.05992626 -0.06319159 -0.26465636
0002d0 10 f3 89 be 62 b5 7d be c6 9e 38 be 17 52 2d be
       -0.26943254 -0.24776223 -0.18029317 -0.16925846
0002e0 29 fe 9b 3a b8 98 08 be 5a 59 45 be ef f1 89 bc
       0.0011901307 -0.13339508 -0.19272366 -0.016838996
0002f0 ff 7d 0f be db 1c 44 be aa 83 3d 3e 2b ad 1d 3e
       -0.14012907 -0.19151632 0.18507257 0.1539809

layers.0.bias f4 [64]
000000 39 15 3e bc ce b2 3b 3c a9 c0 40 3c 44 9a 43 3c
       -0.01160174 0.011456205 0.011764684 0.011938635
000010 6f 83 3b 3c 87 d2 3b bc 32 62 33 bc e8 a2 45 bc
       0.01144491 -0.011463768 -0.010948705 -0.012062766
000020 4a 74 3b 3c 12 db 3f bc c8 61 43 3c 87 cd 35 3c
       0.0114413 -0.011709945 0.011925168 0.011096365
000030 25 1b 3a bc f7 b1 43 bc 05 81 40 bc 71 5c 40 bc
       -0.011359011 -0.011944286 -0.011749511 -0.01174079
000040 b1 f6 45 bc a7 f2 47 3c 7b c7 f9 3b ae 8c 3c bc
       -0.012082742 0.012203849 0.007622657 -0.01150815
000050 1c 5b 42 bc 84 86 41 bc c6 8f 3e 3c e7 5b 41 3c
       -0.0118625425 -0.011811856 0.011630958 0.011801696
000060 93 d9 33 bc 64 a7 49 bc 05 5e 42 3c 2c b8 41 bc
       -0.010977167 -0.012307975 0.011863236 -0.011823695
000070 2f ba 38 bc ea 1d 3f bc 6c 99 42 bc 9b 3f 41 3c
       -0.011274858 -0.011664847 -0.011877399 0.01179495
000080 6d c4 41 3c 82 d4 40 3c a5 25 37 3c 03 1d 47 3c
       0.011826617 0.011769416 0.011178409 0.012152913
000090 e5 dc 41 bc 26 b1 3d 3c eb 19 3d 3c 8a 50 45 3c
       -0.0118324505 0.01157788 0.011541824 0.012043128
0000a0 a2 2b 3f bc 86 ef 46 3c d6 eb 3a 3c 3b 8a 43 3c
       -0.011668118 0.012142068 0.011408767 0.011934812
0000b0 c7 61 39 bc 6b 9f 3f bc 82 6f 3f bc 30 10 40 3c
       -0.011314816 -0.011695723 -0.0116843 0.011722609
0000c0 47 a9 3c bc 0a ec 3f bc 6e 94 3f 3c ae 39 3c 3c
       -0.011514968 -0.011713991 0.011693103 0.011488361
0000d0 4e 90 38 3c 6f 9c 3f 3c d2 51 41 3c 54 4f 41 3c
       0.011264874 0.0116950115 0.011799293 0.011798698
0000e0 8d 78 41 bc d6 81 40 3c 16 b7 3b 3c 66 6b f9 3b
       -0.011808527 0.011749705 0.011457225 0.00761168
0000f0 80 c8 3e bc df 70 3e bc 4d 96 40 bc ba 8c 3e bc
       -0.011644483 -0.01162359 -0.0117545845 -0.0116302315

layers.2.weight f4 [64, 64]
000000 15 ad 34 be 5a 2b 19 be 1b 7c 15 3e 7d 11 a7 3d
       -0.1764415 -0.14957944 0.14598124 0.081576325
000010 c8 fb cc bd a2 93 20 3e 55 92 f6 3d 9e ad 0e 3e
       -0.10008961 0.15681317 0.12039629 0.13933417
000020 be 66 cc bc 8f c3 25 3e 0f a9 2a bd 1a c4 e8 bd
       -0.024951335 0.16187881 -0.041665133 -0.113655284
000030 f6 1d 21 be ed c8 42 bb b2 1d 15 3d 89 05 49 be
       -0.15734085 -0.0029721812 0.036405273 -0.19631018
000040 82 0d 0f bd 31 d7 1e 3d 8c 23 59 3d b5 9d 0f 3e
       -0.03492499 0.03877944 0.053012416 0.14025004
000050 73 d0 8b 3d bc d7 70 3b 9b 7e 5c be cb 32 23 bd
       0.06826868 0.0036749681 -0.21532671 -0.03984336
000060 36 f2 26 be 22 dc 3e bc 86 f4 b6 bd b2 e7 81 3d
       -0.16303334 -0.011649163 -0.08933358 0.063430205
000070 c0 6e c7 bd dc 63 52 bd ef 09 49 be 06 aa 97 3d
       -0.09737921 -0.051364765 -0.19632696 0.07405476
000080 c6 1b c8 3d 2b cc 64 bd 65 47 40 3e f8 b8 86 3d
       0.09770922 -0.055858772 0.18777235 0.06578249
000090 b5 36 43 be ca c6 14 be 8a 82 49 bd 53 24 0e 3c
       -0.19063838 -0.14528957 -0.049196757 0.008675653
0000a0 4a 14 f2 3d 89 ed e0 3d fb c8 ea 3d dc e1 2a be
       0.11820276 0.10982806 0.11464115 -0.16687721
0000b0 7e f7 1b 3d 45 e9 08 bd 06 a5 f9 3b f0 8d 2d 3e
       0.038077824 -0.03342559 0.0076185493 0.16948676
0000c0 3d d3 ef 3c 5a ca c5 bd 4a 84 43 3e d4 b2 a3 3d
       0.029275531 -0.09657736 0.19093433 0.07993093
0000d0 b4 38 4a bb 61 4b f6 bd 97 c9 75 bd 9d 98 6d bb
       -0.0030856552 -0.12026096 -0.060006704 -0.0036254295
0000e0 9b 49 c6 bb 7d 0b 60 bc c0 10 23 3e c1 65 e2 bc
       -0.006051255 -0.013674614 0.15924358 -0.02763641
0000f0 3d d3 3a 3e 88 4c 16 bd b5 e6 47 be 55 e5 82 bd
       0.18244644 -0.03669408 -0.19521601 -0.06391398
000100 9f be 3c be e5 b4 8d 3c 04 52 38 bd 99 40 f0 3d
       -0.18432091 0.017298171 -0.04500009 0.11731071
000110 7e 94 3d 3d fa 8d 23 bd 23 be 5a 3e 47 8e 48 3e
       0.04628419 -0.03993032 0.21361594 0.19585524
000120 8e ba 32 3e 69 9f 1c 3e 48 ef 11 be cd 07 b4 3b
       0.17453977 0.15295185 -0.14251435 0.005494094
000130 26 d7 a8 3d 4a 81 5a 3e 0c d6 ea 3d 6c a4 62 bc
       0.08244161 0.21338382 0.114666075 -0.013833147
000140 fd 72 77 3c b9 80 dd 3d 67 42 f3 3d 0c 34 74 bc
       0.015103099 0.108155675 0.118778996 -0.014904987
000150 dc 86 d9 bd f5 ca 01 be a4 f2 bd bd 7b c5 19 be
       -0.106214255 -0.12675078 -0.09274796 -0.15016739
000160 f3 2d 06 3e ac 3d 05 be 41 c7 10 be 3f 54 5a 3e
       0.13103466 -0.13011807 -0.1413851 0.213212
000170 f4 78 3f 3e ab 6d 21 be 9e e2 35 be f9 d7 e3 bd
       0.18698484 -0.15764491 -0.17762229 -0.11125178
000180 54 10 04 be 9a bd 32 3e 48 f8 c1 bc 0f 44 54 be
       -0.12896854 0.1745514 -0.02367796 -0.20729087
000190 68 68 fe 3d ab d5 cc 3a 0d b4 86 bd 89 a3 28 be
       0.12422258 0.0015627643 -0.06577311 -0.16468634
0001a0 36 6c 37 be 49 28 00 3e 71 f6 34 be 8d ff ce bc
       -0.17912373 0.12515368 -0.17672135 -0.02526834
0001b0 7f bd 29 be bd 47 d5 3d 52 d2 a4 bc a5 d0 1b be
       -0.16576193 0.104140736 -0.02011982 -0.1521631
0001c0 ab d3 dd bd 73 e9 8b bd 4a b9 33 3b 62 48 75 bd
       -0.10831388 -0.06831636 0.0027423673 -0.059883483
0001d0 05 42 b8 3d 70 b3 97 3b e8 af 83 3d 16 53 54 bd
       0.08996967 0.004629545 0.06430036 -0.05183705
0001e0 c9 dc 8e 3d 7c 43 91 bc f1 c1 18 3e 98 a0 c1 bd
       0.06975705 -0.017732374 0.14917733 -0.09454459
0001f0 00 4d b6 3d c6 c3 4f be 2f 97 4d 3d 98 15 42 be
       0.08901405 -0.20289525 0.050193008 -0.1895355
000200 00 2a 47 3e 3e d3 20 3e 9d 0e 88 bc dc 44 56 3e
       0.19449615 0.15705582 -0.01660853 0.20924705
000210 05 df 13 be 59 70 5e 3d 0c 20 59 be fb 3e ea bc
       -0.14440544 0.05430636 -0.21203631 -0.028594485
000220 2b 17 17 bd 0d d5 43 3e a5 4f 27 3e ee e8 db bd
       -0.03688733 0.19124241 0.16338976 -0.10737787
000230 4e 2f 91 3d 6e e4 8a bd 3e 71 ac 3d 3d 6f 2c 3d
       0.07089101 -0.06781851 0.08420037 0.042098273
000240 66 d8 00 bd 2c 9b 2c be 48 ca 2b 3d 50 a8 9a bc
       -0.031456374 -0.16856068 0.041940957 -0.018879086
000250 2f d1 08 3e da 4b 45 bc 9a 64 9f 3d be fe 34 be
       0.13361047 -0.01204201 0.0778286 -0.17675301
000260 8d 08 55 be 07 e1 f4 bd c0 6f a9 3d b4 ae a3 bd
       -0.20804043 -0.11956983 0.08273268 -0.07992306
000270 d0 76 1f 3e 54 13 ae bd a8 32 18 3e ba 2d 86 3d
       0.15572667 -0.0849978 0.14863074 0.065516904
000280 4c 37 24 be a6 a3 2e 3e c3 1d fd 3c e3 68 7f 3d
       -0.16036719 0.17054614 0.03089798 0.062355887
000290 e1 d8 d5 bd 2a 0e b0 3d ff 75 39 be 57 01 da bd
       -0.10441757 0.085964516 -0.18111418 -0.10644787
0002a0 12 33 f5 bd ab b9 39 be 8e 7b bd 3d 8c d0 28 be
       -0.119726315 -0.18137233 0.09252082 -0.16485804
0002b0 d0 2b 46 3e 78 99 6b bd 9e 13 c4 bd ad 74 05 3e
       0.1935265 -0.057519406 -0.09574054 0.1303279
0002c0 03 cb 1f 3e d4 92 8a 3d 12 93 af bc 87 40 3c 3e
       0.15604787 0.067662865 -0.021432433 0.1838399
0002d0 e8 ff 05 3e 41 64 a4 3d 05 8e b1 bd b4 d8 5f be
       0.13085902 0.080269344 -0.08669666 -0.2186001
0002e0 b5 3f db bd 62 99 69 bd e0 c8 8b bd 17 1e 38 3e
       -0.107055105 -0.057031043 -0.06825423 0.17980228
0002f0 00 db 08 3e a1 2e 22 bd 85 06 f6 3d 35 87 0f 3e
       0.13364792 -0.03959525 0.12012962 0.14016421
000300 9a ae 2d be a1 91 d9 bd 19 b0 f0 3d 60 3a f2 bd
       -0.16961136 -0.1062348 0.11752338 -0.118275404
000310 e0 8e 94 bd 02 6f 85 bd 06 3d 9f 3c ec 0f 17 be
       -0.07253814 -0.06515314 0.019438278 -0.14752167
000320 6c 98 bb 3d 18 30 06 be 30 4e 4f be 6e e4 42 be
       0.091599315 -0.13104284 -0.2024467 -0.19032452
000330 68 2e 38 be fd 7d 35 be 8e 03 d5 bd 1e c9 57 be
       -0.17986453 -0.17723842 -0.10401069 -0.21072814
000340 56 1c 36 be 8f 9d c6 bd 09 78 38 3e a0 bc 28 be
       -0.17784247 -0.09698021 0.1801454 -0.16478205
000350 f2 b0 01 be 90 9d 10 be db d5 c9 bc 96 63 e4 3d
       -0.12665156 -0.14122605 -0.024638107 0.11151807
000360 9f 36 33 3e 61 e9 07 bd 30 9b 06 3e fc 78 cc bd
       0.17501305 -0.03318155 0.13145137 -0.099840134
000370 d7 46 3a 3e 6f 03 07 be 1f 9f 3e be f6 d0 ba 3d
       0.18191086 -0.13184904 -0.18615387 0.091218874
000380 b9 4b 02 bb 4e 43 d5 3d 19 4a 58 3e 65 78 08 be
       -0.001988156 0.10413228 0.21122016 -0.13327177
000390 dd f8 4a 3d 98 ac 51 3e 62 a7 48 3e 90 c7 48 3e
       0.04955374 0.20475996 0.19595101 0.19607377
0003a0 cd e8 46 bd 36 11 fe 3d 5e da d8 3d 11 ba 46 be
       -0.04856186 0.124056265 0.10588525 -0.19406916
0003b0 8e 83 39 3d 73 f3 2a bc 29 3c 1b be 6d 97 28 bd
       0.045291476 -0.010434019 -0.15159668 -0.041160036
0003c0 2b 1e 8c bd fa 5b 4a 3d ee 2d 4d be 7e ed 32 3e
       -0.068416916 0.049404122 -0.20037052 0.17473409
0003d0 e0 91 36 be be 25 eb bd 4e db 3b 3e 23 fd c5 3d
       -0.17829084 -0.11481808 0.18345377 0.096674226
0003e0 2b 35 11 3d 65 0d 8a 3d 47 60 51 bd 8f e9 19 3e
       0.035451096 0.06740836 -0.051117208 0.15030502
0003f0 42 ef cb bd b2 69 04 3e 0f 4f 9d bc 15 09 6e bd
       -0.09957744 0.12930945 -0.019202737 -0.05811413

layers.2.bias f4 [64]
000000 b5 ce 40 bc 43 40 40 bc d7 8c 41 bc e0 df 3f 3c
       -0.011768033 -0.011734071 -0.011813364 0.011711091
000010 99 04 40 3c df 90 40 3c 60 8d 40 bc 41 8d 42 3c
       0.011719846 0.01175329 -0.011752456 0.011874498
000020 46 dc 3b 3c 6b 2a 3e bc 71 30 43 bc 54 35 41 3c
       0.0114660915 -0.011606793 -0.011913405 0.0117925
000030 20 ed 3b bc e7 6b 40 bc e4 99 41 3c 96 42 3f bc
       -0.011470109 -0.011744476 0.011816476 -0.01167359
000040 1e 37 42 3c ed 01 41 bc 4f 3b 42 3c 77 d2 41 bc
       0.011853961 -0.011780244 0.011854961 -0.011829964
000050 d3 ca 3d 3c e1 96 3f 3c 07 3c 3f bc ef a7 41 3c
       0.011584002 0.011693687 -0.0116720265 0.011819824
000060 78 13 3f 3c 91 65 40 bc 50 b7 3f bc 49 d6 3e bc
       0.011662357 -0.011742965 -0.01170142 -0.011647769
000070 11 a0 40 3c 86 05 3f bc 5d 39 3d bc 37 a7 3d bc
       0.011756913 -0.011659032 -0.011549321 -0.011575512
000080 34 37 42 bc 53 e6 3e 3c 24 ae 3f bc db c8 3f 3c
       -0.011853982 0.011651593 -0.011699233 0.0117056025
000090 25 88 3e bc 95 5a 40 bc f3 b7 3f 3c e3 ad 3f 3c
       -0.011629139 -0.011740346 0.011701572 0.011699173
0000a0 55 f6 40 bc 90 82 3f bc 0c 0c 3f 3c 72 60 40 3c
       -0.01177748 -0.011688843 0.011660587 0.011741744
0000b0 b1 6d 3f bc 01 0a 40 bc 07 7e 3f 3c d1 dc 40 bc
       -0.011683867 -0.011721135 0.011687762 -0.011771397
0000c0 c5 de 42 3c 94 08 3e 3c cd c3 3b bc 64 30 38 3c
       0.011893933 0.011598725 -0.011460257 0.011242006
0000d0 1c 6d 3f 3c 40 07 41 bc a0 b9 3f 3c e4 e6 3f bc
       0.011683729 -0.011781514 0.011701971 -0.011712763
0000e0 89 8d 40 bc ac 86 3f 3c 9f 97 40 bc 1e db 40 3c
       -0.011752495 0.011689823 -0.011754899 0.011770992
0000f0 48 44 40 bc 3c 73 3f 3c 00 73 40 3c bb 64 3f bc
       -0.0117350295 0.011685189 0.011746168 -0.011681731

output_layer.weight f4 [1, 64]
000000 c0 cd 39 3e 39 96 81 3e 3d f0 3b 3d 11 e4 86 be
       0.18144894 0.25309923 0.045883406 -0.26345876
000010 5d eb 73 be e0 68 2b be f8 61 9a 3e b1 dc 71 be
       -0.23820253 -0.16739225 0.3015287 -0.23619343
000020 9a 2d 68 be 5b 0d 92 3e 34 98 bd 3d ed 7c 22 be
       -0.22673646 0.28525814 0.09257546 -0.15867968
000030 c9 a4 6d 3d 14 b1 cf 3d 0a 7c 9c be d3 69 29 3d
       0.05801848 0.10141197 -0.30563384 0.041360687
000040 41 5d 80 be a6 93 29 3e b3 be 80 be 88 89 70 3e
       -0.25071147 0.1656023 -0.25145492 0.23489964
000050 19 8e 87 be a7 2f 5f be 6f 82 a5 3d 44 7e 89 be
       -0.264756 -0.21795522 0.08081519 -0.26854146
000060 10 f3 8c be a1 4b 7e 3d 26 68 70 3e 20 e3 fb 3d
       -0.27529192 0.062083844 0.2347723 0.1229918
000070 99 b9 c6 bc 8b 2e bd 3c 3a ee d2 3d fc fe b8 3d
       -0.024258422 0.023093482 0.10299344 0.090330094
000080 3f c6 4b 3e 03 17 d0 bc 0a cb 9a 3c a9 b7 11 bd
       0.19899844 -0.025401598 0.018895645 -0.035575543
000090 c7 3e 15 3e e2 5f aa 3d 90 07 20 be 70 c3 95 be
       0.14574729 0.083190694 -0.15627885 -0.2925067
0000a0 e7 e4 01 3e fc bf 4b 3e 6c 9a c5 bd 2f 19 6d be
       0.12684976 0.19897455 -0.09648594 -0.23154138
0000b0 b6 51 aa 3d f9 f5 fa 3d 2e c8 23 be 57 7e 26 3e
       0.083163664 0.12253947 -0.15994331 0.16259132
0000c0 e5 41 cd bd b8 03 8b be 88 67 8b 3e d0 bc 06 bb
       -0.10022334 -0.27151275 0.27227426 -0.0020559318
0000d0 9a b1 24 be 55 eb 66 3e 50 55 7d be 5b 24 7e 3e
       -0.16083375 0.2255071 -0.24739575 0.24818556
0000e0 3b 6c 97 3d eb d4 94 be ac 38 db 3d 4e 8e e3 bd
       0.0739369 -0.29068694 0.10704169 -0.11111127
0000f0 ba 08 26 3e d9 92 f9 bc ab 1b d2 bd 25 5b 9e 3c
       0.16214266 -0.03046553 -0.102591835 0.01933057

exp_avg f4 [64, 3]
000000 ea 3e 85 b9 55 0f d9 39 2d 1d 3f 3a f8 c0 0e b9
       -0.0002541461 0.0004140089 0.00072904193 -0.00013614062
000010 66 97 af b8 9a d6 fc 39 21 da ec 38 09 dc 9f b9
       -8.3728504e-05 0.00048225076 0.000112939866 -0.00030490782
000020 6e 7e fe b9 2c 7e 13 b7 37 6d c4 38 1e 0b 9f b8
       -0.00048540853 -8.7912595e-06 9.366351e-05 -7.5837816e-05
000030 2a 5e a5 b8 75 5f 58 3a cf 0b 4d ba 23 40 ce b9
       -7.8853525e-05 0.00082539703 -0.0007821889 -0.00039339167
000040 c9 33 77 3a 78 0f d2 39 4f 98 c1 b9 91 d0 b0 3a
       0.0009430019 0.00040065846 -0.00036925307 0.0013489892
000050 9e 72 f8 39 ee b3 9d 39 34 6a 4b ba 76 74 76 b9
       0.00047387643 0.00030079432 -0.0007759661 -0.00023503773
000060 3e 98 b3 38 2e 56 47 39 98 3b 50 ba df 80 c5 39
       8.5637424e-05 0.00019010223 -0.00079434505 0.00037670785
000070 8e 7e 5f ba b7 8f 92 b9 09 98 4d 39 c9 95 0e ba
       -0.0008525633 -0.00027954366 0.00019606961 -0.000543919
000080 f1 01 cb b9 56 d3 aa b8 40 ca 27 39 58 34 ae 38
       -0.00038720624 -8.145596e-05 0.00016001705 8.306716e-05
000090 f6 1e 0b 3a a9 44 c3 ba ea ab 2b ba 22 18 53 b9
       0.0005307043 -0.0014897782 -0.00065487495 -0.00020131518
0000a0 fd 5e 6b 3a 0d 85 f9 39 f7 54 bd b9 ab b2 60 3a
       0.0008978693 0.00047592112 -0.00036112193 0.00085715455
0000b0 ec 35 bc 39 75 ce a0 b8 b9 ea 9b 39 57 91 88 39
       0.0003589833 -7.66785e-05 0.00029738786 0.00026048228
0000c0 dd f5 8b 39 53 fa a3 ba 11 fc d8 b9 4d dc 61 b9
       0.00026695328 -0.0012510516 -0.00041386535 -0.0002153974
0000d0 ab 4f 60 3a 74 cd aa b9 a8 3c 18 3a ef 59 d8 ba
       0.00085567933 -0.00032578 0.00058073783 -0.0016506294
0000e0 3c 46 c5 b8 3d 08 e7 b9 bc cb 9f 3a 4e 35 68 b9
       -9.406774e-05 -0.0004406589 0.0012191455 -0.00022145102
0000f0 af 5e 54 b8 8b 54 f1 b8 ec 14 07 3a da 3f 60 b9
       -5.063292e-05 -0.00011507523 0.0005152959 -0.00021386091
000100 e7 50 b8 39 ab f7 e9 39 e1 eb 57 b9 72 be 2b 3a
       0.00035155492 0.0004462575 -0.0002059187 0.0006551511
000110 95 8a 0f 3a 4d 13 00 37 46 98 6b b9 a4 47 ee 39
       0.00054756674 7.633888e-06 -0.00022468073 0.00045448274
000120 43 ed c1 b9 ed 5b 9f 3a dd 10 ce 39 9b be 48 39
       -0.00036988602 0.0012158133 0.00039303946 0.00019144492
000130 70 12 3f ba e7 ab 1f 3a 24 d0 09 ba 62 71 af 3a
       -0.0007288819 0.0006090984 -0.00052571506 0.0013385231
000140 0d d9 02 b9 7b 00 64 b9 5d 88 75 3a 5a 7c ff 39
       -0.00012478624 -0.00021743953 0.0009366328 0.0004873004
000150 d8 8f d8 37 ed ad 20 b9 17 42 a9 38 e3 4b e9 39
       2.5816189e-05 -0.00015323581 8.070858e-05 0.00044497763
000160 27 51 af ba d1 95 43 ba 0b 10 a6 38 b1 58 e9 b9
       -0.0013375626 -0.0007460984 7.918485e-05 -0.00044507303
000170 ac 43 ca b9 27 09 8b 39 f8 f1 f1 b9 83 2c d8 b9
       -0.00038578862 0.00026518965 -0.00046147383 -0.00041231894
000180 a9 60 c8 39 a3 42 95 ba 9d 31 ea 39 b1 e7 6d b9
       0.0003821899 -0.0011387657 0.00044668923 -0.00022688393
000190 57 17 02 3a 68 41 53 3a 3a 60 7f 39 48 d6 9c ba
       0.00049625844 0.00080587575 0.00024354542 -0.0011965716
0001a0 1c cf 36 3a dd a9 36 39 7e 57 1e ba 61 5d 5f b9
       0.0006973611 0.00017420152 -0.0006040259 -0.00021301724
0001b0 d9 03 48 b9 9f e8 4a 3a f5 6e a1 39 c7 86 14 39
       -0.0001907492 0.0007740352 0.00030790982 0.00014164588
0001c0 32 cf 74 39 a6 97 4e ba 45 cd db 38 36 3c 99 37
       0.0002334684 -0.0007880874 0.00010480968 1.826706e-05
0001d0 2a d0 e5 b9 6f db aa b9 b1 46 b5 3a 2c df 4e ba
       -0.00043833378 -0.00032588418 0.0013830272 -0.00078915316
0001e0 dd fb 09 ba f0 11 ae 3a 53 85 d1 b9 fd 65 2a 39
       -0.0005263666 0.0013280492 -0.0003996292 0.00016250457
0001f0 7d a9 b5 b9 ff 4f bd b9 3c 68 47 b8 a7 e5 1d 3a
       -0.0003464929 -0.0003610849 -4.7542373e-05 0.00060232956
000200 bf 69 0d ba 0f 24 5b 39 0b fe 85 ba f9 de 29 ba
       -0.00053944805 0.000208989 -0.0010222805 -0.0006480064
000210 16 1c ad 38 10 e4 d5 b9 75 34 e4 39 fa c6 bf b9
       8.254514e-05 -0.00040796446 0.00043526632 -0.00036578608
000220 b1 24 3a 3a 6c 13 12 3a f5 ea 4b b9 21 47 56 3a
       0.00071008044 0.0005572352 -0.00019447117 0.0008174051
000230 8a 55 ee b8 9a 16 9b 39 cc 31 5a ba 97 1b bd b9
       -0.00011364657 0.00029580743 -0.00083234604 -0.00036069445
000240 52 a3 98 39 9b 65 65 ba b7 9b e5 39 56 5a 0e 39
       0.00029113382 -0.0008750797 0.000437943 0.00013575828
000250 df 96 1d ba 14 d8 14 39 29 cf db b9 07 0a b2 3a
       -0.0006011556 0.00014194875 -0.0004192528 0.0013583311
000260 b9 12 08 ba 8c f4 e4 b8 fc e2 6d 39 92 07 f2 39
       -0.0005190778 -0.000109174376 0.0002268664 0.00046163477
000270 b3 84 34 39 e6 3b 2e ba aa d5 fc b9 18 6c f3 b8
       0.00017215572 -0.0006646499 -0.00048224378 -0.00011607277
000280 7e 18 0e 39 97 c4 21 3a d3 92 d8 38 3e 36 6d b9
       0.000135513 0.0006170957 0.00010327031 -0.00022622288
000290 17 8d 6a b9 14 92 43 38 55 eb bd b9 3c 9d a8 39
       -0.00022368539 4.662767e-05 -0.00036224225 0.00032160606
0002a0 e9 43 93 39 00 cb 73 ba 0e 2f cc b8 54 97 31 b9
       0.00028088622 -0.0009299964 -9.736243e-05 -0.0001693641
0002b0 f9 70 1c 3a 7e 2f b9 39 bb 82 ab 39 04 1d a2 ba
       0.0005967762 0.00035321334 0.00032713063 -0.0012368266
0002c0 d9 f3 e9 39 87 0e df b9 e7 0c 67 3a 0f e7 4a 39
       0.00044622904 -0.00042544698 0.0008813873 0.00019350297
0002d0 e9 c5 74 b9 b6 7b 0a 3a e5 0b 63 3a a1 d8 00 39
       -0.0002334338 0.00052827166 0.0008661135 0.00012287732
0002e0 34 22 53 ba 34 63 40 3a ff fe 7f b8 19 52 0f 39
       -0.0008054108 0.0007339001 -6.103422e-05 0.00013668126
0002f0 47 92 11 ba fa 9a de 39 b2 8f 48 ba 5f 03 a5 b7
       -0.0005553108 0.00042458606 -0.0007650807 -1.9671103e-05

exp_avg_sq f4 [64, 3]
000000 8f d2 f8 33 10 f5 c5 34 34 3a b2 34 e8 61 75 34
       1.15867e-07 3.6872416e-07 3.3197432e-07 2.2853021e-07
000010 6f ad 8e 35 67 74 0c 35 19 ea a6 33 87 e4 9e 34
       1.06303e-06 5.232345e-07 7.7725595e-08 2.959607e-07
000020 da 84 52 34 dc 87 2a 33 43 21 48 34 74 4b b7 33
       1.9606105e-07 3.9704773e-08 1.8638552e-07 8.5353264e-08
000030 f2 91 b2 34 44 7a ae 35 c6 ec 2b 35 54 36 ea 33
       3.3261273e-07 1.2999594e-06 6.4047015e-07 1.0906356e-07
000040 9c 31 7c 34 0c 32 66 34 fa bc 4a 34 2c ef 04 35
       2.3487377e-07 2.1438626e-07 1.8881465e-07 4.952187e-07
000050 da 9e a5 34 d9 56 a0 33 93 94 46 34 76 f4 fa 33
       3.0849225e-07 7.466378e-08 1.8494238e-07 1.16859994e-07
000060 40 79 b3 34 7e 43 c1 35 0a 44 2f 35 38 36 89 33
       3.342957e-07 1.4399263e-06 6.529159e-07 6.389422e-08
000070 44 96 1b 34 47 51 0b 34 e5 fa 3c 33 46 41 05 34
       1.4490166e-07 1.2974952e-07 4.400035e-08 1.2410337e-07
000080 c8 13 f2 33 2d 79 db 31 a9 35 d1 32 82 39 67 32
       1.1272601e-07 6.387515e-09 2.4355204e-08 1.3459045e-08
000090 69 03 8d 34 12 dc 22 35 4f 05 02 35 14 b4 a9 33
       2.6265778e-07 6.066995e-07 4.84365e-07 7.902432e-08
0000a0 59 e8 50 34 53 b6 1b 34 ce 33 b5 33 60 a5 39 34
       1.9456037e-07 1.4501829e-07 8.4378925e-08 1.728963e-07
0000b0 9b 36 36 34 bf b7 2c 32 7d 9f da 32 eb 63 d6 32
       1.6969936e-07 1.0053497e-08 2.5451067e-08 2.4958316e-08
0000c0 11 ae 27 34 94 ca e1 34 c1 13 90 34 aa 94 0b 34
       1.5616412e-07 4.205691e-07 2.6836463e-07 1.2999467e-07
0000d0 d2 94 f7 34 09 74 63 34 1f f8 bc 34 86 fc 51 35
       4.6115616e-07 2.1183236e-07 3.519826e-07 7.822604e-07
0000e0 3e aa 1b 35 13 f0 85 34 18 2e 64 35 f7 8a bb 34
       5.7989735e-07 2.4947857e-07 8.5003694e-07 3.4932575e-07
0000f0 79 a3 e0 33 95 fe d6 34 ee 16 7f 34 af 3e dc 33
       1.0460548e-07 4.004584e-07 2.3757067e-07 1.02559504e-07
000100 f1 12 c3 34 bf f0 94 34 3a aa 91 33 86 f8 4d 34
       3.6335362e-07 2.7742314e-07 6.783053e-08 1.9182525e-07
000110 cd 82 2f 34 7f e0 d4 33 ee 09 e0 34 ad 33 26 34
       1.634573e-07 9.912855e-08 4.1730476e-07 1.5478754e-07
000120 78 96 38 34 4a 41 e2 34 c2 2b 9b 34 f2 7a 20 34
       1.7191076e-07 4.2143284e-07 2.8902838e-07 1.4945888e-07
000130 8d db 26 35 1e 0d 98 34 76 52 9c 34 ba 0d 68 35
       6.215931e-07 2.832175e-07 2.9117263e-07 8.644671e-07
000140 92 9f ea 34 d4 5e c0 33 e8 e9 70 34 d0 32 52 34
       4.3702e-07 8.957946e-08 2.2436836e-07 1.957626e-07
000150 4d c2 9e 32 b6 2c a0 33 77 80 29 33 9b fd ba 34
       1.8481979e-08 7.4587135e-08 3.9465217e-08 3.4829722e-07
000160 22 ff 8e 35 e7 2f 06 35 04 bd e0 32 61 e5 c7 33
       1.0654078e-06 4.9988597e-07 2.6162986e-08 9.3083834e-08
000170 c2 ee 47 33 5d 79 a1 33 50 4c 54 34 07 b4 5b 34
       4.6550447e-08 7.5192226e-08 1.9771801e-07 2.0461458e-07
000180 d9 23 7a 34 3b 16 1f 35 44 4e cb 34 63 d1 08 34
       2.3296106e-07 5.9264465e-07 3.7868642e-07 1.2742161e-07
000190 95 c4 00 35 02 90 c8 34 1d a0 63 34 8f 62 53 35
       4.796978e-07 3.7357682e-07 2.1199271e-07 7.8747047e-07
0001a0 c9 46 d9 34 f4 ca 1a 33 c6 bd bc 33 fa bd 85 33
       4.0470903e-07 3.6040504e-08 8.788952e-08 6.227852e-08
0001b0 7d b8 9d 33 7b 38 43 34 61 02 2b 34 c0 06 c0 34
       7.3444404e-08 1.8181338e-07 1.5926481e-07 3.5767698e-07
0001c0 0c 68 ae 35 d1 13 6c 35 f3 d1 87 33 08 e0 7f 34
       1.2994292e-06 8.794569e-07 6.324617e-08 2.3830228e-07
0001d0 97 ee 3b 34 20 a4 ec 34 e8 d6 d8 35 2d 83 3b 35
       1.750253e-07 4.4077842e-07 1.61558e-06 6.9853814e-07
0001e0 f7 2e d0 34 ae d2 aa 35 0e 27 22 35 a6 7c 6f 33
       3.877719e-07 1.2727303e-06 6.0406535e-07 5.575989e-08
0001f0 57 1c 30 34 e1 e5 15 34 1e 04 38 34 db b5 36 35
       1.6401587e-07 1.3960336e-07 1.7137833e-07 6.806492e-07
000200 5c 6e ca 34 cc b5 cf 33 66 7b 8a 34 14 c6 61 34
       3.770573e-07 9.672257e-08 2.5794287e-07 2.1026818e-07
000210 6b 83 b1 33 48 ed d0 34 dc 2b 27 34 07 a1 ff 33
       8.2661096e-08 3.8915664e-07 1.5569043e-07 1.19036535e-07
000220 03 1d 8d 34 de 5d a7 34 cc 6d ba 33 b8 ad a5 34
       2.6284405e-07 3.117447e-07 8.681272e-08 3.0860042e-07
000230 5e 07 29 34 83 b9 a9 33 02 dc 3f 34 86 23 13 34
       1.5742032e-07 7.90342e-08 1.78683e-07 1.3703365e-07
000240 da 74 82 34 8c 30 41 35 b1 0d c5 34 0c 9b 0a 34
       2.4299408e-07 7.196875e-07 3.670407e-07 1.2908657e-07
000250 ed e3 f2 34 73 86 66 34 82 bc 95 34 c0 8e 6d 35
       4.524185e-07 2.1469332e-07 2.789057e-07 8.849711e-07
000260 90 92 f0 34 64 9f af 33 e9 01 9c 34 49 3e 1b 34
       4.4810122e-07 8.1780655e-08 2.9058654e-07 1.4458159e-07
000270 88 b9 2a 33 f9 56 d9 33 92 2a bb 33 2c ed 0c 34
       3.974995e-08 1.012067e-07 8.7156096e-08 1.3124799e-07
000280 40 97 06 35 ad f7 9c 34 8e 47 36 32 79 92 db 32
       5.013899e-07 2.9237472e-07 1.0610064e-08 2.5561564e-08
000290 2c 06 b3 32 6c ad 2c 33 89 4c 55 34 a3 f8 b1 33
       2.084115e-08 4.0204597e-08 1.9865014e-07 8.2874315e-08
0002a0 9d 0c 84 34 df 45 38 35 33 a0 cf 34 9c 9e 94 33
       2.4596093e-07 6.864702e-07 3.8673315e-07 6.920638e-08
0002b0 bb 95 44 34 2a 0d 1a 34 8e 49 f3 34 17 7d b0 35
       1.8308394e-07 1.4347157e-07 4.5315795e-07 1.3149428e-06
0002c0 16 92 3f 35 0b 38 f1 33 17 c8 64 34 cb eb 75 34
       7.136563e-07 1.1232631e-07 2.1306947e-07 2.2903184e-07
0002d0 5d b4 b5 34 67 f9 ae 35 94 44 45 35 3e 09 7a 34
       3.384511e-07 1.3036596e-06 7.3488013e-07 2.3286427e-07
0002e0 84 23 70 35 4d 8b ee 34 6b 89 35 33 b8 fb eb 33
       8.945865e-07 4.443231e-07 4.2267327e-08 1.09888276e-07
0002f0 dd 39 af 33 4c d1 b2 33 cd ce 29 34 da 83 33 34
       8.159598e-08 8.326842e-08 1.5814585e-07 1.6718641e-07
