experiments/ppo_pendulum_long_training_20250831_000403/checkpoints/final.pt (torch, 691647 bytes, 60 tensors)

shared_layers.0.weight f4 [128, 3]
0.16976424 0.07950715 0.15833363 0.008752208 0.047388017 -0.15442656 -0.09040115 0.13334438
-0.136872 0.13256866 0.1460449 -0.16394377 -0.16328469 0.04401035 -0.04480031 -0.053330537
0.10273534 0.0044931583 -0.0863436 0.018061567 -0.14565837 -0.0975358 0.107555516 -0.1298952
0.0012298526 0.016395185 0.0393509 0.15226468 -0.22608039 -0.07958342 0.04785376 -0.07129023
0.19609147 0.040481146 0.008732802 -0.012157723 -0.083077155 0.16764607 0.011873151 0.12629864
-0.036883194 0.046502817 0.050663486 -0.12574865 -0.018926892 -0.04299858 0.2233777 0.014851377
-0.34472507 -0.082619146 -0.150952 -0.13170333 0.03296854 -0.10852492 0.20467857 -0.21442853
-0.043909606 -0.051845018 0.1619847 -0.12775564 -0.030706434 -0.018174678 0.029200764 0.06436392
-0.072624974 0.09731987 0.009668452 -0.006834274 0.04706773 -0.10336096 -0.07885503 0.023801932
-0.11937023 0.015454874 0.2810027 -0.036938906 0.039696205 0.06946865 0.24332155 0.1217571
-0.102401175 0.0005324554 -0.0003656876 0.07934244 0.030054128 -0.10492769 0.033738326 -0.08094745
-0.09126482 -0.14529188 -0.011584849 0.06469017 0.0022084408 0.072260305 -0.018913675 0.014158122
0.07215219 -0.003480979 0.23516408 0.030697852 -0.044030085 0.22975591 0.0014657622 0.11673636
-0.11594103 0.016940763 -0.17085452 0.053614613 0.11303937 0.18503664 -0.11522077 0.1886391
0.16112542 -0.008712103 -0.036578763 0.072531946 -0.028838523 0.10248523 -0.02447644 0.075794645
0.0997794 0.11590194 -0.11076924 0.25559524 -0.16396962 -0.037952624 0.045037095 0.037728645
0.012716896 0.028818829 0.022133434 -0.13190727 0.016445965 0.097157404 -0.068536595 0.11355281
0.058246393 0.046643827 0.11973496 0.05068918 0.03886859 -0.1316013 0.15189415 0.0840629
-0.2033673 -0.008866314 0.29055592 0.09507672 -0.098016575 -0.083365746 0.21113688 0.08386048
-0.034234807 0.05866735 -0.045875125 -0.13542268 0.12846902 0.016919095 0.1876201 0.014889376
0.056547236 0.116113216 0.049595587 0.113399155 0.04218899 -0.23202938 0.19867504 0.055315875
-0.072024316 -0.03992178 -0.002722365 0.007705482 -0.044189002 -0.009766844 -0.10137785 0.039806895
-0.016205925 -0.08347822 -0.089421906 -0.07238965 0.013906931 -0.10683543 0.014391407 0.19401178
-0.1965953 0.06610976 -0.10893689 0.09471789 0.12245631 -0.093579076 0.11629272 0.047829777
-0.02204961 -0.17813757 0.18240812 -0.0073167556 -0.11966293 0.06892712 -0.06498932 -0.24642044
-0.074797794 -0.029206503 -0.021137195 0.13631804 -0.081513636 -0.09735264 0.14386962 -0.07635026
-0.15139475 -0.21952087 -0.16364303 -0.13357356 0.04081951 -0.061067127 -0.12664884 0.004104338
0.06951534 0.19685301 0.04301075 -0.04502333 0.13182916 -0.042769834 -0.046970386 -0.1254584
-0.040652942 -0.11607386 -0.027186101 0.1496808 0.0752996 -0.07481867 -0.14614528 0.09567564
0.22221884 0.03401521 0.14099643 0.23162238 -0.10877228 -0.22342302 -0.12319971 0.16269365
0.18605068 0.12808533 -0.09705687 -0.13241024 -0.031391844 -0.0731247 0.06630501 -0.07418826
-0.10709662 0.058668878 -0.18541555 0.011555024 -0.110497564 0.19722405 -0.053840403 0.18257397
00000000: add6 2d3e a5d4 a23d 3622 223e 6c65 0f3c
00000010: f019 423d ff21 1ebe 3d24 b9bd 6e8b 083e
00000020: 2c28 0cbe 14c0 073e cb8c 153e e0e0 27be
00000030: 1a34 27be 3244 343d 8880 37bd 1f71 5abd
00000040: e866 d23d 583b 933b ead4 b0bd daf5 933c
00000050: 7827 15be d9c0 c7bd 1146 dc3d 3f03 05be
00000060: 0133 a13a 324f 863c 692e 213d 46eb 1b3e
00000070: 9e81 67be a2fc a2bd 4e02 443d 9d00 92bd
00000080: 34cc 483e 8fcf 253d 0714 0f3c 3031 47bc
00000090: 5b24 aabd 69ab 2b3e 9b87 423c 6e54 013e
000000a0: d512 17bd bd79 3e3d 8484 4f3d 41c4 00be
000000b0: 920c 9bbc 471f 30bd 20bd 643e 3153 733c
000000c0: ce7f b0be 3a34 a9bd 2993 1abe 3ddd 06be
000000d0: 050a 073d 5042 debd 4297 513e 2793 5bbe
000000e0: 8fda 33bd 715b 54bd 51df 253e 60d2 02be
000000f0: 0f8c fbbc 10e3 94bc 7136 ef3c 3bd1 833d
00000100: 67bc 94bd a44f c73d 6d68 1e3c 0cf2 dfbb
00000110: 18ca 403d e9ae d3bd bf7e a1bd 45fc c23c
00000120: 6178 f4bd 7136 7d3c 96df 8f3e 404d 17bd
00000130: 7d98 223d 9445 8e3d 4929 793e c95b f93d
00000140: b5b7 d1bd 7a94 0b3a c2b9 bfb9 4a7e a23d
00000150: 1334 f63c 54e4 d6bd 3331 0a3d c7c7 a5bd
00000160: 0de9 babd 65c7 14be 61ce 3dbc 487c 843d
00000170: 7dbb 103b 36fd 933d daf0 9abc 78f7 673c
00000180: 87c4 933d 2321 64bb dace 703e 107a fb3c
00000190: e458 34bd 2245 6b3e d11e c03a 7913 ef3d
000001a0: 7e72 edbd 5bc7 8a3c 7df4 2ebe ff9a 5b3d
000001b0: 2f81 e73d 3f7a 3d3e def8 ebbd 9c2a 413e
000001c0: 10fe 243e 35bd 0ebc 9dd3 15bd a18b 943d
000001d0: c43e ecbc c7e3 d13d d182 c8bc 393a 9b3d
000001e0: 2459 cc3d ff5d ed3d fcda e2bd 61dd 823e
000001f0: a7e7 27be 3674 1bbd d178 383d 5a89 1a3d
00000200: 875a 503c 7715 ec3c 2d51 b53c b312 07be
00000210: b0b9 863c 76fa c63d ea5c 8cbd 608e e83d
00000220: c593 6e3d 990d 3f3d 9a37 f53d 759f 4f3d
00000230: ac34 1f3d 7ec2 06be 248a 1b3e 2b29 ac3d
00000240: 843f 50be 0444 11bc bfc3 943e 95b7 c23d
00000250: eabc c8bd a9bb aabd 4434 583e 0bbf ab3d
00000260: cc39 0cbd 2d4d 703d 8ee7 3bbd 3eac 0abe
00000270: 628d 033e ea99 8a3c 7c1f 403e 92f2 733c
00000280: 139e 673d c4cc ed3d be24 4b3d d13d e83d
00000290: 5dce 2c3d 1c99 6dbe 7871 4b3e e692 623d
000002a0: 7c81 93bd 0585 23bd b569 32bb 457e fc3b
000002b0: 87ff 34bd 1d05 20bc 319f cfbd 8e0c 233d
000002c0: 4ac2 84bc a1f6 aabd d522 b7bd 0641 94bd
000002d0: e5d9 633c 89cc dabd f0c9 6b3c 06ab 463e
000002e0: 4750 49be 8e64 873d 4e1a dfbd 74fb c13d
000002f0: 60ca fa3d 63a6 bfbd e12a ee3d 28e9 433d
00000300: 62a1 b4bc b269 36be 32c9 3a3e 65c1 efbb
00000310: d711 f5bd a929 8d3d 1f19 85bd a455 7cbe
00000320: 962f 99bd 7a42 efbc e927 adbc f596 0b3e
00000330: 9ff0 a6bd d260 c7bd 8f52 133e 865d 9cbd
00000340: 3a07 1bbe 14ca 60be 0a92 27be 82c7 08be
00000350: 5c32 273d 8621 7abd 3cb0 01be af7d 863b
00000360: 0f5e 8e3d d693 493e 0a2c 303d 626a 38bd
00000370: 39fe 063e 6c2f 2fbd 0564 40bd 2b78 00be
00000380: b383 26bd 22b8 edbd 63b5 debc ec45 193e
00000390: ad36 9a3d 883a 99bd 1ca7 15be 97f1 c33d
000003a0: 568d 633e 8853 0b3d 5e61 103e 6b2e 6d3e
000003b0: 00c4 debd 01c9 64be 2150 fcbd 2a99 263e
000003c0: 1284 3e3e cd28 033e c1c5 c6bd 8d96 07be
000003d0: bc94 00bd 67c2 95bd ecca 873d 04f0 97bd
000003e0: 7955 dbbd c74e 703d 93dd 3dbe 4951 3d3c
000003f0: 8c4c e2bd 1af5 493e c187 5cbd acf4 3a3e

shared_layers.0.bias f4 [128]
0.06529152 -0.011831892 0.09186621 0.020658772 0.07735169 -0.087071456 0.044527024 0.011247257
0.07033868 0.054319236 -0.010679381 0.1067274 -0.099426836 -0.10356358 -0.051984828 -0.057254728
0.081923045 -0.023980564 -0.06474349 0.031454608 -0.026017386 0.049094703 -0.0405427 -0.054862883
0.009842468 -0.0590926 0.0051588584 0.041910175 -0.102162406 -0.033938292 -0.1327167 -0.11241911
0.04258889 -0.019224633 -0.031451266 0.06318264 -0.047284648 -0.069526576 -0.06491854 0.05557931
0.05081242 0.10416173 -0.08651612 0.019931419 -0.04918761 -0.030266225 0.07534135 -0.09149506
0.037653744 -0.070651345 -0.099725455 -0.047968347 0.043891672 0.051422115 0.0992822 0.06789326
0.039704863 0.09381757 0.118199736 0.089618385 -0.010088707 -0.10462898 0.0434798 0.014815428
-0.046689622 0.054746978 -0.05213244 -0.017577767 0.034037054 0.04355504 -0.08898912 -0.04540941
-0.033509824 -0.06371206 0.051480662 0.014902883 0.07381784 -0.021619841 -0.039353665 0.042803388
-0.045505006 -0.07735564 0.038308162 -0.024487669 -0.085726455 0.04259698 -0.023566939 0.03304795
-0.022849578 0.038583737 -0.06904899 0.06979798 -0.0005856592 0.0766437 0.049639747 0.035853215
0.061006803 -0.0002547463 0.07930959 0.07975101 -0.08459937 0.0397211 0.06668349 0.048300795
-0.034353998 0.056387354 -0.028730834 -0.093560904 -0.03712743 -0.050726913 0.040921465 0.0078459745
0.038358852 0.03750292 -0.034938417 -0.096423976 -0.025289437 0.016554259 -0.03423021 0.077795334
-0.038182564 0.04851797 0.027888775 0.051511336 0.052886993 0.078637786 0.07102237 -0.06000411
00000000: 8fb7 853d 8dda 41bc 5a24 bc3d 963c a93c
00000010: 906a 9e3d 8552 b2bd f861 363d 6a46 383c
00000020: ba0d 903d d97d 5e3d 92f8 2ebc e593 da3d
00000030: 4ca0 cbbd 2419 d4bd 0bee 54bd ef83 6abd
00000040: 45c7 a73d e372 c4bc 3c98 84bd 8cd6 003d
00000050: 6a22 d5bc 8717 493d 1a10 26bd e7b7 60bd
00000060: 4e42 213c 150b 72bd a40b a93b 01aa 2b3d
00000070: 863a d1bd e102 0bbd e3e6 07be fe3b e6bd
00000080: b071 2e3d fa7c 9dbc 0bd3 00bd e665 813d
00000090: 8cad 41bd f363 8ebd 03f4 84bd 21a7 633d
000000a0: af20 503d bf52 d53d 5d2f b1bd 3747 a33c
000000b0: f378 49bd e0f0 f7bc 914c 9a3d c361 bbbd
000000c0: d03a 1a3d a7b1 90bd dc3c ccbd 757a 44bd
000000d0: c1c7 333d ff9f 523d 7754 cb3d 9f0b 8b3d
000000e0: 91a1 223d 6d23 c03d b412 f23d d889 b73d
000000f0: 1b4b 25bc b847 d6bd e017 323d 69bc 723c
00000100: 9e3d 3fbd 5e3e 603d d388 55bd 40ff 8fbc
00000110: 706a 0b3d c566 323d ee3f b6bd 38ff 39bd
00000120: 9941 09bd 787b 82bd 63dd 523d 392b 743c
00000130: cf2d 973d 181c b1bc 4f31 21bd 9b52 2f3d
00000140: 7563 3abd a26c 9ebd 05e9 1c3d 5d9a c8bc
00000150: 5a91 afbd 2c7a 2e3d 740f c1bc 4a5d 073d
00000160: 0a2f bbbc fb09 1e3d 8f69 8dbd 3ef2 8e3d
00000170: ec86 19ba 5ff7 9c3d 0c53 4b3d d2da 123d
00000180: 45e2 793d 788f 85b9 116d a23d 7f54 a33d
00000190: 6f42 adbd 98b2 223d 5b91 883d 0ed7 453d
000001a0: c7b6 0cbd 6df6 663d ed5c ebbc dc9c bfbd
000001b0: ef12 18bd 06c7 4fbd 449d 273d 678c 003c
000001c0: 2c1e 1d3d a99c 193d 961b 0fbd ef79 c5bd
000001d0: cb2b cfbc cc9c 873c fa34 0cbd 2953 9f3d
000001e0: 5265 1cbd c7ba 463d 0077 e43c 8dfd 523d
000001f0: 08a0 583d d90c a13d 2d74 913d dfc6 75bd

shared_layers.2.weight f4 [128, 128]
0.14606671 -0.050923627 0.30031964 -0.013404202 0.099521026 -0.16325839 0.12814023 0.047592945
0.12199873 0.19142197 -0.10979619 -0.036172204 -0.14526342 0.089590736 -0.31088424 -0.041085668
0.25850073 -0.022635262 0.19132645 -0.025623947 0.17584322 0.13552125 -0.012780433 0.041961107
0.18310231 -0.11845909 -0.18352772 0.18030308 -0.16071112 -0.051997248 0.1156891 -0.11667567
0.10928767 0.14212874 0.03166558 -0.22967604 -0.1694636 0.051058 0.15067458 0.0020411136
-0.21592438 0.032184303 -0.26630867 0.11584416 -0.06721286 -0.186982 0.019486392 -0.3118961
-0.057960715 -0.014103642 0.061904136 0.15322198 0.06414375 0.105155334 -0.037522864 -0.07592107
-0.027547745 0.08400341 0.20071529 -0.016614038 -0.1040247 -0.06568255 -0.14804043 0.03254488
0.13784261 0.107500575 -0.04508863 0.030019075 0.10013547 0.11200915 -0.01641803 0.060871482
0.0032151171 -0.23381566 0.07564425 -0.14042148 0.12861837 -0.0958657 -0.11627629 -0.08717442
-0.02873921 -0.0430957 -0.048212495 0.02321772 -0.07234208 0.029279787 -0.03237284 -0.1464992
0.06583217 -0.062147766 0.04297359 -0.16330674 -0.066764206 -0.21670167 0.09650578 0.023539288
0.18569924 0.15020877 -0.16198295 0.013280933 0.13062865 -0.012113364 -0.024648026 -0.074773476
-0.1254254 0.04226579 -0.039258204 -0.035847493 -0.030506913 0.23146293 -0.14714047 -0.08114164
-0.10652642 0.11206377 -0.09037484 0.038145248 -0.012000482 -0.12589681 0.12170215 -0.12935461
0.15679745 0.1937857 -0.07548249 -0.2661095 -0.20563988 0.0565038 0.11774565 0.054198593
0.12860213 0.0659365 0.04036559 -0.22090511 0.1781102 -0.33965713 0.12697175 0.14914846
0.24535175 0.07030621 -0.0012185387 0.038756024 0.12599584 -0.0845421 -0.1302373 0.12713534
-0.022380497 -0.049923792 -0.1705044 0.014799264 -0.07229847 -0.0016385671 0.17792445 -0.16129723
0.039446007 -0.13431665 -0.29036334 -0.028249243 -0.010944028 0.031250667 0.16823082 -0.17026323
-0.04375618 -0.045004252 0.116530046 -0.106484696 -0.021083137 -0.012355415 0.094278745 0.17434235
0.06482842 -0.15043905 -0.024471654 0.003858363 -0.06276741 -0.08591206 0.10526082 -0.031448748
-0.16890419 -0.23453014 -0.2117314 -0.026487542 0.011955017 0.029171301 0.19658044 0.06498178
0.11990869 0.21601696 -0.10438859 0.17296489 0.025305318 0.022246143 0.024418643 -0.25899625
0.1751091 0.19396663 -0.09784373 0.1133974 -0.09862791 0.08111667 -0.097406395 0.19888099
0.038734484 -0.07970221 0.19038329 -0.12244233 0.022268148 0.13323396 -0.072624296 0.09994707
0.20599045 0.05115509 0.027890794 -0.23473978 0.025466027 -0.07876741 0.1471291 0.024963735
-0.0078110867 0.067553066 0.13499233 0.13693851 -0.12675971 0.13256665 -0.12380616 0.03195103
0.12322243 0.060218822 -0.026324475 0.030385746 -0.11921242 0.15881915 -0.03485428 0.09963994
-0.17502116 0.084224574 -0.14581527 -0.07293877 0.00904516 -0.16342744 0.038917508 0.039599642
0.043083046 -0.24959004 0.01939584 -0.062475257 -0.06489914 0.18626158 0.19713023 -0.017342487
-0.061728857 -0.3659886 -0.051355433 0.09705108 0.15902826 -0.108872466 -0.09243001 -0.11830518
00000000: 8392 153e 4b95 50bd 7fc3 993e 4c9d 5bbc
00000010: aed1 cb3d 352d 27be 3137 033e d2f0 423d
00000020: 78da f93d 1f04 443e d3dc e0bd 4e29 14bd
00000030: efbf 14be 597b b73d 382c 9fbe 7249 28bd
00000040: 355a 843e 966d b9bc 15eb 433e 50e9 d1bc
00000050: 3f10 343e 15c6 0a3e 0565 51bc 69df 2b3d
00000060: 2c7f 3b3e ae9a f2bd b1ee 3bbe 5fa1 383e
00000070: 7591 24be 11fb 54bd 68ee ec3d a7f3 eebd
00000080: 37d2 df3d 328a 113e c4b3 013d 3230 6bbe
00000090: de87 2dbe 3222 513d 704a 1a3e 34c4 053b
000000a0: 481b 5dbe b0d3 033d 9c59 88be b43f ed3d
000000b0: e5a6 89bd 3678 3fbe eda1 9f3c d8b0 9fbe
000000c0: 3768 6dbd f612 67bc 318f 7d3d 39e6 1c3e
000000d0: cc5d 833d ae5b d73d 93b1 19bd 827c 9bbd
000000e0: cfab e1bc fb09 ac3d 4f88 4d3e 2a1a 88bc
000000f0: e70a d5bd 9384 86bd e997 17be c84d 053d
00000100: 9d26 0d3e 4329 dc3d dbae 38bd 90ea f53c
00000110: d313 cd3d 0e65 e53d 1b7f 86bc 6054 793d
00000120: b7b4 523b 5f6d 6fbe 5feb 9a3d a6ca 0fbe
00000130: 89b4 033e 3c55 c4bd 4322 eebd 8188 b2bd
00000140: 7e6e ebbc 1e85 30bd 777a 45bd 1733 be3c
00000150: 1628 94bd 2adc ef3c 6299 04bd e303 16be
00000160: 04d3 863d a88e 7ebd 1305 303d e239 27be
00000170: acbb 88bd 0be7 5dbe d3a4 c53d 77d5 c03c
00000180: f127 3e3e 54d0 193e dcde 25be 4598 593c
00000190: 84c3 053e 2277 46bc a8ea c9bc d622 99bd
000001a0: 846f 00be e51e 2d3d 36cd 20bd d2d4 12bd
000001b0: a2e9 f9bc 9e04 6d3e feab 16be 972d a6bd
000001c0: 862a dabd b181 e53d 7216 b9bd 313e 1c3d
000001d0: ab9d 44bc 18eb 00be fa3e f93d 8975 04be
000001e0: 838f 203e c26f 463e 9096 9abd 813f 88be
000001f0: 4393 52be 8770 673d a224 f13d 58ff 5d3d
00000200: 47b0 033e b709 873d 6456 253d f334 62be
00000210: 8562 363e 8ae7 adbe e204 023e 60ba 183e
00000220: 7d3d 7b3e b4fc 8f3d 60b7 9fba a3be 1e3d
00000230: 0e05 013e 6924 adbd ed5c 05be c42f 023e
00000240: 4e57 b7bc e47c 4cbd b598 2ebe 9d78 723c
00000250: 3811 94bd 30c5 d6ba d431 363e 1a2b 25be
00000260: 2392 213d 4e8a 09be 81aa 94be f56a e7bc
00000270: 954e 33bc b300 003d b344 2c3e 7c59 2ebe
00000280: ae39 33bd 6156 38bd 4ea7 ee3d a614 dabd
00000290: 8bb6 acbc 5e6e 4abc 3715 c13d cd86 323e
000002a0: c3c4 843d b20c 1abe c778 c8bc 97dc 7c3b
000002b0: 338c 80bd aaf2 afbd fc92 d73d 67d0 00bd
000002c0: 38f5 2cbe ab28 70be 1ed0 58be 67fc d8bc
000002d0: fade 433c a7f8 ee3c 624c 493e 2b15 853d
000002e0: b092 f53d 8d33 5d3e afc9 d5bd b51d 313e
000002f0: 194d cf3c 8b3d b63c 9b09 c83c 289b 84be
00000300: cd4f 333e 309f 463e 4b62 c8bd e53c e83d
00000310: 6efd c9bd 7f20 a63d 017d c7bd 75a7 4b3e
00000320: 0da8 1e3d ea3a a3bd d6f3 423e 0bc3 fabd
00000330: b16b b63c 7c6e 083e 0cbc 94bd 0db1 cc3d
00000340: 29ef 523e 0088 513d 3c7b e43c a05f 70be
00000350: 219e d03c cf50 a1bd 03a9 163e bf80 cc3c
00000360: 25f4 ffbb 4359 8a3d 6e3b 0a3e 9c39 0c3e
00000370: 4ccd 01be 8dbf 073e 168e fdbd 15df 023d
00000380: 0b5c fc3d 03a8 763d 6da6 d7bc 87eb f83c
00000390: a425 f4bd 7da1 223e 5dc3 0ebd 0610 cc3d
000003a0: bf38 33be ef7d ac3d 9950 15be ec60 95bd
000003b0: 2732 143c 8659 27be f767 1f3d 3c33 223d
000003c0: d977 303d 8894 7fbe 06e4 9e3c 0ee6 7fbd
000003d0: d7e9 84bd 5bbb 3e3e 82dc 493e d511 8ebc
000003e0: 66d7 7cbd dc62 bbbe 135a 52bd b7c2 c63d
000003f0: 4ed8 223e 87f8 debd f24b bdbd fc49 f2bd

shared_layers.2.bias f4 [128]
0.035850365 0.08146126 -0.07646991 0.0014145281 0.079306856 0.026875732 0.0229226 -0.06818016
-0.05170649 0.05238868 -0.09286241 0.039577063 -0.090243295 -0.045296848 -0.08577029 -0.08911776
0.041154448 0.08689016 0.060376212 -0.043779276 0.039724447 -0.00680304 -0.031604063 0.09110437
0.029774152 -0.07541309 0.008672395 -0.07657435 0.0711747 -0.04546744 -0.03866846 0.028064206
-0.063618354 -0.018533604 -0.011291429 0.07395877 -0.038447812 -0.08985188 0.07685466 0.07390308
0.045475777 0.021966247 -0.010841783 -0.06681196 0.04560437 0.055093125 -0.069528244 -0.0325267
-0.026075277 -0.067355104 0.077892266 -0.04983843 0.036497544 -0.01899573 0.051153995 0.034652606
0.099064596 -0.044867087 -0.08507007 -0.037519045 0.067982316 0.06264194 0.028782193 -0.019347355
0.024658281 -0.059941698 0.081161596 -0.06265932 0.051297925 0.045223188 0.060871977 -0.023612518
-0.07156864 0.07012365 -0.060984623 0.03633537 0.029421762 0.07695586 -0.06990878 0.089511976
-0.066663206 0.059450246 -0.08415129 -0.08283332 0.072153844 0.047352914 -0.014065628 -0.044705912
0.030537153 0.04685038 0.057221677 0.038905464 -0.044697434 0.08711146 0.05633143 -0.09288217
-0.05302712 0.03087441 0.07721672 0.030894626 -0.047432736 0.119835086 0.09146213 0.052360497
-0.095509 -0.048039407 0.04077582 -0.040655974 -0.05423322 -0.02746437 0.039389197 0.0058693793
-0.03127131 0.018513964 -0.06867946 -0.060133915 -0.016173609 -0.056419432 -0.06592829 -0.06070899
0.07691677 -0.0238022 -0.051705196 0.108364716 -0.099880755 0.04084883 0.06862156 0.04781412
00000000: d5d7 123d 29d5 a63d 429c 9cbd b067 b93a
00000010: a26b a23d 7f2a dc3c 2dc8 bb3c 0aa2 8bbd
00000020: 2fca 53bd 8395 563d a62e bebd 8f1b 223d
00000030: 7ad1 b8bd 3089 39bd 55a8 afbd 5f83 b6bd
00000040: 9191 283d 78f3 b13d 0c4d 773d e651 33bd
00000050: 1ab6 223d 09ec debb 4373 01bd ee94 ba3d
00000060: ece8 f33c 2e72 9abd a916 0e3c 03d3 9cbd
00000070: 0bc4 913d 113c 3abd d262 1ebd e8e6 e53c
00000080: 574a 82bd c9d3 97bc b0ff 38bc b277 973d
00000090: 747b 1dbd 4304 b8bd fa65 9d3d 7f5a 973d
000000a0: cf44 3a3d 8ff2 b33c bca1 31bc b5d4 88bd
000000b0: a6cb 3a3d 54a9 613d d364 8ebd b83a 05bd
000000c0: d29b d5bc 79f1 89bd fb85 9f3d 6223 4cbd
000000d0: 737e 153d ef9c 9bbc da86 513d e4ef 0d3d
000000e0: 61e2 ca3d 8dc6 37bd 3839 aebd 92ad 19bd
000000f0: 503a 8b3d 6b4a 803d a2c8 eb3c 587e 9ebc
00000100: 2a00 ca3c 6d85 75bd 0d38 a63d 8853 80bd
00000110: c61d 523d f33b 393d e554 793d 0a6f c1bc
00000120: 9492 92bd fd9c 8f3d 03cb 79bd 66d4 143d
00000130: e805 f13c 099b 9d3d 562c 8fbd 0e52 b73d
00000140: b886 88bd 1a82 733d 8357 acbd 84a4 a9bd
00000150: 65c5 933d 21f5 413d 8573 66bc 8c1d 37bd
00000160: 0d29 fa3c 2fe6 3f3d 4761 6a3d 565b 1f3d
00000170: a814 37bd 7e67 b23d c9bb 663d 0239 bebd
00000180: f732 59bd 55ec fc3c cd23 9e3d ba16 fd3c
00000190: d448 42bd 196c f53d 7f50 bb3d f677 563d
000001a0: 399a c3bd f8c4 44bd 8c04 273d e186 26bd
000001b0: a723 5ebd f5fc e0bc 9156 213d ec53 c03b
000001c0: 5816 00bd 99aa 973c d1a7 8cbd fb4e 76bd
000001d0: 847e 84bc 1018 67bd 6905 87bd fda9 78bd
000001e0: 8a86 9d3d d5fc c2bc d4c8 53bd 52ee dd3d
000001f0: 488e ccbd 1a51 273d 7689 8c3d bdd8 433d

shared_layers.4.weight f4 [64, 128]
-0.036130276 0.03498617 -0.11265421 0.24368756 -0.026761476 0.074991666 0.04213028 -0.12308393
-0.07836423 0.09560734 -0.1370098 0.10748521 0.056430347 0.013057812 -0.07294084 -0.18105696
0.33225673 0.036723703 0.070196815 0.023299718 0.14714459 0.0983374 -0.20948935 -0.13268584
0.023000965 0.044463854 -0.19440004 -0.331148 0.15240017 -0.15841967 0.0355645 -0.14378485
-0.0025647401 -0.074602164 0.18933432 0.097557016 -0.08105067 -0.4324867 0.07198332 0.13830325
-0.11236453 0.123784296 0.03657839 -0.067140974 0.045701727 0.09092759 0.06247734 -0.07728576
-0.15652926 -0.1782497 0.09710415 -0.01856414 -0.018593924 0.10978498 0.015882675 0.07217741
0.07422801 -0.056439597 0.05548334 -0.008263834 -0.01696344 0.31910354 0.19451663 -0.15398042
0.059282355 -0.12012985 0.06277541 0.14952387 -0.02314803 0.10560441 0.16266777 0.11265426
0.004020497 0.011788905 0.19369029 0.040245507 -0.037704524 0.08385413 -0.020322649 -0.016120356
0.014274966 -0.033955812 -0.1480168 -0.17129779 0.23559454 0.022643078 -0.10470048 -0.21849994
0.33857036 0.23766066 0.17988414 -0.13449475 -0.31199446 0.11874598 0.18297689 -0.14559108
0.029329447 -0.17056301 0.06500428 0.16878097 -0.08979917 0.14408065 0.18072811 0.086210795
-0.065591276 -0.104593195 -0.04081125 0.16228667 -0.010460498 0.21429212 0.10807978 0.10444809
-0.056929577 0.1238714 -0.19755636 -0.19531731 -0.1951769 0.008709184 -0.22722565 -0.04827052
0.21519132 0.041093312 -0.17081933 0.1501323 0.11652385 -0.10383347 0.06033822 -0.010925628
-0.34993193 -0.1056629 0.35574213 0.12407429 0.021626333 -0.13744128 -0.09621733 -0.022593794
0.01010292 -0.14117503 -0.027726904 -0.06705306 0.12437805 0.22512817 0.040658906 0.124879465
0.19427338 -0.024862483 0.12668028 -0.17534925 0.070538096 -0.053171404 0.1006817 -0.061720937
-0.25392765 0.0005740152 -0.040663805 0.20203513 0.20817056 -0.0065801963 0.052599147 -0.06570031
0.13639888 0.15428849 -0.106316105 -0.09548459 0.0572736 0.06109513 0.084642574 0.013756175
0.10592829 0.05093202 -0.11552348 0.19310923 -0.14903373 -0.09516893 0.0614109 -0.18281047
0.06783244 0.2011924 -0.30316967 0.13734606 -0.12946929 0.06858631 -0.21273412 0.10932313
-0.09252867 0.15049817 0.094008826 0.03182751 -0.08060378 0.120208204 0.06729866 0.13585009
-0.048239432 -0.02969326 -0.02144383 0.02395058 -0.12259464 -0.2329093 0.0025823198 -0.021727838
-0.21824002 0.06998942 0.19862223 0.06323663 -0.084876865 -0.18779148 -0.08398887 0.017385954
0.17533503 -0.04587372 0.21771616 0.07435867 0.2938376 0.0038742295 -0.002232203 -0.21702303
0.050633445 -0.073095 0.061717976 0.213716 0.042307317 -0.32864255 -0.18795599 0.25902346
-0.019287625 0.14333634 -0.2296569 -0.20304649 -0.014323943 -0.14745952 -0.14881672 -0.10378329
0.20938993 0.16933256 -0.02426677 0.12774919 0.014791432 -0.0066576824 -0.010251068 0.08700515
-0.057264205 -0.05513652 0.032388035 -0.010502506 0.123505294 -0.07893073 0.101744235 0.12911318
-0.066408895 0.07948578 0.056601364 -0.31474796 0.08022892 -0.09475909 -0.07680743 -0.023986485
00000000: 57fd 13bd a84d 0f3d 40b7 e6bd 3b89 793e
00000010: e23a dbbc 3b95 993d cd90 2c3d 6d13 fcbd
00000020: 6d7d a0bd c8cd c33d 4c4c 0cbe 3521 dc3d
00000030: 8223 673d 6ff0 553c 0262 95bd ff66 39be
00000040: 8e1d aa3e 986b 163d 59c3 8f3d 0ddf be3c
00000050: 12ad 163e 1e65 c93d 6084 56be ccde 07be
00000060: 856c bc3c bb1f 363d ce10 47be 3b8c a9be
00000070: ca0e 1c3e c438 22be 15ac 113d 563c 13be
00000080: 3315 28bb 05c9 98bd dbe0 413e f9cb c73d
00000090: e5fd a5bd e66e ddbe fe6b 933d 5e9f 0d3e
000000a0: 601f e6bd 9f82 fd3d 39d3 153d 3581 89bd
000000b0: bc31 3b3d 3f38 ba3d 3de8 7f3d ff47 9ebd
000000c0: 3549 20be 1787 36be 8ade c63d d313 98bc
000000d0: 4952 98bc f3d6 e03d 621c 823c c0d1 933d
000000e0: db04 983d 352d 67bd 8042 633d 0865 07bc
000000f0: eaf6 8abc 8a61 a33e 5e2f 473e 0bad 1dbe
00000100: 0ed2 723d a406 f6bd 6590 803d c91c 193e
00000110: f0a0 bdbc 2047 d83d 6192 263e 47b7 e63d
00000120: 60be 833b 4026 413c bf56 463e 79d8 243d
00000130: 0f70 1abd b7bb ab3d af7b a6bc d60e 84bc
00000140: 8ce1 693c 4015 0bbd b791 17be b068 2fbe
00000150: b23f 713e fa7d b93c 356d d6bd 73be 5fbe
00000160: 1859 ad3e 515d 733e 8c33 383e feb8 09be
00000170: bdbd 9fbe 1831 f33d 4b5e 3b3e d415 15be
00000180: 4f44 f03c 12a8 2ebe f720 853d ebd4 2c3e
00000190: a1e8 b7bd e189 133e ca10 393e 498f b03d
000001a0: b854 86bd f534 d6bd b329 27bd 7a2e 263e
000001b0: 8262 2bbc 656f 5b3e ef58 dd3d e1e8 d53d
000001c0: fd2e 69bd 4ab0 fd3d 374c 4abe 4301 48be
000001d0: 74dc 47be f7b0 0e3c d7ad 68be 4fb7 45bd
000001e0: 1d5b 5c3e 7651 283d 43eb 2ebe 48bc 193e
000001f0: 0ea4 ee3d a4a6 d4bd 3625 773d 6801 33bc
00000200: 472a b3be ca65 d8bd d523 b63e a91a fe3d
00000210: b529 b13c 68bd 0cbe 970d c5bd 9f16 b9bc
00000220: b886 253c 3090 10be 8823 e3bc 1d53 89bd
00000230: ebb9 fe3d 0088 663e f489 263d cec0 ff3d
00000240: 9aef 463e 68ac cbbc 7ab8 013e c18e 33be
00000250: 4776 903d 42ca 59bd 3532 ce3d 18cf 7cbd
00000260: ce02 82be 8279 163a 178f 26bd 4ce2 4e3e
00000270: aa2a 553e b09e d7bb 3472 573d e28d 86bd
00000280: 26ac 0b3e cdfd 1d3e 42bc d9bd 6d8d c3bd
00000290: b997 6a3d e33e 7a3d 1659 ad3d 9461 613c
000002a0: eef0 d83d 189e 503d 9397 ecbd 6dbe 453e
000002b0: 4c9c 18be eee7 c2bd ff89 7b3d ab32 3bbe
000002c0: bceb 8a3d 6105 4e3e 0e39 9bbe 72a4 0c3e
000002d0: 9993 04be fb76 8c3d f9d6 59be cee4 df3d
000002e0: ac7f bdbd 311c 1a3e b387 c03d 905d 023d
000002f0: 9813 a5bd b82f f63d e1d3 893d 491c 0b3e
00000300: b696 45bd 483f f3bc f9aa afbc 0234 c43c
00000310: e612 fbbd c77f 6ebe 233c 293b 94fe b1bc
00000320: 507a 5fbe 9d56 8f3d a063 4b3e 3582 813d
00000330: ecd3 adbd 694c 40be 5b02 acbd fd6c 8e3c
00000340: 078b 333e 15e6 3bbd fcf0 5e3e 5c49 983d
00000350: e271 963e c9e6 7d3b 274a 12bb 493b 5ebe
00000360: 0465 4f3d d5b2 95bd fdcb 7c3d 5ed8 5a3e
00000370: 704a 2d3d d643 a8be 8977 40be b99e 843e
00000380: 1501 9ebc c3c6 123e 2e2b 6bbe 6beb 4fbe
00000390: f9ae 6abc a1ff 16be 6963 18be 558c d4bd
000003a0: 506a 563e 8465 2d3e 1bcb c6bc afd0 023e
000003b0: c357 723c b028 dabb 18f4 27bc c22f b23d
000003c0: df8d 6abd d5d6 61bd 51a9 043d b412 2cbc
000003d0: 58f0 fc3d 6fa6 a1bd 485f d03d 3f36 043e
000003e0: 6301 88bd 71c9 a23d d5d6 673d a526 a1be
000003f0: 0f4f a43d 0e11 c2bd 374d 9dbd 4e7f c4bc

shared_layers.4.bias f4 [64]
0.122330256 -0.111076035 -0.08317415 -0.0016778536 0.049017463 0.03850847 -0.024314335 0.053614024
0.0045162146 -0.07643129 0.051400106 -0.07572469 0.027531097 -0.065494984 0.06167898 -0.05764976
-0.039687026 -0.05719892 0.09577224 0.019651996 -0.107553124 0.055418734 -0.041964058 0.036598675
-0.10953865 0.012503352 -0.0023496654 -0.022237137 -0.025719145 0.034880508 0.033483315 0.063705616
0.044266656 0.07664345 -0.106865235 -0.06166553 0.03449589 -0.02923766 0.0016863373 0.0012198922
-0.07325729 0.069245756 0.063235715 -0.07905787 -0.062147904 -0.037404597 0.025950294 -0.037491392
0.034955908 0.10090695 0.022750303 -0.109817415 -0.110440776 -0.028928421 0.027824309 -0.07495007
-0.021868695 -0.11171594 -0.0025129789 0.089448296 0.036510047 0.003580279 -0.10076492 -0.115728095
00000000: 4988 fa3d d57b e3bd 3557 aabd 6deb dbba
00000010: 89c6 483d 0fbb 1d3d db2e c7bc 619a 5b3d
00000020: c1fc 933b 0288 9cbd eb88 523d 8c15 9bbd
00000030: e588 e13c 3c22 86bd 19a3 7c3d 2822 6cbd
00000040: dd8e 22bd 6a49 6abd 3c24 c43d 39fd a03c
00000050: d044 dcbd c1fe 623d 81e2 2bbd 7ee8 153d
00000060: cd55 e0bd dcda 4c3c d8fc 19bb a82a b6bc
00000070: f5b0 d2bc ddde 0e3d cd25 093d 1778 823d
00000080: f450 353d 3ef7 9c3d 29dc dabd ff94 7cbd
00000090: 904b 0d3d d183 efbc 1708 dd3a cae4 9f3a
000000a0: eb07 96bd b8d0 8d3d ba81 813d 18e9 a1bd
000000b0: cd8e 7ebd 9035 19bd b695 d43c 9390 19bd
000000c0: ed2d 0f3d 4ea8 ce3d d85e ba3c f4e7 e0bd
000000d0: c62e e2bd 4cfb ecbc ceef e33c 6c7f 99bd
000000e0: fa25 b3bc 54cb e4bd cab0 24bb ab30 b73d
000000f0: 8f8b 153d 1da3 6a3b d75d cebd da02 edbd

shared_layers.6.weight f4 [64, 64]
-0.048464637 0.035092194 -0.07650429 0.07195924 -0.050866872 0.40731287 0.05346542 0.41780674
-0.014066016 0.16607447 -0.17083438 0.06361941 0.15738173 0.25266668 -0.20051937 0.26494548
0.15521741 0.12520194 -0.1250577 0.13762449 0.052238416 0.17898995 0.11013 -0.12675941
0.25580382 -0.039366607 -0.026165215 0.107544884 -0.45425373 -0.2708221 -0.19279563 -0.19690397
0.2231616 0.036529306 -0.18561837 -0.18160056 -0.09080912 0.31263864 0.21571207 -0.24752046
0.03590783 0.1640489 -0.052718304 0.07773274 -0.18783948 0.15214159 -0.076841705 0.09100073
0.0015282865 -0.19095771 0.077991426 0.07676841 0.29641083 0.10183108 -0.27275187 0.038576886
-0.17029646 -0.036016587 0.08745198 -0.15571725 -0.2743545 0.18131532 0.06501921 0.3466763
-0.035690855 -0.08591213 0.33690953 -0.21039669 0.14592464 -0.1976536 0.16242103 -0.124957375
0.071563326 0.09578817 -0.10432099 -0.029527688 0.13255319 0.10129739 0.2526275 0.1268253
-0.027171096 0.030987944 -0.35223016 0.043973267 0.03626369 -0.06516605 -0.13031344 0.106607966
0.29176217 0.19722866 -0.28083754 0.0017706673 0.08124505 -0.054476473 0.24894494 -0.4142351
0.26975772 0.054248393 0.22639398 0.29253572 -0.35637787 0.0006671537 -0.1568892 -0.112960726
-0.096581675 7.826732e-05 0.24871093 0.08942482 0.08838546 -0.21091545 -0.024950316 0.1228718
-0.2783368 -0.1869927 0.28214332 0.3789788 0.12202826 0.1264256 -0.16606434 0.108640134
0.26708245 0.20876174 0.18286648 -0.23592821 -0.2413389 0.1344461 0.28975114 -0.02972831
0.059836544 0.1315763 -0.067961805 0.25538093 -0.03636335 0.051298145 0.17813085 0.052570637
0.25696468 -0.006566911 0.0035037566 -0.102153346 0.16341361 -0.102038845 -0.2104209 0.022445263
0.18810315 0.23324001 -0.44042367 0.097466365 0.2317158 -0.14879467 0.049891874 0.22430801
0.44541258 0.04281899 -0.035238165 0.11747548 0.048637994 0.17798471 -0.2418873 0.07772776
-0.2598527 -0.03147839 0.08983689 -0.021029279 -0.16879892 -0.33846512 0.2758569 0.077026084
0.28559923 -0.008577087 0.2264188 0.14629896 0.21581528 0.005417083 -0.3332622 -0.15860055
0.012207137 0.12591608 -0.008181482 0.4088462 -0.00978534 0.15956838 -0.086215064 -0.15778337
-0.20830634 0.045015745 -0.062692456 -0.09877801 0.29369688 -0.031801496 0.018118711 -0.06306237
0.18287373 -0.27891335 0.10524671 -0.1051181 0.063827805 0.18486205 0.09181723 0.21373597
0.43527174 -0.0116741415 0.090439774 -0.13587016 -0.068202 -0.12796909 0.11865113 -0.11695443
0.1560272 0.31139612 -0.16351801 0.27839047 -0.49815518 0.21117133 0.13921228 -0.27514032
-0.35970044 0.0005117176 0.12139725 0.16087794 0.20998754 0.008784599 -0.034205724 -0.09655046
-0.13084452 0.1730725 0.20726725 -0.036737368 -0.008853092 -0.13652372 -0.056043208 -0.13854308
-0.2656078 0.13581681 0.30381095 -0.06540496 -0.06849324 -0.04177928 -0.061604142 0.16462786
0.2800666 -0.23110221 -0.08098196 -0.20834532 -0.119135305 -0.23160602 -0.019870387 0.16947508
-0.015784407 -0.14023213 -0.13030984 0.040181562 0.27780178 -0.27782115 -0.09055885 0.013541262
00000000: db82 46bd d5bc 0f3d 48ae 9cbd 5e5f 933d
00000010: c859 50bd 508b d03e 8efe 5a3d c4ea d53e
00000020: 2675 66bc 6d0f 2a3e 35ef 2ebe e54a 823d
00000030: ad28 213e 875d 813e f354 4dbe efa6 873e
00000040: 50f1 1e3e f034 003e 200f 00be 6fed 0c3e
00000050: f3f7 553d 2449 373e d68b e13d 38cd 01be
00000060: b8f8 823e e13e 21bd 6f58 d6bc 7e40 dc3d
00000070: f293 e8be 32a9 8abe 386c 45be 32a1 49be
00000080: 7984 643e c19f 153d be12 3ebe 7ff5 39be
00000090: 22fa b9bd 2c12 a03e a0e3 5c3e 0176 7dbe
000000a0: 1714 133d 6ffc 273e 26ef 57bd 5832 9f3d
000000b0: fe58 40be 01cb 1b3e 2f5f 9dbd 975e ba3d
000000c0: c950 c83a 6b8a 43be f8b9 9f3d c238 9d3d
000000d0: 29c3 973e d08c d03d 22a6 8bbe cc02 1e3d
000000e0: 3262 2ebe 2186 13bd 061a b33d 5874 1fbe
000000f0: 3178 8cbe b9aa 393e cb28 853d 8e7f b13e
00000100: 9330 12bd b3f2 afbd 687f ac3e 3b72 57be
00000110: 456d 153e b565 4abe b351 263e a7e9 ffbd
00000120: cb8f 923d 972c c43d 3ea6 d5bd 0de4 f1bc
00000130: 06bc 073e 0275 cf3d 6458 813e 7ede 013e
00000140: eb95 debc 6eda fd3c 8357 b4be 501d 343d
00000150: 3c89 143d c775 85bd e370 05be 4755 da3d
00000160: da61 953e 4ff6 493e f0c9 8fbe bc15 e83a
00000170: ce63 a63d b922 5fbd 6ceb 7e3e 9f16 d4be
00000180: af1d 8a3e 9033 5e3d d3d3 673e 3ec7 953e
00000190: 2977 b6be ede3 2e3a 90a7 20be f457 e7bd
000001a0: 9dcc c5bd 7323 a438 14ae 7e3e 5c24 b73d
000001b0: 7003 b53d 38fa 57be 9b64 ccbc 36a4 fb3d
000001c0: 2982 8ebe 047b 3fbe 1775 903e 8209 c23e
000001d0: f4e9 f93d b675 013e c50c 2abe b87e de3d
000001e0: 08bf 883e a3c5 553e 5a41 3b3e 2a97 71be
000001f0: 8b21 77be 3dac 093e 435a 943e c988 f3bc
00000200: 2a17 753d f0bb 063e 8f2f 8bbd 4ac1 823e
00000210: bcf1 14bd 011e 523d ef67 363e 4f54 573d
00000220: e090 833e 3e2f d7bb 489f 653b c635 d1bd
00000230: e655 273e bef9 d0bd 9478 57be 21df b73c
00000240: 1d9e 403e 78d6 6e3e 367f e1be 729c c73d
00000250: e846 6d3e a15d 18be 6c5b 4c3d 00b1 653e
00000260: 1e0d e43e f762 2f3d e555 10bd fc96 f03d
00000270: a238 473d a041 363e 4eb1 77be bb2f 9f3d
00000280: 6a0b 85be 7cef 00bd 67fc b73d 9845 acbc
00000290: a0d9 2cbe 4d4b adbe 1e3d 8d3e dabf 9d3d
000002a0: 103a 923e e986 0cbc 54da 673e 65cf 153e
000002b0: aefe 5c3e c981 b13b 58a1 aabe 2f68 22be
000002c0: 7200 483c 25f0 003e 9f0b 06bc 4a54 d13e
000002d0: b152 20bc e565 233e 8691 b0bd f791 21be
000002e0: 424e 55be 6e62 383d e764 80bd 204c cabd
000002f0: 705f 963e 4942 02bd b16d 943c d826 81bd
00000300: 4043 3b3e bbcd 8ebe 968b d73d 2948 d7bd
00000310: 27b8 823d 7a4c 3d3e ac0a bc3d 9add 5a3e
00000320: f0db de3e e644 3fbc 7d38 b93d 8c21 0bbe
00000330: 7dad 8bbd 540a 03be 5dff f23d ce85 efbd
00000340: 98c5 1f3e 506f 9f3e 4471 27be 3289 8e3e
00000350: 320e ffbe 4c3d 583e aa8d 0e3e 31df 8cbe
00000360: a82a b8be c924 063a 1f9f f83d 30bd 243e
00000370: f906 573e 47ed 0f3c 4d1b 0cbd 3fbc c5bd
00000380: 1bfc 05be eb39 313e de3d 543e ec79 16bd
00000390: 8f0c 11bc e0cc 0bbe 908d 65bd 3dde 0dbe
000003a0: bffd 87be 9013 0b3e 1c8d 9b3e 09f3 85bd
000003b0: 2f46 8cbd c020 2bbd a054 7cbd 3594 283e
000003c0: e464 8f3e 0fa6 6cbe dfd9 a5bd 7a58 55be
000003d0: 36fd f3bd 212a 6dbe 39c7 a2bc e08a 2d3e
000003e0: 4d4e 81bc 0399 0fbe f16f 05be 6c95 243d
000003f0: 093c 8e3e 933e 8ebe eb76 b9bd 2bdc 5d3c

shared_layers.6.bias f4 [64]
-0.023020089 -0.07003061 -0.038811166 0.052323624 -0.0866615 0.029842863 0.111632116 0.08107268
-0.079908885 -0.017505156 -0.06863729 -0.045088757 -0.101140454 0.078971855 0.039585505 0.07014525
0.04997324 0.084606044 0.07705569 -0.04068774 0.029169895 -0.020229498 -0.09540162 -0.04848733
0.0256512 0.036299087 0.06862798 0.03418343 0.08489626 -0.07154899 -0.06212786 -0.093175694
0.08934364 0.08114474 0.030847056 -0.08110049 0.026584925 0.078701414 0.049325597 0.032758165
-0.026559161 -0.07052485 -0.06770971 0.08541445 0.05248732 0.039627817 0.06678039 0.104755454
0.100439176 0.014382148 -0.08267551 0.040470336 0.0027193432 0.055087347 -0.069490775 -0.08433929
0.1008403 -0.047429346 0.036410842 0.060063716 -0.10635026 0.017314188 0.03725574 0.026697442
00000000: a094 bcbc 356c 8fbd 75f8 1ebd 4c51 563d
00000010: 967b b1bd 0579 f43c 619f e43d 6f09 a63d
00000020: 45a7 a3bd f966 8fbc b591 8cbd fdae 38bd
00000030: ba22 cfbd ffbb a13d 6924 223d 50a8 8f3d
00000040: bdb0 4c3d ef45 ad3d 60cf 9d3d 30a8 26bd
00000050: b4f5 ee3c 55b8 a5bc ed61 c3bd a79a 46bd
00000060: 7722 d23c 5aae 143d d48c 8c3d ed03 0c3d
00000070: 17de ad3d 4788 92bd c879 7ebd e6d2 bebd
00000080: ccf9 b63d 372f a63d f7b2 fc3c 0418 a6bd
00000090: a1c8 d93c 352e a13d a309 4a3d 6d2d 063d
000000a0: 9992 d9bc 556f 90bd 63ab 8abd c5ed ae3d
000000b0: f2fc 563d c750 223d 28c4 883d 078a d63d
000000c0: 0eb3 cd3d 1aa3 6b3c c751 a9bd 39c4 253d
000000d0: 0237 323b 45a3 613d 2e51 8ebd 14ba acbd
000000e0: 5c85 ce3d 4645 42bd 8923 153d 5f05 763d
000000f0: 2ace d9bd 7cd6 8d3c 7a99 183d 98b4 da3c

output_layer.weight f4 [2, 64]
0.008127922 0.0069053154 -0.011951987 0.006607555 0.005027092 0.0095009925 0.0004165516 0.0043053576
0.0027634539 -0.004806838 0.004957701 -0.0044567473 -0.0013522049 -0.003950262 0.005992521 0.00475514
0.009667787 -0.003699722 0.0064129443 -0.006128264 -0.005568221 -0.0072199362 0.002086954 0.0049969098
-0.008488421 0.003700244 0.00633973 -0.008496026 -0.0020394372 0.0025075595 -0.002957085 0.0034296368
0.0053585004 0.00869472 -0.009006296 -0.0054483297 0.008060989 0.0057979855 0.0068632895 -0.006546628
0.007148629 -0.0050277696 0.0056151934 0.0034722276 0.010434915 0.009454992 -0.0041038105 0.0023862096
-0.0028414957 -0.0042926865 0.0034259662 0.006509105 0.0053818645 0.005624176 -0.005394685 -0.0069561233
-0.0017341053 -0.0075132465 0.008833693 0.0076029026 -0.00028909065 0.005448013 -0.010784037 -0.002888123
-0.048889637 -0.08382599 -0.04458061 0.05394011 -0.08077076 0.03710475 0.0992747 0.055856407
-0.05602449 -0.027637418 -0.06777662 -0.033824872 -0.05737949 0.06581338 0.033106413 0.0573825
0.043876216 0.07036235 0.08342939 -0.022968313 0.05717802 -0.025364503 -0.07858136 -0.031390943
0.026150344 0.07177395 0.0570775 0.0599995 0.06279557 -0.063267045 -0.064986035 -0.08330094
0.08110839 0.09170561 0.05127143 -0.078253426 0.037633866 0.07803155 0.03664211 0.05306056
-0.056866128 -0.05884767 -0.07240413 0.08623315 0.057368968 0.041131053 0.06284342 0.08130638
0.09719642 0.049958322 -0.063706115 0.057224404 0.028852116 0.051728696 -0.07492895 -0.08972264
0.074813075 -0.04474079 0.040233746 0.06320969 -0.08457266 0.028274653 0.03253345 0.053154558
00000000: fa2a 053c fc45 e23b 44d2 43bc 3084 d83b
00000010: 4eba a43b 0daa 1b3c 9c64 da39 f513 8d3b
00000020: 101b 353b ae82 9dbb 3674 a23b e809 92bb
00000030: 783c b1ba 3371 81bb e95c c43b 01d1 9b3b
00000040: a365 1e3c 0977 72bb ad23 d23b 9bcf c8bb
00000050: a075 b6bb 3795 ecbb 47c5 083b 1ebd a33b
00000060: 0513 0bbc cb7f 723b 83bd cf3b ea32 0bbc
00000070: 14a8 05bb de55 243b a7cb 41bb c2c3 603b
00000080: 5c96 af3b 4d74 0e3c 258f 13bc e787 b2bb
00000090: 3d12 043c 07fd bd3b 72e5 e03b 1985 d6bb
000000a0: 0c3f ea3b fdbf a4bb a8ff b73b 508e 633b
000000b0: 35f7 2a3c 1ce9 1a3c 4279 86bb f461 1c3b
000000c0: 6338 3abb aaa9 8cbb 2d86 603b 554a d53b
000000d0: 5a5a b03b 024b b83b e6c5 b0bb 31f0 e3bb
000000e0: eb4a e3ba ae31 f6bb 32bb 103c c521 f93b
000000f0: 1791 97b9 3f85 b23b 88af 30bc aa46 3dbb
00000100: 8040 48bd f6ac abbd 289a 36bd 4ef0 5c3d
00000110: 246b a5bd 26fb 173d 8950 cb3d b0c9 643d
00000120: f079 65bd de67 e2bc 78ce 8abd f38b 0abd
00000130: c206 6bbd 2ac9 863d 979a 073d ea09 6b3d
00000140: 8cb7 333d 231a 903d 07dd aa3d 0b28 bcbc
00000150: 8033 6a3d 38c9 cfbc 44ef a0bd ca93 00bd
00000160: 3f39 d63c 38fe 923d 19ca 693d 09c2 753d
00000170: f79a 803d 2792 81bd 6617 85bd af99 aabd
00000180: 281c a63d 27d0 bb3d fe01 523d 5543 a0bd
00000190: f825 1a3d 01cf 9f3d 0a16 163d 0856 593d
000001a0: 75ec 68bd 410a 71bd 9e48 94bd 019b b03d
000001b0: b9fb 6a3d 0979 283d 0db4 803d f683 a63d
000001c0: eb0e c73d 19a1 4c3d 5a78 82bd 2364 6a3d
000001d0: 465b ec3c 78e1 533d 5974 99bd 81c0 b7bd
000001e0: 9937 993d 1e42 37bd 24cc 243d 1574 813d
000001f0: 6e34 adbd 3fa0 e73c cb41 053d 98b8 593d

output_layer.bias f4 [2]
0.00042352834 -1.395108
00000000: 030d de39 e692 b2bf

layers.0.weight f4 [128, 3]
0.07427227 -0.046849687 0.0166003 0.08234795 0.044667494 0.040555503 -0.0921146 -0.12410658
0.0045367745 0.020625394 0.10254267 0.0050630597 0.13218284 -0.015761765 0.029467706 -0.10172618
0.13336119 0.005601556 -0.11826913 -0.0320621 -0.007803319 0.05271773 0.12966642 -0.028521245
-0.15396307 0.07719927 -0.052179705 0.10005367 0.035451494 0.04545779 -0.18668638 0.063813694
0.05734629 0.07778053 -0.06334869 0.029391767 0.12236552 -0.060539395 -0.048651066 -0.02550779
0.0044207824 0.0022003837 -0.1798271 -0.07993475 -0.0018390672 -0.13514182 -0.08111883 -0.073220395
0.024232721 -0.10966589 -0.002878306 0.08143745 0.07904287 -0.027966421 -0.025303653 0.007826072
-0.055083822 0.07806619 -0.09634688 0.048074465 0.01904668 0.08326139 0.019954983 -0.13603759
-0.08878802 0.021229386 0.010279892 -0.02928251 0.007293606 -0.012768288 0.019688752 -0.03225586
0.13492289 0.0650163 0.015531773 0.10800926 0.10972032 -0.035691928 0.03861855 -0.0043397257
0.01828399 -0.01155501 0.1387565 0.04174209 -0.1572048 -0.050347485 -0.01911283 0.075202666
-0.08147504 0.046905007 0.0017009814 -0.11025177 -0.060794767 -0.026360132 0.0356493 -0.009547961
0.094772704 -0.038524296 0.061920155 0.114279225 0.061067834 0.037454285 -0.16088697 0.13684471
-0.030260015 -0.030081863 -0.029361276 -0.013788358 0.03425926 0.12366505 0.053225365 0.06995208
-0.13957505 0.058010887 -0.14409772 0.099023655 0.021186449 -0.062364236 0.08974208 -0.042822007
-0.08075684 -0.12764277 0.004955211 -0.038530275 -0.05452656 -0.026077546 -0.061012242 0.082315736
-0.06938011 0.056142155 -0.10940332 0.014419336 0.08111296 0.10003931 -0.00039133147 0.025613867
0.005203017 0.047583997 -0.04389962 -0.034986693 -0.051300507 0.030064424 0.021457143 -0.0018845231
0.12135537 -0.0043231784 0.02568828 -0.11092808 0.009555424 0.025912993 0.002046778 0.07204227
0.0088339355 -0.027942998 -0.04458181 0.041718666 -0.07561982 -0.08781448 0.031990826 -0.1134041
-0.021987531 -0.03228457 0.10320463 0.027188478 0.049441393 0.13201597 -0.021568304 0.00690047
-0.10986046 0.0750063 -0.011890013 -0.19761743 0.07994374 0.08072409 -0.09558952 -0.049843334
0.007838253 -0.09250449 -0.130057 -0.021470038 0.007891632 0.046798494 -0.026269693 -0.011982403
-0.065910466 -0.008408127 0.11312286 0.12493205 -0.024367377 0.021467688 -0.09070489 -0.0043324516
0.010124622 -0.13289262 -0.025692003 -0.061807096 0.035316404 0.049783636 0.046253316 0.11941094
-0.017494272 0.1069215 -0.1162432 -0.037480183 -0.13665023 0.10671305 -0.005706296 0.058989327
0.04934495 0.017539201 0.13412032 -0.13873594 -0.04665288 -0.051975626 0.08948671 0.0030279492
-0.102883115 -0.0026803385 -0.0014189251 0.084922045 0.0066307317 0.0067318045 0.009013276 -0.110316485
0.0074923756 0.13697158 -0.10497578 0.025699368 0.018312294 0.08817881 -0.018303309 -0.16675372
0.11961273 -0.008641405 0.14864556 0.10179205 -0.044021517 -0.03814099 0.10781014 -0.033264313
-0.09907593 0.11369687 0.03957758 0.115531355 0.058775004 -0.015705902 -0.0049715675 -0.1044179
-0.026865104 -0.13824776 0.06312044 0.014149012 0.12368444 0.056041747 -0.07270372 0.12245174
00000000: 0f1c 983d 75e5 3fbd 5afd 873c 0ba6 a83d
00000010: 43f5 363d 871d 263d 94a6 bcbd 972b febd
00000020: 39a9 943b 96f6 a83c e401 d23d 06e8 a53b
00000030: f05a 073e d11e 81bc 4266 f13c d155 d0bd
00000040: d68f 083e 428d b73b 1637 f2bd 8c53 03bd
00000050: fcb2 ffbb 8cee 573d 46c7 043e 63a5 e9bc
00000060: 7fa8 1dbe a71a 9e3d 63ba 55bd f0e8 cc3d
00000070: 9635 113d f331 3a3d b72a 3fbe c1b0 823d
00000080: f2e3 6a3d 664b 9f3d f5bc 81bd 01c7 f03c
00000090: c69a fa3d 28f8 77bd 5746 47bd b6f5 d0bc
000000a0: 36dc 903b 5034 103b 9824 38be d5b4 a3bd
000000b0: db0c f1ba 9e62 0abe a121 a6bd 93f4 95bd
000000c0: b383 c63c 8398 e0bd f6a1 3cbb aec8 a63d
000000d0: 3ae1 a13d d619 e5bc 9b49 cfbc ed38 003c
000000e0: 939f 61bd 2be1 9f3d 8351 c5bd bbe9 443d
000000f0: c807 9c3c f384 aa3d a278 a33c 704d 0bbe
00000100: 7ed6 b5bd 40e9 ad3c fe6c 283c e0e1 efbc
00000110: 34ff ee3b 1532 51bc 4e4a a13c b81e 04bd
00000120: 3a29 0a3e 4427 853d fa78 7e3c f533 dd3d
00000130: 0cb5 e03d b331 12bd 7c2e 1e3d 4234 8ebb
00000140: 4ec8 953c 3a51 3dbc 2f16 0e3e c1f9 2a3d
00000150: 4cfa 20be 2a39 4ebd 8292 9cbc db03 9a3d
00000160: 63dc a6bd 771f 403d 77f3 de3a aecb e1bd
00000170: ef03 79bd 34f1 d7bc 0005 123d 0d6f 1cbc
00000180: 3118 c23d a7cb 1dbd fd9f 7d3d 3a0b ea3d
00000190: 4422 7a3d aa69 193d 8ebf 24be 0521 0c3e
000001a0: dae3 f7bc 3d6e f6bc 0f87 f0bc 91e8 61bc
000001b0: 7053 0c3d 1a44 fd3d d702 5a3d 0943 8f3d
000001c0: c3ec 0ebe d39c 6d3d 5a8e 13be eacc ca3d
000001d0: 348f ad3c a471 7fbd b2ca b73d 2166 2fbd
000001e0: d863 a5bd c9b4 02be 535f a23b ecd1 1dbd
000001f0: 3e57 5fbd 94a0 d5bc f9e7 79bd 2795 a83d
00000200: 2917 8ebd 51f5 653d d90e e0bd 143f 6c3c
00000210: 8d1e a63d 69e1 cc3d 9f2b cdb9 2cd4 d13c
00000220: 127e aa3b 70e7 423d 17d0 33bd 354e 0fbd
00000230: 7b20 52bd ab49 f63c e4c6 af3c 1a02 f7ba
00000240: 2a89 f83d 73a9 8dbb 3a70 d23c 432e e3bd
00000250: 5a8e 1c3c 7c47 d43c 3d23 063b e68a 933d
00000260: 36bc 103c b7e8 e4bc 6a9b 36bd 31e1 2a3d
00000270: 90de 9abd 14d8 b3bd d008 033d 6940 e8bd
00000280: 321f b4bc d33c 04bd f35c d33d 5fba de3c
00000290: 0f83 4a3d 322f 073e 03b0 b0bc 561d e23b
000002a0: 85fe e0bd e79c 993d 54ce 42bc 395c 4abe
000002b0: 8bb9 a33d ac52 a53d 70c4 c3bd 8628 4cbd
000002c0: 046c 003c fe72 bdbd aa2d 05be efe1 afbc
000002d0: e74b 013c c7af 3f3d 8a33 d7bc d751 44bc
000002e0: 11fc 86bd 3ec2 09bc f5ac e73d 60dc ff3d
000002f0: 189e c7bc 01dd af3c 7cc3 b9bd 3df7 8dbb
00000300: bee1 253c 0115 08be 0978 d2bc 7029 7dbd
00000310: efa7 103d ede9 4b3d 1e74 3d3d b98d f43d
00000320: 2650 8fbc a9f9 da3d ea10 eebd d284 19bd
00000330: 0aee 0bbe 5f8c da3d e1fb babb cb9e 713d
00000340: ee1d 4a3d 5fae 8f3c d656 093e cb10 0ebe
00000350: 1717 3fbd 65e4 54bd cf44 b73d 8f70 463b
00000360: 62b4 d2bd 9ea8 2fbb 3afb b9ba 9ceb ad3d
00000370: 9c46 d93b 7896 dc3b 6bac 133c 9ced e1bd
00000380: 9a82 f53b 4742 0c3e 8bfd d6bd 7b87 d23c
00000390: aa03 963c 1897 b43d d2f0 95bc 7dc1 2abe
000003a0: 85f7 f43d ae94 0dbc 8b36 183e 5a78 d03d
000003b0: e84f 34bd ba39 1cbd 90cb dc3d 2940 08bd
000003c0: 52e8 cabd e8d9 e83d 1a1c 223d b49b ec3d
000003d0: 0fbe 703d aaa9 80bc 88e8 a2bb 0dd9 d5bd
000003e0: 3514 dcbc d290 0dbe 4a45 813d 42d1 673c
000003f0: 454e fd3d 088c 653d b0e5 94bd fac7 fa3d

layers.0.bias f4 [128]
0.38671184 -0.38703832 0.3668638 0.3786287 -0.35452434 0.38331255 -0.388679 -0.37604982
-0.36993247 0.37613344 -0.36230895 0.39557105 -0.36383423 0.38102522 0.38439068 -0.34295815
0.37723076 0.37343574 -0.3661492 -0.35693115 0.37324393 0.35928854 -0.38882515 0.35938638
-0.38396075 -0.3831408 0.38580677 -0.3616682 -0.3725998 0.37263817 -0.35239485 0.36330917
-0.35400203 0.40275782 -0.36467642 -0.3681043 -0.38614628 -0.35753715 0.40326345 0.3442184
-0.37239644 0.35080516 -0.34771523 0.39525285 -0.38654217 -0.3805584 -0.37838155 0.3701828
-0.37249005 0.36913046 0.37668785 -0.35751948 0.38260838 -0.3844423 -0.36245593 -0.379328
0.38057733 -0.33814383 -0.36698392 0.3733671 -0.40353802 -0.39760113 -0.36316276 0.39430997
-0.37258628 0.3665659 -0.3739331 -0.37821186 0.36293483 -0.36450806 0.36738348 -0.39214963
-0.37834567 0.37469673 0.37183297 0.39166874 -0.37407154 0.36835545 -0.37064928 0.36684412
-0.37813893 0.38103014 -0.37892127 0.38857147 0.339969 0.3775279 -0.36158973 0.38036674
-0.36785242 0.4018634 0.37215823 0.3707486 0.3663389 -0.36097768 0.38185427 0.3637502
-0.3768495 0.38453788 0.37252593 0.36393857 0.39677465 0.3886115 0.38408574 -0.35970464
-0.3664359 -0.34935167 -0.39874226 0.3550326 -0.3818911 0.37290928 -0.39049584 -0.37214142
-0.3871985 0.38070297 -0.36059773 0.4036884 -0.36332425 -0.3815849 -0.3528777 -0.3700336
-0.38178897 0.3813294 -0.39331242 0.37015498 0.37782675 -0.34872213 -0.35934827 0.38111007
00000000: 18ff c53e e329 c6be 92d5 bb3e 9fdb c13e
00000010: 3784 b5be 8b41 c43e ef00 c7be 9a89 c0be
00000020: ca67 bdbe 9094 c03e 8f80 b9be 4a88 ca3e
00000030: 7b48 babe bd15 c33e dbce c43e 3698 afbe
00000040: 6424 c13e f832 bf3e e877 bbbe aebf b6be
00000050: d419 bf3e abf4 b73e 1714 c7be 7e01 b83e
00000060: 8196 c4be 082b c4be 7788 c53e 932c b9be
00000070: 67c5 bebe 6eca be3e 196d b4be a903 ba3e
00000080: c13f b5be 4636 ce3e deb6 babe 2b78 bcbe
00000090: f7b4 c5be 1c0f b7be 8c78 ce3e 653d b03e
000000a0: bfaa bebe bc9c b33e bb07 b2be 955e ca3e
000000b0: dbe8 c5be 8dd8 c2be 3abb c1be 9a88 bd3e
000000c0: 04b7 bebe abfe bc3e 3bdd c03e cb0c b7be
000000d0: 3fe5 c33e 9fd5 c4be d393 b9be 4837 c2be
000000e0: 08db c23e 3021 adbe 51e5 bbbe f929 bf3e
000000f0: 899c cebe 6092 cbbe 78f0 b9be ffe2 c93e
00000100: a1c3 bebe 87ae bb3e 2974 bfbe fca4 c1be
00000110: 98d2 b93e cda0 babe b019 bc3e d6c7 c8be
00000120: 86b6 c1be 40d8 bf3e e460 be3e ce88 c83e
00000130: 4e86 bfbe 1699 bc3e bec5 bdbe fed2 bb3e
00000140: 6d9b c1be 6216 c33e f801 c2be d7f2 c63e
00000150: 6b10 ae3e 564b c13e 4a22 b9be 6ebf c23e
00000160: 2757 bcbe 0ac1 cd3e 868b be3e c3d2 bd3e
00000170: c690 bb3e 11d2 b8be 6782 c33e 773d ba3e
00000180: 6bf2 c0be 26e2 c43e b8bb be3e 2856 ba3e
00000190: 0c26 cb3e 16f8 c63e e3a6 c43e 352b b8be
000001a0: 7c9d bbbe 39de b2be f227 ccbe d5c6 b53e
000001b0: 3b87 c3be f7ed be3e 12ef c7be 5289 bebe
000001c0: e23e c6be 80eb c23e 44a0 b8be 3fb0 ce3e
000001d0: a305 babe 195f c3be 63ac b4be 0b75 bdbe
000001e0: d879 c3be 9b3d c33e 3f60 c9be f484 bd3e
000001f0: 8272 c13e b58b b2be 7ffc b7be dc20 c33e
