experiments/ppo_pendulum_first_try_20250829_070018/checkpoints/auto_step_331920.pt (torch, 146796 bytes, 44 tensors)

shared_layers.0.weight f4 [64, 3]
0	0xbe46e45c	-0.1942305
1	0x3db79497	0.08963888
2	0xbd5f35f8	-0.054494828
3	0xbdbaeccb	-0.09127196
4	0xbe9b0e4f	-0.30284354
5	0xbde3035c	-0.11084625
6	0xb945a1ee	-0.00018847708
7	0xbe06d871	-0.13168503
8	0xbd1d4c91	-0.038403098
9	0xbe0c3289	-0.13691153
10	0x3e403b88	0.1877271
11	0xbe3f1f5c	-0.18664306
12	0x3e4c75fb	0.19966881
13	0xbe9141bf	-0.28370473
14	0xbe86d1d9	-0.26331976
15	0x3e83c38a	0.25735122
16	0xbdec609d	-0.11541865
17	0xbc8483cd	-0.016176129
18	0xbd9f965b	-0.0779235
19	0x3e210c65	0.15727384
20	0xbdb38c2f	-0.08766972
21	0x3cae275d	0.021259004
22	0x3e077ec1	0.13231947
23	0x3cdf57d8	0.027263567
24	0x3c3e5c92	0.01161875
25	0x3e120e3b	0.14263241
26	0x3dc0b9c2	0.094104305
27	0xbd40d723	-0.04708017
28	0xbe936c28	-0.28793454
29	0xbcd26b9b	-0.025686076
30	0xbceb5efb	-0.028731814
31	0x3d09d412	0.03364951
32	0xbc9a59d9	-0.01884167
33	0x3e500608	0.203148
34	0x3e123f46	0.1428195
35	0x3dd98253	0.106205605
36	0x3c8406af	0.016116468
37	0x3cab373d	0.020900363
38	0xbe91692b	-0.2840055
39	0x3dc3a574	0.09553042
40	0x3de2d867	0.11076432
41	0xbc0c2d96	-0.00855579
42	0x3de75213	0.11294951
43	0xbe0365ae	-0.12831756
44	0x3db8aee4	0.09017733
45	0x3e4fbb3b	0.20286267
46	0xbc3e6fc6	-0.011623329
47	0xbe1983d5	-0.14991696
48	0x3ce8dc77	0.028425438
49	0xbe3bb169	-0.18329395
50	0x3c8d22d9	0.01722853
51	0x3d8bdb05	0.06828884
52	0xbe3269df	-0.17423199
53	0xbe277462	-0.1635299
54	0xbdf96701	-0.121778496
55	0xbdd45917	-0.10368555
56	0x3dc58ea2	0.09646346
57	0x3c821472	0.01587889
58	0xbca446e6	-0.020053338
59	0x3b1f03c5	0.0024263721
60	0x3e983617	0.29728767
61	0x3e4b4c2d	0.19853278
62	0xbdddf70b	-0.10838135
63	0xbe92b3c6	-0.2865278
64	0x3e899d91	0.26878026
65	0x3e5dc535	0.2165726
66	0x3e005d6f	0.12535642
67	0xbd4f2202	-0.05056954
68	0x3df2a053	0.11846986
69	0xbc1f64d2	-0.009728627
70	0x3cb4deb0	0.022078842
71	0x3d3ff8f6	0.046868287
72	0xbe4b7ae8	-0.19871104
73	0x3e39f68f	0.18160461
74	0x3d707a2a	0.058710255
75	0x3deca5aa	0.115550354
76	0x3e8db39e	0.276761
77	0xbdc24f98	-0.094878376
78	0xba42eac0	-0.0007435493
79	0x3de715b3	0.11283436
80	0xbe407770	-0.18795562
81	0xbdbc57d7	-0.091964416
82	0xbe6826bb	-0.22671025
83	0x3d4e4aa1	0.05036414
84	0x3d7d377c	0.061820492
85	0x3c062c36	0.008189252
86	0x3d013dfd	0.031553257
87	0x3e6f31a2	0.23358777
88	0xbd81e2d5	-0.06342093
89	0x3d83bb89	0.06432254
90	0xbd04792c	-0.03234212
91	0x3e9a3d5d	0.3012494
92	0xbd14521c	-0.036211118
93	0xbe0c2d92	-0.13689259
94	0x3c54384c	0.012952875
95	0x3c87025e	0.016480621
96	0x3d753c7b	0.05987213
97	0xbcb7fce3	-0.022459453
98	0x3e9791f1	0.29603532
99	0x3e03b4a6	0.1286188
100	0x3e6a803c	0.2290048
101	0x3b85c6cb	0.004082536
102	0xbdaaee04	-0.08346179
103	0xbcf0145d	-0.029306585
104	0x3e114e01	0.14189912
105	0x3d86a84e	0.0657507
106	0xbcbf889e	-0.023380574
107	0xbc366350	-0.011132076
108	0x3d0fdb6a	0.03512136
109	0xbe563f25	-0.20922525
110	0xbe4150b1	-0.18878438
111	0xbd133fd9	-0.03594956
112	0xbe2e0e13	-0.16997556
113	0x3e39dd17	0.18150745
114	0xbca9404f	-0.020660548
115	0x3e62b7d7	0.22140442
116	0x3e025b16	0.12730059
117	0x3cace94f	0.021107344
118	0x3cda72b7	0.026666028
119	0x3ee95c23	0.45578107
120	0xbe110b96	-0.14164576
121	0x3e431924	0.19052559
122	0xbd84fd14	-0.06493583
123	0xbc9d4fb1	-0.019203039
124	0x3d8b87e6	0.0681303
125	0xbdce2549	-0.10065705
126	0xbda14269	-0.07873995
127	0xbce60dc0	-0.028082728
128	0xbe9a3dde	-0.30125326
129	0x3e074a66	0.13211975
130	0xbe3f1601	-0.18660738
131	0xbdb5fc39	-0.08885998
132	0x3e5fedb8	0.21868026
133	0xbd648888	-0.05579427
134	0x3cc44232	0.023957346
135	0xbe82cfa8	-0.25549054
136	0xbc3ddd34	-0.0115883835
137	0xbe98ab69	-0.29818276
138	0x3e8f541d	0.2799386
139	0xbe1de211	-0.15418269
140	0xbdb9252d	-0.09040294
141	0xbe382356	-0.1798223
142	0xbd5dc04a	-0.05413846
143	0xbd7648fc	-0.060128197
144	0x3cc81e67	0.02442856
145	0x3dd2d077	0.10293668
146	0xbd66e089	-0.056366477
147	0x3eaa1e0e	0.33226055
148	0x3e2f43c6	0.17115697
149	0x3e1bee34	0.15227586
150	0xbe43e236	-0.19129261
151	0xbeea2df2	-0.45738178
152	0xbd94a10e	-0.07257281
153	0xbe2fffd1	-0.1718743
154	0x3e7c6569	0.2464806
155	0xbe1fe8c4	-0.15616137
156	0xbd8b9aa8	-0.06816608
157	0xbe84adbe	-0.25913805
158	0x3cad8c89	0.021185176
159	0x3c662544	0.014046971
160	0x3cc474e9	0.023981528
161	0x3e0031d1	0.12519003
162	0xbcfae5bf	-0.03062713
163	0x3d161f32	0.036650844
164	0x3d2d466e	0.042303495
165	0x3d86fc4c	0.065910906
166	0x3e66f64d	0.22554894
167	0x3d9710d1	0.07376254
168	0xbe7c9110	-0.24664712
169	0xbe6f0c88	-0.23344624
170	0x3e30e1bf	0.17273615
171	0x3e07ec7b	0.13273804
172	0x3e5e7205	0.21723182
173	0xbb48463e	-0.0030559446
174	0x3da7607c	0.081727
175	0xbd96a163	-0.07355001
176	0xbd3520aa	-0.044220604
177	0x3daace59	0.08340139
178	0x3d9000a6	0.07031374
179	0xbd60552e	-0.054768734
180	0x3d7685d0	0.060186207
181	0xbda7d399	-0.08194656
182	0x3e99f192	0.30067116
183	0xbe22d285	-0.1590062
184	0x3dc7a7f4	0.097488314
185	0xbeac47dc	-0.33648574
186	0xbd9631ac	-0.07333693
187	0xbdb53643	-0.0884824
188	0x3e80d1f6	0.25160187
189	0xbe7988e3	-0.24368624
190	0x3daad240	0.08340883
191	0x3de7baa2	0.11314894

shared_layers.0.bias f4 [64]
0	0x3e91b1d9	0.28456
1	0x3e11de2b	0.14244907
2	0xbeab6783	-0.3347741
3	0x3e2af3ee	0.16694614
4	0xbd85bb84	-0.065299064
5	0xbe83999c	-0.25703132
6	0x3e4a153e	0.19734666
7	0xbe864e0c	-0.2623142
8	0xbddc4256	-0.1075484
9	0x3cad4517	0.021151109
10	0x3e9432ee	0.28945106
11	0xbe3d2452	-0.18470886
12	0xbdbc8042	-0.09204151
13	0xbe9229a2	-0.28547388
14	0xbe90126e	-0.2813906
15	0xbe727da0	-0.23680735
16	0x3e2a27ba	0.16616717
17	0xbd842c02	-0.06453706
18	0x3e477a5c	0.1948027
19	0x3eb8f16f	0.361217
20	0xbe620108	-0.22070706
21	0x3da227b9	0.07917733
22	0xbe45b296	-0.19306406
23	0x3e862ceb	0.26206145
24	0x3e6c9112	0.23102215
25	0xbe6db175	-0.23212226
26	0xbd31f4a0	-0.043446183
27	0x3e8faa8b	0.280598
28	0xbe833bf8	-0.2563169
29	0xbe76887a	-0.24075499
30	0x3e87189c	0.26385963
31	0x3e73ef0b	0.23821656
32	0xba4ae5f1	-0.00077399524
33	0xbe87dbfc	-0.26535022
34	0x3e4401ed	0.1914136
35	0xbe8bdb3d	-0.27315703
36	0x3b847702	0.004042507
37	0xbe0ded05	-0.13859947
38	0xbc9377a9	-0.018001394
39	0x3c9bbf99	0.01901226
40	0x3e845c8d	0.2585186
41	0x3e3bb6fa	0.18331519
42	0x3cd7a780	0.026324987
43	0xbe834e25	-0.25645557
44	0xbe882e6e	-0.26597923
45	0x3db5404c	0.08850154
46	0xbe7a72cf	-0.24457859
47	0x3e71773f	0.23580645
48	0x3ea31054	0.31848395
49	0xbe1609c7	-0.14652167
50	0x3e0290e6	0.12750587
51	0x3e2fab41	0.17155172
52	0x3e94d92a	0.29071933
53	0x3e822a79	0.2542303
54	0x3e99d049	0.3004172
55	0x3e2ab73b	0.1667146
56	0x3e5c3a9f	0.21506737
57	0xbe8acbb6	-0.27108544
58	0x3da0a5f5	0.07844154
59	0xbe818201	-0.25294498
60	0x3d724599	0.059148405
61	0x3d440de9	0.04786483
62	0x3e1218a7	0.14267217
63	0x3e63036f	0.22169279

shared_layers.2.weight f4 [64, 64]
0	0x3e802ea6	0.2503559
1	0xbd907e91	-0.070553906
2	0x3c726aca	0.014795968
3	0x3eb30261	0.34962752
4	0x3d87b1eb	0.06625732
5	0x3cb6d061	0.02231616
6	0x3d287ae1	0.04113281
7	0xbe1466d0	-0.14492345
8	0xbd1df53f	-0.038563963
9	0xbd9ccaee	-0.07655893
10	0xbe0c4fe6	-0.13702354
11	0xbe3f92ec	-0.1870839
12	0xbd17d088	-0.037064105
13	0x3ec6fc8a	0.38864547
14	0xbcea2f62	-0.028587047
15	0xbc4bdaa5	-0.012442266
16	0xbed2da8f	-0.41182372
17	0x3b63ee72	0.0034779576
18	0xbe816014	-0.25268614
19	0x3da6ddc2	0.08147766
20	0x3e849d4c	0.25901258
21	0xbca00619	-0.019534158
22	0x3e95637c	0.29177463
23	0x3e4e7ff4	0.20165998
24	0x3d9a7604	0.07542041
25	0xbdf3b2ac	-0.11899313
26	0x3db1e896	0.0868694
27	0xbc3adc67	-0.011405087
28	0x3e310cd1	0.17290045
29	0xbc1e31b6	-0.009655407
30	0xbbd22230	-0.006412767
31	0xbd3c9987	-0.046044853
32	0xbe1b0966	-0.15140304
33	0x3d27cb0d	0.04096513
34	0xbe743730	-0.23849177
35	0xbe114ea2	-0.14190152
36	0x3dacaa29	0.08430893
37	0x3e1b1c0d	0.1514742
38	0xbd16a52a	-0.036778606
39	0x3d8765b6	0.06611197
40	0x3ddaebc7	0.10689502
41	0x3eb1231e	0.34597105
42	0xbd2de1fa	-0.042451836
43	0x3d8b9f05	0.0681744
44	0xbea918e1	-0.33026794
45	0x3dd4bfd4	0.10388151
46	0x3ddd89ed	0.10817323
47	0x3e7af2d7	0.24506699
48	0xbd1323f9	-0.035922978
49	0x3e68f2f0	0.22748923
50	0x3e391234	0.1807335
51	0x3e82c83d	0.25543395
52	0xbcfd8cb5	-0.030950883
53	0xbe0c94c0	-0.13728619
54	0x3e731e61	0.23742057
55	0xbaed5ad8	-0.0018108739
56	0x3eb78921	0.3584681
57	0x3e912721	0.28350165
58	0x3ddf0890	0.10890305
59	0x3e2e21bd	0.17005058
60	0xbd56c43c	-0.052433237
61	0x3e24037f	0.16016959
62	0x3d8bc386	0.068244025
63	0xbec3f931	-0.38276055
64	0x3e0a0ade	0.13480708
65	0x3ec14832	0.37750393
66	0xbe84918b	-0.2589229
67	0x3eba7226	0.36415213
68	0x3e0932b9	0.13398255
69	0xbe704ae6	-0.23466071
70	0x3bc67aaa	0.006057103
71	0xbe85e464	-0.2615081
72	0xbe97a797	-0.29620048
73	0xbd86cf32	-0.06582488
74	0x3e8fa2f9	0.28054026
75	0xbe996bf7	-0.29965183
76	0x3c1b7d60	0.009490341
77	0xbeae7c08	-0.34079003
78	0xbe0eb050	-0.13934445
79	0xbe8fc5bd	-0.2808055
80	0xbe7c0613	-0.24611692
81	0xbeac8dda	-0.33701974
82	0x3e2f44f6	0.1711615
83	0x3d9a7f3b	0.075437985
84	0x3d464c08	0.048412353
85	0x3db02e6e	0.08602606
86	0xbd6b531f	-0.057452317
87	0x3e0ac6d2	0.13552406
88	0xbe89f638	-0.26945662
89	0xbde2a83c	-0.110672444
90	0xbbe8bcf5	-0.0071026036
91	0x3e184ae9	0.14872326
92	0xbe0ee41e	-0.13954207
93	0xbdc8f92c	-0.09813151
94	0xbe02dc8c	-0.12779444
95	0x3e0b3bb2	0.1359699
96	0x3d59289e	0.05301725
97	0x3e7ca155	0.24670918
98	0xbceb7575	-0.028742531
99	0x3d40fa1c	0.047113523
100	0x3e267753	0.16256456
101	0xbe179c86	-0.14805803
102	0x3e4a5e78	0.197626
103	0x3ddfb1d3	0.10922589
104	0x3e0edf1f	0.13952301
105	0xbe4ecabf	-0.20194529
106	0xbe8edc39	-0.27902392
107	0x3e30041d	0.17189069
108	0xbe38b392	-0.1803725
109	0xbdf3783d	-0.11888168
110	0xbe9af3e9	-0.30264214
111	0x3e39229b	0.18079607
112	0x3ede04eb	0.43363127
113	0xbeaa779f	-0.3329439
114	0x3d90ee5f	0.07076716
115	0xbe1c01e5	-0.15235098
116	0x3effcc86	0.49960726
117	0x3d908751	0.070570596
118	0x3dfd4bd0	0.12367976
119	0x3e07e60f	0.13271354
120	0x3e02bfe0	0.12768507
121	0xbe0eec0f	-0.13957237
122	0x3e81bd35	0.25339666
123	0xbe24fe8d	-0.16112728
124	0x3a20229e	0.0006108674
125	0xbdb53651	-0.08848251
126	0xbdd29533	-0.10282364
127	0xbb9e8239	-0.004837301
128	0xbee2d15c	-0.44300354
129	0xbe0d8272	-0.13819292
130	0x3db51ae9	0.08843023
131	0xbe7585f9	-0.23976888
132	0xbdd80038	-0.10546917
133	0x3e2a7445	0.16645916
134	0xbc5d2b64	-0.013499115
135	0x3d104079	0.035217736
136	0x3d6a6b3c	0.057231173
137	0x3dec5a7e	0.115406975
138	0xbe690053	-0.2275403
139	0x3e04fbab	0.12986629
140	0xbdb03cfa	-0.0860538
141	0x3d804e78	0.06264967
142	0x3e85bd54	0.26121008
143	0xbd97172b	-0.07377466
144	0xbd63421f	-0.05548298
145	0x3e1b3a6c	0.15159005
146	0xbdc51c0c	-0.0962449
147	0x3c4bdba4	0.012442503
148	0x3f0d46f5	0.55186397
149	0x3cd56994	0.02605132
150	0x3d9c389d	0.076279856
151	0xbdc6465a	-0.09681387
152	0x3c1c081b	0.009523417
153	0xbda593f3	-0.0808486
154	0xbe254663	-0.16140132
155	0x3e13a38c	0.14417857
156	0x3e826cc2	0.254736
157	0x3e201c1a	0.1563572
158	0xbee009d0	-0.43757486
159	0xbeda5545	-0.4264318
160	0xbe553c99	-0.20823897
161	0x3e1a3234	0.15058213
162	0xbef50d3e	-0.47861665
163	0x3ec73b07	0.38912222
164	0xbd58c999	-0.052926634
165	0x3d548941	0.051888708
166	0x38142f0d	3.532977e-05
167	0xbca31eed	-0.019912207
168	0xbdfd5d58	-0.123713195
169	0xbebd0ff4	-0.36926234
170	0x3cfd817d	0.030945534
171	0x3de5aa49	0.1121412
172	0x3e5af1b6	0.21381268
173	0xbdb8e2f3	-0.09027662
174	0xbb689e0d	-0.0035494596
175	0xbe4083a8	-0.18800223
176	0xbd8524c2	-0.065011516
177	0x3ecf6b6a	0.40511638
178	0x3e319fa4	0.17346054
179	0x3e6370b1	0.22210957
180	0xbe33f625	-0.17574365
181	0xbc876b4d	-0.016530657
182	0xbee9583a	-0.45575124
183	0x3e2d453f	0.16920947
184	0x3d87ab0c	0.066244215
185	0xbd87206f	-0.06597983
186	0xbbaa518c	-0.0051977094
187	0x3e12822b	0.14307468
188	0xbe7bc33a	-0.24586192
189	0x3e778f19	0.24175681
190	0xbe3f3f44	-0.18676478
191	0x3d22cc1d	0.03974544
192	0x3e54aaf3	0.20768337
193	0x3e460d81	0.19341089
194	0xbe8544b6	-0.26028985
195	0x3e25d360	0.16193914
196	0xbe6c7fed	-0.23095675
197	0x3dc033ae	0.09384857
198	0x3e2b36da	0.16720143
199	0xbeb39493	-0.3507429
200	0xbe0eac67	-0.13932954
201	0x3e519938	0.20468605
202	0x3eaacd4b	0.3335975
203	0x3d93d10a	0.072176054
204	0xbe2056a4	-0.15658051
205	0xbdbfa823	-0.093582414
206	0xbedb2c30	-0.4280715
207	0x3c0f8483	0.008759621
208	0xbe54dc02	-0.20787051
209	0x3e09d303	0.13459401
210	0x3de8bc15	0.11363999
211	0xbe2506da	-0.16115895
212	0xbe8ff567	-0.28116915
213	0xbd02f520	-0.03197205
214	0x3e75b80b	0.23995988
215	0x3e816bd6	0.25277585
216	0x3e755019	0.23956336
217	0x3e2d6ecb	0.16936795
218	0xbe65fe39	-0.2246026
219	0x3e7e0fa4	0.24810654
220	0xbdd93100	-0.10605049
221	0x3d8b27bb	0.06794687
222	0x3d8f5d08	0.07000166
223	0x3ec1b49b	0.37833104
224	0x3e8877e4	0.2665397
225	0xbe1a07ff	-0.15042113
226	0x3e4ae714	0.19814712
227	0xbe71c0de	-0.23608729
228	0x3cffaa9f	0.031209288
229	0xbde82ccf	-0.113366716
230	0x3c8e2b3a	0.017354596
231	0xbecf9e14	-0.40550292
232	0x3e4d65b1	0.20058323
233	0x3e8be919	0.27326277
234	0xbe884841	-0.26617625
235	0xbd942fdd	-0.07235692
236	0xbdb138c7	-0.086534075
237	0xbe0d2597	-0.1378387
238	0xbd984e51	-0.07436813
239	0xbc724b8c	-0.01478852
240	0x3de73bda	0.11290713
241	0x3e27ebb1	0.16398503
242	0x3e50d36e	0.20393154
243	0x3df4b5ff	0.119487755
244	0x3d7a9f09	0.061186824
245	0x3dc78dc8	0.097438395
246	0xbc865106	-0.016396057
247	0x3e7b708b	0.2455465
248	0xbd5d6269	-0.05404893
249	0xbe93d9d1	-0.28877118
250	0x3ed48469	0.4150727
251	0xbda370a5	-0.079804696
252	0xbe0a1257	-0.13483559
253	0x3e792353	0.24329881
254	0xbd441e2a	-0.04788033
255	0x3eb2cf7b	0.3492392

shared_layers.2.bias f4 [64]
0	0x3b7d9d3a	0.003869845
1	0x3e664277	0.22486292
2	0xbe2c721c	-0.16840404
3	0x3e3baea0	0.18328333
4	0x3d3ff438	0.046863765
5	0x3e0650a9	0.13116707
6	0xbe4b07b6	-0.1982716
7	0xbe0ebbcf	-0.13938831
8	0xbdf7da04	-0.1210213
9	0xbe174d98	-0.14775693
10	0xbe3695f2	-0.17830637
11	0xbe406b5d	-0.18790956
12	0xbe4fdba8	-0.20298636
13	0x3e35178a	0.1768476
14	0xbe4d0f2a	-0.20025316
15	0xbc9fd565	-0.019510934
16	0x3dba4828	0.09095794
17	0xbe00a57c	-0.12563127
18	0xbe358c46	-0.17729291
19	0x3d907c84	0.070549995
20	0xbe478fcc	-0.19488448
21	0x3e2774b3	0.16353111
22	0x3e00a918	0.12564504
23	0x3d1a1176	0.03761431
24	0xbde6ff95	-0.11279217
25	0x3e25a75a	0.16177121
26	0x3d7b04be	0.06128382
27	0xbe39d7a1	-0.18148662
28	0xbdf3b49b	-0.11899682
29	0xbdd1edf9	-0.10250468
30	0x3e03f7d4	0.12887508
31	0x3e394e58	0.18096292
32	0xbdec1946	-0.11528258
33	0xbe14ffa0	-0.14550638
34	0xbdaa150f	-0.08304798
35	0x3e374a37	0.17899404
36	0x3e4e7194	0.20160514
37	0x3dc541c1	0.09631682
38	0x3e20a2af	0.15687059
39	0xbba95e04	-0.0051686782
40	0x3e434ca9	0.19072212
41	0x3de9e3d2	0.114204064
42	0x3e16e728	0.14736617
43	0xbe0c4c7f	-0.13701056
44	0xbdd4b38a	-0.10385807
45	0x3e3068f8	0.17227542
46	0x3e148d77	0.1450709
47	0xbe0dfae4	-0.13865238
48	0xbccf8e52	-0.025336418
49	0xbe02d4ef	-0.1277654
50	0xbe4d9af2	-0.20078638
51	0x3dd44f63	0.10366704
52	0x3def391a	0.11680813
53	0x3e47f4f5	0.19527037
54	0x3e3478a5	0.17624147
55	0xbe125894	-0.14291602
56	0xbe487400	-0.195755
57	0x3db429ab	0.0879701
58	0xbdd19e03	-0.102352165
59	0xbe03bb49	-0.12864412
60	0xbe2b8f6c	-0.1675393
61	0x3e3a9ed7	0.18224655
62	0xbd8a8839	-0.06764264
63	0x3e35c5bd	0.17751212

output_layer.weight f4 [2, 64]
0	0x3c862c95	0.01637868
1	0xbb7a4b91	-0.0038192014
2	0xbc69ce7f	-0.014270424
3	0xbadb0eb4	-0.0016712756
4	0xbc767f0d	-0.01504494
5	0x3c612dd6	0.013743838
6	0xbb87d396	-0.004145096
7	0xbc0ca1b3	-0.008583474
8	0x3b8d6027	0.004314441
9	0xbc61285b	-0.013742532
10	0x3b72dee5	0.0037059125
11	0xba3019f7	-0.0006717736
12	0xbc0d56e4	-0.008626673
13	0x3bce4c2c	0.0062957015
14	0x39b3a9fe	0.00034268195
15	0x3c849954	0.016186394
16	0xbc296829	-0.010339775
17	0xbc90d0e0	-0.017677724
18	0xbc4847f8	-0.01222419
19	0x3c924825	0.017856667
20	0xbc5ce9f1	-0.01348351
21	0xbbf3a905	-0.00743592
22	0xbbb1fea7	-0.0054319683
23	0x3ca37a35	0.019955734
24	0xbc1df532	-0.009640979
25	0x3c852e40	0.016257405
26	0xbc4d66b9	-0.012536698
27	0xbc5f03a9	-0.0136117125
28	0x3bee288f	0.0072680186
29	0x3c281525	0.0102589475
30	0xbc4e6ded	-0.012599451
31	0xbb7e1119	-0.0038767515
32	0xbc94b8b0	-0.018154472
33	0x3c3ff71f	0.011716633
34	0x3c3d6e0d	0.011561883
35	0xb8ae959b	-8.324833e-05
36	0x3bd89871	0.0066099693
37	0xbc483bea	-0.012221316
38	0x3c4fd042	0.01268393
39	0xbc8bb9d3	-0.017056381
40	0x3c201a58	0.009771906
41	0xbc2ca1c1	-0.010536612
42	0x3c9beb94	0.01903323
43	0xbc6b4cc9	-0.014361569
44	0x3b6766be	0.0035309042
45	0x3c67912d	0.014133734
46	0x3c479bf3	0.012183177
47	0xbc34f6f6	-0.011045208
48	0x3c5044c6	0.012711709
49	0x3c155106	0.009113556
50	0xbba8fc90	-0.005157061
51	0x3c982d26	0.018576216
52	0x3bcefdc3	0.006316872
53	0x3b09c0b7	0.0021019408
54	0x3c7e582f	0.015523954
55	0x3c483d1c	0.012221601
56	0xbb81ea49	-0.0039646965
57	0x3c60c1f4	0.013718117
58	0x3c74fc5a	0.014952743
59	0xbc5c6f65	-0.013454293
60	0xbc764d3b	-0.015033062
61	0xbaf51f4d	-0.0018701345
62	0x3c69de4c	0.014274191
63	0x3c44a503	0.0120022325
64	0x3bb6ca11	0.0055782874
65	0x3dd899d1	0.10576213
66	0xbddc1e92	-0.10748018
67	0x3de9a708	0.11408812
68	0x3cf3d2a3	0.029763525
69	0x3dc4cf3a	0.09609838
70	0xbdd9132d	-0.105993606
71	0xbda16ef3	-0.0788249
72	0xbd95b32e	-0.073095664
73	0xbdfab52f	-0.12241589
74	0xbde6681f	-0.11250328
75	0xbdc8bcb3	-0.098016165
76	0xbdf0bbdc	-0.11754581
77	0x3df26f36	0.11837618
78	0xbe055191	-0.13019396
79	0xbbff0b94	-0.0077833626
80	0x3d3ce5ce	0.046117596
81	0xbdbdc44e	-0.09265958
82	0xbdd7a933	-0.10530319
83	0x3d6394c1	0.055561785
84	0xbe02fea2	-0.12792447
85	0x3dc38d15	0.09548394
86	0x3dc5c644	0.09656957
87	0x3ce03a66	0.027371597
88	0xbd9c6c0b	-0.07637795
89	0x3e0e740a	0.13911453
90	0x3d5c1de8	0.05373946
91	0xbe0c0f35	-0.13677676
92	0xbd944b77	-0.07240956
93	0xbd833896	-0.06407277
94	0x3dbc9701	0.09208489
95	0x3deee7b2	0.11665286
96	0xbddcd4bc	-0.10782763
97	0xbdb0f08e	-0.08639632
98	0xbda382d5	-0.079839386
99	0x3df8b52a	0.12143929
100	0x3e118264	0.14209896
101	0x3d771bf5	0.060329396
102	0x3de43e67	0.11144715
103	0xbbe6fc32	-0.007049107
104	0x3df227ba	0.118239835
105	0x3d62beda	0.05535779
106	0x3dea0dfa	0.11428447
107	0xbdbf09ef	-0.093280666
108	0xbd549c59	-0.051906917
109	0x3dd2c089	0.102906294
110	0x3dd4929f	0.10379528
111	0xbdb3a30b	-0.08771332
112	0xbc819945	-0.015820155
113	0xbdb2c808	-0.08729559
114	0xbde3d853	-0.11125245
115	0x3db9da6e	0.09074865
116	0x3d9eaa4c	0.07747325
117	0x3dd24ef5	0.10268966
118	0x3e02892d	0.12747641
119	0xbdc07c54	-0.09398714
120	0xbdb9d7f7	-0.09074395
121	0x3daa44d6	0.08313911
122	0xbddffc82	-0.10936834
123	0xbdc69372	-0.09696092
124	0xbe162584	-0.14662749
125	0x3dcb0bc9	0.09914357
126	0xbd624e72	-0.055250593
127	0x3dccc490	0.09998429

output_layer.bias f4 [2]
0	0x3c22a39d	0.009926704
1	0xbfb271da	-1.3940995

layers.0.weight f4 [64, 3]
0	0x3c36763e	0.01113659
1	0x3d335642	0.043783434
2	0xbb9f9da7	-0.0048710885
3	0x3e2d259d	0.1690888
4	0xbe0d077c	-0.13772386
5	0xbc8be5a9	-0.017077284
6	0x3d0d2ae9	0.03446475
7	0xbd75e41c	-0.060031995
8	0x3d12df15	0.03585728
9	0x3dca73b0	0.09885347
10	0xbd0d8435	-0.03454991
11	0xbb5e5711	-0.0033926407
12	0x3ce494c6	0.027902972
13	0x3bb6ff40	0.0055846274
14	0xbda9c748	-0.08289963
15	0x3dff2b2f	0.124594085
16	0xbdbd89d8	-0.09254807
17	0xbc9b72d1	-0.018975647
18	0x3e4af04b	0.19818227
19	0xbdf8d366	-0.12149696
20	0x3ce31a11	0.02772239
21	0xbdf00352	-0.11719383
22	0x3e4ccfe8	0.20001185
23	0xbce98290	-0.02850464
24	0xbe2cd913	-0.16879682
25	0x3d4b4f74	0.04963632
26	0x3c2df692	0.010617869
27	0x3dbd19d0	0.09233439
28	0x3d92104c	0.07132015
29	0x3dcd8412	0.10034956
30	0xbe5bc9d0	-0.21463704
31	0xbbe0ca20	-0.0068600327
32	0x3cdedb0c	0.027204059
33	0xbe0fdcf9	-0.14049138
34	0xbdbeb48c	-0.0931178
35	0x3d89635a	0.06708403
36	0xbcd83c59	-0.026395964
37	0xbdf1d8b2	-0.118089095
38	0x3cafb1e1	0.021447124
39	0xbcfe27ef	-0.031024901
40	0x3ce40459	0.027834104
41	0x3db6a6db	0.08918544
42	0x3e45208c	0.19250697
43	0x3de2f375	0.11081592
44	0xbde56afa	-0.11202045
45	0x3d2bb82e	0.041923694
46	0x3c391e56	0.011298737
47	0x3b9934cb	0.004675483
48	0x3df90799	0.12159652
49	0x3d6a07b2	0.057136245
50	0x3d2caf23	0.04215921
51	0x3db4154e	0.08793126
52	0x3bcd21ad	0.006260118
53	0x3d3b31b0	0.045701683
54	0xbe31bf23	-0.17358069
55	0xbd8551e1	-0.06509758
56	0xbc99cf46	-0.018775593
57	0x3d9cddc7	0.07659488
58	0xbe1caa7b	-0.15299408
59	0xbba4a522	-0.005024568
60	0x3cb62461	0.022234144
61	0xbd95a908	-0.07307631
62	0x3c4209d6	0.011843165
63	0x3db6f2b5	0.089330114
64	0xbc889738	-0.01667367
65	0xbc348272	-0.011017429
66	0x3d92f22d	0.071750976
67	0xbd2f69e9	-0.042825613
68	0xbc7b5db3	-0.015342164
69	0x3e794ef0	0.24346519
70	0xbe1deb50	-0.15421796
71	0x3c395803	0.011312488
72	0x3e754591	0.23952319
73	0xbdbc56cc	-0.09196243
74	0xb9d87306	-0.0004128443
75	0x3e481050	0.19537473
76	0x3e1f9460	0.15583944
77	0x3d73f16d	0.059556413
78	0xbd878a41	-0.06618167
79	0x3e0028c5	0.12515552
80	0xbcfc9ac1	-0.030835511
81	0x3e0dd494	0.13850623
82	0xbdec5f84	-0.11541656
83	0x3cfeab78	0.031087622
84	0xbe501006	-0.20318612
85	0x3e1bbba6	0.15208301
86	0xbd673474	-0.056446508
87	0xbe295164	-0.16534954
88	0x3d2f466e	0.042791776
89	0x395ad1bc	0.00020868232
90	0xbe24893e	-0.16067979
91	0x3da8b328	0.08237296
92	0xbcb199c5	-0.021679768
93	0xbcece5d0	-0.028918177
94	0x3d6e2fb1	0.05815095
95	0xbd15d5a4	-0.036580697
96	0xbe560a36	-0.20902333
97	0x3e41c192	0.18921497
98	0xbd27bdd6	-0.040952526
99	0xbde875bb	-0.1135058
100	0x3d6193f5	0.055072743
101	0xbc6a0dc6	-0.01428551
102	0x3d3f27ef	0.046668943
103	0x3e0d09a4	0.13773209
104	0xbcdd97bb	-0.02704989
105	0xbdcc9ce2	-0.099908605
106	0x3df22200	0.11822891
107	0x3d810fc2	0.06301834
108	0xbdca8bca	-0.09889944
109	0xbe02824b	-0.12745015
110	0x3d15949b	0.036518674
111	0x3c93a583	0.018023258
112	0x3d8e6732	0.06953277
113	0xbb158956	-0.0022817454
114	0xbd212936	-0.039345942
115	0xbded46c2	-0.115857616
116	0xbd3d9e80	-0.046293736
117	0x3c226740	0.009912312
118	0x3e030d1d	0.12797971
119	0xbcb49879	-0.02204536
120	0x3c8290ca	0.015938181
121	0x3dfad99d	0.12248538
122	0x3d17c74b	0.037055295
123	0xbe18ee02	-0.14934543
124	0xbdd83f10	-0.10558903
125	0x3c04b95c	0.008100834
126	0x3dca6b59	0.09883756
127	0xbcf70c5a	-0.030157257
128	0xbc0f5c55	-0.008750041
129	0xbe0ed696	-0.13949046
130	0xbdb8c61e	-0.09022163
131	0xbd85825f	-0.06519007
132	0xbe7f184b	-0.24911611
133	0x3dff3460	0.124611616
134	0x3c1fe76f	0.009759768
135	0x3d886b8a	0.066611364
136	0xbdb1882b	-0.0866855
137	0xbaaa0af6	-0.0012973237
138	0x3d5efc7e	0.054440014
139	0xbdb84a00	-0.089984894
140	0x3c818ac1	0.015813233
141	0x3de2a45a	0.11066504
142	0xbdc316db	-0.09525844
143	0x3b9629fa	0.0045826407
144	0x3d6e3a7b	0.05816124
145	0x3dfd6435	0.123726286
146	0xbc89b0b7	-0.016807897
147	0xbdbb0189	-0.09131152
148	0xbdbe9c68	-0.09307176
149	0x3c8c81e8	0.017151788
150	0x3e63ee38	0.22258842
151	0xbe2bae93	-0.16765814
152	0x3bda017f	0.0066530104
153	0xbdca341b	-0.098732196
154	0x3c8f2386	0.017472994
155	0x3cf1a92d	0.029499615
156	0x3e6e0843	0.23245339
157	0x3da417a6	0.08012323
158	0x3c8fc17c	0.017548315
159	0x3dcc617c	0.09979531
160	0xbca87ae3	-0.02056641
161	0xbbbf72a2	-0.0058425227
162	0x3df2bb1b	0.11852094
163	0x3cc789ea	0.024357755
164	0xbd207ce3	-0.0391816
165	0xbe0fbad8	-0.14036119
166	0x3d25e732	0.04050369
167	0x3d0288df	0.03186881
168	0xbe2ed529	-0.17073502
169	0xbdf2a581	-0.118479736
170	0x3c148ea2	0.009067209
171	0x3de55e13	0.11199584
172	0xbdaf9e35	-0.085750975
173	0xbb24d837	-0.0025153288
174	0xbe3f673b	-0.18691723
175	0xbdd6cd12	-0.10488333
176	0xbd435cba	-0.047695853
177	0x3e68a231	0.22718121
178	0x3e611aab	0.2198283
179	0x3b8b4b25	0.0042509013
180	0xbe0b56b5	-0.13607295
181	0x3d39319a	0.04521332
182	0xbcec8d20	-0.028875887
183	0x3df2eb5a	0.11861296
184	0xbd860381	-0.06543637
185	0x3cb276d8	0.021785185
186	0xbe867264	-0.26259148
187	0x3d228fea	0.03968803
188	0xbd7d6287	-0.06186154
189	0x3d5aaada	0.053385593
190	0x3e10dbc8	0.1414634
191	0x3da0ef9f	0.07858204

layers.0.bias f4 [64]
0	0xbf033d87	-0.5126576
1	0x3ef71614	0.48259032
2	0x3f12ad95	0.57296115
3	0x3f0264a5	0.5093482
4	0x3ed3da84	0.41377652
5	0x3f084013	0.5322277
6	0x3f041a8b	0.51603
7	0x3ee4959e	0.446454
8	0x3f0c6279	0.5483776
9	0xbeba24bf	-0.3635616
10	0xbef00f2c	-0.46886575
11	0xbed1383c	-0.40863216
12	0x3eddc4bf	0.43314168
13	0x3ed9e30e	0.4255604
14	0xbece64fb	-0.40311417
15	0xbee6c25f	-0.45070168
16	0x3f008d43	0.5021555
17	0x3eff53fe	0.49868768
18	0xbf12f732	-0.5740844
19	0x3ee1028b	0.43947253
20	0xbf0b95bd	-0.5452536
21	0xbf01dffd	-0.50732404
22	0x3f138b32	0.5763427
23	0xbeeeeb03	-0.46663675
24	0xbf0019ca	-0.5003935
25	0x3ee056be	0.4381618
26	0x3edcafbe	0.4310283
27	0x3eee3396	0.46523732
28	0x3ed9dc90	0.42551088
29	0x3eec06d8	0.4609897
30	0x3ef91852	0.48651367
31	0xbeff2e12	-0.49839836
32	0xbec46630	-0.38359213
33	0x3f0c6754	0.54845166
34	0xbee6d164	-0.45081627
35	0xbef76355	-0.48317972
36	0xbf00ac59	-0.5026298
37	0x3f0ac3fa	0.54205287
38	0x3edb88a9	0.428777
39	0xbf09afc5	-0.5378383
40	0x3ef6116c	0.48060167
41	0x3eda3f3d	0.42626372
42	0xbf0b3d31	-0.54390246
43	0x3ed7f271	0.42177156
44	0x3f016f4e	0.5056046
45	0xbef7b3e1	-0.48379424
46	0x3f087730	0.53306866
47	0xbef437b1	-0.4769874
48	0xbef0aa24	-0.47004807
49	0xbf0700e6	-0.52735746
50	0xbef16b44	-0.4715215
51	0x3f068fae	0.5256299
52	0xbf008313	-0.50200003
53	0xbef8715f	-0.48523995
54	0xbf028e7d	-0.5099867
55	0x3f0418eb	0.5160052
56	0x3f062eea	0.52415335
57	0xbf00ab87	-0.5026173
58	0x3eedd664	0.4645263
59	0xbede35d2	-0.43400437
60	0x3f060337	0.52348655
61	0xbf04f15a	-0.51930773
62	0x3ec01fd8	0.37524295
63	0x3ec4154a	0.38297492

layers.2.weight f4 [64, 64]
0	0xbef458ca	-0.4772399
1	0x3d742f8c	0.059615657
2	0x3d565380	0.052325726
3	0x3ed63839	0.4183977
4	0x3e4439ae	0.19162628
5	0x3e928868	0.28619695
6	0x3e9412ec	0.28920686
7	0x3decbab5	0.11559049
8	0x3e32ae8e	0.174494
9	0xbe98dd21	-0.29856208
10	0xbd6ba7ed	-0.057533193
11	0xbe0bf4ab	-0.13667552
12	0x3e3f95f5	0.18709548
13	0x3e435a95	0.19077523
14	0xbada72c6	-0.0016666285
15	0xbf0f42d9	-0.55961376
16	0x3ead457c	0.33842075
17	0x3ea5244a	0.3225425
18	0xbeb09afc	-0.34493244
19	0x3e542cd1	0.20720221
20	0xbe896393	-0.26833782
21	0xbeee7f2a	-0.46581393
22	0x3e27ec0e	0.16398641
23	0xbe0ed38e	-0.13947889
24	0xbedf4717	-0.43608925
25	0x3e896156	0.26832074
26	0x3ea18ad4	0.3155123
27	0x3e93632c	0.287866
28	0x3ead6ac9	0.33870533
29	0x3e4edd00	0.20201492
30	0x3d6d1019	0.05787668
31	0xbdfd5b5d	-0.12370942
32	0xbeb68eab	-0.35655722
33	0x3e40e48b	0.18837182
34	0xbeb5f3ff	-0.35537717
35	0xbca85a1e	-0.020550784
36	0xbe8b8a8d	-0.27254143
37	0x3ed823c3	0.42214784
38	0x3e2176ec	0.15768021
39	0xbed77862	-0.42084032
40	0x3c9b50fa	0.018959511
41	0x3e914ff9	0.28381327
42	0xbeffa16f	-0.49927852
43	0x3e2bdae1	0.16782714
44	0x3ea422e1	0.3205786
45	0xbe62cfbb	-0.22149555
46	0x3e44118f	0.19147323
47	0xbf108a42	-0.56460965
48	0xbee11882	-0.4396401
49	0xbec9dd5a	-0.3942669
50	0xbdf128f8	-0.11775392
51	0x3e144d7e	0.14482686
52	0xbecf8839	-0.40533617
53	0xbe9bae8e	-0.30406612
54	0xbe796903	-0.24356465
55	0x3de95d06	0.11394696
56	0x3e03962a	0.12850252
57	0xbeedf442	-0.46475416
58	0x3ec65d3e	0.38743013
59	0xbe9a68f6	-0.30158204
60	0x3eb73b35	0.3578736
61	0xbe79677f	-0.24355887
62	0x3e4d5800	0.200531
63	0x3e5604bd	0.20900245
64	0xbeaaaaab	-0.33333334
65	0x3eab25d7	0.33427307
66	0xbc99ee93	-0.018790519
67	0x3f03bdb6	0.5146135
68	0x3e91a168	0.28443456
69	0x3ea0bdc7	0.3139479
70	0x3e9dcde2	0.3082114
71	0x3eb2d430	0.3492751
72	0x3e76d6f6	0.24105439
73	0x3cf9a797	0.03047542
74	0xbdf71bab	-0.12065824
75	0xbe4e9c7a	-0.20176879
76	0x3ed67f93	0.41894206
77	0x3e78154b	0.24226873
78	0xbea75bdc	-0.3268727
79	0xbf200203	-0.6250307
80	0xbd0df0ca	-0.034653462
81	0x3e81146d	0.25210896
82	0xbdcdfa4d	-0.10057507
83	0x3eed8129	0.46387604
84	0xbe5127ae	-0.20425293
85	0xbe11c552	-0.14235428
86	0x3e5d6302	0.216198
87	0xbe8fa9c6	-0.28059214
88	0xbeaf7ee0	-0.34276485
89	0x3d965d0f	0.07341968
90	0x3ce0a612	0.027422938
91	0x3ecb1426	0.3966381
92	0xbc3c682b	-0.011499445
93	0x3ed7724b	0.42079386
94	0x3ed71cc1	0.42014125
95	0xbeafc123	-0.3432704
96	0xbe8e7277	-0.27821705
97	0x3db17f9c	0.08666918
98	0xbe3c6e69	-0.18401493
99	0xbea27a7c	-0.31734073
100	0xbeb56a74	-0.3543278
101	0x3e8c1034	0.27356112
102	0x3dbf1137	0.09329455
103	0xbeaf5dfa	-0.34251386
104	0x3e01e7cd	0.12686081
105	0x3ed481f0	0.41505384
106	0xbde6ccfc	-0.112695664
107	0x3e2c3e2d	0.16820593
108	0x3e2158fd	0.15756603
109	0xbe76071d	-0.24026151
110	0x3edc6ed9	0.4305332
111	0xbf037133	-0.51344603
112	0xbe345b27	-0.17612897
113	0xbeca3c50	-0.3949914
114	0xbe925279	-0.28578547
115	0x3e148048	0.1450206
116	0xbdebfc51	-0.11522735
117	0xbeb9730d	-0.3622059
118	0xbe64f2cf	-0.22358249
119	0x3e18e9c4	0.14932925
120	0x3da28f87	0.07937532
121	0xbe05085c	-0.1299147
122	0x3e637097	0.22210918
123	0xbe634d71	-0.2219751
124	0x3e0eae9e	0.13933799
125	0xbeac5d1f	-0.33664796
126	0x3ead7917	0.33881447
127	0x3e583e7f	0.2111759
128	0xbe414d8b	-0.18877237
129	0x3d6dfee3	0.058104407
130	0x3e939903	0.28827676
131	0x3e483038	0.19549644
132	0x3e5b490b	0.21414582
133	0x3df8defe	0.121519074
134	0x3dc9bd62	0.09850575
135	0x3db99550	0.09061682
136	0x3df4d0cc	0.11953887
137	0xbdad18bd	-0.08451984
138	0xbe9859ed	-0.29756108
139	0xbd36e5f1	-0.044652883
140	0x3e52bf5b	0.20580809
141	0x3dee416f	0.11633574
142	0xbd74d344	-0.05977179
143	0xbeb3bef6	-0.3510663
144	0x3e3480c4	0.17627245
145	0x3dc22ff8	0.094818056
146	0xbe8c712e	-0.274301
147	0x3eaeb9f2	0.3412624
148	0xbe2df5a5	-0.16988237
149	0xbf07b708	-0.5301366
150	0x3ea7824d	0.327166
151	0xbe912842	-0.28351027
152	0xbe813db5	-0.2524239
153	0x3e983fd0	0.29736185
154	0x3e05f6e8	0.13082469
155	0x3dffccac	0.1249021
156	0x3e9bd832	0.3043838
157	0x3e3bce21	0.1834035
158	0x3d21a4e8	0.039463907
159	0xbe56dac1	-0.20981885
160	0xbe0a6902	-0.1351662
161	0x3eb540c2	0.3540097
162	0xbed3bdf0	-0.41355848
163	0xbe7f4142	-0.24927238
164	0xbe1401f1	-0.14453866
165	0x3ecb831a	0.3974846
166	0x3eabd85e	0.33563513
167	0xbe8f2776	-0.27959794
168	0x3ea8e91c	0.32990348
169	0x3eff139d	0.4981965
170	0xbefe586f	-0.49676844
171	0x3e727b95	0.23679955
172	0x3e4a26be	0.19741341
173	0xbef29126	-0.47376364
174	0x3eec1ae0	0.46114254
175	0xbe502450	-0.20326352
176	0xbee53bcb	-0.4477218
177	0xbe0e35f1	-0.13887765
178	0xbe8bb6fc	-0.27288043
179	0x3cb07a4b	0.021542689
180	0xbe8d494f	-0.27594993
181	0xbed04f54	-0.40685523
182	0xbe2739d2	-0.1633065
183	0x3e841581	0.25797656
184	0x3e0ad091	0.13556124
185	0xbedff8db	-0.4374455
186	0x3db594e2	0.08866288
187	0xbe863c9b	-0.26218113
188	0x3eaa0c96	0.33212727
189	0xbec04a07	-0.37556478
190	0x3e2b29b0	0.16715121
191	0x3e770f26	0.24126872
192	0x3ed56ef5	0.41686216
193	0xbed9c78a	-0.4253505
194	0xbda875ba	-0.082255796
195	0xbea19de6	-0.3156578
196	0xbdf5797a	-0.119860604
197	0xbed8f11e	-0.42371458
198	0xbe81f0b2	-0.25378948
199	0xbe69a405	-0.22816475
200	0xbeab1e15	-0.33421388
201	0x3d173605	0.03691675
202	0x3e3ab9fa	0.18235007
203	0x3ebaaf55	0.36461893
204	0xbe2ed0c9	-0.17071833
205	0x3c930d19	0.017950581
206	0x3e43bddd	0.19115396
207	0x3ea2df1a	0.31810838
208	0xbe94f0a7	-0.29089853
209	0xbe0af3d7	-0.1356958
210	0x3d946f26	0.072477624
211	0xbe0e2950	-0.13882947
212	0x3eb4b507	0.35294363
213	0x3ebeeabf	0.37288472
214	0xbe88723f	-0.26649663
215	0x3ed5b09a	0.417363
216	0x3e285cbc	0.16441625
217	0xbe784302	-0.24244311
218	0xbea6fd10	-0.32614946
219	0xbeadc24b	-0.33937296
220	0xbd975aa0	-0.07390332
221	0xbf0c883a	-0.54895365
222	0xbebf3dec	-0.3735193
223	0x3e545dd1	0.20738913
224	0x3ec215d5	0.37907282
225	0xbe3e3763	-0.18575816
226	0x3e9e7b60	0.30953503
227	0x3d9d8bf8	0.076927125
228	0x3e57ca8c	0.21073359
229	0xbecd6d47	-0.40122434
230	0xbe8e4c6b	-0.27792677
231	0x3e8e223f	0.27760503
232	0xbdd8e598	-0.105906665
233	0xbe19b90b	-0.15011995
234	0x3e47a090	0.19494843
235	0xbeb0a637	-0.34501812
236	0xbe0013ac	-0.12507504
237	0x3e579744	0.21053797
238	0xbe6d23e0	-0.23158216
239	0x3eb98c13	0.3623968
240	0x3ec7c123	0.3901454
241	0x3e411788	0.18856633
242	0x3ef6297d	0.48078528
243	0xbeeda3f4	-0.4641415
244	0x3eadcda0	0.33945942
245	0x3eb1250f	0.34598586
246	0x3ed363d9	0.41287115
247	0xbe300793	-0.1719039
248	0xbe93827c	-0.2881049
249	0x3e877ac5	0.26460853
250	0xbd0255d3	-0.03182013
251	0x3dfe91ca	0.12430151
252	0xbe9e8095	-0.30957475
253	0x3ef7e4c6	0.48416728
254	0xbdeacacc	-0.11464462
255	0xbeb1b8b3	-0.34711227

layers.2.bias f4 [64]
0	0x3eaf1230	0.34193563
1	0x3e76c0e5	0.24097021
2	0x3e849540	0.2589512
3	0xbeb0ca00	-0.34529114
4	0xbe671ead	-0.22570296
5	0xbe845b7e	-0.25851053
6	0xbe7ecf0f	-0.24883674
7	0xbe867dc7	-0.26267835
8	0x3e840202	0.25782782
9	0x3e9b5111	0.30335286
10	0xbe90f997	-0.28315422
11	0x3e865235	0.26234594
12	0xbe9097d8	-0.28240848
13	0xbe86ead6	-0.2635104
14	0x3e917f92	0.2841764
15	0x3e6681ad	0.22510405
16	0xbeba53dc	-0.36392105
17	0xbe8415f9	-0.25798014
18	0x3e83b681	0.25725177
19	0xbe7115eb	-0.23543517
20	0xbe931c10	-0.28732347
21	0x3e8b0c34	0.27157748
22	0x3e858ecf	0.26085517
23	0xbeb284e6	-0.34867018
24	0x3e8b7966	0.27241057
25	0xbe7da126	-0.24768505
26	0x3e9f46e4	0.31108773
27	0xbe805c5d	-0.25070468
28	0x3ea595e1	0.3234091
29	0xbe85cbf6	-0.26132172
30	0x3e859f75	0.2609822
31	0x3ea3ac51	0.31967404
32	0xbe952d6b	-0.29136214
33	0x3e83574c	0.2565254
34	0x3ea33166	0.31873626
35	0xbe725c20	-0.23667955
36	0x3e894f7f	0.26818463
37	0xbe7b93f3	-0.24568157
38	0x3e80f148	0.25184083
39	0x3e89399d	0.26801768
40	0x3e6a7335	0.2289551
41	0xbe946abc	-0.28987682
42	0x3e9e833e	0.30959505
43	0x3e86db4b	0.26339182
44	0xbe7b4a61	-0.24540092
45	0x3e8b8a33	0.27253875
46	0x3e75540c	0.23957843
47	0xbe8f93dd	-0.28042498
48	0x3e8cc112	0.2749105
49	0xbe8f9b9c	-0.28048408
50	0xbe79225b	-0.24329512
51	0x3e9527ca	0.2913192
52	0xbe8804ec	-0.26566255
53	0x3e9a1a26	0.30098075
54	0xbeb966e2	-0.36211306
55	0x3e8443ef	0.2583308
56	0xbeb2b387	-0.34902593
57	0xbe873227	-0.2640545
58	0x3e8e25f9	0.27763346
59	0x3e8dbad1	0.27681592
60	0x3e5ccf28	0.21563399
61	0xbe92a397	-0.28640434
62	0x3e8214ec	0.25406587
63	0xbe83e178	-0.25757957

output_layer.weight f4 [1, 64]
0	0xbf98e80f	-1.1945819
1	0xbfb7db8c	-1.4363875
2	0xbfb291f5	-1.3950793
3	0x3f997a50	1.1990452
4	0x3fc2092b	1.5159048
5	0x3fad3651	1.3532201
6	0x3fbd3085	1.4780432
7	0x3faa05b5	1.3282992
8	0xbfae3e27	-1.3612717
9	0xbfa06097	-1.2529477
10	0x3fa62e12	1.298281
11	0xbfb54343	-1.4161152
12	0x3faf839f	1.3712043
13	0x3face42f	1.3507136
14	0xbf9c9eda	-1.2235978
15	0xbfb81945	-1.4382712
16	0x3f97cd45	1.1859518
17	0x3fb944ed	1.447416
18	0xbfae60d1	-1.3623296
19	0x3fac9507	1.348298
20	0x3fa5e6bb	1.2961038
21	0xbfa7544a	-1.3072598
22	0xbf9f8ea2	-1.2465403
23	0x3f966d96	1.1752193
24	0xbfa75b0b	-1.3074659
25	0x3fad5021	1.3540078
26	0xbf969ef7	-1.1767262
27	0x3fa465fb	1.2843622
28	0xbf9ccd7e	-1.2250211
29	0x3fac46f3	1.3459152
30	0xbfaabccc	-1.3338866
31	0xbf972581	-1.180832
32	0x3f9cd93e	1.2253797
33	0xbfbc15e7	-1.4694184
34	0xbf9aa546	-1.2081687
35	0x3fb4f46d	1.4137093
36	0xbfc03968	-1.5017519
37	0x3fb2447a	1.3927147
38	0xbfb62630	-1.4230404
39	0xbfacd896	-1.3503597
40	0xbfbb7593	-1.4645256
41	0x3fa8c9ed	1.3186623
42	0xbfa20ae7	-1.2659577
43	0xbfaae9c5	-1.3352591
44	0x3faf5e17	1.3700589
45	0xbfae5b2a	-1.3621571
46	0xbfb47b67	-1.410016
47	0x3fa51e0e	1.2899797
48	0xbfa07367	-1.2535218
49	0x3f9b14ea	1.2115757
50	0x3fb11033	1.3833069
51	0xbfaa0dab	-1.3285421
52	0x3fb38e14	1.4027734
53	0xbf9cbf2f	-1.2245845
54	0x3f8f1671	1.1178724
55	0xbfbe778e	-1.4880235
56	0x3f976524	1.1827741
57	0x3fb10edd	1.3832661
58	0xbfa47f77	-1.2851399
59	0xbfb1a5ec	-1.387876
60	0xbfb08ee7	-1.379361
61	0x3fa92593	1.3214592
62	0xbfb2913d	-1.3950573
63	0x3fa90eb2	1.320761

exp_avg f4 [64, 3]
0	0x80000004	-6e-45
1	0x80000004	-6e-45
2	0x80000004	-6e-45
3	0x80000004	-6e-45
4	0x80000004	-6e-45
5	0x80000004	-6e-45
6	0x00000004	6e-45
7	0x00000004	6e-45
8	0x00000004	6e-45
9	0x80000004	-6e-45
10	0x80000004	-6e-45
11	0x80000004	-6e-45
12	0x00000004	6e-45
13	0x00000004	6e-45
14	0x00000004	6e-45
15	0x00000004	6e-45
16	0x00000004	6e-45
17	0x00000004	6e-45
18	0x80000004	-6e-45
19	0x80000004	-6e-45
20	0x80000004	-6e-45
21	0x00000004	6e-45
22	0x00000004	6e-45
23	0x00000004	6e-45
24	0x00000004	6e-45
25	0x00000004	6e-45
26	0x00000004	6e-45
27	0x00000004	6e-45
28	0x80000004	-6e-45
29	0x00000004	6e-45
30	0x80000004	-6e-45
31	0x80000004	-6e-45
32	0x80000004	-6e-45
33	0x00000004	6e-45
34	0x00000004	6e-45
35	0x00000004	6e-45
36	0x00000004	6e-45
37	0x00000004	6e-45
38	0x00000004	6e-45
39	0x00000004	6e-45
40	0x00000004	6e-45
41	0x00000004	6e-45
42	0x00000004	6e-45
43	0x00000004	6e-45
44	0x00000004	6e-45
45	0x00000004	6e-45
46	0x00000004	6e-45
47	0x00000004	6e-45
48	0x80000004	-6e-45
49	0x80000004	-6e-45
50	0x80000004	-6e-45
51	0x00000004	6e-45
52	0x00000004	6e-45
53	0x00000004	6e-45
54	0x80000004	-6e-45
55	0x80000004	-6e-45
56	0x80000004	-6e-45
57	0x80000004	-6e-45
58	0x80000004	-6e-45
59	0x80000004	-6e-45
60	0x00000004	6e-45
61	0x00000004	6e-45
62	0x00000004	6e-45
63	0x80000004	-6e-45
64	0x80000004	-6e-45
65	0x80000004	-6e-45
66	0x00000004	6e-45
67	0x00000004	6e-45
68	0x00000004	6e-45
69	0x80000004	-6e-45
70	0x80000004	-6e-45
71	0x80000004	-6e-45
72	0x80000004	-6e-45
73	0x80000004	-6e-45
74	0x80000004	-6e-45
75	0x00000004	6e-45
76	0x00000004	6e-45
77	0x00000004	6e-45
78	0x00000004	6e-45
79	0x00000004	6e-45
80	0x00000004	6e-45
81	0x80000004	-6e-45
82	0x80000004	-6e-45
83	0x80000004	-6e-45
84	0x00000004	6e-45
85	0x00000004	6e-45
86	0x00000004	6e-45
87	0x00000004	6e-45
88	0x00000004	6e-45
89	0x00000004	6e-45
90	0x80000004	-6e-45
91	0x80000004	-6e-45
92	0x80000004	-6e-45
93	0x80000004	-6e-45
94	0x80000004	-6e-45
95	0x80000004	-6e-45
96	0x00000004	6e-45
97	0x00000004	6e-45
98	0x00000004	6e-45
99	0x00000004	6e-45
100	0x00000004	6e-45
101	0x00000004	6e-45
102	0x80000004	-6e-45
103	0x80000004	-6e-45
104	0x80000004	-6e-45
105	0x00000004	6e-45
106	0x00000004	6e-45
107	0x00000004	6e-45
108	0x80000004	-6e-45
109	0x80000004	-6e-45
110	0x80000004	-6e-45
111	0x00000004	6e-45
112	0x00000004	6e-45
113	0x00000004	6e-45
114	0x00000004	6e-45
115	0x00000004	6e-45
116	0x00000004	6e-45
117	0x80000004	-6e-45
118	0x80000004	-6e-45
119	0x80000004	-6e-45
120	0x80000004	-6e-45
121	0x80000004	-6e-45
122	0x80000004	-6e-45
123	0x80000004	-6e-45
124	0x80000004	-6e-45
125	0x80000004	-6e-45
126	0x80000004	-6e-45
127	0x80000004	-6e-45
128	0x80000004	-6e-45
129	0x00000004	6e-45
130	0x00000004	6e-45
131	0x00000004	6e-45
132	0x00000004	6e-45
133	0x00000004	6e-45
134	0x00000004	6e-45
135	0x80000004	-6e-45
136	0x80000004	-6e-45
137	0x80000004	-6e-45
138	0x00000004	6e-45
139	0x00000004	6e-45
140	0x00000004	6e-45
141	0x80000004	-6e-45
142	0x80000004	-6e-45
143	0x80000004	-6e-45
144	0x80000004	-6e-45
145	0x80000004	-6e-45
146	0x80000004	-6e-45
147	0x00000004	6e-45
148	0x00000004	6e-45
149	0x00000004	6e-45
150	0x80000004	-6e-45
151	0x80000004	-6e-45
152	0x80000004	-6e-45
153	0x80000004	-6e-45
154	0x80000004	-6e-45
155	0x80000004	-6e-45
156	0x80000004	-6e-45
157	0x80000004	-6e-45
158	0x80000004	-6e-45
159	0x80000004	-6e-45
160	0x80000004	-6e-45
161	0x80000004	-6e-45
162	0x80000004	-6e-45
163	0x80000004	-6e-45
164	0x80000004	-6e-45
165	0x80000004	-6e-45
166	0x80000004	-6e-45
167	0x80000004	-6e-45
168	0x80000004	-6e-45
169	0x80000004	-6e-45
170	0x80000004	-6e-45
171	0x00000004	6e-45
172	0x00000004	6e-45
173	0x00000004	6e-45
174	0x80000004	-6e-45
175	0x80000004	-6e-45
176	0x80000004	-6e-45
177	0x00000004	6e-45
178	0x00000004	6e-45
179	0x00000004	6e-45
180	0x80000004	-6e-45
181	0x80000004	-6e-45
182	0x80000004	-6e-45
183	0x80000004	-6e-45
184	0x80000004	-6e-45
185	0x80000004	-6e-45
186	0x80000004	-6e-45
187	0x80000004	-6e-45
188	0x80000004	-6e-45
189	0x80000004	-6e-45
190	0x80000004	-6e-45
191	0x80000004	-6e-45

exp_avg_sq f4 [64, 3]
0	0x27390762	2.567791e-15
1	0x2600a704	4.463527e-16
2	0x28a0064d	1.7766301e-14
3	0x271c4ad1	2.1689907e-15
4	0x268aba86	9.626231e-16
5	0x27d118e0	5.8036123e-15
6	0x26c3d1c7	1.3587703e-15
7	0x253b0763	1.6222167e-16
8	0x286a6284	1.30109716e-14
9	0x26c24ba0	1.3481952e-15
10	0x26a76944	1.1616485e-15
11	0x27752199	3.4018793e-15
12	0x26251596	5.727513e-16
13	0x2662a56d	7.8633695e-16
14	0x2605fce6	4.6486386e-16
15	0x27a7ad85	4.653994e-15
16	0x266315ee	7.8786166e-16
17	0x28dcbfe3	2.4508124e-14
18	0x274fe85b	2.885298e-15
19	0x263d29db	6.562927e-16
20	0x285aa799	1.2137773e-14
21	0x289bc3c1	1.7293352e-14
22	0x26b83c07	1.2783835e-15
23	0x2992ac95	6.513641e-14
24	0x2742f8c0	2.7057756e-15
25	0x268fe8f9	9.985766e-16
26	0x2809ecc4	7.656368e-15
27	0x255d2333	1.918062e-16
28	0x25592d41	1.8837082e-16
29	0x25cc9da0	3.549517e-16
30	0x28b3be7a	1.9955598e-14
31	0x26e0dcaa	1.5602933e-15
32	0x29ac09f0	7.640058e-14
33	0x2787a00f	3.7643563e-15
34	0x27112beb	2.01466e-15
35	0x2878a687	1.3802875e-14
36	0x26e7c359	1.6081794e-15
37	0x26a0c69d	1.1156064e-15
38	0x2681fb3e	9.019272e-16
39	0x283dcd60	1.0536141e-14
40	0x268584cd	9.264725e-16
41	0x2953f81f	4.7066622e-14
42	0x26ea6cd4	1.626651e-15
43	0x25c98009	3.4954702e-16
44	0x2855a7df	1.18602765e-14
45	0x27a0cbe2	4.462997e-15
46	0x263a260d	6.458328e-16
47	0x2851a0e5	1.1636719e-14
48	0x268e6d64	9.88288e-16
49	0x25484690	1.7371142e-16
50	0x27e2490c	6.28068e-15
51	0x25bc4cec	3.2664926e-16
52	0x2600cee8	4.468933e-16
53	0x263f7b88	6.6433853e-16
54	0x26ff9af1	1.7736176e-15
55	0x26158d5a	5.1886327e-16
56	0x2815fb65	8.325674e-15
57	0x2851a66e	1.1637919e-14
58	0x265e0b3a	7.7036937e-16
59	0x2974d889	5.4366698e-14
60	0x27670aa6	3.2063462e-15
61	0x266be994	8.184856e-16
62	0x285eeaff	1.2374432e-14
63	0x261df34e	5.4800056e-16
64	0x264885df	6.957037e-16
65	0x26491d15	6.9775297e-16
66	0x275e5a05	3.0857489e-15
67	0x267fc741	8.8740937e-16
68	0x28594909	1.2061757e-14
69	0x27d5b8e2	5.9319826e-15
70	0x25da5b1e	3.7878715e-16
71	0x28ef90f3	2.6597192e-14
72	0x26d5afe7	1.4827522e-15
73	0x25c7a976	3.4635828e-16
74	0x2829b384	9.420311e-15
75	0x27c806f1	5.5518677e-15
76	0x264df904	7.146114e-16
77	0x28a7b566	1.8619394e-14
78	0x25ccffed	3.556178e-16
79	0x2661cd99	7.8341193e-16
80	0x263a87b5	6.471563e-16
81	0x27edc368	6.5992574e-15
82	0x2618825a	5.2912253e-16
83	0x28fdda16	2.8183222e-14
84	0x28856c8d	1.4813043e-14
85	0x27001685	1.7775776e-15
86	0x298add7f	6.1668545e-14
87	0x272ac31e	2.3698013e-15
88	0x264e6b7e	7.1616286e-16
89	0x2882c83d	1.4519739e-14
90	0x27703fbc	3.3341241e-15
91	0x26190c84	5.30995e-16
92	0x28ad13c3	1.9215429e-14
93	0x27ea89b2	6.5097336e-15
94	0x26ca19ef	1.4023595e-15
95	0x2905d552	2.971696e-14
96	0x2677c4fc	8.5962303e-16
97	0x270143ca	1.7939095e-15
98	0x2615c1e2	5.195752e-16
99	0x27c2c4b4	5.4059083e-15
100	0x261d0cb1	5.4487517e-16
101	0x28e71362	2.5654558e-14
102	0x2747acee	2.7710543e-15
103	0x261c19fc	5.415859e-16
104	0x281762f5	8.403642e-15
105	0x2846d4b2	1.1037329e-14
106	0x266e27d6	8.2626825e-16
107	0x294a8b99	4.4974092e-14
108	0x262c97df	5.988031e-16
109	0x2685f16c	9.294166e-16
110	0x25f83724	4.3058507e-16
111	0x261338f0	5.1078035e-16
112	0x25c47034	3.4076612e-16
113	0x270ffcb9	1.9982238e-15
114	0x259e70e8	2.748514e-16
115	0x25e10a73	3.903836e-16
116	0x259123e8	2.5177821e-16
117	0x265548e0	7.3997984e-16
118	0x26d235d9	1.4586273e-15
119	0x2600818a	4.458448e-16
120	0x27d64dbb	5.9481207e-15
121	0x26490591	6.974343e-16
122	0x28e270a7	2.5139896e-14
123	0x2786d442	3.74226e-15
124	0x2682c885	9.074913e-16
125	0x288e4f17	1.5799467e-14
126	0x261bb252	5.4018097e-16
127	0x26a17baa	1.1205138e-15
128	0x25e6b4cb	4.002115e-16
129	0x270ab975	1.9251884e-15
130	0x25b03551	3.0567262e-16
131	0x282c46e0	9.563287e-15
132	0x27b1c754	4.934348e-15
133	0x26377e3d	6.3661964e-16
134	0x28e3d3e2	2.5293952e-14
135	0x26ae30ea	1.2086934e-15
136	0x271ee918	2.2053265e-15
137	0x26a54390	1.1467488e-15
138	0x279053c0	4.005883e-15
139	0x263bb5e9	6.512519e-16
140	0x2896f8bc	1.6761217e-14
141	0x280fdaef	7.985568e-15
142	0x26c918b0	1.3953868e-15
143	0x2910370b	3.2022165e-14
144	0x28420e91	1.0772322e-14
145	0x2657362d	7.466653e-16
146	0x29515139	4.6477772e-14
147	0x27017e64	1.7970863e-15
148	0x270f057a	1.9848205e-15
149	0x27bc8104	5.232036e-15
150	0x26b92024	1.2845665e-15
151	0x26a9657e	1.175424e-15
152	0x27a5aaf6	4.5982056e-15
153	0x274c924e	2.839e-15
154	0x26c06cf2	1.3352206e-15
155	0x27d6db6d	5.9634834e-15
156	0x27a3340a	4.529801e-15
157	0x25e8c012	4.0375737e-16
158	0x28cb4d9f	2.257119e-14
159	0x272ef07c	2.4277718e-15
160	0x257f0bb7	2.2121693e-16
161	0x2836a36e	1.0138468e-14
162	0x278bde9d	3.882161e-15
163	0x25a761b6	2.9036094e-16
164	0x28caa589	2.2498295e-14
165	0x2728f761	2.3448788e-15
166	0x260b6fcf	4.837684e-16
167	0x281c6583	8.6817514e-15
168	0x27390762	2.567791e-15
169	0x2627d0e7	5.822288e-16
170	0x27e1376d	6.251014e-15
171	0x2784ae21	3.682615e-15
172	0x26028dbb	4.529489e-16
173	0x28be222c	2.1109057e-14
174	0x2646e8a9	6.9010363e-16
175	0x25f68db7	4.2770227e-16
176	0x276eadd3	3.3123365e-15
177	0x27e927b1	6.4713525e-15
178	0x264b4b35	7.05317e-16
179	0x29066742	2.984354e-14
180	0x26994865	1.063613e-15
181	0x26c4b480	1.3649157e-15
182	0x2639aeca	6.442165e-16
183	0x2633f738	6.2438144e-16
184	0x26d8a1a6	1.5031826e-15
185	0x25f8c3c0	4.3153788e-16
186	0x26d4ae2c	1.4757664e-15
187	0x264535aa	6.8420833e-16
188	0x26c5624e	1.3696267e-15
189	0x2799930c	4.262546e-15
190	0x268590fd	9.268028e-16
191	0x2884488d	1.4686408e-14

exp_avg f4 [64]
0	0x80000004	-6e-45
1	0x80000004	-6e-45
2	0x00000004	6e-45
3	0x80000004	-6e-45
4	0x00000004	6e-45
5	0x00000004	6e-45
6	0x80000004	-6e-45
7	0x00000004	6e-45
8	0x00000004	6e-45
9	0x00000004	6e-45
10	0x80000004	-6e-45
11	0x00000004	6e-45
12	0x00000004	6e-45
13	0x00000004	6e-45
14	0x00000004	6e-45
15	0x00000004	6e-45
16	0x80000004	-6e-45
17	0x00000004	6e-45
18	0x80000004	-6e-45
19	0x80000004	-6e-45
20	0x00000004	6e-45
21	0x80000004	-6e-45
22	0x00000004	6e-45
23	0x80000004	-6e-45
24	0x80000004	-6e-45
25	0x00000004	6e-45
26	0x00000004	6e-45
27	0x80000004	-6e-45
28	0x00000004	6e-45
29	0x00000004	6e-45
30	0x80000004	-6e-45
31	0x80000004	-6e-45
32	0x00000004	6e-45
33	0x00000004	6e-45
34	0x80000004	-6e-45
35	0x00000004	6e-45
36	0x80000004	-6e-45
37	0x00000004	6e-45
38	0x00000004	6e-45
39	0x80000004	-6e-45
40	0x80000004	-6e-45
41	0x80000004	-6e-45
42	0x80000004	-6e-45
43	0x00000004	6e-45
44	0x00000004	6e-45
45	0x80000004	-6e-45
46	0x00000004	6e-45
47	0x80000004	-6e-45
48	0x80000004	-6e-45
49	0x00000004	6e-45
50	0x80000004	-6e-45
51	0x80000004	-6e-45
52	0x80000004	-6e-45
53	0x80000004	-6e-45
54	0x80000004	-6e-45
55	0x80000004	-6e-45
56	0x80000004	-6e-45
57	0x00000004	6e-45
58	0x80000004	-6e-45
59	0x00000004	6e-45
60	0x80000004	-6e-45
61	0x80000004	-6e-45
62	0x80000004	-6e-45
63	0x80000004	-6e-45

exp_avg_sq f4 [64]
0	0x27dd848c	6.148353e-15
1	0x27a95490	4.6998606e-15
2	0x275ffb5e	3.1083733e-15
3	0x278a7ae8	3.843595e-15
4	0x26b60807	1.2630963e-15
5	0x28480c37	1.1104879e-14
6	0x27e27f77	6.28658e-15
7	0x292348ba	3.625635e-14
8	0x27c16654	5.3679205e-15
9	0x25cf5f00	3.597315e-16
10	0x294717f8	4.4207666e-14
11	0x282b8e41	9.523253e-15
12	0x276c196d	3.2765363e-15
13	0x28d35cd7	2.3465969e-14
14	0x278fe64a	3.9940153e-15
15	0x2834f6d6	1.0045531e-14
16	0x270eb7f1	1.9806174e-15
17	0x264b5eae	7.055809e-16
18	0x27929774	4.0687346e-15
19	0x28ee63f2	2.6466652e-14
20	0x280c5454	7.789847e-15
21	0x26b11435	1.2287319e-15
22	0x27f45807	6.7819044e-15
23	0x2857d9ec	1.1982152e-14
24	0x2777ac99	3.4371701e-15
25	0x2856d371	1.1925235e-14
26	0x268c907c	9.753614e-16
27	0x287dd22c	1.4089895e-14
28	0x291657d8	3.3382883e-14
29	0x27d7b197	5.986703e-15
30	0x280d8d12	7.857662e-15
31	0x288d1998	1.5665244e-14
32	0x271cdc7c	2.1768874e-15
33	0x28512858	1.1610579e-14
34	0x27d16bfb	5.8126226e-15
35	0x28d48d56	2.3598023e-14
36	0x26b57ac4	1.2592674e-15
37	0x26aef680	1.2140489e-15
38	0x2624d02f	5.718107e-16
39	0x2701de63	1.8022902e-15
40	0x28686c70	1.2902101e-14
41	0x280f9028	7.9693535e-15
42	0x26ca3d4c	1.403318e-15
43	0x279dccf2	4.3798456e-15
44	0x28490c23	1.1160373e-14
45	0x277a245f	3.4714186e-15
46	0x282794b7	9.30261e-15
47	0x28a3f4b9	1.8202767e-14
48	0x28d59a2d	2.3714614e-14
49	0x27b4e38c	5.0206743e-15
50	0x275799ed	2.9920687e-15
51	0x27f19d3e	6.706142e-15
52	0x28300680	9.771372e-15
53	0x27b7fc43	5.1066206e-15
54	0x28117844	8.075195e-15
55	0x27a8c7fb	4.6846186e-15
56	0x27d51f54	5.915334e-15
57	0x281336bc	8.172008e-15
58	0x26cf89ed	1.4400895e-15
59	0x287cd775	1.403553e-14
60	0x272b39ba	2.376231e-15
61	0x2706f81d	1.8730738e-15
62	0x276608b4	3.192363e-15
63	0x283715e5	1.0163288e-14
