experiments/config_test_learning_rate_override_20250828_130729/checkpoints/final.pt (torch, 137357 bytes, 22 tensors)

layers.0.weight f4 [64, 4]
0	0xbe964dda	-0.2935627
1	0xbe8789c3	-0.2647229
2	0xbe52c1fb	-0.2058181
3	0xbc6e615f	-0.014549582
4	0xbdaafa5e	-0.08348535
5	0xbc3f5a9d	-0.011679319
6	0x3e91e3a8	0.28494
7	0x3d87e629	0.066356964
8	0x3db64d71	0.089014895
9	0x3da86329	0.08222038
10	0xbd2b14ea	-0.041767992
11	0xbe0ffebd	-0.14062019
12	0xbdf453da	-0.11930056
13	0x3c99286f	0.018696038
14	0x3e0cb381	0.1374035
15	0xbe795dd7	-0.24352203
16	0xbe80324e	-0.2503838
17	0x3dd7f871	0.10545433
18	0x3df7d24a	0.12100656
19	0xbe6dd593	-0.23226003
20	0x3e241692	0.16024235
21	0x3dca23e1	0.098701246
22	0x3e925731	0.28582147
23	0xbdde6c9f	-0.108605616
24	0x3e7e865c	0.24855942
25	0xbd9e96c5	-0.07743601
26	0x3d0aa90d	0.033852626
27	0xbd2da20a	-0.04239086
28	0x3e4cd1db	0.20001929
29	0xbc45e7b9	-0.012079173
30	0xbcb84c82	-0.02249742
31	0xbe001bb6	-0.12510571
32	0x3dac9407	0.084266715
33	0xbe7703b0	-0.241225
34	0xbe126bfd	-0.14299007
35	0x3dc23c4d	0.09484158
36	0xbe223ce8	-0.15843546
37	0x3e6f8da3	0.23393874
38	0x3e3b1411	0.18269373
39	0x3cdfccdc	0.027319364
40	0x3d6f3cec	0.05840771
41	0x3df05f6a	0.11736949
42	0x3e1bed4b	0.15227239
43	0xbe6dd60e	-0.23226187
44	0xbe00ac75	-0.12565787
45	0x3e02151d	0.12703367
46	0x3da26542	0.0792947
47	0xbe7f1078	-0.24908626
48	0x3d82b7a2	0.063826814
49	0x3e6ffaf0	0.23435569
50	0x3e5f0f2b	0.2178313
51	0x3e4295be	0.19002435
52	0xbe217dc7	-0.15770636
53	0xbdeb0836	-0.114761755
54	0x3c77d9d9	0.0151276225
55	0x3e966526	0.29374045
56	0x3d35b2e8	0.04436007
57	0xbe6650f3	-0.22491817
58	0xbe233c24	-0.1594091
59	0x3d9245ff	0.07142257
60	0x3e8be36c	0.27321947
61	0x3e19d6dd	0.1502337
62	0x3e171636	0.14754567
63	0xbdd7b10f	-0.10531818
64	0xbd69f5ab	-0.057119053
65	0xbd8afb09	-0.067861624
66	0xbb01ddca	-0.0019816034
67	0x3e28532f	0.16437982
68	0xbdf306bc	-0.11866519
69	0xbe02cdd9	-0.12773837
70	0xbe4283b2	-0.1899555
71	0x3e002a8e	0.12516233
72	0x3df6307f	0.12020969
73	0xbdf8b8ed	-0.12144647
74	0x3e91bfd5	0.2846667
75	0x3e76040d	0.24024983
76	0x3e0f644e	0.14003107
77	0xbe144bd6	-0.14482054
78	0xbd8bebae	-0.06832062
79	0x3d2c775d	0.04210602
80	0x3e826324	0.25466263
81	0x3e6f6ee4	0.23382145
82	0x3e3ee3cb	0.18641584
83	0x3d6aa64c	0.0572875
84	0xbe2958c9	-0.16537775
85	0x3e7df5e3	0.2480083
86	0xbe94abd3	-0.2903734
87	0x3e722b74	0.23649389
88	0xbd9e1b67	-0.0772007
89	0xbd3f4cc3	-0.046704065
90	0x3e1f35c8	0.1554786
91	0x3de35230	0.110996604
92	0x3e1bdca1	0.15220882
93	0xbd150c74	-0.03638883
94	0xbdd8f80d	-0.10594187
95	0x3c04a1a5	0.00809518
96	0x3de62df9	0.11239237
97	0x3dc92fb5	0.098235525
98	0xbdb8200b	-0.08990487
99	0xbe702224	-0.23450524
100	0xbd91ba71	-0.07115639
101	0xbe473f65	-0.19457777
102	0x3d051a8b	0.032496016
103	0xbd946763	-0.07246282
104	0x3e3be33f	0.18348406
105	0xbe904fa8	-0.28185773
106	0x3d8917bf	0.06693982
107	0xbd4322e7	-0.047640707
108	0xbe8ddf9b	-0.2770966
109	0xbd3e5efa	-0.046477295
110	0xbe820f54	-0.2540232
111	0x3cc8008f	0.024414329
112	0x3e8381bf	0.25684926
113	0xbe9212f1	-0.28530076
114	0xbe23fd28	-0.1601454
115	0xbcfadb44	-0.030622132
116	0x3da12a64	0.078694135
117	0x3e688447	0.2270671
118	0x3e843795	0.25823656
119	0x3e4b36ac	0.19845074
120	0xbe5e91fa	-0.21735373
121	0x3e5f7da9	0.2182528
122	0x3e009381	0.12556268
123	0x3e6f8581	0.23390771
124	0x3e120b5b	0.14262144
125	0x3e6d97f9	0.23202504
126	0xbe772885	-0.2413655
127	0xbce8fd3a	-0.02844106
128	0xbb972925	-0.004613059
129	0x3e8925d7	0.26786682
130	0xbcae4ef5	-0.021277884
131	0x3dab329e	0.08359264
132	0x3d55421a	0.052064992
133	0xbe5466b3	-0.20742302
134	0xbd6e016d	-0.05810683
135	0x3d9bd07f	0.07608127
136	0x3dee5fe3	0.11639383
137	0x3e58bc8a	0.21165672
138	0xbd1ebb07	-0.038752582
139	0xbcb25c88	-0.021772638
140	0x3c32e4f3	0.010918844
141	0x3e8a4ffa	0.27014142
142	0x3e87af21	0.265008
143	0xbe97191a	-0.29511338
144	0x3d089688	0.033346683
145	0x3dff66f9	0.12470812
146	0x3caa2ebe	0.020774242
147	0xbe9268e6	-0.28595656
148	0x3e22f9e2	0.15915635
149	0xbdfc5cf5	-0.12322418
150	0xbdf49730	-0.11942899
151	0x3d75f206	0.060045265
152	0xbe40bec9	-0.18822779
153	0x3dd234c8	0.102639735
154	0x3e3a73e8	0.18208277
155	0x3e11c2e8	0.14234507
156	0xbe8935d3	-0.26798877
157	0xbe3d4338	-0.18482673
158	0xbe902650	-0.2815423
159	0x3da7a6df	0.08186125
160	0x3e8a6bab	0.2703527
161	0xbe1bf67c	-0.15230745
162	0x3e85a647	0.26103422
163	0xbe0003f5	-0.1250151
164	0xbe53edf5	-0.20696242
165	0xbe0aa37b	-0.13538925
166	0xbdc60774	-0.0966939
167	0x3deda716	0.11604135
168	0xbd5fa577	-0.05460116
169	0x3e072d61	0.13200904
170	0x3e6c588f	0.23080657
171	0xbd0b9ae2	-0.034083255
172	0xbe4f65da	-0.20253697
173	0xbdbb21a6	-0.09137277
174	0xbe51b4b6	-0.20479092
175	0x3cdf715f	0.02727574
176	0xbe498094	-0.19677955
177	0xbdf8797d	-0.12132547
178	0x3dffadba	0.124843076
179	0xbe3ce30d	-0.18445988
180	0x3dd07fa5	0.10180596
181	0xbe556ace	-0.20841524
182	0xbe277453	-0.16352968
183	0xbe24524c	-0.16047019
184	0xbe8160ba	-0.2526911
185	0x3e669107	0.22516261
186	0x3e814466	0.25247496
187	0xbe5082f1	-0.2036245
188	0x3cba23fe	0.02272224
189	0x3dd2b8c3	0.10289147
190	0xbe20279f	-0.15640114
191	0xbe6c021a	-0.23047677
192	0x3e1b3481	0.15156747
193	0xbd2ad3dc	-0.04170595
194	0x3ceecfb9	0.029151784
195	0x3e52de76	0.20592675
196	0x3dcf89ea	0.10133727
197	0xbe29e1da	-0.16590062
198	0xbe73e381	-0.23817255
199	0x3e85be4f	0.26121756
200	0xbd64006c	-0.055664465
201	0x3dc9373f	0.098249905
202	0xbe6a2e33	-0.22869186
203	0x3e610012	0.21972683
204	0xbe7836fa	-0.24239722
205	0x3dd83cd6	0.105584785
206	0x3e1145f4	0.14186841
207	0xbe440155	-0.19141133
208	0x3e1b8678	0.15188015
209	0x3e8243a6	0.25442237
210	0x3e4eab88	0.20182621
211	0x3d200414	0.03906639
212	0xbe09197b	-0.13388626
213	0x3ce69f2f	0.028152077
214	0x3e6a4213	0.22876768
215	0xb9cd9c3f	-0.0003921706
216	0x3e34d2ce	0.1765854
217	0xbc956f38	-0.01824151
218	0x3d1b9f78	0.037993878
219	0x3df81dd0	0.12115061
220	0x3e3085d9	0.17238559
221	0x3e800826	0.25006217
222	0xbe0f54e5	-0.13997228
223	0xbe4b5802	-0.19857791
224	0xbd4720e2	-0.048615344
225	0x3e2421aa	0.16028467
226	0xbcb7db09	-0.022443311
227	0xbdb6c870	-0.08924949
228	0xbd6d9c5b	-0.05801044
229	0x3cc0398b	0.023464939
230	0x3e67b709	0.22628416
231	0xbdb5d3b1	-0.088782676
232	0x3dec5ad8	0.115407646
233	0xbe921312	-0.28530174
234	0xbe854f13	-0.2603689
235	0xbc91cd52	-0.0177981
236	0xbe3b83dc	-0.18312019
237	0x3d979bc5	0.074027576
238	0x3e84dbf1	0.25949052
239	0xbe238172	-0.15967348
240	0xbe26801c	-0.16259807
241	0x3e908af0	0.28231
242	0xbd4e72dc	-0.050402507
243	0xbe6a9ecf	-0.22912143
244	0xbe968a06	-0.2940218
245	0x3e5c9006	0.21539316
246	0x3bdc3a1d	0.006720795
247	0xbd85b0e2	-0.06527878
248	0x3e8bbf5f	0.27294442
249	0x3dd148e0	0.10218978
250	0xbe3d9ab7	-0.1851605
251	0x3d52bd55	0.051450092
252	0x3de6512c	0.11245951
253	0x3e3581cd	0.17725296
254	0xbe922529	-0.28543976
255	0x3b8240b5	0.003974999

layers.0.bias f4 [64]
0	0x00000000	0.0
1	0x00000000	0.0
2	0x00000000	0.0
3	0x00000000	0.0
4	0x00000000	0.0
5	0x00000000	0.0
6	0x00000000	0.0
7	0x00000000	0.0
8	0x00000000	0.0
9	0x00000000	0.0
10	0x00000000	0.0
11	0x00000000	0.0
12	0x00000000	0.0
13	0x00000000	0.0
14	0x00000000	0.0
15	0x00000000	0.0
16	0x00000000	0.0
17	0x00000000	0.0
18	0x00000000	0.0
19	0x00000000	0.0
20	0x00000000	0.0
21	0x00000000	0.0
22	0x00000000	0.0
23	0x00000000	0.0
24	0x00000000	0.0
25	0x00000000	0.0
26	0x00000000	0.0
27	0x00000000	0.0
28	0x00000000	0.0
29	0x00000000	0.0
30	0x00000000	0.0
31	0x00000000	0.0
32	0x00000000	0.0
33	0x00000000	0.0
34	0x00000000	0.0
35	0x00000000	0.0
36	0x00000000	0.0
37	0x00000000	0.0
38	0x00000000	0.0
39	0x00000000	0.0
40	0x00000000	0.0
41	0x00000000	0.0
42	0x00000000	0.0
43	0x00000000	0.0
44	0x00000000	0.0
45	0x00000000	0.0
46	0x00000000	0.0
47	0x00000000	0.0
48	0x00000000	0.0
49	0x00000000	0.0
50	0x00000000	0.0
51	0x00000000	0.0
52	0x00000000	0.0
53	0x00000000	0.0
54	0x00000000	0.0
55	0x00000000	0.0
56	0x00000000	0.0
57	0x00000000	0.0
58	0x00000000	0.0
59	0x00000000	0.0
60	0x00000000	0.0
61	0x00000000	0.0
62	0x00000000	0.0
63	0x00000000	0.0

layers.2.weight f4 [64, 64]
0	0x3d4f8902	0.05066777
1	0x3c5db6fb	0.0135323955
2	0x3c45eda1	0.012080581
3	0x3dffa255	0.12482134
4	0xbd3bcc89	-0.045849357
5	0x3d9ebd10	0.077509046
6	0x3da35fa4	0.079772264
7	0x3e2d34e6	0.1691471
8	0xbe05e27c	-0.13074678
9	0x3d074152	0.03302128
10	0x3e46f1ad	0.1942813
11	0xbcbd11e3	-0.023079818
12	0xbe576346	-0.21033964
13	0x3e07d914	0.13266402
14	0xbe10a7ec	-0.14126557
15	0xbe42649d	-0.18983693
16	0xbc4c848a	-0.012482772
17	0x3da4db00	0.080495834
18	0x3e2fb031	0.17157055
19	0x3df2a13c	0.11847159
20	0x3d7602b8	0.060061187
21	0xbe09517c	-0.1340999
22	0x3e3737a8	0.17892325
23	0xbdbc0d64	-0.091822416
24	0xbd1e3917	-0.038628664
25	0x3e2d03d9	0.16895999
26	0xbcd12f70	-0.025535315
27	0x3df188dc	0.11793682
28	0xbd5d7ee1	-0.05407608
29	0xbe5939c0	-0.21213436
30	0x3db6435a	0.08899565
31	0xbce70872	-0.02820227
32	0xbe2e353b	-0.17012493
33	0xbe13ba4d	-0.14426537
34	0xbc9da0ff	-0.019241808
35	0x3dea1fca	0.114318445
36	0xbe1d7ea0	-0.15380335
37	0x3a4c5234	0.00077942316
38	0xbdf0cbee	-0.117576465
39	0x3e1a07a9	0.15041985
40	0x3d95dc2b	0.07317384
41	0xbbd88856	-0.0066080494
42	0xbe17736a	-0.1479012
43	0x3dbb87a5	0.091567315
44	0x3c9d291b	0.01918464
45	0xbe262543	-0.16225152
46	0xbe358731	-0.17727353
47	0xbc26d504	-0.010182623
48	0x3e072546	0.13197812
49	0x3e3b8af9	0.18314733
50	0x3e18b4bb	0.14912693
51	0xbda392af	-0.07986962
52	0x3e4e426f	0.2014253
53	0x3dd7c860	0.105362654
54	0xbd62a288	-0.055330783
55	0xbe5682cc	-0.20948333
56	0x3c3ba53d	0.01145297
57	0xbc890ccd	-0.016729737
58	0x3e4b7b92	0.19871357
59	0x3e0d1eb6	0.13781247
60	0x3d3648f7	0.04450318
61	0x3e2a8f45	0.16656215
62	0xbc12d73d	-0.00896245
63	0x3c66d908	0.01408983
64	0xbd83ad8a	-0.06429584
65	0xbd17c271	-0.03705067
66	0x3e39b73b	0.18136303
67	0x3e2ee07b	0.1707782
68	0x3e579802	0.2105408
69	0x3d6bcd15	0.05756863
70	0xbe54a295	-0.20765145
71	0xbdab7b99	-0.08373184
72	0x3d5e8147	0.054322507
73	0x3d72597e	0.059167378
74	0x3d0ffbbf	0.035152193
75	0xbc6d289a	-0.014475012
76	0xbe56e643	-0.20986275
77	0x3dd4980e	0.10380565
78	0x3e088664	0.13332516
79	0xbe26780c	-0.16256732
80	0x3e41049f	0.18849419
81	0x3e541e73	0.2071474
82	0x3d06cf92	0.0329128
83	0x3c95ffba	0.018310416
84	0x3e470b69	0.19437946
85	0xbce3f4a2	-0.027826611
86	0x3e476c5e	0.19474933
87	0xbe0ed535	-0.1394852
88	0xbe44153a	-0.19148722
89	0x3e0c6aac	0.13712567
90	0xbe447696	-0.19185862
91	0x3e45c7b9	0.1931447
92	0x3e3c42ff	0.18384932
93	0xbda19de4	-0.07891443
94	0x3e34c11c	0.1765179
95	0xbd98b6be	-0.0745673
96	0x3ca470f4	0.020073391
97	0xbd1a9e8e	-0.037748866
98	0xbb868966	-0.0041057346
99	0xbde33ea9	-0.11095936
100	0x3d5e444e	0.05426436
101	0x3e0f9665	0.14022215
102	0xbe381222	-0.17975667
103	0xbe3c6e24	-0.1840139
104	0x3d7a5e98	0.061125368
105	0x3d4ee925	0.050515313
106	0xbe52f78b	-0.20602243
107	0xbd26c6ac	-0.040716812
108	0xbd8d11db	-0.06888171
109	0x3e52f6da	0.20601979
110	0xbe0db988	-0.13840306
111	0xbe10df14	-0.14147598
112	0x3e3f3325	0.18671854
113	0x3e49b9ab	0.19699733
114	0xbcb25017	-0.021766705
115	0xbc591d82	-0.013251664
116	0xbd492006	-0.049102806
117	0x3d9b0763	0.07569768
118	0xbdb0ddef	-0.086360805
119	0xbe47fe6a	-0.19530645
120	0xbddf1ab0	-0.10893762
121	0x3ca5420b	0.020173093
122	0x3e345ec5	0.17614277
123	0x3d7fea63	0.062479388
124	0xbb2dab25	-0.0026499715
125	0xbe3dddd6	-0.18541655
126	0x3dd93380	0.10605526
127	0x3e3b5eb4	0.18297845
128	0x3e437cc6	0.19090566
129	0xbdf77002	-0.12081911
130	0xbe5707a3	-0.20999007
131	0x3e33ee22	0.17571309
132	0x3e162d14	0.14665633
133	0x3e076178	0.13220775
134	0xbe2dc47d	-0.16969486
135	0xbdb314a0	-0.08744168
136	0x3dda3f69	0.10656626
137	0x3e3108aa	0.17288461
138	0x3e08066a	0.13283697
139	0xbab060d5	-0.0013456593
140	0xbdf16a02	-0.117877975
141	0xbba8946d	-0.005144647
142	0xbc93334f	-0.017968802
143	0xbe197185	-0.1498471
144	0xbd6418f4	-0.05568786
145	0x3d7dd95b	0.061974864
146	0x3dbb91b3	0.09158649
147	0x3db10ee0	0.08645415
148	0x3d9f7a7e	0.077870354
149	0x3e2d3f87	0.16918765
150	0x3d7391b1	0.059465114
151	0xbe2119c1	-0.1573248
152	0x3d9c0a5e	0.07619165
153	0xbe575190	-0.21027207
154	0xbd9deeb8	-0.077115476
155	0x3e52db8c	0.20591563
156	0x3e46e84a	0.19424549
157	0xbd4f065f	-0.050543185
158	0xbd938ef2	-0.07204999
159	0xbd8b89e2	-0.068134084
160	0x3e008edc	0.12554497
161	0x3df0f600	0.11765671
162	0x3e5afd06	0.21385583
163	0x3d2fdded	0.042936254
164	0x3c356a05	0.01107264
165	0x3e009821	0.12558033
166	0xbe41a7f4	-0.18911725
167	0x3e07de76	0.13268456
168	0xbd55c8e1	-0.052193526
169	0xbd7518eb	-0.059838217
170	0x3da23b27	0.07921439
171	0x3d285103	0.041092884
172	0xbe46f6a2	-0.1943002
173	0x3e372c7d	0.17888065
174	0xbe58f28c	-0.21186274
175	0x3de5fcdc	0.1122987
176	0x3d444794	0.047919825
177	0xbd1aa7f9	-0.037757847
178	0xbe3b2ec5	-0.1827956
179	0x3d6db81e	0.058036916
180	0xbe3988cc	-0.1811859
181	0x3e50b93f	0.20383166
182	0xbd097c76	-0.03356596
183	0x3e304153	0.17212419
184	0x3e0841e6	0.13306388
185	0xbd4c1e22	-0.049833424
186	0xbe3200e2	-0.1738315
187	0x3da850be	0.08218525
188	0xbe183634	-0.14864427
189	0xbc905e8e	-0.017623212
190	0x3e19135f	0.14948796
191	0x3d833807	0.06407171
192	0x3da377ba	0.079818204
193	0x3d1d5ffd	0.03842162
194	0x3dba3966	0.09092979
195	0xbdbdf7e6	-0.092757985
196	0xbddbef46	-0.10738997
197	0x3bc35949	0.0059615714
198	0xbe15d389	-0.14631476
199	0x3ddd2a02	0.10799028
200	0x3d72f9a7	0.05932012
201	0x3b6f4b9b	0.003651357
202	0x3e18ac27	0.14909421
203	0x3e422300	0.18958664
204	0xbe374ac7	-0.17899619
205	0x3dccdfcc	0.10003623
206	0xbe5267e6	-0.20547447
207	0xbdcd8689	-0.10035426
208	0xbdecaad0	-0.115560174
209	0x3e396763	0.18105845
210	0xbe17d66f	-0.14827894
211	0x3d806142	0.062685505
212	0xbe02bbeb	-0.12766998
213	0x3d585d4e	0.052823357
214	0xbcd70e96	-0.026252072
215	0x3e3b2f2d	0.18279715
216	0xbdfd5c86	-0.12371163
217	0x3d63d606	0.05562403
218	0xbdf71242	-0.12064029
219	0x3d0b8259	0.034059856
220	0xbd46eefa	-0.04856775
221	0x3dd4c39c	0.10388872
222	0x3e177445	0.14790447
223	0xbc84d122	-0.016213004
224	0x3e4f5c5c	0.20250076
225	0x3e1b658a	0.15175453
226	0xbd0a217f	-0.03372335
227	0x3b13f39f	0.002257563
228	0xbdae45b4	-0.085093886
229	0x3b16bbed	0.0023000196
230	0xbd72fc32	-0.059322543
231	0xbe3ab19a	-0.18231812
232	0x3e1fd576	0.15608773
233	0x3d27c263	0.040956866
234	0x3e30bce0	0.1725955
235	0xbdec2c2b	-0.11531862
236	0xbe1a995c	-0.15097564
237	0x3e0b5a1a	0.1360859
238	0xbc6367f5	-0.013879766
239	0xbd91fc91	-0.07128251
240	0x3d1f46fe	0.038886063
241	0x3d7cada1	0.061689023
242	0xbd7a22a6	-0.0610682
243	0x3df09195	0.117465176
244	0x3dcab4da	0.09897776
245	0xbcc4b6d6	-0.024012964
246	0x3e0f12bd	0.13971992
247	0xbd4192f2	-0.04725928
248	0xba0717dc	-0.00051533966
249	0xbdd3c6b8	-0.10340637
250	0xbdebbbca	-0.11510427
251	0x3e0df51c	0.13863033
252	0x3db15901	0.08659554
253	0x3de22a16	0.110431835
254	0xbdea5158	-0.11441296
255	0x3d0fc70e	0.035101943

layers.2.bias f4 [64]
0	0x00000000	0.0
1	0x00000000	0.0
2	0x00000000	0.0
3	0x00000000	0.0
4	0x00000000	0.0
5	0x00000000	0.0
6	0x00000000	0.0
7	0x00000000	0.0
8	0x00000000	0.0
9	0x00000000	0.0
10	0x00000000	0.0
11	0x00000000	0.0
12	0x00000000	0.0
13	0x00000000	0.0
14	0x00000000	0.0
15	0x00000000	0.0
16	0x00000000	0.0
17	0x00000000	0.0
18	0x00000000	0.0
19	0x00000000	0.0
20	0x00000000	0.0
21	0x00000000	0.0
22	0x00000000	0.0
23	0x00000000	0.0
24	0x00000000	0.0
25	0x00000000	0.0
26	0x00000000	0.0
27	0x00000000	0.0
28	0x00000000	0.0
29	0x00000000	0.0
30	0x00000000	0.0
31	0x00000000	0.0
32	0x00000000	0.0
33	0x00000000	0.0
34	0x00000000	0.0
35	0x00000000	0.0
36	0x00000000	0.0
37	0x00000000	0.0
38	0x00000000	0.0
39	0x00000000	0.0
40	0x00000000	0.0
41	0x00000000	0.0
42	0x00000000	0.0
43	0x00000000	0.0
44	0x00000000	0.0
45	0x00000000	0.0
46	0x00000000	0.0
47	0x00000000	0.0
48	0x00000000	0.0
49	0x00000000	0.0
50	0x00000000	0.0
51	0x00000000	0.0
52	0x00000000	0.0
53	0x00000000	0.0
54	0x00000000	0.0
55	0x00000000	0.0
56	0x00000000	0.0
57	0x00000000	0.0
58	0x00000000	0.0
59	0x00000000	0.0
60	0x00000000	0.0
61	0x00000000	0.0
62	0x00000000	0.0
63	0x00000000	0.0

output_layer.weight f4 [2, 64]
0	0x3e544213	0.2072833
1	0x3cd7f640	0.026362538
2	0xbe81333a	-0.25234395
3	0x3e6ab986	0.22922334
4	0xbe84e11b	-0.25952992
5	0xbe691b4c	-0.22764319
6	0x3e18362b	0.14864413
7	0x3df1f01f	0.118133776
8	0x3e73c8f3	0.23807125
9	0x3e7898e0	0.24277067
10	0xbdbd8cfe	-0.09255408
11	0x3dc5379b	0.096297465
12	0xbe8f65ee	-0.28007454
13	0x3d83c4bb	0.06434008
14	0x3e8da327	0.27663538
15	0xbe5e2086	-0.21692094
16	0x3e5ab5e7	0.21358453
17	0x3ce5acf9	0.028036581
18	0xbe27cc27	-0.16386472
19	0x3e474ec2	0.19463637
20	0xbe038ca9	-0.12846626
21	0xbd608816	-0.05481728
22	0x3dd9c7eb	0.106338345
23	0xbe8bf6ed	-0.27336827
24	0x3e234607	0.15944682
25	0xbd149f6a	-0.03628484
26	0x3dbabfff	0.091186516
27	0xbe82f371	-0.25576356
28	0xbe414d7c	-0.18877214
29	0xbe34f415	-0.17671235
30	0x3d1ec93b	0.038766127
31	0xbe0627ec	-0.13101166
32	0xbe7a049a	-0.24415818
33	0xbcdc339e	-0.026880082
34	0x3dc3cd90	0.09560692
35	0xbd8e851e	-0.06958984
36	0x3e19f1d5	0.15033658
37	0xbe99e8ce	-0.30060428
38	0x3d5d7a44	0.05407168
39	0x3e468867	0.19387971
40	0xbe210c33	-0.1572731
41	0x3a6cafb8	0.00090288697
42	0xbdcd0f68	-0.10012704
43	0x3e19859c	0.14992374
44	0xbe4ff06a	-0.20306554
45	0x3e379cde	0.17930934
46	0xbe818ef4	-0.25304377
47	0x3e8dfdd5	0.2773272
48	0xbe6836a1	-0.2267709
49	0xbe94b1ed	-0.29041997
50	0xbcb4c031	-0.0220643
51	0x3e0342e2	0.12818483
52	0xbdbf3563	-0.093363546
53	0x3deb0c82	0.11476995
54	0x3e6f09e3	0.23343615
55	0xbe8f7868	-0.2802155
56	0x3e862316	0.26198643
57	0x3ddf125d	0.108921744
58	0xbe81cc7d	-0.25351325
59	0x3e86d3cb	0.2633346
60	0x3e411a3a	0.18857661
61	0x3e95dbef	0.2926936
62	0x3cb71556	0.022349041
63	0xbcb4b509	-0.02205898
64	0xbe6875e1	-0.22701217
65	0xbe8fe6a3	-0.2810565
66	0x3dfbef33	0.12301483
67	0x3e5fcead	0.21856184
68	0x3e5716f9	0.21004857
69	0xbd71fffd	-0.05908202
70	0xbc104ae9	-0.0088069225
71	0xbe6940da	-0.22778645
72	0x3e0d5b6e	0.13804409
73	0xbe163226	-0.14667568
74	0xbd841be3	-0.064506315
75	0xbe1529cf	-0.1456673
76	0xbe854e5b	-0.26036343
77	0xbd265cc8	-0.040615827
78	0xbdae7629	-0.08518631
79	0xbe4ce022	-0.20007375
80	0x3e864a41	0.26228526
81	0x3e1fd52a	0.1560866
82	0xbc8582cc	-0.01629772
83	0xbe942921	-0.2893763
84	0xbde9edcf	-0.114223115
85	0xbe480bc5	-0.1953574
86	0xbde2efa4	-0.11080864
87	0x3e82cb2b	0.2554563
88	0x3dfc1986	0.12309556
89	0x3d1111c1	0.035417322
90	0x3e4eb941	0.20187856
91	0xbd50f42f	-0.05101412
92	0x3e662e1b	0.22478525
93	0xbe0d94d2	-0.13826302
94	0xbc9f48c6	-0.01944388
95	0xbc896ccc	-0.016775511
96	0x3c1d88a6	0.009615099
97	0xbe7007a0	-0.23440409
98	0xbd55b3ba	-0.052173354
99	0xbd18f55b	-0.037343364
100	0x3e98189d	0.29706278
101	0x3dbb632c	0.09149775
102	0xbd0ad6af	-0.033896144
103	0xbc911d97	-0.017714305
104	0xbe46db7a	-0.19419661
105	0x3cb6d7ad	0.02231964
106	0xbe50755c	-0.20357269
107	0x3e3d6e11	0.18499018
108	0xbe9893fc	-0.29800403
109	0xbddaa379	-0.10675711
110	0xbdb71cc8	-0.089410365
111	0xbe560785	-0.20901306
112	0xbd967a38	-0.0734753
113	0x3c68f21f	0.014217882
114	0xbe9a4951	-0.3013406
115	0xbe95a9e8	-0.2923119
116	0x3e96242c	0.29324472
117	0xbe998bcf	-0.29989478
118	0x3c67c536	0.01414614
119	0xbdd60ad3	-0.10451283
120	0x3e58db47	0.21177398
121	0x3e94fb3f	0.29097936
122	0x3c8932fb	0.016747942
123	0xbe316d51	-0.17326857
124	0xbdfee763	-0.12446477
125	0x3da1dc45	0.07903341
126	0xbe20a747	-0.15688811
127	0xbdd0fa2d	-0.10203967

output_layer.bias f4 [2]
0	0x00000000	0.0
1	0x00000000	0.0

layers.0.weight f4 [64, 4]
0	0xbc1a692b	-0.009424488
1	0xbdeaf2b7	-0.114720754
2	0xbbe35c0b	-0.0069384626
3	0xbe5d1b99	-0.21592559
4	0x3e96abb5	0.29427877
5	0x3cf66a08	0.030079857
6	0xbce7c8f9	-0.028294073
7	0xbd251444	-0.04030253
8	0x3e62f680	0.22164345
9	0xbe4004fc	-0.18751901
10	0xbd85c18e	-0.06531058
11	0x3e4d10c1	0.20025922
12	0x3ddf98c9	0.10917813
13	0xbd820598	-0.06348723
14	0x3e106995	0.14102776
15	0x3e8fe8a8	0.2810719
16	0x3e924b15	0.28572908
17	0x3ca05061	0.019569578
18	0xbcba71e4	-0.022759385
19	0x3e6a7cdf	0.22899197
20	0x3c2483d4	0.010041196
21	0x3dbce1af	0.09222733
22	0xbe01d8bd	-0.12680335
23	0x3e865d36	0.2624299
24	0xbdbc087d	-0.091813065
25	0x3e25430d	0.16138859
26	0x3d846684	0.06464866
27	0x3e6d1da8	0.23155844
28	0x3e89c12c	0.2690519
29	0x3e2e51c3	0.17023377
30	0xbdfc57ed	-0.12321458
31	0xbe2c1ec9	-0.16808619
32	0xbe459881	-0.19296457
33	0xbd4047b1	-0.04694337
34	0x3c362629	0.0111174965
35	0x3def469d	0.1168339
36	0x3e29433b	0.16529553
37	0x3e48f22f	0.19623636
38	0x3e61b754	0.2204259
39	0x3dfdc87c	0.12391755
40	0x3dbc5bc6	0.09197192
41	0xbe8a6540	-0.27030373
42	0x3de831ec	0.11337647
43	0x3dff1163	0.12454488
44	0xbd28ebf7	-0.04124066
45	0xbe71b6ab	-0.23604839
46	0x3e913f72	0.28368717
47	0x3e2e1961	0.17001869
48	0xbe886cd9	-0.26645544
49	0x3d7260fc	0.059174523
50	0xbe23e17c	-0.16003984
51	0x3e8c7ce8	0.27439046
52	0xbe93ae67	-0.28843996
53	0xbd3df820	-0.04637921
54	0xbdcf5435	-0.10123483
55	0xbe4e3bed	-0.20140047
56	0xbe7242b7	-0.23658262
57	0xbe4c2fa7	-0.19940053
58	0xbe59f275	-0.21283896
59	0x3e8acce7	0.27109453
60	0xbd7bf6b8	-0.061514586
61	0xbe883978	-0.26606345
62	0xbd88ff6c	-0.06689343
63	0xbe746de1	-0.2387004
64	0xbd7d0e92	-0.061781473
65	0x3da42291	0.080144055
66	0x3ba8320e	0.00513292
67	0x3e86bbb6	0.26315087
68	0xbdea972b	-0.11454614
69	0xbe2498dd	-0.16073938
70	0xbe83f815	-0.2577521
71	0xbd6abb64	-0.057307616
72	0x3e6b6b90	0.2299025
73	0xbdef4a37	-0.11684077
74	0x3e1f1776	0.15536293
75	0x3da70afa	0.081563905
76	0xbdba494a	-0.0909601
77	0xbe92050f	-0.28519484
78	0x3d19d78b	0.037559073
79	0xbcceb117	-0.025230927
80	0xbe2d5304	-0.16926199
81	0x3d51cd65	0.05122127
82	0xbe5e004b	-0.216798
83	0xbe890a3d	-0.26765624
84	0x3dbc8f67	0.09207039
85	0x3e540ea2	0.20708707
86	0x3e7d45d3	0.24733667
87	0x3e3fe0b3	0.1873806
88	0xbdc24d70	-0.09487426
89	0x3df83ddb	0.12121173
90	0xbe1e5232	-0.15461043
91	0x3e146361	0.14491035
92	0x3e573c49	0.2101909
93	0xbe499076	-0.19684014
94	0x3da1406e	0.07873617
95	0xbe512788	-0.20425236
96	0x3d91d28f	0.07120239
97	0xbb9d39cc	-0.0047981497
98	0xbdaf5369	-0.08560831
99	0x3e9784a6	0.2959339
100	0xbda79c61	-0.08184124
101	0xbe5d82b8	-0.21631896
102	0xbd55f9d3	-0.052240204
103	0xbc4d48a1	-0.012529523
104	0xbe85c08f	-0.26123473
105	0xbe9780ae	-0.29590362
106	0x3e95acb4	0.29233325
107	0xbe09c881	-0.13455392
108	0x3e78fb83	0.24314694
109	0x3e7f00e9	0.24902691
110	0xbd3eb490	-0.046558917
111	0x3e218dd6	0.15776762
112	0xbe81bd42	-0.25339705
113	0xbe4616e3	-0.19344668
114	0x3d46239d	0.048373807
115	0x3c0947e7	0.008378959
116	0x3b2452d1	0.0025073776
117	0x3dab1d6b	0.083552204
118	0xbe29ce0b	-0.16582505
119	0xbc5f5fd8	-0.013633691
120	0xbd07c4f7	-0.033146825
121	0x3dffa316	0.12482278
122	0x3e44873c	0.19192213
123	0xbe0cdcc0	-0.13756084
124	0xbe8c615f	-0.27418038
125	0xbd8e4536	-0.06946795
126	0xbe2896e6	-0.16463813
127	0xbe55deaa	-0.20885721
128	0xbe6a264b	-0.2286617
129	0xbe90f2aa	-0.28310138
130	0xbe81ec10	-0.25375414
131	0xbd1a7a9e	-0.037714593
132	0x3e087cd1	0.13328864
133	0xbe0ff2ac	-0.14057416
134	0x3e16b1f7	0.14716326
135	0xbe19cb62	-0.1501899
136	0xbe3c2073	-0.18371753
137	0xbe56007f	-0.20898627
138	0xbe6a2e36	-0.2286919
139	0x3d2cc11a	0.042176344
140	0x3e56baf1	0.2096975
141	0x3cbc8892	0.02301434
142	0xbdd3113a	-0.1030602
143	0xbe913293	-0.28358898
144	0xbe103a7c	-0.1408481
145	0x3dc0fa70	0.09422767
146	0x3e41b7ff	0.18917845
147	0xbe4dd2fa	-0.20100012
148	0xbc66a7f2	-0.014078127
149	0xbe57e4ff	-0.21083449
150	0xbdf90138	-0.121584356
151	0x3d53a23d	0.051668394
152	0x3e7eee83	0.24895673
153	0xbe563532	-0.2091873
154	0xbe00c21a	-0.12574044
155	0x3e007d97	0.12547909
156	0xbd2f48b2	-0.042793937
157	0xbe4f06be	-0.20217416
158	0x3e6122d5	0.21985944
159	0xbe88cc33	-0.26718292
160	0x3e921e94	0.28538954
161	0xbe89d11e	-0.26917356
162	0x3dae8681	0.08521748
163	0xbd227d73	-0.03967042
164	0x3e29d538	0.16585243
165	0x398be3a8	0.00026681763
166	0x3e880e85	0.26573578
167	0xbd0e338e	-0.034717135
168	0x3df73a4c	0.12071666
169	0x3cd23808	0.025661483
170	0xbe5abebb	-0.2136182
171	0xbe85ab2d	-0.2610716
172	0x3e749d61	0.2388816
173	0xbe26db97	-0.16294704
174	0x3e839e10	0.2570653
175	0x3e55777a	0.20846358
176	0x3d546a7c	0.051859364
177	0xbe0b1bb1	-0.13584782
178	0x3e3589d9	0.17728366
179	0xbe617039	-0.22015466
180	0x3e614267	0.21997987
181	0xbe375370	-0.17902923
182	0x3c776fa7	0.015102304
183	0x3e82eaf6	0.25569886
184	0x3d2912d7	0.041277733
185	0xbdc698d1	-0.09697116
186	0xbe389f92	-0.18029621
187	0x3e41eaac	0.18937176
188	0xbe39be7a	-0.18139067
189	0xbdd0e181	-0.101992615
190	0x3dfb426a	0.12268527
191	0xbe253e0c	-0.1613695
192	0x3e0a5bbf	0.13511561
193	0xbd8340a1	-0.06408811
194	0xbe87a167	-0.26490328
195	0xbe0eefc3	-0.1395865
196	0x3e36194b	0.17783086
197	0x3decd09f	0.11563229
198	0x3dcfdf1c	0.101499766
199	0xbd9a020a	-0.0751992
200	0x3e928a17	0.2862098
201	0x3e1f6203	0.15564732
202	0xbd53a552	-0.051671334
203	0x3da06448	0.07831627
204	0x3d3b3d71	0.045712892
205	0xbe398a1b	-0.1811909
206	0xbe7a9c27	-0.2447363
207	0xbe68e93e	-0.22745225
208	0x3d2abf11	0.04168612
209	0xbe422984	-0.1896115
210	0xbdffe986	-0.12495713
211	0xbe935c6f	-0.2878146
212	0xbb56e82a	-0.003279219
213	0x3e5c4927	0.2151228
214	0x3e0ec7d4	0.13943416
215	0x3e628231	0.22119977
216	0xbde315e3	-0.11088159
217	0x3e70ee7f	0.23528479
218	0x3d8e7a6b	0.06956943
219	0x3e866552	0.26249176
220	0xbd570f73	-0.052504968
221	0x3b9500f1	0.0045472314
222	0x3e7e20ee	0.24817249
223	0x3d632c42	0.05546213
224	0x3e6595d2	0.22420433
225	0x3e72ffe0	0.23730421
226	0xbe776ee4	-0.24163395
227	0x3e608d03	0.21928792
228	0x3e419d56	0.18907675
229	0x3dafb4b1	0.08579386
230	0x3dbc180c	0.09184274
231	0xbd5af73a	-0.05345843
232	0x3dce007b	0.100586854
233	0x3e70f0e9	0.235294
234	0x3e35f4b8	0.17769134
235	0x3e853f80	0.2602501
236	0xbe102bbe	-0.14079186
237	0x3e3b20cb	0.18274228
238	0x3e22e84d	0.15908928
239	0x3e7f24d1	0.24916388
240	0xbe48da70	-0.19614577
241	0xbe7b1d33	-0.24522857
242	0xbdd52529	-0.10407478
243	0x3e30baaa	0.17258707
244	0x3e8e8f5c	0.2784375
245	0x3e1a7219	0.15082587
246	0x3dde9749	0.10868699
247	0xbdd042d3	-0.10168996
248	0x3e29558e	0.16536543
249	0xbd248836	-0.040168963
250	0xbe8aed9f	-0.27134416
251	0x3de41d58	0.111384094
252	0xbe80e4df	-0.25174615
253	0x3dec1f28	0.1152938
254	0xbd9c4c84	-0.07631782
255	0xbe008144	-0.12549311

layers.0.bias f4 [64]
0	0x00000000	0.0
1	0x00000000	0.0
2	0x00000000	0.0
3	0x00000000	0.0
4	0x00000000	0.0
5	0x00000000	0.0
6	0x00000000	0.0
7	0x00000000	0.0
8	0x00000000	0.0
9	0x00000000	0.0
10	0x00000000	0.0
11	0x00000000	0.0
12	0x00000000	0.0
13	0x00000000	0.0
14	0x00000000	0.0
15	0x00000000	0.0
16	0x00000000	0.0
17	0x00000000	0.0
18	0x00000000	0.0
19	0x00000000	0.0
20	0x00000000	0.0
21	0x00000000	0.0
22	0x00000000	0.0
23	0x00000000	0.0
24	0x00000000	0.0
25	0x00000000	0.0
26	0x00000000	0.0
27	0x00000000	0.0
28	0x00000000	0.0
29	0x00000000	0.0
30	0x00000000	0.0
31	0x00000000	0.0
32	0x00000000	0.0
33	0x00000000	0.0
34	0x00000000	0.0
35	0x00000000	0.0
36	0x00000000	0.0
37	0x00000000	0.0
38	0x00000000	0.0
39	0x00000000	0.0
40	0x00000000	0.0
41	0x00000000	0.0
42	0x00000000	0.0
43	0x00000000	0.0
44	0x00000000	0.0
45	0x00000000	0.0
46	0x00000000	0.0
47	0x00000000	0.0
48	0x00000000	0.0
49	0x00000000	0.0
50	0x00000000	0.0
51	0x00000000	0.0
52	0x00000000	0.0
53	0x00000000	0.0
54	0x00000000	0.0
55	0x00000000	0.0
56	0x00000000	0.0
57	0x00000000	0.0
58	0x00000000	0.0
59	0x00000000	0.0
60	0x00000000	0.0
61	0x00000000	0.0
62	0x00000000	0.0
63	0x00000000	0.0

layers.2.weight f4 [64, 64]
0	0x3ca18d19	0.0197206
1	0x3e1e125d	0.15436693
2	0x3d3968a9	0.045265827
3	0x3e54b71a	0.20772973
4	0xbddc3c1b	-0.10753652
5	0xbd18c8a8	-0.037300736
6	0xbcf66cea	-0.030081231
7	0xbdb937b4	-0.09043828
8	0x3da7325f	0.081639044
9	0xbdd760ff	-0.105165474
10	0x3e4545c0	0.19264889
11	0xbd45fd38	-0.04833719
12	0x3c780662	0.0151382405
13	0x3e29bd0a	0.16576019
14	0xbdf72c83	-0.12069037
15	0xbd9cf860	-0.07664561
16	0x3e4f67e2	0.20254472
17	0xbe3f1f51	-0.1866429
18	0x3e1421f2	0.14466074
19	0xbe2b4c42	-0.16728309
20	0xbd9e9da5	-0.07744912
21	0x3cc5371d	0.024074132
22	0x3e515681	0.20443155
23	0x3db556b2	0.088544264
24	0x3d2b823e	0.041872256
25	0x3e17a8ea	0.1481053
26	0xba77fcdb	-0.00094599806
27	0x3df5dba7	0.12004786
28	0x3e1e1fa7	0.15441762
29	0x3d994124	0.07483128
30	0xbe4f3a48	-0.20237076
31	0x3e229153	0.1587575
32	0x3ddb980d	0.10722361
33	0x3d009b41	0.03139806
34	0x3e3b9a79	0.18320645
35	0x3d82f0b1	0.063935645
36	0xbdfcc360	-0.12341952
37	0xbdad279e	-0.08454822
38	0xbe171773	-0.14755039
39	0xbe15f5c5	-0.14644535
40	0xbe0c721b	-0.13715403
41	0xbced06e1	-0.028933944
42	0xbdc7379d	-0.09727404
43	0x3ccbc1cb	0.024872681
44	0xbe32945d	-0.17439409
45	0x3d19c5ea	0.03754226
46	0x3de67280	0.11252308
47	0x3dae967d	0.08524797
48	0x3dfd0f49	0.12356431
49	0xbd3db0ea	-0.046311297
50	0xbdbaeb99	-0.09126968
51	0xbd57dbeb	-0.052699964
52	0xbe5d5334	-0.2161377
53	0x3e0c08be	0.1367521
54	0x3e227184	0.15863615
55	0xbe423298	-0.18964612
56	0x3e0cd7b9	0.13754167
57	0xbc0b003a	-0.008483941
58	0x3d222d6b	0.039594095
59	0x3e4df193	0.20111685
60	0x3e19e38d	0.1502821
61	0x3de3a788	0.111159384
62	0x3d929b29	0.07158501
63	0xbc388f19	-0.011264586
64	0x3d41df36	0.04733201
65	0xbd56ec45	-0.052471418
66	0xbdf74186	-0.120730445
67	0xbe1f0999	-0.15531005
68	0x3d515d64	0.051114455
69	0xbe40268e	-0.18764707
70	0xbc1c83a4	-0.00955287
71	0xbd7b28dd	-0.061318267
72	0x3c52532e	0.012837214
73	0x3e5af4ef	0.21382497
74	0x3ce74dba	0.028235305
75	0xbe550a04	-0.20804602
76	0xbd64741a	-0.055774786
77	0x3e18983a	0.1490182
78	0xbdb6190d	-0.08891497
79	0x3e5169ba	0.20450488
80	0xbe23e27c	-0.16004366
81	0x3da6f13e	0.08151482
82	0x3dd0cb05	0.10194973
83	0x3ccde9c6	0.025135886
84	0x3e523962	0.20529702
85	0x3d6e0685	0.058111686
86	0xbc687334	-0.014187623
87	0xbd9eb70b	-0.077497564
88	0xbe2e85d8	-0.17043245
89	0xbb0e1c6d	-0.0021684424
90	0xbe5b937f	-0.21442984
91	0xbd5fb456	-0.05461534
92	0xbe445b5e	-0.19175479
93	0xbcaa9022	-0.020820681
94	0xbe3a62e0	-0.1820178
95	0xbe3f08c4	-0.18655688
96	0xbd525312	-0.051348753
97	0x3dcfbba4	0.101432115
98	0xbe59d545	-0.21272762
99	0xbda6474d	-0.08119068
100	0x3dbd5710	0.092451215
101	0x3db78a5b	0.08961936
102	0x3e1c78a0	0.1528039
103	0xbdafef77	-0.08590596
104	0xbdc2719c	-0.094943255
105	0x3e3e5b18	0.18589437
106	0xbdd202bc	-0.10254428
107	0xbdcede9e	-0.101010546
108	0x3d3f5218	0.04670915
109	0xbe3c5590	-0.18392015
110	0xbe23b0a4	-0.15985352
111	0x3dd1a99d	0.10237429
112	0x3d62a10b	0.055329364
113	0x3de8a55a	0.11359663
114	0x3dcd81f9	0.10034556
115	0x3db830ac	0.089936584
116	0x3c005da8	0.007834829
117	0xbda8158a	-0.08207233
118	0xbe072bb2	-0.13200262
119	0x3d0ea542	0.03482557
120	0x3d403535	0.046925742
121	0xbe0ad323	-0.13557105
122	0xbe40c5b6	-0.1882542
123	0xbd7d164f	-0.061788853
124	0xbbef67c0	-0.007306069
125	0xbd0acc66	-0.033886336
126	0x3b2125fc	0.002458929
127	0x3e10f9e9	0.14157833
128	0xbd0ce6c5	-0.034399766
129	0x3e126242	0.14295295
130	0x3dce1b88	0.10063845
131	0x3df53992	0.11973871
132	0xbd0df027	-0.034652855
133	0x3e2bebc0	0.1678915
134	0xbd8f6c00	-0.07003021
135	0xbd5df5d2	-0.05418951
136	0x3db9c804	0.09071353
137	0x3d657e14	0.05602844
138	0xbd98e4fa	-0.07465549
139	0x3dd28955	0.102801
140	0x3e19e4c3	0.15028672
141	0xbe3a8f84	-0.1821881
142	0xbde5c42c	-0.112190574
143	0x3c74c1e9	0.01493881
144	0x3e28bcd5	0.16478284
145	0xbe1d4a4e	-0.15360376
146	0xbe185b2e	-0.14878532
147	0x3dab0602	0.08350755
148	0xbe1cad6b	-0.15300529
149	0x3e585da3	0.2112947
150	0x3e2465ad	0.16054411
151	0xbe08418c	-0.13306254
152	0xbb39e3a9	-0.0028364456
153	0xbd0707eb	-0.032966536
154	0x3bbb7626	0.0057208715
155	0x3d8d2329	0.06891472
156	0xbe4392a9	-0.19098915
157	0xbe21d274	-0.15802938
158	0xbe033f73	-0.12817173
159	0x3e5a9a83	0.21348004
160	0x3d9ebd86	0.077509925
161	0x3e4871a9	0.19574608
162	0xbd011afe	-0.031519882
163	0xbc10cf4d	-0.008838487
164	0xbe0d9b0f	-0.13828681
165	0x3b6f3517	0.003650015
166	0x3e3e1edf	0.18566464
167	0xbe46ffde	-0.19433543
168	0xbd32560b	-0.04353909
169	0x3d453d19	0.04815397
170	0xbe47f2e2	-0.19526246
171	0x3e1a0021	0.15039112
172	0xbe37a12d	-0.17932577
173	0x3e4892ee	0.19587299
174	0x3e375542	0.17903617
175	0x3e3dd9b8	0.18540084
176	0x3e4629d0	0.19351888
177	0x3dff0e79	0.12453932
178	0x3dabf5a4	0.083964616
179	0xbe44d7ce	-0.19222948
180	0x3e234213	0.15943174
181	0x3db1e12f	0.086855285
182	0xbdc4197d	-0.09575174
183	0x3dcd1cef	0.10015284
184	0x3d8f1bbe	0.06987713
185	0xbe0794d8	-0.13240373
186	0x3e1b1496	0.15144572
187	0xbc4e159e	-0.012578396
188	0xbe26546d	-0.16243143
189	0x3d08416b	0.033265512
190	0xbdfa0a90	-0.12209046
191	0x3e4b4f57	0.19854484
192	0xbd613163	-0.05497874
193	0xbe05f0de	-0.13080165
194	0xbddbeec6	-0.10738902
195	0x3e1ce36e	0.15321133
196	0x3ccc43a4	0.024934597
197	0xbdf3b490	-0.11899674
198	0x3e56b6e3	0.20968203
199	0xbd52d24c	-0.051470086
200	0xbe0a5d9e	-0.13512275
201	0x3dff2665	0.12458495
202	0xbd080812	-0.03321082
203	0xbd439379	-0.047748063
204	0x3d552820	0.05204022
205	0xbe25cfd9	-0.16192569
206	0xbbf79c14	-0.0075564478
207	0x3dd96981	0.106158264
208	0xbe2fd8c5	-0.17172535
209	0x3e3861d9	0.18006076
210	0x3e3170c3	0.17328171
211	0xbdbc8ccb	-0.09206542
212	0x3e12827e	0.14307591
213	0x3d9fe96a	0.07808192
214	0x3e37c0cd	0.17944641
215	0xbe1a39f1	-0.15061165
216	0x3df2cee4	0.118558675
217	0x3e5383c2	0.2065573
218	0x3e28fceb	0.1650273
219	0x3e4cf39f	0.20014809
220	0xbe2736c1	-0.1632948
221	0x3a32f9f0	0.0006827405
222	0x3dba5d42	0.09099819
223	0x3dfded0b	0.12398728
224	0x3e303d09	0.17210783
225	0xbe300bb3	-0.17191963
226	0xbb459f79	-0.0030154868
227	0x3e4cdc44	0.200059
228	0x3d00d949	0.03145722
229	0xbe05ebd4	-0.13078243
230	0xb9ca309b	-0.00038564656
231	0xbdcb9d83	-0.09942152
232	0x3e07708b	0.13226525
233	0xbc93b351	-0.01802984
234	0x3d6b3943	0.057427656
235	0x3e44a526	0.19203624
236	0x3e2c0e6b	0.16802375
237	0xbd3cc067	-0.046081927
238	0x3e0bd592	0.1365569
239	0xbe060a3c	-0.13089842
240	0x3ccef92a	0.025265295
241	0xbdd1671f	-0.10224747
242	0xbdec8ff7	-0.115508966
243	0x3da35aa9	0.079762764
244	0x3e08448a	0.13307396
245	0xbe3828f4	-0.17984372
246	0xbb8bf1bd	-0.004270761
247	0xbe196716	-0.1498073
248	0x3e20e38d	0.15711804
249	0x3e560828	0.20901549
250	0xbe57b77f	-0.21066092
251	0x3df8092c	0.121111244
252	0x3d5b2e68	0.053511053
253	0x3d296075	0.041351754
254	0x3e16ba5f	0.14719532
255	0x3defa7c8	0.117019236

layers.2.bias f4 [64]
0	0x00000000	0.0
1	0x00000000	0.0
2	0x00000000	0.0
3	0x00000000	0.0
4	0x00000000	0.0
5	0x00000000	0.0
6	0x00000000	0.0
7	0x00000000	0.0
8	0x00000000	0.0
9	0x00000000	0.0
10	0x00000000	0.0
11	0x00000000	0.0
12	0x00000000	0.0
13	0x00000000	0.0
14	0x00000000	0.0
15	0x00000000	0.0
16	0x00000000	0.0
17	0x00000000	0.0
18	0x00000000	0.0
19	0x00000000	0.0
20	0x00000000	0.0
21	0x00000000	0.0
22	0x00000000	0.0
23	0x00000000	0.0
24	0x00000000	0.0
25	0x00000000	0.0
26	0x00000000	0.0
27	0x00000000	0.0
28	0x00000000	0.0
29	0x00000000	0.0
30	0x00000000	0.0
31	0x00000000	0.0
32	0x00000000	0.0
33	0x00000000	0.0
34	0x00000000	0.0
35	0x00000000	0.0
36	0x00000000	0.0
37	0x00000000	0.0
38	0x00000000	0.0
39	0x00000000	0.0
40	0x00000000	0.0
41	0x00000000	0.0
42	0x00000000	0.0
43	0x00000000	0.0
44	0x00000000	0.0
45	0x00000000	0.0
46	0x00000000	0.0
47	0x00000000	0.0
48	0x00000000	0.0
49	0x00000000	0.0
50	0x00000000	0.0
51	0x00000000	0.0
52	0x00000000	0.0
53	0x00000000	0.0
54	0x00000000	0.0
55	0x00000000	0.0
56	0x00000000	0.0
57	0x00000000	0.0
58	0x00000000	0.0
59	0x00000000	0.0
60	0x00000000	0.0
61	0x00000000	0.0
62	0x00000000	0.0
63	0x00000000	0.0

output_layer.weight f4 [1, 64]
0	0x3dde5762	0.10856511
1	0xbdf7196d	-0.120653965
2	0xbcbe94c5	-0.023264298
3	0x3dbb7314	0.09152809
4	0x3e7fb60e	0.24971792
5	0x3e759b99	0.23985137
6	0x3e60aafc	0.21940225
7	0xbe994667	-0.29936525
8	0xbda98715	-0.08277718
9	0x3ddc6588	0.10761553
10	0x3e493d25	0.19652231
11	0xbe634629	-0.22194733
12	0xbe434a5f	-0.19071339
13	0x3e3e5269	0.18586124
14	0xbdfc18d2	-0.123094216
15	0xbd735372	-0.05940575
16	0xbc515b62	-0.012778135
17	0xbe4055e9	-0.18782772
18	0xbe885099	-0.2662399
19	0xbd93917d	-0.07205484
20	0x3bb79411	0.0056023677
21	0x3db98753	0.09059014
22	0x3dfb9a25	0.1228526
23	0x3d3324d6	0.0437363
24	0x3e18ac52	0.14909485
25	0x3d2d00a3	0.042236935
26	0xbdb81f8b	-0.08990391
27	0x3e89fe5a	0.26951867
28	0xbde9519f	-0.11392521
29	0xbe5c812b	-0.21533649
30	0xbe4e37ef	-0.20138524
31	0x3e26689f	0.16250847
32	0x3bea36ee	0.0071476614
33	0x3d279e80	0.04092264
34	0x3e9020f7	0.2815015
35	0xbe4a41f0	-0.19751716
36	0xbe6c8b50	-0.23100019
37	0xbe1665c5	-0.1468726
38	0xbdd5d9ba	-0.10441919
39	0xbc7878e4	-0.015165541
40	0x3e6ba1a7	0.23010884
41	0x3e6ada65	0.22934873
42	0x3b83624a	0.0040095197
43	0x3e58b144	0.21161371
44	0xbd5e00b7	-0.0541999
45	0x3e6c814c	0.23096198
46	0xbe57d997	-0.21079098
47	0xbe31e9e3	-0.17374377
48	0x3e169e85	0.14708908
49	0x3e5ce3ad	0.21571226
50	0x3e5abde1	0.21361496
51	0x3d730c46	0.059337877
52	0x3e2ea907	0.17056666
53	0x3e554bdf	0.20829724
54	0xbe164ef0	-0.1467855
55	0x3ddeec77	0.10884946
56	0xbe6dc149	-0.23218264
57	0x3cba182c	0.022716604
58	0xbe37268a	-0.17885795
59	0x3e4a329d	0.1974587
60	0x3e95a27a	0.29225522
61	0x3dca3183	0.09872725
62	0x3e184e9c	0.14873737
63	0xbc71236d	-0.014717919

weight f4 [64, 4]
0	0xbe964dda	-0.2935627
1	0xbe8789c3	-0.2647229
2	0xbe52c1fb	-0.2058181
3	0xbc6e615f	-0.014549582
4	0xbdaafa5e	-0.08348535
5	0xbc3f5a9d	-0.011679319
6	0x3e91e3a8	0.28494
7	0x3d87e629	0.066356964
8	0x3db64d71	0.089014895
9	0x3da86329	0.08222038
10	0xbd2b14ea	-0.041767992
11	0xbe0ffebd	-0.14062019
12	0xbdf453da	-0.11930056
13	0x3c99286f	0.018696038
14	0x3e0cb381	0.1374035
15	0xbe795dd7	-0.24352203
16	0xbe80324e	-0.2503838
17	0x3dd7f871	0.10545433
18	0x3df7d24a	0.12100656
19	0xbe6dd593	-0.23226003
20	0x3e241692	0.16024235
21	0x3dca23e1	0.098701246
22	0x3e925731	0.28582147
23	0xbdde6c9f	-0.108605616
24	0x3e7e865c	0.24855942
25	0xbd9e96c5	-0.07743601
26	0x3d0aa90d	0.033852626
27	0xbd2da20a	-0.04239086
28	0x3e4cd1db	0.20001929
29	0xbc45e7b9	-0.012079173
30	0xbcb84c82	-0.02249742
31	0xbe001bb6	-0.12510571
32	0x3dac9407	0.084266715
33	0xbe7703b0	-0.241225
34	0xbe126bfd	-0.14299007
35	0x3dc23c4d	0.09484158
36	0xbe223ce8	-0.15843546
37	0x3e6f8da3	0.23393874
38	0x3e3b1411	0.18269373
39	0x3cdfccdc	0.027319364
40	0x3d6f3cec	0.05840771
41	0x3df05f6a	0.11736949
42	0x3e1bed4b	0.15227239
43	0xbe6dd60e	-0.23226187
44	0xbe00ac75	-0.12565787
45	0x3e02151d	0.12703367
46	0x3da26542	0.0792947
47	0xbe7f1078	-0.24908626
48	0x3d82b7a2	0.063826814
49	0x3e6ffaf0	0.23435569
50	0x3e5f0f2b	0.2178313
51	0x3e4295be	0.19002435
52	0xbe217dc7	-0.15770636
53	0xbdeb0836	-0.114761755
54	0x3c77d9d9	0.0151276225
55	0x3e966526	0.29374045
56	0x3d35b2e8	0.04436007
57	0xbe6650f3	-0.22491817
58	0xbe233c24	-0.1594091
59	0x3d9245ff	0.07142257
60	0x3e8be36c	0.27321947
61	0x3e19d6dd	0.1502337
62	0x3e171636	0.14754567
63	0xbdd7b10f	-0.10531818
64	0xbd69f5ab	-0.057119053
65	0xbd8afb09	-0.067861624
66	0xbb01ddca	-0.0019816034
67	0x3e28532f	0.16437982
68	0xbdf306bc	-0.11866519
69	0xbe02cdd9	-0.12773837
70	0xbe4283b2	-0.1899555
71	0x3e002a8e	0.12516233
72	0x3df6307f	0.12020969
73	0xbdf8b8ed	-0.12144647
74	0x3e91bfd5	0.2846667
75	0x3e76040d	0.24024983
76	0x3e0f644e	0.14003107
77	0xbe144bd6	-0.14482054
78	0xbd8bebae	-0.06832062
79	0x3d2c775d	0.04210602
80	0x3e826324	0.25466263
81	0x3e6f6ee4	0.23382145
82	0x3e3ee3cb	0.18641584
83	0x3d6aa64c	0.0572875
84	0xbe2958c9	-0.16537775
85	0x3e7df5e3	0.2480083
86	0xbe94abd3	-0.2903734
87	0x3e722b74	0.23649389
88	0xbd9e1b67	-0.0772007
89	0xbd3f4cc3	-0.046704065
90	0x3e1f35c8	0.1554786
91	0x3de35230	0.110996604
92	0x3e1bdca1	0.15220882
93	0xbd150c74	-0.03638883
94	0xbdd8f80d	-0.10594187
95	0x3c04a1a5	0.00809518
96	0x3de62df9	0.11239237
97	0x3dc92fb5	0.098235525
98	0xbdb8200b	-0.08990487
99	0xbe702224	-0.23450524
100	0xbd91ba71	-0.07115639
101	0xbe473f65	-0.19457777
102	0x3d051a8b	0.032496016
103	0xbd946763	-0.07246282
104	0x3e3be33f	0.18348406
105	0xbe904fa8	-0.28185773
106	0x3d8917bf	0.06693982
107	0xbd4322e7	-0.047640707
108	0xbe8ddf9b	-0.2770966
109	0xbd3e5efa	-0.046477295
110	0xbe820f54	-0.2540232
111	0x3cc8008f	0.024414329
112	0x3e8381bf	0.25684926
113	0xbe9212f1	-0.28530076
114	0xbe23fd28	-0.1601454
115	0xbcfadb44	-0.030622132
116	0x3da12a64	0.078694135
117	0x3e688447	0.2270671
118	0x3e843795	0.25823656
119	0x3e4b36ac	0.19845074
120	0xbe5e91fa	-0.21735373
121	0x3e5f7da9	0.2182528
122	0x3e009381	0.12556268
123	0x3e6f8581	0.23390771
124	0x3e120b5b	0.14262144
125	0x3e6d97f9	0.23202504
126	0xbe772885	-0.2413655
127	0xbce8fd3a	-0.02844106
128	0xbb972925	-0.004613059
129	0x3e8925d7	0.26786682
130	0xbcae4ef5	-0.021277884
131	0x3dab329e	0.08359264
132	0x3d55421a	0.052064992
133	0xbe5466b3	-0.20742302
134	0xbd6e016d	-0.05810683
135	0x3d9bd07f	0.07608127
136	0x3dee5fe3	0.11639383
137	0x3e58bc8a	0.21165672
138	0xbd1ebb07	-0.038752582
139	0xbcb25c88	-0.021772638
140	0x3c32e4f3	0.010918844
141	0x3e8a4ffa	0.27014142
142	0x3e87af21	0.265008
143	0xbe97191a	-0.29511338
144	0x3d089688	0.033346683
145	0x3dff66f9	0.12470812
146	0x3caa2ebe	0.020774242
147	0xbe9268e6	-0.28595656
148	0x3e22f9e2	0.15915635
149	0xbdfc5cf5	-0.12322418
150	0xbdf49730	-0.11942899
151	0x3d75f206	0.060045265
152	0xbe40bec9	-0.18822779
153	0x3dd234c8	0.102639735
154	0x3e3a73e8	0.18208277
155	0x3e11c2e8	0.14234507
156	0xbe8935d3	-0.26798877
157	0xbe3d4338	-0.18482673
158	0xbe902650	-0.2815423
159	0x3da7a6df	0.08186125
160	0x3e8a6bab	0.2703527
161	0xbe1bf67c	-0.15230745
162	0x3e85a647	0.26103422
163	0xbe0003f5	-0.1250151
164	0xbe53edf5	-0.20696242
165	0xbe0aa37b	-0.13538925
166	0xbdc60774	-0.0966939
167	0x3deda716	0.11604135
168	0xbd5fa577	-0.05460116
169	0x3e072d61	0.13200904
170	0x3e6c588f	0.23080657
171	0xbd0b9ae2	-0.034083255
172	0xbe4f65da	-0.20253697
173	0xbdbb21a6	-0.09137277
174	0xbe51b4b6	-0.20479092
175	0x3cdf715f	0.02727574
176	0xbe498094	-0.19677955
177	0xbdf8797d	-0.12132547
178	0x3dffadba	0.124843076
179	0xbe3ce30d	-0.18445988
180	0x3dd07fa5	0.10180596
181	0xbe556ace	-0.20841524
182	0xbe277453	-0.16352968
183	0xbe24524c	-0.16047019
184	0xbe8160ba	-0.2526911
185	0x3e669107	0.22516261
186	0x3e814466	0.25247496
187	0xbe5082f1	-0.2036245
188	0x3cba23fe	0.02272224
189	0x3dd2b8c3	0.10289147
190	0xbe20279f	-0.15640114
191	0xbe6c021a	-0.23047677
192	0x3e1b3481	0.15156747
193	0xbd2ad3dc	-0.04170595
194	0x3ceecfb9	0.029151784
195	0x3e52de76	0.20592675
196	0x3dcf89ea	0.10133727
197	0xbe29e1da	-0.16590062
198	0xbe73e381	-0.23817255
199	0x3e85be4f	0.26121756
200	0xbd64006c	-0.055664465
201	0x3dc9373f	0.098249905
202	0xbe6a2e33	-0.22869186
203	0x3e610012	0.21972683
204	0xbe7836fa	-0.24239722
205	0x3dd83cd6	0.105584785
206	0x3e1145f4	0.14186841
207	0xbe440155	-0.19141133
208	0x3e1b8678	0.15188015
209	0x3e8243a6	0.25442237
210	0x3e4eab88	0.20182621
211	0x3d200414	0.03906639
212	0xbe09197b	-0.13388626
213	0x3ce69f2f	0.028152077
214	0x3e6a4213	0.22876768
215	0xb9cd9c3f	-0.0003921706
216	0x3e34d2ce	0.1765854
217	0xbc956f38	-0.01824151
218	0x3d1b9f78	0.037993878
219	0x3df81dd0	0.12115061
220	0x3e3085d9	0.17238559
221	0x3e800826	0.25006217
222	0xbe0f54e5	-0.13997228
223	0xbe4b5802	-0.19857791
224	0xbd4720e2	-0.048615344
225	0x3e2421aa	0.16028467
226	0xbcb7db09	-0.022443311
227	0xbdb6c870	-0.08924949
228	0xbd6d9c5b	-0.05801044
229	0x3cc0398b	0.023464939
230	0x3e67b709	0.22628416
231	0xbdb5d3b1	-0.088782676
232	0x3dec5ad8	0.115407646
233	0xbe921312	-0.28530174
234	0xbe854f13	-0.2603689
235	0xbc91cd52	-0.0177981
236	0xbe3b83dc	-0.18312019
237	0x3d979bc5	0.074027576
238	0x3e84dbf1	0.25949052
239	0xbe238172	-0.15967348
240	0xbe26801c	-0.16259807
241	0x3e908af0	0.28231
242	0xbd4e72dc	-0.050402507
243	0xbe6a9ecf	-0.22912143
244	0xbe968a06	-0.2940218
245	0x3e5c9006	0.21539316
246	0x3bdc3a1d	0.006720795
247	0xbd85b0e2	-0.06527878
248	0x3e8bbf5f	0.27294442
249	0x3dd148e0	0.10218978
250	0xbe3d9ab7	-0.1851605
251	0x3d52bd55	0.051450092
252	0x3de6512c	0.11245951
253	0x3e3581cd	0.17725296
254	0xbe922529	-0.28543976
255	0x3b8240b5	0.003974999

bias f4 [64]
0	0x00000000	0.0
1	0x00000000	0.0
2	0x00000000	0.0
3	0x00000000	0.0
4	0x00000000	0.0
5	0x00000000	0.0
6	0x00000000	0.0
7	0x00000000	0.0
8	0x00000000	0.0
9	0x00000000	0.0
10	0x00000000	0.0
11	0x00000000	0.0
12	0x00000000	0.0
13	0x00000000	0.0
14	0x00000000	0.0
15	0x00000000	0.0
16	0x00000000	0.0
17	0x00000000	0.0
18	0x00000000	0.0
19	0x00000000	0.0
20	0x00000000	0.0
21	0x00000000	0.0
22	0x00000000	0.0
23	0x00000000	0.0
24	0x00000000	0.0
25	0x00000000	0.0
26	0x00000000	0.0
27	0x00000000	0.0
28	0x00000000	0.0
29	0x00000000	0.0
30	0x00000000	0.0
31	0x00000000	0.0
32	0x00000000	0.0
33	0x00000000	0.0
34	0x00000000	0.0
35	0x00000000	0.0
36	0x00000000	0.0
37	0x00000000	0.0
38	0x00000000	0.0
39	0x00000000	0.0
40	0x00000000	0.0
41	0x00000000	0.0
42	0x00000000	0.0
43	0x00000000	0.0
44	0x00000000	0.0
45	0x00000000	0.0
46	0x00000000	0.0
47	0x00000000	0.0
48	0x00000000	0.0
49	0x00000000	0.0
50	0x00000000	0.0
51	0x00000000	0.0
52	0x00000000	0.0
53	0x00000000	0.0
54	0x00000000	0.0
55	0x00000000	0.0
56	0x00000000	0.0
57	0x00000000	0.0
58	0x00000000	0.0
59	0x00000000	0.0
60	0x00000000	0.0
61	0x00000000	0.0
62	0x00000000	0.0
63	0x00000000	0.0
