experiments/ppo_acrobot_first_try_20250829_045439/checkpoints/final.pt (torch, 682585 bytes, 44 tensors)

layers.0.weight f4 [128, 6]
0	0xbdb56d5d	-0.0885875
1	0x3dc814ec	0.097696155
2	0xbe280d19	-0.16411246
3	0xbd8b98c3	-0.06816246
4	0xbde6b0c9	-0.11264188
5	0x3bb42e53	0.0054986863
6	0xbdda2018	-0.10650653
7	0xbdb19d5e	-0.086725935
8	0x3d5a5fc2	0.053313978
9	0xbe25437d	-0.16139026
10	0xbd1d7dc5	-0.03845002
11	0xbddd662e	-0.10810505
12	0x3e2e72a2	0.17035916
13	0xbd82cff3	-0.063873194
14	0x3de98c63	0.1140373
15	0x3cd4f381	0.025995018
16	0xbe2fc367	-0.17164384
17	0xbe345e20	-0.17614031
18	0xbc9e1f91	-0.019302161
19	0x3e1438b6	0.14474759
20	0xbdf71b8f	-0.12065803
21	0x3d852faf	0.065032355
22	0xbb9f799d	-0.0048667924
23	0x3e032e0f	0.12810539
24	0xbe1ce503	-0.15321736
25	0x3dce4f4a	0.10073717
26	0xbdd4ca28	-0.10390121
27	0x3c148f38	0.009067349
28	0xbe0509bd	-0.12991996
29	0x3db80233	0.089847945
30	0x3e012e66	0.12615356
31	0xbb3eb872	-0.0029101637
32	0x3d985ded	0.0743979
33	0x3cc67168	0.024223998
34	0xbda9fb7a	-0.082999185
35	0x3e0f3f36	0.13988957
36	0xbe2eb52d	-0.170613
37	0xbde3c2d2	-0.111211434
38	0x3e29215a	0.16516629
39	0xbe3d1e64	-0.18468624
40	0xbe19890f	-0.1499369
41	0x3d5bfc83	0.05370761
42	0xbe7d19f6	-0.24716935
43	0x3d096b69	0.0335497
44	0xbe0fc429	-0.14039673
45	0x3e075b4b	0.13218419
46	0x3dbeb643	0.093121074
47	0xbd7865e0	-0.06064403
48	0x3e02dff1	0.1278074
49	0xbdfe5f82	-0.124205604
50	0x3e410c26	0.1885229
51	0x3e207b31	0.15671994
52	0xbe2c0660	-0.16799307
53	0x3d83356d	0.064066745
54	0xbe1d8eb9	-0.15386476
55	0x3e326ee1	0.1742511
56	0xbe145dcd	-0.14488907
57	0x3e2fe41b	0.17176859
58	0xbe1df708	-0.15426266
59	0x3cab8c1a	0.020940829
60	0xbd5fb90e	-0.05461984
61	0xbde8a005	-0.11358646
62	0x3c832f72	0.016013835
63	0x3e456b5e	0.19279239
64	0x3c7bd456	0.015370449
65	0x3e4410ba	0.19147006
66	0xbdf1abeb	-0.11800369
67	0x3dbd02b7	0.092290334
68	0x3e3c1311	0.18366648
69	0x3d399f46	0.04531791
70	0x3da19103	0.07888987
71	0xbdb95a89	-0.09050471
72	0xbe2de7a8	-0.16982901
73	0xbe0df02a	-0.13861147
74	0x3e2baf91	0.16766192
75	0xbd3d9a8d	-0.04628997
76	0x3e214158	0.15747583
77	0x3c9fae5b	0.019492319
78	0x3e566341	0.209363
79	0xbd68a4a6	-0.056797646
80	0x3e294539	0.16530313
81	0x3e2152f6	0.15754303
82	0x3de55d92	0.11199488
83	0x3ded8b04	0.11598781
84	0xbd14c44e	-0.036320023
85	0x3e53f02a	0.20697084
86	0x3c8ca8b3	0.017170286
87	0x3e24952a	0.16072527
88	0xbe5e7480	-0.21724129
89	0x3d93a0a7	0.072083764
90	0xbb72bf56	-0.0037040315
91	0xbce0e3a0	-0.02745229
92	0x3d4ebff6	0.050476037
93	0xbdf8335e	-0.121191725
94	0x3d8cc918	0.06874293
95	0xbde82fa6	-0.11337213
96	0xbddf4fe8	-0.10903913
97	0x3e186b88	0.1488477
98	0x3e28ac0d	0.16471882
99	0x3e180175	0.14844306
100	0x3d70a33d	0.058749426
101	0x3d7bffa3	0.06152309
102	0x3def1142	0.116732135
103	0xbe0ce49d	-0.13759084
104	0x3d82a094	0.06378284
105	0xbdf73415	-0.12070481
106	0x3d839683	0.06425192
107	0xbe07f6e8	-0.13277781
108	0xbe139ce5	-0.1441532
109	0xbcf7f5d0	-0.03026858
110	0xbc13d214	-0.0090222545
111	0xbe564c02	-0.20927432
112	0x3debc608	0.11512381
113	0xbe2e3e41	-0.17015935
114	0x3e2bf86e	0.16793987
115	0x3cbbede2	0.02294058
116	0x3e14fb7a	0.14549056
117	0x3e086d22	0.13322881
118	0x3df65ff0	0.120300174
119	0xbd0a32fc	-0.03374003
120	0x3d85b286	0.06528191
121	0x3ca0fffc	0.019653313
122	0xbe54762b	-0.20748203
123	0x3e62833c	0.22120374
124	0x3d8e559d	0.06949923
125	0xbb6d04eb	-0.0036166261
126	0x3e5179cf	0.20456623
127	0xbd975f31	-0.07391203
128	0xbe0a301f	-0.13494919
129	0xbe1024af	-0.14076494
130	0xbd9afb89	-0.07567508
131	0x3d8215b5	0.063517965
132	0x3e50362b	0.20333163
133	0x3d88ffbe	0.06689404
134	0xbd486806	-0.04892733
135	0x3cd36b36	0.025807958
136	0x3decf201	0.11569596
137	0x3d4f1507	0.050557163
138	0xbc53365d	-0.012891379
139	0x3e2c03cc	0.16798323
140	0x3e1c42b1	0.15259816
141	0x3d05f13b	0.03270076
142	0xbd1812c8	-0.037127286
143	0xbdcb2d66	-0.099207684
144	0x3c4018b2	0.011724638
145	0x3cbfb183	0.023400074
146	0xbd9baae6	-0.07600956
147	0x3e46fcdb	0.19432394
148	0x3dcdb704	0.10044673
149	0xbd0dd69c	-0.034628496
150	0x3dc6a442	0.096992984
151	0xbd800c25	-0.062523164
152	0x3d914b33	0.07094421
153	0x3b7580d2	0.0037460816
154	0xbdddb85c	-0.108261794
155	0xbc61db37	-0.013785175
156	0xbe4c200b	-0.19934098
157	0xbe2761dc	-0.16345924
158	0x3dec81fc	0.1154823
159	0xbd302e85	-0.043013114
160	0xbd5c719b	-0.05381928
161	0x3d092006	0.033477806
162	0xbe385bbd	-0.18003745
163	0x3dbb2dd0	0.091395974
164	0x3e3af7ac	0.18258542
165	0xbd3c9397	-0.04603919
166	0x3ab5a819	0.0013859301
167	0x3d161ff1	0.036651555
168	0x3d88bcd7	0.06676643
169	0xbe1b45fc	-0.15163416
170	0xbe124e62	-0.14287713
171	0xbda78c3e	-0.08181046
172	0xbdf5fa97	-0.12010687
173	0x3dc02dd1	0.09383739
174	0x3d217832	0.039421268
175	0xbe0a6418	-0.13514745
176	0xbdf902ef	-0.12158763
177	0xbc988725	-0.01861913
178	0x3e2fcbc5	0.17167576
179	0xbd174035	-0.036926467
180	0xbdac1d08	-0.08403975
181	0x3e116780	0.14199638
182	0x3dd3a9cd	0.10335121
183	0x3c46bebb	0.012130435
184	0xbbbc9e51	-0.0057561775
185	0x3c201cd4	0.009772498
186	0x3e62d052	0.2214978
187	0xbdea746a	-0.114479855
188	0x3d3eaefb	0.046553593
189	0xbe3cab92	-0.18424824
190	0xbe248e22	-0.16069844
191	0x3e2c20f6	0.16809449
192	0xbe1afc8e	-0.15135404
193	0x3d2652f4	0.040606454
194	0xbd60232e	-0.05472105
195	0x3e0f3b69	0.13987507
196	0xbe1d5b34	-0.15366822
197	0xbe2b43f4	-0.16725141
198	0xbe5f6774	-0.21816808
199	0x3d0ad8ac	0.03389804
200	0xbcf75af2	-0.030194733
201	0xbe271f5c	-0.16320556
202	0x3dcf3075	0.10116664
203	0x3e2473b5	0.16059764
204	0xbd9023b0	-0.07038057
205	0xbd8f719c	-0.07004091
206	0x3e12cda8	0.14336264
207	0x3d59589a	0.053063013
208	0xbd96c35c	-0.073614806
209	0xbd8e863d	-0.06959198
210	0xbcc7edf8	-0.024405465
211	0xbdb5bd9b	-0.08874055
212	0x3d91f734	0.071272284
213	0x3de524a9	0.11188633
214	0x3c0c3581	0.008557678
215	0x3e116aae	0.14200851
216	0x3e1ec5fb	0.15505211
217	0x3e3d5aea	0.18491712
218	0x3c22a397	0.009926698
219	0xbe0001c5	-0.12500675
220	0xbe1de68a	-0.15419975
221	0xbe3026d7	-0.17202316
222	0xbd6c4569	-0.057683382
223	0xbe1d0313	-0.15333204
224	0xbdc53f34	-0.09631196
225	0x3dd27ac9	0.10277326
226	0xbe02007c	-0.12695497
227	0xbcfd4008	-0.030914322
228	0x3c680d39	0.014163309
229	0x3e1d73d0	0.1537621
230	0x3db3f7f1	0.087875254
231	0x3dc62fcc	0.09677085
232	0x3c5a2534	0.013314534
233	0xbd92f526	-0.071756646
234	0x3bd75519	0.0065714237
235	0xbcfc9fa4	-0.030837841
236	0x3d4d414e	0.050111108
237	0xbe12cca8	-0.14335883
238	0x3d646cae	0.055767708
239	0x3d575299	0.052569006
240	0x3cdcb6ae	0.026942577
241	0x3e46741c	0.1938023
242	0xbc66b070	-0.014080152
243	0x3e32153c	0.17390913
244	0xbade7212	-0.0016971251
245	0xbd10c6e2	-0.03534592
246	0x3df2f446	0.11862998
247	0xbe476021	-0.19470264
248	0xbd680eca	-0.05665473
249	0xbe25ecbd	-0.1620359
250	0x3e160d67	0.1465355
251	0xbdae75da	-0.08518572
252	0x3dd16308	0.10223967
253	0x3de92dc6	0.11385684
254	0x3e04ee82	0.12981609
255	0x3ce1a4f1	0.02754447

layers.0.bias f4 [128]
0	0xbb2735fc	-0.0025514355
1	0x3c131c6b	0.008978943
2	0x3ca60b79	0.020269142
3	0x3d40172a	0.04689709
4	0x3b8db901	0.0043250327
5	0x3cc9d352	0.024636898
6	0x3cd94874	0.026523806
7	0xbda706de	-0.08155607
8	0x3cd4ee9e	0.025992688
9	0xbc26fa9f	-0.010191589
10	0xbc3e521e	-0.011616258
11	0x3cee6a8b	0.029103538
12	0xbb6dcb57	-0.003628453
13	0xbd4a75bf	-0.049428698
14	0x3d6d0e94	0.05787523
15	0xbbc2bb73	-0.005942756
16	0xbba2afca	-0.0049648033
17	0xbc24473c	-0.010026749
18	0xbbd5866d	-0.006516269
19	0xbb3ea5fc	-0.0029090634
20	0xbd813439	-0.06308789
21	0xbc3b29e9	-0.011423566
22	0x3c98b1ec	0.018639527
23	0xbc667de5	-0.0140681015
24	0xbc370e38	-0.011172824
25	0x3c812c25	0.01576812
26	0xbb1b08e4	-0.0023656422
27	0x3ca7aed1	0.020469101
28	0x3c63bd1d	0.013900069
29	0x3cb9e152	0.022690449
30	0xbcfb6117	-0.030685944
31	0x3c7c90cd	0.015415383
32	0xbca64515	-0.020296613
33	0x3c96033f	0.018312095
34	0xbc45be3f	-0.012069284
35	0xbc82fe9a	-0.015990544
36	0x3b7f67e4	0.0038971836
37	0xbb1c38a5	-0.0023837474
38	0x3c970a65	0.018437574
39	0x3d07f06c	0.03318827
40	0xbb3b10f9	-0.0028544052
41	0xbbff88b0	-0.007798277
42	0xbc4790f7	-0.012180558
43	0xbcec6396	-0.02885608
44	0x3d62f0df	0.055405494
45	0xbc03bcb0	-0.008040592
46	0xbcb07062	-0.021537963
47	0x3d1691df	0.036760207
48	0x3d5ebc17	0.054378595
49	0x3caa2247	0.020768298
50	0xbccbd760	-0.024882972
51	0x3cc53fb7	0.024078233
52	0xbc94a3c4	-0.018144496
53	0xbc664f99	-0.0140570635
54	0xbd1c7bdb	-0.038204055
55	0x3c8f6cb8	0.017507896
56	0x3c87ae04	0.01656247
57	0x3cefd869	0.029277997
58	0x3cc46c04	0.023977287
59	0xbd1e742b	-0.038685005
60	0x3c93846e	0.018007483
61	0xbbdafe77	-0.0066831666
62	0xbbf72a96	-0.0075429184
63	0x3d2d5391	0.042316023
64	0xbc2eff5c	-0.010681
65	0xbafd47f4	-0.0019323812
66	0x3b5f21bb	0.0034047205
67	0x3d208bb3	0.039195728
68	0xbd2fbd0e	-0.042904906
69	0x3ccc0033	0.024902439
70	0xbcb8ae62	-0.02254409
71	0xbb551bd1	-0.00325178
72	0xbca32d32	-0.019919012
73	0x3c652787	0.013986475
74	0xbb7b52c5	-0.0038348895
75	0xbd085c27	-0.03329101
76	0xbc9577d2	-0.018245611
77	0xb9046309	-0.00012625394
78	0x3c383158	0.011242233
79	0x3d0c942b	0.03432099
80	0x3bd89909	0.00661004
81	0x3d1bcafd	0.03803538
82	0xbd9cf8df	-0.07664656
83	0x3cf94619	0.030428933
84	0x3b8848da	0.004159075
85	0x3d27ea6f	0.040995058
86	0xba994e61	-0.0011696332
87	0xbcf295c5	-0.029612431
88	0x3ce2840e	0.02765086
89	0x3cb47577	0.022028668
90	0x3d1047fc	0.0352249
91	0xbcdac046	-0.026703011
92	0x3c994f95	0.018714705
93	0x3c2768c9	0.010217854
94	0xbb173ef6	-0.00230783
95	0x3c3d7d9c	0.011565592
96	0x3c2fa279	0.010719889
97	0x3ab6b32e	0.0013938898
98	0x3d0b0c72	0.033947416
99	0xbc816b68	-0.015798286
100	0x3bdc8d37	0.0067307013
101	0x3c53abac	0.012919348
102	0x3cb14e47	0.02164377
103	0x3cc17c47	0.02361883
104	0x3ca27db1	0.019835325
105	0xbc1e318c	-0.009655368
106	0x3de0e8af	0.10981881
107	0xbc254609	-0.010087498
108	0xbc3a462a	-0.0113692675
109	0xbbc280c2	-0.0059357593
110	0xbbf607be	-0.007508247
111	0xbc969dd8	-0.018385813
112	0xbcf316d0	-0.029673964
113	0x3c916bc5	0.017751584
114	0x3d6bffe7	0.057617094
115	0xbb4246db	-0.0029644284
116	0x3c887218	0.016655967
117	0x3ca49224	0.020089217
118	0xbd6d924f	-0.05800086
119	0x3beeb756	0.007285039
120	0x3c06b1d4	0.0082211085
121	0xbc8e92f8	-0.017404065
122	0x3cac88f8	0.021061406
123	0xbc4d3942	-0.012525858
124	0x3a9b2aef	0.0011838357
125	0x3a855c33	0.0010174572
126	0x3c0a1481	0.00842774
127	0x3d42c963	0.04755534

layers.2.weight f4 [128, 128]
0	0xbcab6436	-0.020921808
1	0xbe0d2061	-0.13781883
2	0x3d611b09	0.054957423
3	0xbe08a171	-0.13342835
4	0xbe10ce17	-0.14141117
5	0xbd05a978	-0.03263232
6	0xbdb4c082	-0.088257805
7	0xbcd3f618	-0.025874183
8	0x3d4481d7	0.047975387
9	0xbdc2284f	-0.094803445
10	0x3ddfeac8	0.10933453
11	0x3e07a3cf	0.13246082
12	0xbe189281	-0.14899637
13	0x3dded9bf	0.108813755
14	0xbdb36710	-0.08759892
15	0x3e11b81d	0.1423039
16	0xbdc78495	-0.09742085
17	0x3d4cbb01	0.04998303
18	0xbcd0c731	-0.025485607
19	0xbe230788	-0.15920842
20	0x3e0e1ec6	0.13878927
21	0x3d9f8148	0.0778833
22	0xbdbedbce	-0.09319268
23	0x3debef59	0.11520261
24	0x3cca7565	0.024714181
25	0x3d24565a	0.040121414
26	0xbd8224a7	-0.06354647
27	0xbddaada6	-0.10677652
28	0xbd1e1fcf	-0.038604554
29	0xbb8e9c73	-0.0043521463
30	0x3ddc6651	0.10761703
31	0xbd67eb34	-0.05662079
32	0x3d8c7eff	0.0686016
33	0x3dbca752	0.09211601
34	0xbe1e4e76	-0.15459618
35	0xbc6d08f2	-0.014467465
36	0xbe033147	-0.12811767
37	0xbcba281b	-0.022724202
38	0xbc88b495	-0.01668767
39	0x3e0bcb5b	0.13651793
40	0xbccde609	-0.025134103
41	0xbb2128e0	-0.0024591014
42	0xbdc7e6f7	-0.0976085
43	0xbc7d8036	-0.015472462
44	0x3d7a7d61	0.061154727
45	0xbcac0d08	-0.021002308
46	0x3b1d4e28	0.0024002884
47	0x3dcddd73	0.10052004
48	0x3d70bd5a	0.05877433
49	0x3d3f43af	0.046695407
50	0x3daef881	0.08543492
51	0x3d0bc965	0.03412761
52	0xbdd0aee5	-0.101896085
53	0xbe0578c2	-0.13034347
54	0x3df16ef8	0.11788744
55	0xbd83b2c5	-0.06430582
56	0xbdadf8e0	-0.08494735
57	0xbdc54b30	-0.096334815
58	0x3dd42e65	0.103604116
59	0x3c97c132	0.01852474
60	0x3dea6549	0.114451
61	0x3c366c46	0.011134213
62	0xbda280ab	-0.07934698
63	0x3e11d6cc	0.14242095
64	0x3de36531	0.11103285
65	0xbd550d94	-0.052014902
66	0xbdd1ded0	-0.10247576
67	0x3dee37b5	0.11631719
68	0xbd6cedf7	-0.05784413
69	0x3d8ea3a0	0.06964803
70	0xbdb362ff	-0.087591164
71	0xbd34dbf0	-0.04415506
72	0xbe116b8d	-0.14201184
73	0xbe197553	-0.14986162
74	0xbe0c909b	-0.13727038
75	0xbdf60118	-0.12011927
76	0xbd91b707	-0.07114988
77	0xbdd751e2	-0.10513665
78	0x3dd72358	0.10504788
79	0xbb8fbf86	-0.004386845
80	0x3c0fb305	0.008770709
81	0x3daf8b3f	0.08571481
82	0xbbb4e44a	-0.0055203782
83	0xbd8fcf9e	-0.07022022
84	0x3e141958	0.14462793
85	0xbe14b726	-0.1452299
86	0x3df72544	0.12067655
87	0x3e15d0e4	0.14630467
88	0x3d780244	0.060549036
89	0xbc133545	-0.008984868
90	0xbd852cce	-0.065026864
91	0x3cf83920	0.030300677
92	0xbda69a01	-0.08134843
93	0xbe128378	-0.14307964
94	0x3df555fb	0.1197929
95	0xbe024006	-0.12719736
96	0xbdde525b	-0.10855552
97	0xbe1a367f	-0.15059851
98	0x3dedb68c	0.11607084
99	0x3e1209fa	0.14261618
100	0x3bdc5505	0.0067240023
101	0xbb9de186	-0.0048181443
102	0xbd9ccd5c	-0.07656357
103	0x3cd2f377	0.025750859
104	0xbdf337f6	-0.11875908
105	0x3e0dd757	0.13851677
106	0x3df41dd5	0.119197525
107	0x3d479c45	0.048733015
108	0xbd840433	-0.064461134
109	0x3da697a5	0.08134393
110	0x3d253225	0.040331025
111	0xbe03d712	-0.12875012
112	0x3d13d34b	0.036090177
113	0xbd975df7	-0.07390969
114	0xbdd9cda5	-0.10634927
115	0x3ce20ea5	0.027594874
116	0x3cb5788d	0.02215221
117	0xbdec76fc	-0.11546132
118	0x3d17b0a1	0.03703368
119	0xbe0280b9	-0.12744416
120	0xbe0d620f	-0.13806938
121	0xbdccfd1f	-0.100092165
122	0x3e0bed83	0.13664822
123	0x3dda095d	0.10646317
124	0x3c50f85e	0.012754528
125	0xbd174d7a	-0.03693912
126	0x3cde89ca	0.027165312
127	0xbe19395f	-0.14963292
128	0x3ca97eb8	0.020690307
129	0x3cd51732	0.026012037
130	0xbd8dce86	-0.06924157
131	0x3de21d6c	0.11040768
132	0x3ca3ba6c	0.019986354
133	0x3c98ba44	0.018643506
134	0xbdf86648	-0.121288836
135	0xbc137f55	-0.009002526
136	0x3df790ae	0.12088142
137	0x3dfe1516	0.124063656
138	0xbd6860e7	-0.05673304
139	0x3b957657	0.0045612263
140	0xbdd419f2	-0.10356511
141	0x3df96bf4	0.121787935
142	0xbd8def95	-0.06930462
143	0xbb6bfd29	-0.003600905
144	0x3d7522f3	0.059847783
145	0xbda0c174	-0.07849398
146	0xbe0bd452	-0.13655213
147	0x3b5af4f5	0.0033410166
148	0xbd6cb471	-0.05778927
149	0x3e14eb1a	0.14542809
150	0x3d9cfd86	0.07665543
151	0x3d78ce2f	0.060743507
152	0xbd2b0570	-0.041753232
153	0xbdda9bb2	-0.10674228
154	0xbd9ddd7a	-0.07708259
155	0xbdebc0a2	-0.11511351
156	0x3bb3705a	0.00547604
157	0xbe0a449b	-0.13502733
158	0x3d089ebf	0.033354517
159	0xbd4f6347	-0.050631788
160	0xbe1844f3	-0.14870052
161	0x3dc9e5de	0.09858297
162	0xbd638264	-0.055544272
163	0xbe148207	-0.14502726
164	0xbd974b46	-0.07387404
165	0xbd76908e	-0.06019645
166	0xbdffb2e0	-0.124852896
167	0x3e0316a7	0.1280161
168	0x3cff59f6	0.031170826
169	0xbdf08041	-0.117432125
170	0xbdd61fbf	-0.10455274
171	0xbdcec0e0	-0.10095382
172	0x3d9d63f4	0.0768508
173	0xbca761d5	-0.020432392
174	0xbd9e2a40	-0.07722902
175	0x3e023211	0.12714411
176	0xbe1fefe2	-0.15618852
177	0x3ce0be3a	0.027434457
178	0x3cb6a9be	0.022297736
179	0x3d52c610	0.05145842
180	0x3da1df40	0.0790391
181	0x3ce1de1e	0.027571734
182	0xbd8afb8a	-0.067862585
183	0x3de88e21	0.11355234
184	0x3c2c0ed0	0.010501578
185	0xbdf40c6c	-0.11916432
186	0xbd735f10	-0.05941683
187	0x3d1aa892	0.037758417
188	0x3cf6f483	0.03014589
189	0x3d30cd15	0.04316433
190	0xbdb6196f	-0.0889157
191	0xbd4a40ce	-0.04937821
192	0x3e0233ba	0.12715045
193	0xbd5e7ec7	-0.054320123
194	0x3daffd18	0.08593196
195	0x3d880c87	0.066430144
196	0xbdf6878a	-0.12037571
197	0xbd9e79be	-0.07738064
198	0xbccd7d71	-0.02508423
199	0xbde559c5	-0.11198763
200	0xbcadf930	-0.021236986
201	0xbe16361d	-0.1466908
202	0xbd207576	-0.03917452
203	0x3d804e9c	0.062649935
204	0x3e29636d	0.16541834
205	0xbdb90359	-0.09033842
206	0x3daa88ca	0.08326872
207	0xbb91c664	-0.004448699
208	0x3e1fe1d9	0.15613498
209	0x3df37040	0.11886644
210	0x3e10fd28	0.14159071
211	0x3e0357da	0.12826481
212	0x3c9d3c8f	0.019193916
213	0x3b6f1ea7	0.0036486776
214	0x3de4f8d5	0.111802734
215	0x3d6e7cad	0.05822437
216	0x3d954039	0.0728764
217	0x3dc1bbcc	0.094596475
218	0x3dd00bbb	0.101584874
219	0x3dc4046d	0.09571157
220	0x3e05a239	0.13050164
221	0xbe17cf6f	-0.14825223
222	0x3d71e82d	0.05905931
223	0xbcf904fa	-0.03039788
224	0x3d5bd8f2	0.053673692
225	0xbc2e3c83	-0.010634544
226	0x3e242738	0.16030586
227	0xbe09bf06	-0.13451776
228	0x3ccb2af0	0.024800748
229	0xbe070c97	-0.13188396
230	0x3c5aad90	0.013347045
231	0xb9db9d59	-0.00041888168
232	0xbd22e3bb	-0.039767962
233	0x3e06ece1	0.131763
234	0xbdabf810	-0.083969235
235	0x3dbeb47c	0.093117684
236	0xbdee1e09	-0.116268225
237	0xbd16f6cd	-0.03685646
238	0x3d584e59	0.052809093
239	0x3d997017	0.074920826
240	0x3e1fd9ff	0.15610503
241	0x3de83836	0.113388464
242	0x3defdc74	0.1171197
243	0xbd8d80e4	-0.069093496
244	0x3e0f30b0	0.13983417
245	0xbe073fd3	-0.13207941
246	0xbd3f0ce5	-0.046643157
247	0x3d2d740b	0.042346995
248	0x3df48965	0.119402684
249	0xbdc64e6e	-0.09682928
250	0xbd33aa85	-0.043863792
251	0x3d93b5e6	0.07212429
252	0xbcede844	-0.029041417
253	0xbd229555	-0.039693195
254	0x3df4817f	0.11938762
255	0xbdd2d1f8	-0.102939546

layers.2.bias f4 [128]
0	0x3d1e8d6d	0.038709093
1	0xbcdde1d7	-0.027085228
2	0x3cfc5faf	0.030807344
3	0xbd2e1c81	-0.042507652
4	0x3c84b186	0.016197931
5	0x3cbfd4f9	0.023416983
6	0x3cb2969f	0.021800337
7	0xbcd4bcdc	-0.025968961
8	0x3c0eda7f	0.008719086
9	0x3d25affc	0.040451035
10	0xbd25525f	-0.04036176
11	0xbd012fa2	-0.031539567
12	0xba75558c	-0.0009358756
13	0xbb80e253	-0.00393323
14	0xbd02fc66	-0.031978987
15	0xbd35693c	-0.044289812
16	0xbcec23cb	-0.028825661
17	0xbcfdc436	-0.03097735
18	0xbc088189	-0.008331665
19	0x3d25b530	0.040455997
20	0x3d0acdc0	0.033887625
21	0x3cad7a7e	0.021176573
22	0xba65bcdc	-0.0008763799
23	0xbcc2dfa4	-0.02378828
24	0xbc9c2853	-0.019062197
25	0xbcbe2b71	-0.023214074
26	0xbd161ec1	-0.036650423
27	0x3d2c9c57	0.042141285
28	0xbc1be7d9	-0.009515726
29	0x3d24794e	0.040154748
30	0x3d07c076	0.03314253
31	0x3d241737	0.040061202
32	0xbcee5292	-0.029092107
33	0xbd33ae6b	-0.04386751
34	0x3c795618	0.01521828
35	0x3be09852	0.0068540955
36	0xbd6d5298	-0.057940096
37	0xbb1f9b02	-0.0024353866
38	0xbc4ab66a	-0.012372592
39	0x3d024fd1	0.0318144
40	0x3aa22b7a	0.0012372576
41	0x3d294f35	0.041335303
42	0x3cff3350	0.031152397
43	0x3c8be1df	0.017075477
44	0x3ca63ff4	0.020294167
45	0x3caf1d30	0.021376222
46	0xbcf4f69f	-0.029902754
47	0x3ce29f3b	0.027663818
48	0x3cb9ba91	0.02267197
49	0x3cbcc307	0.023042215
50	0x3c1744a6	0.009232676
51	0xbc2c04c6	-0.010499185
52	0x3d36d2a2	0.04463447
53	0xbce88168	-0.028382018
54	0xbcf857de	-0.030315336
55	0x3c61715a	0.013759935
56	0xbcfcafc1	-0.030845525
57	0xbd3a2c7c	-0.04545258
58	0xbcef29b9	-0.0291947
59	0x39c1eed9	0.00036989784
60	0x3cd4aa32	0.025960062
61	0xbb54e2af	-0.0032483747
62	0x3d1bebd2	0.038066693
63	0x3c5c56d0	0.013448432
64	0x3b73fa38	0.0037228
65	0x3d3d114f	0.046159085
66	0xbceb6d20	-0.028738558
67	0xbcf68b37	-0.03009568
68	0xbd59d086	-0.05317738
69	0x3cc0e24d	0.023545409
70	0xbd2db45b	-0.04240833
71	0xbb97154f	-0.0046106945
72	0xbc2980dc	-0.010345664
73	0xbade3483	-0.0016952906
74	0xbd34bf02	-0.04412747
75	0x3c6efd7f	0.014586805
76	0x3ce065d1	0.0273923
77	0xbc22a08f	-0.009925975
78	0x3d53e0e4	0.051728144
79	0x3d21d4e7	0.03950968
80	0x3d464215	0.048402864
81	0xbcf85712	-0.030314956
82	0xbc91ef00	-0.01781416
83	0xbd6d6652	-0.05795891
84	0x3d212b47	0.039347913
85	0x3d32dd8d	0.04366832
86	0xbd4f0134	-0.050538257
87	0x3d02fec4	0.031981245
88	0x3d26bea1	0.04070914
89	0x3c960584	0.018313177
90	0xbba26893	-0.004956314
91	0x3b6b2287	0.0035878734
92	0xbd241461	-0.040058497
93	0xbb8e5daa	-0.0043446617
94	0x3c5af25f	0.01336345
95	0xbd3184b3	-0.043339442
96	0xbcf0fccb	-0.029417416
97	0x3d3bef68	0.045882612
98	0xbc9b6d7c	-0.018973105
99	0x3ce8316c	0.028343879
100	0xbc8cbba9	-0.017179327
101	0x3d057983	0.032586586
102	0x3cc77d64	0.024351783
103	0x3ce825bf	0.028338311
104	0x3cf5a0ec	0.02998396
105	0x3c8c2252	0.017106209
106	0xbd317ef4	-0.043333963
107	0xbbde095d	-0.0067760185
108	0xbc1ffca8	-0.009764828
109	0x3ce63a83	0.028104072
110	0x3d02d23e	0.031938784
111	0xbd1fd770	-0.039023817
112	0x3d2dae42	0.042402513
113	0xbc389d71	-0.011268006
114	0xbc89614a	-0.016770024
115	0xbd349f8d	-0.044097472
116	0x3d2afe92	0.041746683
117	0xbd0b9267	-0.034075167
118	0x3ce82d2f	0.028341858
119	0xbd1388dd	-0.036019195
120	0x3d117349	0.035510335
121	0x3d3be8ba	0.045876242
122	0xbb1e36d1	-0.002414156
123	0xba9e8fbc	-0.001209728
124	0xbbd79e0d	-0.0065801204
125	0xbd22e2dd	-0.039767135
126	0xbc243733	-0.010022926
127	0x3d1a1e7b	0.037626725

output_layer.weight f4 [3, 128]
0	0xbcee7ab0	-0.029111236
1	0x3e184fc5	0.1487418
2	0xbe42d74e	-0.19027445
3	0x3e2fae2a	0.17156282
4	0xbe235e9f	-0.15954064
5	0xbc0acaee	-0.008471234
6	0xbd5968dc	-0.053078517
7	0x3e218950	0.15775037
8	0xb89ea681	-7.565041e-05
9	0xbe1ee545	-0.15517147
10	0x3d9f4bc8	0.07778126
11	0x3dbd0f87	0.09231477
12	0xbc508c88	-0.012728818
13	0xbd725210	-0.059160292
14	0x3d12d32e	0.035845928
15	0x3e0034b6	0.12520108
16	0x3e15cd1b	0.14629023
17	0x3dbeb615	0.09312073
18	0xbc8cb726	-0.017177176
19	0x3d32aec0	0.043623686
20	0xbd58e879	-0.05295608
21	0x3d7e2b04	0.06205274
22	0xbdcc3e27	-0.09972792
23	0x3d810fb9	0.06301827
24	0x3e023b66	0.12717971
25	0x3d918378	0.07105154
26	0x3d4fdb57	0.05074629
27	0xbdd29062	-0.10281445
28	0x3d457ac9	0.0482128
29	0xbd882b2d	-0.0664886
30	0xbad703e0	-0.0016404353
31	0x3d10a64f	0.035314854
32	0x3cc22067	0.023697091
33	0x3e287a9a	0.16453019
34	0xbddfbd62	-0.10924794
35	0xbdab013e	-0.08349846
36	0x3e464429	0.19361939
37	0x3e333ca0	0.17503595
38	0xbd6a3b42	-0.05718542
39	0xbde75e98	-0.11297339
40	0xbddef11c	-0.10885832
41	0xbd80cdd7	-0.06289261
42	0xbdd62e48	-0.10458046
43	0xbdd43c8d	-0.10363112
44	0xbcde9725	-0.02717168
45	0xbe4873cf	-0.19575427
46	0x3e29d437	0.1658486
47	0xbe36b496	-0.17842326
48	0xbd0464a9	-0.03232256
49	0xbe416b01	-0.18888475
50	0xba48c156	-0.0007658204
51	0xbdd5013d	-0.10400627
52	0xbd9a3b6b	-0.07530864
53	0x3e140697	0.14455639
54	0x3ddb20a2	0.106995836
55	0xbd7aaa7b	-0.06119774
56	0x3e4341b2	0.1906803
57	0x3dd00701	0.10157586
58	0x3dd7b475	0.10532466
59	0xbe3a8c8b	-0.18217675
60	0xbd85652d	-0.065134384
61	0xbda2e33e	-0.07953499
62	0xbdd837d6	-0.10557525
63	0x3decbb61	0.11559177
64	0x3e0b0c05	0.13578804
65	0xbe0db15e	-0.13837191
66	0x3e4454ef	0.19173025
67	0x3dc50fe4	0.096221715
68	0x3e2ca029	0.16857971
69	0xbd340499	-0.043949697
70	0xbceeb0a0	-0.029136956
71	0xbe1f4a31	-0.15555646
72	0xbd45bbc5	-0.048274774
73	0x3e1cfafd	0.1533012
74	0x3d2ee280	0.042696476
75	0xbde48399	-0.11157913
76	0xbda31e6b	-0.07964786
77	0xbe050a2e	-0.12992164
78	0xbccd5cab	-0.025068602
79	0xbe2c2abd	-0.16813178
80	0x3d2c1516	0.042012297
81	0xbde8b4cd	-0.1136261
82	0x3d305b70	0.04305595
83	0x3e0baa4a	0.13639179
84	0xbd90ebc2	-0.07076217
85	0xbe002261	-0.12513115
86	0x3cded720	0.027202189
87	0xbe02af21	-0.12762119
88	0xbe23840a	-0.15968338
89	0xbdd94413	-0.10608687
90	0x3a181223	0.00058010424
91	0x3e035346	0.12824735
92	0xbdedc46d	-0.11609731
93	0x3e08964b	0.13338582
94	0xbbb42313	-0.0054973452
95	0x3d42b018	0.047531217
96	0x3db5341f	0.08847832
97	0xbddfaa09	-0.109211035
98	0x3e47fc0d	0.19529743
99	0xbe058d5a	-0.13042203
100	0x3e0d379d	0.13790746
101	0xbe0643e5	-0.13111837
102	0xbe12fc90	-0.14354157
103	0xbdf76cc5	-0.12081293
104	0xbdc3bf10	-0.09557927
105	0x3e2fe4a5	0.17177065
106	0x3dee6d90	0.11641991
107	0xbd2f0623	-0.04273046
108	0x3df13da6	0.11779337
109	0x3ca317d0	0.019908816
110	0xbd2237d6	-0.03960403
111	0x3da368a0	0.0797894
112	0xbdb538a7	-0.08848696
113	0x3e065ceb	0.13121383
114	0xbe52d445	-0.20588787
115	0x3c8d9b09	0.01728584
116	0xbd9245eb	-0.07142242
117	0x3dc9422f	0.09827077
118	0xbd99e87e	-0.075150475
119	0x3c7bcf12	0.015369194
120	0xba319f62	-0.0006775764
121	0xbc97c75c	-0.01852768
122	0xbdd86ec4	-0.10568002
123	0xbcf6c327	-0.030122353
124	0xbdba3d04	-0.09093669
125	0x3e2bb607	0.16768657
126	0x3d0d440c	0.034488723
127	0xbcc352ce	-0.023843195
128	0xbc653f70	-0.013992175
129	0x3df22da8	0.118251145
130	0x3dbed072	0.093171015
131	0x3da7657c	0.081736535
132	0xbc8a6182	-0.016892198
133	0xbe3b50e4	-0.18292576
134	0xbc83e14b	-0.016098639
135	0x3e05679a	0.13027802
136	0xbd129b0d	-0.0357924
137	0xbe1274e3	-0.14302401
138	0xbe2b5ccd	-0.1673462
139	0xbe346618	-0.1761707
140	0xbd6ce865	-0.057838816
141	0xbda573c4	-0.08078721
142	0x3d3979df	0.04528224
143	0xbd5c4d7a	-0.053784825
144	0xba87589e	-0.0010326093
145	0x3de518ef	0.11186396
146	0xbd66813e	-0.0562756
147	0x3e07653e	0.13222215
148	0xbddbb713	-0.10728278
149	0xbd9dd348	-0.07706314
150	0x3e1cd5e1	0.15315963
151	0xbe385e15	-0.1800464
152	0x3db705a1	0.089366205
153	0xbce1bb7e	-0.027555224
154	0xbc92fa44	-0.017941602
155	0xbd6cb8b0	-0.05779332
156	0xbe49248e	-0.19642851
157	0x3cd0cf15	0.02548937
158	0x3e3f217c	0.18665117
159	0x3dc93fe6	0.09826641
160	0x3c871686	0.016490232
161	0x3d621924	0.055199757
162	0xbd3b05b1	-0.045659725
163	0xbba4d5a5	-0.005030351
164	0x3d910155	0.07080332
165	0x3e07fcd7	0.13280044
166	0xbd80d559	-0.06290693
167	0x3e26b1c5	0.16278751
168	0xbddd9f2e	-0.10821377
169	0xbd75250f	-0.059849795
170	0xbe03bc78	-0.12864864
171	0xbd00990e	-0.031395964
172	0x3d5273f5	0.051380116
173	0xbd6c0975	-0.057626206
174	0x3dda62f0	0.10663402
175	0x3df470be	0.11935566
176	0x3e331e4c	0.17492026
177	0xbe26ee24	-0.16301781
178	0xbdf03260	-0.11728358
179	0xbe1cb3d5	-0.15302975
180	0x3dbe8d34	0.09304276
181	0x3e0cb1c6	0.1373969
182	0x3dd95eab	0.106137596
183	0xbb03f7bd	-0.0020136677
184	0x3d892abc	0.06697604
185	0xba8d105b	-0.0010762321
186	0xbdd0132b	-0.10159906
187	0x3e30da2f	0.1727073
188	0x3d6b8519	0.05749998
189	0x3e32430f	0.17408393
190	0x3de2a8f6	0.11067383
191	0x3deb02bc	0.11475131
192	0xbdd60393	-0.104499005
193	0x3bff1a95	0.0077851512
194	0x3e377e63	0.17919306
195	0xbdf18f5c	-0.11794922
196	0x3de58997	0.11207884
197	0xbd07276b	-0.032996576
198	0xbd986230	-0.07440603
199	0xbe4d658a	-0.20058265
200	0xbddd1fea	-0.10797103
201	0x3e215a7f	0.15757178
202	0x3b2b95f5	0.002618191
203	0x3e098f7e	0.13433644
204	0xbc0bccc8	-0.00853271
205	0xbe5ede4c	-0.21764487
206	0x3baebd74	0.005332643
207	0xbe18852b	-0.1489455
208	0x3dc20cb2	0.09475078
209	0xbe0fec3d	-0.14054962
210	0x3d798fc5	0.060928125
211	0xbc4e5707	-0.012593991
212	0x3dd790a0	0.10525632
213	0x3cd6f835	0.026241401
214	0xbd2f183b	-0.042747717
215	0xbda6e3ad	-0.081488945
216	0xbddbaa8e	-0.1072589
217	0x3d60419e	0.054750077
218	0xbdf2ad94	-0.11849514
219	0x3d8cca61	0.06874538
220	0xbe04bb79	-0.1296214
221	0x3e37be86	0.17943773
222	0x3e45fb08	0.19334042
223	0x3d5a4b58	0.05329451
224	0xbd3971b0	-0.045274436
225	0x3d4d962c	0.050192043
226	0x3e49042e	0.196305
227	0x3df7f5db	0.1210744
228	0x3e0c27a9	0.13687004
229	0x3df399f0	0.118945956
230	0xbe314e66	-0.17315063
231	0xbe0a3766	-0.13497695
232	0x3e49d20d	0.19709034
233	0x3e542fee	0.20721409
234	0xbd67e015	-0.056610186
235	0xbd32ecde	-0.043682925
236	0x3be12cba	0.006871787
237	0x3dcdd40f	0.100502126
238	0xbdd195f7	-0.10233682
239	0x3d7f07f6	0.06226345
240	0x3d1950d9	0.037430618
241	0xbd139a01	-0.03603554
242	0xbe3ef711	-0.18648936
243	0xbb297a2e	-0.0025860178
244	0x3dfe7a9a	0.12425728
245	0xbe11cb26	-0.14237651
246	0xbd1b8308	-0.037966758
247	0xbe0bcbfd	-0.13652034
248	0x3db0bc32	0.086296454
249	0x3daddc8d	0.08489332
250	0xbdfd1e8e	-0.123593435
251	0xbd9273df	-0.07151007
252	0xbd98a604	-0.0745354
253	0x3e23f309	0.1601068
254	0xbe1a2a43	-0.15055184
255	0x3de31f9e	0.11090015

output_layer.bias f4 [3]
0	0xbd4f74ba	-0.05064843
1	0x3c5f24f5	0.013619651
2	0x3d1c6381	0.03818083

layers.0.weight f4 [128, 6]
0	0x3e5a8f95	0.21343835
1	0x3dfd95d1	0.12382091
2	0xbcb8f953	-0.022579825
3	0x3e2239a0	0.15842295
4	0x3e0614a7	0.13093816
5	0xbd3383b5	-0.043826777
6	0xbdc621ce	-0.096744165
7	0x3e1eadf2	0.15496042
8	0xbc492895	-0.012277742
9	0x3e3e0f4b	0.18560521
10	0xbe6f97d2	-0.23397759
11	0xbe1cda67	-0.15317689
12	0x3dc815d5	0.09769789
13	0x3be1e0bb	0.006893245
14	0x3d7fa9bc	0.06241773
15	0x3dc29603	0.09501269
16	0xbe199cb9	-0.15001191
17	0xbd948850	-0.07252562
18	0x3dd91113	0.1059896
19	0xbe20b50a	-0.15694061
20	0x3d499e64	0.04922332
21	0x3c97d1b9	0.01853262
22	0xbe2242cb	-0.15845792
23	0x3c24563f	0.010030328
24	0x3dc07541	0.093973644
25	0x3c9586e4	0.018252797
26	0x3e4cab31	0.1998718
27	0x3c57012d	0.013122839
28	0x3e4a4bac	0.19755429
29	0x3c7e4867	0.015520192
30	0xbd8bacee	-0.06820093
31	0xbd796963	-0.06089152
32	0xbe469ec7	-0.19396506
33	0x3c11ba06	0.008894449
34	0xbe0eac64	-0.1393295
35	0xbd3dc210	-0.04632765
36	0x3cc1431b	0.023591569
37	0xbd961145	-0.07327513
38	0xbe488cb4	-0.19584924
39	0xbbbffe2a	-0.005859156
40	0xbd92949a	-0.0715725
41	0x3db0116c	0.08597073
42	0x3e3ecbf2	0.18632486
43	0xbbfc4897	-0.007699083
44	0x3cbfe149	0.023422854
45	0xbd30e521	-0.043187264
46	0x3d6dea6f	0.0580849
47	0xbe054bfc	-0.13017267
48	0xbe4175b7	-0.18892561
49	0x3e3fa38a	0.18714729
50	0x3d90f3fc	0.07077786
51	0xbdd82b35	-0.10555116
52	0x3e79cb74	0.24394017
53	0x3d6ce4c5	0.05783536
54	0x3e495364	0.19660717
55	0xbdeb0736	-0.11475985
56	0x3e3754f7	0.17903505
57	0xbd3c6c13	-0.046001505
58	0x3e628797	0.22122036
59	0xbc0d26dd	-0.008615223
60	0xbd6a2a58	-0.05716929
61	0x3ba36680	0.004986584
62	0x3e368c18	0.17826879
63	0x3d308b5c	0.043101653
64	0x3df41ea7	0.11919909
65	0xbce4205f	-0.027847467
66	0xbe6a2782	-0.22866634
67	0x3dac9a9b	0.08427926
68	0x3b65005f	0.0034942848
69	0x3ca9e6f6	0.020740014
70	0x3e7b98b3	0.24569969
71	0x3d55e150	0.052216828
72	0xbd22a7e7	-0.039710905
73	0xbd96aa2d	-0.07356677
74	0xbd46cc0a	-0.04853443
75	0xbdbdad51	-0.09261573
76	0x3e124c95	0.14287026
77	0x3cc3e797	0.023914142
78	0xbdd3cbfe	-0.10341643
79	0x3d228adf	0.03968322
80	0xbdfaf18a	-0.12253101
81	0x3d54abe6	0.051921748
82	0x3e6401fa	0.22266379
83	0x3d803784	0.06260589
84	0xbc5ab29e	-0.01334825
85	0xbe543c7a	-0.20726195
86	0x3db2d583	0.087321304
87	0xbd8f28f8	-0.06990236
88	0xbdbd6216	-0.09247224
89	0x3e0f8699	0.14016189
90	0x3e104b59	0.14091243
91	0xbdb000af	-0.085938804
92	0x3e023385	0.12714966
93	0x3c8c22d6	0.017106455
94	0x3e585203	0.21125035
95	0x3c1f2839	0.00971418
96	0xbe732133	-0.23743133
97	0x3dacf19e	0.08444522
98	0x3ac71949	0.0015190031
99	0x3d6ff028	0.05857864
100	0xbd022c23	-0.031780373
101	0x3e240f1c	0.16021389
102	0xbe792984	-0.24332243
103	0x3e1dcc51	0.15409972
104	0xbd0ea6a5	-0.034826893
105	0xbcb01ce3	-0.02149815
106	0x3e83362a	0.2562726
107	0x3e50171e	0.20321319
108	0x3d601a18	0.054712385
109	0x3e17bbc4	0.1481772
110	0xbdb9a7d6	-0.09065215
111	0x3c84e5ed	0.016222918
112	0x3dd0ea84	0.1020098
113	0x3cf961af	0.030442087
114	0xbdba947a	-0.09110351
115	0x3de074a5	0.10959748
116	0x3e955971	0.291698
117	0xbcb5b5bb	-0.022181382
118	0xbe8050f4	-0.25061762
119	0xbe0f2fe3	-0.13983111
120	0xbe633f0b	-0.22192018
121	0xbc150a22	-0.009096654
122	0x3bcb38f0	0.006201856
123	0x3d0e83e4	0.03479375
124	0xbe7c1eb7	-0.24621092
125	0xbd34e841	-0.044166807
126	0xbe54cce5	-0.20781286
127	0xbdb37a6a	-0.08763583
128	0x3dba72a0	0.09103894
129	0x3da0d9ba	0.07854028
130	0x3dcd98e2	0.10038926
131	0x3e46b8a2	0.1940637
132	0x3e4ac3a8	0.198012
133	0xbe1af03c	-0.15130705
134	0xbd9f0f41	-0.07766581
135	0x3b4b624b	0.003103393
136	0xbdc9d94c	-0.09855899
137	0x3d6ace44	0.057325616
138	0x3e48e40d	0.19618244
139	0x3bb105d5	0.0054023066
140	0x3e6dcc95	0.23222573
141	0x3e159b31	0.14609982
142	0xbe502823	-0.20327811
143	0xbd85156a	-0.06498225
144	0x3d3ee671	0.046606485
145	0x3c1ece2f	0.009692713
146	0x3c4b49e7	0.012407756
147	0xbe2e8c91	-0.1704581
148	0xbe3348dc	-0.17508262
149	0xbd50abd6	-0.050945126
150	0xbe669678	-0.22518337
151	0xbc8c5de5	-0.017134616
152	0xbd0c3063	-0.034225833
153	0x3cfc75b1	0.030817838
154	0x3de0f579	0.1098432
155	0xbb1bb38a	-0.0023758137
156	0x3e0ccc3f	0.13749789
157	0x3c45d47a	0.012074584
158	0xbdb0a20c	-0.08624658
159	0xbd428f0c	-0.0474997
160	0xbdebb66a	-0.11509402
161	0x3d1a9048	0.037735254
162	0x3e7a2204	0.24427038
163	0xbe1f276d	-0.15542383
164	0x3d1ad600	0.037801743
165	0xbe16ce81	-0.14727212
166	0xbd9e9680	-0.07743549
167	0x3da0eb48	0.07857376
168	0xbd4195b4	-0.04726191
169	0xbe3f510b	-0.18683259
170	0xbe2f917e	-0.17145345
171	0x3cd64043	0.02615369
172	0xbe789611	-0.24275996
173	0xbd68afdd	-0.05680834
174	0x3df0c359	0.117560096
175	0xbbb58478	-0.005539473
176	0x3cf94922	0.03043038
177	0x3e2e2c57	0.17009102
178	0x3e2604bd	0.16212745
179	0xbe249b67	-0.16074906
180	0xbe603d43	-0.2189837
181	0x3de45a9d	0.111500956
182	0xbe5c91b8	-0.21539962
183	0x3d6367cd	0.055518914
184	0x3e30b2ba	0.17255679
185	0x3d00c12a	0.031434216
186	0xbe3e27ba	-0.18569842
187	0x3df98c97	0.121850185
188	0x3ccda9d7	0.0251054
189	0xbdc26cc9	-0.09493405
190	0x3d697aae	0.057001762
191	0xbe112b8a	-0.14176765
192	0xbd1cdf04	-0.03829862
193	0x3ddb97ce	0.10722314
194	0x3e84e653	0.25956973
195	0x3bccf2e0	0.006254539
196	0xbd885d57	-0.06658428
197	0xbe08f395	-0.13374169
198	0x3e0075dc	0.1254496
199	0xbe22f9c5	-0.15915592
200	0x3e753b2f	0.23948358
201	0xbd9c5627	-0.0763362
202	0xbe31fabf	-0.17380808
203	0x3cb78ddc	0.022406511
204	0x3c5184f5	0.012788047
205	0xbdbe33ef	-0.09287249
206	0xbd0efffe	-0.034912102
207	0xbc465dc4	-0.012107316
208	0x3e4b6504	0.19862753
209	0x3e39b89d	0.1813683
210	0xbb7ee73f	-0.0038895158
211	0xbe2421b0	-0.16028476
212	0x3c524c1e	0.012835531
213	0xbe063ae6	-0.13108405
214	0xbe633f0a	-0.22192016
215	0x3c0358ee	0.008016808
216	0x3dbad6b8	0.091229856
217	0x3e43c6ef	0.19118856
218	0xbe1085e2	-0.14113572
219	0xbe19cbfe	-0.15019223
220	0xbd456b8f	-0.04819828
221	0x3e02405a	0.1271986
222	0x3de12aba	0.109944776
223	0xbc14c869	-0.009080985
224	0xbe043245	-0.12909801
225	0xbdbd0b09	-0.092306204
226	0xbe7013c8	-0.23445046
227	0xbe306151	-0.17224623
228	0x3e7464e8	0.23866618
229	0xbe2c1834	-0.16806108
230	0x3dc96114	0.09832969
231	0x3cb5cb75	0.022191742
232	0x3dbc4183	0.09192183
233	0xbdffe32b	-0.12494501
234	0x3da85a1e	0.082203135
235	0xbe0fc0da	-0.14038411
236	0x3e26a300	0.16273117
237	0xbe33f053	-0.17572145
238	0xbe0abc4f	-0.13548397
239	0xbe343024	-0.17596489
240	0x3d456bf3	0.04819865
241	0x3de3d602	0.11124803
242	0xbc060633	-0.008180189
243	0x3d4e2c95	0.050335485
244	0xbb9983b6	-0.0046848906
245	0xbb7e9e68	-0.0038851742
246	0xbe887d2b	-0.26657996
247	0xbd337a38	-0.04381773
248	0x3d9e0495	0.07715718
249	0xbe2ddfd6	-0.16979918
250	0x3e227627	0.15865384
251	0xbdc41be3	-0.095756315
252	0x3e6d2f5f	0.23162602
253	0x3d457d19	0.048215006
254	0x3d39ce2d	0.04536264
255	0xbe341b8d	-0.17588635

layers.0.bias f4 [128]
0	0x3e696fe2	0.22796586
1	0xbe4dfe75	-0.20116599
2	0x3e3acf06	0.18243036
3	0xbe06b721	-0.13155796
4	0x3e5c04c4	0.21486193
5	0xbe315ba4	-0.17320114
6	0xbe2be5f6	-0.16786942
7	0x3e416739	0.18887033
8	0xbe36bab3	-0.17844658
9	0x3e36659a	0.17812195
10	0x3e2e6199	0.17029418
11	0xbe4c6768	-0.19961321
12	0xbe7228aa	-0.23648325
13	0xbe64b52b	-0.22334735
14	0x3e33905b	0.17535536
15	0x3e2e12d2	0.16999367
16	0xbe565562	-0.20931008
17	0xbe529cbf	-0.20567606
18	0xbdf93531	-0.121683486
19	0x3e0e6701	0.1390648
20	0xbe24678a	-0.16055122
21	0xbe7b0564	-0.24513775
22	0x3e451061	0.1924453
23	0x3e2b263f	0.16713808
24	0x3e1f6eb7	0.15569578
25	0xbe557543	-0.20845513
26	0x3e45d177	0.19318186
27	0x3e209b9c	0.1568436
28	0xbe345eb5	-0.17614253
29	0x3e44baf7	0.19211946
30	0xbe1e7d06	-0.1547738
31	0xbe2fc6d4	-0.1716569
32	0x3e1acb25	0.15116556
33	0x3e5d1b27	0.21592389
34	0x3e439fcd	0.19103928
35	0x3e27a45e	0.16371295
36	0xbe2f5aff	-0.17124556
37	0xbdaf627b	-0.085637055
38	0x3e22ea2e	0.15909645
39	0xbe44546f	-0.19172834
40	0x3e50ee10	0.20403314
41	0xbe307336	-0.1723145
42	0x3e3c157c	0.1836757
43	0x3e393232	0.18085554
44	0xbe0cd9f4	-0.13755018
45	0xbdf9abc1	-0.121909626
46	0x3e1f5004	0.15557867
47	0xbe561a89	-0.2090856
48	0xbe2341f4	-0.15943128
49	0x3e473916	0.1945537
50	0x3dee7945	0.11644224
51	0x3e335939	0.17514504
52	0x3e374919	0.17898978
53	0x3e3584dd	0.17726465
54	0x3e0008aa	0.12503305
55	0x3e4d1632	0.20027998
56	0xbe1c8e56	-0.15288672
57	0xbe5d2ac3	-0.21598344
58	0xbe7decd5	-0.24797376
59	0xbe73d0d8	-0.23810136
60	0x3e1135e1	0.1418071
61	0x3e31fa62	0.1738067
62	0xbe1c9ac0	-0.15293407
63	0xbe5a848f	-0.2133963
64	0xbe0b23c5	-0.13587864
65	0xbe43bb94	-0.19114524
66	0x3df98706	0.12183957
67	0x3e3636a5	0.17794283
68	0x3e1f2733	0.15542297
69	0xbe2af3d7	-0.1669458
70	0xbe195a12	-0.14975765
71	0xbe077d4c	-0.1323139
72	0xbe4c8f1c	-0.19976467
73	0xbe27e2e9	-0.16395153
74	0xbe095ec5	-0.13415058
75	0x3e48be35	0.19603808
76	0xbe2b5377	-0.16731058
77	0xbe2181df	-0.15772198
78	0x3e26ce40	0.16289616
79	0x3e4f8f3c	0.20269483
80	0xbe0e3953	-0.13889055
81	0x3e2f2f49	0.17107882
82	0x3e0fe300	0.14051437
83	0x3e6647de	0.22488353
84	0xbe64b418	-0.22334325
85	0x3e569ec1	0.20958997
86	0x3e4f81e7	0.20264398
87	0x3e1b6c1c	0.15177959
88	0x3e39eaa7	0.18155919
89	0x3e235277	0.15949427
90	0xbe42c516	-0.19020495
91	0xbe4e3b5c	-0.20139831
92	0xbe4cdccb	-0.20006101
93	0xbe178a0f	-0.14798759
94	0x3e1ac8da	0.15115681
95	0x3e270de5	0.16313894
96	0xbe55e5fc	-0.20888513
97	0x3e444b27	0.19169293
98	0x3e378c6b	0.17924659
99	0x3e412157	0.18860374
100	0xbe23ebd0	-0.16007924
101	0xbe0d6434	-0.13807756
102	0xbe1debd0	-0.15421987
103	0xbe05684b	-0.13028066
104	0xbe15d4f0	-0.1463201
105	0x3e3c8c4b	0.18412893
106	0x3e2d326b	0.16913764
107	0xbe1a85b3	-0.15090065
108	0x3e26dcd2	0.16295174
109	0x3e727c81	0.23680307
110	0x3e3ad521	0.18245365
111	0x3e43e203	0.19129185
112	0xbe28430f	-0.16431831
113	0x3e0b4af6	0.13602814
114	0x3e6206ce	0.22072908
115	0x3e3ccb5d	0.18436952
116	0xbe2b6c99	-0.16740645
117	0xbe2f1362	-0.17097238
118	0xbe1ae46f	-0.15126203
119	0x3e7ced17	0.24699818
120	0x3e1cf868	0.15329134
121	0xbe670355	-0.22559865
122	0xbe371b3c	-0.17881483
123	0x3e6475f1	0.22310616
124	0xbe0203c9	-0.12696756
125	0x3e1263d4	0.14295894
126	0x3e3cc65b	0.18435042
127	0xbe3a9da7	-0.18224202

layers.2.weight f4 [128, 128]
0	0x3d282c8a	0.0410581
1	0x3dd5f22a	0.1044658
2	0x3e8ffa55	0.28120676
3	0x3d5746fb	0.052557927
4	0x3ca41447	0.0200292
5	0xbe2cd73a	-0.16878977
6	0x3cbec837	0.02328883
7	0x3e2e2e5c	0.17009872
8	0xbd983f03	-0.074338935
9	0xbdc1bb44	-0.09459546
10	0xbd272e15	-0.04081543
11	0xbdd9c1dd	-0.106326796
12	0xbe788093	-0.24267797
13	0xbe3abf15	-0.18236955
14	0x3dbfef0c	0.093717664
15	0xbdee2d6d	-0.11629758
16	0xbd8b4ac4	-0.0680137
17	0xbe90f757	-0.28313705
18	0x3dd5bd41	0.10436488
19	0x3c68ce49	0.014209338
20	0x3dcc26d3	0.09968343
21	0xbc612301	-0.013741256
22	0x3e58c115	0.21167405
23	0x3e06e709	0.1317407
24	0x3e5612c4	0.20905596
25	0xbdeb8f56	-0.115019485
26	0x3e74ddaa	0.23912683
27	0x3e998a49	0.29988316
28	0x3d12f7d5	0.035880882
29	0xbd38cae6	-0.045115374
30	0xbea15795	-0.31512132
31	0xbe4fe4d6	-0.20302138
32	0x3d9a24e0	0.075265646
33	0x3e8dbf34	0.2768494
34	0xbd8d7b78	-0.069083154
35	0x3e116274	0.14197713
36	0x3ba25a78	0.0049546324
37	0x3e5a9236	0.21344838
38	0x3cd776e6	0.026301812
39	0x3d855b22	0.06511523
40	0x3e195082	0.14972118
41	0xbe02f649	-0.12789263
42	0x3d4e0379	0.05029628
43	0xbda6b123	-0.08139255
44	0x3c7ff49c	0.015622284
45	0xbc814b72	-0.015783045
46	0x3e418153	0.1889699
47	0xbe5cc049	-0.21557726
48	0xbe2584ae	-0.16163895
49	0x3dae8397	0.085211925
50	0xbdfad665	-0.12247924
51	0xbc825a9d	-0.015912348
52	0x3d08f7b0	0.03343934
53	0x3e40966d	0.18807383
54	0x3e051993	0.12998037
55	0x3bde7cbc	0.006789772
56	0xbdda3823	-0.106552385
57	0xbe17b81b	-0.14816324
58	0xbc871381	-0.016488792
59	0x3ced3609	0.02895643
60	0x3daea73f	0.085279934
61	0x3dbc3e1d	0.09191535
62	0x3d462483	0.048374664
63	0xbe871b63	-0.26388082
64	0xbdc41b58	-0.09575528
65	0xbd2da40e	-0.042392783
66	0x3dc49d94	0.09600368
67	0xbd5eedca	-0.054425992
68	0x3e69c5be	0.22829339
69	0xbca2f955	-0.019894281
70	0xbd101007	-0.035171535
71	0xbb86f1d9	-0.004118186
72	0xbd17be96	-0.03704699
73	0xbd1eb95e	-0.038751
74	0xbdc0e563	-0.09418752
75	0xbd9a4f46	-0.075346515
76	0xbe026dd5	-0.1273721
77	0xbcfec788	-0.031101003
78	0x3dac9456	0.0842673
79	0xbca27468	-0.019830897
80	0xbe2e8d29	-0.17046036
81	0xbc9c87ec	-0.019107781
82	0x3df980df	0.12182783
83	0x3d99e739	0.07514805
84	0xbe2d5f13	-0.16930799
85	0x3dc59a0f	0.09648525
86	0xbe182d78	-0.14861095
87	0x3db87e5a	0.09008475
88	0x3c103b24	0.008803163
89	0x3e2e16c4	0.17000872
90	0xbdef4717	-0.11683481
91	0x3dc5ddd9	0.09661455
92	0xbdfbc8a8	-0.122941315
93	0xbc587b43	-0.013212982
94	0x3c97eb96	0.018544953
95	0x3dc3c09d	0.095582224
96	0x3d2b2c13	0.04179008
97	0x3e086d4c	0.13322943
98	0x3e415288	0.1887914
99	0xbc41ee65	-0.011836623
100	0xbe3c0892	-0.18362644
101	0x3da2a4af	0.07941567
102	0xbe058d84	-0.13042265
103	0x3b95eaef	0.0045751254
104	0xbdadadf7	-0.08480447
105	0xbd817ba8	-0.06322414
106	0xbdcbbfbe	-0.09948681
107	0x3da2ec92	0.079552785
108	0xbe109463	-0.14119105
109	0xbd39cba5	-0.045360226
110	0x3db06dfc	0.08614728
111	0x3dbc6fed	0.09201036
112	0xbe078d1a	-0.1323742
113	0xbda2548d	-0.07926283
114	0xbd9692c5	-0.07352213
115	0x3e7100a3	0.23535399
116	0xbe561fd2	-0.20910576
117	0x3d8574ea	0.0651644
118	0xbcc9e474	-0.024645068
119	0x3d62c91b	0.05536757
120	0xbd79dc22	-0.06100095
121	0xbd9f1a8f	-0.077687375
122	0xbd408277	-0.04699942
123	0x3e4b248a	0.19838157
124	0xbe201c73	-0.15635853
125	0x3e282a1b	0.16422312
126	0x3dc8778d	0.097884275
127	0xbe076943	-0.13223748
128	0xbd497ae7	-0.049189474
129	0xbcf84456	-0.030306023
130	0xbe96a98a	-0.29426223
131	0xbe045396	-0.1292251
132	0xbdf93408	-0.12168127
133	0x3d9af57e	0.07566355
134	0xbd07d4d4	-0.033161953
135	0xbdce76ea	-0.10081275
136	0x3d272461	0.040806178
137	0xbc0e0c1a	-0.008669877
138	0xbcab7cc8	-0.020933524
139	0x3e4ee8f0	0.20206046
140	0x3e43102a	0.19049135
141	0x3e5726c8	0.21010888
142	0xbd859afa	-0.065237
143	0xbcfc58fb	-0.030804148
144	0xbd96e4aa	-0.07367833
145	0x3e8d6612	0.27616936
146	0xbdb5a7db	-0.088699065
147	0xbe6c5746	-0.23080167
148	0xbdaf9ed2	-0.085752144
149	0x3e51f3aa	0.20503107
150	0x3d1fd007	0.03901675
151	0xbe21d7aa	-0.15804926
152	0xbe325100	-0.17413712
153	0x3dbf8e58	0.09353322
154	0xbca84de6	-0.020544957
155	0xbd90f26b	-0.070774876
156	0xbd7e1a04	-0.06203653
157	0x3dbdf950	0.09276068
158	0x3e412904	0.18863302
159	0xbbe9b421	-0.0071320687
160	0xbdc86259	-0.09784383
161	0xbddd80e7	-0.10815602
162	0x3d9e4e61	0.07729793
163	0x3d99b843	0.07505848
164	0xbdaa43f3	-0.083137415
165	0xbe1d0b3c	-0.15336317
166	0xbd899c69	-0.06719286
167	0xbe45641a	-0.19276467
168	0xbe019b86	-0.12656984
169	0x3e0134e5	0.12617834
170	0xbe2611c6	-0.16217718
171	0x3db0698a	0.0861388
172	0xbd122627	-0.035680916
173	0xbc72982a	-0.014806787
174	0xbd9ed9f8	-0.07756418
175	0x3da17a95	0.07884709
176	0x3db41ccf	0.08794557
177	0x3c9a8775	0.01886342
178	0xbdf69e53	-0.12041917
179	0x3d50ed6f	0.051007684
180	0xbdf67570	-0.12034118
181	0xbe68ad36	-0.22722325
182	0x3d9afd13	0.07567801
183	0xbe346558	-0.17616785
184	0xbe089898	-0.1333946
185	0x3de87089	0.113495894
186	0xbd21253b	-0.039342146
187	0x3cbb4e96	0.022864621
188	0xbdb7388d	-0.08946333
189	0x3d80885a	0.06276007
190	0x3dd7228b	0.105046354
191	0x3de343a8	0.11096889
192	0x3c66c992	0.014086144
193	0xbe156df3	-0.14592724
194	0xbc0fc539	-0.008775049
195	0xbe2ab2e4	-0.16669804
196	0x3c5ba2fb	0.013405557
197	0x3e31b24f	0.17353176
198	0x3ca2f06c	0.019890033
199	0x3e2dc6e5	0.16970403
200	0xbcca74b3	-0.02471385
201	0xbc27e03f	-0.0102463355
202	0x3b0eb841	0.0021777304
203	0xbc7fb509	-0.015607127
204	0x3dccd50f	0.10001575
205	0x3e4030ec	0.18768662
206	0xbe0b3b86	-0.13596925
207	0x3bd1bd82	0.006400765
208	0xbd494ea2	-0.049147256
209	0xbd9d8f13	-0.07693305
210	0x3cf28ca0	0.02960807
211	0xbdf0d992	-0.11760248
212	0x3e7698e1	0.24081756
213	0x3dd6f6c7	0.10496288
214	0x3dba2693	0.09089389
215	0xbd492a25	-0.049112458
216	0xbdf5d8e1	-0.12004257
217	0xbde8de1d	-0.1137049
218	0xbdc3ad81	-0.095545776
219	0xbdceb1f6	-0.10092537
220	0x3b0140b6	0.0019722409
221	0x3d4e67e9	0.050392065
222	0xbb93707c	-0.004499493
223	0xbddda0b1	-0.10821665
224	0xb992f0c8	-0.00028026686
225	0xbe47e14c	-0.19519538
226	0xbe17a93f	-0.14810656
227	0x3db0142e	0.08597599
228	0x3e01fa1a	0.12693062
229	0x3e132ed4	0.14373332
230	0xbdf8e24a	-0.12152536
231	0xbdcddea9	-0.10052235
232	0x3d83e4fa	0.06440158
233	0xbe120778	-0.14260662
234	0xbd63d8eb	-0.05562679
235	0xbdb5b21c	-0.08871862
236	0xbdad3254	-0.08456865
237	0xbdff5664	-0.124676496
238	0xbe24f870	-0.16110396
239	0x3d34250f	0.043980654
240	0xbdbb99d7	-0.09160202
241	0xbdbf9d06	-0.09356122
242	0x3c00d4ac	0.007863205
243	0xbe0bfa00	-0.13669586
244	0x3e92f103	0.28699502
245	0x3df60ed8	0.1201455
246	0x3d8dc61a	0.069225505
247	0xbe59fae0	-0.21287107
248	0x3dce5c9c	0.100762576
249	0x3d4bbd8f	0.049741324
250	0xbd09cc24	-0.03364195
251	0xbd56bba9	-0.05242506
252	0xbdb67a78	-0.08910078
253	0xbcb61019	-0.022224473
254	0xbbd12d35	-0.006383563
255	0x3e9a318c	0.30115926

layers.2.bias f4 [128]
0	0x3dceaa04	0.10091022
1	0xbdb3010d	-0.08740435
2	0x3dfd4920	0.12367463
3	0xbde2ef1a	-0.11080761
4	0x3d801175	0.0625333
5	0xbdde6343	-0.108587764
6	0x3dee8c87	0.11647897
7	0xbd51ba35	-0.05120297
8	0xbd96cf38	-0.073637426
9	0xbd3af2e3	-0.04564179
10	0x3e209d26	0.15684947
11	0x3dc64e90	0.09682953
12	0xbdd3c60f	-0.10340511
13	0xbe177f37	-0.14794622
14	0xbdc60ad6	-0.096700355
15	0x3db7bf2e	0.089720115
16	0xbda2da5c	-0.07951805
17	0x3dad8e44	0.08474401
18	0x3da77da9	0.08178265
19	0x3e195d50	0.14977002
20	0x3e1730a4	0.14764649
21	0xbde8e034	-0.11370888
22	0x3de29d6e	0.110651836
23	0xbe07720d	-0.132271
24	0xbd9e25cf	-0.07722055
25	0x3e20552c	0.1565749
26	0xbd9544d8	-0.072885215
27	0x3df649ec	0.12025818
28	0x3defed8a	0.11715229
29	0xbdd3521b	-0.10318395
30	0xbd62da12	-0.05538375
31	0x3e03898b	0.12845437
32	0xbdf67c3a	-0.12035413
33	0xbdf843c2	-0.12122299
34	0xbdf326d7	-0.118726425
35	0x3dfdedd0	0.12398875
36	0x3de8b926	0.11363439
37	0x3dea5774	0.114424616
38	0x3e2cdc0d	0.16880818
39	0x3dcad350	0.09903586
40	0xbd95c6ad	-0.07313285
41	0x3d617746	0.05504539
42	0xbdb9966d	-0.090618946
43	0xbdaf4f1b	-0.0856001
44	0xbdbd7640	-0.0925107
45	0x3ded3fd1	0.11584438
46	0x3ddf7001	0.10910035
47	0x3d84add7	0.0647847
48	0xbe030c71	-0.12797715
49	0x3e168bce	0.14701769
50	0xbdec2ff1	-0.115325816
51	0xbdf7ce89	-0.1209994
52	0xbdb79e06	-0.089656875
53	0xbd650428	-0.055912167
54	0x3da79514	0.08182731
55	0x3e39f1db	0.18158667
56	0xbe200b3a	-0.15629283
57	0xbd965677	-0.073407106
58	0x3dbbe745	0.091749705
59	0x3dfee2bb	0.12445589
60	0x3dec2a84	0.11531547
61	0xbdf646de	-0.120252356
62	0x3d9cf51e	0.0766394
63	0xbe23aff7	-0.15985094
64	0xbdabe9e7	-0.08394223
65	0x3dd6c684	0.104870826
66	0x3dc79954	0.09746042
67	0xbdc8fb66	-0.098135754
68	0x3dd54aff	0.10414695
69	0x3e240f0f	0.1602137
70	0x3db90916	0.09034936
71	0x3d97683e	0.073929295
72	0x3dd7755c	0.105204314
73	0xbdf1b0f3	-0.118013285
74	0x3dad0263	0.08447721
75	0x3db13830	0.08653295
76	0x3db744f1	0.089486964
77	0x3dfa623f	0.1222577
78	0x3dc7e7c3	0.09761002
79	0x3df1c44a	0.11805017
80	0x3dd61a3b	0.10454222
81	0x3dfd332e	0.123632774
82	0xbdb07175	-0.0861539
83	0x3dc29888	0.09501749
84	0xbdf74324	-0.12073353
85	0x3e17a9b9	0.14810838
86	0xbda16787	-0.078810744
87	0x3db576bd	0.08860538
88	0xbd742456	-0.059604965
89	0x3e25f84e	0.16208002
90	0xbddd32a2	-0.10800673
91	0x3e074356	0.1320928
92	0xbd95d29f	-0.073155634
93	0xbdb90948	-0.090349734
94	0xbdda9ed0	-0.10674822
95	0xbd962f95	-0.07333294
96	0xbdeace5f	-0.114651434
97	0xbe3b1c3d	-0.18272491
98	0x3d93b22d	0.07211719
99	0xbe04876c	-0.12942284
100	0xbde7b5c9	-0.1131397
101	0x3e03b553	0.12862138
102	0x3df1df69	0.1181019
103	0xbdb1710c	-0.0866414
104	0xbe09c3a7	-0.13453542
105	0xbe0644fa	-0.1311225
106	0x3de4af1a	0.111662105
107	0x3dbf1017	0.09329241
108	0xbd849b25	-0.06474904
109	0xbdf25123	-0.11831882
110	0x3e1227f2	0.1427305
111	0xbd8cec25	-0.068809785
112	0xbde05e89	-0.10955531
113	0x3d72aa7a	0.05924461
114	0xbdf56130	-0.11981428
115	0x3e05357d	0.13008685
116	0x3d81cbbd	0.06337688
117	0x3db052b6	0.08609526
118	0x3d9ad97f	0.07561015
119	0x3d97938d	0.0740119
120	0x3dd1aa49	0.102375574
121	0xbe02ee23	-0.12786154
122	0x3db38567	0.08765679
123	0xbda5de04	-0.08098987
124	0xbdba7143	-0.09103634
125	0x3da37e61	0.07983089
126	0xbdef84b7	-0.11695235
127	0xbd90b70a	-0.07066162
