experiments/ppo_pendulum_long_training_20250831_000133/checkpoints/auto_step_100352.pt (torch, 604940 bytes, 60 tensors)

shared_layers.0.weight f4 [128, 3]
0	0x3db10ffe	0.086456284
1	0xbde32225	-0.11090497
2	0xbdbd7ead	-0.09252677
3	0xbdb6d1cb	-0.089267336
4	0xbda56bb9	-0.08077187
5	0x3d81dcbf	0.06340932
6	0xbdc23ed9	-0.094846435
7	0x3e8ee0e4	0.27905953
8	0x3db6b575	0.08921329
9	0xbd137d58	-0.03600821
10	0xbcaaf944	-0.020870812
11	0x3d47e538	0.048802584
12	0xbd8c02f7	-0.06836503
13	0x3e0662a6	0.13123569
14	0x3e71359c	0.23555607
15	0x3b83ee0a	0.004026179
16	0x3e5dd0bb	0.21661656
17	0x3c65ba1a	0.014021421
18	0x3c3b70e4	0.011440489
19	0xbd733a13	-0.059381556
20	0xbe0ff68a	-0.14058891
21	0x3de0c96b	0.109759174
22	0x3df0117a	0.117220834
23	0x3decddd8	0.11565751
24	0xbd9cf387	-0.07663637
25	0x3dc3d28c	0.09561643
26	0x3e81ed16	0.25376195
27	0x3e853431	0.2601638
28	0xbdb944d6	-0.090463325
29	0xbd5653ff	-0.0523262
30	0x3d875e41	0.066097744
31	0xbe04252d	-0.12904806
32	0xbd5a2e51	-0.053266827
33	0xbe6a395c	-0.22873443
34	0x3d4fe232	0.050752826
35	0xbdd5b28c	-0.10434446
36	0x3de21b7c	0.110403985
37	0xbe16bca2	-0.14720395
38	0x3da48272	0.08032693
39	0x3da21d41	0.07915736
40	0x3ce2f17e	0.027703043
41	0xbe0d0911	-0.1377299
42	0x3d98226e	0.07428442
43	0x3cff66dd	0.031176979
44	0x3e697c50	0.22801328
45	0xbd3e2bca	-0.04642848
46	0x3d81fb1c	0.063467234
47	0x3e1da96e	0.15396664
48	0x3df2333a	0.11826177
49	0xbe23cdcc	-0.15996474
50	0x3e09da32	0.13462141
51	0xbd14ad73	-0.036298227
52	0xbea2a9e1	-0.31770232
53	0x3cdc3ff8	0.026885971
54	0x3e6f80f0	0.2338903
55	0x3d47e8a9	0.048805866
56	0x3ddcacd3	0.10775151
57	0x3dd18506	0.1023045
58	0xbd983383	-0.074317
59	0xbde1a3aa	-0.110175446
60	0x3e11ef23	0.1425138
61	0xbe9311ee	-0.28724617
62	0x3e72d14f	0.23712657
63	0xbe4b395e	-0.19846103
64	0xbe8a76e5	-0.27043834
65	0x3e65c532	0.22438505
66	0xbdf4c5b8	-0.11951774
67	0x3e1ab8fb	0.15109627
68	0xbd8b8b54	-0.06813684
69	0x3d547bf6	0.05187603
70	0x3d78f3d5	0.06077941
71	0xbdc077db	-0.093978606
72	0x3db4954a	0.08817537
73	0x3e144c33	0.14482193
74	0x3d78bbc6	0.06072595
75	0xbd28ec61	-0.041241053
76	0x3de53ce5	0.11193255
77	0xbdb9a713	-0.0906507
78	0xbe1be4f8	-0.15224063
79	0x3db7fb01	0.08983422
80	0x3d2ce63b	0.042211752
81	0xbe048dd7	-0.12944733
82	0xbe0e834a	-0.1391727
83	0x3e4629bf	0.19351862
84	0x3e480bbd	0.19535728
85	0xbe1b5a89	-0.15171255
86	0x3df127ab	0.11775144
87	0xbe7768e2	-0.24161103
88	0x3dec7e77	0.11547559
89	0x3e39c23d	0.18140502
90	0xbc5077a5	-0.012723838
91	0x3d9fc59b	0.07801362
92	0xbcee71ff	-0.029107092
93	0x3d3ee001	0.046600346
94	0x399624e8	0.00028637727
95	0xbbe0153f	-0.00683847
96	0x3db1c459	0.086800285
97	0x3d8174c8	0.063211024
98	0x3c480c50	0.012209967
99	0xbce5c222	-0.028046671
100	0x3e9b79fd	0.30366507
101	0x3d07c103	0.033143055
102	0x3c30b3c8	0.010785051
103	0xbc9feb8b	-0.019521495
104	0xbdf1d9fd	-0.11809156
105	0xbdedf2b2	-0.11618556
106	0xbc67c4de	-0.014146058
107	0x3ca13863	0.019680208
108	0x3d7693b2	0.060199447
109	0xbdfa152e	-0.12211071
110	0xbe89318d	-0.26795617
111	0xbc618101	-0.013763667
112	0x3dceef56	0.101042435
113	0x3e85b2d7	0.26113006
114	0xbae95709	-0.0017802428
115	0x3e21e919	0.15811576
116	0x3cf15200	0.029458046
117	0x3e4bcaaa	0.19901529
118	0x3e0e16ac	0.13875836
119	0xbd22bad7	-0.039728966
120	0x3db50c85	0.088402785
121	0xbc51d7ba	-0.012807781
122	0xbdf0e6e2	-0.117627874
123	0xbcb078c6	-0.021541964
124	0x3d5f32f4	0.054491952
125	0x3e68fd96	0.22752985
126	0x3e0ae62d	0.13564368
127	0xbe6e9400	-0.23298645
128	0xbc4a4411	-0.01234533
129	0x3dcf8c12	0.10134138
130	0x3d8853d9	0.06656618
131	0xbd29f3e1	-0.041492347
132	0xbe06ddfa	-0.13170615
133	0x3dc633ca	0.09677847
134	0x3e950603	0.2910615
135	0x3e96f1d4	0.29481375
136	0xbe357c3b	-0.17723171
137	0x3d208f1d	0.039198983
138	0xbd1ff4eb	-0.03905193
139	0x3c4f20e8	0.012642123
140	0x3dec3d9b	0.11535188
141	0xbd2398a7	-0.039940502
142	0x3e0250bd	0.12726112
143	0x3c095a31	0.00838332
144	0x3d9a1202	0.07522966
145	0xbe1ad12a	-0.15118852
146	0x3cb881be	0.022522803
147	0x3d8f58e5	0.06999377
148	0xbe1cd003	-0.15313725
149	0xbe447083	-0.19183545
150	0x3d1b2052	0.03787262
151	0xbc0fa1f7	-0.008766643
152	0xbd343a67	-0.04400101
153	0x3e0529cc	0.13004225
154	0x3e82b2c0	0.25527
155	0x3e150755	0.14553578
156	0xbda3c757	-0.079970054
157	0xbe37a7a4	-0.17935044
158	0x3e43cce2	0.19121125
159	0x3d6f9938	0.05849573
160	0x3983dce4	0.00025150843
161	0xbbffa153	-0.007801214
162	0x3e124e99	0.14287795
163	0xbdd90b03	-0.105978034
164	0x3dd30c6e	0.10305105
165	0xbe21c5e0	-0.1579814
166	0x3d85d04e	0.065338716
167	0xbd3024fb	-0.043004017
168	0x3df17136	0.117891714
169	0x3ca61c51	0.020277174
170	0x3cdfe117	0.02732901
171	0xbd5ad528	-0.053425938
172	0xbd33c5e1	-0.043889884
173	0xbd64485f	-0.05573308
174	0x3e6e96ea	0.23299757
175	0x3e73b85c	0.23800796
176	0xbe212d2f	-0.15739892
177	0x3d5b0874	0.05347486
178	0xbd248668	-0.040167242
179	0x3d1a9821	0.037742738
180	0xbd1f1420	-0.038837552
181	0xbd58fcf5	-0.052975614
182	0xbe301571	-0.17195679
183	0x3b445e23	0.0029963336
184	0xbc20794a	-0.009794543
185	0x3dc4c54f	0.09607946
186	0x3e0db8f3	0.13840084
187	0x3e4a64ed	0.19765063
188	0xbd8fe615	-0.070263065
189	0xbdf04feb	-0.11733993
190	0xbd86d0d2	-0.06582798
191	0x3cee7ccb	0.02911224
192	0xbd7d97c6	-0.06191232
193	0xbc065525	-0.008199011
194	0xbe258071	-0.16162278
195	0x3c859830	0.01630792
196	0xbd87f4e1	-0.06638504
197	0x3d988d5f	0.074488394
198	0x3de32909	0.11091811
199	0x3d42bcf1	0.04754347
200	0xbe07b05c	-0.1325087
201	0x3d78ce11	0.060743395
202	0xbd8a1c6a	-0.06743701
203	0x3df1d2e0	0.11807799
204	0xbd4d3e5a	-0.05010829
205	0x3d81a490	0.06330216
206	0xbd526ad4	-0.05137141
207	0xbe5bd55b	-0.21468107
208	0xbdfe7881	-0.12425328
209	0xbe1a859b	-0.15090029
210	0x3e0bf307	0.13666926
211	0x3dd6049b	0.10450097
212	0xbc6d28f7	-0.014475099
213	0x3e27a267	0.16370545
214	0xbdf1a3ec	-0.11798844
215	0x3de1a37e	0.11017512
216	0x3dc10529	0.09424812
217	0xbcb80ff5	-0.022468546
218	0xbe315ad7	-0.17319809
219	0x3d890f86	0.06692414
220	0xbd607629	-0.054800186
221	0x3d928868	0.07154924
222	0xbde88696	-0.11353795
223	0xba66eb55	-0.0008808871
224	0xbe383e32	-0.17992476
225	0xbc06c993	-0.00822677
226	0x3dc2fd7d	0.09521005
227	0xbd636cd2	-0.0555237
228	0x3d56f997	0.05248412
229	0xbdd44c7d	-0.103661515
230	0x3e928407	0.28616354
231	0x3de24506	0.110483214
232	0xbc1efef0	-0.0097043365
233	0xbdb9dfff	-0.09075927
234	0xbe8c6806	-0.27423114
235	0xbc7370d5	-0.014858444
236	0xbd5d7bd4	-0.05407317
237	0x3d0b3dd9	0.03399453
238	0xbe000970	-0.125036
239	0x3d1ba8d4	0.038002804
240	0xbe4dfb63	-0.20115428
241	0xbdebb03a	-0.11508222
242	0xbe2d1b34	-0.16904908
243	0x3d9d7fcc	0.07690391
244	0xbe1ee05d	-0.15515275
245	0xbd110391	-0.03540379
246	0xbcc69e5d	-0.024245435
247	0x3ea55218	0.32289195
248	0x3c0d0e9b	0.008609439
249	0x3dff9cf7	0.124811105
250	0xbd7932eb	-0.060839575
251	0xbda13f0c	-0.07873353
252	0x3dbd804b	0.092529856
253	0xbdc5919b	-0.09646913
254	0xbe1828c4	-0.14859301
255	0xbd87840b	-0.06616982

shared_layers.0.bias f4 [128]
0	0xbc15a081	-0.009132505
1	0xbd50947a	-0.05092285
2	0x3c993847	0.018703593
3	0xbd5b5265	-0.053545374
4	0x3c84d93a	0.016216863
5	0x3d3ef4b2	0.04662008
6	0xbcd4002b	-0.025878986
7	0xbce1ac4d	-0.02754798
8	0x3beb3f1e	0.007179155
9	0xbd0398fc	-0.03212832
10	0xbd44a65e	-0.048010223
11	0xbcc372cb	-0.023858448
12	0x3ca35a79	0.019940602
13	0x3ca622b6	0.020280223
14	0xbcafd1cd	-0.021462345
15	0x3cc7d13a	0.02439176
16	0x3cd7e315	0.026353398
17	0x3d5999a7	0.05312505
18	0x3cbfaf68	0.02339907
19	0xbd79bf62	-0.060973532
20	0xbbb4538b	-0.005503123
21	0x3b96f982	0.0046073804
22	0xbbf9b6bf	-0.007620662
23	0xbd5f1285	-0.05446102
24	0x3cf07863	0.02935428
25	0x3d9c0200	0.07617569
26	0x3d1d481e	0.038398854
27	0xbb30dd0b	-0.002698722
28	0x3c3073dc	0.0107698105
29	0x3cdad2d9	0.026711868
30	0x3d84551e	0.06461547
31	0x3d0aec9c	0.033917055
32	0x3beeb932	0.0072852606
33	0xbd807c17	-0.06273668
34	0xbd10fcd1	-0.035397355
35	0x3d915ed8	0.07098168
36	0xbc6ce352	-0.014458494
37	0x3ca1f1f2	0.019768689
38	0x3ceff304	0.029290684
39	0xbd900155	-0.07031504
40	0x3b1a72a3	0.0023566864
41	0x3b9e6c49	0.004834686
42	0xbc01bc16	-0.007918378
43	0xbd7b1f07	-0.061308887
44	0x3c61d714	0.013784189
45	0xbd219530	-0.039448917
46	0xbd2e45f9	-0.0425472
47	0x3d710f2f	0.05885237
48	0xbce0dbd5	-0.027448574
49	0xbd1cd665	-0.0382904
50	0xbc9b36e9	-0.018947082
51	0x3cc93761	0.02456254
52	0x3c47a8bf	0.012186228
53	0xbd695f5b	-0.056975704
54	0x3c56a676	0.013101211
55	0xbb9eb321	-0.004843131
56	0xbcd9c5ab	-0.026583513
57	0x3c694c25	0.014239346
58	0xbcb411c1	-0.021981122
59	0x3d182c9b	0.037151914
60	0x3cbc94b0	0.023020118
61	0x3a445166	0.0007488936
62	0xbd6512be	-0.055926077
63	0x3d3c83fa	0.0460243
64	0xbcb15980	-0.021649122
65	0xbd2d70ec	-0.04234402
66	0x3d0cf9be	0.03441786
67	0xbc9320fb	-0.017960062
68	0x3d7c8fc0	0.06166053
69	0x3be842a6	0.0070880232
70	0x3d032117	0.03201398
71	0x3c08fa17	0.008360407
72	0xb8c2fef1	-9.2981274e-05
73	0xbd0c8e51	-0.03431541
74	0xbcb29b2d	-0.02180251
75	0xbd03594c	-0.032067582
76	0x3c616b38	0.013758473
77	0xbcf6781d	-0.030086571
78	0xbd92e0c2	-0.071717754
79	0x3cff0c04	0.03113366
80	0xbc3675f2	-0.011136519
81	0xbd9d3ebd	-0.07677982
82	0xbd936747	-0.07197433
83	0x3ccce7ed	0.025012935
84	0xbd0aba00	-0.03386879
85	0x3d333998	0.043756098
86	0xbc1939ac	-0.009352129
87	0xbd22bf21	-0.039733056
88	0x3cea9d18	0.028639361
89	0x3bc868b3	0.0061159967
90	0x3c9c5ce5	0.019087264
91	0xbbe5c5c5	-0.0070121014
92	0xbd091645	-0.033468504
93	0xbd0a325b	-0.03373943
94	0x3c938b3c	0.018010728
95	0x3d949dfb	0.07256695
96	0xbc3c2c7d	-0.011485216
97	0x3b33dd65	0.0027445194
98	0x3d24447c	0.040104374
99	0xbc9e5163	-0.019325918
100	0xbd27c1ee	-0.04095643
101	0x3d39b84f	0.045341786
102	0xbd50f348	-0.05101326
103	0xbb9c458e	-0.0047690338
104	0x3cd82fdf	0.026390014
105	0xbcc028fe	-0.023457047
106	0x3c65bd5c	0.014022198
107	0x3c08eb52	0.008356886
108	0x3ca65d39	0.020308124
109	0xbce33b63	-0.027738279
110	0xbd709883	-0.058739197
111	0x3c1f4dc5	0.009723132
112	0x3c413a4e	0.011793686
113	0x3b3910e3	0.0028238825
114	0xbd6cd2b0	-0.057818115
115	0x3c3ac3de	0.011399237
116	0x3bf14b89	0.007363741
117	0xbce76ae8	-0.028249219
118	0xb9975e12	-0.00028871052
119	0x3d23bab0	0.03997296
120	0xbd49a8e2	-0.049233325
121	0xbcccece5	-0.025015304
122	0xbd42229b	-0.047396284
123	0xbba5d99a	-0.0050613405
124	0x3d4c317f	0.04985189
125	0x3c0fce09	0.00877715
126	0xbd750981	-0.059823517
127	0xbc977f9e	-0.01849347

shared_layers.2.weight f4 [128, 128]
0	0x3c1dbabb	0.00962704
1	0x3dedf70a	0.116193846
2	0xbd97e120	-0.07415986
3	0xbe148a71	-0.14505936
4	0x3dd94db8	0.10610527
5	0xbd85cb6d	-0.06532941
6	0xbc7b37b1	-0.015333102
7	0x3e0d581d	0.13803144
8	0xbd955ebe	-0.07293461
9	0xbcffd8aa	-0.031231243
10	0xbd8e5d6a	-0.06951411
11	0xbd6dc779	-0.05805156
12	0xbbc0435b	-0.0058674044
13	0x3e54654a	0.20741764
14	0xbda99290	-0.08279908
15	0x3db20c2d	0.086937286
16	0xbdb203de	-0.08692144
17	0x3e705c1f	0.23472641
18	0x3c7cf0f2	0.015438305
19	0x3d1c85a1	0.038213376
20	0xbe0666f0	-0.13125205
21	0x3d819632	0.063274756
22	0x3d9b4f93	0.07583537
23	0x3d0e3881	0.034721855
24	0xbda062c3	-0.07831337
25	0xbcf6be4c	-0.030120037
26	0xbb7f68c0	-0.0038972348
27	0xbd8403ff	-0.06446075
28	0x3d95c2ef	0.07312571
29	0x3d5bf469	0.053699885
30	0x3dbe1723	0.09281757
31	0x3d7fe10d	0.062470485
32	0xbacbae5a	-0.0015539632
33	0x3c555249	0.013020107
34	0xbd79eb93	-0.061015677
35	0x3b2d231c	0.0026418632
36	0xbe822b21	-0.2542353
37	0x3da1bcf8	0.07897371
38	0xbd0cd8a5	-0.034386296
39	0x3de9cc64	0.114159375
40	0xbdab4c9d	-0.08364222
41	0x3df35488	0.118813574
42	0xbcf6f09d	-0.03014403
43	0x3a976c49	0.0011552657
44	0xbe13ec8f	-0.14445709
45	0xbcf52e0e	-0.029929187
46	0x3e820160	0.25391674
47	0xbe387dae	-0.18016693
48	0xbe24b43a	-0.16084376
49	0x3e670268	0.22559512
50	0x3e761f64	0.24035412
51	0xbd0279ae	-0.031854324
52	0x3d3b86b1	0.04578275
53	0x3be74931	0.0070582856
54	0x3e011154	0.12604266
55	0xbd3504c3	-0.044193994
56	0xbe862df9	-0.2620695
57	0x3de7453b	0.112925015
58	0x3d3831f0	0.0449695
59	0xbcd5fde4	-0.026122041
60	0xbd717192	-0.0589462
61	0xbcda1ea4	-0.026625939
62	0x3b8b41aa	0.004249771
63	0x3d72c5d0	0.05927068
64	0xbe87987b	-0.2648352
65	0xbe5c9d1d	-0.21544309
66	0xbdca446c	-0.09876332
67	0xbe82c461	-0.2554045
68	0xbe185175	-0.14874823
69	0x3e03eb80	0.12882805
70	0xbdab4d63	-0.0836437
71	0x3c5e9de3	0.013587448
72	0xbe86b194	-0.26307356
73	0x3e86b843	0.26312456
74	0xbd586e48	-0.052839547
75	0x3e88664c	0.26640546
76	0xbd469076	-0.048477612
77	0xbca943ed	-0.020662272
78	0xbd71254d	-0.058873463
79	0x3e8e21a2	0.27760035
80	0x3e767963	0.24069743
81	0x3e5918fd	0.21200939
82	0x3e4d63ed	0.2005765
83	0xbdc42227	-0.095768265
84	0x3c082fa2	0.008312138
85	0x3c28906f	0.010288342
86	0xbdd0ae98	-0.10189551
87	0xbd951bcc	-0.072806925
88	0x3da73ac0	0.081655025
89	0xbe417857	-0.18893562
90	0x3de91ed0	0.1138283
91	0x3c5648b4	0.013078857
92	0xbc51cccd	-0.012805176
93	0x3dab26f6	0.083570406
94	0x3e24d20f	0.16095756
95	0x3a9f5e19	0.0012158781
96	0x3d9adbba	0.07561441
97	0xbdd2c18b	-0.10290822
98	0xbdad554c	-0.08463535
99	0xbda820c7	-0.08209377
100	0x3d674fdc	0.056472644
101	0x3e6c738a	0.2309095
102	0x3d4cd1b3	0.050004672
103	0x3dcc53fd	0.09976957
104	0xbc8024fc	-0.015642636
105	0xbe03350d	-0.12813206
106	0x3daa29b6	0.08308737
107	0x3dd4dd33	0.10393753
108	0xbd85c39f	-0.065314524
109	0xbd9fc5b1	-0.078013785
110	0xbe09675c	-0.13418335
111	0xbdd2a07c	-0.10284516
112	0x3e78da1a	0.24301949
113	0x3e28608b	0.16443078
114	0xbdea2f58	-0.11434811
115	0x3dd94259	0.10608358
116	0xbdbfc519	-0.09363765
117	0x3e857f81	0.2607384
118	0x3d4d44ca	0.05011443
119	0x3d9419a7	0.07231455
120	0xbd9900af	-0.074708335
121	0x3def8efc	0.11697194
122	0xbe045135	-0.12921603
123	0xbcc2c6a5	-0.023776362
124	0x3d5035ce	0.050832562
125	0xbd53d3a4	-0.051715508
126	0xbe69f858	-0.22848642
127	0xbb4e2aa6	-0.0031458526
128	0xbe3d3635	-0.1847771
129	0xbd718ed0	-0.058974087
130	0xbd8d9812	-0.06913771
131	0x3d4a4c8f	0.04938942
132	0xbe2ae11a	-0.16687432
133	0x3dc9a580	0.0984602
134	0x3e096af6	0.13419709
135	0x3e5e70d3	0.21722727
136	0x3ce43cf4	0.027861096
137	0xbdb4c6dc	-0.08826992
138	0x3ec48c4a	0.38388282
139	0xbe2a5279	-0.16633023
140	0xbdee8564	-0.11646536
141	0x3bcc5780	0.0062360168
142	0xbe7ae706	-0.24502191
143	0xbdef9dff	-0.11700057
144	0x3d1fcb0e	0.039012007
145	0xbc7581e7	-0.014984584
146	0x3e0c2ad9	0.1368822
147	0xbe22a652	-0.15883759
148	0xbd82734f	-0.063696496
149	0xbd1402b4	-0.03613539
150	0xbe3639d8	-0.17795503
151	0x3cddaf05	0.027060995
152	0xbcb4c5a7	-0.022066904
153	0xbe1a60cc	-0.15075988
154	0x3d13ac05	0.036052722
155	0xbe2e981b	-0.17050211
156	0x3e1ba551	0.15199782
157	0xbe53fd25	-0.20702036
158	0x3d34c920	0.04413712
159	0x3dfbe059	0.1229865
160	0x3c5b4829	0.013383904
161	0x3cef63bf	0.029222367
162	0xbdf832bb	-0.12119051
163	0x3c0b1505	0.008488898
164	0x3c75afb8	0.014995508
165	0x3e57ce87	0.21074878
166	0x3d9289f6	0.0715522
167	0xbd391ff7	-0.0451965
168	0xbdc6df58	-0.09710568
169	0xbe8a81fb	-0.27052292
170	0x3e74216b	0.23840873
171	0x3e709060	0.23492575
172	0xbd937f5e	-0.07202028
173	0x3d706368	0.05868855
174	0x3d5b1bd8	0.05349335
175	0xbe441c5e	-0.19151446
176	0x3cf2a141	0.029617907
177	0x3d7b47d1	0.061347786
178	0x3d4306b5	0.04761382
179	0xbbf40cc8	-0.0074478127
180	0xbdabde60	-0.08392024
181	0x3c837228	0.016045645
182	0xbd4924c2	-0.04910732
183	0xbc6e333a	-0.014538581
184	0x3d8f303b	0.06991621
185	0xbd4fdbe1	-0.050746802
186	0x3e2cebba	0.16886798
187	0x3c41ba01	0.011824132
188	0xbdb16117	-0.086610965
189	0x3cc82b96	0.024434846
190	0xbd32036f	-0.043460306
191	0x3d9d2a0d	0.07674036
192	0x3da292cf	0.07938158
193	0xbc1ebf11	-0.0096891085
194	0xbd945fae	-0.07244812
195	0x3e5be81c	0.21475261
196	0x3e38cafb	0.18046181
197	0xbc958303	-0.018250948
198	0x3db33231	0.087498076
199	0x3d3f4e4e	0.046705537
200	0xbcbf8a08	-0.023381248
201	0x3cf412ea	0.029794175
202	0xbd8e5a11	-0.069507726
203	0x3b0c3edb	0.002139977
204	0x3e2c62e0	0.16834593
205	0xbd95f64f	-0.0732237
206	0x3e27d9be	0.16391656
207	0x3e668fca	0.22515789
208	0x3d29a052	0.04141266
209	0xbcdf0da6	-0.027228188
210	0xbd064342	-0.032778986
211	0xbde5374c	-0.11192188
212	0xbc87a2bb	-0.016557088
213	0xbd35354f	-0.044240292
214	0x3df1f234	0.11813775
215	0x3ebefd54	0.3730265
216	0x3e30946c	0.17244118
217	0x3c937eaa	0.018004734
218	0x3cebd893	0.028789794
219	0xbcc78d0d	-0.02435925
220	0x3baa7c5f	0.0052028145
221	0xbe31caa7	-0.17362462
222	0x3cc4b138	0.024010286
223	0xbdb2a29c	-0.087224215
224	0x3a970738	0.0011522537
225	0xbdf6c07e	-0.12048434
226	0x3db57044	0.088593036
227	0x3e461e77	0.19347559
228	0x3c247fbc	0.01004022
229	0xbdb77620	-0.089580774
230	0x3e8abf04	0.27098858
231	0x3d923cfb	0.07140537
232	0xbea9316d	-0.3304552
233	0xbab94e16	-0.0014137651
234	0xbd7773ab	-0.060413044
235	0x3d20ae3f	0.039228674
236	0x3c1c9886	0.009557849
237	0x3dc71b72	0.09722032
238	0x3d4fa250	0.050691903
239	0x3cb56ae2	0.022145692
240	0x3e102c54	0.1407941
241	0xbcf33d67	-0.029692365
242	0xbd3ec705	-0.04657652
243	0x3d89a089	0.06720073
244	0x3e4e1d6f	0.20128416
245	0x3dbf17ff	0.09330749
246	0xbe4ba7cf	-0.19888233
247	0x3dd12b6d	0.10213361
248	0x3dadd02b	0.084869705
249	0xbe87c2a0	-0.26515675
250	0xbd8002b9	-0.06250519
251	0x3d432d6f	0.04765075
252	0xbd6df7f9	-0.058097813
253	0x3c5859d9	0.013205015
254	0xbe347666	-0.1762329
255	0xbd77ce60	-0.06049955

shared_layers.2.bias f4 [128]
0	0x3d0fbf8a	0.035094775
1	0xbd67887b	-0.056526642
2	0x3a1afd6a	0.00059123954
3	0x3cdbc554	0.026827492
4	0xbd7933f7	-0.060840573
5	0x3ca56dc5	0.020193944
6	0x3c9b6e60	0.01897353
7	0xbbd0a4f0	-0.0063673183
8	0xbd5ece24	-0.05439581
9	0xbbdf671a	-0.0068177106
10	0xbd27349e	-0.040821664
11	0xbaffa79c	-0.0019504908
12	0xbcc9c003	-0.024627691
13	0x3d18177b	0.037131768
14	0x3cef8f94	0.029243268
15	0xbb902887	-0.0043993625
16	0x3c055b27	0.008139408
17	0xbd20e07c	-0.039276585
18	0xbd1bf203	-0.038072597
19	0x3d87db5b	0.066336356
20	0x3c6b4fe7	0.014362312
21	0xbca6a522	-0.020342413
22	0x3cf5df09	0.030013578
23	0xbc7a612a	-0.015281955
24	0x3d14c869	0.03632394
25	0xbd070132	-0.032960124
26	0xbd546d26	-0.051861905
27	0x3d06d5df	0.032918807
28	0x398ca610	0.00026826607
29	0xbcc8f016	-0.024528544
30	0xbcc22431	-0.023698898
31	0xbb48e8db	-0.003065637
32	0xbd4444c4	-0.047917143
33	0x3c19602d	0.009361309
34	0x3d5f42ba	0.054506995
35	0x3ba1ef60	0.004941866
36	0x3ccd8c30	0.02509126
37	0xbd19af11	-0.037520472
38	0x3d1dfb55	0.038569767
39	0xbd625a36	-0.055261813
40	0x3cf0fcfe	0.029417511
41	0x3d30dbe5	0.043178458
42	0x3d7da2da	0.061922885
43	0xba9db579	-0.0012032232
44	0x3b7af1e9	0.0038291162
45	0x3d737f08	0.05944732
46	0xbd0a8349	-0.03381661
47	0x3c2d52f8	0.010578863
48	0xbcc214bf	-0.023691533
49	0xbc872cb2	-0.016500805
50	0xbd0bf721	-0.034171227
51	0xbcbc2460	-0.022966564
52	0x3d2c849c	0.042118654
53	0xbd1b0cd4	-0.03785403
54	0xbc5cb502	-0.01347089
55	0x3d0e5393	0.03474767
56	0x3c8b9b08	0.017041698
57	0x3d6fdacc	0.05855827
58	0xbc790f34	-0.015201379
59	0x3b8b757d	0.004255949
60	0xbc689650	-0.014195994
61	0x3bf2f8ed	0.007414928
62	0x3cc0d422	0.023538653
63	0x3d9d28e4	0.07673815
64	0xbd7417b3	-0.059592914
65	0x3cf97f5c	0.030456237
66	0x3d433a6d	0.04766314
67	0xbb9fd99b	-0.0048782355
68	0xbd7917fb	-0.060813885
69	0xbd7d456d	-0.061833788
70	0x3ca0f405	0.019647608
71	0x3d5c01c2	0.053712614
72	0xbd2ab8a0	-0.04167998
73	0xbc987a8e	-0.018613126
74	0xbcb3c769	-0.021945672
75	0xbd01705e	-0.031601302
76	0xbcee2041	-0.029068114
77	0x3d2880fb	0.04113863
78	0xbd4ec1d5	-0.05047782
79	0xbcd12aa5	-0.02553303
80	0x3d890fa1	0.06692434
81	0x3be0720e	0.006849534
82	0xbd5d042b	-0.053959053
83	0xbd959530	-0.07303846
84	0x3c397910	0.011320367
85	0xbd8fbadf	-0.07018065
86	0xb80534f7	-3.1759e-05
87	0x3cd0d013	0.025489843
88	0xbc8f45f9	-0.01748942
89	0xbcdb3103	-0.026756769
90	0xbd8f64ad	-0.07001624
91	0xbd519ec2	-0.051176794
92	0x3c11b24d	0.008892608
93	0xbc345807	-0.0110073155
94	0xbcc6041e	-0.024171885
95	0x3bca1876	0.0061674668
96	0x3d219de6	0.039457224
97	0xbd78c579	-0.0607352
98	0x3d8e7429	0.069557495
99	0xbca42410	-0.020036727
100	0x3c5e43b0	0.013565943
101	0x3b89fa02	0.0042107115
102	0xbd7704f1	-0.060307447
103	0xbd48d6c7	-0.049032953
104	0x3d96fc6f	0.07372367
105	0xbc5240ba	-0.012832815
106	0xbcb19c28	-0.021680906
107	0x3ce8113f	0.028328536
108	0x3b887a47	0.004164967
109	0xbd02a781	-0.031898025
110	0xbd7934e1	-0.060841445
111	0xbcd0beab	-0.025481543
112	0xbc1eff4e	-0.009704424
113	0x3d1c9382	0.038226612
114	0xbc7680b7	-0.015045336
115	0xbac24696	-0.0014822062
116	0xbb29077b	-0.0025791812
117	0xbd266f12	-0.04063327
118	0xbc7c7d76	-0.015410772
119	0xbcc12884	-0.02357889
120	0x3d1f1e1f	0.038847085
121	0xba86d333	-0.0010286331
122	0xbd5445bf	-0.051824328
123	0xbcfc333f	-0.030786155
124	0x3c126d96	0.00893726
125	0x3d3cdd6b	0.046109598
126	0x3cb5033c	0.022096269
127	0xbbf8fc8b	-0.007598465

shared_layers.4.weight f4 [64, 128]
0	0x3d603794	0.054740503
1	0x3d01c96f	0.031686243
2	0xbd35f4df	-0.04442298
3	0x3c117de1	0.0088801095
4	0x3d4a693e	0.049416773
5	0x3cf89da2	0.030348603
6	0xbcf55509	-0.029947774
7	0x3d062c54	0.03275712
8	0x3e019fb7	0.12658583
9	0x3e095d95	0.13414605
10	0xbe08858b	-0.13332193
11	0x3d23900d	0.0399323
12	0x3e7bfb7a	0.2460765
13	0xbcd7a494	-0.026323594
14	0x3e77d9ed	0.24204226
15	0x3d650b04	0.05591871
16	0xbcf527cf	-0.029926209
17	0x3ce75afe	0.02824163
18	0x3d0ac2c7	0.03387716
19	0x3e486733	0.19570617
20	0xb9d623ad	-0.0004084384
21	0xbd0dee8b	-0.03465132
22	0xbd160d5f	-0.036633845
23	0x3d113317	0.035449114
24	0x3d14c5af	0.03632134
25	0x3e7bab88	0.24577153
26	0x3cd45846	0.025920998
27	0x3e1a0a7e	0.15043065
28	0xbe85e19a	-0.26148683
29	0xbe1d1660	-0.15340567
30	0x3cea2ece	0.028586771
31	0xbddc8898	-0.10768241
32	0x3d8776af	0.06614434
33	0x3d90faa6	0.070790574
34	0xbb2453cf	-0.0025074368
35	0xbe348718	-0.17629659
36	0xbb9f56fc	-0.0048626643
37	0x3dff6886	0.12471108
38	0x3e595943	0.21225457
39	0xbd8df111	-0.069307454
40	0x3cba9e31	0.02278051
41	0xbda165fa	-0.078807786
42	0x3c98c6e4	0.018649526
43	0xbe13ba3d	-0.14426513
44	0x3e4df587	0.20113192
45	0xbd930d1f	-0.07180237
46	0xbdfb40d9	-0.12268228
47	0x3c96a965	0.01839132
48	0xbb4248dd	-0.002964548
49	0xbdfdbeaf	-0.12389886
50	0x3e685c84	0.22691542
51	0x3e1a167f	0.15047644
52	0x3e24f7a7	0.16110097
53	0xbe5d3102	-0.21600726
54	0x3ddad59f	0.10685276
55	0x3d89d2f2	0.06729688
56	0xbccc86ba	-0.024966586
57	0x3df2c363	0.11853673
58	0xbc1081b3	-0.008819985
59	0xbe685adf	-0.22690915
60	0x3d6d5b9a	0.057948686
61	0x3df7446d	0.12073598
62	0xbd1bb118	-0.038010687
63	0x3e9336d1	0.2875276
64	0xbddf7af4	-0.10912123
65	0xbdb42953	-0.087969445
66	0xbc9fd173	-0.019509053
67	0x3e00d601	0.12581636
68	0xbda57abe	-0.08080052
69	0x3d561ab1	0.05227155
70	0xbda07f8c	-0.07836828
71	0xbd83d9f8	-0.064380586
72	0xbd076b1f	-0.033061143
73	0x3e617944	0.22018915
74	0xbde2203e	-0.11041306
75	0xbe83dc29	-0.25753906
76	0x3ca25a57	0.019818468
77	0x3d2e7169	0.042588625
78	0x3c9378a6	0.018001866
79	0x3d2dae2b	0.042402428
80	0x3d19d40f	0.03755575
81	0xbe6f3604	-0.23360449
82	0x3d310c2b	0.043224495
83	0x3e0279c9	0.1274177
84	0x3da69132	0.081331626
85	0xbdb93f59	-0.09045286
86	0x3dc0c9c5	0.094134845
87	0xbec08419	-0.37600783
88	0x3c27e985	0.0102485465
89	0x3ba6df5f	0.005092546
90	0x3e302aca	0.17203823
91	0xbca5800f	-0.020202665
92	0xbde454b7	-0.111489706
93	0xbe224a72	-0.15848711
94	0xbd687996	-0.05675658
95	0xbbac850d	-0.0052648843
96	0x3db49cd9	0.08818979
97	0xbb96224b	-0.0045817248
98	0xbd888d5d	-0.06667588
99	0xbd9ea252	-0.07745804
100	0xbe615060	-0.22003317
101	0x3e7f30f0	0.24921012
102	0x3d931bff	0.07183074
103	0xbd05be77	-0.032652345
104	0x3d10365e	0.0352081
105	0xbe50164b	-0.20321004
106	0xbd704688	-0.058661014
107	0x3bde2dba	0.0067803534
108	0x3bf1373f	0.007361322
109	0xbe8f8bb7	-0.2803628
110	0xbe823dd8	-0.25437808
111	0xbe50c0f0	-0.203861
112	0x3be7152e	0.0070520854
113	0x3dbd881e	0.09254478
114	0x3db3b178	0.08774084
115	0x3da3f9c3	0.08006623
116	0xbddf865e	-0.109143004
117	0xbe09655e	-0.13417575
118	0x3dd6d3a3	0.10489585
119	0xbdfd96db	-0.12382289
120	0xbd95e280	-0.07318592
121	0xbdc2fa1d	-0.095203616
122	0xbe27844b	-0.1635906
123	0xbde2d86c	-0.110764354
124	0x3e8d5b0e	0.27608532
125	0xbc954c7a	-0.018224943
126	0x3d8b0f86	0.0679007
127	0xba954ab1	-0.0011390058
128	0x3df78880	0.12086582
129	0xbdf1d2bb	-0.11807772
130	0xbdce407b	-0.100708924
131	0x3e85e1cf	0.2614884
132	0x3d1427c5	0.03617074
133	0x3cc85048	0.024452344
134	0x3da34c0c	0.07973489
135	0xbccf064c	-0.025271557
136	0x3d43ebbb	0.047832232
137	0x3c406b80	0.01174438
138	0x3c67e1fd	0.014153001
139	0xbdc4ca53	-0.09608903
140	0x3ceaa1b6	0.028641563
141	0xbe84faad	-0.259725
142	0x3d5b53a7	0.053546574
143	0xbdebb18b	-0.11508473
144	0xbcdee901	-0.027210714
145	0xbdfcf372	-0.12351121
146	0xbb9fec13	-0.004880437
147	0x3d7c698a	0.061624087
148	0xbdd9f3ba	-0.1064219
149	0xbd97cc13	-0.07411971
150	0x3e26c7d0	0.1628716
151	0x3daa6bef	0.08321368
152	0x3de3f92c	0.1113151
153	0x3dcb102c	0.09915194
154	0xbd58bdc8	-0.052915365
155	0x3d2f7cd6	0.042843662
156	0x3e405618	0.18782842
157	0x3e526415	0.20545991
158	0x3e83bec2	0.25731474
159	0x3d0e8b1d	0.034800638
160	0x3bcaaa8a	0.0061848806
161	0x3da60e08	0.08108145
162	0xbdc0bd46	-0.09411101
163	0x3d1abd52	0.037778206
164	0xbe120861	-0.14261009
165	0xbe19bc3a	-0.15013209
166	0x3dba7fa8	0.0910638
167	0xbc8f42a6	-0.017487835
168	0x3db245ad	0.08704696
169	0xbd209fb3	-0.0392148
170	0x3d8a4da0	0.06753087
171	0x3e37b7d8	0.17941225
172	0x3c5209d0	0.012819722
173	0x3e9b7718	0.303643
174	0xbd9d74dd	-0.076883055
175	0x3e3e5f21	0.18590976
176	0x3dcfe79a	0.10151596
177	0xbe115a87	-0.1419469
178	0xbd4c18d1	-0.049828354
179	0x3e69cfca	0.22833171
180	0xbd834ea6	-0.064114854
181	0x3d81721a	0.06320591
182	0xbd89ae2d	-0.067226745
183	0x3e515fe9	0.20446743
184	0x3dedc67e	0.11610125
185	0x3c96eee0	0.018424451
186	0xbe0afe1f	-0.13573502
187	0x3dd00653	0.10157456
188	0xbdad09c6	-0.0844913
189	0x3e52317e	0.20526692
190	0x3dce0da3	0.10061195
191	0x3e38226d	0.17981882
192	0xbd693eee	-0.05694478
193	0x3cf9a715	0.030475179
194	0xbe0cd446	-0.13752851
195	0xbd8ab9a1	-0.06773687
196	0x3c7d98da	0.015478337
197	0x3e12f37d	0.14350696
198	0x3d66463e	0.056219332
199	0xbd0fb00d	-0.035080004
200	0xbde85461	-0.11344219
201	0xbe16c2db	-0.14722769
202	0xbe8e339a	-0.27773744
203	0x3e4792be	0.19489571
204	0x3de91500	0.113809586
205	0xbe405632	-0.18782881
206	0x3dff06fd	0.12452505
207	0xbdcaecb0	-0.09908426
208	0x3d94556c	0.072428554
209	0x3db15db3	0.0866045
210	0x3d2f1d8b	0.042752784
211	0x3e588dd7	0.21147858
212	0xbe085610	-0.1331408
213	0x3bddb8a3	0.006766395
214	0xbe000efc	-0.12505716
215	0x3d6c2a6b	0.05765764
216	0x3c714095	0.01472487
217	0x3e01ae47	0.12664138
218	0xbe3ccf09	-0.18438353
219	0x3d172944	0.03690459
220	0xbb9deddf	-0.004819616
221	0xbde28409	-0.1106034
222	0x3e186eec	0.14886063
223	0xbd19395c	-0.037408218
224	0x3ded16d7	0.11576622
225	0xbe3ff91f	-0.18747376
226	0x3e96441f	0.29348847
227	0xbc19334e	-0.009350611
228	0x3e40e8f1	0.1883886
229	0xbbe5a3f0	-0.0070080683
230	0x3dd6c860	0.10487437
231	0xbbf87012	-0.007581719
232	0x3ded35b2	0.11582507
233	0xbe425114	-0.18976241
234	0x3e3ee057	0.18640266
235	0xbe07c588	-0.13258946
236	0x3e066a09	0.13126387
237	0xbe4c4f68	-0.19952166
238	0x3d8b4a4a	0.06801279
239	0xbdd47c9c	-0.1037533
240	0xbdef1a7b	-0.116749726
241	0xbda9781b	-0.082748614
242	0xbd58056a	-0.05273954
243	0x3e75b31b	0.23994105
244	0xbdb1d1b6	-0.08682577
245	0x3e4ebc59	0.20189036
246	0x3d75779c	0.05992852
247	0xbe0a7ffc	-0.13525385
248	0x3caae0ff	0.02085924
249	0xbdf6fff3	-0.12060537
250	0xbd547a1b	-0.05187426
251	0x3da172c1	0.07883216
252	0x3dc1461a	0.09437199
253	0x3e0c753d	0.13716598
254	0x3d032f6e	0.032027654
255	0x3df348bc	0.11879107

shared_layers.4.bias f4 [64]
0	0x3d354e1c	0.044263944
1	0x3c6cf9d7	0.014463863
2	0x3bf18e50	0.0073717013
3	0xbd1f1417	-0.03883752
4	0x3d0787dc	0.03308855
5	0x3cbe2490	0.023210794
6	0xbc36a2a2	-0.011147173
7	0x3ab5e0cf	0.0013876202
8	0xbcfd04ac	-0.030886017
9	0xbd5f15e7	-0.054464247
10	0x3cefa940	0.02925551
11	0xbcb91583	-0.022593265
12	0x3d067f0a	0.032835998
13	0x3d29b1ca	0.04142932
14	0x3bb35526	0.005472797
15	0xbcfe29e5	-0.031025836
16	0x3c73503d	0.014850673
17	0xbc4bfea1	-0.012450845
18	0xbd8036c2	-0.06260444
19	0xbca04c95	-0.019567767
20	0xbd0367e0	-0.032081485
21	0xbc94297e	-0.018086191
22	0x3c97b947	0.018520964
23	0x3d515fcf	0.05111676
24	0xbd26cb09	-0.040720973
25	0x3c2d7ce2	0.010588856
26	0x3d4d967f	0.050192352
27	0xbd600c78	-0.05469939
28	0xbd97bec8	-0.074094355
29	0xbd47fefb	-0.048827153
30	0x3c1b5bae	0.009482307
31	0xbb9003ec	-0.004394999
32	0x3d60a1be	0.05484175
33	0x3c610d5b	0.013736094
34	0x3d2a37bf	0.04155707
35	0xbc2e544b	-0.010640214
36	0xbcb9ad18	-0.022665545
37	0x3d34a348	0.04410103
38	0x3c2e0619	0.010621571
39	0x3cca7155	0.024712244
40	0xbcf8a957	-0.030354185
41	0xbc1d9fcc	-0.009620618
42	0x3d9077ab	0.07054075
43	0xba946b68	-0.0011323513
44	0x3bf9b76d	0.007620743
45	0x3d174ced	0.036938597
46	0x3d91292d	0.07087932
47	0xbccbe05c	-0.024887256
48	0x3d3b001f	0.045654412
49	0xbb73fdae	-0.0037230062
50	0xbd4399a0	-0.04775393
51	0xbd44c71a	-0.04804144
52	0x3d667aee	0.05626958
53	0xbd5bc4b2	-0.05365438
54	0x3d98630c	0.07440767
55	0x3d95cfb3	0.07315006
56	0xbc8b9fca	-0.017043967
57	0x3d41c298	0.04730472
58	0xbd1335c3	-0.035939943
59	0x3cb84f10	0.022498637
60	0x3cefc11b	0.029266885
61	0x3c5a0d42	0.013308825
62	0x3bca7ae3	0.0061792
63	0xbd7adf8b	-0.061248343

shared_layers.6.weight f4 [64, 64]
0	0xbe747f89	-0.23876776
1	0x3e32d5cc	0.1746437
2	0x3e006274	0.12537557
3	0x3e3a5b55	0.18198903
4	0xbd11f1e4	-0.035631076
5	0x3e9a6422	0.3015452
6	0x3e36f3ae	0.17866394
7	0x3c8c1642	0.017100457
8	0x3e08504e	0.13311884
9	0x3e844db8	0.25840545
10	0xbe114935	-0.14188083
11	0x3e1db5f1	0.15401436
12	0xbe03b8fb	-0.12863533
13	0xbe2b25de	-0.16713664
14	0xbdae716d	-0.08517728
15	0x3c572281	0.013130785
16	0x3eb29a69	0.3488343
17	0x3d124f73	0.0357203
18	0x3e2f4a1f	0.17118119
19	0x3e020c01	0.12699892
20	0xbd3f3f6b	-0.04669134
21	0x3d6004f6	0.05469223
22	0xbe756e33	-0.23967819
23	0xbe0c7868	-0.13717806
24	0xbd865757	-0.065596275
25	0x3d29a779	0.04141948
26	0xbd893f53	-0.06701531
27	0x3dd57b73	0.10423937
28	0x3ed28133	0.41114196
29	0xbe39d109	-0.18146147
30	0xbe07eb85	-0.13273437
31	0x3d2851fe	0.04109382
32	0xbd58c745	-0.052924413
33	0xbdc5caaf	-0.096577995
34	0xbe7846fe	-0.24245831
35	0xbe8a3c7a	-0.26999265
36	0xbd92cf8d	-0.071684934
37	0xbe203f88	-0.15649235
38	0xbe57c77a	-0.21072188
39	0x3ece0ad4	0.40242636
40	0x3e02bf4f	0.12768291
41	0x3e6476df	0.2231097
42	0x3ec35ad3	0.3815523
43	0xbdde427a	-0.10852523
44	0xbdb0e1b8	-0.086368024
45	0xbebc2e14	-0.36753905
46	0xbe9729a0	-0.29523945
47	0xbd97c4eb	-0.07410606
48	0x3c89c1b4	0.016815998
49	0x3cc188c6	0.023624789
50	0xbce291fb	-0.0276575
51	0x3e9e5529	0.30924347
52	0xbd83a488	-0.06427866
53	0xbd058bc0	-0.03260398
54	0xbd192896	-0.03739222
55	0x3da8075f	0.08204531
56	0xbe80d42a	-0.25161868
57	0x3d41b729	0.047293816
58	0x3d00f787	0.03148606
59	0x3e636fda	0.22210637
60	0xbdd5a0ef	-0.10431086
61	0xbe51c153	-0.20483904
62	0x3d710d7a	0.058850743
63	0x3e808a67	0.25105593
64	0x3dbffc7d	0.0937433
65	0x3dd139c9	0.102161
66	0x3d0e0949	0.034676824
67	0xbe585b3a	-0.2112855
68	0xbdc4cb70	-0.09609115
69	0xbae17060	-0.0017199628
70	0xbdb7e7c8	-0.08979756
71	0xbd4e98d6	-0.050438724
72	0xbd623ebd	-0.055235613
73	0xbe0d3b10	-0.13792062
74	0x3dbf3399	0.09336013
75	0x3ea3a3db	0.3196095
76	0x3b6e4681	0.0036357942
77	0x3d1167aa	0.035499252
78	0xbdadc6c8	-0.0848518
79	0x3e866677	0.2625005
80	0xbe8f47a1	-0.27984336
81	0x3cfe173c	0.031016938
82	0xbd7dc42a	-0.061954655
83	0x3dd9ca86	0.106343314
84	0x3d5127af	0.051063236
85	0x3e287f58	0.16454828
86	0xbd91f825	-0.07127408
87	0xbe3cfa34	-0.1845482
88	0x3e8d1c5e	0.27560705
89	0x3e60b9fc	0.21945947
90	0x3c2761dc	0.010216203
91	0x3eae10e6	0.33997267
92	0xbdcdd91c	-0.10051176
93	0x3e1d8f15	0.15386613
94	0xbe97dae5	-0.2965919
95	0x3e4456e0	0.19173765
96	0xbe54e311	-0.20789744
97	0x3e5ab4c9	0.21358027
98	0xbdf6130a	-0.1201535
99	0x3e4940b2	0.19653586
100	0xbc80e026	-0.015731882
101	0x3caa444e	0.020784523
102	0xbd1c45a7	-0.038152363
103	0x3dde256d	0.10846982
104	0xbdba33af	-0.09091889
105	0x3c01e78d	0.007928741
106	0x3e152670	0.14565444
107	0x3e3d1a64	0.18467098
108	0xbc5858d8	-0.013204776
109	0xbe5ac9d4	-0.21366054
110	0xbebbcd48	-0.36680055
111	0x3c2f31b0	0.010692999
112	0x3d3e47e5	0.046455283
113	0xbc94fd10	-0.018187076
114	0xbe0129d4	-0.12613612
115	0x3c499567	0.012303687
116	0xbe855fa4	-0.2604953
117	0x3d7acf1d	0.061232675
118	0x3e90ab9f	0.28255937
119	0xbe456d50	-0.1927998
120	0x3e503560	0.20332861
121	0xbea8e8b8	-0.3299005
122	0x3ea38305	0.31935897
123	0xbdc55879	-0.096360154
124	0x3e91c122	0.2846766
125	0xbecf5afc	-0.40499103
126	0xbea6bb59	-0.3256481
127	0xbb2d8ea8	-0.0026482735
128	0x3d903e7e	0.070431694
129	0x3c3e2dd4	0.011607606
130	0xbe101334	-0.14069825
131	0xba55026a	-0.0008125665
132	0x3e40d0f3	0.18829708
133	0xbdfde5e6	-0.12397365
134	0xbd83472f	-0.064100616
135	0x3d4e6e3f	0.050398108
136	0xbd305379	-0.043048356
137	0xbe9287b0	-0.28619146
138	0x3e99144f	0.29898307
139	0xbcec95b8	-0.028879985
140	0xbe9f0cb9	-0.31064394
141	0x3e28a0c2	0.16467574
142	0x3bfa4b4c	0.0076383706
143	0x3de41a3d	0.11137817
144	0x3dbc4eae	0.091946945
145	0xbda08e21	-0.07839609
146	0x3e8c3f82	0.27392203
147	0x3e7a9d6f	0.24474119
148	0x3e900ba6	0.28133887
149	0x3db10c2a	0.08644898
150	0xbc31f45b	-0.010861482
151	0x3e1aff9d	0.15136571
152	0xbecabd32	-0.3959747
153	0xbe73d083	-0.2381001
154	0x3e72bb57	0.23704277
155	0x3d5bcae3	0.053660285
156	0xbe2dc4d0	-0.1696961
157	0x3ca68b4a	0.02033009
158	0x3e88086d	0.26568928
159	0x3e9533a4	0.2914096
160	0x3e33f4df	0.1757388
161	0xbce6b8a5	-0.028164217
162	0xba9f1764	-0.0012137708
163	0xbdf689a9	-0.12037975
164	0xbc6ae6ab	-0.014337222
165	0xbe23eb70	-0.16007781
166	0x3e45f4c6	0.19331655
167	0xbc495938	-0.012289338
168	0xbeb6de6c	-0.3571657
169	0xbe652925	-0.22378977
170	0x3e1f13cb	0.15534894
171	0xbd771dd7	-0.060331192
172	0xbcdaba45	-0.026700148
173	0xbdfec024	-0.12438992
174	0xbe0044c0	-0.12526226
175	0xbb655cd9	-0.0034997968
176	0x3d3e6463	0.046482455
177	0x3dd185e6	0.10230617
178	0xbeb71d7c	-0.35764682
179	0x3e5561c9	0.20838083
180	0x3d320311	0.043459956
181	0x3e8a20e5	0.26978222
182	0x3ec2ccab	0.38046774
183	0x3d0e2d81	0.034711365
184	0x3e4e8f18	0.20171773
185	0x3e06041c	0.13087505
186	0xbd526736	-0.05136796
187	0x3e8dad68	0.2767136
188	0xbe1906f1	-0.14944054
189	0x3e91542b	0.28384528
190	0xbacc774a	-0.0015599516
191	0x3d948efe	0.07253836
192	0xbebe16c8	-0.37126756
193	0xbe4061d4	-0.18787318
194	0xbe430d5f	-0.1904807
195	0xbe2bd916	-0.1678203
196	0xbdccf733	-0.10008087
197	0xbe9b400e	-0.30322307
198	0xbebe7ad3	-0.37203082
199	0x3e60bdc5	0.21947391
200	0xbd95e349	-0.07318742
201	0x3e17e1c7	0.14832221
202	0xbe45df83	-0.19323544
203	0x3d99acf3	0.075036906
204	0xbd829189	-0.06375415
205	0xbe663132	-0.22479704
206	0x3e122c27	0.14274655
207	0x3eac6acc	0.3367523
208	0x3ca7c7b6	0.020480972
209	0x3d0eb901	0.034844402
210	0xbe0924ef	-0.13392995
211	0xbd37d767	-0.044883158
212	0x3bd87561	0.0066057895
213	0x3e33b2f2	0.17548731
214	0x3da49bbe	0.08037518
215	0xbe44dfee	-0.19226047
216	0xbce1c83f	-0.027561305
217	0xbe7f36d1	-0.24923255
218	0x3d8cf321	0.06882311
219	0xbe836f6f	-0.25670955
220	0xbd654aad	-0.05597942
221	0xbd845483	-0.06461432
222	0xbd59e761	-0.053199176
223	0x3e7c88a8	0.24661505
224	0xbe8872f2	-0.26650196
225	0xbe0c8afa	-0.1372489
226	0xbdd64b73	-0.104636095
227	0xbdadbe92	-0.08483614
228	0x3e04fa7a	0.12986174
229	0xbddd5fc9	-0.10809285
230	0xbe24236a	-0.16029134
231	0x3db95ba1	0.0905068
232	0x3e981a83	0.29707727
233	0xbe052c38	-0.1300515
234	0x3e41aa42	0.18912604
235	0x3de51e8b	0.11187466
236	0xbd938514	-0.07203117
237	0x3e2050cc	0.15655822
238	0x3e2dcea0	0.16973352
239	0x3c6a4814	0.014299411
240	0xbd5edae3	-0.054407965
241	0x3e2d25e0	0.1690898
242	0x3e618626	0.2202383
243	0xbd8a1838	-0.067429006
244	0xbe579e5d	-0.21056505
245	0x3ee00659	0.43754843
246	0xbd988295	-0.074467815
247	0xbe5f818c	-0.21826762
248	0xbd98d4e6	-0.07462482
249	0x3de41ac1	0.111379154
250	0x3e2deb8a	0.16984382
251	0xbd5e9c1b	-0.054348093
252	0x3e24079e	0.1601853
253	0x3d4b865c	0.049688682
254	0x3cb80d83	0.02246738
255	0x3ed21fca	0.41039878

shared_layers.6.bias f4 [64]
0	0xbd461715	-0.048361856
1	0xbcba10eb	-0.022713145
2	0x3d182bba	0.037151076
3	0xbcf91566	-0.030405711
4	0xbc2f088b	-0.010683189
5	0xbd1968f9	-0.037453625
6	0x3ce96bee	0.028493848
7	0xbd9b32e7	-0.07578068
8	0xbd3bd989	-0.045861755
9	0xbbbe698a	-0.005810921
10	0xbcc2f5c2	-0.023798827
11	0xbce25de3	-0.02763266
12	0xbd8b3c60	-0.06798625
13	0xbd864ed3	-0.06558003
14	0x3c3e396e	0.011610372
15	0x3d7ed652	0.06221611
16	0x3d0068ad	0.031349827
17	0xbc384be6	-0.011248564
18	0xbd86e836	-0.065872595
19	0xbc10dc14	-0.008841533
20	0xbd86bc2d	-0.065788604
21	0x3d1247f3	0.035713147
22	0x3c66dd97	0.014090917
23	0xbb9b63c9	-0.00474212
24	0x3d0f20da	0.03494344
25	0xbd4cfebb	-0.050047617
26	0x3c297f20	0.01034525
27	0xbb282d2c	-0.002566169
28	0x3d0439d9	0.03228173
29	0xbd704689	-0.058661018
30	0xbcf1d6f3	-0.029521441
31	0xbd896465	-0.06708602
32	0x3d0d16b7	0.03444549
33	0x3d37a112	0.044831343
34	0xbc574bd2	-0.013140636
35	0xbc1debcc	-0.009638738
36	0xbd17fe02	-0.037107475
37	0xbd2fb9d4	-0.04290183
38	0xbc5b4cfe	-0.013385056
39	0xbd877cba	-0.066155866
40	0x3d517ffc	0.051147446
41	0xbd0e7c33	-0.034786414
42	0xbd566de6	-0.0523509
43	0x3c63ddd2	0.013907867
44	0x3d8bfea1	0.06835676
45	0xbcbb591f	-0.022869645
46	0xbc8356b9	-0.016032564
47	0xbd0336aa	-0.032034554
48	0xbd4bc3b6	-0.04974719
49	0x3d0ef9d3	0.03490622
50	0xbc81990b	-0.015820047
51	0xbcd6f9fe	-0.026242252
52	0xbd597245	-0.05308749
53	0x3cf22e24	0.029563017
54	0x3bbefa97	0.0058282125
55	0x3d183d2e	0.03716772
56	0xbca39d49	-0.01997246
57	0xbd5f803c	-0.054565653
58	0x3c4ee115	0.012626906
59	0x3d8f3481	0.06992436
60	0xbce5c529	-0.028048115
61	0x3d85d0ca	0.06533964
62	0xbc49f70c	-0.012326967
63	0xbc95a9d8	-0.018269464

output_layer.weight f4 [2, 64]
0	0xbb8aa227	-0.004230756
1	0xbc230031	-0.009948776
2	0x3bd2bf82	0.006431521
3	0xbbe33e09	-0.0069348854
4	0xbc0ce7cf	-0.008600189
5	0xbbb60fdf	-0.005556091
6	0x3bdadfca	0.0066795098
7	0x37c8b0a5	2.3924114e-05
8	0xbb97c8bc	-0.0046320837
9	0xbbd85927	-0.0066024247
10	0x3b9b17d3	0.0047330647
11	0xbbc53b0c	-0.006019002
12	0xbb62ec44	-0.0034625689
13	0xbaef627c	-0.0018263604
14	0x3bdf08ae	0.0068064546
15	0x3b22253f	0.0024741439
16	0x3b8242d4	0.0039752517
17	0xbbea5016	-0.0071506603
18	0xbb126f94	-0.0022344338
19	0xbbd5ebef	-0.0065283696
20	0xbb48f28b	-0.0030662145
21	0xbb995098	-0.004678797
22	0x3bf8cba4	0.007592635
23	0xbb815744	-0.0039471705
24	0x3a97aa8c	0.0011571213
25	0xbb9411c6	-0.0045187203
26	0x3b98ee88	0.004667107
27	0x3b56aa13	0.003275518
28	0x3b9235b2	0.0044619674
29	0xbb65b564	-0.0035050744
30	0xbc1945c9	-0.009355017
31	0xbb06785b	-0.0020518515
32	0x3b9ad959	0.004725617
33	0x3ba8b38c	0.005148357
34	0xbbccf2ba	-0.006254521
35	0xbbfbc915	-0.007683883
36	0xbb8b9647	-0.004259858
37	0xbb96d778	-0.0046033226
38	0xbbc2d718	-0.0059460513
39	0xbac1a39a	-0.0014773489
40	0x3b6c5ca6	0.0036065965
41	0xbbd6623d	-0.0065424726
42	0x3b5dc45d	0.0033838965
43	0x3b80acd9	0.003926855
44	0x3ad66182	0.0016355964
45	0xbbb50656	-0.005524437
46	0xbbd14120	-0.0063859373
47	0xbba7d219	-0.005121481
48	0xbb89b35b	-0.004202289
49	0x3be35274	0.0069373194
50	0xbbda081c	-0.0066537987
51	0xbbeaa0e8	-0.007160295
52	0x39aa7b72	0.000325169
53	0x3bb38d55	0.0054794946
54	0x3bcdad62	0.0062767724
55	0x3b76ccb3	0.0037658631
56	0xbbf12849	-0.0073595387
57	0xbb5e569c	-0.0033926135
58	0x3c0004ee	0.007813675
59	0xb9b58ec1	-0.0003462937
60	0xbc012305	-0.007881884
61	0x3ad57743	0.0016286153
62	0xbbe78dab	-0.0070664487
63	0xbc0b9265	-0.00851879
64	0xbd1bc228	-0.03802696
65	0xbd1059ad	-0.03524177
66	0x3d109935	0.03530236
67	0xbd09809d	-0.03356992
68	0xbc8d1723	-0.017222947
69	0xbcc10abf	-0.023564694
70	0x3cd3bb30	0.025846094
71	0xbd59ce09	-0.053175006
72	0xbd224202	-0.03961373
73	0xbbc75c2b	-0.0060839853
74	0xbce1b957	-0.027554197
75	0xbd009479	-0.031391595
76	0xbd7703a5	-0.06030621
77	0xbd33bf2a	-0.04388348
78	0x3c54914d	0.0129740955
79	0x3cc179a3	0.023617571
80	0x3caf229b	0.021378806
81	0xbc2ff2e5	-0.010739063
82	0xbd0f41ba	-0.03497479
83	0xbca03dba	-0.019560684
84	0xbd594887	-0.053047683
85	0x3c80db3f	0.015729545
86	0x3c689333	0.014195251
87	0xba514a70	-0.00079838093
88	0x3cab2983	0.020893818
89	0xbd3ba6ad	-0.04581325
90	0x3c1560b2	0.009117292
91	0x3ba463e3	0.0050167902
92	0x3cde6f31	0.02715263
93	0xbd217a20	-0.039423108
94	0xbd05787e	-0.032585613
95	0xbd2fb2f4	-0.042895272
96	0x3cc8c3ea	0.024507482
97	0x3d2302ad	0.039797474
98	0xbb33467b	-0.0027355242
99	0xbc1e08a0	-0.009645611
100	0xbcc02c61	-0.023458662
101	0xbcc0611d	-0.023483807
102	0xbc400976	-0.011721006
103	0xbd5a4609	-0.053289447
104	0x3d05f0e2	0.032700427
105	0xbd25f237	-0.040514197
106	0xbd077339	-0.03306887
107	0x3c6fdf4f	0.014640643
108	0x3d1b3daf	0.037900623
109	0xbc8fdda3	-0.01756174
110	0xbc85ec0f	-0.016347913
111	0xbcb03def	-0.021513907
112	0xbcea0fed	-0.028572047
113	0x3d0aea90	0.033915102
114	0xbc2d4f7e	-0.010578034
115	0xbc97f537	-0.018549545
116	0xbceeaad5	-0.029134193
117	0x3cf0ea99	0.02940874
118	0x3bdb659d	0.006695463
119	0x3cdce496	0.026964467
120	0xbc8fac80	-0.01753831
121	0xbd0fe7b4	-0.03513308
122	0x3c9fe232	0.019517038
123	0x3d24a1b1	0.040193263
124	0xbce009af	-0.027348367
125	0x3d27a595	0.040929396
126	0xbb1a4044	-0.002353684
127	0xbcb33500	-0.021875858

output_layer.bias f4 [2]
0	0x38b772fb	8.747537e-05
1	0xbfb9bcfd	-1.45108

layers.0.weight f4 [128, 3]
0	0xbe151cfa	-0.14561835
1	0xbc3e4943	-0.011614147
2	0xbe08d5f7	-0.13362871
3	0x3e3310bc	0.17486852
4	0x3dbb094b	0.09132632
5	0xbe21f6b8	-0.15816772
6	0xbe09301c	-0.13397259
7	0xbda8a20f	-0.08234035
8	0x3dc39b18	0.09551066
9	0xbe2bdafa	-0.16782752
10	0xbe09127c	-0.13385957
11	0x3dae7b44	0.08519605
12	0xbd6cea93	-0.057840895
13	0xbbe8dfaa	-0.007106741
14	0xbce75b42	-0.028241757
15	0xbc901de0	-0.01759237
16	0xbd9692c3	-0.07352211
17	0xbe502b5c	-0.2032904
18	0x3ab07a18	0.0013464121
19	0x3d7930fa	0.060837723
20	0x3e1e0d23	0.15434699
21	0xbe2df089	-0.16986288
22	0xbdcc11fb	-0.09964367
23	0xbdcd035b	-0.10010406
24	0xbd01a24e	-0.031648926
25	0x3d2a5604	0.041585937
26	0x3e083711	0.13302256
27	0x3c8cf943	0.017208701
28	0x3da753f3	0.08170309
29	0x3e17948e	0.14802763
30	0xbd95c915	-0.07313744
31	0x3ac4fb00	0.0015028417
32	0x3e1199c0	0.14218807
33	0xbdbdac1d	-0.09261344
34	0xbdd69691	-0.10477937
35	0x3d8d1060	0.06887889
36	0xbe1737a1	-0.14767314
37	0xbe21af1e	-0.15789458
38	0xbde9927f	-0.11404895
39	0xbe0dabb3	-0.1383503
40	0x3e51b245	0.2047816
41	0x3daa9e2b	0.083309494
42	0x3d973599	0.0738327
43	0xbca9511f	-0.020668564
44	0xbe3e4b84	-0.18583494
45	0xbe11e47f	-0.1424732
46	0x3ce5b2c7	0.02803935
47	0x3db1385e	0.08653329
48	0x3de537d8	0.11192292
49	0xbbf7f8bf	-0.0075674946
50	0x3e36676a	0.17812887
51	0x3e22ed87	0.15910922
52	0xbe28ac2a	-0.16471925
53	0xbce30dcb	-0.027716538
54	0xbe1cec8b	-0.15324609
55	0xbe599aa4	-0.21250397
56	0x3e24f14c	0.16107672
57	0xbe4a602a	-0.19763246
58	0x3e2c01e4	0.16797596
59	0xbd54d34e	-0.05195933
60	0xbc9dcd66	-0.01926298
61	0xbdff19d3	-0.124560975
62	0x3d2bcd01	0.041943554
63	0x3db1ca6b	0.08681186
64	0xbe456162	-0.1927543
65	0x3a876409	0.0010329495
66	0xbdca4bf4	-0.09877768
67	0x3e2b7177	0.16742502
68	0x3ddc4b6b	0.10756572
69	0xbb9a667a	-0.004711923
70	0xbe283bbf	-0.16429041
71	0xbe2de78e	-0.16982862
72	0xbdbabf2a	-0.09118493
73	0xbcf857e0	-0.03031534
74	0x3e077e18	0.13231695
75	0x3dde2ceb	0.10848411
76	0x3cdf61d6	0.027268331
77	0xbd83e652	-0.064404145
78	0xbd50d613	-0.050985407
79	0x3e31999d	0.17343755
80	0xbe27b766	-0.16378555
81	0xbd2f38b5	-0.04277869
82	0x3d56afbf	0.0524137
83	0xbe09a8a2	-0.13443235
84	0x3b60561d	0.0034231015
85	0x3def53b0	0.11685884
86	0xbdd0af87	-0.10189729
87	0xbdfbeba1	-0.12300802
88	0xbe387f02	-0.180172
89	0x3dc6328b	0.09677609
90	0x3dcd2bac	0.100180954
91	0xbd10c95d	-0.035348285
92	0xbe3e34c1	-0.18574812
93	0xbdde15c9	-0.10843999
94	0xbe475c0e	-0.1946871
95	0x3e1d49d6	0.15360197
96	0x3cf2bc09	0.029630678
97	0xbd8712f6	-0.065954134
98	0xbdc48f0b	-0.09597596
99	0xbe3f4690	-0.18679261
100	0xbe1ad7e7	-0.15121423
101	0x3e16c60d	0.14723988
102	0xbca69d94	-0.020338811
103	0x3e2c61bb	0.16834156
104	0x3e3831ae	0.17987701
105	0xbc2b930f	-0.010472073
106	0xbd3fcf5f	-0.046828624
107	0xbde848c5	-0.11342005
108	0x3e4e1e5d	0.2012877
109	0x3e4ae221	0.19812824
110	0x39f77bf5	0.00047203866
111	0xbe380c0d	-0.17973347
112	0x3e042f29	0.12908615
113	0x3e2252b8	0.15851867
114	0xbe33e485	-0.17567642
115	0xbdcfbb29	-0.1014312
116	0xbe060380	-0.13087273
117	0xbdff97fd	-0.12480161
118	0x3d8fb222	0.07016398
119	0xbdbc6455	-0.09198824
120	0x3e494f56	0.1965917
121	0xbe4661d8	-0.19373262
122	0x3d1c3300	0.038134575
123	0xbe039ed4	-0.12853557
124	0xbe0e0bfa	-0.13871756
125	0xbe25f92f	-0.16208337
126	0xbd87ddee	-0.066341266
127	0xbdbcee37	-0.092251234
128	0xbd65acec	-0.056073114
129	0xbd056336	-0.032565318
130	0xbe34e156	-0.17664084
131	0x3be20b3d	0.0068983124
132	0xbe4a7d4a	-0.19774356
133	0x3daf9e68	0.085751355
134	0xbd01ed63	-0.03172053
135	0xbd71602c	-0.058929607
136	0xbd17f3da	-0.03709779
137	0x3d843b2c	0.06456599
138	0x3dcb5549	0.09928376
139	0xbcfb3c24	-0.030668326
140	0x3e066d94	0.13127738
141	0x3e388627	0.18019925
142	0x3df427ad	0.1192163
143	0x3e4365db	0.19081824
144	0xbb805139	-0.0039159325
145	0xbdaba67f	-0.08381366
146	0xbd695ea6	-0.05697503
147	0xbcdca6bd	-0.026934976
148	0x3dc9ddd2	0.09856762
149	0x3d7fb6d1	0.062430207
150	0x3da00888	0.07814127
151	0x3e18d901	0.1492653
152	0xbdf67811	-0.120346196
153	0x3c40a34e	0.011757685
154	0x3e3b067e	0.18264195
155	0x3d9e86e3	0.07740571
156	0x3e3674c0	0.17817974
157	0xbe2ea630	-0.17055583
158	0xbde6c583	-0.11268141
159	0x3e00bb86	0.12571535
160	0x3de8d21f	0.113682024
161	0xbd022af5	-0.03177925
162	0x3d549e59	0.051908825
163	0x3e1246d2	0.14284828
164	0x3d3ebc95	0.046566565
165	0x3e1adae4	0.15122563
166	0xbc840fc5	-0.0161208
167	0xbcdf2c97	-0.027242942
168	0xbb998bb6	-0.0046858443
169	0xbb4cfcb9	-0.0031278564
170	0x3d855948	0.0651117
171	0xbbabdac4	-0.0052445848
172	0xbdc4ed4b	-0.096155725
173	0x3d88dcbc	0.06682727
174	0xbe40777c	-0.1879558
175	0x3d450b85	0.04810669
176	0x3e1727ee	0.14761326
177	0xbcdb0036	-0.026733499
178	0x3e2eec46	0.17082319
179	0xbe3d15a5	-0.18465288
180	0x3e08e176	0.13367257
181	0x3e255e9f	0.16149376
182	0xbe4b779e	-0.19869849
183	0xbda937e4	-0.082626134
184	0x3e3ec855	0.18631108
185	0x3d81ded6	0.06341331
186	0x3dba68da	0.0910203
187	0xbe03b098	-0.12860334
188	0xbe092764	-0.13393933
189	0xbd8f13a1	-0.06986166
190	0xbe43a0ae	-0.19104263
191	0x3d8d7ff6	0.06909172
192	0x3e1abadd	0.15110345
193	0x3d926ee4	0.07150057
194	0xbe14a40b	-0.14515702
195	0x3e180535	0.14845736
196	0x3dc6f653	0.09714951
197	0xbdaae725	-0.083448686
198	0xbca90e42	-0.020636681
199	0xbdd8454c	-0.10560092
200	0x3ddf5b19	0.109060474
201	0x3daf18b7	0.08549636
202	0xbd20422e	-0.039125614
203	0x3d8bcc5f	0.0682609
204	0x3e558cf8	0.20854557
205	0xbdc7383a	-0.09727521
206	0xbd6597ba	-0.0560529
207	0xbe0fae22	-0.1403127
208	0x3e1508b8	0.14554107
209	0xbdae55a7	-0.08512431
210	0xbc8195cf	-0.015818505
211	0x3e08ba2b	0.13352267
212	0xbd4c4953	-0.049874615
213	0x3e4a00aa	0.19726816
214	0xbd87fe4b	-0.066402994
215	0xbd353179	-0.044236634
216	0xbe0f0af2	-0.13969019
217	0xbd6dcab6	-0.05805465
218	0x3d84f3a8	0.06491786
219	0x3db228b7	0.08699172
220	0x3d40c878	0.047066182
221	0xbe168711	-0.14699961
222	0xbe1a421b	-0.1506428
223	0x3e19bc7a	0.15013304
224	0x3dc4d913	0.09611716
225	0xbd7e0a96	-0.062021814
226	0xbe3d21a9	-0.18469872
227	0xbd967885	-0.07347206
228	0x3de0f0ae	0.10983406
229	0xbdf699c0	-0.12041044
230	0x3d8330d9	0.06405801
231	0xbe281b6d	-0.16416712
232	0xbd2826e1	-0.041052703
233	0x3e1ee9f9	0.15518941
234	0x3d3e55cb	0.046468537
235	0xbcb84dcd	-0.022498036
236	0xbda006ad	-0.07813773
237	0xbda4d7c7	-0.08048969
238	0xbd1ec495	-0.038761694
239	0xbdc568fe	-0.09639166
240	0xbcd52b4d	-0.026021624
241	0xbdc067e8	-0.093948185
242	0xbc277ab7	-0.010222129
243	0x3df10f19	0.11770458
244	0xbcbea861	-0.023273649
245	0xbc826c29	-0.015920715
246	0x3e1344ac	0.14381665
247	0xbdef6469	-0.116890736
248	0x3db79289	0.08963496
249	0x3d7af29c	0.061266527
250	0x3cab8db2	0.020941589
251	0x3d7c52bc	0.06160234
252	0xbe368d2c	-0.1782729
253	0x3db7e338	0.089788854
254	0x3e09ecbd	0.13469215
255	0xbd9ae309	-0.07562835
