experiments/ppo_pendulum_5M_20250831_023506/checkpoints/auto_step_2779136.pt (torch, 605466 bytes, 60 tensors)

shared_layers.0.weight f4 [128, 3]
-0.14066097 -0.078797035 -0.098037295 -0.08870713 -0.039001863 -0.13918503 0.05106302 -0.00058002974
-0.21159647 0.12813489 0.006727865 -0.020543506 -0.0028744172 0.23996454 0.110169835 0.16624546
-0.20537232 -0.029019795 -0.013807534 -0.053654525 -0.02360609 -0.18163657 -0.010640312 0.00073953206
0.14367418 -0.09357811 0.00096184365 0.11044836 -0.27578998 0.11482827 0.05336869 0.06892835
-0.16119361 0.07573347 0.1960381 0.013716439 0.28310364 -0.031781755 -0.16412003 0.08115205
-0.023420056 -0.1376145 -0.0030060078 -0.027893212 0.034821913 0.04396768 0.0151486695 0.066978626
-0.12736619 -0.06527098 -0.037668493 -0.026344575 0.08054118 0.02520753 -0.0073032537 0.09388686
0.0419507 0.20832188 0.063047335 -0.092156835 -0.1935063 0.0707415 0.13319813 0.0054138843
-0.09845349 -0.018879313 -0.015722552 -0.04268976 0.037627056 0.0771012 -0.1386483 -0.08995949
-0.022189343 -0.08534502 0.11955676 -0.013611194 0.10561641 0.0727412 0.03949513 -0.09334794
-0.07894725 0.11949277 0.010184649 -0.096871525 0.012988717 -0.08551934 0.055377014 -0.052911468
0.06644335 0.1344099 0.21929836 0.12233981 -0.10093715 0.01443478 -0.06813034 -0.12567514
-0.057104323 -0.00795477 -0.05012739 0.0012143162 0.06707731 -0.025323104 0.093034014 0.04277364
0.14939515 0.15571676 0.25472176 0.25094026 -0.22278136 -0.15013891 -0.06434548 0.20793584
0.17841086 -0.009322152 0.05872551 0.2008912 -0.25157458 0.044928968 -0.03597886 0.13974766
0.12741953 -0.17184916 0.079572186 0.043245427 -0.14196698 -0.0615341 -0.056883093 0.079931185
-0.039354913 0.1459794 -0.0815048 0.020956518 -0.02299036 -0.2742692 0.17153826 0.033070274
-0.14096156 0.10609718 -0.028091649 0.01145368 -0.021461222 0.047233928 0.13353091 0.06558016
-0.07279154 0.03511282 -0.1455913 0.038205877 -0.32031924 0.12739076 0.0313175 0.107530385
-0.17404923 -0.049524736 0.105757475 -0.10141731 0.043111794 -0.08290186 -0.031653944 0.08012101
-0.05156767 0.06866782 0.21164733 -0.17454693 0.04368986 -0.09951242 -0.06660251 -0.12278068
0.14589857 0.007614789 0.23371165 0.07294836 0.09243536 0.020283852 0.02565026 -0.2178928
0.06686401 -0.018042158 0.008480989 -0.09422032 -0.15539269 -0.107272804 0.0044129845 -0.050448306
0.121272445 0.057719998 -0.13143688 -0.0140159335 -0.10391192 -0.027945582 0.34374097 0.16016005
0.010831294 -0.016024796 0.22581866 -0.11333972 -0.1320232 -0.078969955 0.17680106 0.14339046
0.21557426 0.0037727586 0.08968209 -0.017591003 0.15199105 0.10196312 0.06926086 0.16026683
0.029150035 -0.094965555 -0.010951605 -0.056965146 -0.003339463 0.18632913 -0.110954456 0.18012647
-0.22538878 -0.13748752 -0.1434107 0.09480607 -0.03534855 -0.009236107 0.12611394 0.019773869
-0.0016837189 -0.13746595 -0.1857111 0.11785697 -0.08608071 -0.05111692 -0.17444251 0.12614352
0.07450584 0.042094067 0.07269275 0.02781368 0.2941357 0.010554971 0.056827758 0.08568811
-0.10144358 -0.07994436 -0.048746392 -0.21416475 0.05443542 0.055860016 0.18163908 0.14905855
0.14540622 0.059461344 0.024355747 0.07603833 -0.08284369 0.09960117 0.17820552 0.100365266
00000000: 6e09 10be 5760 a1bd c7c7 c8bd 15ac b5bd
00000010: 6bc0 1fbd 8586 0ebe 7527 513d 230d 18ba
00000020: bfac 58be cb35 033e 6c75 dc3b db4a a8bc
00000030: b860 3cbb 44b9 753e b9a0 e13d 403c 2a3e
00000040: 1f4d 52be ecba edbc ff38 62bc d9c4 5bbd
00000050: 8f61 c1bc f0fe 39be b454 2ebc 28dd 413a
00000060: 531f 133e e1a5 bfbd 3c24 7c3a c032 e23d
00000070: 5834 8dbe 162b eb3d 2199 5a3d 4f2a 8d3d
00000080: f00f 25be 261a 9b3d 36be 483e eaba 603c
00000090: f6f2 903e 962d 02bd 150f 28be 0c33 a63d
000000a0: 6bdb bfbc d1ea 0cbe 7100 45bb 4e80 e4bc
000000b0: 6ca1 0e3d 7417 343d 2032 783c 172c 893d
000000c0: 486c 02be cbac 85bd 474a 1abd 94d0 d7bc
000000d0: c6f2 a43d 0680 ce3c 2250 efbb c147 c03d
000000e0: 7fd4 2b3d 5552 553e f61e 813d b9bc bcbd
000000f0: 8426 46be ebe0 903d 1765 083e f466 b13b
00000100: fca1 c9bd caa8 9abc 95cc 80bc 75db 2ebd
00000110: d41e 1a3d 3ce7 9d3d d2f9 0dbe ae3c b8bd
00000120: 6dc6 b5bc 5fc9 aebd 2dda f43d 7c01 5fbc
00000130: 6b4d d83d 57f9 943d a5c5 213d 342d bfbd
00000140: 19af a1bd a0b8 f43d 84dd 263c 9464 c6bd
00000150: a1ce 543c c424 afbd 02d3 623d b2b9 58bd
00000160: 7313 883d c0a2 093e c08f 603e 4b8d fa3d
00000170: 23b8 cebd db7f 6c3c eb87 8bbd fcb0 00be
00000180: 39e6 69bd b954 02bc 6152 4dbd b129 9f3a
00000190: d45f 893d 6672 cfbc 9e88 be3d 6a33 2f3d
000001a0: 0bfb 183e 3774 1f3e e46a 823e 3e7b 803e
000001b0: cc20 64be 04be 19be 90c7 83bd 22ed 543e
000001c0: 56b1 363e f0bb 18bc 298a 703d 6cb6 4d3e
000001d0: 62ce 80be 7007 383d 925e 13bd 031a 0f3e
000001e0: 447a 023e 3af9 2fbe bef6 a23d 1e22 313d
000001f0: cb5f 11be 2e0b 7cbd 3ffe 68bd f6b2 a33d
00000200: 9e32 21bd a07b 153e fdeb a6bd 01ad ab3c
00000210: 4856 bcbc 036d 8cbe baa7 2f3e b274 073d
00000220: 3a58 10be 7a49 d93d 7520 e6bc 37a8 3b3c
00000230: 72cf afbc 5d78 413d 54bc 083e e44e 863d
00000240: bb13 95bd 76d2 0f3d e315 15be c47d 1c3d
00000250: e200 a4be b972 023e c746 003d e438 dc3d
00000260: f639 32be 73da 4abd 6097 d83d e1b3 cfbd
00000270: fe95 303d 73c8 a9bd 91a7 01bd 7c16 a43d
00000280: 9f38 53bd b7a1 8c3d 14ba 583e 6ebc 32be
00000290: 23f4 323d 2bcd cbbd e666 88bd 7074 fbbd
000002a0: 6f66 153e 7b85 f93b 1b52 6f3e f365 953d
000002b0: c04e bd3d 522a a63c 7e20 d23c 4a1f 5fbe
000002c0: 00f0 883d 26cd 93bc d9f3 0a3c 95f6 c0bd
000002d0: 431f 1fbe d8b1 dbbd cc9a 903b e2a2 4ebd
000002e0: b05d f83d ce6b 6c3d 6497 06be 16a3 65bc
000002f0: c6cf d4bd 22ee e4bc d1fe af3e ff00 243e
00000300: bd75 313c 6f46 83bc 023d 673e a81e e8bd
00000310: 1731 07be 00bb a1bd 560b 353e f3d4 123e
00000320: 80bf 5c3e 6340 773b 3eab b73d 021b 90bc
00000330: 8ba3 1b3e 0ad2 d03d a3d8 8d3d fd1c 243e
00000340: 0ecc ee3c 4d7d c2bd 5c6e 33bc 4954 69bd
00000350: e4da 5abb 10cd 3e3e 173c e3bd 1373 383e
00000360: 51cc 66be 87c9 0cbe 41da 12be af29 c23d
00000370: a4c9 10bd 0a53 17bc 0324 013e cffc a13c
00000380: 3bb0 dcba e0c3 0cbe 0d2b 3ebe ff5e f13d
00000390: 154b b0bd fa5f 51bd 0fa1 32be c42b 013e
000003a0: 8596 983d d46a 2c3d f0df 943d 84d9 e33c
000003b0: f498 963e c2ee 2c3c 39c4 683d 3f7d af3d
000003c0: a7c1 cfbd deb9 a3bd 4caa 47bd 014e 5bbe
000003d0: adf7 5e3d 79cd 643d 98ff 393e cea2 183e
000003e0: 5ee5 143e bd8d 733d b485 c73c fcb9 9b3d
000003f0: f4a9 a9bd b3fb cb3d 827b 363e 4e8c cd3d

shared_layers.0.bias f4 [128]
0.06493361 -0.036809605 -0.014643692 -0.073326275 0.054817032 -0.08678639 -0.06914607 0.014890772
-0.060218696 -0.06823143 0.05056787 0.03478918 -0.03736309 -0.04892046 -0.018003048 0.022053072
-0.1450672 0.04050215 0.00806273 -0.059466284 0.0056345575 0.13183725 0.09391321 -0.046562776
0.069088295 -0.00082707254 0.011949287 0.051292412 0.023433005 0.044179823 -0.060556155 0.027487017
-0.035681784 0.061119277 0.010174529 -0.023566153 0.09274736 -0.10702677 0.029429195 -0.0050584907
-0.06272728 -0.10545451 0.06510508 -0.005087973 -0.018804986 -0.08364191 -0.085960835 0.058327537
-0.11126415 -0.063110344 -0.057934694 -0.086000055 0.00030619698 -0.041154094 -0.020353481 -0.03394497
-0.04331739 0.08584824 -0.08291175 -0.09261841 -0.056369953 0.041835368 -0.025811765 -0.030475164
-0.03224807 0.073801935 -0.023212045 -0.031486847 -0.055038705 0.032587305 -0.09394659 -0.021514462
0.053306762 -0.11435891 0.11684245 0.047910918 0.03240377 -0.08774817 -0.06608132 -0.0791192
0.09398508 0.013498528 0.04074385 0.054274533 -0.039339058 -0.057469442 -0.042444963 0.074939825
0.049936023 -0.051709622 -0.022620793 0.0038544384 -0.046528284 0.05964984 -0.039528504 0.077262096
-0.031252686 -0.03137589 -0.10772099 -9.953193e-05 -0.087736435 -0.0022494611 0.02382835 -0.037297722
0.006526988 -0.09756976 0.03639828 -0.036512394 0.05927557 -0.05650324 -0.076984935 0.071918145
0.05777412 -0.004603836 -0.034318544 -0.021538572 0.105685614 -0.04937206 -0.066161826 -0.0025638551
0.032325815 0.010093392 0.06367982 -0.053242527 -0.10307795 0.050564926 -0.098494716 0.023324354
00000000: eafb 843d abc5 16bd 19ec 6fbc 162c 96bd
00000010: d387 603d 10bd b1bd 749c 8dbd 6df8 733c
00000020: e1a7 76bd ecbc 8bbd 4120 4f3d 197f 0e3d
00000030: 0a0a 19bd d260 48bd 217b 93bc a5a8 b43c
00000040: 7f8c 14be 95e5 253d 8a19 043c eb92 73bd
00000050: 18a2 b83b 5800 073e 9255 c03d 9cb8 3ebd
00000060: 2a7e 8d3d e6cf 58ba f1c6 433c fe17 523d
00000070: 93f6 bf3c e7f5 343d bb09 78bd 742c e13c
00000080: 1027 12bd 3558 7a3d 11b3 263c ce0d c1bc
00000090: 54f2 bd3d da30 dbbd 7f15 f13c b2c1 a5bb
000000a0: 2977 80bd 89f8 d7bd d055 853d 03b9 a6bb
000000b0: ea0c 9abc 734c abbd 3c0c b0bd dbe8 6e3d
000000c0: 75de e3bd ff3f 81bd ee4c 6dbd cc20 b0bd
000000d0: 1089 a039 3291 28bd 58bc a6bc e209 0bbd
000000e0: 936d 31bd 34d1 af3d a3cd a9bd b9ae bdbd
000000f0: 2ee4 66bd 905b 2b3d 3273 d3bc 0da7 f9bc
00000100: 8d16 04bd 7825 973d 3027 bebc 5af8 00bd
00000110: 4470 61bd 447a 053d 1267 c0bd 193f b0bc
00000120: 3158 5a3d 0135 eabd 184b ef3d 3d3e 443d
00000130: d1b9 043d 50b5 b3bd a555 87bd 3f09 a2bd
00000140: 407b c03d ee28 5d3c 06e3 263d f94e 5e3d
00000150: fe21 21bd 1465 6bbd c5da 2dbd 0d7a 993d
00000160: b789 4c3d 78cd 53bd 3e4f b9bc bf9a 7c3b
00000170: 7194 3ebd 6453 743d a4e8 21bd 973b 9e3d
00000180: d102 00bd 0184 00bd d39c dcbd ccbb d0b8
00000190: 29af b3bd b26b 13bb ac33 c33c 7fc5 18bd
000001a0: 58e0 d53b a8d2 c7bd 5d16 153d 058e 15bd
000001b0: f1ca 723d f16f 67bd 47aa 9dbd d249 933d
000001c0: 8ea4 6c3d c7db 96bb 9a91 0cbd a971 b0bc
000001d0: b371 d83d 5b3a 4abd da7f 87bd 5a06 28bb
000001e0: 1368 043d c15e 253c 916a 823d d614 5abd
000001f0: 881a d3bd 2b1d 4f3d 99b7 c9bd b712 bf3c

shared_layers.2.weight f4 [128, 128]
0.0039521577 -0.17755254 0.108648375 -0.13676016 -0.20252475 -0.039315604 -0.084043466 -0.12959687
0.12570153 -0.22598009 0.118432514 0.015546287 0.16877118 0.12965073 0.13380769 0.047668595
-0.04795424 0.059252962 0.047162026 -0.01955337 -0.11522248 -0.030816922 0.21612674 -0.15275307
0.11618156 0.10480086 -0.16297561 -0.021752909 -0.05604538 0.07504209 0.07133171 0.1839485
-0.008839358 0.02350465 0.070699744 -0.06652845 -0.051598635 0.06752995 -0.18119356 -0.15426585
-0.0056959437 -0.09814242 0.2615643 -0.024430644 -0.000121634424 0.039765075 0.1176621 -0.16496158
-0.14802748 -0.07670896 0.038809672 0.21395087 -0.010597765 0.1633112 -0.19554338 0.05493466
0.12032054 0.03466747 -0.11854744 0.072435476 0.0808417 -0.08826563 0.05371553 0.14982915
-0.21332254 -0.08535344 0.12619984 -0.09037731 0.26812682 -0.033274118 0.23479636 -0.06635996
0.11247333 0.17246962 -0.13108973 0.13848615 -0.17526048 0.035206415 -0.06573354 -0.019981744
-0.072880834 -0.054583374 0.11451019 0.121535875 -0.087765135 -0.1369077 0.12158086 0.06030727
0.19908899 -0.08163511 0.16559571 0.0873301 0.064037666 0.040855527 -0.013146831 0.09589377
0.020882627 0.038535792 0.024938684 0.30532786 0.04492075 0.15803072 0.056987192 0.15018569
-0.17728914 0.23137905 0.0022768597 0.014410715 0.028968202 -0.13992992 0.23155726 0.14529757
-0.29603902 0.13389666 0.14866613 0.16217224 0.18809061 -0.0013245018 0.16767776 0.0668987
0.16941878 -0.047971725 0.07937506 0.08563982 -0.13024914 0.12340032 0.041673314 0.0263792
0.022166137 0.062313873 -0.022854883 -0.20113719 -0.14076282 0.073881336 0.22386786 0.11892873
0.18841422 -0.19226453 0.22500086 -0.061957616 -0.03394356 -0.27093014 -0.08200597 -0.03364751
0.07241453 0.027093992 -0.21796037 0.07348336 -0.304783 -0.05227211 -0.34724092 0.062120803
-0.047911745 0.07489868 0.28768513 0.08819218 0.15989134 -0.009233328 -0.026323367 -0.08780771
-0.05488853 -0.07235239 -0.026182199 0.07637964 0.030296441 0.19592375 0.040208466 -0.0771993
-0.06923988 -0.31075114 0.11053591 0.075924866 0.04737897 -0.004197872 0.040165454 0.114559464
0.1273902 -0.12660305 0.07670472 -0.12513265 -0.16598028 0.06314241 0.096741594 -0.1100489
0.15025741 -0.12347341 0.120225735 -0.15603982 -0.00089086016 -0.22347231 0.015829802 -0.13885647
-0.17587477 0.02847153 -0.023992939 0.00025785484 0.047707357 -0.059747227 0.13436551 0.019594196
0.13159622 0.14380823 -0.16769591 0.13928667 -0.009459568 0.027614197 0.13214663 -0.09245553
-0.12128126 -0.15759905 -0.006287089 -0.20179854 -0.06763053 0.1485277 0.09957133 0.11151248
-0.09992023 0.264187 0.1785208 0.017522542 -0.15684862 0.03586347 0.09244308 -0.17220975
-0.03911097 -0.043894105 0.10933798 0.27853253 0.042817526 -0.03142868 -0.010711908 -0.01593902
0.30701464 0.04193373 0.015763247 0.10899812 -0.04403695 0.062221676 -0.027809132 -0.036685105
0.12235975 -0.017841259 0.12307516 -0.12485717 0.090617135 0.072089866 -0.004066671 -0.013047993
0.03775116 -0.07238883 -0.13716629 -0.003731869 -0.054804333 0.18384016 -0.10658539 0.10484091
00000000: 1a81 813b 55d0 35be 0a83 de3d db0a 0cbe
00000010: a662 4fbe 6609 21bd fb1e acbd 0bb5 04be
00000020: e7b7 003e 5367 67be bf8c f23d dbb5 7e3c
00000030: 5ad2 2c3e 29c3 043e e204 093e 2540 433d
00000040: aa6b 44bd 3cb3 723d f82c 413d 642e a0bc
00000050: c3f9 ebbd c573 fcbc 5450 5d3e 4d6b 1cbe
00000060: 99f0 ed3d d5a1 d63d 14e3 26be 2833 b2bc
00000070: d78f 65bd abaf 993d 5c16 923d ff5c 3c3e
00000080: f4d2 10bc d38c c03c 07cb 903d 1140 88bd
00000090: 1759 53bd 244d 8a3d ce8a 39be def7 1dbe
000000a0: 0aa5 babb e5fe c8bd c2eb 853e c622 c8bc
000000b0: fc15 ffb8 b4e0 223d d4f8 f03d b0eb 28be
000000c0: 8494 17be 9619 9dbd e4f6 1e3d f015 5b3e
000000d0: 40a2 2dbc 0d3b 273e 863c 48be 2b03 613d
000000e0: 9e6a f63d 7aff 0d3d 00c9 f2bd 0d59 943d
000000f0: 5590 a53d 9cc4 b4bd d104 5c3d d06c 193e
00000100: 3971 5abe c9cd aebd 883a 013e bd17 b9bd
00000110: eb47 893e 714a 08bd 756e 703e bbe7 87bd
00000120: 6b58 e63d e09b 303e 633c 06be 50cf 0d3e
00000130: 7c77 33be 9a34 103d 4e9f 86bd c1b0 a3bc
00000140: 8c42 95bd d192 5fbd 5284 ea3d cde7 f83d
00000150: 35be b3bd 8831 0cbe 63ff f83d c204 773d
00000160: fcdd 4b3e 4f30 a7bd ec91 293e 20da b23d
00000170: 2e26 833d 2058 273d ce65 57bc f463 c43d
00000180: 0b12 ab3c b5d7 1d3d 364c cc3c ef53 9c3e
00000190: d2fe 373d ced2 213e 676b 693d 47ca 193e
000001a0: 498b 35be a1ee 6c3e 5e37 153b eb1a 6c3c
000001b0: b94e ed3c ca49 0fbe 591d 6d3e e3c8 143e
000001c0: 6d92 97be 351c 093e ef3b 183e 7b10 263e
000001d0: d39a 403e e89a adba b8b3 2b3e 3002 893d
000001e0: 1e7c 2d3e 007e 44bd 648f a23d ee63 af3d
000001f0: 0860 05be 4fb9 fc3d a3b1 2a3d 3119 d83c
00000200: c295 b53c d53c 7f3d 2a3a bbbc e8f6 4dbe
00000210: 2124 10be 194f 973d 9e3d 653e e890 f33d
00000220: a8ef 403e fee0 44be a066 663e 45c7 7dbd
00000230: 6708 0bbd 5bb7 8abe bff2 a7bd f9d1 09bd
00000240: 124e 943d 38f4 dd3c 0131 5fbe 727e 963d
00000250: 840c 9cbe 481b 56bd 90c9 b1be 6272 7e3d
00000260: 1b3f 44bd 7b64 993d 774b 933e 1a9e b43d
00000270: 8eba 233e 6247 17bc 1aa4 d7bc 87d4 b3bd
00000280: ccd2 60bd 7d2d 94bd 0d7c d6bc ee6c 9c3d
00000290: 3e30 f83c 3ca0 483e a2b1 243d ab1a 9ebd
000002a0: a3cd 8dbd c61a 9fbe a760 e23d 7f7e 9b3d
000002b0: 7310 423d 4d8e 89bb 8884 243d 279e ea3d
000002c0: 9472 023e 3ba4 01be 5d17 9d3d c622 00be
000002d0: bcf6 29be cf50 813d 7520 c63d 5161 e1bd
000002e0: 14dd 193e a1df fcbd e938 f63d e7c8 1fbe
000002f0: 9d88 69ba edd5 64be 80ad 813c 6430 0ebe
00000300: 8418 34be 203d e93c d78c c4bc b130 8739
00000310: ca68 433d 82b9 74bd 1d97 093e 0284 a03c
00000320: 29c1 063e 7742 133e 7ab8 2bbe 2aa1 0e3e
00000330: 4efc 1abc 2b37 e23c 7251 073e 5359 bdbd
00000340: 4f62 f8bd a561 21be ed03 cebb 47a4 4ebe
00000350: e081 8abd a517 183e 0eec cb3d a860 e43d
00000360: faa2 ccbd 8543 873e 28ce 363e 6f8b 8f3c
00000370: ed9c 20be 93e5 123d cc52 bd3d c157 30be
00000380: d332 20bd 4eca 33bd 97ec df3d d19b 8e3e
00000390: 6e61 2f3d 5cbb 00bd 0081 2fbc 8c92 82bc
000003a0: 0631 9d3e b4c2 2b3d ed21 813c 683a df3d
000003b0: 1760 34bd 28dc 7e3d facf e3bc 1f43 16bd
000003c0: c097 fa3d d527 92bc d40e fc3d 1eb5 ffbd
000003d0: 7a95 b93d daa3 933d b541 85bb 40c7 55bc
000003e0: f6a0 1a3d 9840 94bd 5275 0cbe 5f92 74bb
000003f0: 827a 60bd 9840 3c3e 7149 dabd d5b6 d63d

shared_layers.2.bias f4 [128]
-0.0314967 -0.03413054 -0.011132401 -0.05648423 0.068599716 -0.012131445 -0.0523289 -0.046124514
-0.0010667355 0.0167785 -0.089567505 0.039852448 -0.08003732 -0.026800377 0.072408214 -0.013928975
-0.06616965 -0.097780086 0.08440762 0.05826547 -0.06531812 -0.0029177319 0.023424344 -0.092403136
0.07211833 -0.0047280355 0.06855538 -0.020669665 0.11866339 0.085438915 -0.08898644 0.049355187
0.040241662 -0.08908431 -0.02010934 0.08332686 -0.107019365 0.055349365 0.070752256 0.044493906
-0.009559124 -0.04144379 -0.043633208 0.056325782 -0.06318522 0.05102377 0.087690055 0.024070242
-0.09843337 -0.041758526 0.0891061 -0.08691286 0.06411091 0.028156701 -0.06503407 -0.08869097
-0.03268146 -0.04459728 0.025114771 0.10923194 0.05975219 -0.065728925 0.028951947 -0.062482066
0.053334054 0.08567104 0.08898532 0.047038972 -0.03611282 -0.09056016 0.0760899 0.045079336
0.07053852 -0.034173243 -0.003252043 0.06338099 0.090304635 0.030316865 -0.10092696 -0.041097023
-0.098166496 0.07148851 0.08738464 0.014776833 0.052333023 0.07122998 -0.0855456 -0.040920377
0.07079077 0.0058199256 -0.060235698 0.056237537 0.048853997 -0.050734885 -0.027941125 -0.04821527
0.06183088 -0.048898086 -0.06338231 0.07739319 -0.04347075 -0.035681657 -0.120628156 0.07190109
-0.05753702 0.049292598 -0.076566935 -0.041510016 -0.07195575 0.036857925 -0.047026392 -0.07550056
0.05476236 -0.10507799 -0.04445901 -0.05083143 -0.040429194 -0.070925765 0.054744907 -0.025983315
-0.037377086 -0.0095346775 -0.072670825 -0.052420303 -0.06516537 0.098411895 0.053481802 -0.06889794
00000000: af02 01bd 77cc 0bbd ad64 36bc 025c 67bd
00000010: 027e 8c3d f8c2 46bc d456 56bd 0fed 3cbd
00000020: b4d1 8bba 1173 893c 2b6f b7bd 523c 233d
00000030: 9bea a3bd 778c dbbc c24a 943d 5b36 64bc
00000040: f483 87bd ed40 c8bd e7dd ac3d c6a7 6e3d
00000050: 82c5 85bd 6b37 3fbb 69e4 bf3c db3d bdbd
00000060: c6b2 933d a3ed 9abb c366 8c3d 6e53 a9bc
00000070: cb05 f33d 99fa ae3d 863e b6bd aa28 4a3d
00000080: 71d4 243d d671 b6bd 58bc a4bc 46a7 aa3d
00000090: f82c dbbd 04b6 623d 8fe6 903d 3e3f 363d
000000a0: df9d 1cbc f7c0 29bd bcb8 32bd ddb5 663d
000000b0: 4167 81bd 4dfe 503d d896 b33d f52e c53c
000000c0: 6f97 c9bd fd0a 2bbd 427d b63d 5fff b1bd
000000d0: 954c 833d e2a8 e63c 9530 85bd 9ca3 b5bd
000000e0: ffdc 05bd a3ab 36bd 7ebd cd3c ffb4 df3d
000000f0: b6be 743d e39c 86bd a22c ed3c 32ed 7fbd
00000100: cf74 5a3d 4c74 af3d ef3d b63d f0ab 403d
00000110: 09eb 13bd 9b77 b9bd 06d5 9b3d 1ca5 383d
00000120: 8076 903d 3ef9 0bbd 3a20 55bb e4cd 813d
00000130: a3f1 b83d 135b f83c cbb2 cebd 5a55 28bd
00000140: 840b c9bd 9168 923d b8f6 b23d 881a 723c
00000150: 275b 563d 06e1 913d 8832 afbd 209c 27bd
00000160: c0fa 903d 13b5 be3b b5b9 76bd 5559 663d
00000170: 211b 483d 62cf 4fbd c9e4 e4bc 607d 45bd
00000180: 6042 7d3d 5c49 48bd 96ce 81bd 5280 9e3d
00000190: 630e 32bd ee26 12bd e50b f7bd e140 933d
000001a0: f0ab 6bbd 09e7 493d 20cf 9cbd 6806 2abd
000001b0: 895d 93bd 56f8 163d bf9e 40bd 0aa0 9abd
000001c0: 7f4e 603d 2133 d7bd a71a 36bd 9e34 50bd
000001d0: 1599 25bd 8741 91bd 323c 603d f6da d4bc
000001e0: b718 19bd 5637 1cbc 71d4 94bd acb6 56bd
000001f0: 6c75 85bd 2d8c c93d bc0f 5b3d 5d1a 8dbd

shared_layers.4.weight f4 [64, 128]
0.034085877 -0.07417389 0.07944373 0.20708616 0.050924983 0.14903706 0.070456445 -0.027731126
0.088222094 0.088785686 -0.034220014 0.12160098 0.20242245 0.035900526 0.31075343 -0.021244606
-0.04964808 0.069346316 0.09690619 -0.066091865 -0.06428488 0.10503952 0.035665397 -0.23859492
-0.17499746 0.19214515 -0.0038254487 -0.07942578 -0.02303973 -0.095093824 0.09285398 0.29393485
-0.033145487 -0.15342373 0.049894094 -0.14587651 -0.10707199 0.043952815 0.018126031 0.06062885
0.13299462 0.108515434 -0.16321999 -0.082355976 -0.100299634 -0.11825977 -0.055694193 0.06345554
0.00898881 -0.16874488 0.06096059 -0.14378867 -0.13429397 0.18153763 0.07492855 -0.00918186
-0.03467438 -0.03116596 0.10965442 0.048091393 -0.03893921 0.060932 0.1275168 -0.050784387
-0.1827545 -0.09962272 -0.28223708 -0.104944035 0.03233725 0.04663397 0.022943864 -0.22294827
0.15525945 0.1837139 0.16501446 0.08590924 -0.02379412 -0.0358796 0.034627512 0.110649675
0.26059857 0.0730939 0.07614709 -0.019737236 0.13453695 0.060663488 -0.086219475 -0.10422462
-0.1071454 0.029586088 -0.15576075 0.13662966 0.16635546 -0.105117485 0.017205767 0.16076827
-0.016957048 0.088918045 -0.069754735 -0.09287739 0.22598402 0.023905665 -0.15401576 -0.0689787
-0.01028496 0.05332375 0.13184436 0.12544645 -0.23426707 0.015169906 -0.12371803 0.010570168
-0.15468985 0.03011467 0.08256449 0.13388011 0.26459163 0.15854284 0.045565065 0.095428
-0.3254146 -0.09898001 0.11917621 0.017353604 0.17544277 -0.21342367 0.038016077 -0.14836577
-0.24865022 -0.03912994 0.12871814 -0.06468093 0.27078974 0.020236742 0.18193829 -0.13306962
-0.038610842 -0.04562524 -0.20651512 0.13596246 -0.12321978 -0.13122849 -0.07968618 -0.014175839
0.015870241 0.0009801273 -0.10828446 0.12669104 -0.28838748 0.18372118 0.011174167 -0.1227462
0.01138982 0.0045307702 -0.01757553 -0.02257813 0.067661114 0.1630388 0.089024246 0.057200436
-0.11275875 0.2073672 0.1787897 0.08309699 0.01434692 -0.15256555 -0.1975133 -0.19980468
0.07561072 -0.0034431005 0.0022886912 -0.10315063 -0.13908103 0.16986214 0.14535911 0.025218667
-0.036450494 0.0932068 -0.1511321 -0.2327906 -0.14299954 0.05171762 -0.23049238 0.07322558
-0.23462938 0.23159058 0.1939472 0.04661292 -0.24707751 0.14006707 0.1083222 -0.2653636
0.0074009094 0.07451141 0.22555001 0.06454792 0.08389614 0.019736856 0.04092107 0.028936993
-0.011748061 -0.10284597 -0.031087412 0.27370152 -0.07587338 0.12123483 0.15566735 -0.0037386557
-0.12074341 -0.12641688 0.097113945 0.032284725 0.21500249 0.02587689 -0.09434889 0.004630753
-0.11047958 -0.16205937 0.12591107 0.17562737 0.20385645 -0.005726665 -0.07753781 0.029755166
0.11452844 0.012237222 -0.14518219 0.09654803 -0.08797617 0.0947049 -0.036015812 -0.086339146
0.0073305047 -0.07057049 -0.09131944 -0.1678417 0.10788855 0.0069293 -0.030698441 -0.15865733
-0.024227146 0.12931912 -0.06822291 0.042781834 0.04831979 0.02994988 0.11529905 -0.028735481
0.21858443 -0.1721003 0.12214095 0.07457558 -0.061362788 -0.08611714 0.017887704 -0.049169
00000000: a29d 0b3d 7be8 97bd 65b3 a23d 650e 543e
00000010: b796 503d 2c9d 183e 784b 903d 632c e3bc
00000020: c9ad b43d 45d5 b53d 492a 0cbd ef09 f93d
00000030: d547 4f3e 6e0c 133d 131b 9f3e 2b09 aebc
00000040: c95b 4bbd 7105 8e3d c176 c63d 2c5b 87bd
00000050: cba7 83bd f61e d73d e115 123d 3a52 74be
00000060: 8932 33be b3c1 443e 61b4 7abb fca9 a2bd
00000070: d1bd bcbc 8dc0 c2bd 3a2a be3d a17e 963e
00000080: 90c3 07bd 1c1b 1dbe c05d 4c3d a760 15be
00000090: 8f48 dbbd de07 343d 0b7d 943c f555 783d
000000a0: be2f 083e 573d de3d 2423 27be 40aa a8bd
000000b0: e569 cdbd 2e32 f2bd 981f 64bd faf4 813d
000000c0: cd45 133c 75cb 2cbe d0b1 793d 563d 13be
000000d0: 5c84 09be 00e5 393e 2474 993d 836f 16bc
000000e0: b906 0ebd c14f ffbc 7f92 e03d 7bfb 443d
000000f0: b97e 1fbd d593 793d c493 023e 4a03 50bd
00000100: ff23 3bbe ff06 ccbd 6181 90be e6ec d6bd
00000110: 1074 043d 4303 3f3d c5f4 bb3c 8d4c 64be
00000120: 55fc 1e3e 7f1f 3c3e 8df9 283e 2ff1 af3d
00000130: e3eb c2bc 7df6 12bd 94d5 0d3d 4c9c e23d
00000140: 2d6d 853e 41b2 953d 01f3 9b3d fcaf a1bc
00000150: 0ec4 093e 477a 783d d693 b0bd b873 d5bd
00000160: 0c6f dbbd 865e f23c bf7f 1fbe a5e8 0b3e
00000170: 1659 2a3e d647 d7bd 1cf3 8c3c 70a0 243e
00000180: 82e9 8abc aa1a b63d 92db 8ebd 8036 bebd
00000190: 5b68 673e d0d5 c33c 4fb6 1dbe b444 8dbd
000001a0: 4082 28bc 016a 5a3d 3502 073e 0975 003e
000001b0: b5e3 6fbe 338b 783c e15f fdbd 7f2e 2d3c
000001c0: 0467 1ebe 0ab3 f63c 9217 a93d de17 093e
000001d0: 8e78 873e 0e59 223e 6fa2 3a3d c16f c33d
000001e0: be9c a6be 08b6 cabd a812 f43d 2529 8e3c
000001f0: 45a7 333e bc8b 5abe bfb6 1b3d 32ed 17be
00000200: 2a9e 7ebe b746 20bd b0ce 033e 6f77 84bd
00000210: f4a4 8a3e 86c7 a53c 084e 3a3e 6743 08be
00000220: 6726 1ebd 88e1 3abd b378 53be be39 0b3e
00000230: a75a fcbd c360 06be 8232 a3bd c741 68bc
00000240: 4f02 823c 9d77 803a 3ec4 ddbd 4cbb 013e
00000250: 86a7 93be 6821 3c3e da13 373c 5c62 fbbd
00000260: 5e9c 3a3c db76 943b 8ffa 8fbc c5f5 b8bc
00000270: e991 8a3d a5f3 263e 5852 b63d 014b 6a3d
00000280: 0fee e6bd 1158 543e a614 373e c12e aa3d
00000290: 580f 6b3c 253a 1cbe ed40 4abe 9999 4cbe
000002a0: cbd9 9a3d a4a5 61bb defd 153b a340 d3bd
000002b0: 426b 0ebe 57f0 2d3e 05d9 143e 6197 ce3c
000002c0: 1d4d 15bd 35e3 be3d 60c2 1abe a960 6ebe
000002d0: 796e 12be dbd5 533d 3206 6cbe 4bf7 953d
000002e0: af42 70be 1526 6d3e 189a 463e 30ed 3e3d
000002f0: e301 7dbe be6d 0f3e 08d8 dd3d bddd 87be
00000300: 5483 f23b 7099 983d 95f6 663e b331 843d
00000310: bdd1 ab3d 30af a13c da9c 273d 460d ed3c
00000320: f07a 40bc e8a0 d2bd 07ab febc 9b22 8c3e
00000330: 8163 9bbd f749 f83d 4367 1f3e 3c04 75bb
00000340: 5248 f7bd 6d73 01be ade3 c63d fd3c 043d
00000350: 9d29 5c3e c6fb d33c fe39 c1bd 92bd 973b
00000360: 1e43 e2bd e4f2 25be d5ee 003e a9d7 333e
00000370: bfbf 503e bfa6 bbbb 25cc 9ebd 1bc1 f33c
00000380: e38d ea3d a17e 483c a4aa 14be f9ba c53d
00000390: da2c b4bd a5f4 c13d 5185 13bd 94d2 b0bd
000003a0: bb34 f03b 4387 90bd b005 bbbd b2de 2bbe
000003b0: acf4 dc3d 2e0f e33b 4c7b fbbc 1177 22be
000003c0: 0278 c6bc 3b6c 043e 74b8 8bbd 013c 2f3d
000003d0: f9ea 453d 7359 f53c e921 ec3d ac66 ebbc
000003e0: 99d4 5f3e 103b 30be 0925 fa3d 15bb 983d
000003f0: 8c57 7bbd 2f5e b0bd 3c89 923c 6f65 49bd

shared_layers.4.bias f4 [64]
-0.013975697 0.032502074 0.10357374 -0.06343552 0.08711201 -0.041095246 0.0020999315 -0.07029215
-0.07346727 0.024508921 -0.077361576 0.07831395 -0.0994482 -0.070567325 0.07464036 -0.037345033
0.04553157 -0.056242578 0.032328553 -0.093136385 -0.032250408 0.015426142 0.020596264 0.09167572
0.03286612 -0.082939014 -0.07282401 0.091712505 0.036225844 0.05256074 0.0032408442 -0.06976067
0.08929956 -0.022888828 0.057012077 0.035592332 -0.046183296 -0.0029124676 0.027944468 -0.048914712
-0.08930511 -0.07240274 0.06844744 -0.06335577 -0.083763815 -0.070398636 -0.06153996 0.06939043
0.03061353 0.0141294 0.018176353 -0.11160719 -0.062336404 -0.094945155 0.07710575 0.0034327009
0.091133945 0.05005847 -0.10708932 -0.11963686 -0.07843563 0.021056145 0.04148621 -0.017551403
00000000: 52fa 64bc e520 053d 781e d43d 7bea 81bd
00000010: c867 b23d 7d53 28bd 019f 093b 55f5 8fbd
00000020: 0276 96bd efc6 c83c bf6f 9ebd 1063 a03d
00000030: 7fab cbbd 9a85 90bd 0cdd 983d 1bf7 18bd
00000040: 507f 3a3d 9e5e 66bd f26a 043d 4abe bebd
00000050: 0119 04bd eebd 7c3c 7fb9 a83c 7bc0 bb3d
00000060: a09e 063d eedb a9bd c124 95bd c4d3 bb3d
00000070: 8d61 143d ee49 573d 5864 543b afde 8ebd
00000080: b0e2 b63d 5a81 bbbc 7f85 693d 44c9 113d
00000090: b22a 3dbd 19df 3ebb cceb e43c cb5a 48bd
000000a0: 99e5 b6bd e347 94bd 2c2e 8c3d acc0 81bd
000000b0: 5d8c abbd 292d 90bd 5311 7cbd 921c 8e3d
000000c0: 3ac9 fa3c 007f 673c 93e6 943c 4f92 e4bd
000000d0: 7554 7fbd 9b72 c2bd 9fe9 9d3d 2af7 603b
000000e0: 6fa4 ba3d 1c0a 4d3d a551 dbbd 2c04 f5bd
000000f0: dca2 a0bd f07d ac3c 72ed 293d f6c7 8fbc

shared_layers.6.weight f4 [64, 64]
0.37001324 0.08059877 0.12650608 -0.3456467 -0.03381494 -0.0015646516 0.18986844 -0.08498529
-0.103638135 -0.02075403 0.03577091 -0.039225243 -0.31080285 -0.34249336 -0.120018 0.002320678
-0.15504211 0.08983015 -0.30300993 -0.42015126 -0.009135166 -0.29483882 0.10343302 0.49360502
-0.35477588 -0.012058932 -0.30622473 0.102092825 -0.17807148 0.026207505 -0.070286915 0.20152941
0.2198189 -0.27416214 0.13956298 -0.32242855 -0.13204497 -0.16491428 -0.16718751 -0.23945451
-0.04084228 -0.03823701 -0.0024196627 -0.16534881 0.033777323 -0.17993289 0.061999705 0.1092428
0.17946361 0.020901663 0.069993906 0.02618266 0.116269104 -0.047042247 -0.049761064 -0.10798885
0.0378531 -0.15803382 0.0052481894 -0.1333168 -0.11647955 -0.18559028 -0.16419414 0.18138912
-0.04332633 -0.1836112 -0.07047818 0.15440795 -0.16058853 0.29192474 0.29488048 0.17638965
0.045496274 0.0384572 0.07744093 -0.10925545 -0.17127775 0.25334746 0.116271414 0.1392087
-0.014390017 0.0712034 -0.22730644 0.22358201 0.081390955 0.07629197 -0.14481197 0.24769406
0.12287079 0.10996037 0.0801292 0.2629875 -0.007885009 -0.012643484 0.019660145 0.113800205
0.372283 0.1937257 -0.56067044 -0.029188676 -0.08977225 0.2087752 -0.03812146 -0.0032447695
0.4308221 0.2824459 0.21672831 0.019775819 0.14015268 0.34993497 0.09317676 -0.26288018
0.10213671 0.05844375 -0.12259065 0.190517 0.0042849737 0.3815396 0.046064083 -0.104632735
0.13263108 -0.14307491 0.004685252 -0.08745314 0.22392374 0.10862603 -0.096223466 0.07221203
0.09401054 0.1328387 0.24584542 0.22460786 0.099590264 0.043915052 0.13111803 -0.077281855
-0.03140613 0.02457663 -0.039668858 0.16406302 0.08917539 -0.0019925856 -0.10276273 -0.3173402
0.10455771 -0.036727794 0.08501292 -0.2899708 -0.21179743 0.0008431994 0.024626767 -0.0322823
-0.10742248 -0.18006225 0.01067945 -0.10123914 0.025911242 0.25894457 -0.08674805 -0.23104866
0.23045641 0.12328323 0.02483121 -0.27178013 0.11154005 0.16303267 -0.097452834 -0.1841074
-0.06240348 -0.095476784 0.3627034 -0.1441663 -0.26473427 -0.21951596 0.11283314 -0.5050513
-0.32561147 -0.07590034 -0.12956403 -0.29570824 0.24540737 0.057115477 0.23176093 -0.03555799
0.2350246 0.12050479 -0.122684754 -0.38237077 -0.47104388 -0.26932278 -0.058584247 -0.14041087
0.03811574 0.13787517 0.045783814 -0.21128292 0.26581568 0.115032785 -0.06697076 -0.17031321
0.14433049 -0.2890614 -0.093258254 0.09916141 -0.05791964 0.08229077 -0.16303092 -0.17552707
0.08327296 -0.24354486 0.15707919 -0.1979997 0.04929835 0.1910461 0.13925704 0.0990294
0.3248382 0.04345365 0.08454192 0.37993264 0.12025056 -0.036290824 0.26064163 -0.22531323
-0.11651051 -0.240113 -0.19330424 0.00241543 0.0381974 -0.14943787 -0.076117545 0.077682935
0.10027215 0.15421873 0.058376864 -0.07154415 -0.14235559 -0.41628525 0.113837376 0.020853965
0.18613869 -0.3426558 -0.09703036 0.15434486 -0.27634278 -0.21593685 -0.18326317 0.135972
0.08919752 0.113821104 -0.055873066 -0.38165784 -0.09404826 -0.107514285 -0.48237926 0.09260137
00000000: 6072 bd3e f810 a53d cf8a 013e 9bf8 b0be
00000010: 8981 0abd ff14 cdba df6c 423e c50c aebd
00000020: 3b40 d4bd 5b04 aabc 8584 123d a6aa 20bd
00000030: 8d21 9fbe 4a5b afbe ffcb f5bd 8416 183b
00000040: 5cc3 1ebe dff8 b73d 1e24 9bbe 111e d7be
00000050: aaab 15bc 1df5 96be b1d4 d33d ccb9 fc3e
00000060: 2fa5 b5be d492 45bc 7dc9 9cbe 0b16 d13d
00000070: 5f58 36be 1fb1 d63c 96f2 8fbd ba5d 4e3e
00000080: 3518 613e fb5e 8cbe 99e9 0e3e 5b15 a5be
00000090: cc36 07be 4adf 28be 3433 2bbe 9033 75be
000000a0: 3c4a 27bd 699e 1cbd 3493 1ebb 3351 29be
000000b0: 175a 0a3d 5440 38be 67f3 7d3d b0ba df3d
000000c0: 4fc5 373e f739 ab3c f758 8f3d 057d d63c
000000d0: 7f1e ee3d 5faf 40bd 42d2 4bbd 4229 ddbd
000000e0: da0b 1b3d 9ed3 21be 01f9 ab3b 3384 08be
000000f0: d58c eebd 610b 3ebe 8222 28be 12be 393e
00000100: f376 31bd 9304 3cbe dd56 90bd 1e1d 1e3e
00000110: 5271 24be 2977 953e 93fa 963e 7d9f 343e
00000120: 4d5a 3a3d 4c85 1d3d 5a99 9e3d 52c1 dfbd
00000130: 6f63 2fbe c2b6 813e b51f ee3d ba8c 0e3e
00000140: 1bc4 6bbc 17d3 913d 05c3 68be aff2 643e
00000150: 4db0 a63d f73e 9c3d 9749 14be 83a3 7d3e
00000160: aea3 fb3d e732 e13d c71a a43d 4ca6 863e
00000170: 2030 01bc 9e26 4fbc 500e a13c 1510 e93d
00000180: e19b be3e 0860 463e 1988 0fbf 171d efbc
00000190: 83da b7bd 2bc9 553e 3f25 1cbd 33a6 54bb
000001a0: b794 dc3e c09c 903e 07ee 5d3e e600 a23c
000001b0: 2f84 0f3e ad2a b33e 75d3 be3d 3b98 86be
000001c0: 0d2d d13d b762 6f3d cf10 fbbd e316 433e
000001d0: f768 8c3b 2959 c33e b1ad 3c3d b049 d6bd
000001e0: 71d0 073e 3b82 12be be86 993b a21a b3bd
000001f0: 444c 653e 5377 de3d cf10 c5bd e7e3 933d
00000200: 9988 c03d de06 083e e7be 7b3e 9aff 653e
00000210: fbf5 cb3d 45e0 333d ce43 063e f345 9ebd
00000220: b7a3 00bd ee54 c93c d07b 22bd 2300 283e
00000230: 96a1 b63d 0a96 02bb 4475 d2bd 6a7a a2be
00000240: 5a22 d63d e26f 16bd 411b ae3d 0d77 94be
00000250: 6de1 58be 270a 5d3a 13be c93c 723a 04bd
00000260: 5100 dcbd 3d62 38be dcf8 2e3c 7756 cfbd
00000270: d043 d43c 6294 843e f6a8 b1bd 0598 6cbe
00000280: c4fc 6b3e eb7b fc3d d26a cb3c c426 8bbe
00000290: 1c6f e43d 09f2 263e 5a95 c7bd a686 3cbe
000002a0: cb9a 7fbd 5589 c3bd 43b4 b93e 55a0 13be
000002b0: 408b 87be cbc8 60be 1015 e73d 0b4b 01bf
000002c0: 8cb6 a6be a371 9bbd 6fac 04be 1267 97be
000002d0: 124c 7b3e ebf1 693d bd52 6d3e 41a5 11bd
000002e0: 4aaa 703e 37cb f63d 2542 fbbd 1ac6 c3be
000002f0: aa2c f1be ade4 89be 09f6 6fbd dec7 0fbe
00000300: 401f 1c3d 262f 0d3e cf87 3b3d 8d5a 58be
00000310: fe18 883e 4f96 eb3d f727 89bd 9666 2ebe
00000320: 5fcb 133e dbff 93be 2ffe bebd 2315 cb3d
00000330: 253d 6dbd 1088 a83d 94f1 26be 5ebd 33be
00000340: 038b aa3d d363 79be 5ed9 203e 6fc0 4abe
00000350: 11ed 493d 97a1 433e 6699 0e3e edcf ca3d
00000360: 3151 a63e 74fc 313d 5024 ad3d 8886 c23e
00000370: ed45 f63d b0a5 14bd d272 853e 83b8 66be
00000380: 109d eebd 2fe0 75be 8cf1 45be 314c 1e3b
00000390: e074 1c3d 3e06 19be 84e3 9bbd 3b18 9f3d
000003a0: 7c5b cd3d 84eb 1d3e 941c 6f3d bd85 92bd
000003b0: aac5 11be 5723 d5be 9223 e93d efd5 aa3c
000003c0: 249b 3e3e 9570 afbe dab7 c6bd 940c 1e3e
000003d0: cd7c 8dbe 8d1e 5dbe 57a9 3bbe 3e3c 0b3e
000003e0: 30ad b63d 0a1b e93d 28db 64bd a868 c3be
000003f0: 609c c0bd 7330 dcbd 6afa f6be c9a5 bd3d

shared_layers.6.bias f4 [64]
0.10022567 -0.07490347 0.113389835 0.09459788 -0.10610428 -0.10437254 -0.06604931 0.06037455
0.053552672 0.067430444 -0.02402333 0.03394411 0.06336482 -0.093505755 0.021664169 -0.050925363
-0.048739277 -0.08168155 0.03263421 -0.10438943 0.0597779 -0.05233369 -0.07820303 -0.10909856
0.05010554 0.043122374 -0.045418616 -0.05845063 0.052396037 -0.08966724 -0.020224718 0.018597987
0.01807646 -0.041997463 0.029680792 -0.09874493 -0.03167465 0.019929487 0.08532635 -0.08787103
-0.03896222 0.008576447 -0.022358643 -0.10127409 0.07273198 -0.07181778 0.07282671 0.023713034
0.08026243 0.012885998 -0.08292848 0.017599186 0.0938129 -0.0449283 -0.055315703 -0.031655177
0.0612603 -0.07981123 -0.007969872 0.0953136 -0.07615706 0.045736086 -0.10162749 0.05288851
00000000: 1e43 cd3d fe66 99bd ee38 e83d 89bc c13d
00000010: 334d d9bd 45c1 d5bd dc44 87bd 4e4b 773d
00000020: 0c5a 5b3d f918 8a3d 93cc c4bc fb08 0b3d
00000030: 6ac5 813d f27f bfbd 0e79 b13c 1d97 50bd
00000040: d6a2 47bd a848 a7bd 73ab 053d 20ca d5bd
00000050: acd9 743d da5b 56bd e928 a0bd 116f dfbd
00000060: 773b 4d3d 16a1 303d df08 3abd ee69 6fbd
00000070: 3a9d 563d 75a3 b7bd 4fae a5bc ce5a 983c
00000080: 1615 943c 8805 2cbd 2225 f33c c83a cabd
00000090: 47bd 01bd 2a43 a33c 95bf ae3d baf5 b3bd
000000a0: d996 1fbd 3a84 0c3c 7929 b7bc ca68 cfbd
000000b0: 81f4 943d 3315 93bd 2c26 953d d641 c23c
000000c0: a160 a43d cb1f 533c 68d6 a9bd 2b2c 903c
000000d0: fa20 c03d bd06 38bd b892 62bd dca8 01bd
000000e0: 15ec 7a3d 1274 a3bd 1194 02bc c733 c33d
000000f0: 3cf8 9bbd c355 3b3d 1322 d0bd 9fa1 583d

output_layer.weight f4 [2, 64]
0.0012887146 -0.009364553 0.00048949866 0.0037230237 -0.0024310818 -0.00248116 -0.009755341 0.011569833
0.003831098 -0.0025460043 0.007111643 0.007156826 0.006699886 0.00068245124 0.0007320189 -0.0029076948
-0.0014087607 0.0014739623 0.008925534 -0.0030347707 0.0070160707 -0.007161672 0.0008715492 -0.0034484596
-0.009191361 -0.002689862 -0.008676862 -0.01286703 0.008242603 0.0032455905 -0.008963479 -0.008878675
-0.0028658893 -0.008559167 0.005475665 -0.00068404747 -0.0073235217 0.0073943483 -0.001914181 -0.007908339
-0.0075252573 0.008988482 -0.0063679665 -0.0028484864 -0.0035382507 -0.002540681 0.00073997414 -0.0063207345
0.008225551 -0.0069107967 -0.0017481073 -0.0051690037 0.0016827057 0.0035733306 0.0025798914 -0.0074399593
-0.0013493905 0.00291379 -0.0043668803 -0.0023222591 0.006206981 -0.0069159484 -0.0033066466 0.009594109
0.06475717 -0.065720014 0.07695181 0.049875833 -0.07542683 -0.057454977 -0.08101235 0.09510985
0.055583533 0.041149497 -0.010712809 0.018186484 0.062769875 -0.06474703 0.018711064 -0.047741544
-0.034393463 -0.055851974 0.019719502 -0.06642332 0.07781681 -0.058284286 -0.048691977 -0.048883222
0.05733792 0.03169474 -0.045764003 -0.0732241 0.04123156 -0.056727506 -0.008102824 0.01572482
0.0019156827 -0.044224918 0.021933228 -0.06834673 -0.029778581 0.0074940175 0.067412585 -0.05670463
-0.046548765 0.0011565229 -0.009242727 -0.07267016 0.056952827 -0.09915818 0.06517915 0.0017066576
0.06068546 9.538167e-05 -0.038917832 0.024033733 0.038833868 -0.03874638 -0.015540069 -0.021026485
0.009345246 -0.04713932 -0.0075772502 0.06650249 -0.07023874 0.052857347 -0.0666467 0.047623605
00000000: 16ea a83a c86d 19bc b351 003a f9fd 733b
00000010: c952 1fbb f59a 22bb ded4 1fbc 668f 3d3c
00000020: 2913 7b3b ddda 26bb c908 e93b cf83 ea3b
00000030: b88a db3b 87e6 323a f5e4 3f3a 068f 3ebb
00000040: 2aa6 b8ba f831 c13a 673c 123c 01e3 46bb
00000050: 11e7 e53b 76ac eabb ad78 643a 8dff 61bb
00000060: 5d97 16bc 6548 30bb 6629 0ebc 3cd0 52bc
00000070: fc0b 073c f9b3 543b 8edb 12bc dd77 11bc
00000080: a5d1 3bbb c03b 0cbc 356d b33b a651 33ba
00000090: 27fa efbb 4a4c f23b 42e5 faba fa91 01bc
000000a0: 6f96 f6bb 6d44 133c 60aa d0bb acad 3abb
000000b0: ffe1 67bb 8e81 26bb d3fa 413a 2a1e cfbb
000000c0: 76c4 063c f773 e2bb bf20 e5ba bf60 a9bb
000000d0: 3c8e dc3a 8a2e 6a3b 6513 293b e7ca f3bb
000000e0: 08de b0ba 49f5 3e3b 0c18 8fbb 0b31 18bb
000000f0: ee63 cb3b 2e9f e2bb 53b4 58bb 9c30 1d3c
00000100: 689f 843d 3798 86bd e998 9d3d 9a4a 4c3d
00000110: 6279 9abd e955 6bbd cee9 a5bd f4c8 c23d
00000120: 8fab 633d 608c 283d c784 2fbc d2fb 943c
00000130: 7e8d 803d 179a 84bd f247 993c a38c 43bd
00000140: 29e0 0cbd 0ac5 64bd cb8a a13c f308 88bd
00000150: 6b5e 9f3d 81bb 6ebd 3d71 47bd c639 48bd
00000160: 2bdb 6a3d 58d2 013d 0973 3bbd 84f6 95bd
00000170: 6de2 283d 1a5b 68bd b5c1 04bc 56d1 803c
00000180: a517 fb3a 3025 35bd 50ad b33c 5ff9 8bbd
00000190: 36f2 f3bc 6090 f53b 9c0f 8a3d 1d43 68bd
000001a0: eba9 3ebd 7896 973a cf6e 17bc 18d4 94bd
000001b0: 5e47 693d 7213 cbbd a57c 853d edb1 df3a
000001c0: 5191 783d a507 c838 4e68 1fbd 64e2 c43c
000001d0: 4310 1f3d 86b4 1ebd c69b 7ebc bc3f acbc
000001e0: cd1c 193c 2915 41bd 954a f8bb 7532 883d
000001f0: 54d9 8fbd f280 583d 117e 88bd f810 433d

output_layer.bias f4 [2]
0.006701245 -1.4092962
00000000: 1e96 db3b d163 b4bf

layers.0.weight f4 [128, 3]
-0.3315447 0.3835206 0.13324083 0.24980536 -0.15842539 0.22537905 0.16490495 -0.66176844
-0.09470924 -0.027402908 0.28040874 -0.1816089 -0.04887872 0.48858956 -0.31546992 -0.37951803
0.3761781 0.113510475 -0.010440073 0.1984823 -0.23975284 0.0011301386 -0.13424158 -0.29540855
0.14112523 0.073258445 0.63849735 0.043147556 -0.020733764 -0.11985952 -0.08660275 0.034930006
-0.52310145 0.099445954 -0.053280972 0.20987555 -0.09677632 0.004952674 0.5268339 0.04176179
0.28587282 0.26101375 -0.2664389 0.2015099 0.32136506 -0.43128163 0.019780492 0.07228951
-0.45600003 -0.24301535 0.14441827 0.22603655 -0.24275309 0.12023267 -0.11243653 0.11630771
-0.60528654 -0.29256496 0.3949922 0.28988436 -0.31585768 0.16861992 0.080048695 0.31410158
-0.14903177 -0.11450367 -0.40062222 -0.12110499 0.054268975 -0.40768567 -0.12622264 -0.049218513
0.19787276 -0.29470736 -0.028765569 0.14762135 0.27530792 -0.41392478 0.063008495 -0.027231898
0.25155154 0.34618878 -0.1302524 0.88020176 0.3963672 0.09703914 0.5906319 0.61025333
-0.65861803 0.14884993 0.30117938 0.065155655 -0.022061786 0.5352114 0.0075597716 0.15507853
0.12996322 -0.11611527 -0.12026617 0.2707729 0.23804502 0.46471572 -0.16677298 -0.45756474
0.0886163 0.53356963 0.21182577 -0.07439276 -0.24135424 0.19792964 0.0974881 0.37252444
-0.18549319 0.0013701415 0.26848713 0.24915384 0.3957456 -0.18683003 -0.42712477 0.38767582
-0.030809235 -0.25802693 0.245883 0.26785576 -0.1136107 -0.0033272319 0.10638885 0.3982578
-0.28265947 -0.33431095 0.04189288 0.34436187 0.04602322 -0.21846192 0.417203 -0.25422806
0.21817297 0.08962882 -0.15195446 0.22651133 -0.14842385 0.18172257 0.33703765 0.29685953
0.14224361 -0.009714288 0.104622655 -0.53154916 -0.4019488 0.14504299 -0.17205615 0.26867625
0.00020125185 -0.17354497 0.410916 0.17086592 -0.11188085 -1.1365783 0.21606481 0.33114886
-0.36331075 0.12551166 0.48871326 -0.059265073 -0.054452967 0.41904414 -0.04482133 -0.021744573
-0.15605341 0.26219344 -0.18314078 0.11757633 0.41570815 -0.08127218 0.36864376 -0.66155636
0.09543688 0.15396005 0.2457995 0.37991184 0.079457924 0.24390778 0.25983945 0.2368575
-0.48009163 0.04908722 0.054942314 -0.5199737 0.11835865 0.32222426 -0.032607466 0.010969019
-0.04472691 -0.46938622 0.40039435 -0.07374639 0.0587857 -0.30450818 -0.2646404 -0.23333478
0.059086494 -0.3206454 -0.28590116 -0.52139676 -0.44925335 0.35542065 -0.2519789 -0.92310524
-0.30425018 -0.5031836 0.05652584 0.082736515 0.3106463 0.06680403 -0.05669767 -0.09262534
0.027334753 0.28885427 -0.524548 0.10706386 0.24737722 0.4151901 0.29404274 0.25862566
0.42467853 -0.33011693 0.08232001 -0.67757463 -0.43705392 0.124541536 -0.11715644 0.033410486
-0.26505792 0.15131564 -0.18877226 0.44629428 -0.44215876 0.1538677 -0.54504824 0.12324887
-0.027463017 0.28878134 -0.80952984 0.23697168 -0.3963185 -0.2811551 0.2793477 0.11043639
0.50111103 -0.16323827 -0.20330153 0.31634364 -0.115297504 -0.5953164 -0.13148336 -0.20887122
00000000: 3ac0 a9be d05c c43e 4970 083e facc 7f3e
00000010: 443a 22be c4c9 663e d8dc 283e a869 29bf
00000020: ebf6 c1bd 107c e0bc bc91 8f3e aff7 39be
00000030: 0d35 48bd 6928 fa3e 4685 a1be 3050 c2be
00000040: 6a9a c03e 2e78 e83d d70c 2bbc f23e 4b3e
00000050: c581 75be 2921 943a a076 09be ca3f 97be
00000060: 2283 103e 8608 963d 9074 233f 7ebb 303d
00000070: dbd9 a9bc e878 f5bd c85c b1bd c412 0f3d
00000080: fae9 05bf 52aa cb3d 263d 5abd 9ee9 563e
00000090: aa32 c6bd 0a4a a23b 96de 063f 690e 2b3d
000000a0: ec5d 923e 98a3 853e ae6a 88be 9c58 4e3e
000000b0: f689 a43e f2d0 dcbe b30a a23c 860c 943d
000000c0: d678 e9be 04d9 78be 62e2 133e 2076 673e
000000d0: 4494 78be 8c3c f63d 2045 e6bd bd32 ee3d
000000e0: 0ff4 1abf 13cb 95be 6b3c ca3e b96b 943e
000000f0: 19b8 a1be b3aa 2c3e 92f0 a33d ecd1 a03e
00000100: c99b 18be e680 eabd 5b1e cdbe e505 f8bd
00000110: 2549 5e3d 2dbc d0be 8240 01be 5a99 49bd
00000120: 289f 4a3e e2e3 96be c5a5 ebbc 0d2a 173e
00000130: 29f5 8c3e f3ed d3be 990a 813d 6e15 dfbc
00000140: 5dcb 803e a83f b13e e360 05be e754 613f
00000150: a4f0 ca3e 75bc c63d a733 173f 9039 1c3f
00000160: 319b 28bf 1e6c 183e 2f34 9a3e 5470 853d
00000170: ebba b4bc 9d03 093f f6b7 f73b e8cc 1e3e
00000180: 1415 053e d8cd edbd 1c4e f6bd bfa2 8a3e
00000190: 13c2 733e 38ef ed3e 89c6 2abe ed45 eabe
000001a0: 767c b53d 0598 083f dbe8 583e 3b5b 98bd
000001b0: 9125 77be 11ae 4a3e d7a7 c73d 86bb be3e
000001c0: edf1 3dbe 5296 b33a 2577 893e 2f22 7f3e
000001d0: 2b9f ca3e 5f50 3fbe 19b0 dabe 727d c63e
000001e0: a663 fcbc 1b1c 84be c1c8 7b3e 6424 893e
000001f0: baac e8bd b00d 5abb 66e2 d93d 72e8 cb3e
00000200: beb8 90be ce2a abbe de97 2b3d 3350 b03e
00000210: d882 3c3d 7bb4 5fbe a29b d53e 2e2a 82be
00000220: bc68 5f3e 518f b73d f399 1bbe 96f2 673e
00000230: 6cfc 17be 7b15 3a3e 3390 ac3e f9fd 973e
00000240: 4fa8 113e ad28 1fbc 6744 d63d 9b13 08bf
00000250: 3ccc cdbe 2686 143e 7d2f 30be ef8f 893e
00000260: 2207 5339 c6b5 31be 9563 d23e 7af7 2e3e
00000270: c921 e5bd 667b 91bf 1840 5d3e 588c a93e
00000280: de03 babe 2186 003e a038 fa3e efbf 72bd
00000290: 130a 5fbd f48c d63e 9296 37bd ad21 b2bc
000002a0: 77cc 1fbe 383e 863e 4289 3bbe dccb f03d
000002b0: b3d7 d43e 0772 a6bd e0be bc3e c25b 29bf
000002c0: 6974 c33d b4a7 1d3e ddb2 7b3e ce83 c23e
000002d0: d6ba a23d f6c2 793e ad09 853e c68a 723e
000002e0: 92ce f5be ae0f 493d 310b 613d ff1c 05bf
000002f0: 0566 f23d 94fa a43e 688f 05bd 66b7 333c
00000300: 9033 37bd 6453 f0be 7d00 cd3e 5908 97bd
00000310: 46c9 703d 7fe8 9bbe f27e 87be 50ef 6ebe
00000320: ae04 723d a22b a4be a361 92be 427a 05bf
00000330: 8904 e6be b2f9 b53e 6103 81be a050 6cbf
00000340: aec6 9bbe a4d0 00bf a487 673d c371 a93d
00000350: 080d 9f3e 8dd0 883d d13b 68bd 5bb2 bdbd
00000360: 22ed df3c b5e4 933e c748 06bf 4c44 db3d
00000370: 7450 7d3e cc93 d43e c58c 963e 956a 843e
00000380: 776f d93e 1605 a9be 6597 a83d 8875 2dbf
00000390: 88c5 dfbe a20f ff3d b7ef efbd 6fd9 083d
000003a0: acb5 87be 7df2 1a3e 844d 41be af80 e43e
000003b0: a262 e2be 7f8f 1d3e 4888 0bbf e769 fc3d
000003c0: 1ffa e0bc 26db 933e 593d 4fbf b4a8 723e
000003d0: 42ea cabe 90f3 8fbe a906 8f3e 792c e23d
000003e0: d048 003f ef27 27be 472e 50be cbf7 a13e
000003f0: 1921 ecbd a866 18bf 93a3 06be 56e2 55be

layers.0.bias f4 [128]
-0.49754196 -0.46050933 0.32539803 0.051688343 0.07405909 -0.5707609 0.10569573 -0.22648497
0.14529659 0.5090595 -0.18498158 0.27045816 0.20072757 0.08354552 -0.061597627 -0.80470693
-0.51394194 0.1194628 0.034437552 0.0101891905 -0.75340825 0.68084276 -0.85987514 -0.5595956
0.2239145 -0.14427444 0.093323804 0.010897793 -0.004038643 -0.006712255 0.86820275 0.36364216
0.4801491 0.085991606 -0.33402565 0.87738425 -0.62887746 0.64556986 0.1458218 0.19064087
0.08238297 0.3095034 0.039840665 0.007938641 0.26409942 -0.7439682 -0.15555397 0.10644744
0.24973524 -0.59014326 -0.22342189 -0.52046454 0.07556061 -0.34057182 0.6973303 0.7200253
0.0054313582 0.28349763 0.18618456 0.058400616 0.05932634 0.024641624 -0.13150449 0.47376907
-0.029777437 -0.021822039 -0.5763646 -0.18151617 0.24610308 -0.56959254 0.13132344 0.37963384
0.0315159 0.1253621 0.26065546 0.14613193 -0.3304518 -0.34849602 0.1745262 -0.045969624
-0.01851508 -0.008070544 -0.040043473 0.008004289 0.1032296 0.40460193 -0.0213786 0.7026576
-0.21951598 -0.20431417 0.1348687 -0.1555272 -0.10220884 0.117577404 -0.5778975 -0.11641242
-0.080802985 -0.12815793 -0.10280814 -0.054144207 0.28161567 -0.073067315 0.10297558 -0.83767384
0.73516375 -0.020352757 -0.10041803 0.018380303 0.025836458 -0.045920167 0.70504105 -0.29919118
0.09036579 -0.68938524 -0.71899784 -0.24440101 0.028836686 0.1576628 0.041938204 -0.14530255
0.050211355 0.81535125 0.4994909 0.1742724 0.034014165 0.22745934 -0.0790986 -0.15289086
00000000: d2bd febe e1c7 ebbe 929a a63e 28b7 533d
00000010: 4bac 973d 631d 12bf 0177 d83d adeb 67be
00000020: a1c8 143e b951 023f d06b 3dbe 7e79 8a3e
00000030: 878b 4d3e ea19 ab3d cb4d 7cbd 4601 4ebf
00000040: b391 03bf eaa8 f43d 640e 0d3d 90f0 263c
00000050: 5ddf 40bf b64b 2e3f c720 5cbf a841 0fbf
00000060: d849 653e aebc 13be 8d20 bf3d a88c 323c
00000070: 9856 84bb 7af2 dbbb 8942 5e3f 4e2f ba3e
00000080: 1ad6 f53e 5e1c b03d 6905 abbe 419c 603f
00000090: 1dfe 20bf 1144 253f 4f52 153e 5c37 433e
000000a0: 67b8 a83d 3b77 9e3e f72f 233d 1311 023c
000000b0: 0a38 873e b374 3ebf 8a49 1fbe 1e01 da3d
000000c0: 98ba 7f3e a113 17bf b5c8 64be 2a3d 05bf
000000d0: 85bf 9a3d 6e5f aebe 3d84 323f 9453 383f
000000e0: 89f9 b13b 9a26 913e 2aa7 3e3e 7c35 6f3d
000000f0: 2d00 733d 3bdd c93c 1da9 06be dc91 f23e
00000100: d0ef f3bc 22c4 b2bc a18c 13bf 60df 39be
00000110: 7202 7c3e d1d0 11bf a779 063e 5e5f c23e
00000120: d116 013d ec5e 003e a274 853e 9ca3 153e
00000130: fa30 a9be 126e b2be ffb6 323e a54a 3cbd
00000140: f0ac 97bc 513a 04bc a004 24bd 6c24 033c
00000150: 0a6a d33d fc27 cf3e 2c22 afbc 5ee1 333f
00000160: ccc8 60be bc37 51be 051b 0a3e 8642 1fbe
00000170: de52 d1bd 6ccc f03d 17f1 13bf a369 eebd
00000180: 097c a5bd d53b 03be 138d d2bd 51c6 5dbd
00000190: ee2f 903e 51a4 95bd dce4 d23d cb71 56bf
000001a0: b133 3c3f d3ba a6bc f8a7 cdbd 4a92 963c
000001b0: fba6 d33c c916 3cbd 927d 343f 962f 99be
000001c0: b311 b93d 8d7b 30bf 3e10 38bf 4244 7abe
000001d0: ea3a ec3c 5b72 213e 65c7 2b3d 31ca 14be
000001e0: 6caa 4d3d dcba 503f 45bd ff3e 7774 323e
000001f0: 7052 0b3d 1aeb 683e 72fe a1bd 6c8f 1cbe
