experiments/ppo_pendulum_5M_20250831_012126/checkpoints/auto_step_755712.pt (torch, 605202 bytes, 60 tensors)

shared_layers.0.weight f4 [128, 3]
000000 04 27 ff bc 0c 84 c9 3d ac 57 93 be 86 11 09 be
       -0.031146534 0.09839639 -0.28777826 -0.13385591
000010 37 2f 92 bd c3 a7 3d 3e dd de 9e bd a2 60 92 bc
       -0.07137912 0.18521027 -0.077573515 -0.017868344
000020 1b ef 19 bd b7 2a e7 bd 21 cf e5 bd 4c 80 6a be
       -0.037581544 -0.11287444 -0.11221147 -0.22900504
000030 d4 1f 9e be c8 77 50 3e 7d ee 2d 3e 6e 5a 9d 3d
       -0.30883658 0.20358193 0.16985507 0.07683264
000040 a7 d5 e8 3c b5 d1 91 bc 0b 00 0e 3e 28 05 4f 3d
       0.02842219 -0.017800191 0.13867204 0.050542027
000050 38 98 32 be 98 8e 1b be c3 e9 a0 bc 69 95 e9 3d
       -0.1744088 -0.15191114 -0.019642716 0.11405451
000060 c6 7e f0 bd f0 f8 cc bd 83 d1 4e bc 25 95 72 3d
       -0.1174293 -0.100084186 -0.012623194 0.059224267
000070 e9 06 f7 3d ff f9 d7 bd fc 44 97 3d c0 f5 85 3c
       0.12061865 -0.1054573 0.073862046 0.016352534
000080 9c 80 87 bd 51 82 13 3e bf fe c3 bd 01 23 3f bd
       -0.06616327 0.1440518 -0.09570073 -0.04666424
000090 e4 b7 1b be 38 e4 a0 be 31 85 92 3d a2 75 fe bc
       -0.15206867 -0.31424117 0.071543105 -0.031061951
0000a0 d8 a3 04 bc 47 95 4e 3d 08 b6 cc bd 46 31 14 3e
       -0.008095704 0.05043533 -0.09995657 0.14471921
0000b0 0a 00 ce 3d 4a 64 4b 3d 7e fc a2 bd 2c 4b 3e bc
       0.10058601 0.04965619 -0.07958315 -0.011614602
0000c0 0a ca 3e 3e 30 8a 6f bd 7b 82 f8 3d a3 d2 2e 3d
       0.1863176 -0.058481395 0.12134262 0.042681348
0000d0 27 29 14 3c 0d 5d 2d 3d d6 35 31 be 6b de d8 3d
       0.009043015 0.04232507 -0.17305693 0.10589298
0000e0 a8 ec 14 bd d1 46 a6 bd 95 e5 16 3e 29 3e 28 bd
       -0.036358505 -0.08118976 0.14736016 -0.041074906
0000f0 62 fd 24 be 53 23 d5 bb c5 88 86 bd 6e df ee bc
       -0.16112283 -0.006504455 -0.065690555 -0.029159274
000100 3e b5 34 3e a5 b7 70 bd 46 50 19 3e cd 5d 21 3e
       0.17647263 -0.058768887 0.14972028 0.15758438
000110 88 95 c3 bb 22 d1 98 bd 05 bb 0b be 1f fe 7e 3e
       -0.0059687532 -0.07461764 -0.13645561 0.24901627
000120 7b e0 a2 bd 77 76 af 3c 90 c1 bc bd 60 4a b1 bd
       -0.079529725 0.021418793 -0.092166066 -0.08656764
000130 9b 1b 2d 3e a2 3b 0a 3e 07 b5 a1 bb 7b 09 8b 3d
       0.16905062 0.1349931 -0.00493491 0.06788918
000140 49 07 26 b9 e3 04 af bc 42 fc ef 3c 46 8c ae bd
       -0.00015833708 -0.021364635 0.02929509 -0.08522849
000150 94 af 4b 3b 4e 15 2f bd 3f 7a 2c be dd 92 87 3b
       0.0031079995 -0.042744927 -0.16843508 0.0041373805
000160 56 94 91 bd ff e6 ed bc 10 be 5a be ca 05 e5 3d
       -0.07108371 -0.029040812 -0.21361566 0.11182745
000170 cb fd 4c 3e 03 f3 88 3b 3e 58 82 3c c6 13 39 3b
       0.2001869 0.00417936 0.015911218 0.0028240546
000180 0b ee 2a 3e 13 9b 1c 3e 11 63 74 3c 87 20 06 be
       0.16692369 0.15293531 0.014916197 -0.13098346
000190 63 5c 59 be 7c 90 14 bd e6 4f 5e 3d 91 33 36 3e
       -0.21226649 -0.036270604 0.054275416 0.17793109
0001a0 bd 2a 3c be 20 a0 d9 bd 3f e1 3b bd 9f cf 26 3d
       -0.18375678 -0.106262445 -0.04586911 0.040725347
0001b0 95 7b 68 3d 17 05 16 3c f6 49 82 3d de 8b 0d bd
       0.056758482 0.009156487 0.06361763 -0.034557216
0001c0 9c 00 67 be 39 9d 45 bd f1 af 48 bd fb 67 0e 3e
       -0.22558826 -0.048245642 -0.048995916 0.13906853
0001d0 d3 e3 e2 ba cd 2a 25 3e 0b a5 16 3e a2 95 ae 3d
       -0.0017310329 0.16129608 0.14711396 0.08524634
0001e0 27 cc 65 bd e1 62 b9 3d 6d bb 86 3e 2a 3d d2 bd
       -0.056102898 0.09052063 0.2631487 -0.10265572
0001f0 80 e2 90 3d 54 d9 fc 3d ef 25 8d 3d f2 45 35 bc
       0.070744514 0.123461396 0.06892001 -0.01106404
000200 a7 22 9f be 59 92 23 3c 3e dd 9f 3d 24 23 80 3d
       -0.31081125 0.0099836225 0.078058705 0.062567025
000210 a9 3a 31 be 6d 8d 85 bd be 1e c0 3d 79 21 da bc
       -0.17307533 -0.065211155 0.093808636 -0.02662729
000220 18 81 00 bd c8 d4 67 bc b1 85 e0 bc 58 3a 25 be
       -0.031373113 -0.014149852 -0.027407499 -0.16135538
000230 fb 18 43 3c ee 45 37 3d be 93 a1 bd 41 55 f3 3c
       0.011907811 0.044744425 -0.07889508 0.029703738
000240 ce 33 73 3e 9f 99 16 be 7d f7 81 3d de 60 84 3c
       0.2375023 -0.1470704 0.06346033 0.016159471
000250 1f 7b 73 be 72 d4 e1 bd cb e8 bd 3b c1 31 33 be
       -0.23777436 -0.11026849 0.0057955734 -0.17499448
000260 17 a3 04 3e 16 33 18 be 6b 8b af bd 5b b0 5d be
       0.12952839 -0.14863238 -0.08571514 -0.21649306
000270 5e 5c 07 3e 3f 37 0d bd 07 54 26 be 79 e4 08 be
       0.13218829 -0.034476515 -0.16242991 -0.13368405
000280 f2 8d c3 3c 75 90 93 3d 22 26 0c 3d e7 f9 38 bc
       0.023871396 0.07205287 0.034216054 -0.01129005
000290 11 09 89 be 74 11 51 bc ea 5f 9c bd ce fd db bc
       -0.2676473 -0.012760509 -0.07635482 -0.026854422
0002a0 e4 f5 26 3e 66 5b d2 3a 4a 3b e5 3b bd 4b 15 bd
       0.16304737 0.0016048967 0.006995593 -0.036449183
0002b0 75 d3 b3 3c d0 27 1d 3e d7 56 97 3d dd f3 e4 3d
       0.021951417 0.15347219 0.0738961 0.11179326
0002c0 9b 43 92 be e1 2c 2e 3d e4 97 c8 3e c1 61 a2 bd
       -0.28567204 0.04252327 0.39178383 -0.07928801
0002d0 04 a4 e3 bc b0 8c bb bd 78 d6 a3 bc 8e e0 05 3d
       -0.02778817 -0.091576934 -0.019999728 0.032684855
0002e0 71 af ac bd bb 8c e6 3c 2c 4b 34 be b8 79 b8 bd
       -0.084319 0.028143277 -0.17606801 -0.09007591
0002f0 34 07 1e bd 17 0d 69 bd 9e ef 70 3e 26 08 6e 3e
       -0.03858109 -0.05689725 0.23528907 0.23245296
000300 6b 19 10 be 54 23 8b 3d 4d bb 45 be 11 00 9a 3d
       -0.14072196 0.06793848 -0.19309731 0.07519544
000310 e7 ae 89 bd 15 e1 33 be d4 05 64 be d8 98 14 3d
       -0.06722813 -0.1756633 -0.22267848 0.036278576
000320 2c 3a 0b be b4 3e db bd a4 c6 2a 3d 06 c5 1c 3e
       -0.1359641 -0.10705319 0.041693345 0.15309533
000330 f1 49 8b 3e 03 40 01 3c 31 49 68 bb 1a f4 31 3e
       0.2720485 0.007888797 -0.0035444016 0.17378274
000340 a9 3d 4c 3e 9a c3 14 bd 61 2b 3c bb f9 fc 5c bd
       0.19945396 -0.036319353 -0.002871238 -0.05395219
000350 31 ac c9 bd 54 cc 02 3d bb 89 55 3d 7a 66 ec 3b
       -0.09847296 0.031933144 0.052133303 0.0072143646
000360 c4 29 69 3d ef 59 82 bd d7 51 4f 3e 21 5e bc 3d
       0.056924596 -0.0636481 0.20246063 0.09197641
000370 36 1b 1c bd 3e b3 42 bd c3 b9 16 3c 04 a6 9b 3d
       -0.038111888 -0.04753422 0.0091995625 0.07600024
000380 bf 22 fb 3c 1c c7 a0 3e 49 9f 95 bd ec b1 97 3d
       0.030656217 0.31401908 -0.07305772 0.07406983
000390 47 6a c6 bd 89 16 e1 bd 88 ad 81 3d 85 a5 db bd
       -0.096882395 -0.10990626 0.063319266 -0.1072493
0003a0 b8 49 28 3d da b4 a2 bc 80 55 80 be 4b 7b 09 3e
       0.04108593 -0.019861627 -0.2506523 0.13425939
0003b0 4a 80 13 3e dc b5 04 bd d8 bc 12 bd 18 3b ff bd
       0.14404407 -0.032399997 -0.035824627 -0.12462443
0003c0 43 1e b2 3e df 3c c8 3c 93 7a b0 bd f3 57 25 bd
       0.34788713 0.024443088 -0.08617129 -0.040367078
0003d0 7f 31 5d be bc 18 95 bd 46 f0 86 3d fe 32 38 3d
       -0.21600913 -0.07280108 0.06588797 0.044970505
0003e0 76 4e a1 3c d3 53 06 be 4a a5 d4 3d 02 64 58 3c
       0.019690733 -0.13117914 0.10383089 0.0132074375
0003f0 34 f8 2b be 73 11 58 3e da c9 60 be ca 21 3d 3c
       -0.167939 0.21100406 -0.21952 0.0115437005

shared_layers.0.bias f4 [128]
000000 d9 11 02 3b 33 88 96 ba 77 3e 20 3d 46 17 a2 b9
       0.0019847064 -0.0011484682 0.03912207 -0.00030916388
000010 e0 c0 d5 bb 89 3a ee bd 0d 30 0c 3b 20 96 25 3c
       -0.0065232366 -0.116322584 0.0021390945 0.010106593
000020 ac 47 3c 3d 2c b5 89 3c 54 32 bc bc cf 5f c2 bd
       0.04596679 0.016810022 -0.022973217 -0.0949093
000030 22 8e e7 bc 9b 12 8f bc 3d 01 8d 3b 0d fb 2a bd
       -0.028266016 -0.017464926 0.004303126 -0.041743327
000040 0b 37 7a bc 95 b0 bd bb 4d dd 37 3d af 0e de bc
       -0.015271912 -0.0057888725 0.044888783 -0.027106611
000050 3b cc 96 3d ef 22 cd 3b 70 ff 49 bc da 7b 22 bc
       0.073631726 0.006260268 -0.012328967 -0.009917224
000060 a5 07 e3 3b 7d 40 c9 bd 33 ab d5 bc 09 88 a9 bd
       0.0069284015 -0.09826753 -0.02608261 -0.082779
000070 e9 3f 60 3c 90 79 b6 bd 47 77 bd 3c a9 27 81 bc
       0.013687112 -0.08909905 0.023128165 -0.015765982
000080 fd 9a 8a 3c 9b c1 90 bb 1c ef 03 bc ca b7 b4 3a
       0.016919607 -0.004417611 -0.008052614 0.0013787684
000090 5f ca 8d 3c 71 5b 5f bc 05 e8 37 bd 89 6d 37 3d
       0.017308412 -0.013632641 -0.044899005 0.044782195
0000a0 23 c3 87 3b 9a ad 9f 3c 1c 75 46 3c 5e a3 6d 3b
       0.004143135 0.01949196 0.012112882 0.0036260705
0000b0 89 2d 85 bb d4 13 39 3c 28 a0 62 bd f7 a8 b2 bd
       -0.004064266 0.011296231 -0.05532852 -0.08723634
0000c0 a4 14 31 bd d0 1c 39 3b 9c 63 4e 3c d5 f3 88 3c
       -0.043232575 0.0028245933 0.012596991 0.01671783
0000d0 99 3d 9e bb 37 cb 31 3c 0b 08 0a bc 0e 74 5d 3d
       -0.0048291204 0.010851673 -0.008424769 0.054065756
0000e0 2f 7c 9d bd 4e d3 35 3b 3c ef 0e 3c 99 4e e1 bd
       -0.07689702 0.0027744356 0.00872403 -0.110013194
0000f0 37 6c fd 3b c5 f3 11 3b f4 f1 37 3c 10 b5 f0 bc
       0.0077338475 0.0022270542 0.01122712 -0.029383212
000100 d3 64 f3 3b d3 a3 f3 3b eb 36 01 3d 61 2f ca bb
       0.0074277907 0.007435301 0.031546514 -0.006170199
000110 b8 6f 9e bd 89 b9 66 bb 63 86 0e bc c3 36 86 3d
       -0.077361524 -0.0035205802 -0.0086990325 0.06553414
000120 3e 51 85 bc bd fb 30 bc 4f cc ef bd 37 df 23 bd
       -0.01627409 -0.010802207 -0.11708891 -0.040007796
000130 8d 2c 5f bd 7e d8 43 3d 81 b6 56 3c 55 c0 4a 3a
       -0.054485846 0.047813885 0.013105036 0.0007734348
000140 77 a5 ae 3b 89 a1 cb bb 9a 54 2f bb 10 eb e8 3d
       0.0053297835 -0.006214325 -0.0026753307 0.113729596
000150 b5 60 b4 bc 35 8e ee 3c f8 37 7e 3c 1d 33 38 bc
       -0.02201877 0.029120544 0.015516274 -0.011242655
000160 ee b0 6f bb 43 d9 ca 3b 99 29 3f bc 32 3f 9e bd
       -0.0036573964 0.0061904504 -0.0116676325 -0.07726897
000170 0e a4 75 3d e2 fd cf 3c 7f b1 f9 3c d9 b5 be bc
       0.059970908 0.025389615 0.030480145 -0.023280071
000180 ad 35 95 bd e8 c7 c9 3d 68 4e ca ba 2f d1 53 3d
       -0.072856285 0.09852582 -0.0015434744 0.051713165
000190 f4 df 5f bd 88 fe a1 3b ab b1 e4 bb a5 d0 61 bb
       -0.054656938 0.0049436726 -0.0069791875 -0.0034456637
0001a0 b8 e7 e1 3a c5 60 09 3e b9 1e e5 bc d3 cf 9f ba
       0.0017235195 0.13415821 -0.027968751 -0.0012192674
0001b0 12 74 a1 bd 72 98 37 bc 4d 0f 0b 3d 72 b0 ce bc
       -0.07883467 -0.011205779 0.03395014 -0.02523062
0001c0 2d d7 63 3c 65 01 3c ba 22 79 d0 bc 8a ab 83 bc
       0.013906282 -0.00071718387 -0.025448386 -0.016073007
0001d0 97 a2 8c 3c 78 7e ab bb 84 93 69 bc 45 d6 3f bd
       0.017167373 -0.005233582 -0.014256362 -0.046835203
0001e0 e2 94 96 3c 59 c7 df 3c 92 b5 9c bc f5 b7 9d 3c
       0.01838154 0.027316736 -0.019129548 0.019252757
0001f0 24 d0 ce bc 8a 11 50 3c 61 a2 4a bd 49 cd 9a 3c
       -0.025245734 0.012699494 -0.049471263 0.018896716

shared_layers.2.weight f4 [128, 128]
000000 74 eb 2f 3d 90 6b 07 bc 71 b7 5a be dd 91 5d bd
       0.042949155 -0.008265391 -0.2135904 -0.054094184
000010 99 0e 4b be 28 7c c5 bd 35 c7 02 3d ae 4c 69 bc
       -0.19829787 -0.096428216 0.03192826 -0.014239473
000020 23 73 55 3e 86 9f dc bd f9 e7 75 be 80 00 5a be
       0.20844702 -0.10772614 -0.24014272 -0.21289253
000030 00 f1 1c 3c d9 3c 33 be bc 02 23 bd d6 94 2d 3e
       0.009578943 -0.1750368 -0.03979753 0.16951308
000040 1a cb 5a bd 9d 35 27 3d f1 04 11 be 5e e9 2c 3e
       -0.05341635 0.040822614 -0.14162041 0.16885898
000050 f6 85 a8 3d 62 a3 3a bd 2b 2b da b9 e8 54 0b bd
       0.08228676 -0.04556597 -0.00041612363 -0.03401652
000060 a2 57 f5 3d 13 d2 fe 3d 2f ed 8f bd 3f 14 74 be
       0.11979605 0.12442412 -0.07027661 -0.23835848
000070 7b 23 25 3e e2 1d 11 be 01 79 5a bd ac 4b ae 3c
       0.16126816 -0.14171556 -0.053338055 0.021276318
000080 83 2f 64 be ac 2a 75 bd 92 91 b7 3d 09 78 13 3c
       -0.2228375 -0.05985515 0.08963312 0.009000787
000090 37 e6 a5 bb 30 1a 16 bd 2c ef 3e 3d 67 7a 2c 3d
       -0.005062844 -0.036646068 0.04661481 0.04210892
0000a0 46 e2 8e 3d d3 c7 84 3e e2 fa b0 bd 50 c2 66 3d
       0.06976752 0.25933704 -0.08641602 0.056337655
0000b0 3a 35 d1 3d d5 6c fd 3d ee 39 0f 3e 3f b8 13 3e
       0.1021523 0.12374274 0.13986942 0.14425753
0000c0 3f 91 9b bd 28 ae d4 bd 1e c5 01 3e 17 2d 25 bc
       -0.07596063 -0.1038478 0.1267285 -0.010081551
0000d0 02 a6 d0 bd 46 0f a8 ba a3 3d 44 3e 96 6f 8f 3d
       -0.101879135 -0.0012821935 0.19164138 0.07003705
0000e0 d1 b8 72 be 91 2f 5e 39 b4 c2 e0 3d 2b fc 34 3e
       -0.23703314 0.0002118929 0.10974637 0.1767432
0000f0 95 75 a7 3e dd 24 af 3d 62 1c fa 3c 04 0b 9f 3d
       0.32706895 0.08551953 0.030531112 0.07765773
000100 86 a1 d2 3d 44 21 c8 3c b6 af 8c bd 17 ba 27 3e
       0.102847144 0.024429925 -0.06869452 0.16379581
000110 2b 8d 45 3d 56 4c 78 be 21 39 85 3e 85 92 2a be
       0.04823033 -0.2424787 0.26020148 -0.16657455
000120 19 aa 24 3e 6b 01 2f be ed 5f db bd 7f b1 01 3e
       0.16080512 -0.17090385 -0.10711656 0.12665366
000130 59 4b 4f bb f2 f8 0e bd 43 df 3c 3c b2 e8 8d 3e
       -0.0031630604 -0.03490538 0.011527839 0.27716595
000140 c2 7e b6 3d 88 f3 94 bd ab 2c a0 3e c8 b7 2d be
       0.08910896 -0.072730124 0.3128408 -0.16964638
000150 09 42 b9 bd cb 47 48 3d 64 52 b0 bd 41 bc 2b bc
       -0.09045798 0.048896592 -0.08609465 -0.010481895
000160 30 54 4b bd c3 21 e7 3c 1b c2 05 3e 25 a7 14 bb
       -0.049640834 0.028214341 0.13062327 -0.0022682634
000170 fe 6a 86 bd 1c 33 1f 3e e4 88 0b 3d 57 d7 f7 bb
       -0.06563376 0.1554684 0.034066096 -0.0075635123
000180 9e f8 5c 3e 75 be 89 bd db 3d 34 be 4c 5b de bc
       0.21579215 -0.0672578 -0.17601721 -0.027143143
000190 48 0d dc bd d8 05 69 3a 42 0c b2 3d 88 b5 12 be
       -0.10744721 0.00088891154 0.08693744 -0.14327061
0001a0 d7 9e 9d 3d 7e e0 9a 3c 45 f5 46 bd 5e 85 27 bb
       0.07696312 0.018905874 -0.04857375 -0.002556167
0001b0 e6 bd 5a 3d c3 cc 39 bd 44 79 67 3d fc 14 80 bd
       0.053403758 -0.04536129 0.056512132 -0.062540025
0001c0 e1 74 89 bd 58 3c 07 be d1 21 d9 bc fa 7b 83 3e
       -0.06711746 -0.13206613 -0.026505383 0.25680524
0001d0 f3 49 9d 3d b0 f2 8a bd e8 f1 1d 3e 03 82 90 3d
       0.0768012 -0.0678457 0.15424311 0.07056048
0001e0 a3 6b c2 bd 94 cd 6b be 26 53 20 3e 1a 62 82 bd
       -0.09493186 -0.2302764 0.15656719 -0.06366368
0001f0 a5 0d f1 3d 8f 0e cc bb b9 46 c1 3d ae 95 be bd
       0.117701806 -0.0062273215 0.094373174 -0.09305893
000200 23 a8 14 3e 15 c6 c2 3d 31 a8 1a 3d d4 f9 12 bd
       0.14517264 0.095104374 0.037758056 -0.035882786
000210 76 e0 b1 3e 6d ce df 3b c5 7d ea 3d 92 b9 13 3e
       0.34741563 0.006830028 0.1144977 0.14426258
000220 ab 09 f2 bc 65 16 1a be e3 0a ca bd 82 61 eb 3d
       -0.029545626 -0.15047605 -0.09865358 0.114932075
000230 50 dc d5 3d 1f c8 46 3d 61 99 d5 bd 36 6e 2b 3e
       0.10442412 0.048530694 -0.10429645 0.16741261
000240 6f b7 78 bc 12 ef d4 bd 23 51 b4 3d 7c 4f 39 3e
       -0.015180453 -0.103971615 0.08804538 0.18096727
000250 53 1b b7 bd ba 17 c7 bc ca 71 4c 3e cc fd cc 3d
       -0.089407586 -0.024303306 0.19965282 0.100093454
000260 51 b7 76 bd 69 51 00 3d 1b e2 90 bd 64 d9 93 bd
       -0.060233418 0.03132764 -0.07074376 -0.07219198
000270 bf fa 69 be f0 93 07 3e bd 7b bf 3c 46 b2 80 bc
       -0.22849558 0.13240027 0.023374433 -0.015710007
000280 a7 e7 66 be cf 0f 68 3c 10 2d ed 3d ef a2 a7 bd
       -0.22549306 0.014163925 0.115808606 -0.08185374
000290 51 d2 23 bd 4b 10 21 be fb 24 14 3e b9 9b b0 3e
       -0.039995495 -0.15728872 0.14467232 0.34493807
0002a0 46 00 c7 3d 66 2c 30 bb 96 96 be 3d 28 98 3d 3e
       0.09716849 -0.0026881932 0.09306066 0.18515074
0002b0 79 96 6c be 4c 4d 42 bc 3f c0 ae bd d6 65 4f bb
       -0.23104276 -0.011859249 -0.08532762 -0.0031646392
0002c0 f8 59 9e bc 8f 67 ef bd 56 fc 2a ba 74 33 1d be
       -0.01933001 -0.11689674 -0.00065225863 -0.15351659
0002d0 cb 16 67 3d 1e bc 39 3e 5e be d0 3c 03 7f d7 3d
       0.05641822 0.18138167 0.0254814 0.105222724
0002e0 fe 8b cc 3d 3a 28 a5 3c 96 a1 f7 bd 64 a1 cd 3c
       0.09987639 0.020160783 -0.12091367 0.025101371
0002f0 61 88 8d bd 1d 1f ca bd 83 da 27 be 03 35 85 bd
       -0.06910778 -0.09869216 -0.1639195 -0.06504252
000300 55 45 e8 bc c4 2d 66 bd c1 ee f3 3d 4f 0a 1a 3e
       -0.028353373 -0.05619599 0.11910773 0.15042995
000310 9e d8 f4 3d 96 29 f9 bd 87 f5 22 be 30 b2 a9 3d
       0.11955379 -0.12166135 -0.15913974 0.0828594
000320 49 33 56 3d 09 00 27 be 41 5b a8 bd 09 6b 8e 3e
       0.052295003 -0.16308607 -0.0822053 0.27816036
000330 48 a4 2d 3d 0e cf f0 3c 1f ef 2f 3d 3f a5 3c bd
       0.042393 0.029395606 0.042952653 -0.04605603
000340 5a 39 0d 3e f2 46 12 be 47 c9 70 bd 95 24 53 3d
       0.13791409 -0.14284876 -0.058785703 0.05154856
000350 87 9d f2 bc 50 95 22 be 4d d0 f2 3d 1f 09 61 3e
       -0.02961613 -0.1587727 0.118561365 0.21976136
000360 7e 9a b0 3d c6 c6 a8 3d 38 e6 23 be 9f a8 b6 bc
       0.08623217 0.08241038 -0.1600579 -0.022297202
000370 79 a7 ba 3d 6b dd ba 3c bd 39 61 be a3 f8 64 bd
       0.09113974 0.022810658 -0.21994682 -0.05590118
000380 9e f4 60 3e 28 6d cd 3d 2d a4 2e be d7 4b b5 3d
       0.21968314 0.100305855 -0.17054816 0.08852356
000390 cf 4e 7d 3c db 03 c7 bd 82 e9 e4 3d e2 4b 0b 3e
       0.015460684 -0.09717532 0.111773506 0.13603166
0003a0 7c 24 3d 3d d3 45 86 3d 90 bd 03 3e 02 f0 f4 3d
       0.046177372 0.06556287 0.12865281 0.1195984
0003b0 54 28 88 3b 1a 2e 7b be 4b 79 bb 3d 23 55 b0 be
       0.004155198 -0.24529305 0.09153994 -0.34439954
0003c0 23 03 fe 3d 16 40 eb 3c ff 47 f9 bc 89 aa 94 3d
       0.12402942 0.028717082 -0.030429838 0.072590895
0003d0 e6 a9 e7 bd 8a 05 40 3c 1b b7 a6 3d 74 8c 2e be
       -0.113117024 0.011720071 0.08140393 -0.17045766
0003e0 36 f1 1f 3e 00 0b a3 bd 73 ae 1b be ea c9 30 be
       0.15619358 -0.079610825 -0.15203266 -0.17264524
0003f0 f0 dd 33 be d4 69 ec bd 52 99 b1 39 3f 68 b9 bc
       -0.17565131 -0.115436226 0.00033874303 -0.022632716

shared_layers.2.bias f4 [128]
000000 be 69 6b bc 56 94 30 bc 26 10 46 bd f2 16 ee bc
       -0.014368473 -0.010777554 -0.048355244 -0.029063676
000010 f0 2b 6b bd e3 6b ad bd f0 72 09 be 4b 94 57 3d
       -0.05741495 -0.084678434 -0.13422751 0.052631658
000020 f7 d9 ed ba 5e f8 a5 bc 13 e0 1f 3e 59 4a 2c bb
       -0.0018146624 -0.020260032 0.15612821 -0.0026289432
000030 e2 51 35 3c 46 80 2d 3d dd 55 c9 bc b2 d7 09 bd
       0.011066886 0.04235866 -0.024577076 -0.03365297
000040 c9 59 ae 3c fe 1e 60 3c 47 a2 8f bd db d0 f3 bc
       0.021283047 0.013679264 -0.07013374 -0.029762676
000050 9a a8 f0 3b 76 e4 e0 3c 29 d6 85 3d c9 a7 43 ba
       0.0073443176 0.027452689 0.065349884 -0.00074636616
000060 f3 b4 b7 3d 6f 3c 0c 3d a4 6a 2b 3d 9a 78 fd 3b
       0.0897006 0.03423732 0.041849747 0.007735324
000070 96 8c 06 bc 8e ab cb bc 83 6a 85 3b ce 20 bd 3c
       -0.008212229 -0.024862077 0.004071535 0.023086932
000080 9e 7e ad bc 5d b6 9d bc 2f 8e 57 bd 19 2b 9c 3b
       -0.02117854 -0.019251997 -0.05262583 0.00476588
000090 a4 a3 a2 bc 31 8c 9e bc af 9c 1f 3c 40 a7 44 3b
       -0.01985342 -0.019353958 0.009741946 0.0030006915
0000a0 2e 91 08 bd 82 7d a7 3c bd b0 47 bd 7f 51 cf bc
       -0.03334158 0.020445589 -0.048752535 -0.025307415
0000b0 c5 e1 8c 3b 13 3b dd bb c6 66 31 bd 56 6b c1 3b
       0.0042993748 -0.006751427 -0.043310903 0.005902688
0000c0 9e f9 88 bc 83 df b5 3d 56 bf 2f bd e6 47 6e 3d
       -0.01672059 0.08880522 -0.04290708 0.058174036
0000d0 f0 0c b2 3b 7c 4b 63 bd 7a ff 51 3c e2 bd b9 b9
       0.005433671 -0.05549191 0.012817258 -0.00035427423
0000e0 89 d9 65 3d e8 ca 6c bd 9f 00 6d 3d 1f fc f8 bb
       0.05611566 -0.057810694 0.05786192 -0.0075984146
0000f0 56 32 89 3d 0a a9 4d bb f3 d5 ab 3c 14 b3 90 3d
       0.06699054 -0.0031381273 0.020976042 0.070654064
000100 b3 96 e0 3b 5e bd d4 bd d3 b2 b3 3c 85 d0 80 bb
       0.0068539022 -0.103876814 0.021935856 -0.0039311075
000110 d8 b7 ce bb 7e 31 04 3d 9c f9 a6 3c 8f dc c3 3c
       -0.006308537 0.032273762 0.020382695 0.023908881
000120 44 68 a5 3a 97 02 b8 bd ce e3 33 3d 1e 16 08 3d
       0.0012619575 -0.08984869 0.043918423 0.033224218
000130 a4 18 4d 3c 4b 04 34 bd ca 72 b4 3c db 0f b7 ba
       0.012518082 -0.043949407 0.022027392 -0.0013966517
000140 02 3a 24 bc 9d 5b 73 3c 61 2d df 3c 22 ce 12 3c
       -0.010023596 0.014853385 0.027243318 0.008960279
000150 42 72 8e 3c e2 a0 da 3c 5b 01 72 3c c7 77 ff 3b
       0.017388467 0.026688043 0.014770831 0.007796261
000160 f2 76 1f 3c 98 50 00 3b 5b 8c 81 bb bd c2 01 bd
       0.009732949 0.0019579288 -0.0039534993 -0.031679858
000170 81 5d 01 3d a6 18 17 3b 53 eb fb 3c 02 60 e6 3d
       0.031583313 0.0023055463 0.03075186 0.11248781
000180 fa 96 15 3b 8e fa c9 3c 51 53 62 3c 27 bc 1f 3c
       0.0022825585 0.024655607 0.0138138095 0.009749449
000190 2e 35 96 39 75 b1 29 bc 27 6d 2c bd ee 95 d3 b9
       0.0002864985 -0.01035725 -0.042096283 -0.00040356762
0001a0 81 8a 17 bc 7e 94 11 bd a6 d5 47 3b 1d 3f 05 3d
       -0.0092493305 -0.035542004 0.0030492335 0.032530893
0001b0 f1 11 17 bc 84 85 29 bd c2 d2 94 3a b2 da 7f 3b
       -0.009220586 -0.041387096 0.0011354315 0.0039040265
0001c0 6b 8e 2a 3d bb f0 65 3d 2b 16 2d bd d3 3e 04 bc
       0.041639727 0.05613778 -0.04225747 -0.008071619
0001d0 fb 63 61 3a ca 6e 49 3d f2 5a df 3c 65 64 a1 bc
       0.0008597967 0.049177922 0.027265046 -0.019701192
0001e0 13 89 8e bd 68 ee d6 bc 1b 33 ca 3d bd 58 e7 3b
       -0.069597386 -0.026236728 0.09873029 0.007060139
0001f0 d7 93 03 bc b7 63 0b 3c 99 19 62 ba 9f 66 44 3c
       -0.008030853 0.008507661 -0.000862503 0.011987357

shared_layers.4.weight f4 [64, 128]
000000 cc 72 5b 3e 78 e7 2f 3e 3f 08 9c bd f2 d3 25 3e
       0.2143051 0.17178142 -0.0761876 0.16194132
000010 05 a7 cd 3d c6 29 ce bd 4e ba 49 3d 36 70 1a 3e
       0.10041622 -0.100665614 0.04924994 0.15081868
000020 b0 34 3c 3d 8c 95 60 bd 33 7e 08 bd f7 b6 b4 bc
       0.045948684 -0.05483012 -0.033323478 -0.0220599
000030 5e c3 c6 3e 09 68 b2 bc c8 33 27 3e be 32 f2 bd
       0.38820928 -0.021778123 0.16328347 -0.118260846
000040 53 58 6d be be 6f 95 3d 18 e6 0d 3e 2f b0 c7 bd
       -0.23178224 0.07296704 0.13857305 -0.09750401
000050 57 25 d6 3d 69 06 6a bc 51 51 2d be 9b e3 97 3d
       0.10456341 -0.014283755 -0.16925551 0.07416459
000060 b0 3d 79 3d 7a 3d 2d be 49 49 a2 bc 6c d0 4a be
       0.060849845 -0.16917983 -0.019810336 -0.19806069
000070 37 85 14 be 61 f6 25 bc 9d 54 c7 bd c8 c2 23 3d
       -0.14503942 -0.010129542 -0.097329356 0.03998068
000080 e2 b5 08 bc 7d 46 ba 3d 29 ff 2d be cb 57 56 3d
       -0.0083441455 0.09095476 -0.16991867 0.05232982
000090 ae 1e 05 3e e8 31 53 3d 86 b8 c9 3d fe 8d 9a bd
       0.12999985 0.051561266 0.09849648 -0.07546614
0000a0 5b a8 d1 3b 35 c9 30 3b 3f 94 35 be 2d 64 2d bd
       0.0063982434 0.0026975397 -0.17732333 -0.042331863
0000b0 94 9a 21 3e b2 49 72 3d 9a 74 37 be 59 6c 09 3e
       0.15781623 0.059152313 -0.17915574 0.13420238
0000c0 f8 4e 91 bd b9 fb ee 3d 9c 0d 00 3d 11 be a2 bb
       -0.0709514 0.11669106 0.03126298 -0.0049665053
0000d0 df 53 87 bb 88 cc f9 3c 9f c4 49 3d b9 c7 da 3c
       -0.0041298713 0.030493036 0.049259778 0.026706563
0000e0 ce f0 e9 3c da 04 8e 3d a0 b8 5c bd 1d 06 83 bc
       0.028557207 0.06934519 -0.05388701 -0.015994126
0000f0 2d e9 cc 3c ef b0 9b 3c 19 c1 05 3e c9 30 3a 3e
       0.02501353 0.019005267 0.13061942 0.18182673
000100 91 48 0e 3d 57 9d 58 3e c8 ba 75 3e 51 43 55 3d
       0.034737173 0.2115377 0.23997033 0.05206615
000110 f7 cb 6c 3e f4 d1 15 3e 47 73 b4 bd 2a 31 0b be
       0.23124681 0.14630872 -0.0881105 -0.13592973
000120 37 98 58 be 78 ba 22 bd 00 fa 92 3d 1f 86 23 3e
       -0.21151815 -0.03972861 0.0717659 0.15969132
000130 8b 1d 0d bd 0f 9d ce bc 1d 79 bb 3d 5a 68 52 3d
       -0.034452002 -0.025221376 0.0915396 0.05136905
000140 72 83 54 3e 99 b8 43 bd a7 0d 3c 3e 00 39 13 be
       0.20753267 -0.047783468 0.18364583 -0.14377213
000150 23 44 fd 3d 27 4a 02 3e a8 e2 45 3e dc c8 27 3e
       0.12366512 0.127236 0.19324744 0.16385216
000160 71 cc b3 bc 02 1b 18 be fa df 41 bd ad fd cb 3d
       -0.021948071 -0.14854053 -0.04733274 0.09960494
000170 1a 02 75 bd 1c 25 92 3d 33 6c bd bc 3c 40 b1 bc
       -0.059816457 0.07135984 -0.023122882 -0.021637075
000180 16 82 2f bb 32 b7 20 3d fd 5e 13 be 20 df 27 3d
       -0.0026780418 0.03923721 -0.14391704 0.040984273
000190 05 59 c0 bd 16 b5 68 be 91 f8 13 3e 49 c8 94 bd
       -0.09391979 -0.22725329 0.1445029 -0.07264764
0001a0 f6 71 32 be f0 b6 eb 3d 55 b7 5c be b0 64 98 bd
       -0.17426285 0.11509502 -0.2155431 -0.074410796
0001b0 43 ba a3 be c4 70 ee 39 a1 a6 b1 3d 2c c5 ea bd
       -0.31978044 0.00045478914 0.0867436 -0.11463389
0001c0 40 5b 94 3d 06 d5 49 3e 9e e7 53 3e 24 b4 01 3e
       0.07243967 0.19710168 0.20693824 0.12666374
0001d0 44 32 aa 3b 36 cf 1f 3e 67 6d 5e be 90 18 bf 3d
       0.0051939804 0.15606388 -0.21721421 0.09330857
0001e0 ba 0b 46 3d cb 65 46 be 62 88 d9 3d d9 e7 38 3e
       0.048351027 -0.19374768 0.10621716 0.18057193
0001f0 e7 0b 22 3d 16 7b 3b bc 15 68 7b 3d 21 53 f8 3d
       0.039562132 -0.01144292 0.061378557 0.121252306
000200 80 1d 77 3d a7 1c 0a bc 5c 48 91 bb bf d3 d3 3c
       0.060330868 -0.008429683 -0.0044336747 0.025857804
000210 5f d0 10 be 2b 8d 4e bd f9 62 04 3e ac 6a 35 3d
       -0.14141987 -0.050427597 0.1292838 0.044291183
000220 3a 63 5f bd d4 2f 08 be 29 fb 05 be 71 f2 32 be
       -0.05453799 -0.13299495 -0.13084091 -0.17475297
000230 39 e3 90 bc 85 c0 82 3d 24 a7 16 3e 8b 77 07 bd
       -0.017686473 0.063843764 0.14712197 -0.03307299
000240 5f ea 14 bd e0 12 53 3e c8 98 30 be be c5 4f be
       -0.036356326 0.20612669 -0.17245781 -0.20290276
000250 58 41 c2 3c c4 a5 fe 3d cc 1d dd bd a4 31 0f 3e
       0.023712799 0.12433961 -0.10796699 0.1398378
000260 51 1d 47 bd b7 69 00 3e 58 e1 50 3d 55 4e 43 3d
       -0.048611943 0.12540327 0.050996155 0.047682125
000270 21 a0 fb bd f4 a6 42 be 53 54 8a 3e b9 5a 07 3d
       -0.122864015 -0.19009 0.2701746 0.033045504
000280 4a 62 bb bd e8 a5 d5 bd 73 9c 34 be f1 ee 1a 3d
       -0.091496065 -0.10432035 -0.17637806 0.03782553
000290 30 37 87 bc 7c 66 a1 bd 52 7e 41 bd 91 f4 9e 3d
       -0.016505808 -0.078808755 -0.04723961 0.07761491
0002a0 ef 05 16 3e 8c 10 ac 3c df fc a9 3e 6b d5 10 be
       0.14650701 0.021003984 0.33200738 -0.14143912
0002b0 66 3f ce bd e4 cb 24 3e 9d c8 84 3d a7 81 c0 bc
       -0.10070686 0.16093403 0.064835764 -0.023499323
0002c0 48 d9 22 bd 45 d0 0c 3e 16 ca 50 bd 73 3b af bc
       -0.039757997 0.13751324 -0.050973974 -0.021390652
0002d0 dd 83 39 3e dc 79 5a be ab f8 ee 3b 1b 5e 74 3d
       0.18116708 -0.21335548 0.007292827 0.05966006
0002e0 fa 11 ce bd e6 6f 95 3d b7 ca 2d 3e 1c fe 8e bd
       -0.100620225 0.072967336 0.16971861 -0.06982061
0002f0 34 c9 01 bd 78 c9 4d be 92 12 36 be 2a d0 1f 3e
       -0.031686023 -0.20096385 -0.17780522 0.15606752
000300 10 95 40 be da 49 96 3d 53 23 eb bc 5f 14 1b 3e
       -0.18806863 0.07338305 -0.028703367 0.1514449
000310 ca 7d fe 3d 81 2e 9c 3e 5c 02 79 bc 5a f2 41 3d
       0.12426336 0.3050423 -0.015198316 0.047350265
000320 c9 3b 3f bd 9d 69 35 3e 27 bd b8 3c 82 4f 24 3e
       -0.046687875 0.1771607 0.022551132 0.16045955
000330 88 bb af 3c 8d d2 8c 3d 74 52 ce 3d 91 1e 1e be
       0.021451727 0.06876097 0.100743204 -0.15441348
000340 94 cd 43 bd e9 7b a4 bd c5 85 1c bd 47 4f 80 bd
       -0.047803476 -0.080314465 -0.03821351 -0.06265121
000350 73 ab 60 3e 9f 6f 96 3d 24 eb 72 3d b7 3e 4a be
       0.21940403 0.07345509 0.05930628 -0.19750486
000360 b2 c2 0a 3e 49 c4 bb bd 25 f2 94 bc 18 19 68 be
       0.13550833 -0.09168298 -0.01818187 -0.22665823
000370 54 5d 52 be bc 26 46 bd b8 a5 6b 3d 07 6b 10 3e
       -0.20543414 -0.048376784 0.05753109 0.14103328
000380 f9 c0 77 be 02 36 ba bd 78 7e 95 3d 0b 98 db 3b
       -0.24194707 -0.090923324 0.072995126 0.0067014745
000390 49 ab 1f 3e c2 2c 85 bd ed ef 99 3d 8d 5f 15 3d
       0.15592684 -0.065026775 0.07516465 0.036468077
0003a0 5b 59 d1 3d df e2 eb 3d 41 9d aa bd 98 e9 32 3d
       0.10222121 0.115178816 -0.08330775 0.043679804
0003b0 40 a8 8c 3d cf 13 0a 3e 08 47 ae 3c 3a a8 cc 3d
       0.06868029 0.13484119 0.021274105 0.09993024
0003c0 9d b3 8c 3d f8 fc 56 bd 32 72 65 be f1 67 15 be
       0.06870196 -0.052487344 -0.22406843 -0.14590432
0003d0 da ff a3 3c 0a 37 5d 3d d7 86 3f 3d e5 c5 9b 3c
       0.02001946 0.054007567 0.046759453 0.019015262
0003e0 97 37 80 3d 44 4e 90 3d 85 67 1a 3d 31 05 ac 3e
       0.06260603 0.07046178 0.03769638 0.3359771
0003f0 57 a7 d1 bd 4b c3 06 3e 78 87 4a be a8 7a 90 be
       -0.10236996 0.13160436 -0.1977824 -0.2821858

shared_layers.4.bias f4 [64]
000000 7c f2 b9 3b 9f d8 a2 3c 49 b4 0c bd b7 4e 0e bc
       0.0056746583 0.019878684 -0.03435162 -0.008685759
000010 f0 00 ee 3a cb f1 86 3a 01 b5 0e 3b 0b 52 ad bb
       0.0018158238 0.0010295449 0.0021775367 -0.0052893213
000020 2a 25 53 bc 41 87 0f bb c9 e9 3e bc 61 51 74 bd
       -0.012887279 -0.0021900686 -0.011652418 -0.05964792
000030 b7 10 d5 b9 36 e9 92 3d 51 b9 9e 3d 12 c5 8e bc
       -0.0004063898 0.07173388 0.0775019 -0.017427955
000040 d2 71 13 bc 7d 4d 7c bc 4d 2b 39 bb a0 01 98 bb
       -0.008999305 -0.015399334 -0.002825457 -0.0046388656
000050 02 ca 25 3c 25 41 39 3d ec 03 a8 bc b7 bc fa 3b
       0.010118963 0.045228142 -0.020509683 0.007651891
000060 3b 89 ae bd 05 fd 52 bc a3 2a b0 3d 6b 89 bc 3d
       -0.085222684 -0.012877707 0.08601882 0.09205898
000070 b3 07 af bd 7c d1 92 3b f5 bd 18 bb 43 62 d1 bc
       -0.085463904 0.004480539 -0.0023306583 -0.02555955
000080 49 74 b3 3c 87 ac 1f 3c 33 ef 08 bb 12 cc 87 bc
       0.021906035 0.009745724 -0.0020894527 -0.0165768
000090 a6 da c6 3c 2a ea 33 be a3 61 15 3c 74 c3 5e 3a
       0.024274182 -0.17569795 0.009117517 0.0008497753
0000a0 9c 6f 05 3b d5 a3 5b 3d 45 03 9e bd 1a 58 79 3d
       0.0020360714 0.05362304 -0.07715467 0.060875036
0000b0 5e c6 a7 3a ab 39 9b bb 89 c0 50 3d 57 ab d2 3c
       0.0012800207 -0.004737099 0.050964866 0.025716467
0000c0 2a 20 72 3c 8a f3 fb 39 e6 ac 77 bd 49 27 84 bc
       0.014778176 0.000480559 -0.060467623 -0.016132014
0000d0 91 39 7a bc 92 ee 81 3d 3e 19 07 bb a5 4c 8d bd
       -0.015272514 0.06344332 -0.002061441 -0.068993844
0000e0 0a 44 80 bd 02 f5 38 3d a7 be db 37 93 c4 09 bb
       -0.062629774 0.045155533 2.6195614e-05 -0.0021021708
0000f0 85 06 52 bd ce a6 88 bc 4f d4 22 bd 68 b3 9b bd
       -0.05127575 -0.016681101 -0.039753255 -0.076025784

shared_layers.6.weight f4 [64, 64]
000000 c4 9e 07 3e c7 65 96 3e 69 1d 88 be 54 b0 a4 bd
       0.13244158 0.29374525 -0.26584938 -0.080414444
000010 18 7d 94 3c 39 b3 e6 3c 67 3e 11 3e 34 a5 53 bd
       0.018126056 0.028161632 0.14183961 -0.05167122
000020 70 c1 ec bc ad f7 ed 3d 47 16 7c be e0 a1 8e be
       -0.028900832 0.11619506 -0.24617873 -0.27857876
000030 02 8e 82 3c 8e 3b d3 bd 34 e9 f5 bc fd 99 a8 3d
       0.015936855 -0.103140935 -0.030018426 0.08232496
000040 b8 5b 57 be d9 e5 96 be a5 5a 4f be 82 c7 18 3d
       -0.21031082 -0.29472235 -0.20249422 0.03729964
000050 b1 d7 86 bb 6e 8a d2 3c 72 48 94 be fd a4 f0 bc
       -0.004115068 0.025700774 -0.2896152 -0.029375548
000060 e9 e3 fd 3d 19 8e 16 3d a2 ea 03 bd c9 b9 09 3e
       0.12396986 0.03675661 -0.032206185 0.13449778
000070 23 f8 0e 3f b5 e1 f2 3c e8 9c 25 be a1 39 95 3c
       0.55847377 0.029648641 -0.16173136 0.018215956
000080 40 b1 8d 3e 3f 92 ae 3c a8 38 30 3e b4 26 10 be
       0.27674294 0.02130997 0.17209113 -0.14077264
000090 64 16 bc bd 8a 03 2b 3e a1 11 11 3e 93 e0 e4 3d
       -0.09183958 0.16700569 0.14166881 0.11175647
0000a0 42 92 c0 3e 39 c8 c7 3c 9d 72 7f be e5 d1 54 bd
       0.37611586 0.024387466 -0.24946065 -0.051957984
0000b0 ea f5 34 be 5a 9a 37 3e 6c a5 16 3e 55 4f fc bd
       -0.17671934 0.17929974 0.14711541 -0.12319819
0000c0 62 0c ae bd 9e 6a a1 3d 1b 84 37 be 2e 4c c9 bd
       -0.084984556 0.07881664 -0.17921488 -0.09828983
0000d0 f1 a0 89 be 33 86 1c be 8e c2 94 bd 96 f7 ca 3e
       -0.268806 -0.15285568 -0.07263671 0.39642018
0000e0 dd c0 9d 3c b1 e7 87 bc c9 ee 82 be 70 80 82 3d
       0.019257003 -0.016589971 -0.25572804 0.06372154
0000f0 57 78 86 be 99 dd 11 be 14 8c f0 3d 11 fe 11 3e
       -0.26263687 -0.14244689 0.11745468 0.14257075
000100 59 7c a1 be c0 d2 66 bd 84 51 83 3e 0f 10 4f bd
       -0.31540182 -0.05635333 0.2564813 -0.050552424
000110 ff 85 39 3e 23 52 43 be 92 7c 4a 3e b8 c9 30 be
       0.18117522 -0.19074301 0.19774082 -0.1726445
000120 77 e7 ae bc e2 82 7f 3e 96 4b 3e bc 27 06 00 be
       -0.021350605 0.24952272 -0.011614701 -0.12502347
000130 70 44 09 be cf d2 0d be ad 95 69 3e 4b a4 16 be
       -0.13405013 -0.13849948 0.22811003 -0.1471111
000140 53 b2 96 bd 57 61 fd bc ba 38 3a 3d a8 8a 86 be
       -0.073582314 -0.030930204 0.045464255 -0.2627766
000150 3b 6e c2 be 88 f1 01 3d 19 3a 5b bd 9d 3d c0 bd
       -0.37974724 0.031724483 -0.053522203 -0.09386752
000160 90 61 b6 bd bc ce 01 bd a5 e4 be 3e 53 a8 95 3e
       -0.08905327 -0.031691298 0.37283817 0.29229984
000170 13 56 cd bd 16 18 98 3e e1 41 ed 3c f0 d8 e8 bc
       -0.10026183 0.29705876 0.028962078 -0.028423756
000180 d7 f0 5f 3c e8 2e a4 bd d0 09 7f be 5f 6d 95 bd
       0.013668261 -0.08016759 -0.24906087 -0.072962515
000190 ff 35 c5 3d 74 46 cb be cb ad 91 3d 20 10 16 3a
       0.096294396 -0.3970219 0.071132265 0.0005724449
0001a0 4e f6 2e be 53 15 06 3d 2c eb b5 be ab 5d 0f be
       -0.17086145 0.03273518 -0.35530984 -0.14000575
0001b0 be 8e 42 3e 03 e8 7d 3e f0 de e7 3c cf 2f 98 3c
       0.18999764 0.24795537 0.028304547 0.018577484
0001c0 49 52 86 3e ca a4 a3 bd b1 45 ea bd c1 76 af bc
       0.26234654 -0.079904154 -0.11439074 -0.021418931
0001d0 ef de 50 be 7c e4 98 be 33 d5 2a bd 3f 1f cf 3b
       -0.20397542 -0.2986182 -0.04170723 0.0063208635
0001e0 32 c1 96 3d 4c a0 7b 3e 03 f7 8c 3e 5a 40 9c 3e
       0.07361068 0.24572867 0.27532205 0.30517846
0001f0 41 30 ac be af bc 36 bd 83 77 14 bd ae 20 65 be
       -0.33630565 -0.044613536 -0.036246788 -0.22375748
000200 4a e7 cd be 8b 2c 5d 3d 00 0e ea bd 19 94 26 3e
       -0.40215522 0.053997558 -0.114284515 0.16267432
000210 f2 9c 9e 3d f1 8d 4e be b9 eb f8 bd c7 9e 01 3e
       0.07744779 -0.20171334 -0.121543355 0.12658225
000220 8a 29 ef bd e9 46 c5 bd 05 7f 60 be 8e e6 f0 3d
       -0.11677845 -0.09632666 -0.21923454 0.11762725
000230 e2 9d f1 be a6 c0 17 bd 4c af b4 be f3 98 57 3e
       -0.47190768 -0.03704896 -0.3528999 0.21054439
000240 e0 d8 d7 bd 67 18 8e 3e 26 e6 9a 3e e7 fe d9 3d
       -0.105394125 0.27752993 0.30253714 0.10644322
000250 56 2b 56 bc da 3e ab be d0 96 83 be 71 cf 1b 3a
       -0.0130718555 -0.3344639 -0.25700998 0.0005943692
000260 d1 25 3f 3e 01 68 ac be dd 45 5d be 03 c6 4f 3b
       0.1866677 -0.336731 -0.21608682 0.0031703718
000270 d1 69 95 3d 47 f9 53 3e cc ee 77 3b f6 df 70 3e
       0.072955735 0.2070056 0.0037831543 0.23522934
000280 2b e3 7a be d5 8d 73 3e 6a 24 0b bd 18 5b 71 bd
       -0.2450072 0.23784573 -0.033970274 -0.058924764
000290 5d cf aa 3d 1a 10 01 3f af 62 4c 3e c1 af d6 bd
       0.08340333 0.50415194 0.1995952 -0.10482741
0002a0 9b 25 a3 bd 6b 0d be bd 2c a2 32 3e eb bf 8e bc
       -0.07966157 -0.09279903 0.17444676 -0.017425498
0002b0 b6 e9 20 bb 23 68 e0 3d 7a 42 5e be 3d 3a 13 3d
       -0.0024553365 0.109573625 -0.21705046 0.035944212
0002c0 03 65 dc bc ef e2 73 bc 77 11 c6 3d 33 53 e0 bd
       -0.026903635 -0.014885648 0.096713 -0.10953369
0002d0 9c cc aa 3d 74 1e f7 3b 95 54 30 be c6 ef 39 3e
       0.083398074 0.007541472 -0.17219765 0.18157873
0002e0 bd 33 45 bb d7 56 93 be 10 6e 02 3e cb f8 8d 3d
       -0.0030090653 -0.2877719 0.12737298 0.06932219
0002f0 d6 6c 80 bd 03 14 ca 3d 75 3f 11 3e b4 2d 3b be
       -0.06270759 0.09867098 0.14184363 -0.18279153
000300 38 94 b5 3d f5 15 9a be 86 b2 21 be 97 e1 6a 3d
       0.08866161 -0.30094877 -0.15790758 0.057344045
000310 dd 0a 5e 3e b7 49 13 3d 8e b0 52 bd 5d 93 2c 3c
       0.21683832 0.03595897 -0.051437907 0.010533181
000320 80 7e 4a be 85 f0 62 be f6 00 4d be 69 16 09 be
       -0.19774818 -0.22162063 -0.20019898 -0.13387455
000330 f3 0a 82 bd c8 8d d3 bd 7f b2 03 bc e1 b8 67 3e
       -0.06349745 -0.10329777 -0.008038162 0.2262912
000340 a6 88 1e 3e b9 35 65 bd 69 c1 5a 3d c5 34 ba be
       0.15481815 -0.055959437 0.053407107 -0.36368385
000350 06 3e 94 3c 53 a8 db bd 22 5a 95 3e ef 3f 09 bd
       0.018095981 -0.10725465 0.29170328 -0.033508237
000360 43 d8 04 3d 95 5a 01 3e a6 1c 74 be 1f d8 bf 3e
       0.032432806 0.1263221 -0.23839054 0.37469575
000370 5c bd 3c 3d dc 74 0c 3e 7d 3a 85 3d a1 ad 06 bd
       0.046079025 0.13716453 0.065052964 -0.03288043
000380 47 e7 ff 3d 37 81 98 3c ac 2f 99 be b3 b9 19 be
       0.124952845 0.018616302 -0.29919183 -0.15012245
000390 ce f0 72 be 83 3e 0d be 13 0a f4 bd b2 66 09 bf
       -0.23724672 -0.13793378 -0.11915984 -0.53672326
0003a0 32 1c 8c 3e 80 d8 bf 3d c0 08 ba bd e8 fc 3f 3e
       0.2736526 0.09367466 -0.090837 0.1874882
0003b0 a3 a3 4c be 1d 9b a3 be 41 31 91 be 77 bc 9a ba
       -0.19984297 -0.3195428 -0.2835789 -0.0011805434
0003c0 64 a1 9f bc 08 0c 0c 3d 03 23 45 bd 69 3f 5b 3e
       -0.019486137 0.03419116 -0.048129093 0.21410908
0003d0 50 75 a8 3b 22 db 6d bc 4b 79 5e 3d 6d 97 4b 3e
       0.005140938 -0.014517577 0.054314893 0.19881983
0003e0 25 56 84 3e fb 1b 17 3d d7 93 cf bd fe ef 53 3e
       0.25846973 0.03689192 -0.1013562 0.20697019
0003f0 07 b1 2f 3e 4d c6 40 3d 57 ed 26 be 8c 5a 44 bd
       0.17157374 0.047064114 -0.16301475 -0.047937915

shared_layers.6.bias f4 [64]
000000 40 69 e9 3c 4e ff 7d 3d a5 a6 93 bd 0c 48 1d 3b
       0.02849257 0.062011056 -0.07209519 0.0023999242
000010 8f 0e 55 3c 9b a6 e6 bc ad 01 d0 3b 61 43 e5 bc
       0.013003959 -0.028155616 0.006347856 -0.02798623
000020 8f 8f 87 3c c4 28 33 bd f1 3b b2 3d fb 57 30 3c
       0.016547946 -0.04374005 0.08702839 0.010763164
000030 76 5b 30 3d 1f de 65 bc 82 26 3f 3d 06 5e b4 3b
       0.043055974 -0.014030009 0.046667583 0.0055043725
000040 a9 c6 80 bd fb 19 1a bd f7 d0 99 3b 29 23 a6 3d
       -0.062878914 -0.037622433 0.0046941 0.08112175
000050 13 db 16 bd 1e a2 74 bd 7a 97 9e 3a 1b 88 f0 bc
       -0.03683002 -0.05972492 0.0012099587 -0.029361775
000060 59 d3 81 3d 8e 64 2d 3b 52 c2 cb bd 48 d0 91 3b
       0.063391395 0.002645764 -0.09949173 0.004449878
000070 4b 7b 53 3d 03 40 65 bc ce ad b9 3c d3 22 09 3b
       0.051631253 -0.013992312 0.022665884 0.0020925298
000080 b7 9f b6 bc 5b 7f 0e bd 84 07 83 bb 0f 88 88 3c
       -0.022292955 -0.034789424 -0.0039986987 0.01666644
000090 30 fe 87 3c 5b b4 17 3c 49 fb 42 bd 0c bb 22 bd
       0.016600698 0.009259309 -0.047602925 -0.039729163
0000a0 08 38 85 bc 34 87 8a 3c 25 79 c5 3c 1d 7f 77 b9
       -0.01626207 0.016910173 0.024105618 -0.00023603109
0000b0 ff bd 99 bc e4 bf 44 bc 76 5e 9a 3a 02 d6 66 bd
       -0.018767355 -0.012008641 0.0011777419 -0.056356438
0000c0 6b e9 9e 3c b5 84 8f 3d d0 c1 8e 3b 70 ac e4 3d
       0.019398412 0.07007734 0.0043566003 0.11165702
0000d0 d3 77 75 3d fc ec 1f 3c b4 ee 74 bd e4 9e 31 bd
       0.059928726 0.009761091 -0.059797958 -0.04336442
0000e0 0c fb f7 3c 38 e0 26 3d 71 8c 96 3c 4f a7 ad ba
       0.030271076 0.040741175 0.018377515 -0.0013248714
0000f0 e6 3b 1e 3c b9 11 6a bd 82 30 7f 3d bd 03 30 bd
       0.009657836 -0.057145808 0.06230212 -0.042972315

output_layer.weight f4 [2, 64]
000000 be bc 47 bb e3 b6 cc bb 03 21 79 3b c2 87 13 bc
       -0.003047749 -0.0062473877 0.0038014061 -0.009004535
000010 68 1d 9a 3b 09 52 98 3b 8a 8a b3 bb 4b 95 c6 3b
       0.0047032125 0.004648451 -0.0054791616 0.0060602776
000020 d7 89 e9 3b 66 b1 f8 bb 4c 63 45 3b 3c 20 dd bb
       0.0071270275 -0.007589507 0.0030119 -0.0067482274
000030 d6 38 13 bb 85 13 00 3c 1b c3 8c bb e0 6b 09 3c
       -0.0022464297 0.007817154 -0.0042957193 0.008387536
000040 a8 66 65 bb cf 56 69 3b 82 97 e6 bb 86 79 13 3b
       -0.0035003815 0.003560472 -0.007037104 0.0022502854
000050 ad c1 a6 3a 36 de 81 bb 05 e5 e4 bb c4 89 d0 3b
       0.0012722515 -0.003963257 -0.006985309 0.006364079
000060 b6 c1 22 3a bd 4a 1a 3c 79 e7 20 ba d1 16 03 3c
       0.0006208675 0.009417233 -0.0006138008 0.008001045
000070 e6 0f ba bb 94 bd 02 3c f9 92 b0 bb cf cd c8 3b
       -0.005678165 0.007979769 -0.0053886143 0.00612805
000080 73 b9 c5 bb 89 13 ad bb 5a d0 20 bc bc 6b 9b 3b
       -0.00603407 -0.00528187 -0.0098153 0.0047430675
000090 97 23 d6 3b bb a5 11 bc 51 68 81 3b 93 b5 bc 3b
       0.0065350044 -0.008889611 0.003949203 0.00575895
0000a0 c9 79 dd 3b 56 e4 b2 3b 31 4d 77 bb 98 64 f0 bb
       0.0067589027 0.0054593487 -0.0037735219 -0.0073362105
0000b0 6a 86 dd bb 18 29 b0 3b 84 69 f6 bb 94 50 66 ba
       -0.006760408 0.0053759925 -0.0075199027 -0.0008785811
0000c0 34 35 9e bb e4 f2 6b 3a 08 a8 0e bc cc 01 be b9
       -0.0048281197 0.0009000732 -0.008707054 -0.00036240963
0000d0 05 13 ff 3a 47 fc 5d bb 5e 92 00 3a 3c 51 75 3b
       0.0019460624 -0.0033872293 0.0004904623 0.0037432453
0000e0 5d c3 8d bb e1 92 59 bb 73 dd 86 bb 86 e1 d6 3b
       -0.0043262676 -0.003319912 -0.0041157543 0.006557646
0000f0 09 3b 5d 3b 85 0d 97 bb 7d 03 30 3b 19 d4 db bb
       0.0033757112 -0.004609766 0.0026857548 -0.0067086336
000100 0d 62 e5 3b 4f 5c d4 3d dd 62 af bd 9f d2 85 3b
       0.007000214 0.10369169 -0.085637785 0.004083946
000110 0a fc 38 3c c0 49 bb bc 20 cb f1 3b 45 5d 04 bd
       0.01129056 -0.022862315 0.0073789507 -0.03231551
000120 62 1f 48 3c d0 40 0b bd e3 a2 73 3d c3 d0 4b 3c
       0.0122145135 -0.033997357 0.059481513 0.012439909
000130 ed 29 a1 3c df 07 e3 bc cb c4 3d 3d 4d 2f c0 3b
       0.019673312 -0.027713714 0.046330255 0.0058650137
000140 40 b0 c3 bc ff 9f a7 bc db ee 81 ba c2 94 28 3d
       -0.023887753 -0.020462034 -0.0009913103 0.04115749
000150 63 0a ae bc f1 7a fe bc e0 a7 80 3b 61 59 40 bd
       -0.021245187 -0.031064482 0.0039262623 -0.04696024
000160 41 c9 3e 3c 40 4d bc 3b 66 e3 fe bc 5e 6a 45 3a
       0.011644662 0.0057465136 -0.031114291 0.00075308036
000170 48 b7 5b 3d 47 72 06 bd 60 34 23 3c 1a 6d 50 3a
       0.053641587 -0.032823827 0.009961218 0.0007950828
000180 f2 bb 65 bc f3 f4 ff bc f0 a2 f3 bb bc 57 90 3c
       -0.01402186 -0.03124473 -0.007435195 0.01761996
000190 cb 3f 4d 3c dc bd 48 3c 46 10 e8 bc a3 74 28 bd
       0.012527416 0.012252297 -0.028328072 -0.04112686
0001a0 bd aa 6a bc 28 2e d7 3b 63 8b 06 3c f6 98 b9 3b
       -0.014322934 0.0065667816 0.008211943 0.0056639863
0001b0 e2 66 20 bc ab 08 d9 bb b9 16 d8 b7 b9 a4 e9 bc
       -0.009790154 -0.0066233478 -2.5759788e-05 -0.028520929
0001c0 08 e7 1d 3c 27 fe cc 3c 5b 31 23 3b 6e ea 22 3d
       0.009637602 0.025023533 0.0024901244 0.03977435
0001d0 c2 a1 d0 3c aa ae 94 3b f8 ce 9c bc dc 1c 00 bd
       0.025467757 0.004537423 -0.01914166 -0.031277522
0001e0 d6 36 a7 3c d4 2b 79 3c 43 b4 56 3c a8 bb d8 bb
       0.02041189 0.015208203 0.013104501 -0.0066141672
0001f0 2d d0 85 3c cc 13 44 bd 6d 4c f6 3c 64 bf 26 bd
       0.016334618 -0.047870442 0.03006574 -0.040709868

output_layer.bias f4 [2]
000000 06 7f f4 3a 59 a7 bb bf
       0.0018653579 -1.4660445

layers.0.weight f4 [128, 3]
000000 38 87 93 3d 84 af 2d be 0f 96 56 3d 64 50 1f 3e
       0.07203525 -0.16961485 0.0523892 0.1555801
000010 a4 f4 cb 3d be 6a 29 3d 10 66 38 3e 6c 3a f3 bd
       0.09958771 0.041361563 0.18007684 -0.118763775
000020 4d 00 dd 3d f8 ca 1f 3e af a1 46 bb fb f0 cd bd
       0.10791073 0.1560477 -0.0030308773 -0.10055729
000030 b6 00 6b be 9c 61 9f 3d d9 77 dd 3d b4 04 34 bc
       -0.2294949 0.077822894 0.10813875 -0.010987449
000040 9b 12 fe bd 55 c5 fd 3d 4b 46 65 3e 5e 57 e6 3d
       -0.124058925 0.12391154 0.22390096 0.11247133
000050 2f fc 6c bd 2b 15 12 bd 9d 5b 0e be 70 44 0c 3e
       -0.05785769 -0.03566472 -0.13902135 0.13697982
000060 e0 0b 19 3d a1 8e 1d bc d0 dd 75 bd 88 3c d8 3d
       0.03736484 -0.009616525 -0.06002599 0.105584204
000070 b2 6d 32 be 6d 03 ca 3d 10 81 74 ba 9e b1 1d be
       -0.17424658 0.09863935 -0.0009327093 -0.15399787
000080 79 9a 82 3d 31 d8 49 be e9 96 3a be b7 81 3b bc
       0.063771196 -0.19711377 -0.1822163 -0.011444501
000090 6a 1f e1 3c 72 26 10 bd 12 28 ad 3d f5 30 2c 3e
       0.0274808 -0.035192914 0.084549084 0.1681555
0000a0 d9 96 f1 3c a5 42 c3 3d 33 27 47 be c0 c1 d0 3d
       0.029490875 0.09534196 -0.19448547 0.10193205
0000b0 5c 3b 0c 3e 72 64 69 bc 30 d6 f9 bb d9 ce 6c bc
       0.13694519 -0.014245139 -0.00762441 -0.014453613
0000c0 e1 0d 9e bd 42 3d a6 3d 27 9d f3 bd 09 fd c4 3d
       -0.07717491 0.08117153 -0.11895209 0.09618575
0000d0 8e 83 fc bd c1 ae 7b bc e4 37 5a 3d a5 c0 22 be
       -0.123297796 -0.015361489 0.053275958 -0.158938
0000e0 bf 43 aa 3d 9e 25 46 3e 1b 0f 07 3e 73 46 2f bc
       0.08313703 0.19350287 0.13189356 -0.010697949
0000f0 8a 57 3e bc aa c3 fe 3d b1 91 1e bd 05 a9 83 3c
       -0.011617551 0.12439664 -0.03871316 0.016071806
000100 0c d7 1d 3e 2e a0 f2 bd 73 db 49 3e 59 4b de bd
       0.15414065 -0.11846958 0.1971262 -0.10854215
000110 73 c7 f3 bb 16 2a 0a be a7 7a 21 3e 10 bf d9 bd
       -0.0074395477 -0.13492617 0.15769444 -0.106321454
000120 b2 f0 f2 3d e8 8e 0b be 4c da 0d 3e be c6 f7 3c
       0.11862315 -0.13628733 0.13852805 0.030246135
000130 37 c0 34 3e 3c 8a f0 3d 22 56 cc 3b 06 e6 b3 3d
       0.17651449 0.11745116 0.006235854 0.08784108
000140 b6 d0 05 bd b9 27 91 3d 14 c7 32 bd 7c 59 d5 3d
       -0.032669745 0.070876546 -0.043646887 0.104174584
000150 d5 4f c8 bc 4a 67 ad 3d cf ad 09 3e fb 42 c0 3d
       -0.02445213 0.084669665 0.13445209 0.093877755
000160 4b eb a3 bd c9 47 74 3d 94 74 8b 3d 91 ae 10 be
       -0.08003863 0.059638772 0.06809345 -0.14129092
000170 50 45 de bd 03 47 ac 3d 66 54 b8 3d 85 33 f1 bd
       -0.10853064 0.08411982 0.09000473 -0.11777405
000180 88 37 0e be 49 b4 23 3e d8 3f 03 bd 1e 9e 37 bd
       -0.13888371 0.15986742 -0.032043308 -0.044828527
000190 87 bd 21 3e 7b 7f 76 bd cd b5 5c be 07 96 2c 3e
       0.15794955 -0.06018017 -0.21553726 0.16854106
0001a0 7b 3c 09 3e 86 ad c9 bd 58 2d af 3d 0c 69 2c 3e
       0.13401978 -0.0984755 0.085535705 0.16836947
0001b0 35 51 1f be 5d 45 27 bb c8 a5 b7 3d d0 ea bf 3b
       -0.15558322 -0.0025523521 0.08967167 0.0058568493
0001c0 80 c4 3f be 68 5b aa 3c 39 2b 2b 3e 23 d0 d1 3d
       -0.18727303 0.020795539 0.16715707 0.10244777
0001d0 db ac 3c 3d e9 c9 ea 3d 08 df 34 3e a5 49 10 be
       0.046063285 0.114642926 0.17663205 -0.14090593
0001e0 c8 23 92 ba 48 94 18 3b 14 41 a6 3d 90 34 7e bd
       -0.001114958 0.0023281742 0.081178814 -0.062061846
0001f0 a0 b9 48 3d 30 a4 5a bd 70 67 3a bd 45 79 06 3e
       0.04900515 -0.053379238 -0.045508802 0.13132198
000200 e0 90 32 3d eb d0 cf bd 37 a5 2b be 0b 98 64 3d
       0.043595195 -0.1014727 -0.16762243 0.055809062
000210 ac 79 01 be f8 f6 3b 3a e8 30 4f bd 2d ce d8 3b
       -0.1264407 0.0007170285 -0.05058375 0.006616375
000220 66 62 1f bd 44 4f 62 bc 98 c2 0a 3e 0e e0 ec bc
       -0.0389122 -0.013812844 0.13550794 -0.028915431
000230 4f 24 fe bd f0 7a 35 3e 10 e6 f2 bc ab 70 93 bd
       -0.12409269 0.17722678 -0.029650718 -0.07199224
000240 77 54 82 bd e2 89 f7 bd f0 10 b4 3d d0 1d 19 3e
       -0.06363767 -0.12086846 0.08792293 0.14952779
000250 c8 88 fd bd a5 6b c3 3d 1b cd e4 bd 03 d8 c4 bd
       -0.123796046 0.09542016 -0.11171933 -0.096115135
000260 be d9 ce bd d9 52 46 3e 3b 2b 31 be d9 67 6b 3d
       -0.10100125 0.19367541 -0.17301647 0.057472084
000270 cf 67 85 3d d6 a7 88 3d 12 45 85 3d dd 5a 1a be
       0.065139405 0.06672637 0.06507315 -0.15073724
000280 b0 74 89 bd d7 a4 c0 3d c2 c5 0d 3e a2 68 a5 bd
       -0.067117095 0.09406441 0.1384497 -0.08076598
000290 b3 d9 8e b9 2f c0 b8 bd eb f5 f8 3c ca 44 17 3e
       -0.0002724655 -0.09021031 0.0303907 0.14772335
0002a0 3a 2c bc 3d 21 79 90 bd 00 e8 e4 3d e6 03 35 3d
       0.09188123 -0.070543535 0.11177063 0.04419317
0002b0 6f e6 74 bc 19 0e 29 3e 7a 22 16 3b 6b 43 51 3c
       -0.014947518 0.16509284 0.0022908733 0.012772421
0002c0 95 58 30 3d ac d2 f1 3a 53 d6 c1 3d 7a f9 1b 3d
       0.04305323 0.0018449626 0.09464707 0.038079716
0002d0 9a aa 31 3e f6 8f ee bd 7c 8e 57 bd 89 0c 46 3e
       0.17350236 -0.11648552 -0.052626118 0.1934072
0002e0 a8 1e 4f 3d 36 6a e6 3c 73 23 24 3e 94 f0 05 be
       0.050566345 0.028126817 0.16029148 -0.13080055
0002f0 e0 b9 1a 3e a9 dd e6 3c 56 83 ba 3d 64 14 16 3e
       0.15109968 0.028181868 0.091070816 0.14656216
000300 5c 9e 7b bd 0e 25 26 3e ce 5b a0 3d a5 88 86 bd
       -0.06143032 0.16225073 0.0783001 -0.065690316
000310 82 2a a6 bd a3 96 a8 3d 5d 66 59 3d 80 a4 1a be
       -0.081135765 0.08231857 0.053076137 -0.15101814
000320 b4 f6 74 3d 76 7f 56 3e 11 0a c9 3d 15 2c bd bd
       0.059805587 0.2094706 0.09816373 -0.092369236
000330 a9 de 39 3e d6 55 46 3e 63 ad 99 3d b4 95 16 be
       0.18151344 0.19368681 0.07503774 -0.14705545
000340 1d 97 ec bd 27 0b 94 bd d4 70 69 bd 7a ff 3f 3e
       -0.1155226 -0.0722869 -0.056992367 0.187498
000350 67 36 41 3d 8d 75 33 bd ab 1a 36 3d 59 8f 02 be
       0.047171023 -0.043813277 0.044459026 -0.12749995
000360 8b cf 27 bb 14 a2 ea bc 4d cf 8a bb ac 03 81 bd
       -0.0025605883 -0.028641738 -0.004236138 -0.062995285
000370 de 07 e3 bb c3 db bd bd 1b a0 b2 bc f6 65 4f bd
       -0.006928428 -0.09270432 -0.02180486 -0.050634347
000380 81 61 39 3d 58 8a ed bc 7c ed 65 3c b1 9e 1b 3e
       0.045259003 -0.028996632 0.0140336715 0.15197255
000390 64 c4 2b be b5 5d 27 bc 32 a1 fa bd d1 b6 22 3e
       -0.16774136 -0.010215213 -0.12237777 0.15890051
0003a0 d1 aa a4 3d 52 93 3a bd 68 a0 c2 bd 96 c5 f2 bc
       0.08040393 -0.04555065 -0.09503251 -0.029635232
0003b0 08 cf e1 3d 93 0d 11 be c6 5f 9e bd 07 21 bf 3d
       0.11025816 -0.14165334 -0.07733111 0.09332471
0003c0 70 bd 57 be 15 00 80 bc fb 5d 1f 3d 5c 79 ee 3d
       -0.21068358 -0.01562504 0.038907986 0.11644241
0003d0 1c 44 a4 3c b7 cb 68 bd 1f 61 2a be 0c 55 23 3d
       0.020052008 -0.056834903 -0.16638611 0.03987603
0003e0 0e 76 1e 3c 63 62 86 3d b3 79 26 be ae 96 9d 3d
       0.009671701 0.065617345 -0.16257362 0.076947555
0003f0 b3 12 ae bd 16 25 21 be cc 01 ab bd f4 bd c0 3c
       -0.0849966 -0.15736803 -0.08349952 0.023528077
