experiments/ppo_cartpole_homework_20250828_130746/checkpoints/final.pt (torch, 212365 bytes, 22 tensors)

layers.0.weight f4 [64, 4]
000000 75 ff cd 3b 70 35 49 3e 52 e6 8e be 07 15 5f 3d
       0.0062865564 0.19649291 -0.27910095 0.054463413
000010 32 f6 84 be 45 07 65 be f6 8a 83 3e e5 13 6a 3e
       -0.25969082 -0.22366054 0.25691956 0.22859152
000020 f1 1d 0a be 3e 37 0e 3e 49 1b 83 3e 10 84 7d 3e
       -0.13487984 0.1388826 0.25606754 0.24757409
000030 27 cf 90 3e 64 f8 3c be ac 84 12 be 80 42 29 be
       0.28283045 -0.18454129 -0.14308423 -0.16529274
000040 c8 32 78 be 18 c0 0e 3d 9c 43 74 bd b3 33 bf 3d
       -0.24238122 0.034851164 -0.05963479 0.09336033
000050 2c f6 85 be 5c b5 87 be f3 8a 29 3e dc a7 cf 3c
       -0.26164377 -0.26505554 0.16556911 0.025348596
000060 81 42 d2 bc d8 d0 5a 3e 05 05 3b be 47 b6 0a be
       -0.025666477 0.2136873 -0.18263634 -0.13546096
000070 94 ec e2 3c 06 e4 12 bb e4 65 a2 3d 45 d7 2a 3e
       0.0277007 -0.0022413745 0.0792959 0.16683681
000080 37 e9 14 3e c6 d2 28 be f5 37 2b 3e fc af 3a be
       0.1454209 -0.16486654 0.16720565 -0.18231195
000090 12 4b 18 3e f9 30 d8 bd e5 15 46 be 50 3d 8a 3e
       0.14872387 -0.10556216 -0.1934429 0.26999903
0000a0 a6 6a 26 3d e4 d7 a4 3b 62 c6 aa 3b 8b d3 42 3e
       0.04062905 0.005030619 0.0052116374 0.1902601
0000b0 ee 7f 9f 3c 6e b2 58 be a9 9c cb 3d ad 76 f0 3d
       0.019470181 -0.21161816 0.0994199 0.117413856
0000c0 2c e0 73 3b 84 2e 20 bc c9 eb 6e be ef 6f 69 be
       0.0037212474 -0.009776715 -0.23332132 -0.22796606
0000d0 86 8d 6a be de 1b 74 be 4b bc 41 3b b9 e1 9c bc
       -0.2290555 -0.23838755 0.0029561694 -0.019150602
0000e0 83 53 3c 3d c0 67 85 3e 81 ea 87 bd 8c 65 59 3e
       0.04597808 0.26055717 -0.06636525 0.21230143
0000f0 ea bd 28 3e fb f8 42 3d 37 7f 6b bd 89 e6 65 3d
       0.16478696 0.047600728 -0.05749437 0.05612806
000100 12 9f 52 3d 25 02 09 be 39 86 12 3e 89 60 93 3e
       0.051421233 -0.13379724 0.14309014 0.28784588
000110 bb 47 05 be c8 e1 3e 3e cf d5 92 be ff 68 e0 3d
       -0.13015644 0.18640816 -0.28678748 0.109575264
000120 ca 9d 18 bd 94 e8 25 be 62 0c cd 3d d7 38 97 be
       -0.037259854 -0.16202003 0.100121275 -0.29535553
000130 a2 63 86 3d 28 76 46 3d 77 2c 67 3d 21 cc 7c 3e
       0.06561972 0.048452526 0.05643889 0.24687244
000140 8f e6 f3 3d f0 51 c5 3c 98 96 5c be 25 32 01 3e
       0.1190921 0.024086922 -0.21541822 0.12616785
000150 36 cd f5 bd a4 2b 95 3e bf f4 28 3e c4 b3 d8 bd
       -0.120020315 0.29134858 0.16499613 -0.105811626
000160 13 cc 22 3e 90 bb 21 3e 3a 0e 44 3e 20 d8 6b 3e
       0.1589816 0.15794206 0.19146052 0.23031664
000170 f5 2e 0f 3e 72 81 83 be 60 42 7b 3e e7 ce 4f 3e
       0.13982756 -0.25684696 0.24537039 0.2029377
000180 a1 db 88 3c 21 9e 13 be c1 84 37 be 4e fe be 3c
       0.01670629 -0.1441579 -0.17921735 0.023314621
000190 62 28 0a 3e a4 7e 65 bd 1e d0 c2 bd b1 3e d9 bd
       0.13491967 -0.056028977 -0.095123515 -0.106076606
0001a0 6e 05 8c bd 98 32 80 be 68 7d a4 bd 6b 91 73 bd
       -0.06836973 -0.250386 -0.08031732 -0.059464853
0001b0 b3 40 0e be 0a 56 26 be 3b ad 58 3d 46 b7 d3 3d
       -0.13891868 -0.16243759 0.05289958 0.10337691
0001c0 4d 8a 01 3e 04 a7 a8 3c 1c 2c f2 bc 32 3f 29 be
       0.12650414 0.020587452 -0.029562049 -0.16528013
0001d0 ac 0d 5b 3e 70 fb 43 be 43 25 8e 3d 05 73 e5 3b
       0.21391934 -0.19138885 0.06940701 0.007002237
0001e0 56 0c 2b 3d ac 53 70 3e 8b ae 6c be cf f7 65 be
       0.04175981 0.23469418 -0.23113458 -0.22457813
0001f0 95 5a 6f be 39 fe bb 3b e4 c8 fe bd 9d e8 8b 3e
       -0.23374398 0.005737093 -0.124406606 0.27325907
000200 bd b5 d2 bd 33 f9 6d 3e 71 b2 13 be 22 5a 78 3e
       -0.1028857 0.23239593 -0.14423539 0.24253133
000210 10 8a 55 bd db 43 dd 3d a6 2d 27 3e e8 c7 5e 3d
       -0.05213362 0.10803958 0.16326007 0.054389864
000220 d9 d6 8c be d9 1c a9 bd fe 36 83 3e a8 ef c3 3d
       -0.27507666 -0.082574554 0.25627893 0.09567195
000230 12 e5 4a be 11 53 49 3e f8 12 a5 bd 44 ba 50 be
       -0.19813946 0.19660594 -0.080602586 -0.20383555
000240 1c 7f 3f bd de 0c dc 3d 0e ed ee bd 3a 9d 6e bc
       -0.04675208 0.10744642 -0.11666308 -0.014563853
000250 da d9 8a 3e 45 0c 09 bd 89 53 74 3d 93 83 52 3e
       0.27119333 -0.033458967 0.059649978 0.20558004
000260 6d 89 ac bd 68 0b 9c bc 78 0b e3 bc df 87 1b 3e
       -0.084246494 -0.019048408 -0.02771543 0.1518855
000270 40 4c 4f 3e f9 4e e3 bb b8 66 60 3e 48 94 38 3d
       0.20243931 -0.0069369045 0.21914184 0.045063287
000280 00 8f 3b be 35 45 85 be e5 88 95 3d 86 28 fe 3d
       -0.18316269 -0.26029363 0.07301501 0.12410073
000290 1b 1d 8e 3e 33 c7 7c be 38 8b 84 3e a2 58 6c be
       0.2775658 -0.24685363 0.25887465 -0.23080686
0002a0 d1 ce 36 3e 08 44 db 3d 2e d2 74 3e f4 68 44 be
       0.17852332 0.10706335 0.23908302 -0.19180661
0002b0 bc ae 63 bd fe af 79 3d 14 23 60 be b8 cd 3c 3e
       -0.05558656 0.060958855 -0.21888381 0.1843785
0002c0 64 39 31 3e ae ee 49 be 7a d3 2e 3e 65 d4 9c 3d
       0.17307049 -0.19719955 0.1707286 0.076576985
0002d0 ba 8b cc 3d ae 5d 8a 3e 67 f1 3e be 98 a9 48 3e
       0.09987588 0.27024597 -0.18646775 0.19595945
0002e0 94 bc 6f 3d ea 4f e5 3d bf eb 3c 3e 54 b6 8d 3e
       0.05852945 0.11196883 0.18449305 0.27678168
0002f0 6e 46 81 3e 78 67 47 3d 29 d5 d4 bd 19 f5 ae bd
       0.25249046 0.04868266 -0.103922196 -0.085428424
000300 f5 29 3e 3d 7e 06 2a bb 53 3c 56 be cc b8 21 be
       0.046426732 -0.002594381 -0.2092145 -0.1579315
000310 e1 b9 fc 3d e9 e5 b9 3d 28 e6 18 bd 14 ae 45 3e
       0.12340141 0.09077055 -0.03732887 0.19304687
000320 98 07 8f 3e 00 3d 51 3e 4d 24 2f 3e 41 35 f5 3d
       0.2793548 0.20433426 0.17103691 0.11973048
000330 42 bf 21 3e b1 a4 7a be e2 f4 8a be fc 55 3e be
       0.15795615 -0.24476887 -0.27139956 -0.18587488
000340 cb 67 18 be 68 32 8a be d3 4b 9d 3d 82 66 38 be
       -0.14883344 -0.26991582 0.07680478 -0.18007854
000350 35 66 97 3d 0a b7 3f be d1 b4 81 be 30 9d 3f 3d
       0.07392541 -0.18722168 -0.25333264 0.046780765
000360 84 09 5f be 25 2f 48 3e 5c 05 0a be 84 ed 5d 3e
       -0.21780974 0.19549234 -0.13478607 0.21672636
000370 e9 84 00 be c4 06 c6 bd b3 97 1d 3e aa c7 9f bc
       -0.12550701 -0.09669259 0.153899 -0.019504387
000380 ce 5b 81 3e 9f ba 25 3e da 41 74 be 11 29 48 be
       0.25265354 0.16184472 -0.23853245 -0.19546916
000390 f7 26 85 3e ac 6d 49 be 59 93 6e bd a1 8b 96 be
       0.2600629 -0.19670743 -0.05824599 -0.29403403
0003a0 8c c2 e2 3d 57 56 df 3c a8 a0 10 3e 4c ca 7a bd
       0.11072263 0.02726285 0.14123785 -0.06122808
0003b0 8f 7c 2a 3e 70 7e 1c 3d 2e 6d 84 3d 3e 85 65 3e
       0.16649078 0.038206518 0.06466137 0.22414109
0003c0 2a 75 b8 bd 3d a5 43 3e b7 44 89 be 08 52 48 3e
       -0.09006722 0.19106002 -0.26810238 0.19562542
0003d0 3b af 8b be a5 b4 32 3d 9c 73 ad bd 39 67 45 3e
       -0.27282128 0.043629307 -0.08469316 0.19277658
0003e0 81 78 4e be 61 2f 4d bd 84 7f f5 3c b2 84 13 3e
       -0.20163156 -0.050094012 0.02996803 0.14406088
0003f0 95 aa 80 3e 5a 1c 93 bd de e7 39 3e 54 4a c5 3d
       0.25130144 -0.07183142 0.18154857 0.096333176

layers.0.bias f4 [64]
000000 00 00 00 00 00 00 00 00 00 00 00 00 00 00 00 00
       0.0 0.0 0.0 0.0
000010 00 00 00 00 00 00 00 00 00 00 00 00 00 00 00 00
       0.0 0.0 0.0 0.0
000020 00 00 00 00 00 00 00 00 00 00 00 00 00 00 00 00
       0.0 0.0 0.0 0.0
000030 00 00 00 00 00 00 00 00 00 00 00 00 00 00 00 00
       0.0 0.0 0.0 0.0
000040 00 00 00 00 00 00 00 00 00 00 00 00 00 00 00 00
       0.0 0.0 0.0 0.0
000050 00 00 00 00 00 00 00 00 00 00 00 00 00 00 00 00
       0.0 0.0 0.0 0.0
000060 00 00 00 00 00 00 00 00 00 00 00 00 00 00 00 00
       0.0 0.0 0.0 0.0
000070 00 00 00 00 00 00 00 00 00 00 00 00 00 00 00 00
       0.0 0.0 0.0 0.0
000080 00 00 00 00 00 00 00 00 00 00 00 00 00 00 00 00
       0.0 0.0 0.0 0.0
000090 00 00 00 00 00 00 00 00 00 00 00 00 00 00 00 00
       0.0 0.0 0.0 0.0
0000a0 00 00 00 00 00 00 00 00 00 00 00 00 00 00 00 00
       0.0 0.0 0.0 0.0
0000b0 00 00 00 00 00 00 00 00 00 00 00 00 00 00 00 00
       0.0 0.0 0.0 0.0
0000c0 00 00 00 00 00 00 00 00 00 00 00 00 00 00 00 00
       0.0 0.0 0.0 0.0
0000d0 00 00 00 00 00 00 00 00 00 00 00 00 00 00 00 00
       0.0 0.0 0.0 0.0
0000e0 00 00 00 00 00 00 00 00 00 00 00 00 00 00 00 00
       0.0 0.0 0.0 0.0
0000f0 00 00 00 00 00 00 00 00 00 00 00 00 00 00 00 00
       0.0 0.0 0.0 0.0

layers.2.weight f4 [64, 64]
000000 72 65 8e bc a4 ca 06 be af 30 c4 3d 6e f7 f9 3c
       -0.017382357 -0.13163239 0.09579598 0.030513491
000010 3f f5 a8 bd ee 8f 70 bd 75 a1 e9 bd b2 2d a8 bc
       -0.08249902 -0.058731012 -0.114077486 -0.020529602
000020 c1 b0 0f bc f6 cc 28 3e 57 5d 3d 3e f3 cc 23 3d
       -0.008770169 0.16484436 0.18492638 0.039990377
000030 b9 46 33 3e 4a 01 55 bc a4 d2 27 be ca a9 53 be
       0.17507447 -0.013000796 -0.16388947 -0.20670238
000040 b0 a7 67 3c 96 81 d6 3b 60 0e 4f 3e d7 58 47 be
       0.014139101 0.0065462096 0.20220327 -0.19467483
000050 00 35 a8 3c 44 17 24 be d6 5c d6 bc 7c 05 97 bd
       0.020533085 -0.160245 -0.026167314 -0.07374093
000060 c1 6a 20 be 38 20 2b 3d e8 26 8f 3d d7 98 2c 3e
       -0.15665723 0.041778773 0.06989843 0.16855179
000070 87 ed 7f bc d0 42 83 bc 91 9e da 3c 12 cc 9e bd
       -0.015620596 -0.01602307 0.026686938 -0.07753767
000080 dc 89 8c bd 17 19 1c 3e 42 07 42 be 4c 2d 42 be
       -0.06862232 0.15243946 -0.18948081 -0.18962592
000090 6a 5e e7 bd 76 5c 1b be 92 13 1f be d7 c9 4d 3e
       -0.11297305 -0.1517199 -0.15534809 0.20096527
0000a0 08 eb d2 bd 4a 92 3d be e9 03 15 3e 74 1c f8 bd
       -0.10298735 -0.18512836 0.14552273 -0.12114802
0000b0 67 3d 98 3d 48 73 8d bd b6 69 22 3e 5d d0 97 bd
       0.074335866 -0.06906754 0.15860638 -0.07412789
0000c0 03 00 66 bd e5 32 21 3e 34 ac 0c bd 19 d9 6b bd
       -0.056152355 0.15742071 -0.034343913 -0.057580087
0000d0 d8 3e bb 3d 90 05 2a 3e 81 77 41 3e 7a 3f 07 3d
       0.09142846 0.16603684 0.18893243 0.03301952
0000e0 c0 00 8d bc bb 48 9b bb 90 35 5d bd 6e 45 11 3e
       -0.017212272 -0.0047388948 -0.05400616 0.14186642
0000f0 e2 43 9d bd 36 7a 10 bc af eb fc 3c 9a 4d cf bb
       -0.07678963 -0.0088182 0.030874101 -0.0063263895
000100 53 cb 3d bd 41 e3 a9 3d 3b 5e 3f 3e 15 fb 62 bd
       -0.046336483 0.08295298 0.1868829 -0.05541523
000110 fe dd 12 be 31 ee fd 3d 2c bb 37 be 51 4b 6e 3d
       -0.14342496 0.12398947 -0.17942494 0.058177296
000120 e5 10 6d bd d9 13 e6 3c 7e 6a 53 be 95 b1 10 bd
       -0.05787744 0.028085636 -0.20646092 -0.035325605
000130 1d af a3 3d f2 11 3b be 65 03 86 3d 2b 03 33 bd
       0.079923846 -0.18268564 0.06543616 -0.043704193
000140 bd 5d 72 3d 87 05 83 3d e5 2b 4a 3d 6b d0 f4 3c
       0.059171427 0.06397539 0.049358267 0.029884538
000150 68 29 b0 3a da cd 3f 3e e8 a6 21 3e f3 05 3b be
       0.0013440074 0.1873087 0.15786326 -0.18263988
000160 c0 44 2d be bd 8f 29 be 4c 1b d0 3d ef 8d 27 3e
       -0.16920757 -0.16558738 0.101614565 0.16362737
000170 91 90 14 be ce 4a 3f 3e 04 bb 0f be 25 ea 72 3c
       -0.14508273 0.1868088 -0.14036185 0.014826332
000180 df dd d3 3b f7 5b fc 3d 07 77 d0 bd 48 9d 82 3d
       0.006465658 0.123222284 -0.10178953 0.06377655
000190 09 7c 9c 3d cc 25 2e be 4b 6f 86 bd cb fb de bd
       0.07640845 -0.17006606 -0.06564196 -0.108878694
0001a0 c8 14 a5 3d a3 e1 b2 bd cd b9 29 be 11 6e 61 3d
       0.08060604 -0.08734443 -0.16574784 0.055036608
0001b0 8d 82 a5 3d c4 d3 15 be ee 11 c2 bb 7c c5 0b 3e
       0.08081541 -0.14631563 -0.0059225475 0.13649553
0001c0 7a 38 83 bd cc 85 c7 bd df 47 5c be 0e 17 e1 bc
       -0.064072564 -0.097423166 -0.21511792 -0.027476814
0001d0 cf 51 06 be 7e c7 de 3d ad ae 48 be 47 f7 35 be
       -0.13117145 0.10877894 -0.19597884 -0.1777011
0001e0 25 de f3 bc a2 dd ad bd f0 8c 09 be b1 85 e9 bd
       -0.029769013 -0.08489539 -0.1343267 -0.11402453
0001f0 fe 61 d1 3d 81 08 1b 3e d2 09 2a 3d 2c 2f 2f 3e
       0.10223769 0.15139963 0.04151327 0.17107838
000200 02 76 f3 bc 9f c8 82 3d ed 68 71 3d e1 21 06 3e
       -0.029719356 0.06385922 0.058937956 0.13098861
000210 0c 8e 50 be 6d 14 f7 bd 6c 43 4f 3e a8 c6 4f be
       -0.20366687 -0.12064443 0.20240563 -0.20290625
000220 76 c7 1f bd 54 81 d8 bd 73 58 b9 3b 55 fc 8d 3c
       -0.03900858 -0.105715424 0.005656296 0.017332235
000230 0d b0 29 bc d2 e7 33 be 09 00 08 3e f2 f3 51 be
       -0.010356915 -0.17568901 0.13281263 -0.20503214
000240 ff 99 27 3e 34 db d5 bc b1 cb 30 be cc da b1 3c
       0.16367339 -0.0261055 -0.17265202 0.021710776
000250 8b 7d 2d 3e 52 ff 15 be ab c9 a4 3c ee 8e 63 bd
       0.16942422 -0.14648178 0.020115694 -0.05555623
000260 e1 b6 1a be 78 0f 3b 3e 34 92 1d 3e ec 71 45 be
       -0.15108825 0.1826762 0.15387803 -0.19281739
000270 f0 3a 9d bd 97 7b 31 3b 60 7b 0c be 14 f0 a6 bd
       -0.07677257 0.0027081722 -0.13718939 -0.0815126
000280 2e 76 bc bd 87 22 88 3d df 05 ba 3a 55 62 46 be
       -0.092022285 0.066472106 0.0014192424 -0.19373448
000290 dd ed 92 bb f8 ac 2c 3c e2 fe 1e be 3c f5 21 be
       -0.004483922 0.010539286 -0.15526918 -0.15816206
0002a0 15 ff 0e be 94 3a 28 be c1 30 03 be 1c 06 3d 3e
       -0.13964494 -0.16428596 -0.12811567 0.18459362
0002b0 e6 98 f2 3d 4f 36 95 bd 86 d7 c1 bd 86 c5 f9 3d
       0.11845569 -0.07285749 -0.09464936 0.12195878
0002c0 18 b0 57 be df 11 5a be 4c 1b 32 be 70 fc 06 be
       -0.21063268 -0.2129588 -0.17393225 -0.13182235
0002d0 89 1d e6 3c c8 71 ed 3c 70 6c 83 3c 37 e0 17 3e
       0.028090255 0.02898492 0.016042918 0.14831625
0002e0 b7 c9 1e be 28 80 86 3d b5 6f 21 be 7f fe 72 bd
       -0.15506636 0.065674126 -0.15765269 -0.059324738
0002f0 7d 54 5a 3e f1 ad 43 bb f1 61 8c bc af c2 d8 bd
       0.21321292 -0.0029858316 -0.017136546 -0.10584008
000300 88 51 43 3e 28 2c ec 3c 7d 58 7f 3d 11 63 0f be
       0.1907407 0.02882965 0.06234025 -0.14002635
000310 c7 d1 d9 bd 81 6d 22 bd 45 29 4a be af 5d bb 3a
       -0.10635715 -0.039655212 -0.19742306 0.0014294888
000320 84 c8 fc 3d 09 72 d8 3a 35 9e f8 bc ed 6f ff bd
       0.12342933 0.0016513477 -0.030348876 -0.1247252
000330 96 c4 35 3e 10 4b 55 3e 83 c2 e0 bd 8d 53 77 3c
       0.17750773 0.20829415 -0.109746 0.015095604
000340 47 2d 30 3d 79 2c fd bb 31 6b 1d bb fd 59 5d bc
       0.04301193 -0.007726249 -0.002402019 -0.013510224
000350 ed 2d 1f be b3 0a d1 3d 22 29 0e 3e 2c be 05 be
       -0.15544863 0.10207119 0.13882878 -0.13060826
000360 f5 16 7a bd 3f 02 89 3d 6d 62 b7 3c d3 fe c4 3c
       -0.06105705 0.066898815 0.0223858 0.02404729
000370 7f d9 ef bd 3a c3 54 be c2 ee 34 3e bd 68 da 3d
       -0.11711406 -0.20777598 0.17669204 0.106645085
000380 64 06 50 3d 6b fa 4a be e8 55 63 3d 35 64 ce bc
       0.050787345 -0.1982209 0.05550185 -0.025194267
000390 0f 6d b4 3d e8 2e 09 be 0f ef aa 3d a0 0c 5f bc
       0.08809864 -0.133968 0.08346378 -0.01361385
0003a0 15 76 88 bd 49 ea f6 3d 3c 59 04 3e 12 87 23 3d
       -0.06663147 0.12056405 0.12924665 0.039923735
0003b0 51 5c fc 3d 53 5d 06 be 3b 27 32 3e 38 cc 64 bd
       0.123222955 -0.13121538 0.17397778 -0.05585882
0003c0 76 f4 47 bd be 39 97 bd e8 00 57 3e 49 2f fa bd
       -0.04881712 -0.0738406 0.2099644 -0.1221605
0003d0 9d 74 d9 bd df 40 10 3e fe 39 e8 3d 22 e5 55 3d
       -0.10617945 0.14087246 0.11339186 0.05222047
0003e0 f3 7d c7 3d 58 72 04 3e a9 2a 8b bc a7 a7 22 3e
       0.0974082 0.12934244 -0.016988115 0.15884267
0003f0 c8 f9 87 bc 29 55 27 3d 09 8b 29 3e a4 f5 96 bd
       -0.016598597 0.0408527 0.16556944 -0.07371071

layers.2.bias f4 [64]
000000 00 00 00 00 00 00 00 00 00 00 00 00 00 00 00 00
       0.0 0.0 0.0 0.0
000010 00 00 00 00 00 00 00 00 00 00 00 00 00 00 00 00
       0.0 0.0 0.0 0.0
000020 00 00 00 00 00 00 00 00 00 00 00 00 00 00 00 00
       0.0 0.0 0.0 0.0
000030 00 00 00 00 00 00 00 00 00 00 00 00 00 00 00 00
       0.0 0.0 0.0 0.0
000040 00 00 00 00 00 00 00 00 00 00 00 00 00 00 00 00
       0.0 0.0 0.0 0.0
000050 00 00 00 00 00 00 00 00 00 00 00 00 00 00 00 00
       0.0 0.0 0.0 0.0
000060 00 00 00 00 00 00 00 00 00 00 00 00 00 00 00 00
       0.0 0.0 0.0 0.0
000070 00 00 00 00 00 00 00 00 00 00 00 00 00 00 00 00
       0.0 0.0 0.0 0.0
000080 00 00 00 00 00 00 00 00 00 00 00 00 00 00 00 00
       0.0 0.0 0.0 0.0
000090 00 00 00 00 00 00 00 00 00 00 00 00 00 00 00 00
       0.0 0.0 0.0 0.0
0000a0 00 00 00 00 00 00 00 00 00 00 00 00 00 00 00 00
       0.0 0.0 0.0 0.0
0000b0 00 00 00 00 00 00 00 00 00 00 00 00 00 00 00 00
       0.0 0.0 0.0 0.0
0000c0 00 00 00 00 00 00 00 00 00 00 00 00 00 00 00 00
       0.0 0.0 0.0 0.0
0000d0 00 00 00 00 00 00 00 00 00 00 00 00 00 00 00 00
       0.0 0.0 0.0 0.0
0000e0 00 00 00 00 00 00 00 00 00 00 00 00 00 00 00 00
       0.0 0.0 0.0 0.0
0000f0 00 00 00 00 00 00 00 00 00 00 00 00 00 00 00 00
       0.0 0.0 0.0 0.0

output_layer.weight f4 [2, 64]
000000 92 9f d0 3d 1c 6a 42 be 7c 23 77 3c 25 03 3d bc
       0.101866856 -0.1898579 0.015084144 -0.011536394
000010 d3 17 98 be e3 03 b7 3d 71 fc 8f 3e 76 92 02 be
       -0.29705676 0.08936288 0.28122285 -0.12751183
000020 02 40 29 3d ed b3 64 bc 17 2c f4 bd 72 4c a9 3b
       0.04132081 -0.013958913 -0.11922472 0.0051665837
000030 71 26 35 3d 2e 7f e4 bd 94 8d c7 3d 59 9b f4 bd
       0.044226114 -0.1115707 0.09743801 -0.11943693
000040 c1 53 00 be 65 c0 6b bd 49 9e 81 bd a9 b1 61 3e
       -0.1253195 -0.05755653 -0.063290186 0.22040428
000050 85 6c 15 3e 92 b9 78 be b3 7c 17 3e 77 a6 52 be
       0.14592178 -0.2428954 0.14793663 -0.20571314
000060 ac 88 80 be e8 cf 91 be 4b 98 31 bb 32 5d 93 3d
       -0.25104272 -0.28478932 -0.002709883 0.0719551
000070 b3 7e 1d bd c6 a8 40 be 6e da 1b 3d ff 48 84 3e
       -0.038450908 -0.18814382 0.038050108 0.25836942
000080 63 33 09 3e ac 7c d9 bd 94 df 68 3c 17 a7 83 3e
       0.13398509 -0.106194824 0.014213461 0.25713417
000090 07 63 65 3e 93 68 c2 bd a2 8f 52 bd aa 9b 19 be
       0.22401057 -0.09492602 -0.05140651 -0.15000787
0000a0 87 1b 91 3e e6 80 89 be 88 7d 94 3d 4a 86 32 3e
       0.28341314 -0.26856154 0.07250506 0.1743404
0000b0 9f 08 43 3c e3 8a 8c 3e 98 86 af 3d ce 9e 61 be
       0.011903911 0.27449712 0.085705936 -0.22033235
0000c0 16 1c cc 3d 66 d2 1e 3e 32 45 04 bd 3e 73 78 3e
       0.099662945 0.15509948 -0.032292552 0.24262711
0000d0 dd 6a 11 be 2e 32 46 be 09 cb 98 be d2 75 45 3e
       -0.14200921 -0.1935508 -0.29842404 0.19283226
0000e0 f9 d1 b9 bd 4e 6a 06 be fc 32 c4 3d ce 88 fe bd
       -0.09073252 -0.1312649 0.09580037 -0.12428437
0000f0 96 ac df bd 6e 9a 1c 3e d1 29 31 3e cf 18 81 3d
       -0.1092159 0.15293285 0.17301108 0.0630356
000100 11 94 5d 3e e8 93 75 be d9 39 83 be 23 a8 4c 3e
       0.21638514 -0.23982203 -0.25630072 0.19986014
000110 61 31 7b 3e 3e ca 15 be 06 33 53 be fb 70 a6 3c
       0.24530555 -0.1462793 -0.20624933 0.020317545
000120 d8 1b 22 3e 75 24 94 3d 75 9f 8f 3e 4a e6 05 be
       0.15830934 0.07233516 0.28051344 -0.1307613
000130 df dd 8a be ba 41 34 3e d1 ce 22 3e 16 88 31 3e
       -0.271224 0.17603198 0.15899207 0.17337069
000140 cb 15 21 be 40 1b a3 bc 81 04 87 be 77 b2 1c be
       -0.1573097 -0.019910455 -0.26370624 -0.15302454
000150 d6 14 90 3e c4 9e 85 3d be 5f f4 bd 45 22 8c be
       0.28140897 0.06524423 -0.11932324 -0.27369896
000160 a5 6c 92 3d b6 fa 85 3e 14 2c 5b 3e 06 95 6a 3e
       0.071496285 0.2616784 0.21403533 0.2290841
000170 04 eb 88 bd 8c fa 94 3e d8 fc 72 bd e0 95 1b be
       -0.06685451 0.29097402 -0.05932316 -0.15193892
000180 ee e7 fd 3d 39 3d f7 3d 48 7f 38 3e 8a d0 25 3d
       0.12397753 0.12072224 0.18017304 0.04048208
000190 71 68 59 3e fa 01 2f 3e d4 24 55 3e e7 a7 47 3e
       0.21231247 0.17090598 0.2081483 0.19497643
0001a0 4e f8 60 be d0 9c 86 3e f8 ae 5b be a6 d1 10 3e
       -0.2196972 0.26291513 -0.21453464 0.14142475
0001b0 6d bd d2 3c 0d af 33 be 81 58 88 3e 00 f5 2d 3e
       0.02572509 -0.17547245 0.26630023 0.16987991
0001c0 d6 e9 32 be 75 83 92 be 18 50 8b 3e f6 3c e5 3b
       -0.17472014 -0.2861592 0.27209544 0.0069957925
0001d0 fb 8f 80 3e 9e b4 2d be 08 f6 55 3e 49 5d 24 be
       0.25109848 -0.16963431 0.20894635 -0.1605121
0001e0 36 44 8b 3c 4b 25 91 be d3 99 17 be 60 d2 aa bc
       0.017000299 -0.28348765 -0.14804773 -0.020852268
0001f0 6d 63 5c be 4a 8e 61 bd 56 92 1c 3e 90 b5 e3 bd
       -0.21522303 -0.055067338 0.15290198 -0.11118615

output_layer.bias f4 [2]
000000 00 00 00 00 00 00 00 00
       0.0 0.0

layers.0.weight f4 [64, 4]
000000 a4 69 2f be 2e 6b 28 3e 27 42 8d be 76 67 c4 3d
       -0.17130142 0.16447136 -0.27589533 0.09590046
000010 ff 6d 9a bd f4 90 1f 3e dd a6 94 be 66 cc 54 3e
       -0.07540511 0.15582639 -0.29033557 0.20781097
000020 15 b8 b1 3d 36 ed d7 bd 33 67 90 bd f8 a3 99 3d
       0.08677689 -0.10543291 -0.07050934 0.07501978
000030 22 9f 9b 3c c3 e5 a4 bd 90 4f 18 3e 35 93 a8 bd
       0.018996779 -0.08051636 0.148741 -0.082312025
000040 56 5e 49 3e a5 42 92 be d9 aa df 3b 36 d5 95 3e
       0.19664893 -0.2856647 0.0068257865 0.2926423
000050 95 62 23 3e 58 b7 1b 3b 3c a3 86 3d 20 05 6f 3e
       0.15955575 0.0023760404 0.06574103 0.23341799
000060 c3 de 29 be 8d 68 11 be 61 0b 21 3e b2 23 69 3e
       -0.16588883 -0.14200039 0.15726997 0.22767523
000070 92 d2 52 bb f5 12 64 be 24 36 b2 bc be 0b 9b bd
       -0.0032168967 -0.22272857 -0.021754332 -0.07570599
000080 cd aa 83 3d f2 6d 5c be 42 36 01 bb 37 72 e7 bd
       0.06429062 -0.21526316 -0.0019716178 -0.11301082
000090 1b 81 47 be 6a d4 70 3e 3d 13 97 bc eb 9e f8 3d
       -0.19482844 0.2351853 -0.01844179 0.12139686
0000a0 22 b5 ff 3c 39 95 b4 3d 5b 25 f7 bd 8b 95 91 3e
       0.0312143 0.088175245 -0.12067672 0.28434405
0000b0 96 0b 13 be c7 77 3c be 53 db 61 be 5b 0f ec bc
       -0.14359888 -0.18405066 -0.22056322 -0.028815916
0000c0 41 3b 2f be e3 e0 1c be f3 93 85 3e 52 71 ae bd
       -0.17112447 -0.15320162 0.2608944 -0.08517708
0000d0 62 6c 92 3e 73 0e 12 bd 49 1d 80 be 52 4a 98 bd
       0.28598315 -0.03565831 -0.25022343 -0.074360505
0000e0 f7 9d 74 3e d3 43 31 3e 42 ac 92 be ac 4c 3e be
       0.23888384 0.17311029 -0.28647047 -0.18583935
0000f0 1f 88 01 3e d1 76 85 3e a0 de 45 be fd 92 1f be
       0.12649582 0.26067212 -0.19323206 -0.15583415
000100 d7 a8 6d be d2 18 99 bd b2 d1 bd 3c 0d ad 92 be
       -0.23208939 -0.07475437 0.02317128 -0.28647652
000110 5c 91 90 3e e0 32 68 be 83 dd 0e be cf a3 65 3d
       0.282359 -0.22675657 -0.13951688 0.056064423
000120 c7 c9 77 be c1 4e fc bd 18 55 04 3e 1d e2 cb 3d
       -0.24198066 -0.123197086 0.12923086 0.09955237
000130 de 3f 93 3e 61 94 a7 bd 32 62 ad bd 98 7e 9f 3d
       0.28759664 -0.08182598 -0.08465995 0.07787818
000140 36 6f 0d be 92 29 42 3d 1a db 80 be 62 26 a1 bd
       -0.13811955 0.047402926 -0.2516716 -0.07868649
000150 6d e6 35 be 65 b7 ac 3d 58 4b c1 3d ca cf b1 3d
       -0.17763682 0.08433417 0.09438199 0.08682211
000160 09 5e e2 3d ee 1e 8e 3e f2 60 63 bd 36 bf 29 3e
       0.11053092 0.27757972 -0.055512376 0.16576847
000170 f2 8e 80 3e b8 3e f6 bd d8 0e 8c 3e c0 05 8d be
       0.2510906 -0.120236814 0.27355075 -0.2754345
000180 fc 31 43 3e 68 12 21 3e 6c 86 93 3e 35 48 2c bd
       0.19062036 0.15729678 0.28813493 -0.04206105
000190 e2 20 79 be 91 0f 5b be b3 7d 8b bc 99 2f 85 be
       -0.2432895 -0.21392657 -0.017027711 -0.26012877
0001a0 15 cc 87 be df 8c 19 bd 18 98 88 3e 4e 48 3f bd
       -0.2652289 -0.03748786 0.26678538 -0.046699814
0001b0 89 ba a0 3d 91 e9 2e 3d 7b fa 97 be a8 ef 02 be
       0.07848079 0.042703215 -0.2968329 -0.12786734
0001c0 d9 89 2e be 72 84 a8 bd 08 f8 94 bd 6f 6f 97 be
       -0.17044772 -0.08228387 -0.07273871 -0.29577205
0001d0 fb 59 8d 3e 41 40 fd bd 5b 4c 36 be 0d 2b 0f be
       0.27607712 -0.12365771 -0.17802565 -0.13981266
0001e0 62 a8 fe bc 43 66 fb bd 30 0a d9 3d f8 fa 25 3e
       -0.03108615 -0.12275364 0.10597646 0.16209018
0001f0 ec 46 03 bd 52 8d 7c bd 2f 6b d6 bd f3 fd ba bd
       -0.03205006 -0.06165821 -0.104696624 -0.09130468
000200 4c 54 23 be 50 e3 84 3e d8 74 2d 3e 77 52 89 bd
       -0.15950125 0.25954676 0.16939104 -0.06705182
000210 cb e1 7e be 74 4d 94 bc d9 d5 76 be f3 de 26 3e
       -0.2489082 -0.018103339 -0.24105014 0.16295986
000220 38 65 83 bd 87 d0 3f 3e 23 9a 90 be 5d d3 29 3d
       -0.0641579 0.1873189 -0.28242597 0.041461337
000230 b7 a1 c5 3d e2 c8 2e 3e b3 10 ff bd 94 fc 19 be
       0.09649985 0.17068818 -0.12454357 -0.15037757
000240 f3 17 48 3c 44 60 eb bd c5 41 80 be 53 03 09 3d
       0.012212741 -0.114929706 -0.25050178 0.033450436
000250 af 29 96 3e 3f 06 50 3d 10 b0 d5 bd 0f 66 76 3e
       0.29328677 0.050787207 -0.10433972 0.2406237
000260 43 58 7c be 06 e4 d6 3d 13 c2 2a bc b6 aa 92 bd
       -0.24643044 0.10492711 -0.010422247 -0.07161467
000270 97 a8 33 be da b5 c7 bc bf 6a fe bd 44 86 10 be
       -0.1754478 -0.024378706 -0.12422704 -0.14113718
000280 44 15 31 3d 48 87 3e 3e 76 06 43 3c c4 f5 be 3b
       0.04323317 0.18606293 0.011903396 0.0058276374
000290 e0 01 04 3d ab cb 70 bc 6d c4 61 bd b9 db 6c be
       0.03222835 -0.014696996 -0.055118967 -0.23130693
0002a0 36 06 96 be 01 72 3a 3e 7f 2c 4f 3e 8b 81 92 be
       -0.29301614 0.18207552 0.20231818 -0.28614458
0002b0 de b5 8d be 28 ed 08 3c 3a ca 15 bd a8 a3 d7 3d
       -0.27677816 0.008357324 -0.03656981 0.10529262
0002c0 a8 59 89 be 24 82 63 bd d5 ed 2b 3e 4d 9f 5a 3b
       -0.26826215 -0.055544034 0.16789944 0.003335911
0002d0 a6 23 0d 3e 2f f1 5f 3e 03 86 90 be e4 a4 20 3d
       0.1378313 0.21869348 -0.28227243 0.039219752
0002e0 b4 26 27 be 10 6f 61 3d f9 8f 26 be 08 f0 13 bd
       -0.16323358 0.055037558 -0.16265859 -0.036117584
0002f0 f5 04 92 be 5b 0d 93 be 8e aa 8f be f0 38 1c be
       -0.28519407 -0.28721127 -0.2805981 -0.15256095
000300 e8 75 04 be 04 96 1c bd 7e 51 8b be 48 59 e7 bb
       -0.12935603 -0.038229004 -0.2721061 -0.0070602037
000310 18 cb a6 bd c4 94 cd 3d d1 ef 0c 3d ac 1a 90 3e
       -0.08144206 0.100381404 0.034408394 0.2814535
000320 a4 a9 03 3e 72 6b 81 be 67 0b 96 be 7e 13 91 be
       0.12857682 -0.25277287 -0.29305574 -0.28335184
000330 4c f4 1f bc 98 52 19 be 60 a9 dc 3d bf 67 35 be
       -0.009762835 -0.14972913 0.10774493 -0.17715357
000340 6c c2 91 3d f4 c8 10 3e 47 b3 57 3e 14 8c 9d bb
       0.07117161 0.14139158 0.21064483 -0.0048079584
000350 a6 68 e3 3d 15 8a 93 be db c8 9e 3d c0 34 8a 3e
       0.111039445 -0.28816286 0.07753154 0.2699337
000360 07 1f 22 3c 94 06 eb 3d 22 0e 51 3e 74 cd 97 be
       0.009895093 0.11475864 0.20415547 -0.29648936
000370 f0 48 12 3e 92 c3 92 3d 79 b2 fb 3d 58 bf 7c be
       0.14285636 0.07166208 0.122899 -0.24682367
000380 6d 66 c2 3c 00 18 95 bd d8 c1 ac 3d dd 17 09 be
       0.023730481 -0.07279968 0.0843541 -0.1338801
000390 e8 75 7d 3e e9 6d 37 be 08 5e d8 bd 30 33 cc bd
       0.24752009 -0.17913021 -0.1056481 -0.09970701
0003a0 7d 8f 73 be 1f 5f 3f 3e 10 cf 61 be 56 89 6f be
       -0.23785205 0.1868863 -0.22051644 -0.23392233
0003b0 81 38 03 be 0a b3 34 3e bc f8 ae 3d 26 ae 3e be
       -0.12814523 0.17646423 0.08543536 -0.1862112
0003c0 0d 85 3f bd de 33 47 3e c5 5d 89 be d7 fc c8 3d
       -0.046757746 0.1945338 -0.26829353 0.098138504
0003d0 39 00 89 bd 3b 8d 2c 3d 3e 07 2d ba 96 ac d7 bc
       -0.066894956 0.042126875 -0.00066005054 -0.026327413
0003e0 55 55 8f 3e e7 a5 4c be ed 01 6b 3e 81 26 84 3e
       0.2799479 -0.19985162 0.22949953 0.25810626
0003f0 90 ae 95 3d d8 7a 94 be 3a 0f b7 3d ef 6e 97 3e
       0.07308686 -0.28999972 0.08938451 0.29576823

layers.0.bias f4 [64]
000000 00 00 00 00 00 00 00 00 00 00 00 00 00 00 00 00
       0.0 0.0 0.0 0.0
000010 00 00 00 00 00 00 00 00 00 00 00 00 00 00 00 00
       0.0 0.0 0.0 0.0
000020 00 00 00 00 00 00 00 00 00 00 00 00 00 00 00 00
       0.0 0.0 0.0 0.0
000030 00 00 00 00 00 00 00 00 00 00 00 00 00 00 00 00
       0.0 0.0 0.0 0.0
000040 00 00 00 00 00 00 00 00 00 00 00 00 00 00 00 00
       0.0 0.0 0.0 0.0
000050 00 00 00 00 00 00 00 00 00 00 00 00 00 00 00 00
       0.0 0.0 0.0 0.0
000060 00 00 00 00 00 00 00 00 00 00 00 00 00 00 00 00
       0.0 0.0 0.0 0.0
000070 00 00 00 00 00 00 00 00 00 00 00 00 00 00 00 00
       0.0 0.0 0.0 0.0
000080 00 00 00 00 00 00 00 00 00 00 00 00 00 00 00 00
       0.0 0.0 0.0 0.0
000090 00 00 00 00 00 00 00 00 00 00 00 00 00 00 00 00
       0.0 0.0 0.0 0.0
0000a0 00 00 00 00 00 00 00 00 00 00 00 00 00 00 00 00
       0.0 0.0 0.0 0.0
0000b0 00 00 00 00 00 00 00 00 00 00 00 00 00 00 00 00
       0.0 0.0 0.0 0.0
0000c0 00 00 00 00 00 00 00 00 00 00 00 00 00 00 00 00
       0.0 0.0 0.0 0.0
0000d0 00 00 00 00 00 00 00 00 00 00 00 00 00 00 00 00
       0.0 0.0 0.0 0.0
0000e0 00 00 00 00 00 00 00 00 00 00 00 00 00 00 00 00
       0.0 0.0 0.0 0.0
0000f0 00 00 00 00 00 00 00 00 00 00 00 00 00 00 00 00
       0.0 0.0 0.0 0.0

layers.2.weight f4 [64, 64]
000000 c0 3f da bd 7d e4 d3 3d a6 4e 03 be e4 35 db 3d
       -0.106566906 0.10346315 -0.12822971 0.10703638
000010 4d ca 19 bd fe da 02 be d5 54 03 be dd 56 18 3e
       -0.037546445 -0.12778851 -0.1282533 0.14876886
000020 07 18 44 bb be c1 3e be 48 1e 5c be 0d 12 57 bd
       -0.0029921548 -0.18628594 -0.21495926 -0.05250745
000030 d9 ad aa 3d 9e 09 c9 bd d0 24 12 bd 4e bf 30 3e
       0.0833394 -0.098162875 -0.03567964 0.17260477
000040 10 3e 49 3d 39 3d 53 3c a7 92 56 be 66 f3 20 3e
       0.049131453 0.012893015 -0.20954381 0.15717849
000050 93 fd 6f 3a 21 f7 ca bd 4a 89 e1 bd 9b a4 09 3e
       0.0009154912 -0.09910417 -0.11012514 0.13441698
000060 0d 56 0f be 72 5f 34 3e fb 91 cd 3b 87 c0 dc 3d
       -0.1399767 0.17614534 0.0062735057 0.10778909
000070 2b b5 00 3e d6 33 59 3e b7 99 b7 3d 3a 1e 6e bc
       0.1256911 0.2121118 0.08964866 -0.014533574
000080 ce d2 08 be c5 a5 88 bd 8f af ee 3d dd 41 d5 3c
       -0.13361666 -0.06672243 0.11654579 0.026032383
000090 e3 d4 9a bd b1 21 06 bc 79 19 be bd 97 1c 46 be
       -0.07560136 -0.008186744 -0.09282202 -0.19346844
0000a0 53 54 0f 3e aa 6a 03 3e d4 0e 0e 3e 84 ec 8b 3d
       0.13997011 0.12833658 0.13872844 0.06832221
0000b0 8e f8 53 bd 92 76 7a 3d 4c 40 4d be e1 f8 43 be
       -0.051750712 0.061148234 -0.20044059 -0.19137909
0000c0 82 ea f7 bd 90 ca 2b 3e 1b d9 01 be 49 04 d6 bd
       -0.12105276 0.1677649 -0.12680475 -0.10450036
0000d0 77 e5 56 3e b0 71 eb 3d 7c 52 c4 3d 5b 54 57 bd
       0.20985971 0.114962935 0.09586045 -0.052570682
0000e0 06 c2 08 3d d4 36 55 3e e2 d2 85 bc 82 f9 b2 bd
       0.03338816 0.20821697 -0.016335908 -0.08738996
0000f0 6e 44 fb 3d 1f e6 8f bc 86 05 e7 bd 6d b7 20 3e
       0.12268911 -0.017565785 -0.112803504 0.15694971
000100 5b e8 a4 3b 28 9c 08 be 8a cd 9a bd c8 18 d5 bc
       0.0050325817 -0.13340819 -0.07558735 -0.026012793
000110 c7 04 6c 3d b6 df 31 be d3 57 50 3d af c8 b2 3c
       0.057621744 -0.17370495 0.050865006 0.021824209
000120 59 1f ed 3c 9b 46 3a bd d7 f4 08 be 3b c8 33 3e
       0.028945612 -0.04547749 -0.13374649 0.1755685
000130 e8 a0 5a be d0 09 da bd 42 60 0d 3e 41 ea 0d 3d
       -0.21350443 -0.10646403 0.1380625 0.03464723
000140 e9 6f 07 3e 46 35 ee 3d bb 87 5a be 98 e9 de bd
       0.13226284 0.11631255 -0.2134084 -0.10884398
000150 ec d8 f3 bd bd 8a 89 3d 73 d1 30 be e1 be 8f bc
       -0.11906609 0.06715915 -0.17267399 -0.017547073
000160 27 eb 4a 3e 7e 46 42 be 09 d6 a7 3d f3 93 af bd
       0.19816266 -0.18972203 0.08195121 -0.08573141
000170 11 21 88 bd 16 0a 80 3c c2 91 1e 3e f0 3e c8 3d
       -0.06646932 0.01562981 0.1548529 0.097776294
000180 82 2a 46 3e be a0 00 be 30 56 24 bd da 15 59 3e
       0.19352153 -0.12561318 -0.040121257 0.21199742
000190 9a db 47 3e 41 6a 40 3e bb 72 20 3e 7e 74 0a be
       0.19517365 0.18790533 0.15668766 -0.13521
0001a0 19 04 93 3d 36 b2 11 be 9e 16 b4 3d f3 9f a7 3d
       0.07178516 -0.14228138 0.087933764 0.08184805
0001b0 42 f5 48 be 50 83 5b be 80 0e 22 be 1f e9 b0 3d
       -0.19624808 -0.2143681 -0.15825844 0.08638214
0001c0 4c fa 38 bd b1 d9 fd bd ae 03 00 be 37 b7 54 3e
       -0.045160577 -0.12395037 -0.12501404 0.20773016
0001d0 08 f6 8e 3d 57 bf c5 3d db c0 c5 bd 8d 81 ba bd
       0.069805205 0.09655636 -0.09655925 -0.09106741
0001e0 83 7f ec 3c ba ab 44 3e d3 87 30 be 06 68 ce bd
       0.028869396 0.19206133 -0.17239313 -0.10078435
0001f0 6a c4 51 3e 5e 36 a5 3d c8 90 22 be 0b a3 94 3d
       0.20485082 0.0806701 -0.15875542 0.072576605
000200 04 9f 4e 3e 24 24 86 3d 68 23 d3 3c 4f 9c d5 ba
       0.20177847 0.06549862 0.025773719 -0.0016297194
000210 e3 4a 87 bd 30 06 f9 3d 0f 5b 06 3e d4 68 81 3d
       -0.066060804 0.12159383 0.13120674 0.063188225
000220 13 08 e3 bd 2c 67 d6 3c 89 7b 97 bd cf 73 20 be
       -0.110855244 0.026172243 -0.07396609 -0.15669177
000230 7d 36 ba 3d 52 52 e5 3d 0d e9 59 3e 05 15 16 be
       0.09092424 0.11197342 0.21280308 -0.14656456
000240 15 f2 a6 3d 77 11 24 be 05 a9 8b bd 03 cf 50 be
       0.08151642 -0.16022287 -0.06819347 -0.20391469
000250 12 e9 71 bd ba bf eb bd 5b dc f5 3d 60 0f b3 3d
       -0.059060164 -0.11511178 0.1200492 0.08743167
000260 27 67 33 3e 00 df a3 bd 50 d7 1c be 8d 7e f7 3d
       0.17519818 -0.08001518 -0.1531651 0.120846845
000270 28 70 be bd 35 0c 40 3d 7c f9 c5 bd 1e 46 06 3d
       -0.09298736 0.04688664 -0.09666726 0.032781713
000280 d9 71 88 bd 4b 72 06 be 20 6f 6a bd 07 e0 13 bd
       -0.0666234 -0.13129537 -0.057234883 -0.03610232
000290 59 37 29 be 31 c6 e0 3a e7 95 43 be ed b6 d5 bd
       -0.1652502 0.0017148909 -0.19100152 -0.10435281
0002a0 45 f6 03 3e cb b8 0d be b4 34 b2 bb c6 d6 e4 bc
       0.12886913 -0.13840024 -0.0054384116 -0.027934443
0002b0 91 be 9e bd e0 fb cf 3d 4e e7 4e 3d 32 da 12 be
       -0.077511914 0.10155463 0.050513558 -0.14341047
0002c0 8a c4 0d be 94 3e 83 bd 8a 43 50 3e c8 49 00 3e
       -0.13844505 -0.0640842 0.20338264 0.12528145
0002d0 bd f5 43 3d 20 6d 4f 3e 21 59 b2 bd e6 76 0f be
       0.047841776 0.20256472 -0.08708406 -0.140102
0002e0 02 ad f2 3d f9 39 ec bd 81 4e 8d 3d 63 6c 53 3e
       0.11849405 -0.11534495 0.06899739 0.20646815
0002f0 80 fc d2 3d f6 2f 2c 3d 98 46 41 3e e9 2c 4a 3e
       0.10302067 0.042037927 0.18874586 0.19743694
000300 9f 36 f2 bd 43 c3 09 bc a8 ac 68 3d 16 04 54 3d
       -0.118268244 -0.00840837 0.056805283 0.05176171
000310 99 9e 3d 3e b3 65 03 be a3 03 0b 3e f8 d6 9f 3d
       0.18517531 -0.12831764 0.13575606 0.07804674
000320 7a 41 54 3e cb af 05 3e 59 52 10 3e 1d 03 ab bd
       0.20728102 0.13055341 0.14093913 -0.08350203
000330 7f c5 2e be de b2 fa 3c ff e8 37 be dd eb 15 bd
       -0.17067526 0.030602869 -0.17959975 -0.03660189
000340 bf f3 5a be 2c a8 cf 3d 3d 9d a1 3d da 68 f5 bd
       -0.21382044 0.10139498 0.07891319 -0.119828895
000350 4d aa 1a bd f0 6d c1 bd a2 ae 9d bd cf 1e fd bd
       -0.037760068 -0.09444797 -0.07699324 -0.12359392
000360 55 d6 b9 bd e0 00 02 be c3 a7 de 3d 1e 7e e7 3a
       -0.09074084 -0.12695646 0.10871842 0.0017661487
000370 3a 6d 5d 3e 26 c5 ea bd 6f dc 92 bc 3a a8 87 3d
       0.21623698 -0.11463384 -0.017927377 0.066238835
000380 fe b2 3a 3e 13 87 3c be 75 16 38 be 4a ce cf bd
       0.18232343 -0.18410902 -0.17977317 -0.101467684
000390 c2 86 e1 bd 5d c2 fd bd 1b c6 4e 3e a2 d4 2a be
       -0.11012031 -0.123905875 0.20192759 -0.16682675
0003a0 87 bf a6 3d 1b 84 e3 3c 10 0d 65 3d 8f 77 c6 3d
       0.08142 0.027772954 0.05592066 0.09690773
0003b0 0b 70 45 be 3c 9c 58 be 4f 7d 17 be f1 20 36 bd
       -0.19281022 -0.21153349 -0.14793895 -0.04446501
0003c0 aa 5f ce 3d 2e 48 8f 3c 89 9a 54 be ae 09 30 be
       0.1007684 0.017490473 -0.20762075 -0.17191193
0003d0 53 a8 65 3d 6a d9 3b be 79 7e 6d bd 5a 14 fe 3d
       0.05606873 -0.18344656 -0.05798194 0.124062255
0003e0 aa 46 36 3e a5 59 4c bd 97 ee 39 be 56 2c 45 be
       0.17800394 -0.04989018 -0.18157421 -0.19255194
0003f0 75 6b 87 bd 2b 15 c8 bd 51 96 16 be 17 bf 32 be
       -0.06612293 -0.097696625 -0.14705779 -0.17455707

layers.2.bias f4 [64]
000000 00 00 00 00 00 00 00 00 00 00 00 00 00 00 00 00
       0.0 0.0 0.0 0.0
000010 00 00 00 00 00 00 00 00 00 00 00 00 00 00 00 00
       0.0 0.0 0.0 0.0
000020 00 00 00 00 00 00 00 00 00 00 00 00 00 00 00 00
       0.0 0.0 0.0 0.0
000030 00 00 00 00 00 00 00 00 00 00 00 00 00 00 00 00
       0.0 0.0 0.0 0.0
000040 00 00 00 00 00 00 00 00 00 00 00 00 00 00 00 00
       0.0 0.0 0.0 0.0
000050 00 00 00 00 00 00 00 00 00 00 00 00 00 00 00 00
       0.0 0.0 0.0 0.0
000060 00 00 00 00 00 00 00 00 00 00 00 00 00 00 00 00
       0.0 0.0 0.0 0.0
000070 00 00 00 00 00 00 00 00 00 00 00 00 00 00 00 00
       0.0 0.0 0.0 0.0
000080 00 00 00 00 00 00 00 00 00 00 00 00 00 00 00 00
       0.0 0.0 0.0 0.0
000090 00 00 00 00 00 00 00 00 00 00 00 00 00 00 00 00
       0.0 0.0 0.0 0.0
0000a0 00 00 00 00 00 00 00 00 00 00 00 00 00 00 00 00
       0.0 0.0 0.0 0.0
0000b0 00 00 00 00 00 00 00 00 00 00 00 00 00 00 00 00
       0.0 0.0 0.0 0.0
0000c0 00 00 00 00 00 00 00 00 00 00 00 00 00 00 00 00
       0.0 0.0 0.0 0.0
0000d0 00 00 00 00 00 00 00 00 00 00 00 00 00 00 00 00
       0.0 0.0 0.0 0.0
0000e0 00 00 00 00 00 00 00 00 00 00 00 00 00 00 00 00
       0.0 0.0 0.0 0.0
0000f0 00 00 00 00 00 00 00 00 00 00 00 00 00 00 00 00
       0.0 0.0 0.0 0.0

output_layer.weight f4 [1, 64]
000000 83 6a da bd c2 cd 1e 3e e0 1b 9b 3d 50 93 23 3e
       -0.10664847 0.15508178 0.07573676 0.15974164
000010 95 2f 1f be 26 fc d2 bc 20 fa 3d be 9c b7 9a be
       -0.15545495 -0.025755 -0.18552446 -0.30218208
000020 22 6d 7a bc 91 43 a5 3c 79 1a 88 be 3f b6 67 3e
       -0.015284808 0.02017382 -0.26582697 0.22628115
000030 4c a2 6d 3e fb f4 7f bd 75 4f 00 3e 0a 4a 15 be
       0.23206443 -0.06248949 0.1253031 -0.14579025
000040 29 4a b2 bd 34 2b 53 3d c6 60 2f be 77 3f 18 3e
       -0.08705551 0.051554874 -0.1712676 0.1486796
000050 03 b6 3d be c4 90 13 3e 08 a5 99 3e 7c 0b 74 3c
       -0.18526463 0.14410692 0.3000872 0.014895316
000060 94 4f 8b 3e 3d 74 57 be b6 31 40 be b5 15 5a be
       0.2720915 -0.21040435 -0.18768963 -0.21297343
000070 31 ab 79 3e ae eb 8b be 22 28 8b bd 0f 05 23 3e
       0.2438171 -0.27328247 -0.06794764 0.15919898
000080 ad cd 4a bd f9 62 37 3e f0 4c 9a 3e fd c5 1b 3e
       -0.049512554 0.17908849 0.30136824 0.15212245
000090 53 2c 7c bd 7a d6 8b be 0e 90 3b 3e ab f8 84 3d
       -0.06156571 -0.2731207 0.18316671 0.06492742
0000a0 b9 6c e5 bd 2a c3 bf 3d 94 53 0b bd 57 61 2a bd
       -0.11202378 0.093633965 -0.034015253 -0.041596737
0000b0 ef 4f be bd eb 58 5a be 13 8b ed 3d d6 bc db 3c
       -0.0929259 -0.21322982 0.11598792 0.026823442
0000c0 4a 8e 46 be ff c4 57 be 22 99 40 3e 65 31 14 be
       -0.19390216 -0.21071242 0.18808416 -0.14471968
0000d0 58 ea df 3d 0a 5c d0 bd 25 c9 7a 3e f1 f4 3c be
       0.109333694 -0.10173805 0.24490793 -0.18452813
0000e0 43 17 3f bc 34 0e 05 3e 61 5f 85 3e 45 5b 04 bc
       -0.011663261 0.129937 0.2604933 -0.008078401
0000f0 e6 2b de 3d fb 84 bd bd b4 db 91 3e 97 b6 c8 bd
       0.10848217 -0.0925388 0.28487933 -0.09800451

weight f4 [64, 4]
000000 75 ff cd 3b 70 35 49 3e 52 e6 8e be 07 15 5f 3d
       0.0062865564 0.19649291 -0.27910095 0.054463413
000010 32 f6 84 be 45 07 65 be f6 8a 83 3e e5 13 6a 3e
       -0.25969082 -0.22366054 0.25691956 0.22859152
000020 f1 1d 0a be 3e 37 0e 3e 49 1b 83 3e 10 84 7d 3e
       -0.13487984 0.1388826 0.25606754 0.24757409
000030 27 cf 90 3e 64 f8 3c be ac 84 12 be 80 42 29 be
       0.28283045 -0.18454129 -0.14308423 -0.16529274
000040 c8 32 78 be 18 c0 0e 3d 9c 43 74 bd b3 33 bf 3d
       -0.24238122 0.034851164 -0.05963479 0.09336033
000050 2c f6 85 be 5c b5 87 be f3 8a 29 3e dc a7 cf 3c
       -0.26164377 -0.26505554 0.16556911 0.025348596
000060 81 42 d2 bc d8 d0 5a 3e 05 05 3b be 47 b6 0a be
       -0.025666477 0.2136873 -0.18263634 -0.13546096
000070 94 ec e2 3c 06 e4 12 bb e4 65 a2 3d 45 d7 2a 3e
       0.0277007 -0.0022413745 0.0792959 0.16683681
000080 37 e9 14 3e c6 d2 28 be f5 37 2b 3e fc af 3a be
       0.1454209 -0.16486654 0.16720565 -0.18231195
000090 12 4b 18 3e f9 30 d8 bd e5 15 46 be 50 3d 8a 3e
       0.14872387 -0.10556216 -0.1934429 0.26999903
0000a0 a6 6a 26 3d e4 d7 a4 3b 62 c6 aa 3b 8b d3 42 3e
       0.04062905 0.005030619 0.0052116374 0.1902601
0000b0 ee 7f 9f 3c 6e b2 58 be a9 9c cb 3d ad 76 f0 3d
       0.019470181 -0.21161816 0.0994199 0.117413856
0000c0 2c e0 73 3b 84 2e 20 bc c9 eb 6e be ef 6f 69 be
       0.0037212474 -0.009776715 -0.23332132 -0.22796606
0000d0 86 8d 6a be de 1b 74 be 4b bc 41 3b b9 e1 9c bc
       -0.2290555 -0.23838755 0.0029561694 -0.019150602
0000e0 83 53 3c 3d c0 67 85 3e 81 ea 87 bd 8c 65 59 3e
       0.04597808 0.26055717 -0.06636525 0.21230143
0000f0 ea bd 28 3e fb f8 42 3d 37 7f 6b bd 89 e6 65 3d
       0.16478696 0.047600728 -0.05749437 0.05612806
000100 12 9f 52 3d 25 02 09 be 39 86 12 3e 89 60 93 3e
       0.051421233 -0.13379724 0.14309014 0.28784588
000110 bb 47 05 be c8 e1 3e 3e cf d5 92 be ff 68 e0 3d
       -0.13015644 0.18640816 -0.28678748 0.109575264
000120 ca 9d 18 bd 94 e8 25 be 62 0c cd 3d d7 38 97 be
       -0.037259854 -0.16202003 0.100121275 -0.29535553
000130 a2 63 86 3d 28 76 46 3d 77 2c 67 3d 21 cc 7c 3e
       0.06561972 0.048452526 0.05643889 0.24687244
000140 8f e6 f3 3d f0 51 c5 3c 98 96 5c be 25 32 01 3e
       0.1190921 0.024086922 -0.21541822 0.12616785
000150 36 cd f5 bd a4 2b 95 3e bf f4 28 3e c4 b3 d8 bd
       -0.120020315 0.29134858 0.16499613 -0.105811626
000160 13 cc 22 3e 90 bb 21 3e 3a 0e 44 3e 20 d8 6b 3e
       0.1589816 0.15794206 0.19146052 0.23031664
000170 f5 2e 0f 3e 72 81 83 be 60 42 7b 3e e7 ce 4f 3e
       0.13982756 -0.25684696 0.24537039 0.2029377
000180 a1 db 88 3c 21 9e 13 be c1 84 37 be 4e fe be 3c
       0.01670629 -0.1441579 -0.17921735 0.023314621
000190 62 28 0a 3e a4 7e 65 bd 1e d0 c2 bd b1 3e d9 bd
       0.13491967 -0.056028977 -0.095123515 -0.106076606
0001a0 6e 05 8c bd 98 32 80 be 68 7d a4 bd 6b 91 73 bd
       -0.06836973 -0.250386 -0.08031732 -0.059464853
0001b0 b3 40 0e be 0a 56 26 be 3b ad 58 3d 46 b7 d3 3d
       -0.13891868 -0.16243759 0.05289958 0.10337691
0001c0 4d 8a 01 3e 04 a7 a8 3c 1c 2c f2 bc 32 3f 29 be
       0.12650414 0.020587452 -0.029562049 -0.16528013
0001d0 ac 0d 5b 3e 70 fb 43 be 43 25 8e 3d 05 73 e5 3b
       0.21391934 -0.19138885 0.06940701 0.007002237
0001e0 56 0c 2b 3d ac 53 70 3e 8b ae 6c be cf f7 65 be
       0.04175981 0.23469418 -0.23113458 -0.22457813
0001f0 95 5a 6f be 39 fe bb 3b e4 c8 fe bd 9d e8 8b 3e
       -0.23374398 0.005737093 -0.124406606 0.27325907
000200 bd b5 d2 bd 33 f9 6d 3e 71 b2 13 be 22 5a 78 3e
       -0.1028857 0.23239593 -0.14423539 0.24253133
000210 10 8a 55 bd db 43 dd 3d a6 2d 27 3e e8 c7 5e 3d
       -0.05213362 0.10803958 0.16326007 0.054389864
000220 d9 d6 8c be d9 1c a9 bd fe 36 83 3e a8 ef c3 3d
       -0.27507666 -0.082574554 0.25627893 0.09567195
000230 12 e5 4a be 11 53 49 3e f8 12 a5 bd 44 ba 50 be
       -0.19813946 0.19660594 -0.080602586 -0.20383555
000240 1c 7f 3f bd de 0c dc 3d 0e ed ee bd 3a 9d 6e bc
       -0.04675208 0.10744642 -0.11666308 -0.014563853
000250 da d9 8a 3e 45 0c 09 bd 89 53 74 3d 93 83 52 3e
       0.27119333 -0.033458967 0.059649978 0.20558004
000260 6d 89 ac bd 68 0b 9c bc 78 0b e3 bc df 87 1b 3e
       -0.084246494 -0.019048408 -0.02771543 0.1518855
000270 40 4c 4f 3e f9 4e e3 bb b8 66 60 3e 48 94 38 3d
       0.20243931 -0.0069369045 0.21914184 0.045063287
000280 00 8f 3b be 35 45 85 be e5 88 95 3d 86 28 fe 3d
       -0.18316269 -0.26029363 0.07301501 0.12410073
000290 1b 1d 8e 3e 33 c7 7c be 38 8b 84 3e a2 58 6c be
       0.2775658 -0.24685363 0.25887465 -0.23080686
0002a0 d1 ce 36 3e 08 44 db 3d 2e d2 74 3e f4 68 44 be
       0.17852332 0.10706335 0.23908302 -0.19180661
0002b0 bc ae 63 bd fe af 79 3d 14 23 60 be b8 cd 3c 3e
       -0.05558656 0.060958855 -0.21888381 0.1843785
0002c0 64 39 31 3e ae ee 49 be 7a d3 2e 3e 65 d4 9c 3d
       0.17307049 -0.19719955 0.1707286 0.076576985
0002d0 ba 8b cc 3d ae 5d 8a 3e 67 f1 3e be 98 a9 48 3e
       0.09987588 0.27024597 -0.18646775 0.19595945
0002e0 94 bc 6f 3d ea 4f e5 3d bf eb 3c 3e 54 b6 8d 3e
       0.05852945 0.11196883 0.18449305 0.27678168
0002f0 6e 46 81 3e 78 67 47 3d 29 d5 d4 bd 19 f5 ae bd
       0.25249046 0.04868266 -0.103922196 -0.085428424
000300 f5 29 3e 3d 7e 06 2a bb 53 3c 56 be cc b8 21 be
       0.046426732 -0.002594381 -0.2092145 -0.1579315
000310 e1 b9 fc 3d e9 e5 b9 3d 28 e6 18 bd 14 ae 45 3e
       0.12340141 0.09077055 -0.03732887 0.19304687
000320 98 07 8f 3e 00 3d 51 3e 4d 24 2f 3e 41 35 f5 3d
       0.2793548 0.20433426 0.17103691 0.11973048
000330 42 bf 21 3e b1 a4 7a be e2 f4 8a be fc 55 3e be
       0.15795615 -0.24476887 -0.27139956 -0.18587488
000340 cb 67 18 be 68 32 8a be d3 4b 9d 3d 82 66 38 be
       -0.14883344 -0.26991582 0.07680478 -0.18007854
000350 35 66 97 3d 0a b7 3f be d1 b4 81 be 30 9d 3f 3d
       0.07392541 -0.18722168 -0.25333264 0.046780765
000360 84 09 5f be 25 2f 48 3e 5c 05 0a be 84 ed 5d 3e
       -0.21780974 0.19549234 -0.13478607 0.21672636
000370 e9 84 00 be c4 06 c6 bd b3 97 1d 3e aa c7 9f bc
       -0.12550701 -0.09669259 0.153899 -0.019504387
000380 ce 5b 81 3e 9f ba 25 3e da 41 74 be 11 29 48 be
       0.25265354 0.16184472 -0.23853245 -0.19546916
000390 f7 26 85 3e ac 6d 49 be 59 93 6e bd a1 8b 96 be
       0.2600629 -0.19670743 -0.05824599 -0.29403403
0003a0 8c c2 e2 3d 57 56 df 3c a8 a0 10 3e 4c ca 7a bd
       0.11072263 0.02726285 0.14123785 -0.06122808
0003b0 8f 7c 2a 3e 70 7e 1c 3d 2e 6d 84 3d 3e 85 65 3e
       0.16649078 0.038206518 0.06466137 0.22414109
0003c0 2a 75 b8 bd 3d a5 43 3e b7 44 89 be 08 52 48 3e
       -0.09006722 0.19106002 -0.26810238 0.19562542
0003d0 3b af 8b be a5 b4 32 3d 9c 73 ad bd 39 67 45 3e
       -0.27282128 0.043629307 -0.08469316 0.19277658
0003e0 81 78 4e be 61 2f 4d bd 84 7f f5 3c b2 84 13 3e
       -0.20163156 -0.050094012 0.02996803 0.14406088
0003f0 95 aa 80 3e 5a 1c 93 bd de e7 39 3e 54 4a c5 3d
       0.25130144 -0.07183142 0.18154857 0.096333176

bias f4 [64]
000000 00 00 00 00 00 00 00 00 00 00 00 00 00 00 00 00
       0.0 0.0 0.0 0.0
000010 00 00 00 00 00 00 00 00 00 00 00 00 00 00 00 00
       0.0 0.0 0.0 0.0
000020 00 00 00 00 00 00 00 00 00 00 00 00 00 00 00 00
       0.0 0.0 0.0 0.0
000030 00 00 00 00 00 00 00 00 00 00 00 00 00 00 00 00
       0.0 0.0 0.0 0.0
000040 00 00 00 00 00 00 00 00 00 00 00 00 00 00 00 00
       0.0 0.0 0.0 0.0
000050 00 00 00 00 00 00 00 00 00 00 00 00 00 00 00 00
       0.0 0.0 0.0 0.0
000060 00 00 00 00 00 00 00 00 00 00 00 00 00 00 00 00
       0.0 0.0 0.0 0.0
000070 00 00 00 00 00 00 00 00 00 00 00 00 00 00 00 00
       0.0 0.0 0.0 0.0
000080 00 00 00 00 00 00 00 00 00 00 00 00 00 00 00 00
       0.0 0.0 0.0 0.0
000090 00 00 00 00 00 00 00 00 00 00 00 00 00 00 00 00
       0.0 0.0 0.0 0.0
0000a0 00 00 00 00 00 00 00 00 00 00 00 00 00 00 00 00
       0.0 0.0 0.0 0.0
0000b0 00 00 00 00 00 00 00 00 00 00 00 00 00 00 00 00
       0.0 0.0 0.0 0.0
0000c0 00 00 00 00 00 00 00 00 00 00 00 00 00 00 00 00
       0.0 0.0 0.0 0.0
0000d0 00 00 00 00 00 00 00 00 00 00 00 00 00 00 00 00
       0.0 0.0 0.0 0.0
0000e0 00 00 00 00 00 00 00 00 00 00 00 00 00 00 00 00
       0.0 0.0 0.0 0.0
0000f0 00 00 00 00 00 00 00 00 00 00 00 00 00 00 00 00
       0.0 0.0 0.0 0.0
