experiments/ppo_cartpole_homework_20250828_112838/checkpoints/error.pt (torch, 193293 bytes, 22 tensors)

layers.0.weight f4 [64, 4]
00000000: b3cf 58be f2a5 863e eb35 933e 57fb 203e
00000010: 3292 953e ce6d 013e e2a7 583d c974 b03d
00000020: 5575 163e ff6f b53d 4304 9b3d 59ed 8abe
00000030: 61d2 63be 3b49 b03d 383f 003e fc44 8abd
00000040: f6b3 b63d fb9c 25bd 6781 283e 46e6 65bc
00000050: f46e 21be d67b 8c3e 3406 1a3e 7e66 dfbd
00000060: 7cd9 8e3e 3fd0 8d3e cb13 913e 99f9 8f3e
00000070: 6e5c 4fbe 5967 93be 8d9f 2bbe eb22 1a3e
00000080: 545a ab3d 3902 8a3e 414d 003e b79f 90be
00000090: ca51 933e 2315 3dbe 4872 95bd 9129 333c
000000a0: 810e 6ebe 9fc1 54be cae0 833c a24f 87be
000000b0: c532 7ebe 5b2c 903e bafa 1d3d 739b 1d3e
000000c0: afbf 993d a5df 463d 58c7 863d db7e 04be
000000d0: ea66 823d cec1 673e 143d 363e 629f b3bd
000000e0: e8b9 4f3c 8168 163e 0eb3 20be 2c67 273a
000000f0: da33 09bd 4a11 ac3d 8145 02be 33fb 7f3d
00000100: 2e20 813e 7cf6 4fbe 7d1b b5bd 1a29 8fbc
00000110: 9182 833e 0ae7 8dbe ab70 71be 677e 303d
00000120: 0855 06be 2f68 933e a483 4abe 09e2 2f3e
00000130: 5fa7 81be 20d5 923e 4339 8cbe 1a84 11be
00000140: 3742 133e da0e 8dbe 529d 8ebe c845 343e
00000150: c2f7 8cbe e35c ac3c af23 453e d531 03bd
00000160: 73e2 863d 0d36 4bbe 3103 163e b79b d63d
00000170: 43d1 1abe 5cd5 463d 7357 26be 913c 97be
00000180: 98a6 91bd 9897 36be bbd8 923e 5a10 8fbe
00000190: 378f e2bd b688 de3d b55e 823b 6ec1 263e
000001a0: 6cb4 66be ead0 383c 7217 56be 0946 8f3e
000001b0: 448e 3d3d 7523 243e 08b1 25bc a76a af3d
000001c0: e0fd 733e cb74 8e3d 4300 cd3d 6c1e 953d
000001d0: 2aa2 1abd 79c3 99bd b13c 7fbe f8c7 8a3e
000001e0: 9a1a 4b3e 5b7c 41bd 9259 d53d d589 833e
000001f0: c2ff c2bd f0bf 85be 37d9 5a3e 6853 5f3d
00000200: ca91 493d 1c2f c53c e853 86bd 672c 3c3e
00000210: 5798 543d 717b 303e 0464 7b3d 5be8 f9bc
00000220: 8082 cc3c d103 1d3e d79c 6abe 3eb2 583e
00000230: b484 263e d41e 8b3e 4fba 3ebe e4c6 88be
00000240: a27d 873e 47cc 96be c70b e6bd a1d2 613e
00000250: 6a19 143e 5fb5 bb3c f34a 01be 0f81 e43d
00000260: 8439 edbc f877 fd3d 6c08 98be d959 9b3d
00000270: 5bdc 3abe cc60 503e d56c 52bd 1f2a f33d
00000280: dfff 8e3e 7dea 3ebe 3e42 673e 7e63 c8bd
00000290: 0777 8dbd 7a2a ae3d be1a a1bd 196b 5f3e
000002a0: c139 78bd dd67 7f3e a46d 713e 2d5e 103d
000002b0: 6c74 803e 2f54 c5bd d1af dcbd d122 393e
000002c0: 76e5 9f3d f80f 94be 3287 15be 5ab1 913e
000002d0: 4a24 1f3e 7c94 cd3d 14ae 3abe 5b0d 013e
000002e0: 0abe b23c bd0b 713e 4f25 4abd b61b 803d
000002f0: 4fd9 933d c0aa b1bc a000 8e3e 2800 263d
00000300: efcd 81be 2430 1e3e 66f5 5c3e 8b46 cfbd
00000310: d6fd 82be 28bb d23d 13e5 843c 7c0b 3abd
00000320: e7e7 813e a61e 8abd bfd5 79be 4c10 34bd
00000330: 0df5 113c 569e 6abe 3fb3 7dbe a854 243e
00000340: 3399 b3bd bf01 8cbe 4baa 903a 7544 093e
00000350: de28 80be 53fb 613e dba5 8d3e 80bb 6a3e
00000360: 84bd 003e 6020 a93d 162e 26bb 2470 753d
00000370: 2ccf 713d 65d9 053d e7cd 91be 080e 24be
00000380: b120 993d 7d21 683c 380d fc3c 2aeb 21be
00000390: 7e7d 963e c1d1 7e3e 916f 63be ace0 d9bd
000003a0: c791 61bd 99bd b5bd 086b 4cbd a17a 82bc
000003b0: 1a46 d8bd 896f f9bd 583a 4c3e 67a1 863e
000003c0: 90a9 4bbe 0d8e 68be 4a0e 80be 7800 763d
000003d0: a453 88be 3aff 91bd 4a84 da3d 830a 64be
000003e0: 5fca 80be 7ea1 8c3e 701a 893e ad20 a33d
000003f0: 4413 79be e854 19be 547d 90be 7b3a 21be
-0.21172981 0.2629848 0.28752074 0.15720879 0.292131 0.12639543 0.05289448 0.08616025
0.14693196 0.08859252 0.07569172 -0.27134207 -0.22248222 0.086077176 0.12524116 -0.06751439
0.089210436 -0.04043291 0.16455613 -0.014031952 -0.15764982 0.2743823 0.15041429 -0.10908221
0.27900302 0.27697942 0.28335413 0.28120115 -0.20250103 -0.28789786 -0.16760083 0.15052383
0.08366838 0.2695482 0.1252947 -0.28246853 0.28773338 -0.18465094 -0.07297188 0.010935203
-0.2324772 -0.20776986 0.016098399 -0.26427943 -0.24824055 0.2815884 0.03856919 0.1539133
0.07507264 0.048553128 0.065809906 -0.12939017 0.063672855 0.22632524 0.17796737 -0.08770634
0.012678601 0.14688303 -0.15693304 0.0006385918 -0.033496715 0.08401735 -0.12721826 0.06249542
0.25219864 -0.2030887 -0.088431336 -0.017475653 0.25685552 -0.2771533 -0.23578136 0.043089297
-0.13118374 0.28790423 -0.1977678 0.1717607 -0.25323007 0.28678226 -0.27387437 -0.14210549
0.14380728 -0.27550393 -0.278544 0.17604744 -0.27532774 0.021040386 0.19251893 -0.032029945
0.065861605 -0.19844837 0.14649655 0.10478919 -0.1511889 0.04854332 -0.16244297 -0.29538396
-0.07111853 -0.17831266 0.28680977 -0.27942163 -0.11062472 0.10865919 0.003978575 0.16284725
-0.22529763 0.011280278 -0.20907381 0.2798312 0.046278253 0.16029151 -0.010113008 0.08565264
0.23827314 0.0695587 0.100098155 0.07281193 -0.037752308 -0.075079866 -0.24925496 0.2710569
0.19834366 -0.047237735 0.10417475 0.25691095 -0.09521438 -0.26123 0.21371923 0.0545229
0.0492113 0.024070315 -0.065589726 0.18376313 0.051903095 0.17234589 0.06137468 -0.030506304
0.024964571 0.15333487 -0.22911392 0.21161744 0.1626156 0.27171957 -0.18625759 -0.26714242
0.26463038 -0.29452726 -0.11232715 0.22053005 0.1446282 0.022913633 -0.12626247 0.111574285
-0.02895809 0.12376398 -0.29693925 0.075854965 -0.18248121 0.20349425 -0.05137332 0.11873268
0.2792959 -0.18644138 0.22583863 -0.09784602 -0.06907468 0.085041955 -0.07866429 0.21818198
-0.060601953 0.24941964 0.23576981 0.035246063 0.25088823 -0.09635197 -0.10775722 0.18079688
0.07807438 -0.28918433 -0.14602354 0.2845562 0.15541187 0.10038087 -0.18230468 0.12602751
0.021819133 0.23539634 -0.049351986 0.062552854 0.07219183 -0.021687865 0.27734852 0.040527493
-0.25352427 0.15448052 0.21577987 -0.10120877 -0.25584286 0.102896035 0.016222512 -0.04542111
0.2537224 -0.06744127 -0.24397944 -0.043960854 0.008908522 -0.22911963 -0.24775408 0.16047919
-0.08769455 -0.27345082 0.0011037079 0.1340502 -0.2503118 0.22068529 0.276656 0.22923088
0.12572294 0.08258128 -0.002535706 0.0599214 0.059035465 0.032678027 -0.28477404 -0.16020977
0.074769385 0.0141681405 0.030768022 -0.15812364 0.29392618 0.24884702 -0.22210528 -0.10638556
-0.055070665 -0.088740535 -0.04990676 -0.015927615 -0.10560246 -0.12179477 0.19944131 0.26295015
-0.19888902 -0.22710438 -0.25010902 0.06005904 -0.26626313 -0.07128759 0.106697634 -0.22269635
-0.25154397 0.2746696 0.26777983 0.07965217 -0.24323756 -0.14973795 -0.28220618 -0.15744965

layers.0.bias f4 [64]
00000000: 0000 0000 0000 0000 0000 0000 0000 0000
00000010: 0000 0000 0000 0000 0000 0000 0000 0000
00000020: 0000 0000 0000 0000 0000 0000 0000 0000
00000030: 0000 0000 0000 0000 0000 0000 0000 0000
00000040: 0000 0000 0000 0000 0000 0000 0000 0000
00000050: 0000 0000 0000 0000 0000 0000 0000 0000
00000060: 0000 0000 0000 0000 0000 0000 0000 0000
00000070: 0000 0000 0000 0000 0000 0000 0000 0000
00000080: 0000 0000 0000 0000 0000 0000 0000 0000
00000090: 0000 0000 0000 0000 0000 0000 0000 0000
000000a0: 0000 0000 0000 0000 0000 0000 0000 0000
000000b0: 0000 0000 0000 0000 0000 0000 0000 0000
000000c0: 0000 0000 0000 0000 0000 0000 0000 0000
000000d0: 0000 0000 0000 0000 0000 0000 0000 0000
000000e0: 0000 0000 0000 0000 0000 0000 0000 0000
000000f0: 0000 0000 0000 0000 0000 0000 0000 0000
0.0 0.0 0.0 0.0 0.0 0.0 0.0 0.0
0.0 0.0 0.0 0.0 0.0 0.0 0.0 0.0
0.0 0.0 0.0 0.0 0.0 0.0 0.0 0.0
0.0 0.0 0.0 0.0 0.0 0.0 0.0 0.0
0.0 0.0 0.0 0.0 0.0 0.0 0.0 0.0
0.0 0.0 0.0 0.0 0.0 0.0 0.0 0.0
0.0 0.0 0.0 0.0 0.0 0.0 0.0 0.0
0.0 0.0 0.0 0.0 0.0 0.0 0.0 0.0

layers.2.weight f4 [64, 64]
00000000: fb73 2abe 3a28 59bd c60b 8c3d 3fe6 c13d
00000010: 4a2c 39be df1e 5cbe 0df6 9a3d 7bfd 05bd
00000020: b63c 0f3e 5352 23bd 6a85 eabd b92a 97bc
00000030: b042 5a3d 1701 34be 979d 453e a47f f03d
00000040: de41 1cbe acd7 433d d2ba 493e 444f 0ebe
00000050: 3818 6b3c ec2f 04be 4e8a 36be 2e3b d3bd
00000060: a029 0c3d 7455 02be 471f 1ebe 77e3 59be
00000070: 2265 ccbd 4135 75bd ab52 33be e3bf 2f3e
00000080: b8a8 e5bd ea8b fd3d c5e2 7abd 845e f3bc
00000090: cf17 38be ac4a 47be 3cce 1ebd 28e1 2e3d
000000a0: 9942 5b3d 8daf f23d d6d2 d43d f87c 0abd
000000b0: c1aa 1f3e 73bc 80bd a891 36bb fcef 533e
000000c0: 6b03 d3bc 3a92 ac3c ab8a 1dbe 83b0 d0bc
000000d0: 7a2f 1ebe b5ef e8bd 81af 42be 68d4 423e
000000e0: e449 8bbd 4f3d 86bd 3f28 02be a860 41be
000000f0: ebb7 e6bd 7c66 203d 44da 03be c96c d8bd
00000100: d15a 723d 4266 f6bd 072b 443d 4bcf febd
00000110: 0946 a0bd c65c 1dbe 3596 d8bd 5109 563d
00000120: 42a5 813d 8232 38be f326 15bc ca87 1f3e
00000130: 53c2 c7bd d952 ac3c c359 1d3d 88d8 cfbd
00000140: dc8a bfbd f6c6 623d 4109 e13d e665 dd3a
00000150: 3b7b 5c3e e357 353d bfd6 ad3d af88 10be
00000160: 781f f03d 43de 1f3e b8b1 53be 83dd 243e
00000170: 7d16 1b3e 98ef f93d aa8c 263e 0260 043d
00000180: e631 143e 442c d53d a11a 4abd d28c 56be
00000190: 3a7d 1c3d 5dda 4dbe 9fd3 39be ea92 cabd
000001a0: fc2d d03d 2156 5f3b 0159 9f3d 4362 183e
000001b0: 9335 94bd 16be c63d fe9f 19be c3c6 953d
000001c0: 2007 1ebe f7c8 4ebe 58f0 d13d 33f5 2bbe
000001d0: b5d1 ffba 1601 0fbd b161 db3c 964d 013e
000001e0: c87c 39be dae1 323e db70 82bd 27d9 283e
000001f0: e872 063e ae34 2bbd f6b5 193e e906 563e
00000200: 5bfa 1abc e0a8 f9bd 6a86 17bd c90a 03be
00000210: dcee 2d3d 774f 23be 0651 513e 5be3 98bd
00000220: e221 54be 6432 54be d2b7 a2bb 38a2 40be
00000230: 63cd 0f3d 9572 433e f917 3d3e 6f3f 213e
00000240: db26 afbd 520f 033e fe3c 0dbb b449 7dbd
00000250: 48ad b73c 1d9c 583e 3bbf 9c3c b1ab 03be
00000260: 46d5 f4bd 0df8 a93d f8c9 49be 6afd a7bc
00000270: 5a07 f23b fdaa 82bc c936 18be 87b2 1bbe
00000280: b0a2 c7bd b34d b03d 1961 c1bd 58be a73d
00000290: 95a6 373e 70a2 cb3d 856f 30be 1804 30be
000002a0: 3ab1 6cbd 462b d7bd a287 00bd be6d 11be
000002b0: 5f50 ff3d 01de fcbd a8cd 71bc 2210 4c3e
000002c0: 0b59 1fbe 4a2b 823d 43d3 9f3d 46d5 f6bc
000002d0: 5ceb 483d 7d31 56be 77fe 87bd 0204 2e3e
000002e0: 21b3 8b3d 6e55 bebd fc34 db3d a3a6 3cbe
000002f0: 4310 d1bc 9710 a6bc 862b 60bd 744d b23d
00000300: f5a6 50bd 2c60 433e e18b 973c 29ec dbbd
00000310: a5e8 93bd d9cf b83d 0396 b0bd 2a85 41be
00000320: f9b9 273c b1f7 02be 04cf 38be f703 03be
00000330: 827c 313d 8ddf f0bc a8e3 2abe 7386 00be
00000340: c79b e7bd aac1 4abc 9270 ca3d 02b7 fabd
00000350: 4da2 e7bd 0b51 c8bc 0e49 fd3a 5ec8 0ebe
00000360: 2242 dabd 7554 4a3e cff3 9d3d 93fd a4bb
00000370: d3d1 c03d 5978 50be a984 f83d 0cfb 953d
00000380: 113a f93d 9587 4dbe 18e6 0c3e bf3d 523c
00000390: 7687 d6bd 2e0f 2e3e 726d cabc 55fb aabd
000003a0: ff9f 4c3e 9ebb 233e 13b4 e33d b794 743d
000003b0: f576 a1bd 730b 523e 9328 1f3d 2de6 8cbc
000003c0: 9e51 37bd 1836 49be cdf3 823d a6e4 ae3b
000003d0: e9e9 fc3d c418 d0bd a0ce 213e 1f17 173e
000003e0: c745 51be bcf9 303e 9d05 f8bd b5eb 11bd
000003f0: 34f6 dbbd e66a b53d c9f1 743d b47f 53be
-0.16645806 -0.05301688 0.06838183 0.09467744 -0.18083301 -0.21496151 0.07566462 -0.03271244
0.13988003 -0.039873432 -0.11451228 -0.018452989 0.053286254 -0.1757854 0.19298397 0.117430955
-0.15259501 0.047813103 0.19700173 -0.13897425 0.014349036 -0.12908906 -0.17826197 -0.10314022
0.034219384 -0.1272791 -0.15441619 -0.21278177 -0.09980227 -0.05986524 -0.17512004 0.17163043
-0.11213821 0.12380202 -0.06125142 -0.029708154 -0.17977832 -0.19462079 -0.0387709 0.042695194
0.05353031 0.1184989 0.10391776 -0.033810586 0.15592481 -0.06285944 -0.0027857814 0.20697016
-0.025758466 0.02106582 -0.15384929 -0.025474792 -0.15447798 -0.113738455 -0.19012262 0.19026339
-0.06801203 -0.065546624 -0.12710665 -0.18884528 -0.11265548 0.039160237 -0.1287623 -0.10567624
0.05916864 -0.12031223 0.047892597 -0.12441882 -0.07825858 -0.15367422 -0.10575525 0.05225498
0.063303486 -0.17988017 -0.0091035245 0.15579143 -0.09753861 0.021035599 0.03841568 -0.10148722
-0.09352657 0.055365525 0.10988093 0.001689133 0.21531384 0.04427327 0.08488225 -0.1411464
0.11724752 0.1561213 -0.20673263 0.16100125 0.15145297 0.12203902 0.16264597 0.032318123
0.1447216 0.104088336 -0.0493418 -0.20952156 0.038205363 -0.2010283 -0.18147133 -0.09891303
0.10165021 0.0034078436 0.07780648 0.14881234 -0.07236781 0.09704225 -0.15002438 0.073133014
-0.15432405 -0.2019385 0.1025092 -0.16792755 -0.0019517454 -0.034913145 0.026779981 0.12627253
-0.18114007 0.17468968 -0.06369182 0.16489087 0.13129771 -0.041798286 0.15010819 0.20901074
-0.009459103 -0.121904135 -0.03699342 -0.12797083 0.042464122 -0.15948282 0.20441064 -0.074652396
-0.2071605 -0.20722347 -0.0049657607 -0.18811882 0.03510798 0.19086678 0.18466176 0.15746854
-0.08552333 0.12798813 -0.0021551247 -0.061837867 0.022421494 0.21153302 0.019134155 -0.12858464
-0.11954741 0.08299265 -0.19705951 -0.02050658 0.0073861303 -0.015950674 -0.14864649 -0.15204822
-0.09747827 0.0860857 -0.09442348 0.08190602 0.1793464 0.09943092 -0.17230041 -0.17189062
-0.057786204 -0.10506301 -0.03137935 -0.1420202 0.124665014 -0.123470314 -0.014758505 0.19928029
-0.15561311 0.06355913 0.07803967 -0.030130994 0.04905258 -0.20917316 -0.06640332 0.16993716
0.068212755 -0.09293638 0.10703465 -0.18422942 -0.02552045 -0.020271583 -0.054729007 0.08706179
-0.050940473 0.19079655 0.018499317 -0.10738403 -0.07222108 0.09024019 -0.086223625 -0.18898454
0.01023721 -0.127898 -0.1804772 -0.12794481 0.04333163 -0.029403472 -0.16688406 -0.12551288
-0.11309009 -0.012375275 0.09884752 -0.12241937 -0.11310253 -0.024452707 0.001932414 -0.13943622
-0.10657145 0.1975878 0.077125184 -0.005035111 0.09415021 -0.20358409 0.12134678 0.07323274
0.121692784 -0.20071252 0.13759649 0.012832104 -0.10475056 0.16997978 -0.02471039 -0.08348719
0.19982909 0.15989539 0.11118331 0.059712138 -0.078840174 0.2051218 0.038857054 -0.0171996
-0.04475557 -0.19649541 0.063941576 0.0053373156 0.12349302 -0.10160974 0.15801477 0.14754914
-0.20436774 0.17282766 -0.12110446 -0.03562518 -0.10740319 0.0885828 0.059800897 -0.20654184

layers.2.bias f4 [64]
00000000: 0000 0000 0000 0000 0000 0000 0000 0000
00000010: 0000 0000 0000 0000 0000 0000 0000 0000
00000020: 0000 0000 0000 0000 0000 0000 0000 0000
00000030: 0000 0000 0000 0000 0000 0000 0000 0000
00000040: 0000 0000 0000 0000 0000 0000 0000 0000
00000050: 0000 0000 0000 0000 0000 0000 0000 0000
00000060: 0000 0000 0000 0000 0000 0000 0000 0000
00000070: 0000 0000 0000 0000 0000 0000 0000 0000
00000080: 0000 0000 0000 0000 0000 0000 0000 0000
00000090: 0000 0000 0000 0000 0000 0000 0000 0000
000000a0: 0000 0000 0000 0000 0000 0000 0000 0000
000000b0: 0000 0000 0000 0000 0000 0000 0000 0000
000000c0: 0000 0000 0000 0000 0000 0000 0000 0000
000000d0: 0000 0000 0000 0000 0000 0000 0000 0000
000000e0: 0000 0000 0000 0000 0000 0000 0000 0000
000000f0: 0000 0000 0000 0000 0000 0000 0000 0000
0.0 0.0 0.0 0.0 0.0 0.0 0.0 0.0
0.0 0.0 0.0 0.0 0.0 0.0 0.0 0.0
0.0 0.0 0.0 0.0 0.0 0.0 0.0 0.0
0.0 0.0 0.0 0.0 0.0 0.0 0.0 0.0
0.0 0.0 0.0 0.0 0.0 0.0 0.0 0.0
0.0 0.0 0.0 0.0 0.0 0.0 0.0 0.0
0.0 0.0 0.0 0.0 0.0 0.0 0.0 0.0
0.0 0.0 0.0 0.0 0.0 0.0 0.0 0.0

output_layer.weight f4 [2, 64]
00000000: bd1f f1bc 0655 553e 000c 94be d58e 513e
00000010: c7e3 75be e997 6c3e 7007 7a3e 3a16 0ebe
00000020: 7ac6 13be d152 93be 9431 73be 300d 2ebe
00000030: cbd6 c13d ffd4 723e d6f5 5b3e df20 263e
00000040: 9941 abbd 0199 1b3d 6f48 2dbe 81bc 533c
00000050: 79d8 333e 510c f43c 07fc 903d 6dcc 2c3d
00000060: dc6e 98bd 613b a23c b797 0ebe 8df3 f13d
00000070: 9416 efbd 6a11 923e 0967 82bb 991e 6b3d
00000080: 6bc0 8dbd 2202 9a3e 438e 253e 412f 603d
00000090: 5e0c 333e 4c52 0c3e 1f27 983d a802 223e
000000a0: 17c4 32be af70 57bd bf78 2cbe be1e 72be
000000b0: 6559 aa3a 882b 06bd baf6 ecbd 4725 1e3e
000000c0: f6df 7e3e d33b 143e 5d6d d73d c1ce 01be
000000d0: 5041 88be aac6 99be 6481 153e 77fa 82be
000000e0: 1253 dd3d 2927 0fbd 916d 593e d042 3abe
000000f0: 8f38 92bc 9020 21bc 58b6 7a3e e6e2 5cbe
00000100: 71cf 19be ac8d 78bd ea80 d2bd 33bf 403d
00000110: bfeb 353d fb3d 86bd 0705 98be a083 a0bd
00000120: 0a79 d33c d429 573d e296 82bd c852 e43d
00000130: 83f2 803e d5a2 83bd bd8b 92bd 8552 99bc
00000140: 6129 6cbe 99cd 7abd 103a 313e b34e a5bd
00000150: bbd1 3a3e 20fb 23be 68b4 4cbd c794 5cbd
00000160: ad20 82be c5c1 95bb d90c 04bc 0a3e 863e
00000170: f96f 35bc f458 2fbe c079 463e 8bf3 a1bc
00000180: 5bf0 753e cf6e 7fbe 8615 7dbe 7a44 63be
00000190: f9f7 dbbd 991d 6abe b342 69be a94b ab3d
000001a0: 4189 263d e552 46bb 61a4 91be 5dad 2dbe
000001b0: e20c 6f3e 5256 bb3c 23cb 8d3e 8e6c d7bd
000001c0: dd9f ae3d c0eb 553e 33f0 38be 4a38 6e3e
000001d0: 248a 2dbe 7aeb 11be a6b2 c93c 20c1 953e
000001e0: dbc6 893e bc6d 23be 06a4 4d3e 6489 92be
000001f0: 6ec8 06be 2af6 7cbe a59e 063e 3c0e 083e
-0.02943408 0.20833215 -0.28915405 0.20464642 -0.24012671 0.23104824 0.244169 -0.13875666
-0.14431182 -0.2877412 -0.23749381 -0.16997218 0.09464797 0.23714064 0.21480498 0.16223477
-0.08362121 0.037987713 -0.16922162 0.012923361 0.17563047 0.02979103 0.070793204 0.042187143
-0.0744302 0.019803705 -0.13925062 0.11814032 -0.11674228 0.2852891 -0.003979568 0.057402227
-0.069214664 0.30079752 0.1616755 0.054732565 0.17485186 0.13703269 0.07429337 0.15821326
-0.17457615 -0.052597698 -0.16842936 -0.2364454 0.0012996612 -0.03275636 -0.11570497 0.15443908
0.24890122 0.14475946 0.10518906 -0.12676527 -0.2661233 -0.3003438 0.1460014 -0.25581715
0.1080686 -0.034949455 0.21233203 -0.1818955 -0.017849235 -0.009834424 0.24483621 -0.2157093
-0.15020539 -0.060681984 -0.10278495 0.04705734 0.044414278 -0.065547906 -0.29691336 -0.078376055
0.025814552 0.052530125 -0.06376435 0.11148602 0.25185022 -0.06427542 -0.07155559 -0.018716106
-0.2306266 -0.06123123 0.17307305 -0.08071651 0.18244068 -0.16013765 -0.049976736 -0.053852823
-0.25415555 -0.0045702183 -0.008059704 0.26219207 -0.01107406 -0.17123777 0.19382381 -0.01976945
0.2401747 -0.24944614 -0.24715242 -0.2219409 -0.107406564 -0.22862853 -0.2277935 0.083640404
0.04065824 -0.0030261811 -0.28445724 -0.16960664 0.23344758 0.02286831 0.27694044 -0.10518752
0.08526585 0.20890713 -0.18060379 0.2326366 -0.16947228 -0.14249983 0.024621319 0.29248905
0.26909527 -0.15959829 0.20082101 -0.28620446 -0.13162395 -0.24703279 0.13146456 0.1328668

output_layer.bias f4 [2]
00000000: 0000 0000 0000 0000
0.0 0.0

layers.0.weight f4 [64, 4]
00000000: d001 a0bc df75 6dbe 99ad 793e 0817 55be
00000010: 9092 62be e029 3bbd 33d2 3c3e e817 913e
00000020: aadb edbd 3b15 723e 8130 ca3d c7c9 01bd
00000030: 8dd6 5abc bf95 50be c711 653e 56f8 09be
00000040: 486c 86bd d711 a9bd 8841 39bd 5d7f 223e
00000050: 913b 2b3e 5782 3abe ad8b 203d 5ede 4539
00000060: c8cb ffbc a7ea 73be 495a 4dbe 4737 bb3c
00000070: 0031 60be e742 183e 31bf 2fbe 9bf3 833e
00000080: ef3e 0a3e 14d4 193e 0ba6 d4bc 1a62 0dbd
00000090: 7c42 7c3e c809 4e3e 7196 e0bd 7be1 91be
000000a0: 5e00 54bb 3eda f53d b7eb abbc 7240 023e
000000b0: 81b0 473d fa61 753e 5817 8f3e 822a 7ebc
000000c0: ef80 53be beb8 e23c 5b4f 393e 0892 8f3e
000000d0: 9ee5 933d 6f46 49be e091 b1bb d62b 863e
000000e0: b36b 25be dd23 81be 7a97 f63c 5084 b3ba
000000f0: a1b2 593d 0723 643e 3b33 6f3d 7b6a 60be
00000100: bf13 773e 8f54 943e 9ca8 4d3d 2698 2cbb
00000110: 44b8 c1bd 4a6c 93be 50ca 56bc bc38 2ebe
00000120: f00a cc3b 0876 913e cd4f 913e b8b6 c83c
00000130: d860 d6bd a523 8dbe 75a7 87be f50c f83d
00000140: 35f9 e6bd 2c5a edbd 400c 8a3e 3381 4f3e
00000150: 6a98 ffbd 5eb0 563e 5242 6bbd e388 923d
00000160: bd49 0abd 7254 103d 5e72 823d cac6 48be
00000170: 1467 3f3e 405f 5abd 3711 473c fa10 1ebe
00000180: e812 95be 6e5c 13be 89b3 383e 48fc 75be
00000190: 4ffc c63d 5617 623d 3c59 2d3e e003 bf3c
000001a0: b555 ea3d 9c15 fd3d 9105 34be 02f6 6dbe
000001b0: a6a3 73be 3ac5 333e 22be dbbd f4e1 00be
000001c0: 8970 2a3d 6829 70bd 79af fe3d aede 78be
000001d0: 57ca 99bd e217 81bc a45b 623e 8692 683e
000001e0: d09f 93be e53f f43d 70aa c0bd af31 57bc
000001f0: 412e 363e 3a5b 2fbd 9d7b 78be 3fc0 7ebe
00000200: 8c46 f8bd ba30 823e 3604 76be dc97 0fbe
00000210: 49ea 483e 1b78 8b3e a3ae 773e 629a 00be
00000220: 8af5 0a3d 2c9f 82be 0a1e 743e 4b40 96be
00000230: 3972 653e 2c66 17be d251 923e 06a0 1e3e
00000240: fbcb 473e 7754 8dbe c6f7 98bd 0fe8 40bd
00000250: 5e2b 8abe ae98 873e c59f 12be de68 183e
00000260: b884 b4bd 5480 0dbd 8efc 25be 7229 553e
00000270: 796c 153e b028 06be 51e8 d03d 5b54 153e
00000280: 0ab7 0d3e 3e27 cfbd fe38 9f3d eaec 0dbe
00000290: 01df 503e e2bb 6a3e 62e5 c03d c189 cd3c
000002a0: ac5d 183e 3ffb 4f3e 4fb9 013e 2ab0 75be
000002b0: bd60 933e 65b8 953e 0056 87bd 401a 633e
000002c0: 1a50 9bbd d6ff 113e f027 b73d 07eb bbbd
000002d0: 5cd8 133e 3b1a 733d 8db4 27bc 4b17 95bd
000002e0: 8ec5 523e 279f 25be 6305 5c3c 3c90 b33d
000002f0: bb7e 803e da40 4a3e a99f 96be a239 8a3e
00000300: 9a7a 7dbe 148f 81be 674d 1f3e 7e36 a23c
00000310: 7994 5b3e d043 473e ed89 8dbd f632 583e
00000320: 39f1 92bd 5d13 dd3d 56d6 843d 5059 273e
00000330: 752b febd f56e 1d3e 1cec 21be 22f0 2b3d
00000340: a0a0 893d 5e7d cebd 7b05 a23d 5a0b 90be
00000350: 7058 4abe 2c38 4a3d 7894 e73d 2ef4 e53d
00000360: d97f 4b3d 9c8d 6f3e 086b 473d 3eb1 843e
00000370: 98fa 8cbe 8788 e33c e13e 53bd a42a 34be
00000380: 193c fcbd 70a6 e7bc 1c3c b43d 4981 fdbd
00000390: 6753 91be e7ec 2e3e 976b 8abe 2eed 2e3e
000003a0: 51ba 273e 104b 873e 13f0 073d 7ebf 503e
000003b0: 5dbc 6abe 89b0 36be 84ce 00be 3c8a 99bd
000003c0: a3e2 88be cecf a23d 18b0 69be 8e11 423e
000003d0: 9021 8f3d 4074 02be a772 793e 81fe 643d
000003e0: 2b70 2f3e daaf 6c3e 1660 3abe 4e42 073c
000003f0: fb11 893e 039b 743e b198 953e 1f70 dbbc
-0.019532114 -0.23189496 0.24382629 -0.20809567 -0.22126222 -0.045694232 0.1843956 0.28338552
-0.11614163 0.23640911 0.09872533 -0.03168657 -0.013356817 -0.20369624 0.22370063 -0.13473639
-0.06563622 -0.08255356 -0.04522851 0.15868898 0.16721942 -0.18213783 0.039195705 0.00018870222
-0.0312251 -0.23819982 -0.20053972 0.022853507 -0.21893692 0.14869271 -0.17162777 0.25771794
0.1350057 0.15022308 -0.025958082 -0.034517385 0.24634737 0.20120919 -0.109661944 -0.2849234
-0.0032348852 0.12004517 -0.020986421 0.12719896 0.04875231 0.23963156 0.27947497 -0.015513064
-0.20654653 0.027675983 0.18096678 0.280411 0.072215304 -0.19655775 -0.005419001 0.2620532
-0.16154365 -0.25222674 0.030101527 -0.0013696048 0.05314887 0.22278987 0.058398467 -0.21915619
0.24128626 0.28970763 0.050209627 -0.0026335805 -0.09458974 -0.28793555 -0.0131097585 -0.1701383
0.00622689 0.28410363 0.28381196 0.02450119 -0.1046769 -0.27566257 -0.26494947 0.12111846
-0.11278001 -0.115894645 0.2696247 0.2026413 -0.124802426 0.20965716 -0.057436295 0.07155015
-0.03376173 0.035236783 0.0636947 -0.19607082 0.18691665 -0.053313494 0.0121501 -0.15436164
-0.29115987 -0.14390728 0.18037237 -0.24022019 0.09716093 0.055198036 0.16928571 0.023317277
0.114421286 0.12357637 -0.17580248 -0.23238376 -0.23792896 0.17555705 -0.10729624 -0.12586194
0.04161123 -0.058633238 0.124358125 -0.24303696 -0.075092964 -0.015758459 0.2210527 0.22712144
-0.28832865 0.119262494 -0.094075084 -0.013134404 0.17791082 -0.04281161 -0.24265905 -0.24878024
-0.12122831 0.254278 -0.24025044 -0.14022774 0.19620623 0.2724007 0.24187712 -0.12558892
0.03392557 -0.25512064 0.23839584 -0.29345927 0.22406854 -0.14785069 0.2857805 0.15490732
0.19511406 -0.27603504 -0.07469134 -0.04709631 -0.26986212 0.26483673 -0.1431876 0.14883754
-0.088143766 -0.03454621 -0.16209623 0.20816591 0.1459216 -0.13101459 0.10200561 0.1458296
0.13839355 -0.10114907 0.07774542 -0.13859907 0.20397569 0.22923234 0.09418751 0.0250901
0.14879483 0.20310687 0.12668346 -0.23992983 0.28784743 0.29242244 -0.066082 0.22177982
-0.075836375 0.1425775 0.08943164 -0.09175687 0.14438003 0.059351187 -0.010235918 -0.072798334
0.20583174 -0.16173993 0.013429019 0.08767745 0.25096688 0.19751301 -0.29418686 0.26997095
-0.247538 -0.25304472 0.1555687 0.019801375 0.21443357 0.19459462 -0.06911073 0.2111319
-0.07174916 0.10794709 0.06486194 0.16342664 -0.124106325 0.15374358 -0.15812725 0.041977055
0.0672009 -0.10082506 0.079112016 -0.2813366 -0.19760299 0.049369976 0.11307615 0.11228214
0.049682472 0.23393863 0.048686057 0.25916475 -0.27534938 0.027775062 -0.051573638 -0.17594391
-0.1231615 -0.028277606 0.088005275 -0.12378175 -0.28383943 0.17082559 -0.2703521 0.17082664
0.16379668 0.26424456 0.033187937 0.20385548 -0.22923417 -0.1784078 -0.1257878 -0.07497069
-0.2673541 0.07949792 -0.2282108 0.18952009 0.069888234 -0.12739658 0.24360143 0.055906776
0.17132632 0.23113957 -0.18200716 0.008255554 0.2677153 0.23887257 0.29218057 -0.026786862

layers.0.bias f4 [64]
00000000: 0000 0000 0000 0000 0000 0000 0000 0000
00000010: 0000 0000 0000 0000 0000 0000 0000 0000
00000020: 0000 0000 0000 0000 0000 0000 0000 0000
00000030: 0000 0000 0000 0000 0000 0000 0000 0000
00000040: 0000 0000 0000 0000 0000 0000 0000 0000
00000050: 0000 0000 0000 0000 0000 0000 0000 0000
00000060: 0000 0000 0000 0000 0000 0000 0000 0000
00000070: 0000 0000 0000 0000 0000 0000 0000 0000
00000080: 0000 0000 0000 0000 0000 0000 0000 0000
00000090: 0000 0000 0000 0000 0000 0000 0000 0000
000000a0: 0000 0000 0000 0000 0000 0000 0000 0000
000000b0: 0000 0000 0000 0000 0000 0000 0000 0000
000000c0: 0000 0000 0000 0000 0000 0000 0000 0000
000000d0: 0000 0000 0000 0000 0000 0000 0000 0000
000000e0: 0000 0000 0000 0000 0000 0000 0000 0000
000000f0: 0000 0000 0000 0000 0000 0000 0000 0000
0.0 0.0 0.0 0.0 0.0 0.0 0.0 0.0
0.0 0.0 0.0 0.0 0.0 0.0 0.0 0.0
0.0 0.0 0.0 0.0 0.0 0.0 0.0 0.0
0.0 0.0 0.0 0.0 0.0 0.0 0.0 0.0
0.0 0.0 0.0 0.0 0.0 0.0 0.0 0.0
0.0 0.0 0.0 0.0 0.0 0.0 0.0 0.0
0.0 0.0 0.0 0.0 0.0 0.0 0.0 0.0
0.0 0.0 0.0 0.0 0.0 0.0 0.0 0.0

layers.2.weight f4 [64, 64]
00000000: 53ee d33d 1fbe 0fbd 0c94 d4bd 435b 9cbd
00000010: e69c 01bd 152e 65bd cc0c 443e fb14 563d
00000020: 7517 cebc 75e7 ad3d 3015 313e a2b4 38be
00000030: f1c7 13bd 9cbf df3d bda6 dabd f54f 4f3e
00000040: c136 88bd a63b 67bd 35d4 803d aeca 01be
00000050: fc00 ee3d a5b7 5bbd f9ca adbb 9489 e4bd
00000060: 0ae0 633d 0706 31bd ca24 5a3e d235 503e
00000070: 3685 cb3d 712f 263e 68cb 3d3d d7f4 1abe
00000080: 8a38 cb3d c59c 593e 72c9 5c3d d2ea 30be
00000090: fd36 5ebd 002c 78bd a72c 543d c363 033e
000000a0: 8b87 8bbc 5cb7 f7bb f5c0 17be 8aab ab3c
000000b0: 2236 2cbd bb00 53be 4286 2d3e b30f 8a3d
000000c0: 4362 b4bc 4f85 55be c158 16be 6b68 dbbd
000000d0: 674d 8c3d 540b 523e 2eaa b1bd 2837 113e
000000e0: ae5d fe3d 3ac4 6fbd a65a 94bd 204e 2cbe
000000f0: 9fe7 bd3d 3abb e7bc 39f5 d5bd cfe0 2abd
00000100: 81d3 363d fd49 a0bd 8bc9 50bd f575 4dbe
00000110: 39cf d4bd a234 34be e254 593d a1f2 a23d
00000120: a0a9 e53d 3ff5 b53d 2190 e2bd 67d5 7abc
00000130: 04b0 563e 12e7 1c3d 375f bc3d a6eb 0cbe
00000140: a729 0a3e 90b3 d1bd 0119 0f3e d6b9 58be
00000150: df84 e2bd a577 423e 3a98 403e 765f 0fbe
00000160: 9e1f 463e efc4 a5bd 444e 3d3e 00c3 af3c
00000170: 149b 57be a8e1 ef3d 64bf 27be 467f 183e
00000180: 6a67 c63c 928b ea3d 2c4d 79bd b27f 353e
00000190: db2a 40be 9f71 56be 9805 0dbd 3110 d3ba
000001a0: bc82 e5bd e234 d53d a25c f0bd cffb 083e
000001b0: 603d 86bd 88b8 5cbd cf30 96bd d8b8 cabd
000001c0: f6d6 eb3b c132 5abe b940 52bd 5573 41be
000001d0: e35b e83d b98c 373e f72e d6bd 4591 103e
000001e0: c323 1b3d db62 ffbd 5c58 163e c0d1 f0ba
000001f0: 9a2a 0fbd c4ba 673d 0a3c 8e3d 3208 51bd
00000200: c91b 483d 3e67 37bc d3e9 933c a7b3 ed3d
00000210: d6fd b2bc d13a 3dbe 1dab 80bc d565 90bd
00000220: 1be3 58bd 1963 d83d 5916 a73c b729 50be
00000230: bdd5 ce3d 2394 03be be80 173e d8e2 3dbe
00000240: eed9 e2ba b99f 88bd 414f 113c abf2 4fbe
00000250: 1d9c cfbd 86a4 6d3d 9e8d 15be 1bfa 52bb
00000260: 2f50 5a3e ea5e bb3d dbd0 fd3d ba31 393e
00000270: b836 05be 506a d3bc 9e98 16be e463 7ebd
00000280: b897 fe3d 7e9c 0ebe f1fd acba 948a 193e
00000290: c786 4d3d 0444 edbd 3dd9 1dbe 1adc 52be
000002a0: 65c4 9bbd bd57 00be 1d34 253e d1e6 cebc
000002b0: b75b a3bc 54be 003d bbc7 973d 8d67 39bd
000002c0: 017e eb3d 1a50 4a3e 20e1 52be 4904 133e
000002d0: b74f 52bd 5200 af3d 4707 a53d ced3 bcbd
000002e0: ac6f ebbd 060f 36be f436 e7bd b036 72bd
000002f0: 69bc 203e 467a 143e 809e 47be 8b35 f63d
00000300: 23f7 de3d 07d0 15be bebd 1cbd 5953 b43d
00000310: 3f2f 4abe 9fc1 81bd 24c9 47be 7a83 d5bd
00000320: 5967 e53d c86b 443e a800 56bc 5cf7 403d
00000330: 2c84 343d c3dd ddbd 53d5 1a3e e4d2 6cbd
00000340: e986 3dbd b1b3 1abe c0a8 54be 27d5 3f3e
00000350: 7e4a b8bd c3e5 40be ec68 bfbd 2088 51be
00000360: eff7 ffbd 61db ea3d 5230 2c3e d0d7 4bbe
00000370: 6437 303e 4483 2bbe 7307 3cbe 3880 1d3e
00000380: c7e3 abbd c347 da3d 1d81 fdbd 10c9 203e
00000390: a0ea 4fbe ab38 5dbe b25a 233e 576e dabc
000003a0: 8629 0bbe 1c07 27be 7199 313e 65b2 39be
000003b0: 787f b0bd 7062 0cbe 1d7b 5d3e b44b 0c3e
000003c0: 9db0 3f3e b48e 233e 77df ddbc 5eeb 20be
000003d0: 9142 62bd 77e2 08be d6fb d73d d5dc 403e
000003e0: af1c 37be 52af b9bd 05cf 733d 9e01 5b3d
000003f0: f6ba 15bd c86c b83d 0bad 193c d0d3 e43d
0.10348191 -0.035093423 -0.103798 -0.07634594 -0.03164377 -0.05595215 0.19145507 0.052266102
-0.02515767 0.084914126 0.17293239 -0.18037656 -0.03607935 0.109252185 -0.10676334 0.20245345
-0.066510685 -0.05645337 0.06290475 -0.12674972 0.116212815 -0.053641934 -0.0053037372 -0.111590534
0.055633582 -0.04321864 0.21303096 0.20333031 0.09937517 0.16229035 0.04633656 -0.15132461
0.09922893 0.21251209 0.05390305 -0.17277077 -0.05425166 -0.060588837 0.051800396 0.12831025
-0.017032405 -0.0075597 -0.14819701 0.02095582 -0.042043813 -0.20605747 0.16945747 0.06741276
-0.022019511 -0.20851634 -0.14682294 -0.107132755 0.06850701 0.20512134 -0.08675037 0.14181197
0.12420212 -0.058536746 -0.07243852 -0.16826677 0.09272694 -0.028287519 -0.10447163 -0.0417183
0.0446353 -0.07826612 -0.050973456 -0.20064528 -0.10391087 -0.17598203 0.053059466 0.07956434
0.11213994 0.088846676 -0.11062647 -0.015309668 0.20965582 0.038306303 0.09197848 -0.13761768
0.13492452 -0.10239327 0.13974382 -0.21164641 -0.110604994 0.18990953 0.1880807 -0.14001259
0.19347998 -0.08094203 0.18486887 0.021455288 -0.21055251 0.117129624 -0.16381603 0.14892301
0.024219234 0.11452402 -0.060864612 0.17724493 -0.18766348 -0.2094178 -0.034429163 -0.0016102848
-0.11206576 0.10410477 -0.11736418 0.13377307 -0.06554675 -0.05388692 -0.07333528 -0.098985374
0.007197256 -0.21308424 -0.051331256 -0.18891652 0.11345651 0.17924775 -0.104581766 0.14117916
0.037875902 -0.12470027 0.14682144 -0.0018373057 -0.034952737 0.056574598 0.06945045 -0.051033206
0.048854623 -0.011194048 0.018055832 0.116065316 -0.021849554 -0.18479468 -0.015706593 -0.07050673
-0.05295096 0.105657764 0.020396398 -0.20328413 0.10099361 -0.12849478 0.14795205 -0.18543565
-0.001730738 -0.0667109 0.008868993 -0.20307414 -0.10137198 0.05801823 -0.14604804 -0.0032192532
0.2131965 0.09148963 0.12393352 0.18085375 -0.13009155 -0.02580753 -0.14706656 -0.062106982
0.12431282 -0.13926885 -0.0013198239 0.1499427 0.05017736 -0.115852386 -0.15414901 -0.20591775
-0.07605819 -0.1253347 0.16133161 -0.025256546 -0.019941194 0.03143151 0.074111424 -0.04526477
0.11498643 0.19757119 -0.20593691 0.14357103 -0.051345553 0.08544983 0.08058029 -0.09220086
-0.11495909 -0.17779168 -0.11289778 -0.059134185 0.15696873 0.14499769 -0.19494057 0.12021931
0.10886981 -0.14630137 -0.03826689 0.0880496 -0.19744585 -0.063357584 -0.19510323 -0.10425468
0.112013526 0.1918174 -0.01306168 0.0471109 0.04407136 -0.10833313 0.15120439 -0.05781831
-0.04627124 -0.1510761 -0.20767498 0.18733655 -0.08998583 -0.18837647 -0.09346184 -0.20462084
-0.124984615 0.114676245 0.16815308 -0.19906545 0.1720863 -0.16749293 -0.18362217 0.15380943
-0.083930545 0.10658219 -0.12378142 0.157017 -0.20304346 -0.21603648 0.15952566 -0.026663942
-0.13590059 -0.16311306 0.1734369 -0.18134458 -0.08618063 -0.13709426 0.21628995 0.13700753
0.18719716 0.15972406 -0.027084095 -0.15714785 -0.055239264 -0.1336764 0.10546081 0.1883424
-0.17882036 -0.09066643 0.0595236 0.05346834 -0.036555253 0.090051234 0.009379636 0.111732125

layers.2.bias f4 [64]
00000000: 0000 0000 0000 0000 0000 0000 0000 0000
00000010: 0000 0000 0000 0000 0000 0000 0000 0000
00000020: 0000 0000 0000 0000 0000 0000 0000 0000
00000030: 0000 0000 0000 0000 0000 0000 0000 0000
00000040: 0000 0000 0000 0000 0000 0000 0000 0000
00000050: 0000 0000 0000 0000 0000 0000 0000 0000
00000060: 0000 0000 0000 0000 0000 0000 0000 0000
00000070: 0000 0000 0000 0000 0000 0000 0000 0000
00000080: 0000 0000 0000 0000 0000 0000 0000 0000
00000090: 0000 0000 0000 0000 0000 0000 0000 0000
000000a0: 0000 0000 0000 0000 0000 0000 0000 0000
000000b0: 0000 0000 0000 0000 0000 0000 0000 0000
000000c0: 0000 0000 0000 0000 0000 0000 0000 0000
000000d0: 0000 0000 0000 0000 0000 0000 0000 0000
000000e0: 0000 0000 0000 0000 0000 0000 0000 0000
000000f0: 0000 0000 0000 0000 0000 0000 0000 0000
0.0 0.0 0.0 0.0 0.0 0.0 0.0 0.0
0.0 0.0 0.0 0.0 0.0 0.0 0.0 0.0
0.0 0.0 0.0 0.0 0.0 0.0 0.0 0.0
0.0 0.0 0.0 0.0 0.0 0.0 0.0 0.0
0.0 0.0 0.0 0.0 0.0 0.0 0.0 0.0
0.0 0.0 0.0 0.0 0.0 0.0 0.0 0.0
0.0 0.0 0.0 0.0 0.0 0.0 0.0 0.0
0.0 0.0 0.0 0.0 0.0 0.0 0.0 0.0

output_layer.weight f4 [1, 64]
00000000: 222c 94be ee24 86be 3e60 81be 0f2b 963e
00000010: 97a0 5a3e a0fb 753e 5755 31be 1ff5 75be
00000020: d88e a1bd e34c 4e3c 0c6e 7abb 82e5 553e
00000030: c50e 403e 5a48 fcbd dfa7 5bbd 2562 04bd
00000040: 6edb 8dbe 12b1 f9bd f23f 433e 9bb2 8cbe
00000050: b018 9b3e aa81 62be 3750 013e 8188 ea3c
00000060: 4432 d3bd 99a6 ad3b 280c 0dbd ea6a 0b3e
00000070: 2afe 453e 031c 6bbd fdcd 983d dccd 14be
00000080: f77d 9b3e fd24 1dbe 0dd1 363e af63 843d
00000090: d039 db3c f2bc fabd 604c 20be a385 37bc
000000a0: 91ee 163e ff45 1a3e f69d 843d 2041 de3d
000000b0: 3968 ab3d 6724 493e a94b 793e dca8 09be
000000c0: 3532 67be 40e1 653e 6e95 ddbc e23b 813e
000000d0: e9b7 93be 07cd 19be a767 84be 15fd 403e
000000e0: 909e ee3d 44af 9dbd a1c4 683e b277 1bbe
000000f0: 0f7d 1dbe c702 19be 9b6a 5fbe 1b3a 6d3d
-0.2893992 -0.2620005 -0.2526874 0.29329726 0.21350323 0.24021769 -0.17317711 -0.24019288
-0.078885734 0.012591573 -0.0038212566 0.20888332 0.18755634 -0.123184875 -0.05362689 -0.03232016
-0.27706474 -0.121919766 0.19067362 -0.27480015 0.30292273 -0.22119775 0.12628256 0.028629543
-0.10312322 0.005299401 -0.03443542 0.13615003 0.19335237 -0.05739976 0.07461164 -0.14531654
0.3036954 -0.15346141 0.17853184 0.06464326 0.026760966 -0.1224307 -0.15654135 -0.011201295
0.14739443 0.15065764 0.06475441 0.10852265 0.08369488 0.19642793 0.24345268 -0.13443321
-0.22577746 0.22449207 -0.027048793 0.25241 -0.2885125 -0.15019618 -0.2586033 0.18846543
0.11651337 -0.07699445 0.22731258 -0.15182379 -0.15379737 -0.14942466 -0.2181801 0.05791674

weight f4 [64, 4]
00000000: b3cf 58be f2a5 863e eb35 933e 57fb 203e
00000010: 3292 953e ce6d 013e e2a7 583d c974 b03d
00000020: 5575 163e ff6f b53d 4304 9b3d 59ed 8abe
00000030: 61d2 63be 3b49 b03d 383f 003e fc44 8abd
00000040: f6b3 b63d fb9c 25bd 6781 283e 46e6 65bc
00000050: f46e 21be d67b 8c3e 3406 1a3e 7e66 dfbd
00000060: 7cd9 8e3e 3fd0 8d3e cb13 913e 99f9 8f3e
00000070: 6e5c 4fbe 5967 93be 8d9f 2bbe eb22 1a3e
00000080: 545a ab3d 3902 8a3e 414d 003e b79f 90be
00000090: ca51 933e 2315 3dbe 4872 95bd 9129 333c
000000a0: 810e 6ebe 9fc1 54be cae0 833c a24f 87be
000000b0: c532 7ebe 5b2c 903e bafa 1d3d 739b 1d3e
000000c0: afbf 993d a5df 463d 58c7 863d db7e 04be
000000d0: ea66 823d cec1 673e 143d 363e 629f b3bd
000000e0: e8b9 4f3c 8168 163e 0eb3 20be 2c67 273a
000000f0: da33 09bd 4a11 ac3d 8145 02be 33fb 7f3d
00000100: 2e20 813e 7cf6 4fbe 7d1b b5bd 1a29 8fbc
00000110: 9182 833e 0ae7 8dbe ab70 71be 677e 303d
00000120: 0855 06be 2f68 933e a483 4abe 09e2 2f3e
00000130: 5fa7 81be 20d5 923e 4339 8cbe 1a84 11be
00000140: 3742 133e da0e 8dbe 529d 8ebe c845 343e
00000150: c2f7 8cbe e35c ac3c af23 453e d531 03bd
00000160: 73e2 863d 0d36 4bbe 3103 163e b79b d63d
00000170: 43d1 1abe 5cd5 463d 7357 26be 913c 97be
00000180: 98a6 91bd 9897 36be bbd8 923e 5a10 8fbe
00000190: 378f e2bd b688 de3d b55e 823b 6ec1 263e
000001a0: 6cb4 66be ead0 383c 7217 56be 0946 8f3e
000001b0: 448e 3d3d 7523 243e 08b1 25bc a76a af3d
000001c0: e0fd 733e cb74 8e3d 4300 cd3d 6c1e 953d
000001d0: 2aa2 1abd 79c3 99bd b13c 7fbe f8c7 8a3e
000001e0: 9a1a 4b3e 5b7c 41bd 9259 d53d d589 833e
000001f0: c2ff c2bd f0bf 85be 37d9 5a3e 6853 5f3d
00000200: ca91 493d 1c2f c53c e853 86bd 672c 3c3e
00000210: 5798 543d 717b 303e 0464 7b3d 5be8 f9bc
00000220: 8082 cc3c d103 1d3e d79c 6abe 3eb2 583e
00000230: b484 263e d41e 8b3e 4fba 3ebe e4c6 88be
00000240: a27d 873e 47cc 96be c70b e6bd a1d2 613e
00000250: 6a19 143e 5fb5 bb3c f34a 01be 0f81 e43d
00000260: 8439 edbc f877 fd3d 6c08 98be d959 9b3d
00000270: 5bdc 3abe cc60 503e d56c 52bd 1f2a f33d
00000280: dfff 8e3e 7dea 3ebe 3e42 673e 7e63 c8bd
00000290: 0777 8dbd 7a2a ae3d be1a a1bd 196b 5f3e
000002a0: c139 78bd dd67 7f3e a46d 713e 2d5e 103d
000002b0: 6c74 803e 2f54 c5bd d1af dcbd d122 393e
000002c0: 76e5 9f3d f80f 94be 3287 15be 5ab1 913e
000002d0: 4a24 1f3e 7c94 cd3d 14ae 3abe 5b0d 013e
000002e0: 0abe b23c bd0b 713e 4f25 4abd b61b 803d
000002f0: 4fd9 933d c0aa b1bc a000 8e3e 2800 263d
00000300: efcd 81be 2430 1e3e 66f5 5c3e 8b46 cfbd
00000310: d6fd 82be 28bb d23d 13e5 843c 7c0b 3abd
00000320: e7e7 813e a61e 8abd bfd5 79be 4c10 34bd
00000330: 0df5 113c 569e 6abe 3fb3 7dbe a854 243e
00000340: 3399 b3bd bf01 8cbe 4baa 903a 7544 093e
00000350: de28 80be 53fb 613e dba5 8d3e 80bb 6a3e
00000360: 84bd 003e 6020 a93d 162e 26bb 2470 753d
00000370: 2ccf 713d 65d9 053d e7cd 91be 080e 24be
00000380: b120 993d 7d21 683c 380d fc3c 2aeb 21be
00000390: 7e7d 963e c1d1 7e3e 916f 63be ace0 d9bd
000003a0: c791 61bd 99bd b5bd 086b 4cbd a17a 82bc
000003b0: 1a46 d8bd 896f f9bd 583a 4c3e 67a1 863e
000003c0: 90a9 4bbe 0d8e 68be 4a0e 80be 7800 763d
000003d0: a453 88be 3aff 91bd 4a84 da3d 830a 64be
000003e0: 5fca 80be 7ea1 8c3e 701a 893e ad20 a33d
000003f0: 4413 79be e854 19be 547d 90be 7b3a 21be
-0.21172981 0.2629848 0.28752074 0.15720879 0.292131 0.12639543 0.05289448 0.08616025
0.14693196 0.08859252 0.07569172 -0.27134207 -0.22248222 0.086077176 0.12524116 -0.06751439
0.089210436 -0.04043291 0.16455613 -0.014031952 -0.15764982 0.2743823 0.15041429 -0.10908221
0.27900302 0.27697942 0.28335413 0.28120115 -0.20250103 -0.28789786 -0.16760083 0.15052383
0.08366838 0.2695482 0.1252947 -0.28246853 0.28773338 -0.18465094 -0.07297188 0.010935203
-0.2324772 -0.20776986 0.016098399 -0.26427943 -0.24824055 0.2815884 0.03856919 0.1539133
0.07507264 0.048553128 0.065809906 -0.12939017 0.063672855 0.22632524 0.17796737 -0.08770634
0.012678601 0.14688303 -0.15693304 0.0006385918 -0.033496715 0.08401735 -0.12721826 0.06249542
0.25219864 -0.2030887 -0.088431336 -0.017475653 0.25685552 -0.2771533 -0.23578136 0.043089297
-0.13118374 0.28790423 -0.1977678 0.1717607 -0.25323007 0.28678226 -0.27387437 -0.14210549
0.14380728 -0.27550393 -0.278544 0.17604744 -0.27532774 0.021040386 0.19251893 -0.032029945
0.065861605 -0.19844837 0.14649655 0.10478919 -0.1511889 0.04854332 -0.16244297 -0.29538396
-0.07111853 -0.17831266 0.28680977 -0.27942163 -0.11062472 0.10865919 0.003978575 0.16284725
-0.22529763 0.011280278 -0.20907381 0.2798312 0.046278253 0.16029151 -0.010113008 0.08565264
0.23827314 0.0695587 0.100098155 0.07281193 -0.037752308 -0.075079866 -0.24925496 0.2710569
0.19834366 -0.047237735 0.10417475 0.25691095 -0.09521438 -0.26123 0.21371923 0.0545229
0.0492113 0.024070315 -0.065589726 0.18376313 0.051903095 0.17234589 0.06137468 -0.030506304
0.024964571 0.15333487 -0.22911392 0.21161744 0.1626156 0.27171957 -0.18625759 -0.26714242
0.26463038 -0.29452726 -0.11232715 0.22053005 0.1446282 0.022913633 -0.12626247 0.111574285
-0.02895809 0.12376398 -0.29693925 0.075854965 -0.18248121 0.20349425 -0.05137332 0.11873268
0.2792959 -0.18644138 0.22583863 -0.09784602 -0.06907468 0.085041955 -0.07866429 0.21818198
-0.060601953 0.24941964 0.23576981 0.035246063 0.25088823 -0.09635197 -0.10775722 0.18079688
0.07807438 -0.28918433 -0.14602354 0.2845562 0.15541187 0.10038087 -0.18230468 0.12602751
0.021819133 0.23539634 -0.049351986 0.062552854 0.07219183 -0.021687865 0.27734852 0.040527493
-0.25352427 0.15448052 0.21577987 -0.10120877 -0.25584286 0.102896035 0.016222512 -0.04542111
0.2537224 -0.06744127 -0.24397944 -0.043960854 0.008908522 -0.22911963 -0.24775408 0.16047919
-0.08769455 -0.27345082 0.0011037079 0.1340502 -0.2503118 0.22068529 0.276656 0.22923088
0.12572294 0.08258128 -0.002535706 0.0599214 0.059035465 0.032678027 -0.28477404 -0.16020977
0.074769385 0.0141681405 0.030768022 -0.15812364 0.29392618 0.24884702 -0.22210528 -0.10638556
-0.055070665 -0.088740535 -0.04990676 -0.015927615 -0.10560246 -0.12179477 0.19944131 0.26295015
-0.19888902 -0.22710438 -0.25010902 0.06005904 -0.26626313 -0.07128759 0.106697634 -0.22269635
-0.25154397 0.2746696 0.26777983 0.07965217 -0.24323756 -0.14973795 -0.28220618 -0.15744965

bias f4 [64]
00000000: 0000 0000 0000 0000 0000 0000 0000 0000
00000010: 0000 0000 0000 0000 0000 0000 0000 0000
00000020: 0000 0000 0000 0000 0000 0000 0000 0000
00000030: 0000 0000 0000 0000 0000 0000 0000 0000
00000040: 0000 0000 0000 0000 0000 0000 0000 0000
00000050: 0000 0000 0000 0000 0000 0000 0000 0000
00000060: 0000 0000 0000 0000 0000 0000 0000 0000
00000070: 0000 0000 0000 0000 0000 0000 0000 0000
00000080: 0000 0000 0000 0000 0000 0000 0000 0000
00000090: 0000 0000 0000 0000 0000 0000 0000 0000
000000a0: 0000 0000 0000 0000 0000 0000 0000 0000
000000b0: 0000 0000 0000 0000 0000 0000 0000 0000
000000c0: 0000 0000 0000 0000 0000 0000 0000 0000
000000d0: 0000 0000 0000 0000 0000 0000 0000 0000
000000e0: 0000 0000 0000 0000 0000 0000 0000 0000
000000f0: 0000 0000 0000 0000 0000 0000 0000 0000
0.0 0.0 0.0 0.0 0.0 0.0 0.0 0.0
0.0 0.0 0.0 0.0 0.0 0.0 0.0 0.0
0.0 0.0 0.0 0.0 0.0 0.0 0.0 0.0
0.0 0.0 0.0 0.0 0.0 0.0 0.0 0.0
0.0 0.0 0.0 0.0 0.0 0.0 0.0 0.0
0.0 0.0 0.0 0.0 0.0 0.0 0.0 0.0
0.0 0.0 0.0 0.0 0.0 0.0 0.0 0.0
0.0 0.0 0.0 0.0 0.0 0.0 0.0 0.0

weight f4 [64, 64]
00000000: fb73 2abe 3a28 59bd c60b 8c3d 3fe6 c13d
00000010: 4a2c 39be df1e 5cbe 0df6 9a3d 7bfd 05bd
00000020: b63c 0f3e 5352 23bd 6a85 eabd b92a 97bc
00000030: b042 5a3d 1701 34be 979d 453e a47f f03d
00000040: de41 1cbe acd7 433d d2ba 493e 444f 0ebe
00000050: 3818 6b3c ec2f 04be 4e8a 36be 2e3b d3bd
00000060: a029 0c3d 7455 02be 471f 1ebe 77e3 59be
00000070: 2265 ccbd 4135 75bd ab52 33be e3bf 2f3e
00000080: b8a8 e5bd ea8b fd3d c5e2 7abd 845e f3bc
00000090: cf17 38be ac4a 47be 3cce 1ebd 28e1 2e3d
000000a0: 9942 5b3d 8daf f23d d6d2 d43d f87c 0abd
000000b0: c1aa 1f3e 73bc 80bd a891 36bb fcef 533e
000000c0: 6b03 d3bc 3a92 ac3c ab8a 1dbe 83b0 d0bc
000000d0: 7a2f 1ebe b5ef e8bd 81af 42be 68d4 423e
000000e0: e449 8bbd 4f3d 86bd 3f28 02be a860 41be
000000f0: ebb7 e6bd 7c66 203d 44da 03be c96c d8bd
00000100: d15a 723d 4266 f6bd 072b 443d 4bcf febd
00000110: 0946 a0bd c65c 1dbe 3596 d8bd 5109 563d
00000120: 42a5 813d 8232 38be f326 15bc ca87 1f3e
00000130: 53c2 c7bd d952 ac3c c359 1d3d 88d8 cfbd
00000140: dc8a bfbd f6c6 623d 4109 e13d e665 dd3a
00000150: 3b7b 5c3e e357 353d bfd6 ad3d af88 10be
00000160: 781f f03d 43de 1f3e b8b1 53be 83dd 243e
00000170: 7d16 1b3e 98ef f93d aa8c 263e 0260 043d
00000180: e631 143e 442c d53d a11a 4abd d28c 56be
00000190: 3a7d 1c3d 5dda 4dbe 9fd3 39be ea92 cabd
000001a0: fc2d d03d 2156 5f3b 0159 9f3d 4362 183e
000001b0: 9335 94bd 16be c63d fe9f 19be c3c6 953d
000001c0: 2007 1ebe f7c8 4ebe 58f0 d13d 33f5 2bbe
000001d0: b5d1 ffba 1601 0fbd b161 db3c 964d 013e
000001e0: c87c 39be dae1 323e db70 82bd 27d9 283e
000001f0: e872 063e ae34 2bbd f6b5 193e e906 563e
00000200: 5bfa 1abc e0a8 f9bd 6a86 17bd c90a 03be
00000210: dcee 2d3d 774f 23be 0651 513e 5be3 98bd
00000220: e221 54be 6432 54be d2b7 a2bb 38a2 40be
00000230: 63cd 0f3d 9572 433e f917 3d3e 6f3f 213e
00000240: db26 afbd 520f 033e fe3c 0dbb b449 7dbd
00000250: 48ad b73c 1d9c 583e 3bbf 9c3c b1ab 03be
00000260: 46d5 f4bd 0df8 a93d f8c9 49be 6afd a7bc
00000270: 5a07 f23b fdaa 82bc c936 18be 87b2 1bbe
00000280: b0a2 c7bd b34d b03d 1961 c1bd 58be a73d
00000290: 95a6 373e 70a2 cb3d 856f 30be 1804 30be
000002a0: 3ab1 6cbd 462b d7bd a287 00bd be6d 11be
000002b0: 5f50 ff3d 01de fcbd a8cd 71bc 2210 4c3e
000002c0: 0b59 1fbe 4a2b 823d 43d3 9f3d 46d5 f6bc
000002d0: 5ceb 483d 7d31 56be 77fe 87bd 0204 2e3e
000002e0: 21b3 8b3d 6e55 bebd fc34 db3d a3a6 3cbe
000002f0: 4310 d1bc 9710 a6bc 862b 60bd 744d b23d
00000300: f5a6 50bd 2c60 433e e18b 973c 29ec dbbd
00000310: a5e8 93bd d9cf b83d 0396 b0bd 2a85 41be
00000320: f9b9 273c b1f7 02be 04cf 38be f703 03be
00000330: 827c 313d 8ddf f0bc a8e3 2abe 7386 00be
00000340: c79b e7bd aac1 4abc 9270 ca3d 02b7 fabd
00000350: 4da2 e7bd 0b51 c8bc 0e49 fd3a 5ec8 0ebe
00000360: 2242 dabd 7554 4a3e cff3 9d3d 93fd a4bb
00000370: d3d1 c03d 5978 50be a984 f83d 0cfb 953d
00000380: 113a f93d 9587 4dbe 18e6 0c3e bf3d 523c
00000390: 7687 d6bd 2e0f 2e3e 726d cabc 55fb aabd
000003a0: ff9f 4c3e 9ebb 233e 13b4 e33d b794 743d
000003b0: f576 a1bd 730b 523e 9328 1f3d 2de6 8cbc
000003c0: 9e51 37bd 1836 49be cdf3 823d a6e4 ae3b
000003d0: e9e9 fc3d c418 d0bd a0ce 213e 1f17 173e
000003e0: c745 51be bcf9 303e 9d05 f8bd b5eb 11bd
000003f0: 34f6 dbbd e66a b53d c9f1 743d b47f 53be
-0.16645806 -0.05301688 0.06838183 0.09467744 -0.18083301 -0.21496151 0.07566462 -0.03271244
0.13988003 -0.039873432 -0.11451228 -0.018452989 0.053286254 -0.1757854 0.19298397 0.117430955
-0.15259501 0.047813103 0.19700173 -0.13897425 0.014349036 -0.12908906 -0.17826197 -0.10314022
0.034219384 -0.1272791 -0.15441619 -0.21278177 -0.09980227 -0.05986524 -0.17512004 0.17163043
-0.11213821 0.12380202 -0.06125142 -0.029708154 -0.17977832 -0.19462079 -0.0387709 0.042695194
0.05353031 0.1184989 0.10391776 -0.033810586 0.15592481 -0.06285944 -0.0027857814 0.20697016
-0.025758466 0.02106582 -0.15384929 -0.025474792 -0.15447798 -0.113738455 -0.19012262 0.19026339
-0.06801203 -0.065546624 -0.12710665 -0.18884528 -0.11265548 0.039160237 -0.1287623 -0.10567624
0.05916864 -0.12031223 0.047892597 -0.12441882 -0.07825858 -0.15367422 -0.10575525 0.05225498
0.063303486 -0.17988017 -0.0091035245 0.15579143 -0.09753861 0.021035599 0.03841568 -0.10148722
-0.09352657 0.055365525 0.10988093 0.001689133 0.21531384 0.04427327 0.08488225 -0.1411464
0.11724752 0.1561213 -0.20673263 0.16100125 0.15145297 0.12203902 0.16264597 0.032318123
0.1447216 0.104088336 -0.0493418 -0.20952156 0.038205363 -0.2010283 -0.18147133 -0.09891303
0.10165021 0.0034078436 0.07780648 0.14881234 -0.07236781 0.09704225 -0.15002438 0.073133014
-0.15432405 -0.2019385 0.1025092 -0.16792755 -0.0019517454 -0.034913145 0.026779981 0.12627253
-0.18114007 0.17468968 -0.06369182 0.16489087 0.13129771 -0.041798286 0.15010819 0.20901074
-0.009459103 -0.121904135 -0.03699342 -0.12797083 0.042464122 -0.15948282 0.20441064 -0.074652396
-0.2071605 -0.20722347 -0.0049657607 -0.18811882 0.03510798 0.19086678 0.18466176 0.15746854
-0.08552333 0.12798813 -0.0021551247 -0.061837867 0.022421494 0.21153302 0.019134155 -0.12858464
-0.11954741 0.08299265 -0.19705951 -0.02050658 0.0073861303 -0.015950674 -0.14864649 -0.15204822
-0.09747827 0.0860857 -0.09442348 0.08190602 0.1793464 0.09943092 -0.17230041 -0.17189062
-0.057786204 -0.10506301 -0.03137935 -0.1420202 0.124665014 -0.123470314 -0.014758505 0.19928029
-0.15561311 0.06355913 0.07803967 -0.030130994 0.04905258 -0.20917316 -0.06640332 0.16993716
0.068212755 -0.09293638 0.10703465 -0.18422942 -0.02552045 -0.020271583 -0.054729007 0.08706179
-0.050940473 0.19079655 0.018499317 -0.10738403 -0.07222108 0.09024019 -0.086223625 -0.18898454
0.01023721 -0.127898 -0.1804772 -0.12794481 0.04333163 -0.029403472 -0.16688406 -0.12551288
-0.11309009 -0.012375275 0.09884752 -0.12241937 -0.11310253 -0.024452707 0.001932414 -0.13943622
-0.10657145 0.1975878 0.077125184 -0.005035111 0.09415021 -0.20358409 0.12134678 0.07323274
0.121692784 -0.20071252 0.13759649 0.012832104 -0.10475056 0.16997978 -0.02471039 -0.08348719
0.19982909 0.15989539 0.11118331 0.059712138 -0.078840174 0.2051218 0.038857054 -0.0171996
-0.04475557 -0.19649541 0.063941576 0.0053373156 0.12349302 -0.10160974 0.15801477 0.14754914
-0.20436774 0.17282766 -0.12110446 -0.03562518 -0.10740319 0.0885828 0.059800897 -0.20654184

bias f4 [64]
00000000: 0000 0000 0000 0000 0000 0000 0000 0000
00000010: 0000 0000 0000 0000 0000 0000 0000 0000
00000020: 0000 0000 0000 0000 0000 0000 0000 0000
00000030: 0000 0000 0000 0000 0000 0000 0000 0000
00000040: 0000 0000 0000 0000 0000 0000 0000 0000
00000050: 0000 0000 0000 0000 0000 0000 0000 0000
00000060: 0000 0000 0000 0000 0000 0000 0000 0000
00000070: 0000 0000 0000 0000 0000 0000 0000 0000
00000080: 0000 0000 0000 0000 0000 0000 0000 0000
00000090: 0000 0000 0000 0000 0000 0000 0000 0000
000000a0: 0000 0000 0000 0000 0000 0000 0000 0000
000000b0: 0000 0000 0000 0000 0000 0000 0000 0000
000000c0: 0000 0000 0000 0000 0000 0000 0000 0000
000000d0: 0000 0000 0000 0000 0000 0000 0000 0000
000000e0: 0000 0000 0000 0000 0000 0000 0000 0000
000000f0: 0000 0000 0000 0000 0000 0000 0000 0000
0.0 0.0 0.0 0.0 0.0 0.0 0.0 0.0
0.0 0.0 0.0 0.0 0.0 0.0 0.0 0.0
0.0 0.0 0.0 0.0 0.0 0.0 0.0 0.0
0.0 0.0 0.0 0.0 0.0 0.0 0.0 0.0
0.0 0.0 0.0 0.0 0.0 0.0 0.0 0.0
0.0 0.0 0.0 0.0 0.0 0.0 0.0 0.0
0.0 0.0 0.0 0.0 0.0 0.0 0.0 0.0
0.0 0.0 0.0 0.0 0.0 0.0 0.0 0.0
