experiments/ppo_pendulum_first_try_20250829_062206/checkpoints/auto_step_26624.pt (torch, 145973 bytes, 44 tensors)

shared_layers.0.weight f4 [64, 3]
00000000: 6ce0 99be 100a 3e3c 6874 ce3d f32d bd3d
00000010: b56f d93d ac22 a2be 366f 35be 5593 92be
00000020: 1366 533c 921e 2bbe 37ae 153e e892 463e
00000030: 7631 9fbe 4d1b 9abd ff14 8b3c cd62 13bd
00000040: bd9f 3e3e 2846 fcbc a765 abbd 3edb 283d
00000050: 7a1b 893d 2a32 78be ae88 c03e 165a b93d
00000060: 4131 bcbb 35a2 c8bd bdb7 933d 7976 973d
00000070: 317f de3d c94b e53d e023 263e 5411 0239
00000080: b2bd a8bd cb5a 1f3e b612 33bc 68f0 943d
00000090: 9e09 a0bd e97a 153d fd27 483d a405 973a
000000a0: 64ff db3b 1aa0 0abe ba30 083e 456a c4bd
000000b0: 0d38 f4bc 374d 303e 453b 6abc ee5f c0bd
000000c0: fe1e 673e 5863 1a3f 09ca fdbd 8b1d 373c
000000d0: 3db7 803c d801 91bd 1387 30be 679c 75be
000000e0: 6df0 263d f3d7 853c 1e49 fc3d bba9 953e
000000f0: 1500 b6be c4ff 3d3e b8cc 2c3e 2998 c13e
00000100: eb81 60be cd4c a9bd a1d3 8e3d 5c64 b03e
00000110: f645 143c 78ab 44be 397a 3ebe 1b91 403e
00000120: 0202 b03d b7ae 033c a2b7 553e 80fd 44bd
00000130: 014f 233d fe29 a43d 182b f63d 34ea 073e
00000140: 617e 6dbe 2526 643d 6183 933d 0dc2 cabb
00000150: 1bc0 a13e 2ca3 95bd fd8d 03be fa59 43bc
00000160: 6900 903c 6be3 3cbe ae27 2d3e 7eca 5d3e
00000170: 51b5 d7bd b973 143e 383d efbd 17d0 c83d
00000180: 9b7f cc3d 68e8 5fbd 76fa a13e 8408 533d
00000190: db3d 06bc dde6 68be d8cd 733d 5641 8abc
000001a0: 0c95 453e df3b 783e 3047 e6bd cf3f 01be
000001b0: e0f6 523e d24c 30bd 35b5 46bd a9d0 4abe
000001c0: 0f6f 433d 52c4 c9bc d3a3 a2be de10 9bbd
000001d0: 44b9 99be edb7 dfbc 6410 f9bd 5a5a 35bd
000001e0: 2ddc dc3c 9a97 ed3c 58c7 593e 9387 683c
000001f0: 8861 273e 4b3b cbbe 0af1 c53d 72c0 1fbd
00000200: 1dbd 3cbd bb4d ad3d 4627 01be c278 04bd
00000210: 49b1 aebe d10c 21bd f2e6 0a3e 2f71 563e
00000220: eacb 493d 85ab a1bd a98e bd3d a1e5 4f3e
00000230: 4fa2 453e 6d0e 8dbe 0631 08be 78de 1dbd
00000240: f32d 34be 48ce 193e 37fe 00be d4e7 373e
00000250: 615a 06be 49fd 243d e06f b7be f09d 0c3d
00000260: 6166 acbd 877c 8e3e 608c 26bd 993d 87be
00000270: 1463 003e 746d cebd 2fb7 13bc 084e 463e
00000280: 386a 433e d36d 0fbe e7cc e9bd 74af 153e
00000290: f200 00be da95 f73d 2248 01be d8a5 24be
000002a0: 3bcb 7dba 2a99 9a3e 0d51 c43d abf8 ddbd
000002b0: fe6f 5a3e 89e8 10bc 2a1e 86bc ee41 79bc
000002c0: b860 1b3e 48a5 a5be c0d8 713e a456 003d
000002d0: c769 19be decf b5bd 1bcc bbbd 141e 413e
000002e0: 6463 713d 85e6 c23d c0cb 24be ada9 0f3e
000002f0: 94e5 153e 7abf b6bd ad07 20bd 3d8a 1bbe
-0.30054033 0.011599079 0.100807965 0.0923728 0.106170096 -0.31667078 -0.17718205 -0.2862803
0.012902754 -0.1671088 0.14617239 0.19391978 -0.31092423 -0.075247385 0.016977785 -0.035982896
0.18615623 -0.030795172 -0.08368998 0.04122471 0.06694694 -0.24237886 0.37604278 0.09050386
-0.005743176 -0.097965635 0.0721278 0.07395644 0.108641036 0.111960955 0.16224623 0.00012404221
-0.082393065 0.15561979 -0.010929754 0.07272416 -0.07814334 0.03649417 0.04886626 0.0011522067
0.0067137945 -0.13537636 0.13299838 -0.09590582 -0.029811883 0.17216955 -0.0142963575 -0.09393297
0.22570416 0.60307837 -0.12392051 0.011176477 0.015712375 -0.0708043 -0.17239027 -0.23985444
0.04075663 0.016338324 0.123186335 0.29231057 -0.35546938 0.18554598 0.16874969 0.378114
-0.2192456 -0.08266602 0.06973959 0.34451568 0.009049883 -0.19206035 -0.18601312 0.18805353
0.08594133 0.008037261 0.20870832 -0.04809332 0.039870266 0.08015822 0.12019938 0.13272935
-0.23192741 0.05570044 0.07202793 -0.0061876834 0.31591877 -0.07306513 -0.12847133 -0.011923308
0.01757832 -0.18446128 0.16909668 0.21659276 -0.1053263 0.1449727 -0.116815984 0.09805315
0.09985276 -0.054665 0.316364 0.051521793 -0.008193458 -0.22744317 0.05952248 -0.016876858
0.19295138 0.24241589 -0.11244047 -0.12621997 0.20601988 -0.04304201 -0.048512656 -0.1980616
0.047713336 -0.024629746 -0.31765613 -0.075715765 -0.3002416 -0.027309382 -0.121613294 -0.04427562
0.026960457 0.029002953 0.2126745 0.01419248 0.16345799 -0.39693674 0.09665115 -0.03900189
-0.04607879 0.084620915 -0.12612638 -0.032341726 -0.34119633 -0.039318863 0.13564661 0.20941614
0.049266733 -0.07894043 0.09255726 0.2030244 0.19300197 -0.27550068 -0.13299951 -0.03854224
-0.17595653 0.15020096 -0.12596975 0.17959529 -0.13120414 0.040280614 -0.3582754 0.03433031
-0.08417965 0.27829382 -0.040661216 -0.26414183 0.12537795 -0.1007947 -0.009015842 0.19365704
0.19083488 -0.14006738 -0.11416035 0.14617711 -0.1250036 0.12089129 -0.12625173 -0.1607889
-0.0009681468 0.3019498 0.09585772 -0.10838445 0.21331784 -0.008844503 -0.016371805 -0.015213473
0.15173614 -0.32352662 0.2361784 0.031332627 -0.14981757 -0.08877538 -0.091697894 0.1885913
0.058932677 0.09516624 -0.1609335 0.1402957 0.14638358 -0.0892324 -0.03906982 -0.15189452

shared_layers.0.bias f4 [64]
00000000: 05f9 fc3d deef c83d 496c e53d 828a 083e
00000010: fdfd e73d 2cec fe3d 4cca f8bd f4f4 fc3d
00000020: baf8 f1bd 0ff9 e1bd 53da f4bd 5bcd f1bd
00000030: 6663 003e 57a1 cf3d 54d1 043e 44af dc3d
00000040: c309 f3bd 1f78 04be aef2 f13d 25ff c8bd
00000050: b8dd 013e 4829 ffbd 2383 eabd 1ce9 d4bd
00000060: fc49 b4bd 0565 0a3e c8d9 dc3d e0a1 01be
00000070: 7930 ce3d 7c1d a3bd 85b0 01be b3a6 e4bd
00000080: b3c4 ff3d ca57 8e3d 9597 c8bd f1e8 01be
00000090: 2a5a f7bd 5735 f13d 0279 cebd 1dc6 053e
000000a0: 09e9 153e d250 c43d 1030 05be 550b 09be
000000b0: 56d0 063e d3b4 e93d d604 a5bd 9d1f ea3d
000000c0: 2b4d df3d 6165 e4bd 8406 ce3d 9fe1 bf3d
000000d0: 0932 063e 5fdf 03be 59b7 c23d 02e3 d73d
000000e0: 3af9 003e 8592 083e 10e1 c2bd bcd6 f03d
000000f0: eee2 e83d b34d d9bd a26b ccbd 0dda cf3d
0.12352184 0.09811376 0.112022944 0.13334087 0.11327741 0.1244739 -0.1214796 0.123514086
-0.11815019 -0.11033832 -0.119557045 -0.118067466 0.12537917 0.10138195 0.12970477 0.10775617
-0.11867096 -0.12936448 0.118138656 -0.0981429 0.12682235 -0.12459046 -0.114507936 -0.103960246
-0.08803174 0.13515098 0.10783726 -0.12659407 0.10067839 -0.07964608 -0.12664993 -0.11164608
0.12488689 0.06950338 -0.09794537 -0.12686516 -0.12077744 0.11777752 -0.10081674 0.13063855
0.14639677 0.09585728 -0.13006616 -0.13383229 0.13165411 0.114114426 -0.08057563 0.11431811
0.109033905 -0.11152149 0.100598365 0.09369206 0.13105024 -0.12878178 0.09507627 0.10541345
0.12595072 0.13337143 -0.095155835 0.11759707 0.113714084 -0.10610523 -0.09981467 0.10149012

shared_layers.2.weight f4 [64, 64]
00000000: ae70 bf3c e5b6 41bc 409b 7c3e be54 42be
00000010: 5ece 613d d582 803e ffe4 04bf b83e 7dbd
00000020: 7b88 4a3d 2bd6 233e cc98 04bf a766 e13d
00000030: 2e08 f93c bcb7 743e c205 8bbe fea1 583c
00000040: 39ff d3bd 6b3e 57be 155d b33c 4144 9ebd
00000050: 8218 0c3d 0569 2fbe d330 afbd f77a 14be
00000060: d84c 39be 51db ba3e 9260 07be 6c74 5bbe
00000070: 3f0e 243e b2f1 0bbb f5b2 e83c 7274 8fbd
00000080: d0a0 8a3d de34 6bbc 680e 793e 6913 343e
00000090: 284e 493e 5c93 693e bd0b 063e c943 5f3e
000000a0: f61c 523e 7b63 ad3d 6cd7 f13d aae1 9fbd
000000b0: 74fe 6fbe a639 183e 53dc 48bd d1fb 6a3e
000000c0: 0db1 513d 1684 0dbe a0f8 98be 740d 1bbd
000000d0: 8692 7dbe 9c9b dc3d bcd0 53bc bd82 ec3d
000000e0: 5498 3e3e 8d7e 6b3e e072 07be 71b7 513e
000000f0: 973e 50be c858 503e 3c9b 243c a8c4 60be
00000100: 1fe9 ae3c 4552 db3c 6f2a 1bbd 0814 e13d
00000110: edb4 103d 1d4f 933d daeb 31be a00c 2b3e
00000120: 02a2 4c3d 3af4 8a3d 249d a5be c845 c1be
00000130: 0313 a23e 9d76 0c3d 737c e73e 1f87 02bd
00000140: 5a5f 89be 8555 c33b 07ce 603c f4e1 523e
00000150: 7d58 703e d411 7d3c 3fa7 85be 7eed 9fbe
00000160: 8c0d 613e 1c7e e9bd 805a 9f3d f424 a0bd
00000170: 358c 10be fe5a 64be ad92 033e daa1 7c3d
00000180: a8f5 72be e1fa 03be 4213 96be 0e88 9abd
00000190: 3fa5 e83d d9ac 4fbb 0fbe bc3d 09bb 1f3e
000001a0: 4c75 d63e 43fa 56be 2880 bd3d a138 213e
000001b0: 4bdb 0d3d 0ec2 603e 9a3d 72be 16d7 15bb
000001c0: 265b d33c c563 6ebd 5f83 983e df91 3dbd
000001d0: 5ed3 d2bd 24a6 8abc 8f88 efbd b9b9 2e3d
000001e0: 2c38 993e f19a a23e 6f99 b739 becb 823e
000001f0: 730a 5d3e c901 28bd 5983 bdbe 7340 893d
00000200: 6f5a 9d3d be5a 273b 3ec3 2ebe 1d91 0bbd
00000210: 0ece 77bc f84e 80be 331d 293d d3c7 23bd
00000220: 1a3d bbbc c071 fbbd 15b3 c3bb f39d 583e
00000230: dc67 c43d 87e1 0d3e 2236 e73d 4fd4 0abe
00000240: ddb9 d5bd aa3a a33e fde1 65be 79e4 7fbe
00000250: 5ef8 4abe ac6e 4b3e aa6f fbbd c409 87be
00000260: ce12 263e 38d8 3f3d d4f2 8d3d 7382 f4bc
00000270: 1145 6dbd ec4f 59b9 cbfa ddbe 36ad 1b3e
00000280: 3051 4dbe c46b 2bbc 4f44 aabc 56e2 0d3e
00000290: 38af 1c3e fb0d aa3b a1d2 11be 69ec 1fbd
000002a0: 8a56 693d fce5 babe 7f56 383e 39b5 ebbd
000002b0: 3172 8d3d fced d83c 0ae3 13be af42 2c3e
000002c0: 1821 8e3d 3399 173e 72dc c5bd bdfc a83c
000002d0: f79b 85be cc02 9abe a73d 6c3e 2a3d 00be
000002e0: 2106 bebe b988 d7be e3ee 18be 294a 523c
000002f0: e161 753a 77b3 c73d 61b3 383e 20b5 eabe
00000300: e847 3c3d 5caf 7e3d d0fe 9abd 8033 a83d
00000310: c473 023e 451f e13d 6f7e 3abe d22e d6bc
00000320: 6ea7 c9bd 94fa ecbd e746 97bd 5019 68be
00000330: af43 07bd f7d2 5d3e 3289 0c3d 0389 a03e
00000340: c1e7 743d 4ca1 bc3d 4c04 95bd d703 f33d
00000350: 3a42 b9bd d0a5 a8be 609d 233e f192 43be
00000360: d4fa e73c 4419 36be f586 cabd ef92 b13d
00000370: d33a 583d b0d8 2a3d ec6f 13bd c60e 3fbd
00000380: 5efa fb3c dc73 36bd dd04 85be f93a 61be
00000390: d660 92bd 1d86 fd3d 5b0f 3abe 6b6f 9e3e
000003a0: 6e96 53be b610 72be 34ea 06bf 65a4 29be
000003b0: 0054 7a3e 4436 453e 5ca9 273e 2384 d73d
000003c0: 5210 2f3e 6905 0f3e 9570 e5be c442 e0bd
000003d0: fd9e 5c3d bfba 5cbe 5198 fe3d b11e 26be
000003e0: 8016 623e 73cd da3e 11c2 c9be 7ca7 22bd
000003f0: 5209 543d 1eba 0cbd fd4c e6bd 244e 8fbd
0.02336916 -0.011823391 0.24668598 -0.18977639 0.055128448 0.25099817 -0.5191192 -0.06182739
0.049446564 0.15999667 -0.5179565 0.110059075 0.030399408 0.23898214 -0.2715283 0.013222216
-0.10351414 -0.21019904 0.02189497 -0.07727862 0.03420306 -0.17129906 -0.08554234 -0.14500032
-0.1809572 0.3649545 -0.13220432 -0.2143113 0.1602106 -0.0021353778 0.028405646 -0.07004632
0.06768954 -0.014355866 0.24321902 0.1758553 0.1965872 0.2281012 0.13090415 0.21803202
0.2051886 0.0846624 0.118086666 -0.07806714 -0.2343691 0.14865741 -0.049038243 0.22947623
0.05119424 -0.13819918 -0.29877186 -0.037854627 -0.24762926 0.10771868 -0.012928184 0.11548374
0.18612796 0.22997494 -0.13227415 0.20480134 -0.20336376 0.20346367 0.010046776 -0.21950018
0.021351395 0.026772628 -0.037882265 0.10990149 0.035328794 0.07192824 -0.17375126 0.16704035
0.04995919 0.06784864 -0.3234645 -0.3774855 0.3165513 0.034292806 0.45212135 -0.031867143
-0.2683056 0.0059611225 0.013720996 0.20594007 0.23471256 0.015446145 -0.2610416 -0.3123588
0.21977824 -0.114010066 0.077809334 -0.07819548 -0.14115985 -0.22300336 0.12848921 0.06167779
-0.23726523 -0.12888671 -0.29311568 -0.075454816 0.11359643 -0.0031688719 0.09215938 0.15598692
0.41886365 -0.20993905 0.092529595 0.15744258 0.034632962 0.21949026 -0.23656312 -0.0022863797
0.025800299 -0.058200616 0.29787728 -0.04628169 -0.10294221 -0.016924925 -0.11695968 0.042657588
0.29925668 0.31758836 0.00035018797 0.25546068 0.21586017 -0.041017327 -0.37014273 0.06701746
0.076832645 0.0025536264 -0.17066666 -0.034073938 -0.015124811 -0.25060248 0.041287612 -0.03998549
-0.022856284 -0.122775555 -0.005972276 0.21154003 0.09590122 0.13855563 0.11289622 -0.13557552
-0.10435841 0.31880695 -0.22449489 -0.24989499 -0.19821307 0.19866437 -0.122771576 -0.26374638
0.16218111 0.04683706 0.069310814 -0.02984736 -0.057927195 -0.00020724506 -0.43355402 0.15202793
-0.20050502 -0.010462705 -0.020784525 0.13855872 0.15301216 0.005189655 -0.14240505 -0.039043818
0.056967296 -0.3650359 0.18001746 -0.11509175 0.06906546 0.026480667 -0.14442077 0.16822313
0.06939906 0.14804535 -0.09661187 0.020628328 -0.26095554 -0.3008026 0.23070394 -0.12523332
-0.3711405 -0.420965 -0.14934878 0.012835064 0.00093605934 0.09751027 0.18037178 -0.45841312
0.045967013 0.062178954 -0.07568133 0.08212948 0.12739474 0.10992292 -0.18212293 -0.026145373
-0.09846388 -0.115712315 -0.073865704 -0.22665906 -0.033023532 0.21662508 0.034310527 0.31354532
0.05979133 0.092104524 -0.0727621 0.11865967 -0.09045835 -0.32939005 0.15978003 -0.19099022
0.028317846 -0.17783076 -0.09889022 0.086706035 0.052790474 0.041710556 -0.03599541 -0.04664495
0.030759033 -0.044544086 -0.25980273 -0.21995153 -0.07147376 0.12379096 -0.1816992 0.3094438
-0.20662853 -0.23639187 -0.52701116 -0.16566618 0.24446106 0.19258982 0.16373199 0.1052325
0.1709607 0.13966908 -0.44812456 -0.109502345 0.05386256 -0.21555613 0.12431396 -0.16222645
0.22078896 0.4273487 -0.39405873 -0.039710507 0.0517667 -0.034357183 -0.11245153 -0.06997326

shared_layers.2.bias f4 [64]
00000000: f30e e13d 09c6 cd3d 9581 c6bd 6fd1 de3d
00000010: 11ab cd3d 7d4c cbbd 3c90 c93d e087 cb3d
00000020: 287d de3c f064 cebd 598d dabd 0809 d2bd
00000030: bd15 e6bd 1b84 b1bd 2131 c2bd 6f7d dcbd
00000040: feca e8bd b339 dfbd 7229 bd3d 2750 ce3d
00000050: 74cb e73d 9315 dcbd 634f c93d 3064 d0bd
00000060: b94d c9bd fd0d ce3d 9694 afbd 16d9 b0bd
00000070: d83d dfbd 59c9 cc3d fa51 eabd 27fa ca3d
00000080: 93ad d0bd 498f de3d 0237 bdbd 7eb7 d8bd
00000090: 5629 c6bd e0e3 d0bd 1a9f cb3d e2e3 df3d
000000a0: 50c5 ce3d 562f d83d 4b82 a7bd c650 d33d
000000b0: 2b72 a2bd 155e be3d 68a2 d93d 97e7 ba3d
000000c0: 9dca d73d 21b3 9fbd 164c cc3d 1dd2 cabd
000000d0: 8d4e d5bd 6f82 d23d 8b75 cebd f177 d23d
000000e0: a3de cd3d 86f9 e13d 4305 ce3d eaae a3bd
000000f0: e775 d6bd 85d4 cb3d 5c40 883d 7ce4 d1bd
0.109891795 0.10047538 -0.096926846 0.1087979 0.10042394 -0.09926698 0.09841964 0.099380255
0.027159289 -0.10077846 -0.10671491 -0.10255629 -0.11234615 -0.08667775 -0.09482027 -0.10766112
-0.11366843 -0.10899677 0.09236421 0.100738816 0.113181025 -0.107463025 0.09829595 -0.10175359
-0.098292775 0.10061262 -0.085732624 -0.08635156 -0.10900468 0.099993415 -0.11441417 0.09910994
-0.10189357 0.10867173 -0.092390075 -0.10581873 -0.09675853 -0.10199714 0.099424556 0.10932137
0.10096228 0.105559036 -0.08179148 0.10318141 -0.07931932 0.092952885 0.1062668 0.091262035
0.10536692 -0.07797838 0.0997545 -0.09903357 -0.10415373 0.102787845 -0.10081013 0.10276783
0.1005223 0.11033921 0.10059597 -0.079923466 -0.10471707 0.09952644 0.066529006 -0.10248658

output_layer.weight f4 [2, 64]
00000000: 10a0 0e3b fcaa dd3a 51a7 4139 8cbc 0e3a
00000010: cd6b 873b 9f04 33bb abce e0ba 54d1 7eb9
00000020: 69b8 fe3a fe5f 26bb b36d 423a 82b4 e6ba
00000030: d8e4 28ba fd9b 8fba 9ec8 feba 29f8 823a
00000040: 78ed bdba f986 12bb a171 1e3b 6f3a d7ba
00000050: 1e2a 68bb 3b80 9ab9 df0b 353b 0a54 68bb
00000060: efc7 a7bb ff2e 503b 7c95 2ebb 635a de39
00000070: 8d97 8dba 9573 53bb 51e4 853b 2e3e 89ba
00000080: b68e 61bb b0bc 863b af80 eeba 7859 f3ba
00000090: 1d61 60bb efb0 7839 fba0 16b9 464f eb3a
000000a0: df49 4d3b a275 4c3b 9116 aaba 9441 be38
000000b0: 702d 46bb 53d1 ebb9 035d c53a aacb e039
000000c0: 166d fdb9 b67b 1eba b161 2d3b 7999 a73a
000000d0: 3936 c73a 4b90 013b 7433 2039 df74 dc3a
000000e0: 7355 77ba 6990 863a d171 033b b277 27bb
000000f0: e116 9139 1161 0c39 08d7 263b be9f 4eba
00000100: 2651 713d 4832 933d 9de6 16bd 5b81 8a3d
00000110: 1d49 863d b1fd b7bd 2ff1 9c3d ece4 3d3d
00000120: 9aa8 65bc 828d a4bd 10d5 9ebd a2c3 a5bd
00000130: 6dd9 9cbd 9076 24bb 6e15 fbbc 2144 58bd
00000140: 9a52 4ebd d702 75bd 52fd dc3c 1c61 ba3d
00000150: ff30 8d3d 0d65 60bd 54d4 7c3d 24ba b9bd
00000160: 990e adbd 8a0b 853d 51a6 d8bc e4b1 debc
00000170: aae8 74bd 84ee ab3d 8b7c 93bd b3c1 8d3d
00000180: f77b 96bd b838 673d 08c2 2fbd 094c 47bd
00000190: 4e0c 58bd b860 93bd 3a18 ab3d e563 a53d
000001a0: 242f 9c3d aa6b 273d eefb dfbc 9c2b 7d3d
000001b0: abb2 d6bc 3ca7 aa3c e5db b33d 2643 0a3d
000001c0: 09f7 6a3d 9bb1 d9bc 3489 9b3d d30e 6abd
000001d0: 9294 77bd 6a4d f63c 1c8f 88bd 082d 6d3d
000001e0: 901c 993d e3f9 8d3d 5d85 db3c f993 5fbc
000001f0: cf7d 50bd 4ab9 933d 100d 463c a88f 45bd
0.0021762885 0.0016911919 0.00018468245 0.0005444966 0.004132724 -0.0027315987 -0.0017151436 -0.00024301308
0.0019433621 -0.0025386806 0.0007416859 -0.0017601403 -0.0006442792 -0.0010956522 -0.0019438451 0.000999217
-0.0014490327 -0.0022358282 0.0024176615 -0.0016420613 -0.0035425494 -0.00029468708 0.0027625484 -0.0035450482
-0.0051202695 0.0031766293 -0.0026639393 0.00042410483 -0.0010802612 -0.0032264937 0.0040860553 -0.0010470801
-0.0034417338 0.004111849 -0.001819631 -0.0018566092 -0.0034237572 0.00023717036 -0.00014365085 0.0017952702
0.0031324548 0.0031198044 -0.0012976696 9.072121e-05 -0.0030239485 -0.00044978652 0.0015057627 0.0004287635
-0.00048337196 -0.0006045656 0.0026455934 0.0012786827 0.0015198655 0.0019769843 0.00015277957 0.0016819498
-0.0009435035 0.0010266426 0.0020056854 -0.0025553522 0.000276736 0.000133876 0.0025457758 -0.000788208
0.05891528 0.07187325 -0.036841024 0.06762954 0.06556914 -0.08983935 0.076631896 0.046360895
-0.0140172485 -0.08034803 -0.07755482 -0.080939546 -0.07658658 -0.0025095083 -0.030649867 -0.052799348
-0.050371744 -0.05981716 0.026976261 0.091005534 0.06894111 -0.05478387 0.06172593 -0.09068707
-0.0845005 0.064963415 -0.026446493 -0.027184434 -0.0597922 0.083951026 -0.07201489 0.06921711
-0.07347863 0.056450576 -0.042909652 -0.048656497 -0.05274611 -0.07196182 0.0835423 0.08075694
0.07626179 0.04087416 -0.02734181 0.061809167 -0.026208242 0.020831697 0.08782176 0.033755444
0.057364497 -0.026573947 0.07594529 -0.057143044 -0.060444422 0.03006621 -0.06667921 0.057904273
0.07476151 0.06932428 0.026796991 -0.013646119 -0.05090123 0.072130755 0.012088075 -0.048232704

output_layer.bias f4 [2]
00000000: 13d4 d1ba 2c37 6ebf
-0.0016008638 -0.93052936

layers.0.weight f4 [64, 3]
00000000: a643 2cbc 61d9 c43d 212f 7e3e ecd7 e63d
00000010: 4d53 82be 2ff2 083e 82c4 a93d d9a0 96be
00000020: c550 d23d 7ceb 5dbd a2ff 133e 6ed6 2abe
00000030: 16de 29be f9a4 14be 026b 823d 92cc 853e
00000040: e11b 89bd 5f49 79be 51cf 40be 2aef 76bc
00000050: f4af 0abe a286 99bd 05e6 3d3d 7640 063e
00000060: 693a 2dbe ecce 3bbe c219 dabd 9525 e53d
00000070: 1474 313e cb6c e03d 68bc f8bd 1716 4f3d
00000080: 8ecb bf3d 9c9c 123e f7d6 8f3e 16ed a33d
00000090: 9c6a d0bd df09 563c a042 cb3d 90d8 81be
000000a0: 7870 7a3e 12cd cd3d 591e 1a3e 9510 223e
000000b0: 3fad ed3c dbc7 3a3e 388e 083e 0ecd 18b9
000000c0: beac acbd 77e8 85be 7057 2bbe 52e0 813e
000000d0: f662 2e3c f2e6 4dbe 7a85 6b3e 374e 733d
000000e0: aa13 9ebc 273b 85bd e709 5fbe d625 89be
000000f0: 1ff2 58be 98a5 363e a059 e9bd 7a13 8a3c
00000100: c303 78be b964 5d3e d89c 853d 6fd5 183d
00000110: 7705 833e fd9c a6bc 2ede c23c 28e6 2c3e
00000120: 4654 093c a0d6 0c3e 5680 513c e478 66be
00000130: 7dd5 6ebe f652 a43d f9f8 28be 1462 eabd
00000140: 6689 3e3e d2d5 3bbe 1c76 d8bd a298 1dbe
00000150: 4d16 253e 9ab3 3ebe 514e 1a3e b69f 103d
00000160: ee47 91be 76f1 05bd 5db6 93bc cd59 253e
00000170: a056 823e bf4f 023d 7c4f b6bd 236f 72bd
00000180: a56a 26be 4c78 793d 1133 373d 6fe8 04be
00000190: 8749 733e 722f 18be 232f c6bd fcf0 64be
000001a0: 33ee 193e 37de 74be 5ee0 80be 337d 9e3d
000001b0: 27dc 25be c6ae 7bbe a33e ff3d 86fa 32bd
000001c0: a5e5 2b3e d1e9 7e3e 6948 ec3d 702e 053e
000001d0: 783d efbd 3255 0dbe 9fee 463e 0914 013e
000001e0: 2d35 233e f153 353d 3a08 273e e456 0dbe
000001f0: 5117 453d 319e 6fbe 5bfd 193e a228 c73d
00000200: 841f 313e 41a3 83be a994 8b3e 544b 4a3e
00000210: 9989 cfbb 356f e63c 1e9a 3f3e 0443 893d
00000220: a27d e93b d83e 4a3e 8dca 8b3d 3075 6dbe
00000230: d0c7 68be de2e 8cbe 7c57 6ebd 5cc6 53be
00000240: 7708 843e 3468 2a3e 4043 ebbb bc8b adbd
00000250: 12ae 93be d935 86be e1d5 8e3e 6730 71be
00000260: 4346 d83c 00fd ec3d 0589 503e 1d7a 783d
00000270: 2c79 5b3e 33c7 6ebe 1e3e 2ebe 341e f7bd
00000280: 1ab4 a1bc cbe1 093d 2782 873d dc62 bdbd
00000290: d746 6f3e 2729 2bbd c85e 853e 645e 8e3e
000002a0: c564 443e 6d61 123e 4f02 1bbd 557e 1b3e
000002b0: 1f7c 153e 29fd 4f3e 58b8 8abe fe6c 25bd
000002c0: e9bf 57bd 9290 37be 2556 513e 6b13 cb3d
000002d0: 9e95 76be 3293 6ebd dd3a 0c3e e806 57bb
000002e0: c3a8 16be 0649 7b3e 8221 8c3e d2d9 c2bd
000002f0: 3042 9c3a 4095 703e 2d88 93bd 318d 2bbc
-0.0105141755 0.09611774 0.24822666 0.112716526 -0.25454178 0.13373636 0.08289434 -0.29419592
0.10269312 -0.054179654 0.14452985 -0.16683361 -0.16588625 -0.14516057 0.06368066 0.26132637
-0.066947706 -0.24344395 -0.18829085 -0.01507167 -0.13543683 -0.07496382 0.04636194 0.13110527
-0.16916813 -0.18340653 -0.10649444 0.11188809 0.17329437 0.109582506 -0.12145311 0.050558176
0.09364997 0.14317554 0.28093693 0.08004205 -0.10176584 0.013063877 0.09924817 -0.25360537
0.24456966 0.1004888 0.15050639 0.15826638 0.029013274 0.18240301 0.13335502 -0.00014572238
-0.084313855 -0.2615392 -0.16732574 0.25366455 0.010643711 -0.2010763 0.23000136 0.059400763
-0.019296486 -0.06505423 -0.21781121 -0.2678668 -0.21186112 0.17836607 -0.11394048 0.01685499
-0.24220185 0.21620454 0.06524056 0.03731292 0.25590107 -0.02033853 0.023787584 0.16884673
0.008381909 0.13753748 0.012786945 -0.22507054 -0.23323627 0.08023636 -0.16501226 -0.11444488
0.18607101 -0.18343285 -0.105694026 -0.15390256 0.16121788 -0.186232 0.15068938 0.035308562
-0.2837519 -0.03270098 -0.018031294 0.16147538 0.25456715 0.031814333 -0.08901879 -0.05918802
-0.16251619 0.06090574 0.044726435 -0.12979291 0.23758517 -0.14861849 -0.09676959 -0.22357553
0.15032272 -0.23912893 -0.2517118 0.077387236 -0.16197263 -0.2457839 0.12463119 -0.04369595
0.16786821 0.24893881 0.11537249 0.13005996 -0.11681646 -0.1380203 0.19426964 0.12605299
0.15938254 0.044269506 0.16311732 -0.13802677 0.04811794 -0.23400189 0.15038054 0.09724547
0.17297179 -0.2571049 0.27261856 0.19755298 -0.0063335416 0.0281292 0.18711135 0.06702235
0.0071255723 0.19750535 0.06825743 -0.23189235 -0.22732472 -0.27379507 -0.0581889 -0.20681137
0.25787708 0.16641313 -0.0071796477 -0.08473918 -0.28843743 -0.26212958 0.27897552 -0.2355362
0.02640069 0.115716934 0.20364769 0.06066333 0.21432942 -0.23318176 -0.17015883 -0.12066308
-0.0197392 0.0336626 0.066166215 -0.092473716 0.23366867 -0.041787293 0.26048875 0.2780639
0.19179066 0.14294977 -0.037844 0.1518491 0.1459813 0.20311417 -0.27093768 -0.040387146
-0.052673254 -0.17926243 0.20443018 0.09915813 -0.24080512 -0.058245845 0.1369433 -0.0032810513
-0.14712815 0.24539575 0.27369314 -0.09514202 0.0011921581 0.23494434 -0.07203708 -0.010470674

layers.0.bias f4 [64]
00000000: 96b5 f13d e7e5 ddbd 0cf1 fabd ad99 dc3d
00000010: 5888 06be 1a3a 073e 9218 35be 509c fb3d
00000020: 57cc df3d 9edf ff3d 9097 f93d 6923 02be
00000030: d745 18be c79e f23d 1ac6 0abe d5a0 223e
00000040: 8912 d63d 9c0b fcbd 743b 013e f36c d9bd
00000050: 65ca b63d 8b24 fdbd 455e 093e 89eb 073e
00000060: d388 15be ee12 12be 8036 fabd 63f9 073e
00000070: e2fa f2bd 5cc7 0dbe 9da4 d43d ea5a 163e
00000080: 905e 1abe c31b ebbd 9391 023e c97c 053e
00000090: 404c e63d c508 253e fdc7 153e 31ae 2abe
000000a0: 2fb0 013e c67f 153e 349f fe3d d428 f4bd
000000b0: 4746 df3d d44e 073e 3abc ec3d 1521 00be
000000c0: ff78 2fbe 764c c93d 675b efbd da07 ffbd
000000d0: 0364 283e 3573 283e 4dab 0d3e b632 cf3d
000000e0: 6c68 04be f455 fb3d 9ffe f53d f847 2ebe
000000f0: df47 13be d1a3 e1bd 8578 00be 128a 31be
0.11802213 -0.10834866 -0.12253007 0.10771499 -0.13137949 0.13205758 -0.17685154 0.122856736
0.109276466 0.124938235 0.121871114 -0.1270882 -0.14870392 0.118466906 -0.13552132 0.15881665
0.10452754 -0.12306902 0.12620336 -0.106164835 0.089253224 -0.12360486 0.13414867 0.13273443
-0.14602976 -0.14265034 -0.12217426 0.13278727 -0.11864258 -0.13845581 0.1038296 0.14683118
-0.15075135 -0.114799045 0.12750845 0.13035883 0.11245012 0.16116627 0.1462707 -0.16668011
0.12664865 0.14599523 0.12432709 -0.1192185 0.10902076 0.13213664 0.11559339 -0.1251262
-0.17136 0.09829037 -0.116873555 -0.124526694 0.16444401 0.16450198 0.13834877 0.10117094
-0.12930459 0.12272254 0.12011456 -0.17019641 -0.14382885 -0.110175736 -0.12545975 -0.17337826

layers.2.weight f4 [64, 64]
00000000: 230e 58be 6333 4abd 2039 f0bd 41cd a83d
00000010: 734a 073e 160d 47be a03f 423e f341 7fbc
00000020: 6ce8 5b3d f99d 0bbe a4a2 183e 383f ce3d
00000030: 31b1 603e effb 863d e79b 143b 280f 193e
00000040: 4daf 40be 6c07 493e 3886 8ebc 06a9 513e
00000050: fb01 e93d cee9 30bc 8470 d5bd c620 a63d
00000060: 7b80 4e3e a717 d33d ec6e 38be 2554 2bbe
00000070: 7b6f 173e 41c1 733e 8863 a13c 5b80 1c3e
00000080: 7b9a 5ebd fbac 4bbd 77c3 1abd 6866 2ebd
00000090: 0fb7 67bd 5f41 2b3e 207d 433c 647d cb3d
000000a0: 5e8b 1d3e 56e9 a2bd d2ba ddbd 0df9 b8bd
000000b0: 304f d3bd 1fb2 3fbe e840 68bd b735 0c3e
000000c0: 2fe7 83bd 0912 32be 33e1 813e 285d 053e
000000d0: f081 a53d b134 19be a4e6 a13d 49fc 003e
000000e0: 78d6 8a3d 326c 57be 4e44 19be b451 ad3d
000000f0: 4872 703e db62 983c 54e9 4e3e 9cdd 683e
00000100: 21f2 8cbd 0b5f 2f3d 2a50 4f3e 03ca 24bd
00000110: 9518 45be 3a01 2abe 6aca e03d f337 e23c
00000120: 8664 31be 2980 0ebe 5396 ffbc f692 643e
00000130: 45c2 01be 2f44 a4bc 6026 033e e382 69bc
00000140: 9407 9a3d f00a 103b 3ad6 60be 0885 613e
00000150: 36f4 1e3c 6b56 36be 6805 29bd 2344 81bd
00000160: 152f b43c d579 1cbe 33e6 533e 6c56 2abe
00000170: 4223 413e 6436 b83d f3d4 60be 7eb0 89be
00000180: 4c69 7ebd 8123 f1bd e850 083e df19 df3c
00000190: ce96 42bd fead 2fbe 68b1 06be c28b b63d
000001a0: a32b b4bd 5e8a 0d3e 2de9 2dbe 55fc 8c3c
000001b0: 6672 a93d 1fca 1bbe bf87 173d 3506 a53d
000001c0: 34c7 163e 3ee6 bb3d 2faf 8d3c 6270 4d3e
000001d0: 9863 16be be88 a13d 9add c03d d249 75bd
000001e0: 5439 25be 1202 d83d b67d 6ebe 7126 34be
000001f0: 7954 ce3d 1f0f 233d 022d e2bd 15d4 873d
00000200: 0ca3 ef3d 1401 12bd f249 14bc 349a ba3d
00000210: c584 463e d2c4 95bd f4b3 383e 5e51 04bd
00000220: f56d ffbd 8ec4 08be b47e 2cbe cd6f bd3c
00000230: 2a1a 28be 1d12 06bc 9c86 893e 0a74 4bbe
00000240: 85e6 f7bd 4831 6f3e a1dc 2fbe 824b 4f3e
00000250: 3c12 5abe 0d48 3a3e 19de 70be 72f6 18be
00000260: 1c8d 703e ca69 1b3e 9d74 1a3d 630d 883c
00000270: 729d 89bd e0d2 4f3d 025a 523d 1c3d 6dbe
00000280: cd3a 0ebe 83c7 83bd 52a1 fcbd 34a9 60be
00000290: f7d5 0d3e ced4 c33d 9821 45be c00e 063e
000002a0: a40c 3fbe da2e 06be 1c1c dc3d 157c 5c3d
000002b0: a71a c63d d32a 503b 2867 5f3d c754 48bc
000002c0: e343 463e 4d1a 163d 9f18 9a3d 93ee 463e
000002d0: 85b4 3a3e 7ab7 86be 54c8 503d e591 3cbe
000002e0: 4480 cc3c 1c81 bb3d 7d11 4b3d 1a00 663e
000002f0: b5ab 133d c8c6 15bd 4d1c bf3d 6ebc 933d
00000300: 0407 aebd 6c9d 8cbd 9bf6 533e 1185 f93c
00000310: df2d 183d 2e55 4abd 7f0b f4bc 5328 0f3e
00000320: 2f82 33bc cc04 77bd e743 043e 76b3 17be
00000330: e9dc 84bd 4cca 3dbe 5090 343e a821 73bc
00000340: 76a8 043d 80f0 7f3d d16b 61be ae6d 5d3e
00000350: 9f70 0e3e 930c 0dbd e727 f73d fd69 e6bd
00000360: 01ff d9bd 2eae 103e 9958 b0bd 5cd8 05bd
00000370: 9fc6 673e af42 38bd 051a d5bc 70c8 05be
00000380: 08e1 8bbd 6b08 5c3e 0856 eabd 501e 3ebe
00000390: 356b 0abe db9a 243e d1bf 0a3e ffea 09be
000003a0: ebf9 5dbd e192 163e 4f61 4fbe 2cea 123e
000003b0: f8f6 e1bd 3c63 0ebe 4e98 98bd 3903 16be
000003c0: fafe 18be 1206 ea3d d9fa af3d c5f4 87bd
000003d0: 211b 65be 3a35 bf3c 2aa0 313d 6492 37bd
000003e0: 377d 1e3d 0f52 4abe b165 903d 5abe 53bd
000003f0: c1d1 543e eacb 293e 368a 08bc a71f 133e
-0.21099143 -0.049365412 -0.11729646 0.08242274 0.13211994 -0.19438586 0.18969584 -0.015579688
0.05368845 -0.1363448 0.14905792 0.10070652 0.21942593 0.06591021 0.0022675933 0.14947188
-0.18816872 0.19631737 -0.017397985 0.20474634 0.11377331 -0.010797931 -0.10421851 0.0811172
0.20166199 0.10307246 -0.18011063 -0.16731317 0.1478862 0.2380419 0.01970078 0.15283339
-0.054346543 -0.049725514 -0.037784066 -0.04257813 -0.056571063 0.16724156 0.011931688 0.09936026
0.15385196 -0.079546615 -0.10826649 -0.09031878 -0.10317838 -0.18720292 -0.056702524 0.13692366
-0.06440579 -0.17389692 0.25367126 0.13023818 0.08081424 -0.14961506 0.07905319 0.12596239
0.06779188 -0.21037367 -0.14967462 0.08462849 0.23481095 0.018601825 0.20206195 0.22740787
-0.0688212 0.04281525 0.20245424 -0.040231716 -0.19247659 -0.1660203 0.109761074 0.02761457
-0.17323503 -0.13916077 -0.03119961 0.22321686 -0.12671764 -0.020052044 0.12807608 -0.014252397
0.07520977 0.0021979176 -0.21956721 0.22023404 0.009701779 -0.17806403 -0.04126492 -0.06311824
0.021995107 -0.1528085 0.20693283 -0.1663453 0.18861106 0.08994749 -0.21956234 -0.26892465
-0.062112138 -0.1177435 0.13312113 0.027234016 -0.0475071 -0.17156217 -0.13153613 0.089133754
-0.087973855 0.13822314 -0.16983481 0.017210165 0.08273773 -0.15213822 0.036994692 0.080578245
0.14724427 0.091747746 0.017295448 0.20062402 -0.1468643 0.078874096 0.09417267 -0.059884854
-0.1613515 0.1054727 -0.23290142 -0.17592789 0.10074706 0.039809342 -0.11043741 0.06632248
0.117010206 -0.03564556 -0.009050833 0.09111443 0.19386585 -0.07312931 0.18037397 -0.03230416
-0.124721445 -0.1335623 -0.16845208 0.0231246 -0.16416231 -0.0081830295 0.2686051 -0.19868484
-0.12104515 0.23358643 -0.17174007 0.20243648 -0.21296018 0.18191548 -0.23522224 -0.14937761
0.23491329 0.15177074 0.037708867 0.016607946 -0.067194834 0.050738215 0.05135537 -0.23167843
-0.13889618 -0.06434538 -0.12335457 -0.21939546 0.13851152 0.09562074 -0.19251096 0.13091564
-0.18657166 -0.1310381 0.10747549 0.05382927 0.09673052 0.0031763806 0.054541737 -0.012227244
0.19361834 0.036646176 0.07524227 0.19426946 0.18232925 -0.26311857 0.050972298 -0.1841503
0.024963506 0.09155485 0.049577225 0.22460976 0.036052424 -0.036566526 0.0933157 0.072136745
-0.08497432 -0.06865963 0.20699541 0.030458959 0.03715312 -0.04939764 -0.029790638 0.13980226
-0.010956331 -0.06030731 0.12916528 -0.14814553 -0.06487448 -0.18534201 0.17633176 -0.014839567
0.03238722 0.062485218 -0.22013785 0.2162387 0.13910149 -0.03443582 0.12068158 -0.112506844
-0.10644341 0.14128944 -0.08610649 -0.03267704 0.22634362 -0.04498547 -0.026013384 -0.13064742
-0.06830031 0.21487586 -0.114421904 -0.18566251 -0.13517459 0.16074698 0.13549735 -0.1346855
-0.05419342 0.14704467 -0.20251964 0.14347142 -0.11033434 -0.13905042 -0.07450925 -0.14649667
-0.14941016 0.11426939 0.08592767 -0.06638483 -0.2237363 0.02334081 0.043365635 -0.044817343
0.038693633 -0.19757865 0.07050646 -0.051695205 0.2078314 0.16581693 -0.008333733 0.14367543

layers.2.bias f4 [64]
00000000: a0df d8bd 0515 d2bd d1c0 ccbd cf35 c6bd
00000010: 729d ca3d 6216 e9bd b156 cabd 4f09 c4bd
00000020: 8bae d8bd d203 01be 4b42 c8bd aa3f c73d
00000030: 3562 c83d 3655 cabd 81dc cdbd 83ef c9bd
00000040: da69 f53d a300 c63d e4e4 dd3d 77d3 c73d
00000050: 745b ce3d 1bad 0ebe 1d7f cdbd c8a9 c93d
00000060: d379 be3d f6b2 c9bd 9be4 c5bd 1555 cebd
00000070: a1c5 cb3d ae3c cf3d c982 c6bd e005 cf3d
00000080: e874 e63d f8fe cebd d2e9 c6bd 3e40 cbbd
00000090: abb9 01be 288c d03d b507 f7bd 13ea c9bd
000000a0: 960e ca3d a377 d0bd 04f4 e53d 850c bf3d
000000b0: d64e f8bd c992 b5bd b1c6 cbbd 89d3 dbbd
000000c0: 8124 c4bd 44bf cdbd a89e c13d 3612 cbbd
000000d0: 39c5 bfbd c057 d2bd 7728 d1bd ea63 c83d
000000e0: 05e4 b6bd c099 c8bd bfb8 c93d 6576 cd3d
000000f0: 81e1 c63d 6b84 c83d adb8 debd 5dbd c6bd
-0.10589528 -0.102579154 -0.09997714 -0.09678232 0.098933116 -0.11381222 -0.09879816 -0.09572088
-0.105801664 -0.12599114 -0.097782694 0.0972894 0.097843565 -0.09879534 -0.100518234 -0.09860136
0.1198308 0.0966809 0.10834673 0.097571306 0.10076037 -0.13933222 -0.100340106 0.09846836
0.0930058 -0.09848587 -0.09662744 -0.10074822 0.09949804 0.101189956 -0.09692914 0.101085424
0.11252767 -0.10107225 -0.097125664 -0.099243626 -0.12668483 0.10182983 -0.12062017 -0.09859099
0.09866063 -0.10179069 0.11228183 0.0932856 -0.12124412 -0.08865888 -0.09950007 -0.107337065
-0.09577275 -0.10046247 0.094540894 -0.09915583 -0.09363789 -0.10270643 -0.10212796 0.09784682
-0.0893021 -0.097949505 0.09849691 0.100323476 0.0971098 0.09790882 -0.10875068 -0.09704087

output_layer.weight f4 [1, 64]
00000000: 89ec 8c3e bce3 aa3e f66a 9e3e 3a18 1d3e
00000010: 4c4b aabe c1eb 243e 98ed 5e3e 4979 7a3e
00000020: b061 463e 4bb9 213e 0be1 973e fab3 6cbe
00000030: db7d adbe e05a 833e 6178 b23e fd4d af3e
00000040: 13aa b8bd 5b22 7cbe 4d8c 88be 5906 a4be
00000050: 5e74 9bbe db38 1a3e f1e9 223e 2cea a8be
00000060: 8be0 9abe 79ed ab3e 3139 563d fae2 3b3e
00000070: 8f53 64be 33c7 3bbe 0daf 933e feb8 6fbe
00000080: 06d6 6dbe 3483 143e d907 9f3e 012f 6a3d
00000090: 3ba6 173e b571 7ebe e0f5 7c3d cf1f 8d3e
000000a0: 6b83 a8bd a58e 873e d6c4 01be bf36 66be
000000b0: 0435 203e a516 3b3d 2c62 a33e 203a fe3d
000000c0: 4ca4 8a3e bb86 4c3e e814 cebe 21e0 9b3d
000000d0: 3064 833e df7f 2e3e fad9 a03e aeba 27be
000000e0: 94ff 463e 4b3e ae3e 270f 99be 9ec1 82be
000000f0: 587f 82be 8381 b5be 1908 dd3d 39cc 963e
0.27524212 0.33376873 0.3094098 0.15341273 -0.33260572 0.16105558 0.21770322 0.24460329
0.19373202 0.1579334 0.29663882 -0.2311553 -0.33885083 0.2565527 0.34857467 0.34239188
-0.09016814 -0.2462248 -0.2666954 -0.32036093 -0.3036222 0.15060751 0.15909554 -0.3299116
-0.30249438 0.33579615 0.052300636 0.18348303 -0.222975 -0.18337707 0.2884449 -0.23410413
-0.23226175 0.14503175 0.31060675 0.057173733 0.14809506 -0.24848063 0.061757922 0.2756333
-0.08228191 0.26476017 -0.12672743 -0.22481821 0.15645224 0.045675892 0.31910837 0.1241343
0.27078474 0.1997327 -0.40250325 0.076111086 0.25662374 0.17040966 0.31416303 -0.16379806
0.19433433 0.340319 -0.29894373 -0.25538343 -0.2548778 -0.35450372 0.1079256 0.29452685

exp_avg f4 [64, 3]
00000000: 4e92 2400 4451 0080 4346 1f80 6bb5 1800
00000010: 73ff 0080 21b5 0780 1b96 3500 8700 0400
00000020: 1ed5 ba80 a4a8 0780 18fc 0080 cb8a 0880
00000030: c33a 0c00 f310 0180 9952 1200 0cfa 3300
00000040: b946 0280 1ed9 1780 e045 1d80 304d 0000
00000050: 2656 5100 4621 0f80 e863 0380 82f3 3900
00000060: 03ed 8b80 e744 0480 5ceb 2501 9bfc 3e80
00000070: 9e7d 0180 e737 6700 a3df 7980 b2de 0d80
00000080: 810c a301 ff30 3680 6f73 0080 03c1 4700
00000090: 6f39 c000 a3e8 0e00 d320 ca81 daf2 7100
000000a0: 1aee 0000 eea3 8180 9164 2c00 e682 0100
000000b0: bfc5 a880 21c5 4a00 7ae9 0300 b615 fe80
000000c0: c225 4600 8972 0300 59de d080 a325 9a80
000000d0: 5500 0d80 6d9e 9901 c81e 4100 8445 0600
000000e0: 2fb2 0c81 8b0f 3980 349b 0000 659c 2100
000000f0: 11db 0680 fb47 0180 16ae 1200 e517 0a80
00000100: 4afd 0080 466a 4c00 1af3 2880 16cd 0480
00000110: b843 b900 ed55 1500 8d01 0080 1a60 0880
00000120: eed3 1f00 2174 0100 3e71 2a80 826b 4200
00000130: c96e 0100 54f7 d180 d860 3600 6aa9 0180
00000140: 8df7 3680 6e61 c180 f60e 1180 09bc d101
00000150: c657 0f80 a643 0280 bbf3 2900 72e7 6c80
00000160: fb6a 0180 76ad 9400 3ffb 0d80 54c6 0000
00000170: 0a96 1980 155e 2e80 ca74 0080 48fb 4800
00000180: e3fe 2200 6878 0080 4c5e 1e80 8d52 5c00
00000190: baba 0080 05f1 3d80 a08d 2780 dce6 0000
000001a0: 0744 1000 1443 3580 fdc6 0180 bae7 a000
000001b0: 6fd1 0500 7ad5 0100 ba91 2c80 c7f5 5200
000001c0: b20b 0300 0bda ee80 1691 4d80 9ffc 0000
000001d0: 7904 3600 6724 1280 8d90 0680 28bf cf00
000001e0: 35ca 3f00 7d24 0100 4aaf 4d80 49b2 1380
000001f0: 7008 0000 0481 0900 b0f6 5280 22a3 0a80
00000200: cd4f 6e01 5a07 3580 67e1 0480 6c7e 1501
00000210: 712f 1f00 1c34 0400 a85f 6d80 9279 7a00
00000220: 5c1f 0600 4c3d 5e81 200b 6a80 1b6a 0180
00000230: 0dc6 5400 68a3 8c00 7ae1 0600 23db 2881
00000240: a73a 6800 f83b 0180 1c2d 6b80 b365 9180
00000250: 9f3d 0480 b23d 0d01 ef69 4800 1e3f 0200
00000260: 2ae5 4980 7ce2 2e00 bdc3 0080 50cb 2380
00000270: 9714 6500 284a 0c00 4e76 8581 2961 5180
00000280: 8c1d 0380 ac13 cb00 9d7f 3f00 2c18 0000
00000290: 077d 3480 eac1 5300 9517 0100 f28d 8680
000002a0: 8f40 3e00 fb47 0500 b79a 0b81 fa16 6700
000002b0: 72b9 0600 04fd 6d81 808b 4a80 0d09 0080
000002c0: 9996 4500 0505 6200 2bb6 0900 8504 6481
000002d0: 0289 0180 6c07 0380 d8f0 2700 c55f 7680
000002e0: 7d40 0280 7304 c400 e528 2580 c906 0180
000002f0: e479 2e00 874c 1f00 2a49 0000 c1ba 0a80
3.358562e-39 -2.9153e-41 -2.872106e-39 2.269132e-39 -9.1638e-41 -7.07825e-40 4.921129e-39 3.67531e-40
-1.7157854e-38 -7.03345e-40 -9.0434e-41 -7.84474e-40 1.123106e-39 -9.7916e-41 1.68267e-39 4.77331e-39
-2.09042e-40 -2.190103e-39 -2.688296e-39 2.769e-41 7.46958e-39 -1.389469e-39 -3.11346e-40 5.321977e-39
-1.2850158e-38 -3.9206e-40 3.0474576e-38 -5.784419e-39 -1.36898e-40 9.47911e-39 -1.1192321e-38 -1.27375e-39
5.9894686e-38 -4.976693e-39 -4.141e-41 6.58956e-39 1.7653019e-38 1.369151e-39 -7.425018e-38 1.046453e-38
8.5415e-41 -1.1905586e-38 4.076838e-39 1.38793e-40 -1.5499301e-38 6.866543e-39 3.59262e-40 -2.3334004e-38
6.44203e-39 3.16594e-40 -1.9181547e-38 -1.4156168e-38 -1.19398e-39 5.6430653e-38 5.98035e-39 5.7595e-40
-2.584178e-38 -5.240199e-39 5.5676e-41 3.086675e-39 -6.29599e-40 -1.17657e-40 1.715489e-39 -9.26927e-40
-9.0863e-41 7.017621e-39 -3.760628e-39 -4.40913e-40 1.701386e-38 1.95937e-39 -5.56e-43 -7.69159e-40
2.922926e-39 1.33495e-40 -3.897714e-39 6.099709e-39 1.31578e-40 -1.9282343e-38 4.993858e-39 -1.5261e-40
-5.047921e-39 -1.7759202e-38 -1.56657e-39 7.704429e-38 -1.40902e-39 -2.07939e-40 3.85269e-39 -1.000126e-38
-1.30213e-40 1.365388e-38 -1.283992e-39 7.1147e-41 -2.349711e-39 -4.258183e-39 -4.1896e-41 6.702298e-39
3.213843e-39 -4.3194e-41 -2.788892e-39 8.478479e-39 -6.6985e-41 -5.688427e-39 -3.63239e-39 8.2817e-41
1.493772e-39 -4.891344e-39 -1.63219e-40 1.4776807e-38 5.34308e-40 1.68416e-40 -4.093039e-39 7.618679e-39
2.79702e-40 -2.1935067e-38 -7.12338e-39 9.0623e-41 4.960721e-39 -1.666098e-39 -6.02868e-40 1.9078522e-38
5.858174e-39 1.04925e-40 -7.134215e-39 -1.808831e-39 3.027e-42 8.72802e-40 -7.619005e-39 -9.76876e-40
4.377095e-38 -4.869919e-39 -4.48201e-40 2.745768e-38 2.863919e-39 3.86035e-40 -1.0044384e-38 1.1247542e-38
5.62263e-40 -4.081894e-38 -9.738553e-39 -1.29899e-40 7.785229e-39 1.2915589e-38 6.31899e-40 -3.101395e-38
9.571932e-39 -1.13348e-40 -9.84258e-39 -1.335263e-38 -3.89447e-40 2.5941874e-38 6.650158e-39 2.06313e-40
-6.7862e-39 4.30568e-39 -7.0218e-41 -3.287177e-39 9.282771e-39 1.128628e-39 -4.9026243e-38 -7.47353e-39
-2.86106e-40 1.8649663e-38 5.831415e-39 8.671e-42 -4.820297e-39 7.69191e-39 1.00295e-40 -1.2356877e-38
5.71696e-39 4.84999e-40 -2.564127e-38 9.467299e-39 6.17538e-40 -4.3711555e-38 -6.84587e-39 -3.247e-42
6.390673e-39 9.001679e-39 8.91869e-40 -4.188023e-38 -1.40985e-40 -2.78169e-40 3.667983e-39 -1.0870944e-38
-2.06805e-40 1.8001353e-38 -3.412584e-39 -9.427e-41 4.268159e-39 2.874353e-39 2.6246e-41 -9.8535e-40

exp_avg_sq f4 [64, 3]
00000000: a531 9e33 5b2b 1a32 328e b633 f249 d131
00000010: 3810 2630 39b2 a631 911c 0834 06a8 7d32
00000020: cbb0 4d34 0786 7432 9f26 a830 5917 1b32
00000030: c880 a233 6527 3132 59e6 0234 4a43 a133
00000040: a938 c931 4cd3 a133 20db 2633 775d 4031
00000050: 3be8 3433 b3fa 3733 843b 9a31 54e3 5233
00000060: 02e5 b232 98e9 cb30 2162 d032 0cd3 2933
00000070: 103c 9031 8ddc 4e33 0c25 c633 4aeb 2932
00000080: 4f3c e633 80e1 d432 77a7 3431 c392 fb32
00000090: 036c e333 93fe 2032 96ba fc33 4e54 0632
000000a0: f0d5 3d30 43e2 fe31 dc71 5c33 9053 7b31
000000b0: b022 4f33 27af 1432 b622 0130 45d9 0432
000000c0: ffe3 a832 9975 2a31 f9fb c332 028c 0c34
000000d0: 14bc 3c32 a805 1234 4867 c233 ec1c 2932
000000e0: ee89 fc33 7513 d531 5fcf 3a30 8e23 c431
000000f0: 61cf a732 68cf 1c31 f946 a432 f4bf 1d33
00000100: c0c8 a831 abbc 5d33 8ccd a433 261f 0e32
00000110: 1c78 eb33 6221 9131 fd60 a32f 124b 8e31
00000120: ec05 8d30 a91b 5d2f bca6 bc30 9fc9 a133
00000130: 2b41 d031 5fc7 8f33 42eb 3d32 81a2 5a30
00000140: 1abc 2432 7dbf d533 1f7a 1232 83d4 ea33
00000150: bbe4 8232 1738 a230 3703 ae32 56eb bd31
00000160: 3258 f82f a666 8431 05ae bf32 24be 1331
00000170: 9f1d ac32 d7e7 ca32 4024 2931 8110 0c33
00000180: 6f49 5132 6742 5130 1cdf 9e31 266f d82f
00000190: 8e50 822e 72e8 ff2f e471 1d32 bde4 8730
000001a0: 95d6 3032 3de2 7433 b2ab d031 70a3 7c33
000001b0: b3b9 0234 69e7 6932 a2e4 3334 63e0 c433
000001c0: f6fa 2e32 ff43 0d34 793d 1d32 3cf8 f22f
000001d0: 5aef 9e31 db33 8133 e67e 9f31 c8a8 8033
000001e0: 2d1e 0233 e127 0731 22fa 7f32 33fc 3331
000001f0: 0b23 ae2f 3bf7 0931 7da0 ff33 8fa8 3532
00000200: 5b7f 1434 04d7 e633 2ab3 1d32 71fc 0334
00000210: 6420 a432 ae3f 2f31 c439 af32 ee7e d332
00000220: 2f9c c830 cfcc d932 5849 d630 f707 ef2f
00000230: 0958 4d31 7382 9533 a86d 1e32 5599 0834
00000240: e6a6 d332 56de 3631 220f 1433 3459 c533
00000250: 5dc7 2d32 92a8 1934 4093 1c32 a06e 0c31
00000260: 3150 a332 2059 1732 579c 4430 2bc7 1932
00000270: 72e8 7333 8246 7131 5797 5233 055b 5d33
00000280: 3af9 b331 6e10 4a33 ff34 d631 a993 6730
00000290: b5be fa31 3099 3e32 1922 5830 0257 4032
000002a0: 0c8a df33 72cb 0d32 facd dc33 294a 9433
000002b0: eeed c531 1052 a733 4bb7 eb31 fb47 2830
000002c0: 2259 e631 0a71 a133 722b 1e32 1e09 fe33
000002d0: 280d 9c33 955d 0332 eb48 d233 9b77 b833
000002e0: 61ed 3032 e777 1d34 436f 8231 7dcc ab2f
000002f0: a300 8031 0fe3 7832 f56b eb30 9efd 9832
7.3664786e-08 8.973838e-09 8.5009006e-08 6.091107e-09 6.0413496e-10 4.8514974e-09 1.267638e-07 1.4764742e-08
1.915643e-07 1.42331436e-08 1.2234586e-09 9.027496e-09 7.567138e-08 1.0311713e-08 1.2190993e-07 7.5093865e-08
5.8563114e-09 7.5355814e-08 3.884918e-08 2.7992806e-09 4.212073e-08 4.2836017e-08 4.488756e-09 4.910119e-08
2.0826068e-08 1.4836585e-09 2.425901e-08 3.9540325e-08 4.19778e-09 4.8163702e-08 9.226832e-08 9.890593e-09
1.072118e-07 2.4782594e-08 2.628864e-09 2.9286985e-08 1.05901584e-07 9.371109e-09 1.1768604e-07 7.818995e-09
6.9061823e-10 7.418096e-09 5.1326296e-08 3.6572807e-09 4.822749e-08 8.654559e-09 4.6979254e-10 7.732813e-09
1.9661455e-08 2.4805102e-09 2.2815572e-08 1.308945e-07 1.0985804e-08 1.3599367e-07 9.052616e-08 9.843671e-09
1.1759754e-07 6.201328e-09 6.79611e-10 5.708393e-09 1.9535664e-08 2.2818885e-09 1.9124387e-08 3.672899e-08
4.912266e-09 5.1627165e-08 7.674234e-08 8.27257e-09 1.0964888e-07 4.2238506e-09 2.9718442e-10 4.1412784e-09
1.0260783e-09 2.010966e-10 1.3726189e-09 7.5338214e-08 6.0610055e-09 6.695222e-08 1.1054739e-08 7.953887e-10
9.588826e-09 9.953417e-08 8.526086e-09 1.093513e-07 1.5238006e-08 1.1802993e-09 2.0257728e-08 5.5273786e-09
4.5173604e-10 3.8533754e-09 2.2314461e-08 2.1499398e-09 2.0036905e-08 2.3621324e-08 2.4613342e-09 3.26113e-08
1.2182098e-08 7.612812e-10 4.62377e-09 3.9369147e-10 5.926025e-11 4.6549392e-10 9.1644985e-09 9.887554e-10
1.0293339e-08 5.701644e-08 6.0731162e-09 5.8821968e-08 1.217475e-07 1.3615002e-08 1.675385e-07 9.167777e-08
1.0185195e-08 1.3156385e-07 9.15258e-09 4.4195925e-10 4.6256163e-09 6.016463e-08 4.6419357e-09 5.9911656e-08
3.029543e-08 1.9667754e-09 1.4899827e-08 2.6191287e-09 3.1675315e-10 2.0076658e-09 1.19035555e-07 1.0573912e-08
1.3829906e-07 1.0749321e-07 9.17934e-09 1.2292163e-07 1.9106842e-08 2.550205e-09 2.039895e-08 2.4621354e-08
1.4596305e-09 2.5355261e-08 1.5591395e-09 4.3479506e-10 2.9881468e-09 6.962082e-08 9.221743e-09 1.2721769e-07
2.463953e-08 2.661087e-09 3.44727e-08 9.189753e-08 1.0115255e-08 1.4310561e-07 9.113876e-09 2.0435564e-09
1.9012164e-08 8.8096215e-09 7.1526557e-10 8.951058e-09 5.6789254e-08 3.5110195e-09 4.9032078e-08 5.1538354e-08
5.2379194e-09 4.7046733e-08 6.2342447e-09 8.424715e-10 7.2976385e-09 1.1094286e-08 7.86288e-10 1.1195654e-08
1.0409357e-07 8.253538e-09 1.0282015e-07 6.905277e-08 5.760504e-09 7.7914706e-08 6.860238e-09 6.1220334e-10
6.7040142e-09 7.5177084e-08 9.206689e-09 1.1829455e-07 7.266709e-08 7.646482e-09 9.792151e-08 8.589924e-08
1.0298522e-08 1.4665385e-07 3.796147e-09 3.1250016e-10 3.7253627e-09 1.4487127e-08 1.7129184e-09 1.781046e-08

exp_avg f4 [64]
00000000: 6c3d 2900 357d 1f00 15fd 6900 c982 0380
00000010: a190 0200 d417 3f00 b1c0 3c80 caff 1f80
00000020: f814 f580 46f6 6680 968c 1a81 e8ac 4b80
00000030: b5b7 5701 99d9 9f00 1cd5 6300 d1b0 9e00
00000040: 0005 7b00 325e 2481 7433 9200 f2e2 4880
00000050: 7757 1080 d9a2 1d80 b56b 5d80 4c5a 1a00
00000060: 1507 2e00 3fa8 8300 5871 5000 f69b 5881
00000070: 2aac 1480 ecf3 9a80 0331 0780 9a6e 4180
00000080: bf0f 3200 f036 7600 bfac 2d80 bce4 5f80
00000090: d5be 1100 b77e 9d00 90ca 5d80 9e6e 4780
000000a0: 156e 5600 e9af 1380 16a6 da80 0856 8a80
000000b0: f98b 3700 91ee 0601 f8bd 8480 c788 ee00
000000c0: 3e9e 8b00 1206 e880 16db 5d00 1b1d 4100
000000d0: 8155 0201 f8bf 8780 8fd5 5100 8a37 8400
000000e0: bb5b 8e00 9956 f600 06d3 6780 a428 db00
000000f0: 1c63 0880 100a b180 265f 3a80 d3a1 2100
3.78729e-39 2.891816e-39 9.733516e-39 -3.22423e-40 2.35554e-40 5.794184e-39 -5.579254e-39 -2.93866e-39
-2.2507219e-38 -9.455567e-39 -2.8386198e-38 -6.949689e-39 3.9621067e-38 1.4679903e-38 9.168163e-39 1.4573438e-38
1.129756e-38 -3.0189625e-38 1.342644e-38 -6.693568e-39 -1.500744e-39 -2.721648e-39 -8.579339e-39 2.420115e-39
4.226973e-39 1.2090805e-38 7.3875e-39 -3.978483e-38 -1.898471e-39 -1.4230169e-38 -6.6043e-40 -6.008984e-39
4.597423e-39 1.0856296e-38 -4.194567e-39 -8.806427e-39 1.629661e-39 1.446363e-38 -8.613367e-39 -6.560002e-39
7.937343e-39 -1.807979e-39 -2.0079719e-38 -1.270416e-38 5.101165e-39 2.4783076e-38 -1.2190433e-38 2.1905915e-38
1.28219e-38 -2.1308013e-38 8.619294e-39 5.979748e-39 2.3938575e-38 -1.2466657e-38 7.515286e-39 1.2142209e-38
1.3073547e-38 2.2622597e-38 -9.534757e-39 2.0126553e-38 -7.70238e-40 -1.6258493e-38 -5.360592e-39 3.088623e-39

exp_avg_sq f4 [64]
00000000: 373e ac34 561c ea32 aa38 1735 3896 4033
00000010: c4e1 d134 eaf7 8334 f707 0634 5bb3 3934
00000020: 1b69 8b33 d1b7 4234 494b d234 871d dd33
00000030: f7eb ca34 352e 1833 2c75 1d34 210f bb32
00000040: 7e9b 9c33 aa5e f134 45a8 cf34 c789 0633
00000050: 3c67 a333 0ed9 3534 dbf7 ad34 997d 4c32
00000060: f182 1132 88cd 8334 739c 2833 7cc8 af34
00000070: 7ac5 6a33 41ff 8832 5cf3 a533 d130 da33
00000080: 1e53 f932 aa2a 8e31 91eb 5e33 82ca 7434
00000090: f5fe 0f35 65f5 dd34 6084 ac32 02b3 4e34
000000a0: cd73 ad33 b061 5432 8462 e434 0cf9 c734
000000b0: cea0 ab33 66ff 9533 e60d a032 29cc c134
000000c0: 4567 0134 4ad1 e434 29d1 9633 577e 1533
000000d0: 7338 2434 cd8a 4c34 2909 1733 b092 1d33
000000e0: 896c bf34 86c7 7a34 013d 1733 9411 c034
000000f0: 922e b134 e7d1 f934 880a 3532 26f4 aa33
3.2082764e-07 2.7254071e-08 5.633434e-07 4.4840107e-08 3.909355e-07 2.4581033e-07 1.248262e-07 1.7294717e-07
6.4918105e-08 1.813453e-07 3.9170325e-07 1.02964854e-07 3.779712e-07 3.5432283e-08 1.4664391e-07 2.1776545e-08
7.2926e-08 4.4958625e-07 3.8679187e-07 3.1324614e-08 7.609057e-08 1.6935903e-07 3.24041e-07 1.190292e-08
8.4698835e-09 2.4550195e-07 3.9257838e-08 3.2742162e-07 5.4661975e-08 1.594856e-08 7.727678e-08 1.0160296e-07
2.9025212e-08 4.1375943e-09 5.190265e-08 2.2797943e-07 5.364266e-07 4.1343006e-07 2.0083633e-08 1.9250368e-07
8.077004e-08 1.2362236e-08 4.253999e-07 3.7247844e-07 7.992058e-08 6.98481e-08 1.8632772e-08 3.6097597e-07
1.205163e-07 4.2620587e-07 7.022965e-08 3.480667e-08 1.5294226e-07 1.9049476e-07 3.516576e-08 3.6687823e-08
3.5655492e-07 2.335565e-07 3.521291e-08 3.5775577e-07 3.3002704e-07 4.6532588e-07 1.0537981e-08 7.960652e-08
