experiments/ppo_pendulum_first_try_20250829_061117/checkpoints/auto_step_53248.pt (torch, 145653 bytes, 44 tensors)

shared_layers.0.weight f4 [64, 3]
00000000: e099 a93e 4009 fdbd 9893 403e bd6f 083e
00000010: a6be c8bd 24d9 823d 419d 80be d22d 873d
00000020: 53ae ecbc 0e9b 0b3e 41b2 9abe 8460 833d
00000030: d53b 88be a31d f3bc c664 36bd bd10 8f3e
00000040: 6a24 57be 5bd8 8b3d c3fc 98bd 5e9f 8a3e
00000050: 32ae f0bd 3e60 943d c291 88be ba54 9d3d
00000060: 2372 a13d 61be 203e 0fbe 47bd bb83 5fbd
00000070: f259 0ebe d106 933d c3c4 8abe 27d3 7d3e
00000080: 0015 c03d b256 3dbc 2034 4f3e 5fea 17be
00000090: 2693 bb3e 411e ec3b 81a7 4c3e 543b a4be
000000a0: f392 123e 7746 6ebe 3ba1 2c3e 22c5 dfbd
000000b0: d2dd 99be d69e d03e a301 a6bd 8400 373e
000000c0: 841e 18be 4e0e 9b3d e21a bc3c a198 f0bd
000000d0: efd8 893d e72b 13be 2ae3 9e3e bdd4 eabe
000000e0: 45e8 4a3e 48ea 94bd 303a 193e 241d 42bd
000000f0: a3b1 113f 7510 553e bea4 533e 9d4e 623e
00000100: 01db 953b f670 173e 6371 8cbe c519 0c3e
00000110: 047e 943e 87e5 0b3d 91a1 033d c5d5 1fbd
00000120: 2732 21be cf58 c9bc 1cc6 533e 511a 0abc
00000130: 3ebe 253d c534 afbd 09b4 b03d e51e debd
00000140: 743d 213e 047a 88be c57c 173e 2a20 15ba
00000150: ed96 efbd 997b 583e 0ae4 0cbe fc79 043d
00000160: 95f0 6bbe 26cd 9e3d e72f a5bd c9b6 a13e
00000170: dd8d 14be 1775 073f 0d6d 68be b274 953e
00000180: d9d7 3f3e b782 babd 7803 05bf 5633 a13e
00000190: d1a8 253e c657 5f3e 62dc 0bbe 57f7 cc3c
000001a0: 4330 b63d 3c24 6dbb 4b1d dfbd 3767 163e
000001b0: 81c1 693e 93e7 1ebe 306d c2bd 9872 e7bc
000001c0: 19c7 5abd e668 40b7 d94c 63be bc64 5bbe
000001d0: 20cd 3c3d fe3f 043e 675c 95be 7b9a ae3d
000001e0: 4937 0c3e 1774 873e 150c a4bd f143 9ebc
000001f0: 74b8 aa3d 7d0d b83d a70a 16bd 86e3 eebd
00000200: 61aa 02bf 7c24 8c3e 104d 5ebd 1a75 4a3b
00000210: 183f 343e ed51 f13d 2c43 eabe fb2b a3bc
00000220: 499b d5bd 8071 6f3d 9d1c 973d dba8 803d
00000230: b3e0 02be 9f9c 813d 5de2 a2bd 9b21 a33c
00000240: 32ab 87be e6e7 91bd 81fb dabd f5a9 b63e
00000250: a392 d03b f680 a5be 6eed 553e f951 2bbd
00000260: 3215 b1be 1f6f e33d 5bc3 9a3d 8fb6 1b3f
00000270: a24c f23d c5a5 df3e 605c 09bb 552f 2abe
00000280: ce9c 743e 9ff5 813c a22e 23be 57d1 993c
00000290: a385 193d cfd5 813d ec68 2fbd 5502 00be
000002a0: 0a29 0b3e c6c7 9a3d 4891 bcbe 9952 2fbe
000002b0: 874d b03d 3f17 66be 008d 7ebe 3904 dc3c
000002c0: 5bc4 a23e a239 693e 9156 1abe 7044 c63d
000002d0: 7373 22be 4160 c43e e1ad bfbd d671 623d
000002e0: b41e b3be 2c48 a53d e3b3 6e3e 7ce4 08be
000002f0: 0c5c 073e 6875 3ebd d246 9fbe 3f63 383d
0.3312521 -0.1235528 0.18806303 0.13323875 -0.09801988 0.063890725 -0.25119975 0.066005364
-0.028891718 0.13633367 -0.30214122 0.06414893 -0.26608148 -0.029677218 -0.0445297 0.27942458
-0.21009985 0.06828376 -0.074700855 0.27074713 -0.11751975 0.07244919 -0.26673704 0.07682176
0.07883098 0.15697624 -0.04876524 -0.054568987 -0.13901499 0.071790345 -0.27103242 0.2478758
0.093790054 -0.011556314 0.20234728 -0.14835499 0.36635703 0.007205755 0.19985773 -0.32076514
0.14313869 -0.23269068 0.1685838 -0.10926272 -0.30052048 0.40746182 -0.08105781 0.1787129
-0.14855391 0.07571088 0.022962037 -0.11747862 0.0673083 -0.14372216 0.31032687 -0.4586543
0.19815166 -0.07271248 0.14963603 -0.047391072 0.5691168 0.20807059 0.20668313 0.22100301
0.0045732264 0.14789185 -0.27430257 0.13681705 0.29002392 0.03415444 0.032136504 -0.039022226
-0.15741788 -0.02457848 0.20681041 -0.008429126 0.040464632 -0.08554987 0.08628089 -0.108457364
0.15746099 -0.2665559 0.1479369 -0.0005688692 -0.11698709 0.21140899 -0.13758865 0.032342896
-0.23040994 0.07753973 -0.08065777 0.31584767 -0.14507242 0.5291304 -0.2269785 0.29190594
0.18734683 -0.09106963 -0.5195842 0.3148448 0.1617768 0.21810827 -0.13658288 0.025020285
0.08895924 -0.0036184927 -0.10894259 0.14687811 0.22827722 -0.15518026 -0.09493482 -0.028252885
-0.05341253 -1.1468515e-05 -0.22197284 -0.21425146 0.04609406 0.12915036 -0.2917206 0.085255586
0.13692965 0.26455757 -0.08010117 -0.019319506 0.08335963 0.08986948 -0.036631253 -0.116644904
-0.5104123 0.27371585 -0.05427271 0.0030892552 0.17602193 0.11783204 -0.45754373 -0.019918432
-0.10430009 0.05845785 0.073785044 0.062822066 -0.12781028 0.06328701 -0.079533316 0.019913485
-0.264978 -0.07124309 -0.10692502 0.35676542 0.0063651367 -0.32324952 0.20891353 -0.041826222
-0.34586483 0.11105179 0.07556792 0.6082544 0.11831023 0.4368116 -0.00209596 -0.16619618
0.23887941 0.015864192 -0.15935758 0.018776579 0.03748096 0.06339609 -0.04282467 -0.1250089
0.13589874 0.07557635 -0.3682959 -0.17121352 0.08608537 -0.22469805 -0.24858475 0.026857482
0.31790432 0.22775891 -0.15072085 0.09681022 -0.15864353 0.38354686 -0.09359337 0.055284344
-0.34984362 0.08070406 0.23310809 -0.1336841 0.13218707 -0.046498686 -0.3110872 0.045016523

shared_layers.0.bias f4 [64]
00000000: f34f 07bd c061 e9bc 2b64 04be 028e 3e3d
00000010: cab0 6aba 897d be3c a446 d73c 34b9 f33c
00000020: 5679 973c 700b 4d3d 802d 26bc a8b8 b63d
00000030: d922 023c c30c f43b c566 08bd b156 dab9
00000040: 8cf5 74bd 4432 4cbd 5c99 18be 7547 81bd
00000050: fbc5 213d b854 6e3d 68ea 7a3d eed6 d2bd
00000060: 8321 81bd 3008 62bd 0429 5f3c 4d33 8abd
00000070: 7f89 323d d2e5 ef3b e897 b63d b473 dcbd
00000080: 239c 1ebe 270c 9c3d 5e59 1abe dddf 47bd
00000090: e5fe f13c 9c0f 21bd 2389 6fbd bc97 823c
000000a0: 2d10 383d fe15 0c3e 9c9b f4bd cde4 db3a
000000b0: fd65 18be f5b3 b43d 7123 433e 9440 733d
000000c0: dbc7 06be 97e4 8bbc b13b a5bd 751f 283e
000000d0: 56d8 c3bc 913e 86bd 132b 493c 1ecd f6bb
000000e0: 296b 99bd 4aa1 55bd 2471 10bc b31f 533d
000000f0: ae55 083d 46ad 13bd 2a43 c6bc 482a 7c3c
-0.03303523 -0.028488994 -0.12928836 0.046522148 -0.0008952735 0.02325322 0.026278801 0.029751398
0.018490475 0.050059736 -0.010142684 0.08921939 0.007942879 0.0074478104 -0.033301134 -0.0004164479
-0.059804484 -0.049852625 -0.14902252 -0.063124575 0.03949545 0.058186263 0.061258703 -0.10294901
-0.0630522 -0.05518359 0.013620619 -0.06748066 0.043588158 0.007321098 0.089156926 -0.10764256
-0.15489249 0.076195054 -0.15073153 -0.048797477 0.029540488 -0.039321527 -0.058480393 0.015941493
0.0449373 0.13680264 -0.11943743 0.0016776562 -0.14882655 0.088233866 0.19056489 0.05938776
-0.13162176 -0.017076774 -0.08068026 0.1641825 -0.023906868 -0.06554902 0.012278336 -0.007531776
-0.07491142 -0.05215577 -0.008816037 0.051543903 0.033284836 -0.03605392 -0.024201948 0.01539094

shared_layers.2.weight f4 [64, 64]
00000000: b85b 81be 335f 623e 73f8 4d3e 7cb7 fc3d
00000010: b088 16bc 140b fe3c d1ba ecbc 2c18 013d
00000020: 104b 883d 9591 9cbe 135a e4bd c3d8 783e
00000030: 5482 e13d 4b51 423e de6d adbe da4f 673e
00000040: d3c6 3cbd f02b 283e 0685 06bc f156 b3ba
00000050: 565a 07be fde5 40bd 988f 7a3c e2f0 0a3d
00000060: f740 e5bc 3fc7 aebd 81af f73d 7fa3 473e
00000070: 10e2 cebe 6b20 153e ebc5 f1bc 9df2 9cbe
00000080: f40f b93d 51d9 73bd 5a35 493e b1eb af3a
00000090: b1c7 c83e f483 863e e2fd dfbe 98a9 bfbc
000000a0: d1ea 9ebe 002b 7a3e 2124 ef3d cc9b a73e
000000b0: 9705 3bbd 17d8 fbbc 88ad c9bd a491 d03d
000000c0: b060 763d 2ba8 57bd c609 8dbe 18bb 703d
000000d0: 9e21 1d3d d1c8 873d 4d80 b53e 2c76 a13d
000000e0: d06f ddbd 06dc 87bb 9619 21be 0d93 62bd
000000f0: 24e6 143e 66dc c7bd 713c ae3c ccb5 45be
00000100: dd09 f3be 7455 a0be cdb0 53bd 2721 12be
00000110: ab7c 803c f607 2e3e 07a4 883e 58a5 babd
00000120: 0e9d 3b3e 0350 d8bd 816c e6bd db68 6dbe
00000130: f2bc 03bd 5af8 07bd 4427 cbbc f7fe 893e
00000140: 9ed4 e0bb 10f5 c23d 9ac2 bebd e891 3a3c
00000150: 4f56 b63d e466 4e3e 2ee3 343e c4d6 133e
00000160: 1dbf 39bc 87d9 b63d 25dc 7bbe 5210 58be
00000170: a77f 073e c362 14be 5678 89bd c8fc 073e
00000180: 14ee 80be 59ec 90be 2132 bc3c 1ec2 7bbe
00000190: 8eb1 d3bd a34e 233e a100 b23d 8cab 92bd
000001a0: 89e7 81be d854 973e 2ce5 51be bb6a 0fbe
000001b0: 3ec6 16bd 8392 3c3d 7dcd 673d 862d 983e
000001c0: 4238 1a3e 4ce9 6bbd 8025 1f3e 4980 09be
000001d0: d996 1d3e 3e00 f43d 9531 2cbd f512 0c3e
000001e0: 5de7 71be 8922 433e a5db df3c 94f4 a7be
000001f0: 72c8 823e 2c77 9e3e 729e 5ebc a3f4 75be
00000200: 3db7 443e 8b1f 1cbd c8e3 2abe 4fec d13e
00000210: adde 0c3d d96b eabb 04a3 533d 8f25 d23d
00000220: 590a 93be 3e47 343e 0ffa 5ebe 8c44 043e
00000230: 8fc5 1b3e 12b6 163e 3ed5 bebc a3f9 ef3d
00000240: f3b7 c13d 1d02 f9bd 6346 b93d 752b f83b
00000250: dbe9 b93e cd07 043e 5075 423d efe8 cebd
00000260: 583f a03e 0065 8b3d bbb9 773d 18b3 94bc
00000270: 9b59 e8be f371 0c3e 9778 123c 4121 b73e
00000280: 8d9d cc3d 10d5 043e 4df5 35be db5b 29be
00000290: 6786 06be ce6c 20bd 88b9 d2be 7ab6 1a3e
000002a0: baac 223e 11a0 d33c 3346 24be dafa 8fbe
000002b0: b41a 373e 5e47 50be 3b6b e5be e073 c4bd
000002c0: 1551 68be 1549 83be dae3 1d3e e3be 94be
000002d0: b2ad 9f3d 0d3d bf3c 44ef 923c b2c7 183e
000002e0: cfaa a13e 99fe eb3c a1f2 983d a430 7a3b
000002f0: 0975 f43d 8b55 853e 9595 023e 22ae da3d
00000300: 63ce bd3e 63c2 4bbe 1071 90bd d824 803d
00000310: 1f5b 51bc f6a2 f03d 7ce1 6f3e 1249 07bd
00000320: 430b 84bd 2714 2b3d 4078 9e3e 016d f1bd
00000330: edb5 e63e ac3b 3dbe 3759 72bd 9970 873e
00000340: 29bd 803d c7c7 cbbd 15fe a43d 04f1 de3d
00000350: 9bba e53d a93a 9e3d 6a80 21be f1d9 643e
00000360: 81bb 27be 19ba 863e c530 c73e 4205 50bd
00000370: 2b0d 5cbe 3b0f d4bd 6dee afbe 1c00 9f3e
00000380: 0646 863e 892b dabd 9122 82bd 286b 0abe
00000390: f546 013e 7873 793e 29e8 9a3e c26f 613e
000003a0: 741b 95be e2a4 eabd 7957 3d3e 9d9a 7ebe
000003b0: 2516 b33e 6b8b 09be d900 e8bd fca2 533d
000003c0: 4f31 87be feb8 b03b a815 00be 68fd 4e3e
000003d0: 8d46 b13d c16f 34be 949e a7b9 2c0a c63d
000003e0: 52ed 103d 3e1f 80be 5ea4 b53d 69db 093e
000003f0: 500b 1abe fa64 54be ceff 153d a5c4 29be
-0.25265288 0.22106628 0.20114307 0.12339684 -0.009187862 0.031011142 -0.028897675 0.031517193
0.06654942 -0.3057982 -0.11149993 0.24301438 0.11011186 0.18976323 -0.33872885 0.22589055
-0.04608805 0.16423011 -0.008210426 -0.0013682527 -0.13218054 -0.047094334 0.0152930245 0.03392113
-0.02798508 -0.08534097 0.120940216 0.19495963 -0.40406847 0.14563148 -0.02951332 -0.3065385
0.09036246 -0.05953342 0.19649258 0.0013421682 0.39214852 0.26272547 -0.43748385 -0.023396298
-0.31038526 0.24430466 0.11676813 0.3273605 -0.045659628 -0.030742688 -0.098475516 0.10184029
0.060150802 -0.05265061 -0.2754652 0.058772177 0.038362138 0.066300996 0.35449448 0.078838676
-0.10812342 -0.004146102 -0.15732417 -0.05531602 0.14540917 -0.097588345 0.021269055 -0.19307631
-0.47468463 -0.31315196 -0.051682282 -0.14270459 0.015684446 0.16995224 0.26687643 -0.09113568
0.1832163 -0.10562136 -0.11251164 -0.2318453 -0.032162614 -0.03319583 -0.024798997 0.26952335
-0.0068612834 0.09519398 -0.09314461 0.011387326 0.08903181 0.20156437 0.17664787 0.14437395
-0.011337069 0.08928209 -0.24595697 -0.21099976 0.13232289 -0.144908 -0.067124054 0.13280022
-0.2518164 -0.2830532 0.022973122 -0.24585769 -0.103366 0.15947966 0.08691526 -0.07161626
-0.2537196 0.29556918 -0.20497578 -0.14005558 -0.036810152 0.046038162 0.056592453 0.29722232
0.15060523 -0.057595536 0.15541649 -0.13427843 0.15389575 0.11914109 -0.042039473 0.13679107
-0.23623414 0.19056143 0.027326414 -0.32803786 0.25543553 0.30950296 -0.013587581 -0.24019103
0.19210525 -0.03811602 -0.16688454 0.41000602 0.034392048 -0.0071539697 0.051669136 0.1026107
-0.28718832 0.17605302 -0.21775077 0.12916774 0.15212081 0.14717892 -0.023295041 0.11717536
0.09458914 -0.12158606 0.09046628 0.00757354 0.3631123 0.12893601 0.04747516 -0.10103022
0.31298327 0.068063736 0.06047986 -0.018151805 -0.45380864 0.13715343 0.008939884 0.35767558
0.09990988 0.12971902 -0.17769356 -0.16538946 -0.13137208 -0.039166264 -0.41157174 0.15108672
0.15886202 0.025833162 -0.16042404 -0.28121072 0.1788128 -0.20339724 -0.44808373 -0.09592414
-0.2268718 -0.25641695 0.1541895 -0.29051885 0.077968016 0.023344541 0.017936356 0.14919928
0.3157563 0.028807925 0.07468153 0.0038175965 0.11936385 0.26041827 0.12752374 0.106777444
0.37071523 -0.19898371 -0.07052815 0.062570274 -0.012778073 0.11749832 0.23425859 -0.03302867
-0.064474605 0.041767266 0.30951118 -0.11788369 0.45060673 -0.18479794 -0.059167113 0.26453093
0.062860794 -0.09950214 0.08056275 0.10885814 0.11217233 0.07726032 -0.15771642 0.22348763
-0.16380121 0.26313856 0.38904396 -0.050786264 -0.21489398 -0.103544675 -0.34361592 0.3105477
0.262253 -0.10652835 -0.06354249 -0.1351744 0.12624724 0.24360454 0.3025525 0.22015288
-0.29122508 -0.1145723 0.184904 -0.24863668 0.34977832 -0.1343209 -0.11328287 0.051669106
-0.26404807 0.0053931465 -0.12508261 0.20213854 0.086560346 -0.17620756 -0.00031970872 0.09669909
0.035382576 -0.25023836 0.08869241 0.13462605 -0.15043378 -0.20741645 0.036620907 -0.1657892

shared_layers.2.bias f4 [64]
00000000: 99bb c9bd 1648 fbbd ff2d d63d 0fbc a23d
00000010: c300 8d3c de12 5a3d 6046 d63d 386f 8fbd
00000020: 5c20 51bd d898 64bd 4cd1 b83d 99ae 823d
00000030: 0e88 febd 307a 213d fdf1 c1bd 48d4 d5bd
00000040: cc7b a23d eac1 d33d 480f ca3d e833 343c
00000050: 45af 7ebd ebb6 b6bd b476 0dbd 5a40 05be
00000060: 0f2b 29bd 5eb0 16bd ff22 fe3d 91f3 93bd
00000070: 1c06 df3d 3a46 45bd 9cb5 f1bd eeaf d6bd
00000080: 7aa4 a83c cb9b afba 730c a83d bbb9 a1bd
00000090: dc15 52bd 2678 afbd e178 d5bd 8631 563d
000000a0: b2cb e13d c0dc ac3d e243 c63d 46c1 1abe
000000b0: 623a 29bd bd83 d73d 3f6a 5a3c 2363 13bc
000000c0: ed4f a4bd e8c9 e03d f8ec 3bbd b932 e53d
000000d0: 53b4 96bd 333f 7dbd d296 da3d 4617 c0bd
000000e0: f97d b23d dbaa 1a3d e640 9bbd 691d 99bd
000000f0: 28e4 babc 6fe7 c3bd c728 f1bd ae71 5e3c
-0.098502345 -0.12269609 0.10457992 0.079460256 0.017212277 0.05324065 0.10462642 -0.07003635
-0.05105625 -0.055809826 0.09024295 0.06380958 -0.12428294 0.039423168 -0.09469984 -0.1044088
0.07933769 0.103397205 0.09866196 0.010998704 -0.06217887 -0.089216076 -0.034537032 -0.1301283
-0.04130083 -0.03678929 0.12409019 -0.07224191 0.10889837 -0.048162676 -0.11802217 -0.10482775
0.020586241 -0.001339787 0.082054995 -0.078967534 -0.051290378 -0.08567838 -0.104234464 0.052293323
0.1102518 0.08440542 0.09680916 -0.1511279 -0.041315444 0.10523174 0.013330995 -0.008995804
-0.08023057 0.109760106 -0.045880288 0.11191315 -0.07358613 -0.06182785 0.10673298 -0.09379439
0.087154336 0.037760597 -0.07580738 -0.07476313 -0.022813872 -0.09565627 -0.11775356 0.013576908

output_layer.weight f4 [2, 64]
00000000: e295 c93a 62f5 b6bb aff7 943d 6567 aa3d
00000010: 8066 0c3b 5da2 503c c851 913d ce26 9bba
00000020: 8e80 0dbd 49e8 6a3d 0119 23bc a02f c2bb
00000030: d3ad a7bb 670e a0bb 2ba6 13bd fc16 21bd
00000040: 7baa 493d fab4 d53c 2511 63bc bf74 16bc
00000050: 896b 89bb e5f0 2d3c e433 013c dcaf 39bc
00000060: 77f5 093c f0f0 1abc bf03 393d 4bf3 0dbd
00000070: 68cf ab3b 2a47 61bd 7650 33bb 2fe8 c03b
00000080: 4969 bb3d 31d3 8cbd 42f5 873d d6b7 5d3c
00000090: 1d87 27bb acec 78bc 3a39 b4bc f100 33bc
000000a0: 3613 d9bb d31f aa3c 111b 69bc ff31 89bc
000000b0: ca1b 95bb 7917 e13b b4c4 cbbd 4ed7 e63b
000000c0: 7642 383c eb93 16bc 36d1 59ba 048a 943d
000000d0: dbc8 85bd affb d4bc 6c4c 693b e30a 213d
000000e0: 35c0 0dbc c770 dcba 503d 98bd b767 1d3d
000000f0: a351 47bb 4168 1e3c aebb 12bc 7177 7d39
00000100: 5d6e d1ba e55a 90bb e040 6bbd 2a4e 82bd
00000110: bbe4 783b d03a 93bb bdbd 58bd 0847 adbb
00000120: a957 b33c 3266 77bd c692 ebb9 63be 543c
00000130: 21b2 4fba 6318 07bb 0f6d ad3c d87c c73c
00000140: 158e 0abd f234 a9bc 08c1 1a3c a337 d9bb
00000150: 70f9 e23a 7af3 3bbc 8b24 4fbb eb57 be3b
00000160: 0c4f 67ba 97cb 04bc be37 10bd 0359 a23c
00000170: f39d e5ba ca92 213d bb79 15bc 8521 45bc
00000180: c6da 9cbd bd95 463d f66c 54bd f0ec b5ba
00000190: f75b 72bb b22e 7b3c 4d27 db3b 806c 853b
000001a0: 3688 913b 5125 74bc 38f4 053c 010f 2a3c
000001b0: bc43 37bc b0cb e0bb c174 a73d 6ae2 9f3c
000001c0: 766b b83b 6863 af3a 7c36 75bc 3be4 78bd
000001d0: ff39 513d dab4 573c 55eb 5abb 9a30 3ebd
000001e0: b6ec 873b 1563 7a3c fa34 663d 41dd 37bd
000001f0: 64ea 963a 596a babb 06e2 bd3a e0fd 2a3c
0.0015379752 -0.005583451 0.072738044 0.08320502 0.00214234 0.012734023 0.07095677 -0.0011837126
-0.034546427 0.05735043 -0.009954692 -0.0059260875 -0.005117157 -0.0048845294 -0.036047142 -0.03932856
0.04923485 0.026087273 -0.013859068 -0.009183108 -0.0041937274 0.010616516 0.007885907 -0.011333432
0.00842034 -0.009456858 0.04516959 -0.03465585 0.0052432306 -0.054999508 -0.002736119 0.0058870534
0.09150941 -0.06876219 0.06638576 0.013532599 -0.0025562712 -0.015193146 -0.021999944 -0.010925517
-0.0066246046 0.020767128 -0.014227645 -0.016747473 -0.004550432 0.0068692532 -0.099496275 0.0070447093
0.011246314 -0.00919054 -0.0008309068 0.07252887 -0.06532451 -0.025998918 0.003559853 0.039317023
-0.008651783 -0.0016818278 -0.074335694 0.03842899 -0.003041365 0.009668411 -0.008955879 0.00024172456
-0.0015978325 -0.0044053667 -0.057434916 -0.06362565 0.003797813 -0.004493095 -0.052915324 -0.0052880086
0.021892386 -0.060400195 -0.00044932048 0.012984845 -0.00079229666 -0.00206139 0.021170167 0.024351522
-0.033826906 -0.02065513 0.009445436 -0.006628947 0.001731677 -0.011471624 -0.0031607475 0.0058088205
-0.00088237296 -0.00810518 -0.03520941 0.019817835 -0.0017518386 0.03944663 -0.009123261 -0.012031917
-0.07658915 0.048482645 -0.051861726 -0.0013879817 -0.0036981085 0.015330957 0.0066880346 0.004071772
0.0044412864 -0.014901475 0.008175902 0.010379554 -0.011185583 -0.006860219 0.08176566 0.019517142
0.0056280447 0.0013381066 -0.014966603 -0.060764533 0.0510807 0.013165677 -0.003340443 -0.04643307
0.004148091 0.015282412 0.056202866 -0.04488874 0.0011513946 -0.005688947 0.0014486916 0.010436505

output_layer.bias f4 [2]
00000000: 4034 473d 3a54 13bf
0.048633814 -0.57550395

layers.0.weight f4 [64, 3]
00000000: 458c d43d fc94 cb3d fa92 923d 8d40 06be
00000010: 73d6 a03d a554 9bbd 6f95 06bd 2eeb 0d3e
00000020: 56e2 27be 4c59 843e 7150 413e 94fc 14bd
00000030: 22f5 b2bb 98f7 453e 150c 20be 8cc1 9c3e
00000040: 1b25 323e 99f6 44bd 0f5e b33e 43b7 2dbd
00000050: 9af9 a0bc 7202 57be 08b3 d4bd e999 d0bc
00000060: 3795 903e d159 ffbc cc33 963d ec70 5bbe
00000070: e19f 48be 3a28 923d 09e3 84bd aa6c b93d
00000080: 125e b83d 8673 7e3e 0d79 97bd 3cdd 8dbd
00000090: 43bd 8cba d58e 603e 81d4 a53c 3a5d a3be
000000a0: 1264 0a3e 4ad1 c53c 50b3 e83c db1e fb3d
000000b0: 06e2 5e3d 4041 9a3c 93c1 48bd 3c43 ae3c
000000c0: 2855 81be e182 80be 012a d03d f542 7bbe
000000d0: c8e3 013e 6526 aebd 1902 293e 9beb b1bd
000000e0: 4383 cf3d 74d2 84be 96e6 08bb 3302 febd
000000f0: 6e33 0fbe 011c f03c 2ee8 72bc 570c bc3e
00000100: 472e d23d 12a8 d0bc ad55 2a3d e62d 133e
00000110: 237a 6c3d e363 42be 3984 07bc dd2e bb3d
00000120: 7420 26be aedd 3bbd 6f8c 22bc a961 03be
00000130: a407 dbbd c2a3 30bc 2130 fbbb 8662 de3d
00000140: b4ce 56be e7da febd 6d99 783d 4300 c9bd
00000150: 26d4 9e3e 1777 6e3e cbad 26be f2e6 a3bd
00000160: ca54 a1be 8951 3e3e b6b4 b13e 1b50 b6bc
00000170: c8cd 0f3d 9a74 3fbe 9d03 103e 5efb d53d
00000180: 7ea3 933e ca1e cc3d 8baf 12be 55cc 0bbe
00000190: 2b2b d8bd c725 7abd 9b79 03be 9b25 26be
000001a0: babc 05bd 1a29 973d 4892 633d 446e 2c3e
000001b0: 0918 7ebc 27a4 d43d 94ab 993d 2e76 35bc
000001c0: b5ca 0dbd c1ee d43d 8fb0 45be 58f2 f93d
000001d0: cf9d 343e 2543 4c3e 673d a4bd b5dd 3839
000001e0: 7237 faba c33d 493d 8977 bcbd c970 353e
000001f0: 9d3b 3f3e 275c 22be 0869 8fbe e24d ff3c
00000200: cbc5 5ebd 4463 abbd 3e76 c63d 1280 323d
00000210: fde9 24bd f992 00be fc58 c2bd cf1f 13be
00000220: 99b4 6e3e 7ede 583e a1cf 9f3d 894b 8f3c
00000230: b644 3aba 1fd0 213e e2aa 873e c9c1 cfbd
00000240: 2b35 5b3e a345 843e d5bf 503c 5088 49be
00000250: a70e b0bc e491 9f3c 035d 693e 638f 503e
00000260: b146 1dbe bbcc 643c ed6e 1bbe 6c8a b33d
00000270: 66b2 073e 175e 79be 1351 b0bd d4c2 6e3d
00000280: 5295 f53c f852 503d 868f ff3d 79b9 e33d
00000290: 7403 5a3d f341 94be 5747 393e fda2 c83d
000002a0: a448 aebd 27eb 393e 1585 fbbd 73e8 0abd
000002b0: d1f0 34be b96b a2bd f95f eb3c 52cd 05be
000002c0: c6ae 063e 2788 dcbc 937a 26be ed4b 96bd
000002d0: d4c1 333d f01f 633d 13d3 ac3b 35f6 8bbe
000002e0: 46f5 acbc e492 593b f98d 8d3d bfec eabd
000002f0: eb71 eebc fdec 4abd 004b 463e 92ed d2bd
0.10378317 0.09940526 0.0715694 -0.13110562 0.07853403 -0.07584504 -0.032857355 0.13859245
-0.16394934 0.25849378 0.18878342 -0.03637369 -0.005461351 0.19332731 -0.15629609 0.30616415
0.17396967 -0.048086736 0.350327 -0.0424111 -0.01965027 -0.20997027 -0.1038571 -0.025464015
0.28238842 -0.031170757 0.07334098 -0.21429795 -0.19592239 0.07136579 -0.06488616 0.09053929
0.090023175 0.24848756 -0.073961355 -0.06926963 -0.0010737557 0.21929486 0.020242931 -0.31907064
0.13514736 0.024147648 0.028405815 0.122617446 0.05441477 0.018829942 -0.04901273 0.021272294
-0.25260282 -0.25099853 0.101642616 -0.24537261 0.12684548 -0.08503417 0.16504706 -0.08687516
0.10132458 -0.25941813 -0.0020889393 -0.12402763 -0.13984463 0.029310228 -0.014825864 0.36728165
0.10262733 -0.025470767 0.041585613 0.14372978 0.057733666 -0.18983416 -0.00827127 0.09139798
-0.16223317 -0.045865707 -0.009921177 -0.12830223 -0.10694817 -0.01078123 -0.0076656495 0.108586356
-0.20977288 -0.12444096 0.060693193 -0.09814503 0.3102123 0.23287617 -0.16277234 -0.08003034
-0.3151 0.1858579 0.34708184 -0.022254994 0.035108358 -0.18696824 0.14063878 0.10448335
0.28835672 0.0996681 -0.14324777 -0.13652165 -0.10555109 -0.061071184 -0.12839358 -0.16225283
-0.032650687 0.073808864 0.055559427 0.16838938 -0.01550866 0.10382872 0.07503429 -0.0110755395
-0.034617145 0.10397101 -0.19305633 0.122044265 0.17638324 0.19947489 -0.08019524 0.000176302
-0.001909001 0.049131166 -0.09202487 0.17718805 0.18675084 -0.15855466 -0.2800982 0.031165067
-0.05438785 -0.08368543 0.09690522 0.04357917 -0.04026221 -0.12556066 -0.09489629 -0.14367603
0.2331108 0.21178624 0.07803274 0.017492073 -0.00071055756 0.15802048 0.2649756 -0.101443835
0.21407 0.2583438 0.012741049 -0.19680905 -0.021491362 0.019478746 0.22789387 0.20367198
-0.15358998 0.013964827 -0.15179034 0.08766636 0.13251647 -0.24352299 -0.08609214 0.05829127
0.029978428 0.050860375 0.12478547 0.111193605 0.05322595 -0.28956565 0.1809362 0.097967125
-0.08509949 0.1815611 -0.12281243 -0.033913087 -0.17669989 -0.07930703 0.028732287 -0.13066605
0.13152608 -0.026920391 -0.16257696 -0.073387004 0.04388602 0.05545038 0.0052741854 -0.2733628
-0.02111305 0.0033199126 0.06911845 -0.11470937 -0.029107055 -0.049542416 0.19364548 -0.10299219

layers.0.bias f4 [64]
00000000: 90b0 d0be eac7 c43e fa3a 873e 7da1 ccbe
00000010: ff8b a0be c204 86be dc96 d5be 4a84 c13e
00000020: b7f6 c4be e7d8 843e a46a c1be 84d1 bcbe
00000030: 905d a7be afeb 953e 340b 943e b96b c7be
00000040: 42e8 773e 7abc 8c3e 9745 babe 1695 893e
00000050: a92c b23e f4b4 a9be 2879 b33e 97a7 c53e
00000060: f31c a33e 38b1 e93e a39b 3e3e aae4 7b3e
00000070: 6bd4 74be 0543 6d3e 057f a5be 944e 69be
00000080: 7106 77be 7980 873e 7086 cb3e cc7a 4dbe
00000090: fb2a 98be 52e8 5e3e 887b 6c3e fd9e d4be
000000a0: 2039 a7be 2092 4a3e 2475 923e 6aec cf3e
000000b0: 18c5 a43e d818 473e c43c cabe d253 7ebe
000000c0: b0d9 90be d119 cf3e c85d 7d3e aad3 bc3e
000000d0: 8a40 3dbe c969 883e ef62 933e 0dbd ac3e
000000e0: efe5 b43e c9a5 873e c46e 7a3e ceb9 ae3e
000000f0: 2387 b7be 4bdb c33e 1633 c6be 7893 9f3e
-0.40759706 0.38433772 0.26412183 -0.39966956 -0.3135681 -0.26175505 -0.4171666 0.3779624
-0.38469478 0.25946733 -0.37776673 -0.36878598 -0.3268857 0.29281375 0.28914797 -0.38949373
0.24209693 0.27487546 -0.36381218 0.26871556 0.34799698 -0.3314587 0.35053372 0.38604423
0.31858024 0.4564302 0.18614058 0.24598947 -0.23909156 0.23170097 -0.3232347 -0.22783881
-0.24123551 0.26465204 0.39751005 -0.20066375 -0.29720291 0.2176831 0.23093998 -0.41527548
-0.3266077 0.19782305 0.28604996 0.40610057 0.3218162 0.19443071 -0.39499485 -0.24836662
-0.28291082 0.40449384 0.24742806 0.36880237 -0.18481651 0.26643208 0.28786418 0.33737984
0.35331675 0.26493672 0.24456316 0.34126133 -0.3584529 0.38253245 -0.3871085 0.31167197

layers.2.weight f4 [64, 64]
00000000: 3901 a1bd 8796 fb3c 01f7 22bc fb8a d53e
00000010: 714b c03d a6c5 723e 0330 f53d d990 ad3c
00000020: fef3 a03c b469 abbe 28c8 363b 46de 913e
00000030: e342 b43e 95ea 52be eb0f 92be 3caa 8d3e
00000040: f6ed cd3d 2c8f 22bd b23e 403e 4cc6 823b
00000050: 2a6d 5dbe 1063 b53e 4c77 9b3d fe19 1bbd
00000060: 351a c5be e840 8ebe 8eea 12be 25ab 13be
00000070: 80ed 0e3e 1db3 d73d 1e78 703d 1877 5a3e
00000080: 6f6d ac3d 89dd 7cbd c416 dcbd 3d2b 083e
00000090: 959c 7c3e 7205 0fbd 8dd5 ae3d 60e2 b83e
000000a0: b458 923e aea7 fbbd af81 9e3a 002a 47be
000000b0: 87b9 debd ce75 3cbe 14d1 b03e 8a13 b4bd
000000c0: db7b f13d 33e3 b5be 90d9 863d fba4 f43d
000000d0: c807 d7bd 5cb9 a4be 9dcc 8bbe 53b6 35be
000000e0: 7bf9 31bd f875 86be 03cb 03be e1d4 f4bd
000000f0: de85 1a3e 8222 1fbe b34b d6bc 3445 c9bd
00000100: aa6f 153e dd01 57be d9c6 753d ae5b 443d
00000110: f3d5 babc 5707 ac3c 4bf4 e83d 5778 4dbe
00000120: 5f50 acbd 537c 27bd cc0e 353e 6273 583e
00000130: 5295 903e e047 ecbd d062 813d 80fa ba3d
00000140: 13a9 abbd dcfd 623d 1305 a4bb 837d 3b3d
00000150: 5517 a8be 4202 9d3e 009f c7bb a857 3fbe
00000160: f436 c4be d1f3 4bbe c22d 6dbe 61c8 863d
00000170: af28 e53d ed8c 3bbd f090 453e 19e2 163d
00000180: 190f 7bbc 1c82 083d 2706 dd3c 80c5 763e
00000190: f503 173d 2cbf 9cbd 4a1a 00bd 9962 1f3e
000001a0: b04e fabc dd5e 78be 8564 8ebe d464 80be
000001b0: adc2 c7bd 24e9 75be 7bc3 733e 1575 8c3e
000001c0: 6186 863e e4c3 97be 26c0 c13d 6275 7cbe
000001d0: 74f4 a23d 0d2c 69bd e934 96bc 89c1 b3bd
000001e0: 64d9 3fbe 1919 31be a59a 1cbd b271 c53d
000001f0: 7a11 d13d b19a 91be d3ea 753e a126 dbbd
00000200: 6cb3 013e 2834 8f3d bed4 043e edbd 323e
00000210: 4227 7d3e 0e25 9b3d 4c4d 0b3e e6af 4abe
00000220: 3387 783d 8c53 04be fc2b 11bd 82d5 853e
00000230: e549 883e c18d 8cbc e95e 4ebd 639c ba3d
00000240: 160e 5ebe 5c51 96be c2aa d23d 3525 94be
00000250: d5fe b9be 7483 be3e ee93 30be 261c 8abe
00000260: 8d60 e2be 8c8f 4ebe f2ab db3d 1ad1 9a3d
00000270: 90f3 e93d b80e 11bd 8fbf 523e 4a11 323e
00000280: 018f 113e c3bd 24be 20af 02be 8308 2e3e
00000290: cb32 a93e fa84 a4bd d4e8 8dbd 8a22 003e
000002a0: d528 4cbd 972a 77be bef7 d9bd 50d1 e53c
000002b0: 1d85 85be 58b3 30be b59b 853e 03e8 2b3e
000002c0: d4e3 e33d f47d a5be 30c3 15bb b6d7 d83d
000002d0: eba9 0fbe 98fa 26be 4cce 98bd 7672 53be
000002e0: 2f62 70be fd7c 1f3d 2661 82bd 2d59 aebd
000002f0: fb3b 8f3e 3f67 debe 3914 173d c809 933d
00000300: 0298 1d3c 5eeb 67be 35bc 053c c932 c53e
00000310: 1a0c d33d 45ba 0cbd 9445 e93d 6c06 74be
00000320: 336e e4bd 6753 aa3d 6369 07be 87f2 553c
00000330: fb93 e23d b924 a4be 5177 db3d cac8 683e
00000340: fcf9 5abe 9b51 83be 2993 733e 6dae 823d
00000350: 7927 f3be 10fc 38bc d41e eebd 82b3 f33d
00000360: b023 9dbe 3730 7dbe 3a57 a6bd bf2e 6dbd
00000370: 184d 803e 0652 35be a3cb 9c3e 093b 933e
00000380: cfc0 b1bb 85a8 3e3c 6e29 9ebe 57ae d73d
00000390: 3e95 8a3e 9ea0 8e3c 4d53 b03b fd7a c53e
000003a0: ea2c 843e 776a e73d 4d49 a4be 6c5f 6ebe
000003b0: 222e 7dbe 476f 27bd 5131 e03e 3456 0d3e
000003c0: ccce 013e cfa2 8a3c 3db3 3ebe 94c0 56bb
000003d0: f231 5c3e 7e80 49be 602d 76be 8286 8bbe
000003e0: ff21 c33d ed35 c93d 8f61 80bd 0427 61be
000003f0: 93ef 9f3e 996e 66be 396f 313e c21e 84bd
-0.07861561 0.030711425 -0.009946586 0.41707596 0.09389389 0.2370821 0.11972048 0.021187233
0.019647595 -0.33479083 0.0027890299 0.28489894 0.3520728 -0.20597298 -0.2852777 0.2766894
0.10055153 -0.03968732 0.18773916 0.003990924 -0.21623674 0.3542714 0.075911134 -0.037866585
-0.38496557 -0.27783895 -0.14347288 -0.14420755 0.13957787 0.1053221 0.058708303 0.21334493
0.0841931 -0.06173471 -0.1074653 0.13297744 0.24669106 -0.034917302 0.08536825 0.3611021
0.285833 -0.12287842 0.0012093092 -0.19449615 -0.1087523 -0.18404314 0.34534514 -0.08792789
0.11791202 -0.35524902 0.065844655 0.1194553 -0.10499531 -0.32172668 -0.27304545 -0.17745332
-0.043450814 -0.26261878 -0.12870412 -0.11954666 0.15090129 -0.15540507 -0.026159143 -0.098276526
0.14593378 -0.20996805 0.06000409 0.047938995 -0.022807097 0.020999594 0.1137472 -0.20065437
-0.08413767 -0.04089005 0.17681426 0.21137765 0.28238922 -0.115371466 0.06317675 0.0912981
-0.08381858 0.05541788 -0.0050054877 0.045773994 -0.328303 0.30665785 -0.0060919523 -0.18685782
-0.38323176 -0.19917227 -0.23161986 0.06581188 0.111894004 -0.045788694 0.1929357 0.036836717
-0.015323424 0.033327207 0.026980473 0.24098778 0.036869008 -0.07653651 -0.03127507 0.15564956
-0.0305551 -0.24254937 -0.27811065 -0.25076926 -0.09753928 -0.24014717 0.23805039 0.27433077
0.26274398 -0.2964164 0.094604775 -0.24654153 0.07956782 -0.056926776 -0.018335776 -0.08777148
-0.18735272 -0.1729473 -0.038233418 0.09640826 0.102084115 -0.28438333 0.2401536 -0.10700727
0.126661 0.0699237 0.1297178 0.17455263 0.24722007 0.07575427 0.13603705 -0.19793662
0.06067581 -0.12922496 -0.035442337 0.26139456 0.26618877 -0.017157437 -0.050383482 0.0911186
-0.21685061 -0.29358947 0.10286476 -0.28934637 -0.36327234 0.37209666 -0.1724393 -0.269746
-0.44214287 -0.20171946 0.10726155 0.07559414 0.11423409 -0.035414428 0.20580886 0.17389408
0.14214708 -0.16088013 -0.12762117 0.16995434 0.33046564 -0.08033176 -0.06929174 0.12513176
-0.049843628 -0.2413734 -0.10642956 0.02805391 -0.2607812 -0.17255914 0.26095358 0.16787724
0.11127439 -0.32322657 -0.0022851937 0.105880186 -0.14029662 -0.16306531 -0.07461223 -0.20649132
-0.23474954 0.038937557 -0.06366186 -0.08513103 0.2797545 -0.43438146 0.03688452 0.071796
0.009618761 -0.22648379 0.008162548 0.38515308 0.103050426 -0.034357328 0.11390224 -0.23830575
-0.11153831 0.08316689 -0.13223796 0.013058311 0.11063381 -0.32059267 0.10716117 0.22732845
-0.21384424 -0.25648198 0.23786606 0.06380925 -0.47491053 -0.011290565 -0.11626974 0.11899473
-0.3069129 -0.24725424 -0.08122106 -0.05790591 0.25058818 -0.1770707 0.30624112 0.28755978
-0.005424596 0.011636858 -0.30890983 0.105312996 0.27066988 0.017410573 0.005381024 0.38570395
0.25815517 0.112996034 -0.32087174 -0.23278588 -0.2472463 -0.040877607 0.43787625 0.13802415
0.12676543 0.016923336 -0.18623061 -0.0032768594 0.21503428 -0.19677922 -0.24040747 -0.2725106
0.095279686 0.09824739 -0.06268608 -0.2198754 0.31237468 -0.22503127 0.17327584 -0.06451179

layers.2.bias f4 [64]
00000000: 73b9 4fbe 1927 1bbe 8265 43be 5f0a 56be
00000010: ae07 243e a223 223e 7a36 143e 9f5d 1ebe
00000020: bfc9 54be ad6b 46be df5f 213e 6600 21be
00000030: 1929 4d3e 5335 373e f44f 34be 0e12 433e
00000040: f320 253e 86a6 36be 87fa 533e a003 3d3e
00000050: e441 18be 0cd3 373e 46f7 6d3e 041e 203e
00000060: 995f 723e 0668 313e bedf 383e 6eb0 303e
00000070: b3dd 2ebe a961 53be 838b 3cbe 8341 41be
00000080: 273b 723e 14d0 283e 42a3 1fbe 276a 58be
00000090: 6862 393e 3cc0 18be c4b6 243e df0f 48be
000000a0: daf9 29be 8292 38be a117 333e 9341 463e
000000b0: 98e4 2d3e 0973 35be 27b4 2b3e 412d 333e
000000c0: bca1 4c3e 7a11 4a3e 5bc3 87be 2d6f 2c3e
000000d0: 197b 46be 8a90 823e 84c7 433e d4d5 243e
000000e0: d33f 24be d9aa 723e face 3cbe 8601 29be
000000f0: 56d6 23be 78b7 213e 16fe 2cbe f3d9 6dbe
-0.20285587 -0.15151633 -0.19081691 -0.20902394 0.16018555 0.15833905 0.14473906 -0.15465401
-0.20780085 -0.19377013 0.15759228 -0.15722808 0.20035209 0.17891435 -0.17608625 0.19049856
0.1612585 -0.17836961 0.20701037 0.18458414 -0.14868885 0.17951602 0.23238859 0.1563645
0.2366928 0.17324838 0.18054101 0.17254803 -0.17076759 -0.20642723 -0.18412594 -0.18872647
0.23655377 0.16485626 -0.15589622 -0.21134244 0.18103945 -0.14917082 0.16085345 -0.19537304
-0.16599217 -0.18024638 0.17489482 0.19360952 0.16981733 -0.17719664 0.16767941 0.17497732
0.19983572 0.1973323 -0.26516232 0.16839285 -0.19382896 0.255009 0.19119078 0.16097194
-0.16039972 0.23697986 -0.1843833 -0.16504487 -0.15999731 0.15792644 -0.16893801 -0.23227672

output_layer.weight f4 [1, 64]
00000000: dbc0 1b3f 188f 5e3f 1f9b f63e 2959 1d3f
00000010: 4a02 38bf b5a8 43bf 6341 43bf c4cd 413f
00000020: a61b 053f fb9b 173f b383 44bf accf 5b3f
00000030: b192 f0be 9065 12bf f26c 103f f916 0cbf
00000040: e519 36bf 183a 023f c2df c7be 3a13 ffbe
00000050: a60b 3a3f 80ef 05bf fc37 dbbe 8f0a 5fbf
00000060: 7d5e 14bf b426 15bf 1287 28bf c6af 16bf
00000070: 561e 183f f225 003f 1db3 033f d858 f33e
00000080: 460d 09bf 3f76 29bf 5617 203f 1e64 0a3f
00000090: fac5 07bf b0d7 503f 18f2 0dbf 34bb 1a3f
000000a0: 47f6 303f c38c 113f c762 f6be 3316 19bf
000000b0: a382 25bf 7d39 0f3f c1f2 27bf 7c63 15bf
000000c0: f37b 07bf 9ffa f0be eb8c 033f 5bd7 16bf
000000d0: 358a 383f d6fd 0abf e3e1 f7be fa59 16bf
000000e0: 9d42 283f dda3 12bf 6560 073f 4d45 1a3f
000000f0: 9fea 2e3f 8dac 15bf 9cbb 283f 728e 043f
0.6084115 0.86937094 0.48165223 0.6146417 -0.7187849 -0.764293 -0.7627165 0.757046
0.51995313 0.5922238 -0.7676346 0.8586376 -0.46986917 -0.5718622 0.5641624 -0.54722553
-0.7113326 0.50869894 -0.390379 -0.49819356 0.72674024 -0.52318573 -0.4281615 -0.87125486
-0.5795668 -0.5826218 -0.658311 -0.5886196 0.5942129 0.500579 0.5144518 0.4752872
-0.5353588 -0.66196054 0.6253561 0.54059017 -0.53036463 0.81579113 -0.5544753 0.604419
0.6912579 0.5685541 -0.48122236 -0.597995 -0.6465246 0.55947095 -0.6560479 -0.58354926
-0.52923506 -0.4706621 0.513869 -0.58922356 0.7208589 -0.5429357 -0.48414525 -0.58731043
0.65726644 -0.57281286 0.5288146 0.60261995 0.68326753 -0.58466417 0.6591127 0.51779854

exp_avg f4 [64, 3]
00000000: 07d7 e53a 3839 9b3a 1634 18bb 6dc1 973a
00000010: 7c31 353a 0e17 aaba b7d5 b1ba 5cbe 10ba
00000020: 703f 7a3a f936 f03a 24a6 403a 8755 edba
00000030: 71ff abba d1e7 29ba fa49 8c3a 622a 2f3b
00000040: 1048 ab3a 53ed 0cbb bdf8 8cba 7734 11ba
00000050: 1709 b93a 036a 583a 75f5 ff39 f4f9 bcba
00000060: c054 95b8 e0ba 4fb8 a267 ceb8 b362 06ba
00000070: f0e1 2fb9 0841 50b9 1369 41ba f6f1 bfb9
00000080: 9285 0a3a c189 d7b9 a63b d3b9 5bc7 9a3a
00000090: c9c4 283b bcae b93a 7139 2cbb c1bf fbba
000000a0: 80c0 93ba a87e 133b a739 5b3a d8c8 cc38
000000b0: 5923 2836 b049 1f3b 996d b03a ffcf 1fbb
000000c0: f2bc d8b8 e144 1ab7 2527 4db9 e02c 19ba
000000d0: 8679 3ab9 0174 f039 ef99 3d3b 4b69 cd3a
000000e0: 9f8e 44bb eca9 1bba 9f08 9bb9 faae 8a3a
000000f0: cefe 0f3b 098e a13a ae80 00bb a93d f13a
00000100: 1d17 823a ad8d 06bb 953f 32ba 434a 9cb9
00000110: f627 9c39 2d59 593a 1aa3 6f39 00fc 14b8
00000120: bd82 6138 d043 eb38 0815 71b9 9201 5f39
00000130: 783e 5737 c6ae 1d3a ab26 0d3a cc2a 9d39
00000140: 0f3c 4aba 5165 b4ba 21a2 3aba 0fb3 8d3a
00000150: 3b43 d6ba 416d 4bba 12ab cd3a c48f cc39
00000160: 46f1 8c39 6aab 48ba 697a 69ba 0deb 12ba
00000170: 05be db3a 028e 573b 992b fd3a 96ee 67bb
00000180: 469c d13a 2fd2 113a 380d 00ba 04ae c33a
00000190: d978 593a 6a56 bfba 1c1c 0339 6f9f 7d39
000001a0: 4686 f9b9 a8b3 f1b8 bf23 6839 e475 77ba
000001b0: 730a 373a e92d 8b39 6025 c3b9 b050 9738
000001c0: ad53 f738 f95d 16b8 177e 1cb9 28df 0fb8
000001d0: e134 a9b8 1e1d e53a b3ea 533a 638d c6ba
000001e0: 633a b8b9 b414 c2b8 eee7 093a 818c 0fba
000001f0: 8e8c 38b9 aef3 93b9 3b76 553a aa71 1739
00000200: d211 0539 5a70 853a 3294 dd39 2ed7 35ba
00000210: f1ab 033b 9c9d 163a cad5 e1b9 dcf9 52b9
00000220: bb63 1c37 9833 f8b9 1ca7 62ba 01eb 09ba
00000230: ec97 7e3a 00bb 00b8 14b9 9f38 acd8 c5b9
00000240: 4205 06bb b1f9 87ba 7bcf fd3a 6f31 963a
00000250: 56b7 c739 fc0b f3b9 2390 d13a 809d db39
00000260: d29e 4bb9 9d4e 51ba cda1 96b9 0d71 5e39
00000270: 2dd7 4bba 71bc 04b9 28c0 f637 1517 66ba
00000280: be5f d2b9 308a 2c3a 3ed6 f9b9 c72a 82b9
00000290: 6676 2c39 aa6e 6839 b498 b137 f1f7 2639
000002a0: b929 b03a 46a6 db39 e7a7 9bb9 98b2 a0b9
000002b0: 552e b9b9 6132 933a b80a 60ba e476 94b8
000002c0: 304d 5bb9 aec4 a33a ff08 2d3a 4db2 ccba
000002d0: 8d9a 0abb f5f0 7aba d343 003b fa6f fc3a
000002e0: 21c3 753a c47a 04bb 0652 0e3b 8e01 7c3a
000002f0: a84e e2ba d399 89b7 f3b1 fd38 db5f 65ba
0.0017535397 0.0011842614 -0.0023224405 0.0011578031 0.0006911976 -0.0012976842 -0.001356772 -0.000552153
0.0009546196 0.001832693 0.00073489756 -0.0018107154 -0.0013122392 -0.0006481382 0.0010703199 0.0026728143
0.0013067741 -0.002150376 -0.0010755282 -0.0005539129 0.0014117089 0.0008255543 0.0004882027 -0.0014417754
-7.1206596e-05 -4.9526687e-05 -9.8421486e-05 -0.00051264017 -0.00016773469 -0.00019860652 -0.0007378023 -0.00036610634
0.0005284186 -0.0004111063 -0.00040289498 0.001180868 0.0025752059 0.0014166455 -0.0026279355 -0.0019206927
-0.001127258 0.0022505913 0.0008362778 9.764888e-05 2.5054526e-06 0.0024305396 0.0013460397 -0.002438545
-0.000103348764 -9.195152e-06 -0.00019564906 -0.0005843174 -0.00017783613 0.00045862797 0.0028930863 0.0015671639
-0.0029992235 -0.0005938101 -0.00029570327 0.0010580712 0.0021971944 0.0012325655 -0.001960795 0.0018405217
0.0009925101 -0.0020531223 -0.00067996356 -0.00029809968 0.00029784412 0.00082911813 0.00022853576 -3.5520643e-05
5.376594e-05 0.00011218304 -0.00022991386 0.00021267522 1.2829543e-05 0.0006015118 0.0005384485 0.0002997726
-0.0007714638 -0.0013763105 -0.0007119496 0.001081081 -0.001634694 -0.00077601155 0.0015691242 0.00039017026
0.00026882644 -0.0007654937 -0.0008906485 -0.00056044833 0.0016765004 0.003289104 0.0019315361 -0.003539001
0.0015992008 0.0005562631 -0.0004884782 0.001492918 0.0008295901 -0.0014597897 0.00012503605 0.00024187354
-0.00047593022 -0.00011525239 0.0002213856 -0.00094398693 0.0006982453 0.00026546352 -0.00037221145 7.21527e-05
0.00011793464 -3.5850306e-05 -0.00014924291 -3.4301687e-05 -8.0683974e-05 0.0017479991 0.0008083984 -0.0015148338
-0.00035138716 -9.254497e-05 0.00052606955 -0.0005475954 -0.00017599968 -0.0002821958 0.0008142923 0.00014442825
0.00012690507 0.0010180578 0.0004226282 -0.00069366663 0.0020091499 0.00057455315 -0.0004307463 -0.0002012024
9.321545e-06 -0.00047340686 -0.0008646117 -0.00052611536 0.0009711969 -3.0691735e-05 7.616184e-05 -0.000377362
-0.0020449911 -0.0010374096 0.0019364202 0.0011458824 0.00038092834 -0.000463575 0.0015988391 0.00041888282
-0.00019418754 -0.00079844316 -0.0002873078 0.00021213685 -0.0007775899 -0.00012658701 2.9414965e-05 -0.0008777243
-0.00040125655 0.0006581871 -0.00047652604 -0.00024827404 0.00016447305 0.0002216647 2.1171152e-05 0.00015923359
0.0013440169 0.00041894818 -0.00029689 -0.0003065064 -0.0003532047 0.0011230224 -0.0008546519 -7.079335e-05
-0.00020914222 0.0012494528 0.0006600767 -0.0015617103 -0.0021149248 -0.00095726486 0.0019571676 0.0019259446
0.0009375085 -0.0020214776 0.002171637 0.0009613269 -0.0017265873 -1.6403303e-05 0.00012097126 -0.00087499403

exp_avg_sq f4 [64, 3]
00000000: 0037 ad38 c8b9 d337 6c6d b439 6342 5e37
00000010: 8069 8b36 61f7 8238 d326 b538 8db3 e237
00000020: 69c7 c739 3d46 ab38 d92a c837 2f32 ba39
00000030: 3a62 a437 b7aa e936 4eed 9e38 08f8 1039
00000040: b71c 3938 273b 123a abb3 af37 6817 c436
00000050: 02be c138 af41 2538 309a 3e37 d8f3 4939
00000060: b5cd e336 1df3 1b36 fa30 fc37 5c33 e636
00000070: e00c ef35 2601 1438 8f74 b836 d42d 0836
00000080: e3f8 8337 b27c b536 c501 c435 46a2 ca37
00000090: 0897 0139 8501 2138 28bf fc39 3154 9638
000000a0: 6175 b737 2e53 8a39 addf 4537 61ee 6a36
000000b0: abda 7e37 45b4 fa38 49fa 1d38 ac22 f939
000000c0: 3a83 9035 a93a f634 bac9 b036 c32d 1b37
000000d0: a698 2936 4f8f 0838 0bd6 0039 7677 1b38
000000e0: a406 003a bb2f c937 f6cd f936 1e90 ff38
000000f0: ecfb 0f39 4cc5 2e38 9e71 173a c45f ae38
00000100: 7cf6 da37 3008 b439 51e2 ec36 0516 3736
00000110: 7dd1 4737 33b8 a936 08ef c035 4154 ce37
00000120: 5417 f135 6366 2335 eb86 b436 6e35 d935
00000130: b6ca f934 3003 2e37 8c32 1837 863a 3736
00000140: 7024 1c38 1825 4b38 ef25 8637 c730 5939
00000150: 6e69 3d38 67f1 5e37 7ebb 3239 fc70 9737
00000160: 6dec b836 91d0 b738 e9a0 0f37 f46f 1b36
00000170: fbcc 2938 9026 4739 ec49 6938 c4aa 413a
00000180: 37f5 4a38 b66b 9837 fad7 7338 4171 8e38
00000190: 7fcd ae37 ca3a 8639 ae3a a036 5c67 ae35
000001a0: 717c a637 442b 9c36 0ed6 a735 6446 8e37
000001b0: ef11 3a36 7f97 8035 0482 0037 57f3 0835
000001c0: bf88 7734 bd7f 5836 b4c5 c735 b052 5135
000001d0: 7f70 4937 8964 8e38 ce6e ac37 01b9 8a39
000001e0: b237 8e36 7fb2 9d35 b4e0 af37 d013 a036
000001f0: c91e ab35 fe0a e237 ac2f 8937 85e8 9b36
00000200: 44b9 5137 7aed f436 fa93 3236 f150 e737
00000210: 86fd 4b38 e578 9837 b45d 8738 a466 9d36
00000220: 6175 ad35 abb1 d637 b1e1 c136 f242 bd35
00000230: 0b01 c837 63f1 1037 13e3 4436 c46a 3d38
00000240: 34be 0639 4829 2a38 d409 0b3a 2f70 eb37
00000250: 52a3 3037 c9f5 6f38 d4a5 cc37 d23e 1337
00000260: 36ee f837 90d1 8537 2e74 b436 cf01 6437
00000270: bd9d b037 15df b936 6066 bc38 70f3 b937
00000280: 47ba ea36 3eb4 b738 08de df35 b416 2735
00000290: 3620 fb36 4ed7 cb35 5312 0435 0f75 c136
000002a0: 7c80 ae37 728d f436 061f e637 60f6 2e37
000002b0: dbb9 5336 5e71 3938 fc4f 5137 0f6f 7e36
000002c0: a819 a537 51e0 2738 1df6 5337 6862 3a39
000002d0: e785 b838 44a9 df37 6ecc b739 65d4 6138
000002e0: 31a4 8637 b3bd 6939 76e3 9838 e4c3 bb37
000002f0: 0bd7 9239 794e 2937 6218 3b36 64fb 7e38
8.2595274e-05 2.5239671e-05 0.000344138 1.3247688e-05 4.1548046e-06 6.244961e-05 8.637984e-05 2.702491e-05
0.0003810481 8.166998e-05 2.386181e-05 0.00035514074 1.9596064e-05 6.963815e-06 7.5782285e-05 0.00013825309
4.413418e-05 0.00055782724 2.094529e-05 5.84398e-06 9.238349e-05 3.9400238e-05 1.1360782e-05 0.00019259693
6.7890746e-06 2.323831e-06 3.0063547e-05 6.860513e-06 1.7810635e-06 3.528702e-05 5.4971965e-06 2.0292255e-06
1.5732314e-05 5.408737e-06 1.4603653e-06 2.4155841e-05 0.00012358662 3.8386806e-05 0.00048207608 7.168239e-05
2.1869959e-05 0.00026383385 1.1794194e-05 3.5007472e-06 1.5190492e-05 0.00011954507 3.7664813e-05 0.00047518814
1.0767028e-06 4.5863752e-07 5.268693e-06 9.249375e-06 2.5271816e-06 3.2558393e-05 0.00012286768 3.7066136e-05
0.0004883802 2.3983293e-05 7.4447553e-06 0.000121861915 0.00013731391 4.166858e-05 0.0005777123 8.314804e-05
2.6102403e-05 0.00034338376 7.059695e-06 2.7281942e-06 1.19101e-05 5.058036e-06 1.4374682e-06 2.4596347e-05
1.7962689e-06 6.0871224e-07 5.3801245e-06 1.618331e-06 4.6527356e-07 1.037195e-05 9.071675e-06 2.730319e-06
3.7227233e-05 4.8433518e-05 1.5991709e-05 0.00020712904 4.51593e-05 1.3288437e-05 0.00017045249 1.8053215e-05
5.511151e-06 8.7649685e-05 8.560929e-06 2.3161965e-06 4.0483643e-05 0.00018992485 5.5620374e-05 0.0007387812
4.8388927e-05 1.8169969e-05 5.813686e-05 6.792183e-05 2.0838108e-05 0.00025602273 4.775203e-06 1.2994092e-06
1.984669e-05 4.654199e-06 1.2504768e-06 1.6960497e-05 2.7726599e-06 9.580834e-07 7.659666e-06 5.1018054e-07
2.3053416e-07 3.2260862e-06 1.4884195e-06 7.7978893e-07 1.2006726e-05 6.789814e-05 2.0555595e-05 0.0002645925
4.2384136e-06 1.1749361e-06 2.0966261e-05 4.770678e-06 1.2749452e-06 2.6946418e-05 1.6353872e-05 4.646429e-06
1.2500506e-05 7.2994126e-06 2.66102e-06 2.7575037e-05 4.8635084e-05 1.8176108e-05 6.454755e-05 4.6909136e-06
1.2923666e-06 2.5593521e-05 5.778122e-06 1.4101081e-06 2.3842344e-05 8.639271e-06 2.933845e-06 4.5160545e-05
0.00012850092 4.0569605e-05 0.00053038937 2.8066423e-05 1.0528443e-05 5.7210946e-05 2.4395915e-05 8.776509e-06
2.967483e-05 1.595242e-05 5.377943e-06 1.359028e-05 2.1054288e-05 5.5394e-06 8.9836074e-05 2.2167078e-05
6.995429e-06 8.759693e-05 1.6679414e-06 6.2245385e-07 7.4841328e-06 1.518734e-06 4.92005e-07 5.7654756e-06
2.0802247e-05 7.288233e-06 2.7432583e-05 1.0428572e-05 3.1549632e-06 4.421302e-05 1.2475994e-05 3.7913594e-06
1.968148e-05 4.0024814e-05 1.2633883e-05 0.00017775001 8.798745e-05 2.6662492e-05 0.00035056792 5.3841988e-05
1.6050502e-05 0.0002229128 7.290293e-05 2.2383356e-05 0.0002800751 1.0091456e-05 2.7879364e-06 6.0792445e-05

exp_avg f4 [64]
00000000: 86ca 18bb 080b beba 03de bd3a 6041 02bb
00000010: a8c7 d63a 91c2 4fbb 5848 a03a bfaa 75ba
00000020: 84a0 c138 5020 273a 7840 783a 1213 123a
00000030: 59ed 4bbb 1ce1 1a3b 8356 5bba 7e2f 45bb
00000040: 94db e738 ae3f 113a 3e3a 63bb 6bd5 283a
00000050: 9f30 2ebb 2fd9 0fbb 3e06 5c3a 58f7 73ba
00000060: 337d f6b8 f7cb 4fb9 71df 0dba 2616 d53a
00000070: 0b93 f33a 4647 e2b9 e5a5 8f3a 92df 86bb
00000080: bbd5 f8ba 2689 e0ba 2c0e 8db9 f56c f036
00000090: 16dc 50ba 4bd1 15b9 f6b2 3a39 6f6f 03bb
000000a0: 3229 a239 e298 2d3a c8f0 66ba 7c28 9fba
000000b0: d92b 1abb a1e1 5a39 a268 853a cbec 91b7
000000c0: 2bca 1b3b 3bb0 adba 2f7e eeba ca87 723a
000000d0: b58a 313a 0cec 883a b9d9 193a 280a 58b9
000000e0: 5fbd caba ef98 da39 b254 583a e2b0 c6ba
000000f0: cbea 203b b87d 13bb 0c1a 23bb 1ce6 ccb7
-0.0023314073 -0.0014499137 0.001448572 -0.0019875392 0.0016386406 -0.0031701664 0.0012228591 -0.00093714515
9.2328555e-05 0.00063753594 0.0009470056 0.00055722997 -0.0031116812 0.002363271 -0.0008367078 -0.0030088122
0.00011055838 0.00055408 -0.0034672166 0.0006440493 -0.0026579273 -0.002194952 0.0008393264 -0.00093065714
-0.00011753514 -0.00019817041 -0.00054120185 0.0016257211 0.0018583251 -0.00043159182 0.0010959475 -0.004116007
-0.0018984595 -0.0017130717 -0.00026904175 7.1652416e-06 -0.00079673657 -0.00014287715 0.0001780501 -0.0020055433
0.0003092974 0.00066222076 -0.0008809683 -0.0012142803 -0.002352467 0.00020874153 0.0010178278 -1.7395612e-05
0.0023771625 -0.0013251373 -0.0018195565 0.00092518015 0.0006772683 0.0010446324 0.000586893 -0.00020603149
-0.0015467814 0.00041694145 0.00082523667 -0.0015158916 0.002455401 -0.0022505354 -0.0024887351 -2.4425848e-05

exp_avg_sq f4 [64]
00000000: c5f0 e238 1e5f 9437 7042 ed38 cf77 dc38
00000010: 3621 e237 9aac 3f39 46d4 df37 ee02 5338
00000020: 3e38 1637 b25e 0f37 2bfe 0037 0f93 e736
00000030: 4d14 2a39 5e1b c438 b2d5 8037 9a2a 2539
00000040: b52c d535 1627 4437 71bd 2839 5f44 0338
00000050: 5f16 3c39 7474 e438 3232 2537 a9a4 d836
00000060: c698 2636 9650 0e36 90c1 4237 b763 8738
00000070: 1920 7538 0ad6 c337 a82d 3837 d169 8139
00000080: 05f5 8a38 956a b938 a74d d336 1e69 c536
00000090: bc25 8136 63c3 4d35 cfaf 1d36 fc2f b938
000000a0: 99a1 b236 353c cb36 e5b1 b037 c641 2c37
000000b0: 03ec 8b38 b8de c536 f4fb f636 11cc 4137
000000c0: 4689 3039 48d6 2038 c3b9 0b38 10c4 b237
000000d0: 988c dd37 a5f1 f537 cbc1 1c36 3917 0636
000000e0: eee2 ec37 b4bf 6137 57a1 8837 88c1 5c38
000000f0: 8d0d f138 ebde 9238 206c c838 6027 5537
0.000108213666 1.7687267e-05 0.000113134156 0.000105127336 2.6956764e-05 0.00018279479 2.668252e-05 5.030905e-05
8.953792e-06 8.545512e-06 7.688573e-06 6.9014563e-06 0.00016220026 9.351106e-05 1.5358299e-05 0.00015751497
1.5882748e-06 1.1691611e-05 0.00016092301 3.129651e-05 0.00017937411 0.00010893578 9.846453e-06 6.4564706e-06
2.4824853e-06 2.1206556e-06 1.1608368e-05 6.455875e-05 5.8442445e-05 2.3345481e-05 1.0977885e-05 0.00024683637
6.625991e-05 8.84134e-05 6.29733e-06 5.8832948e-06 3.8488924e-06 7.6652776e-07 2.3497157e-06 8.830425e-05
5.323626e-06 6.0568805e-06 2.1063674e-05 1.0267313e-05 6.671997e-05 5.8969854e-06 7.3607025e-06 1.1551209e-05
0.00016835806 3.8346538e-05 3.3313187e-05 2.1310552e-05 2.6410722e-05 2.93188e-05 2.3358614e-06 1.9981073e-06
2.8239065e-05 1.3455679e-05 1.6287593e-05 5.2632327e-05 0.000114942995 7.003344e-05 9.556883e-05 1.2704957e-05
