experiments/ppo_cartpole_homework_20250828_131215/checkpoints/final.pt (torch, 137613 bytes, 22 tensors)

layers.0.weight f4 [64, 4]
000000 0e 45 65 3e f0 c7 85 3e 4e bc 70 be 94 87 8a 3e
       0.22389624 0.26129103 -0.23509333 0.27056563
000010 4f 68 96 3d ca c9 bc 3d 69 5a b9 3d 13 89 7b 3e
       0.07344114 0.09218176 0.090504475 0.24564008
000020 78 ee fd bd 05 01 8e bd 8c f3 68 3e e1 dd 31 bd
       -0.12399 -0.06933788 0.22749156 -0.04342449
000030 ca 0b b3 3d 83 f4 39 3e 98 29 53 3e a0 d0 0c bd
       0.08742483 0.1815968 0.20621336 -0.034378648
000040 29 78 82 be ee 58 b2 3d 77 be 2c 3c 3a d8 24 3d
       -0.254823 0.08708368 0.010543457 0.040245272
000050 57 1c 30 bc 22 f8 26 be 5f 94 1e be f2 aa de 3c
       -0.010748944 -0.16305593 -0.15486287 0.027181122
000060 0f b0 44 3e 0d 34 32 be 97 0e ed 3c 69 99 8d 3d
       0.19207786 -0.17402668 0.028937621 0.06914026
000070 aa ff 42 3e cc 2c 8e 3d ae 07 00 be ae 12 8d 3d
       0.1904284 0.06942138 -0.1250293 0.068883285
000080 75 1e ef 3d bd 39 92 be ce 0f e1 bd c3 6e 0e be
       0.11675731 -0.28559676 -0.10989343 -0.1390944
000090 5e c7 4f 3e 93 25 92 be f2 55 60 3c e3 ec 95 3d
       0.20290896 -0.28544292 0.013692366 0.07320573
0000a0 e8 6f 2f 3e 82 55 24 3e 5a de 5c 3e 41 25 64 be
       0.17132533 0.16048244 0.21569195 -0.22279836
0000b0 db 4b 02 be 0d ac 1f be 37 f0 40 3e a8 39 8e 3e
       -0.12724249 -0.15592976 0.18841635 0.27778363
0000c0 7e 0a 93 bd 33 a5 17 3e 0a a8 2c bc fc 2e 4e 3d
       -0.071797356 0.14809112 -0.0105381105 0.050337777
0000d0 00 d3 3e 3e 6f 59 96 be 6b ca b3 3b 9c 28 f5 3d
       0.18635178 -0.29365107 0.0054867766 0.11970636
0000e0 f5 ce 5d be 04 5f 7a 3e b2 d0 42 bc 5f b9 7d 3e
       -0.21660979 0.24450308 -0.011890577 0.24777745
0000f0 a3 53 7d 3e d9 9e 03 bd 5e a5 3c 3e 51 44 97 3e
       0.24738936 -0.03213391 0.18422458 0.2954431
000100 61 81 f8 bd e2 68 43 be 4b 53 91 be 4f 49 9a 3c
       -0.12134052 -0.19082978 -0.2838386 0.018833784
000110 55 5c 65 3d 6a c0 e7 bd c5 93 c5 bd 82 21 49 bd
       0.055996258 -0.11315997 -0.096473254 -0.04910422
000120 a6 69 2f be a6 78 7c be e1 81 af 3d 0b c3 78 be
       -0.17130145 -0.24655399 0.08569694 -0.24293153
000130 dc 37 1a 3d 54 76 54 be 03 fa 3a bd bf 3d 26 3e
       0.037650928 -0.20748264 -0.045648586 0.16234492
000140 1d c6 22 be 0e c2 50 3d 97 72 17 bd 09 7a 7b 3d
       -0.15895887 0.050966315 -0.036974516 0.06139568
000150 a4 c4 f3 bd 7c ab 1f 3e aa 3e 1c be e3 e2 18 3e
       -0.119027406 0.1559276 -0.1525828 0.149303
000160 ac 28 1a 3e b2 aa 92 3d 43 98 63 be 0b fb 15 3e
       0.15054578 0.07161464 -0.22226052 0.14646547
000170 37 41 64 3c 88 2b 9a bd c7 7f b5 bd 0f 5d 23 3e
       0.013931564 -0.07527834 -0.08862262 0.15953468
000180 54 2a a8 bb 84 d1 7d be d2 91 29 3e ff 99 d8 3c
       -0.005131999 -0.24786955 0.16559532 0.026440619
000190 4f 90 b3 3d 00 0a 83 3e 2f a7 ad bd 48 69 8f bd
       0.08767759 0.25593567 -0.08479153 -0.07002503
0001a0 f6 3b b9 3d 05 77 8a be f7 01 2e 3e d6 4a 53 be
       0.0904464 -0.2704393 0.16992937 -0.20634016
0001b0 2d 4b b1 bc 61 88 d3 bd 32 44 7e be d2 40 93 be
       -0.021642292 -0.103287466 -0.24830702 -0.2876039
0001c0 6c 09 f5 3d 86 94 20 3e fb 28 88 3e 63 e9 67 3d
       0.11964688 0.15681657 0.26593766 0.05661906
0001d0 51 da 5b be 30 f6 69 be f0 33 96 bd 13 13 8c 3d
       -0.2147 -0.2284782 -0.07334125 0.068395756
0001e0 39 60 d8 3b d4 d8 82 bd 66 1f 12 be bb 67 ac bc
       0.0066032675 -0.06389013 -0.1426979 -0.021045556
0001f0 09 d1 8c 3e ce 25 78 3e c4 91 e5 bd 84 d6 90 3d
       0.2750323 0.24233171 -0.11209443 0.070721656
000200 4a 85 77 3e 31 ac 6a 3e 64 95 8f 3d 15 dc 83 be
       0.2417194 0.22917248 0.07010916 -0.25753847
000210 51 98 84 be 15 fb 59 3e 8c 36 a3 3b e8 08 7e 3d
       -0.25897458 0.21287186 0.0049808677 0.062020212
000220 67 ef 03 3e fc 94 01 be f8 4e 16 3e bb 4f 95 3c
       0.12884293 -0.1265449 0.14678562 0.018226495
000230 6a 42 7b 3d 7b 94 83 be e6 ff 2a 3e db 0a e9 bd
       0.061342634 -0.2569922 0.1669918 -0.11379024
000240 44 68 cc bd 88 48 31 3e d1 54 bb 3d 61 ca 14 be
       -0.099808246 0.17312825 0.09147037 -0.14530326
000250 25 6b 22 be 29 84 3a be e1 7b 23 be 08 de 19 be
       -0.15861185 -0.18214478 -0.15965225 -0.15026104
000260 07 d6 36 3e 24 20 7b 3d 06 a1 a6 bd 57 af 0e be
       0.17855082 0.06130995 -0.081361815 -0.13934074
000270 db 74 a2 3d 5a db 18 3e 00 a7 92 3e fc be 12 be
       0.07932445 0.14927426 0.28643036 -0.14330667
000280 d6 a4 6b 3e d1 e4 01 be ce ee 82 3e 6e db 0c bd
       0.23012099 -0.12684943 0.2557282 -0.034388952
000290 f9 11 d2 3d c3 68 3e be 57 ae e9 bd fc ed 8f 3e
       0.10257334 -0.18594651 -0.11410206 0.28111255
0002a0 7d 85 8a 3e 51 47 36 be 17 5c a1 bd 15 89 0a bd
       0.27054968 -0.17800643 -0.07878893 -0.033822138
0002b0 a6 e0 5a 3e 13 ea 61 3c 8d ce e9 3d 26 fb 1f 3e
       0.21374759 0.013788718 0.114163496 0.1562315
0002c0 a0 e2 78 be c5 2e 6c be d5 c8 93 3e e7 76 87 3e
       -0.243052 -0.23064716 0.2886416 0.26457903
0002d0 16 11 7b be 41 65 0c 3e e8 5e a3 bd 72 60 a9 bb
       -0.24518237 0.137105 -0.07977086 -0.005168968
0002e0 54 8b 1c 3e be b6 8d 3d c1 31 95 3e 0a f8 04 be
       0.15287524 0.06919621 0.29139522 -0.12985244
0002f0 56 10 0f 3d e6 ec 9c 3d d0 cb 2d 3d 6d 7c 4f 3e
       0.03492769 0.07662372 0.0424307 0.20262308
000300 59 0b 89 be 0e 0d a7 3d e3 2a ec 3d af 0f 5c be
       -0.2676647 0.08156787 0.115316175 -0.21490358
000310 4a 27 59 3e a1 c1 74 bd 94 ec 48 3e 84 ac 68 be
       0.21206394 -0.05975497 0.19621497 -0.2272206
000320 dc e8 1f bd 82 72 6d be 5e 22 95 be fc 20 6e 3e
       -0.03904043 -0.23188213 -0.29127783 0.2325477
000330 1a 55 f2 3a 6d 25 5e 3e d3 6a 45 3e a8 65 80 bc
       0.0018488497 0.21693964 0.19279031 -0.015673473
000340 af a3 94 3e 55 fd 11 3e 0b f6 49 3d ab ab 82 be
       0.2903113 0.14256795 0.04930691 -0.25521597
000350 eb de 31 bd 18 16 5f be 65 94 a2 bd 8c 0c 24 3e
       -0.04342548 -0.21785772 -0.0793846 0.16020411
000360 e7 c0 5d 3e 7d 7d 39 3e e4 89 02 be 7e 3d 7b 3e
       0.21655618 0.18114276 -0.12747914 0.24535176
000370 c7 a4 1b be 39 7e 7d be c5 0a 83 be 93 94 88 be
       -0.15199576 -0.24755181 -0.25594154 -0.26675853
000380 3c 9e 93 3d df 8f 5a 3e 3e 28 4a bb 3b cf 7b 3e
       0.07207915 0.21343945 -0.003084674 0.24590771
000390 3d 5e 16 3e 47 4a 49 be a0 9d 51 3e fe 98 d4 3d
       0.14684387 -0.19657241 0.20470285 0.103807434
0003a0 3c dc 2f 3e 8d 21 22 bd 93 b2 8a bd 2a 0f 53 3e
       0.17173856 -0.039582778 -0.067723416 0.20611253
0003b0 d9 4a 25 3d 13 17 09 be 9f 31 05 be 2e 76 05 be
       0.040354583 -0.13387708 -0.1300721 -0.13033363
0003c0 17 51 5e 3b 86 43 6c 3d ed 84 a4 bd 7f 84 61 be
       0.0033922845 0.057681583 -0.08033166 -0.220232
0003d0 dd 3b 29 3e a1 8d 80 bd b0 25 19 bd a1 dd fd 3d
       0.16526742 -0.062770136 -0.037389457 0.12395788
0003e0 af 8c 5e be 7f 64 15 3e 53 95 84 be 16 4e 99 bb
       -0.21733354 0.14589117 -0.25895175 -0.004678498
0003f0 38 ac 58 3e d8 02 c2 bc 9f 39 6c 3e a1 19 95 be
       0.21159446 -0.023682997 0.23068856 -0.29121116

layers.0.bias f4 [64]
000000 00 00 00 00 00 00 00 00 00 00 00 00 00 00 00 00
       0.0 0.0 0.0 0.0
000010 00 00 00 00 00 00 00 00 00 00 00 00 00 00 00 00
       0.0 0.0 0.0 0.0
000020 00 00 00 00 00 00 00 00 00 00 00 00 00 00 00 00
       0.0 0.0 0.0 0.0
000030 00 00 00 00 00 00 00 00 00 00 00 00 00 00 00 00
       0.0 0.0 0.0 0.0
000040 00 00 00 00 00 00 00 00 00 00 00 00 00 00 00 00
       0.0 0.0 0.0 0.0
000050 00 00 00 00 00 00 00 00 00 00 00 00 00 00 00 00
       0.0 0.0 0.0 0.0
000060 00 00 00 00 00 00 00 00 00 00 00 00 00 00 00 00
       0.0 0.0 0.0 0.0
000070 00 00 00 00 00 00 00 00 00 00 00 00 00 00 00 00
       0.0 0.0 0.0 0.0
000080 00 00 00 00 00 00 00 00 00 00 00 00 00 00 00 00
       0.0 0.0 0.0 0.0
000090 00 00 00 00 00 00 00 00 00 00 00 00 00 00 00 00
       0.0 0.0 0.0 0.0
0000a0 00 00 00 00 00 00 00 00 00 00 00 00 00 00 00 00
       0.0 0.0 0.0 0.0
0000b0 00 00 00 00 00 00 00 00 00 00 00 00 00 00 00 00
       0.0 0.0 0.0 0.0
0000c0 00 00 00 00 00 00 00 00 00 00 00 00 00 00 00 00
       0.0 0.0 0.0 0.0
0000d0 00 00 00 00 00 00 00 00 00 00 00 00 00 00 00 00
       0.0 0.0 0.0 0.0
0000e0 00 00 00 00 00 00 00 00 00 00 00 00 00 00 00 00
       0.0 0.0 0.0 0.0
0000f0 00 00 00 00 00 00 00 00 00 00 00 00 00 00 00 00
       0.0 0.0 0.0 0.0

layers.2.weight f4 [64, 64]
000000 e2 a5 c7 bd da 30 2f be d1 ef 1d be a0 6f df bc
       -0.097484365 -0.17108479 -0.15423514 -0.027274907
000010 89 b2 09 be 3b 7a 99 bd 0d 05 da bd b3 34 0b 3d
       -0.13447012 -0.07494017 -0.106454946 0.033985805
000020 02 6e 3a be 3b 3b 0f be 04 22 a0 bd 3f fd d2 bd
       -0.18206027 -0.13987438 -0.07818988 -0.10302209
000030 78 b7 63 bd 95 7b 1a be 46 a5 16 3d 9e bb a1 bd
       -0.05559489 -0.15086205 0.03677871 -0.07897113
000040 75 b7 32 be bd d3 cc 3d 1d ac 0a 3c 41 6b 9c bd
       -0.17452796 0.10001323 0.008463887 -0.076376446
000050 39 ed 9e bd 19 02 26 be 78 91 1c 3d 56 7c 52 3e
       -0.077600904 -0.16211738 0.038224667 0.20555243
000060 78 3d 26 be 60 f3 aa bd 24 56 39 be 4e b4 98 3d
       -0.16234386 -0.08347201 -0.18099266 0.074562654
000070 d5 cc 13 be 46 33 97 3d c8 c0 f5 bd 6a 6c b0 3c
       -0.14433606 0.073828265 -0.11999661 0.02153607
000080 3e df 4b be 8c dc 18 3e d4 1d 04 3e 2d 8c a9 3d
       -0.19909379 0.14927882 0.12902004 0.082786895
000090 d8 e0 c5 bd 6d d4 1e be f9 18 f5 bd b8 0d 05 3e
       -0.09662026 -0.15510722 -0.11967654 0.12993515
0000a0 b0 49 9a 3d e3 3a 36 3e 77 14 29 be b4 16 47 be
       0.07533586 0.17795901 -0.16511713 -0.19442254
0000b0 6d f7 38 bd 58 92 38 39 e5 c6 08 3e be 65 1b 39
       -0.04515784 0.00017602125 0.13357122 0.00014819854
0000c0 9c f4 28 be 8c 61 86 3d 64 65 d9 ba a0 f9 5b 3e
       -0.16499561 0.06561574 -0.0016586003 0.21481943
0000d0 b2 f1 08 3e af 5e d5 bd d1 9b 9e bc 76 f7 44 bd
       0.1337345 -0.1041845 -0.019361408 -0.04808756
0000e0 fb 92 23 be 68 cc 1c be 3d 6e ba bd b1 cb 3c be
       -0.15974037 -0.1531235 -0.091030575 -0.18437077
0000f0 58 f6 b5 3d 85 24 50 3e 5f 82 4d 3e 76 e8 22 be
       0.08884877 0.20326431 0.20069264 -0.1590899
000100 1e 4d 5f 3d 5e 3e a8 3c 53 47 0e 3e 40 b2 0e bc
       0.054516904 0.020537551 0.13894396 -0.00870949
000110 3a c0 13 3d 4f 63 3c be 17 3d 3d be f0 64 0e 3e
       0.036071993 -0.18397258 -0.18480335 0.13905692
000120 2e 21 c2 bd 5d 0e 03 3c 3b 54 3b 3e c0 08 32 3b
       -0.09478985 0.00799903 0.1829385 0.002716586
000130 f0 e9 26 3e f0 f5 91 3d 17 2e 19 bd a8 28 19 3e
       0.16300178 0.07126987 -0.03739747 0.14956915
000140 66 33 4c 3e 27 58 34 3e dc b4 13 bd 12 60 eb 3d
       0.19941482 0.17611752 -0.036061153 0.11492933
000150 e0 fb 00 3e 92 4f 92 bd 70 13 b1 bd a5 23 f4 3d
       0.12596083 -0.07144083 -0.086462855 0.11920861
000160 3b c2 dc bd ea e1 a1 bd 96 fd f7 3d b1 98 07 3e
       -0.10779234 -0.07904418 0.121089146 0.13241841
000170 15 ba 1e be 14 4e 71 3d 48 8b c0 bd 87 22 c4 bc
       -0.15500672 0.05891235 -0.09401566 -0.023942245
000180 54 60 66 3a cf 8b 91 3d 3d d0 76 3d f7 8b d8 bd
       0.0008788158 0.071067445 0.060257185 -0.10573571
000190 e2 ac a1 bd e6 e4 32 be 0b 0c 00 3e 6a 31 e1 bd
       -0.07894303 -0.1747013 0.12504594 -0.10995753
0001a0 38 39 42 be 21 39 17 3e 40 17 40 3d b0 ae e3 3d
       -0.1896714 0.14767887 0.046897173 0.11117303
0001b0 65 11 9a 3d a0 6b a5 3d de bd d0 bd f9 fa 4e be
       0.07522849 0.080771685 -0.10192464 -0.20212926
0001c0 5c 4b c0 3d a3 fc 57 3e 05 6d 22 3e 96 72 b3 3c
       0.09389374 0.21092467 0.158619 0.021905225
0001d0 f7 00 48 3e 75 65 d1 bd 89 57 11 3e 2c 36 e2 3d
       0.19531618 -0.102244295 0.14193548 0.11045489
0001e0 66 28 58 be 3e e6 02 be a6 a2 2d 3e 0b b7 a1 bb
       -0.21109161 -0.12783143 0.16956577 -0.0049351505
0001f0 14 87 a7 bd 8d ca 70 3d 78 4b 14 3e d7 cb 3a bd
       -0.08180061 0.058786917 0.14481914 -0.045604553
000200 cc 05 27 3e dd 16 13 bd b3 2e ae 3d e4 28 4b be
       0.16310805 -0.035910476 0.08505001 -0.19839817
000210 4f f4 08 3d 6f 6d e7 3d 13 d4 b9 3d 18 67 c4 3d
       0.033436116 0.1130017 0.09073653 0.09589976
000220 8d 7e 36 be a6 8e b2 3d 8b bc 1e be 18 3d 24 be
       -0.17821713 0.08718614 -0.15501611 -0.1603893
000230 f6 0e 34 bd e6 8b 06 3e 68 0e 0c be 6b 99 3a bc
       -0.04395958 0.13139305 -0.1367737 -0.011389117
000240 ca 3b 11 be 52 6d 3e be 4e c2 f4 bd 7c 28 20 be
       -0.14182964 -0.1859639 -0.11951123 -0.15640444
000250 7e 4d d1 bd d1 e7 2d be 81 5a 50 3c a5 b6 10 bd
       -0.102198586 -0.16982962 0.01271689 -0.035330433
000260 2d 8b 3c 3e e5 9f 09 3e e2 b8 42 3e c1 7e 8a 3d
       0.18412466 0.13439901 0.1901584 0.06762458
000270 4c 1f 06 3e b0 00 3a be 7d 78 fe bc 41 01 e8 bd
       0.13097876 -0.18164325 -0.031063313 -0.11328364
000280 a7 7b 87 3d 65 84 82 3d d8 a6 2d be 5e 7a e9 bc
       0.06615382 0.063729085 -0.16958177 -0.028500732
000290 b7 1a 8f 3d 22 cc de 3d 1f ae 68 3d 0a 40 08 bd
       0.06987517 0.10878779 0.05680668 -0.033264197
0002a0 a6 c2 ba 3d a7 57 eb ba 3f 48 cd bd 13 9e d4 3c
       0.091191575 -0.00179552 -0.100235455 0.025954282
0002b0 b8 b5 02 3e 01 01 5d 3d 4a 0a d0 bc 06 08 4f 3d
       0.12764633 0.053956036 -0.025395531 0.05054476
0002c0 84 ac 2b be 37 23 09 3e 17 19 da bb a4 29 80 bc
       -0.16765028 0.1339234 -0.006655823 -0.015644856
0002d0 46 5a f2 3d 37 39 01 be bb b1 ac bd c3 b3 49 bd
       0.118336245 -0.12619482 -0.08432337 -0.0492437
0002e0 ac ff 34 3e 41 45 9e 3d 33 78 53 3e 0f ca 51 be
       0.17675656 0.07728053 0.20651321 -0.20487235
0002f0 c7 10 34 be a0 e0 19 bd 9c c8 b6 3d 16 f7 a8 bd
       -0.17584525 -0.037567735 0.08924982 -0.08250253
000300 58 e8 17 3e 60 1f fd bc 13 fa ad 3d ba 92 32 3e
       0.14834726 -0.03089875 0.084949635 0.17438784
000310 24 8f c0 bd 42 a3 3d 3e 53 04 a2 bd 06 81 28 bd
       -0.09402302 0.18519309 -0.07910981 -0.04113867
000320 de c8 0b be 7e ce 64 3b 90 0f bd 3c c7 7d b8 bd
       -0.13650844 0.0034913118 0.02307871 -0.09008365
000330 10 8b 48 be fd 6d 0b be ee 1e 06 bd 09 35 ef bd
       -0.19584298 -0.13616176 -0.03274434 -0.116800375
000340 60 51 3c 3e 05 2c a6 3d 77 3c fc bd 89 30 8b bd
       0.18390417 0.08113865 -0.1231622 -0.06796367
000350 66 44 21 be 76 fc 44 be 1e 95 28 3e b6 0a 98 3d
       -0.15748748 -0.19236931 0.16463134 0.07423918
000360 62 da a0 bd 5a cb 12 3e ee 66 c4 3d 04 83 fe 3d
       -0.07854153 0.14335385 0.09589945 0.12427333
000370 f3 9a 59 3d 97 d8 0f 3e e0 64 eb bd 8e 7b e6 3d
       0.053126287 0.14047466 -0.1149385 0.11254035
000380 f0 fb 20 be 93 52 9c bd ed 25 20 3e 5e 31 50 3d
       -0.15721107 -0.07632937 0.15639468 0.05082833
000390 bd 1d d9 bd fb 63 40 be 30 14 3e 3e a8 af cd bd
       -0.10601375 -0.1878814 0.18562388 -0.100432694
0003a0 e7 b1 82 bd 33 d5 25 3e 21 8d 26 3e ed 78 1a 3e
       -0.063815884 0.1619461 0.16264774 0.15085192
0003b0 63 54 13 be ed 1c 51 3d 9f 42 c3 3d 6f 7b 29 3e
       -0.1438766 0.051052976 0.09534191 0.16550992
0003c0 d3 cd 1d 3e 75 9e 02 be 23 ea 04 bc 42 0c 0a 3e
       0.15410547 -0.12755759 -0.008112463 0.13481238
0003d0 6d 76 3b be 79 6d 1e be 62 34 d5 3c 72 3f 63 3d
       -0.18306895 -0.15471448 0.026025955 0.055480428
0003e0 ea 0b 1a 3e eb 30 ec 3c 52 9a 92 3d 19 da d1 3d
       0.15043607 0.02883192 0.071583405 0.10246677
0003f0 b4 f6 53 be e0 62 54 be 95 25 85 bd 3f 74 c9 3b
       -0.20699579 -0.20740843 -0.06501309 0.006147891

layers.2.bias f4 [64]
000000 00 00 00 00 00 00 00 00 00 00 00 00 00 00 00 00
       0.0 0.0 0.0 0.0
000010 00 00 00 00 00 00 00 00 00 00 00 00 00 00 00 00
       0.0 0.0 0.0 0.0
000020 00 00 00 00 00 00 00 00 00 00 00 00 00 00 00 00
       0.0 0.0 0.0 0.0
000030 00 00 00 00 00 00 00 00 00 00 00 00 00 00 00 00
       0.0 0.0 0.0 0.0
000040 00 00 00 00 00 00 00 00 00 00 00 00 00 00 00 00
       0.0 0.0 0.0 0.0
000050 00 00 00 00 00 00 00 00 00 00 00 00 00 00 00 00
       0.0 0.0 0.0 0.0
000060 00 00 00 00 00 00 00 00 00 00 00 00 00 00 00 00
       0.0 0.0 0.0 0.0
000070 00 00 00 00 00 00 00 00 00 00 00 00 00 00 00 00
       0.0 0.0 0.0 0.0
000080 00 00 00 00 00 00 00 00 00 00 00 00 00 00 00 00
       0.0 0.0 0.0 0.0
000090 00 00 00 00 00 00 00 00 00 00 00 00 00 00 00 00
       0.0 0.0 0.0 0.0
0000a0 00 00 00 00 00 00 00 00 00 00 00 00 00 00 00 00
       0.0 0.0 0.0 0.0
0000b0 00 00 00 00 00 00 00 00 00 00 00 00 00 00 00 00
       0.0 0.0 0.0 0.0
0000c0 00 00 00 00 00 00 00 00 00 00 00 00 00 00 00 00
       0.0 0.0 0.0 0.0
0000d0 00 00 00 00 00 00 00 00 00 00 00 00 00 00 00 00
       0.0 0.0 0.0 0.0
0000e0 00 00 00 00 00 00 00 00 00 00 00 00 00 00 00 00
       0.0 0.0 0.0 0.0
0000f0 00 00 00 00 00 00 00 00 00 00 00 00 00 00 00 00
       0.0 0.0 0.0 0.0

output_layer.weight f4 [2, 64]
000000 81 7a 37 3e 47 6c d0 bc 18 a9 65 3d 29 98 60 3e
       0.17917825 -0.025442256 0.056069463 0.21933044
000010 b1 f2 8a 3e 59 71 34 bc 52 9a 96 be 36 10 8b 3e
       0.27138284 -0.011013352 -0.29414612 0.27160805
000020 a5 09 e2 3d 95 60 4b be 3e 9b e6 bd f8 b3 fa 3d
       0.11036996 -0.19861062 -0.11260079 0.122413576
000030 a6 54 72 be 3d d9 c7 bd 4b f0 5a be 96 b7 32 3e
       -0.23665103 -0.09758232 -0.21380727 0.17452845
000040 e6 b1 76 be 90 0b eb bc 27 dd 83 bd b3 a3 8f be
       -0.240913 -0.028692037 -0.06438666 -0.2805458
000050 15 b3 1e be c6 ed 46 3e 5e 8f 18 3e bc 5b ee 3d
       -0.15498002 0.19426641 0.1489844 0.11638591
000060 70 27 1b 3e 80 4d 1e bd 8e 61 72 be f3 08 ab 3d
       0.15151763 -0.03864813 -0.23670027 0.08351316
000070 b3 6d 21 be 7b b8 37 be 89 0f 9a be ea 53 ee bd
       -0.15764503 -0.17941467 -0.30089977 -0.11637099
000080 cc 32 14 bd a7 45 07 be 33 44 4e 3e 8b 10 5a be
       -0.036181256 -0.13210164 0.20143203 -0.21295373
000090 8a c3 64 be 88 d2 22 3e ec be 2b 3e 73 27 3e be
       -0.22340217 0.15900624 0.1677205 -0.18569736
0000a0 99 16 a4 bd eb 35 79 3d e6 8c 51 bd f6 54 1e bd
       -0.08012123 0.060842436 -0.05115976 -0.038655244
0000b0 5a 14 86 bb e1 5a 44 be 2c 7b 16 3e 0d ba 1d be
       -0.0040917816 -0.19175293 0.14695424 -0.15403004
0000c0 95 0e ff bd 6c 08 34 3e fe 05 86 3e fa 04 79 be
       -0.12453953 0.17581338 0.26176447 -0.24318305
0000d0 fc d2 40 bc b0 91 15 be 19 26 74 3b 6a 6f a5 bd
       -0.011769053 -0.14606357 0.0037254153 -0.08077891
0000e0 6c 65 2b 3e 09 3d b3 bd d4 35 01 be fb 1e 13 be
       0.16737908 -0.08751876 -0.1261819 -0.14367287
0000f0 60 46 48 be 85 c7 62 be 26 5b 8b be 69 33 b7 bd
       -0.19558096 -0.22146423 -0.27217978 -0.089453526
000100 1c e7 48 3e 19 70 27 be a2 52 99 3e df 3b 31 be
       0.19619411 -0.16351356 0.29945856 -0.17307995
000110 61 48 da 3c 64 5d d9 bd 15 2d fa bd f3 0f 20 3e
       0.026645841 -0.10613516 -0.1221563 0.15631084
000120 17 e2 80 be fb 33 91 3e d7 97 ba 3d ff b7 c7 3d
       -0.25172493 0.2835997 0.091109924 0.09751891
000130 46 bf c0 3d 1c 66 56 be a6 1c 63 be 41 95 cb 3d
       0.094114825 -0.20937389 -0.22178897 0.09940577
000140 7b 3b 0a 3d b5 8c ff bd 8b ba 48 bd 25 2f 96 be
       0.03374813 -0.124780096 -0.049006026 -0.29332843
000150 7a e8 0c 3d 93 80 83 3e bf 43 10 bd 0c 94 86 3e
       0.034401394 0.25684032 -0.035220858 0.26284826
000160 71 b7 26 be 73 33 93 3e 49 af 97 be e5 a8 e9 bd
       -0.16280915 0.2875019 -0.2962592 -0.11409167
000170 55 8b 16 3e de 7d 24 3e 5d 4b 91 3e 33 d6 80 3e
       0.14701588 0.1606364 0.2837781 0.2516342
000180 b1 06 e5 bb 0e 59 83 be fb 99 53 3d 98 f5 85 3e
       -0.006989323 -0.2565388 0.05166052 0.26163936
000190 cc 14 58 3e e4 6c 87 be d8 0d 58 bd f9 93 0d be
       0.21101683 -0.26450264 -0.052747577 -0.13825978
0001a0 75 52 6a be c0 de d6 3d c3 e4 48 3e 33 7c 58 37
       -0.22883017 0.10491705 0.19618516 1.2903521e-05
0001b0 fe 9b f6 3d 3d 83 b7 3d 56 b3 c4 3c 40 42 92 3e
       0.12041472 0.089605786 0.024011295 0.2856617
0001c0 fb fe 75 3d 46 3b 17 be 04 2d 25 be 5c 60 47 be
       0.06005762 -0.14768705 -0.16130453 -0.19470352
0001d0 25 84 1c bc d7 cd b5 bd 32 04 87 3e b2 b1 53 be
       -0.00955299 -0.088771515 0.26370388 -0.20673254
0001e0 62 b6 c1 3d 5f cf 7c 3d 70 6e 0a ba 59 af 22 3d
       0.09458615 0.061721202 -0.00052807387 0.039718006
0001f0 27 b1 4a be a7 6e ed bc 75 7c 7c bd 45 56 05 be
       -0.19794141 -0.028983427 -0.06164213 -0.1302119

output_layer.bias f4 [2]
000000 00 00 00 00 00 00 00 00
       0.0 0.0

layers.0.weight f4 [64, 4]
000000 29 04 8e bd 63 d8 06 be cd c0 09 bc 3a 6a 9a 3d
       -0.06934387 -0.13168482 -0.008407784 0.07539792
000010 ca 7c 9a 3d 4b ec e4 bd 8c 99 92 3e ef 86 10 be
       0.07543333 -0.11177882 0.28632772 -0.14113973
000020 cc b2 e9 3c 5f f8 c7 bd 6e c0 dd bc ba 6d 6b 3e
       0.02852764 -0.0976417 -0.027069297 0.22991076
000030 1c 3a 92 be 29 bf 85 3e cc 07 99 3d de 36 2c be
       -0.2855996 0.26122406 0.0747219 -0.16817805
000040 a2 fd 83 3e 03 85 93 3e e5 75 1f be a6 ca 3b bd
       0.25779444 0.28812417 -0.15572317 -0.045847557
000050 25 36 63 be 7e 43 0f 3e 99 4d 24 be 96 4c c2 bd
       -0.22188623 0.1399059 -0.16045226 -0.09487264
000060 59 ad 5c be a7 25 89 3e ec 22 42 bc fb 17 84 be
       -0.21550502 0.2678654 -0.011849146 -0.25799546
000070 e4 41 b2 3d 84 f2 87 3e b4 52 49 3d b1 a4 94 3d
       0.08703974 0.26552212 0.049151137 0.07257975
000080 b5 53 9f bd 19 5c 1a bd 4a c6 10 be fb 27 c0 3d
       -0.07779638 -0.037685487 -0.14138141 0.09382626
000090 cc f2 ad bd 3c 3b 3a 3d b3 ac 27 be 51 7b 7e 3e
       -0.084935755 0.045466647 -0.16374473 0.24851729
0000a0 21 c7 89 bd 3d 0a 3b be 15 1d 53 be ec d6 64 be
       -0.06727434 -0.18265624 -0.20616563 -0.22347611
0000b0 9b 15 05 3e 70 ae 84 be d3 28 8c be 50 72 12 be
       0.12996523 -0.25914335 -0.27374896 -0.1430142
0000c0 2f b1 8a bd aa 44 30 bd 47 45 87 be 76 b2 7f bc
       -0.06772076 -0.043034233 -0.26420042 -0.015606513
0000d0 f1 e3 84 be 41 ae 5a 3e 4c 54 35 be 99 96 39 3d
       -0.25955155 0.21355535 -0.17707938 0.045309637
0000e0 ca 62 92 3e 56 26 89 be 4c 45 74 3e 41 25 80 be
       0.28590995 -0.2678706 0.2385456 -0.25028422
0000f0 71 7e fe 3d 50 c1 5a 3e fc 7a e5 bd c6 50 5e 3e
       0.124264605 0.21362805 -0.11205098 0.217105
000100 36 4b 8b be 5a df 5f bd ff 04 4a be d1 53 3a bc
       -0.2720582 -0.054656364 -0.19728468 -0.011372522
000110 8a 2b a7 3c db 77 89 3e 45 1a b3 3c 69 6e 0b be
       0.020406503 0.26849255 0.021863112 -0.13616337
000120 b8 36 07 bc c3 28 5c 3e c6 27 1c bd 94 57 b7 3d
       -0.008252792 0.21499924 -0.03812387 0.08952251
000130 a3 7c 1e be d5 ee 84 be ec 8d 3b 3e ee 23 78 3e
       -0.15477233 -0.25963464 0.18315858 0.24232456
000140 f3 69 82 be 2e 70 2b bd c8 bc f5 bd b0 54 00 bd
       -0.25471458 -0.04185503 -0.11998898 -0.031330764
000150 54 28 8b be 90 b8 92 3e f1 ac f6 3b 03 94 8b 3d
       -0.27179205 0.28656435 0.0075279404 0.0681534
000160 a8 57 6a be b7 e8 84 3d f0 ee 80 3e a1 6f 37 be
       -0.22885 0.06489699 0.25182295 -0.17913677
000170 bd 26 90 be 3d b4 14 be 69 1e 35 be d2 f0 20 be
       -0.28154555 -0.1452188 -0.17687382 -0.15716866
000180 3b 9a 6f 3e ab 16 16 be 43 be 0f be 8d da 75 3e
       0.23398678 -0.14657085 -0.14037423 0.24009152
000190 6e a7 87 be aa 4e 6f be f5 e7 8b be 76 6e 6d bd
       -0.26494926 -0.23369852 -0.27325407 -0.057966672
0001a0 3a ae 83 3e f4 bc 8d 3e 96 a4 7b 3b 90 c7 b2 bd
       0.25718862 0.27683222 0.0038397661 -0.0872947
0001b0 c1 59 01 3d 1e f2 cb 3d 2c 01 37 3e 76 f2 63 3e
       0.031579737 0.099582896 0.17871541 0.2226046
0001c0 9d af 97 be a4 24 57 be 13 1b e6 3c 24 42 8b be
       -0.2962617 -0.21010071 0.028089082 -0.271989
0001d0 ca 4c 80 be b1 38 80 3e 7d 92 b0 3c b3 e0 92 3e
       -0.25058585 0.25043252 0.021554226 0.28687057
0001e0 a2 bb 57 be 04 92 86 3e 07 7e 84 be da 21 89 3e
       -0.2106767 0.26283276 -0.258774 0.2678364
0001f0 fe a3 71 be 1c 1b 79 be b0 26 87 3e c4 14 30 3d
       -0.23597714 -0.24326748 0.26396704 0.042988554
000200 74 48 77 3e 4a 7c 22 3e dd 26 60 bd 0a fc d8 3d
       0.24148732 0.15867725 -0.054724563 0.10594948
000210 91 a9 c5 3c 20 9a 0a bd 90 85 c1 3d da a4 25 3c
       0.024128707 -0.03383839 0.09449303 0.010110104
000220 9b be 2a 3e 15 62 2d be 12 14 20 be 2f 7d 43 3e
       0.16674273 -0.16931947 -0.15632656 0.19090723
000230 e6 60 91 be a7 39 16 bd f0 cb 5d bd 07 4c 4f be
       -0.2839424 -0.036676075 -0.054149568 -0.20243846
000240 ab b5 84 be 3a 17 13 3d 84 5e 5a be e7 91 73 bd
       -0.25919852 0.035910822 -0.21325117 -0.059465315
000250 fe b6 15 bd 58 6c 68 bd 67 b3 31 be a8 f1 c5 3d
       -0.036551468 -0.05674395 -0.17353593 0.09665233
000260 86 6a 24 be 44 2b 4d be f0 e6 3c 3e 93 33 ae bd
       -0.1605626 -0.20036036 0.1844747 -0.08505931
000270 93 10 81 be ea 33 27 3e 02 c0 53 be cc 24 9e 3d
       -0.25207958 0.16328397 -0.20678714 0.07721862
000280 46 ec 95 3d bc ec 72 3e 84 25 95 3e b0 74 3c 3e
       0.07320456 0.2372312 0.29130185 0.18403888
000290 95 df cd bd 46 b2 35 3d db 59 be 3d 3e 93 57 3e
       -0.100524105 0.044359468 0.09294482 0.21052262
0002a0 30 fd 3a be d7 8c 08 bd df 8e 08 3e 5f 55 c6 bd
       -0.18260646 -0.03333744 0.13335751 -0.09684252
0002b0 1e 00 8e 3e 82 44 cd 3d 25 6e 8e 3e e2 9c 27 be
       0.27734464 0.100228325 0.2781841 -0.1636844
0002c0 33 5b 7b be 34 d0 05 3e b2 21 33 3d 7b fe 31 bd
       -0.24546508 0.13067704 0.043733306 -0.043455582
0002d0 df 68 41 3e 0a 2d 33 be 14 13 84 be 14 34 88 bd
       0.18887661 -0.1749765 -0.25795805 -0.06650558
0002e0 ce c4 1d be a7 8e 0a 3d 01 cf 7f be 67 51 8e be
       -0.15407106 0.03382745 -0.2498131 -0.2779648
0002f0 83 95 68 be 24 73 4e 3e aa 2e 96 3c f0 03 06 3e
       -0.22713284 0.2016111 0.018332798 0.1308744
000300 24 ec 40 3e 6d 77 1a bc c7 1d f2 3d 29 f7 33 bd
       0.1884008 -0.009427887 0.11822086 -0.043936882
000310 d2 d3 ab bd 6f 3b 88 3e 28 f6 62 be 73 5a 84 3e
       -0.08390011 0.26607844 -0.22164214 0.25850257
000320 59 d4 60 3e 5a e7 26 be 66 5c dd bd fa ea 90 be
       0.21956004 -0.16299191 -0.10808639 -0.28304273
000330 21 e9 22 be 19 ed dd bd e6 ef be 3c 73 5e 48 3e
       -0.15909244 -0.108362384 0.023307752 0.1956728
000340 27 8c 76 be 73 a2 52 be 94 07 79 be ef 04 b4 3b
       -0.24076901 -0.20569782 -0.24319297 0.005493752
000350 73 fc 86 3e 96 22 cd 3d 9d 4e d5 bc e2 dd f5 3d
       0.26364478 0.10016362 -0.026038462 0.120052114
000360 f2 11 89 3e 3a 92 5e be fb 66 58 3d dc c2 3e bd
       0.26771504 -0.21735469 0.052832585 -0.04657255
000370 84 37 3c 3e 01 18 d3 3d 0d 61 8b 3e 99 5e 8c 3e
       0.18380553 0.10307313 0.2722248 0.27415922
000380 14 73 5a be 3f e5 8f be 2f d7 8b be 2f 9a e2 3d
       -0.21332961 -0.28104588 -0.2731261 0.110645644
000390 b5 5b 54 3d e0 7b 0f 3e c1 79 89 be 40 47 0f 3d
       0.05184527 0.14012098 -0.26850703 0.03498006
0003a0 a4 2c 5a 3b c9 79 07 be 96 14 2e 3d 6f cc 4f 3e
       0.0033290768 -0.13230051 0.0425001 0.20292829
0003b0 3f 90 9a 3d 74 c7 6d 3e 1e 14 5f be 41 72 94 3e
       0.07547044 0.23220617 -0.21785018 0.2899342
0003c0 92 2f 02 3e b0 10 1f 3d cc a1 42 be 5d 17 81 be
       0.12713459 0.038834274 -0.19007033 -0.25213137
0003d0 ab fc 7e 3d 3c 8b 8f bd 6c cc b3 bc f5 41 37 be
       0.06225268 -0.07008979 -0.021948062 -0.17896254
0003e0 48 1d c7 bd e4 4a 83 3e 26 30 48 3e 7d df 36 be
       -0.09722382 0.25643075 0.19549617 -0.17858692
0003f0 7d 3b 4e be 0c f8 6e bd f7 95 00 bd 9f d2 97 3e
       -0.2013988 -0.058342025 -0.031393018 0.2965288

layers.0.bias f4 [64]
000000 00 00 00 00 00 00 00 00 00 00 00 00 00 00 00 00
       0.0 0.0 0.0 0.0
000010 00 00 00 00 00 00 00 00 00 00 00 00 00 00 00 00
       0.0 0.0 0.0 0.0
000020 00 00 00 00 00 00 00 00 00 00 00 00 00 00 00 00
       0.0 0.0 0.0 0.0
000030 00 00 00 00 00 00 00 00 00 00 00 00 00 00 00 00
       0.0 0.0 0.0 0.0
000040 00 00 00 00 00 00 00 00 00 00 00 00 00 00 00 00
       0.0 0.0 0.0 0.0
000050 00 00 00 00 00 00 00 00 00 00 00 00 00 00 00 00
       0.0 0.0 0.0 0.0
000060 00 00 00 00 00 00 00 00 00 00 00 00 00 00 00 00
       0.0 0.0 0.0 0.0
000070 00 00 00 00 00 00 00 00 00 00 00 00 00 00 00 00
       0.0 0.0 0.0 0.0
000080 00 00 00 00 00 00 00 00 00 00 00 00 00 00 00 00
       0.0 0.0 0.0 0.0
000090 00 00 00 00 00 00 00 00 00 00 00 00 00 00 00 00
       0.0 0.0 0.0 0.0
0000a0 00 00 00 00 00 00 00 00 00 00 00 00 00 00 00 00
       0.0 0.0 0.0 0.0
0000b0 00 00 00 00 00 00 00 00 00 00 00 00 00 00 00 00
       0.0 0.0 0.0 0.0
0000c0 00 00 00 00 00 00 00 00 00 00 00 00 00 00 00 00
       0.0 0.0 0.0 0.0
0000d0 00 00 00 00 00 00 00 00 00 00 00 00 00 00 00 00
       0.0 0.0 0.0 0.0
0000e0 00 00 00 00 00 00 00 00 00 00 00 00 00 00 00 00
       0.0 0.0 0.0 0.0
0000f0 00 00 00 00 00 00 00 00 00 00 00 00 00 00 00 00
       0.0 0.0 0.0 0.0

layers.2.weight f4 [64, 64]
000000 10 83 fd bd ad f6 11 be 55 fe 58 bd 47 80 5d be
       -0.12378514 -0.14254256 -0.052976925 -0.21630965
000010 0a 5a 26 3e 3e 99 2a 3e dc 4b 37 be fd 63 f4 3d
       0.16245285 0.1666002 -0.17900032 0.11933134
000020 96 70 b6 bc 8a 66 44 3e 8d e9 b7 bd b4 00 7b bc
       -0.022270482 0.1917974 -0.08980093 -0.015319992
000030 e4 63 3c be 9c 13 20 3e 21 ea ac bc a5 b4 25 3e
       -0.1839748 0.1563248 -0.021107735 0.16182192
000040 b7 8f f0 bb 40 5b 34 3d eb 02 f8 3a f8 fa ba 3d
       -0.007341351 0.044032335 0.0018921768 0.091299
000050 8e b4 82 3d d2 f4 58 3e 62 99 99 3d cf 17 88 bd
       0.06382094 0.21187142 0.074999586 -0.06645166
000060 95 42 bc bc 7e 37 c5 3c 7d 7c 89 3d a6 de 59 3e
       -0.022980968 0.024074312 0.067131974 0.2127634
000070 39 7e 38 be 79 d2 40 3e 75 ff d3 3d ab 51 e2 bd
       -0.180169 0.18830289 0.10351459 -0.11050733
000080 ab 3b 00 3c 40 ef 9b bd ee f3 e8 3d 90 70 9f 3d
       0.007826726 -0.07613993 0.11374651 0.077851415
000090 6b 99 78 bd a7 6b 3c be bf 32 56 3e ed 6d 57 be
       -0.060693186 -0.18400441 0.20917796 -0.21038027
0000a0 28 0c 01 3e 3c da 01 be 76 8c bb 3d f4 e0 05 be
       0.12602293 -0.12680906 0.0915765 -0.13074094
0000b0 5c 75 ca bd d3 ea c9 3d c7 cb bb bc 6a 9e 81 3c
       -0.09885666 0.09859242 -0.022924317 0.015822608
0000c0 94 8d 59 be 74 b9 79 bc 02 bb 56 be 0e 23 95 3d
       -0.21245414 -0.015241969 -0.20969775 0.07282077
0000d0 d1 f6 19 3d 19 dc 7f bb 2d 71 ee bd fe a0 41 bd
       0.037588898 -0.00390411 -0.1164268 -0.047272675
0000e0 f9 4f 99 bd 1e dc 4a 3e 6d 56 31 be a2 a9 19 be
       -0.07485957 0.1981053 -0.17318125 -0.15006116
0000f0 4c a8 31 be 8e 01 24 be de c2 eb bd 6f 3a 5c be
       -0.17349356 -0.16016218 -0.11511777 -0.21506666
000100 56 61 f9 3d 26 6f 26 3b 80 c8 45 be 3b 87 02 be
       0.121767685 0.002539584 -0.19314766 -0.12746899
000110 6c d9 06 3e 68 72 e6 3c 36 18 7c b9 f5 d7 7f 3d
       0.13168877 0.028130725 -0.00024041612 0.062461812
000120 ad 1c 7c 3d 67 32 3b 3e 1f 36 a7 bb 34 5c 96 3d
       0.061550785 0.18280946 -0.0051028873 0.07341805
000130 2b 53 a9 bb 6f 07 09 be d2 4a 00 bc 60 e4 b3 bd
       -0.005167385 -0.13381742 -0.007830339 -0.087837934
000140 2c bf 2c 3e 45 b7 28 3e eb 41 c1 bd db c9 be 3d
       0.16869801 0.16476162 -0.09436401 0.093158446
000150 c7 05 0d 3e d7 1c 0e be 08 8b c6 3d ff 2b 0e 3e
       0.13771735 -0.13878189 0.09694487 0.1388397
000160 e1 bc 46 be 80 43 74 bd 2e ff b5 3d f3 1e 7c 3d
       -0.19407989 -0.059634686 0.08886562 0.061552953
000170 cd 8b 17 be 13 34 04 be e2 2d bf 3d 78 3a e9 bd
       -0.14799424 -0.1291049 0.09334923 -0.11388105
000180 b2 32 46 be 97 49 c3 bd 9a f2 0e 3e 4f f4 98 bd
       -0.19355276 -0.095355205 0.13959733 -0.07468473
000190 b6 8f 11 be 4c 78 44 3e c7 09 25 be 2c ef b8 bc
       -0.14214978 0.19186515 -0.16117011 -0.022574984
0001a0 aa e8 30 be 8a 75 a9 bc 1d fb 3e 3e fc ed 01 be
       -0.17276254 -0.02068593 0.1865048 -0.1268844
0001b0 3a 74 4c be 1f 5f 04 3e 4d 73 32 bd a6 b9 4d 3e
       -0.19966212 0.12926911 -0.04356699 0.2009035
0001c0 83 34 03 3e 1d b9 42 3e 6d 49 97 bd 36 af 92 3d
       0.12813 0.19015928 -0.07387052 0.07162325
0001d0 36 fe c6 3a e5 62 77 bd a5 1f 56 3e ad 81 79 3d
       0.0015181962 -0.060397048 0.20910509 0.060914684
0001e0 e0 45 16 bd 7b 07 cf bd ef a3 e6 bd 28 47 5c 3e
       -0.03668773 -0.10108849 -0.112617366 0.21511519
0001f0 5e 65 3b bd 50 f2 55 3e 30 36 56 bd b2 f1 3c 3e
       -0.04575097 0.20893216 -0.05229777 0.18451574
000200 25 44 47 bd 05 bc 59 3e 33 64 0a 3e c9 bd 21 3e
       -0.048648972 0.2126313 0.13514785 0.15795054
000210 a6 8e 20 be be 78 ee bd 20 ae 8c bd 42 e5 05 3e
       -0.15679416 -0.116441235 -0.06869149 0.13075736
000220 2e bc 7a 3c 5a 41 1a bc f6 6f d7 ba 2b b2 2a 3e
       0.015303655 -0.009414995 -0.0016436565 0.16669528
000230 39 8a 0e 3d 0d df 2f 3e 12 af 12 3e 85 a0 33 be
       0.03479979 0.17174931 0.14324597 -0.17541702
000240 a4 74 4a 3d 5f 5b d0 3a e6 0c ea bd 6f 02 3e 3e
       0.049427643 0.0015896371 -0.114282414 0.18555616
000250 5f 62 eb bd d3 4f 87 bd bf 49 4a bd d1 e0 df bd
       -0.11493372 -0.06607022 -0.049386736 -0.10931552
000260 4d fe d2 bd f7 ec 9e bd 16 20 fc 3d 0a 7b 1c 3e
       -0.1030241 -0.07760041 0.123108074 0.1528131
000270 ae 96 27 bc 3f dc 2d 3e 7b e3 4d be b1 f2 a6 bd
       -0.010228796 0.16978548 -0.20106308 -0.081517585
000280 97 93 42 3d 83 26 da bc a6 24 e2 3d 7e c9 b1 bd
       0.047504034 -0.026629692 0.110421464 -0.0868101
000290 3c ed 4c be a8 4a e7 bd d7 63 cd 3d bb 5b 42 be
       -0.20012373 -0.112935364 0.100288086 -0.18980305
0002a0 ce 5b 6d ba 92 ee 4a 3e 49 96 ef 3d 62 3c 29 bd
       -0.00090545125 0.1981757 0.116985865 -0.04131735
0002b0 d9 73 b3 3d 43 9f 34 bb 16 5a 4b bc 2b ba a3 bd
       0.087623306 -0.0027560748 -0.012411615 -0.07994493
0002c0 d5 69 76 bd c9 62 f7 3d e1 7b 55 be 0c a8 13 be
       -0.060159523 0.12079389 -0.20848037 -0.14419574
0002d0 e7 a8 3d 3e 32 ad 4c be 9d 57 ba 3d 51 60 0e 3e
       0.18521462 -0.19987944 0.09098742 0.1390393
0002e0 6c 68 b0 3d 39 7a 5c be f3 2f 3e 3d f1 88 94 bd
       0.08613667 -0.21530999 0.046432447 -0.07252682
0002f0 44 a6 59 be 66 97 1a be 65 a4 23 be a6 57 58 bd
       -0.21254832 -0.15096816 -0.1598068 -0.052817963
000300 41 b8 42 be 1f 99 c4 bc 39 fa 3b be 1f f1 f4 3d
       -0.190156 -0.023998795 -0.18357171 0.11960053
000310 c0 44 37 3e ef fe 81 3d 9a c3 10 3e 6a 9c 2b be
       0.1789732 0.06347453 0.14137116 -0.16758886
000320 62 0a d8 3d 73 21 bd 3d a9 20 07 3e 42 20 64 3d
       0.10548855 0.092348956 0.13196053 0.055694826
000330 f4 4d f8 bd cc a4 36 be 72 52 c2 bb b8 ee 58 3e
       -0.121242434 -0.17836303 -0.0059302384 0.21184814
000340 ce 5a 9d bd 4b 5c 27 be d1 b2 44 3e 27 93 e3 3c
       -0.07683335 -0.163438 0.19208838 0.027780129
000350 9e b1 34 be da 2a a0 3d 44 98 45 be fe 6d 2f 3e
       -0.1764588 0.07820673 -0.19296366 0.17131802
000360 09 39 a6 3d 1e 33 c9 bd 38 09 00 bc fd 82 94 3d
       0.08116347 -0.09824203 -0.007814698 0.072515465
000370 5f af 46 be b1 2f 3d 3e 0f 59 9a bd 41 9c 65 3d
       -0.19402836 0.18475224 -0.07536518 0.05605722
000380 32 00 1b 3e 32 1c 15 be 67 fb 89 bd 63 0b c1 3d
       0.15136793 -0.14561537 -0.06737404 0.09426
000390 69 ef 70 bc df d3 75 3d 7a da f8 3d b8 10 4e bd
       -0.014705517 0.06001651 0.12151046 -0.050308913
0003a0 9a af e2 3c a7 21 3e be bf 76 27 3d 11 7a b2 3d
       0.027671624 -0.18567525 0.04088473 0.087146886
0003b0 6b 27 c2 bc 4a 4e 21 be 24 10 28 b9 7b 4f db bd
       -0.023700437 -0.15752521 -0.00016027741 -0.10708519
0003c0 ee ea 95 bd 5c 1c 09 bd 6f b2 ac 3d 3b 5d b0 bd
       -0.073202 -0.03347431 0.08432471 -0.08611532
0003d0 fa 42 ce 3d 8d 10 51 3e 2e 88 54 3d f6 ed ac 3d
       0.100713685 0.2041647 0.051887684 0.08443825
0003e0 1c cb a8 3d fb c1 dd 3d 28 ec 3f 3e 5b 49 11 be
       0.08241865 0.108280145 0.1874243 -0.14188139
0003f0 07 f6 34 bd 5b e2 cf bd 4e 1c 8e bd 64 9b 10 bd
       -0.044179942 -0.10150596 -0.069389924 -0.035304442

layers.2.bias f4 [64]
000000 00 00 00 00 00 00 00 00 00 00 00 00 00 00 00 00
       0.0 0.0 0.0 0.0
000010 00 00 00 00 00 00 00 00 00 00 00 00 00 00 00 00
       0.0 0.0 0.0 0.0
000020 00 00 00 00 00 00 00 00 00 00 00 00 00 00 00 00
       0.0 0.0 0.0 0.0
000030 00 00 00 00 00 00 00 00 00 00 00 00 00 00 00 00
       0.0 0.0 0.0 0.0
000040 00 00 00 00 00 00 00 00 00 00 00 00 00 00 00 00
       0.0 0.0 0.0 0.0
000050 00 00 00 00 00 00 00 00 00 00 00 00 00 00 00 00
       0.0 0.0 0.0 0.0
000060 00 00 00 00 00 00 00 00 00 00 00 00 00 00 00 00
       0.0 0.0 0.0 0.0
000070 00 00 00 00 00 00 00 00 00 00 00 00 00 00 00 00
       0.0 0.0 0.0 0.0
000080 00 00 00 00 00 00 00 00 00 00 00 00 00 00 00 00
       0.0 0.0 0.0 0.0
000090 00 00 00 00 00 00 00 00 00 00 00 00 00 00 00 00
       0.0 0.0 0.0 0.0
0000a0 00 00 00 00 00 00 00 00 00 00 00 00 00 00 00 00
       0.0 0.0 0.0 0.0
0000b0 00 00 00 00 00 00 00 00 00 00 00 00 00 00 00 00
       0.0 0.0 0.0 0.0
0000c0 00 00 00 00 00 00 00 00 00 00 00 00 00 00 00 00
       0.0 0.0 0.0 0.0
0000d0 00 00 00 00 00 00 00 00 00 00 00 00 00 00 00 00
       0.0 0.0 0.0 0.0
0000e0 00 00 00 00 00 00 00 00 00 00 00 00 00 00 00 00
       0.0 0.0 0.0 0.0
0000f0 00 00 00 00 00 00 00 00 00 00 00 00 00 00 00 00
       0.0 0.0 0.0 0.0

output_layer.weight f4 [1, 64]
000000 96 0a 9c bd 64 e6 67 3e e2 49 35 3d c9 b6 29 3e
       -0.076192066 0.22646481 0.044259913 0.16573633
000010 dc 1b c7 3d fb 0f 55 be 02 30 83 3c c9 ac 90 be
       0.09722111 -0.20806877 0.016014103 -0.28256825
000020 4c a0 94 3e d9 28 3d 3e e4 25 44 3e 00 fb 86 3e
       0.29028547 0.18472613 0.19155079 0.26363373
000030 3b 82 1f 3e 74 2a 93 be af c4 a2 bd 01 66 e8 3d
       0.15577023 -0.28743327 -0.07947671 0.11347581
000040 28 d1 93 bc 52 14 94 3d 52 a6 58 be 64 cf ea bd
       -0.01804407 0.07230438 -0.21157196 -0.11465338
000050 dd fa 4f be 82 c1 43 bd e8 f6 0e be df 50 85 be
       -0.2031054 -0.047791965 -0.13961375 -0.26038262
000060 d0 69 01 be 2d 9f 1b 3e 19 99 15 be d9 db 81 3e
       -0.1263802 0.1519744 -0.14609183 0.25363043
000070 a9 e2 78 bd ad aa 4c 3c dd 37 39 be 45 8c 89 be
       -0.060763035 0.012491864 -0.18087716 -0.2686483
000080 73 35 1e be 0e 16 39 3e 62 2e fd bc 0d 74 04 be
       -0.15450077 0.1807482 -0.030905906 -0.12934895
000090 ae 90 bb bd 23 4b 63 be 55 76 31 3e ad 10 89 3e
       -0.09158455 -0.22196631 0.17330296 0.26770535
0000a0 e2 60 65 be ff 63 48 3e be cf 83 3c d7 9c c8 bd
       -0.22400239 0.19569395 0.01609027 -0.0979554
0000b0 78 97 30 3d 0f 23 2a 3d 6a 9e 5c 3e ca 9a d4 3d
       0.0431132 0.04153734 0.21544805 0.10381086
0000c0 1c 2f e1 3d b3 3b e8 bc b8 05 a0 bd 87 4a 97 be
       0.109953135 -0.02834878 -0.07813591 -0.29549047
0000d0 46 43 c1 bd dc be 66 3c eb 27 6a be bc 5d 92 b9
       -0.094366595 0.01408359 -0.2286679 -0.00027917128
0000e0 52 12 8f be f2 c8 3a 3e d8 bc 00 3d 93 f9 ce bd
       -0.27943665 0.18240717 0.031430095 -0.10106196
0000f0 db c1 8c be 89 6f 83 be 85 c3 0f be 67 ad 30 3e
       -0.2749165 -0.25671032 -0.14039429 0.17253648

weight f4 [64, 4]
000000 0e 45 65 3e f0 c7 85 3e 4e bc 70 be 94 87 8a 3e
       0.22389624 0.26129103 -0.23509333 0.27056563
000010 4f 68 96 3d ca c9 bc 3d 69 5a b9 3d 13 89 7b 3e
       0.07344114 0.09218176 0.090504475 0.24564008
000020 78 ee fd bd 05 01 8e bd 8c f3 68 3e e1 dd 31 bd
       -0.12399 -0.06933788 0.22749156 -0.04342449
000030 ca 0b b3 3d 83 f4 39 3e 98 29 53 3e a0 d0 0c bd
       0.08742483 0.1815968 0.20621336 -0.034378648
000040 29 78 82 be ee 58 b2 3d 77 be 2c 3c 3a d8 24 3d
       -0.254823 0.08708368 0.010543457 0.040245272
000050 57 1c 30 bc 22 f8 26 be 5f 94 1e be f2 aa de 3c
       -0.010748944 -0.16305593 -0.15486287 0.027181122
000060 0f b0 44 3e 0d 34 32 be 97 0e ed 3c 69 99 8d 3d
       0.19207786 -0.17402668 0.028937621 0.06914026
000070 aa ff 42 3e cc 2c 8e 3d ae 07 00 be ae 12 8d 3d
       0.1904284 0.06942138 -0.1250293 0.068883285
000080 75 1e ef 3d bd 39 92 be ce 0f e1 bd c3 6e 0e be
       0.11675731 -0.28559676 -0.10989343 -0.1390944
000090 5e c7 4f 3e 93 25 92 be f2 55 60 3c e3 ec 95 3d
       0.20290896 -0.28544292 0.013692366 0.07320573
0000a0 e8 6f 2f 3e 82 55 24 3e 5a de 5c 3e 41 25 64 be
       0.17132533 0.16048244 0.21569195 -0.22279836
0000b0 db 4b 02 be 0d ac 1f be 37 f0 40 3e a8 39 8e 3e
       -0.12724249 -0.15592976 0.18841635 0.27778363
0000c0 7e 0a 93 bd 33 a5 17 3e 0a a8 2c bc fc 2e 4e 3d
       -0.071797356 0.14809112 -0.0105381105 0.050337777
0000d0 00 d3 3e 3e 6f 59 96 be 6b ca b3 3b 9c 28 f5 3d
       0.18635178 -0.29365107 0.0054867766 0.11970636
0000e0 f5 ce 5d be 04 5f 7a 3e b2 d0 42 bc 5f b9 7d 3e
       -0.21660979 0.24450308 -0.011890577 0.24777745
0000f0 a3 53 7d 3e d9 9e 03 bd 5e a5 3c 3e 51 44 97 3e
       0.24738936 -0.03213391 0.18422458 0.2954431
000100 61 81 f8 bd e2 68 43 be 4b 53 91 be 4f 49 9a 3c
       -0.12134052 -0.19082978 -0.2838386 0.018833784
000110 55 5c 65 3d 6a c0 e7 bd c5 93 c5 bd 82 21 49 bd
       0.055996258 -0.11315997 -0.096473254 -0.04910422
000120 a6 69 2f be a6 78 7c be e1 81 af 3d 0b c3 78 be
       -0.17130145 -0.24655399 0.08569694 -0.24293153
000130 dc 37 1a 3d 54 76 54 be 03 fa 3a bd bf 3d 26 3e
       0.037650928 -0.20748264 -0.045648586 0.16234492
000140 1d c6 22 be 0e c2 50 3d 97 72 17 bd 09 7a 7b 3d
       -0.15895887 0.050966315 -0.036974516 0.06139568
000150 a4 c4 f3 bd 7c ab 1f 3e aa 3e 1c be e3 e2 18 3e
       -0.119027406 0.1559276 -0.1525828 0.149303
000160 ac 28 1a 3e b2 aa 92 3d 43 98 63 be 0b fb 15 3e
       0.15054578 0.07161464 -0.22226052 0.14646547
000170 37 41 64 3c 88 2b 9a bd c7 7f b5 bd 0f 5d 23 3e
       0.013931564 -0.07527834 -0.08862262 0.15953468
000180 54 2a a8 bb 84 d1 7d be d2 91 29 3e ff 99 d8 3c
       -0.005131999 -0.24786955 0.16559532 0.026440619
000190 4f 90 b3 3d 00 0a 83 3e 2f a7 ad bd 48 69 8f bd
       0.08767759 0.25593567 -0.08479153 -0.07002503
0001a0 f6 3b b9 3d 05 77 8a be f7 01 2e 3e d6 4a 53 be
       0.0904464 -0.2704393 0.16992937 -0.20634016
0001b0 2d 4b b1 bc 61 88 d3 bd 32 44 7e be d2 40 93 be
       -0.021642292 -0.103287466 -0.24830702 -0.2876039
0001c0 6c 09 f5 3d 86 94 20 3e fb 28 88 3e 63 e9 67 3d
       0.11964688 0.15681657 0.26593766 0.05661906
0001d0 51 da 5b be 30 f6 69 be f0 33 96 bd 13 13 8c 3d
       -0.2147 -0.2284782 -0.07334125 0.068395756
0001e0 39 60 d8 3b d4 d8 82 bd 66 1f 12 be bb 67 ac bc
       0.0066032675 -0.06389013 -0.1426979 -0.021045556
0001f0 09 d1 8c 3e ce 25 78 3e c4 91 e5 bd 84 d6 90 3d
       0.2750323 0.24233171 -0.11209443 0.070721656
000200 4a 85 77 3e 31 ac 6a 3e 64 95 8f 3d 15 dc 83 be
       0.2417194 0.22917248 0.07010916 -0.25753847
000210 51 98 84 be 15 fb 59 3e 8c 36 a3 3b e8 08 7e 3d
       -0.25897458 0.21287186 0.0049808677 0.062020212
000220 67 ef 03 3e fc 94 01 be f8 4e 16 3e bb 4f 95 3c
       0.12884293 -0.1265449 0.14678562 0.018226495
000230 6a 42 7b 3d 7b 94 83 be e6 ff 2a 3e db 0a e9 bd
       0.061342634 -0.2569922 0.1669918 -0.11379024
000240 44 68 cc bd 88 48 31 3e d1 54 bb 3d 61 ca 14 be
       -0.099808246 0.17312825 0.09147037 -0.14530326
000250 25 6b 22 be 29 84 3a be e1 7b 23 be 08 de 19 be
       -0.15861185 -0.18214478 -0.15965225 -0.15026104
000260 07 d6 36 3e 24 20 7b 3d 06 a1 a6 bd 57 af 0e be
       0.17855082 0.06130995 -0.081361815 -0.13934074
000270 db 74 a2 3d 5a db 18 3e 00 a7 92 3e fc be 12 be
       0.07932445 0.14927426 0.28643036 -0.14330667
000280 d6 a4 6b 3e d1 e4 01 be ce ee 82 3e 6e db 0c bd
       0.23012099 -0.12684943 0.2557282 -0.034388952
000290 f9 11 d2 3d c3 68 3e be 57 ae e9 bd fc ed 8f 3e
       0.10257334 -0.18594651 -0.11410206 0.28111255
0002a0 7d 85 8a 3e 51 47 36 be 17 5c a1 bd 15 89 0a bd
       0.27054968 -0.17800643 -0.07878893 -0.033822138
0002b0 a6 e0 5a 3e 13 ea 61 3c 8d ce e9 3d 26 fb 1f 3e
       0.21374759 0.013788718 0.114163496 0.1562315
0002c0 a0 e2 78 be c5 2e 6c be d5 c8 93 3e e7 76 87 3e
       -0.243052 -0.23064716 0.2886416 0.26457903
0002d0 16 11 7b be 41 65 0c 3e e8 5e a3 bd 72 60 a9 bb
       -0.24518237 0.137105 -0.07977086 -0.005168968
0002e0 54 8b 1c 3e be b6 8d 3d c1 31 95 3e 0a f8 04 be
       0.15287524 0.06919621 0.29139522 -0.12985244
0002f0 56 10 0f 3d e6 ec 9c 3d d0 cb 2d 3d 6d 7c 4f 3e
       0.03492769 0.07662372 0.0424307 0.20262308
000300 59 0b 89 be 0e 0d a7 3d e3 2a ec 3d af 0f 5c be
       -0.2676647 0.08156787 0.115316175 -0.21490358
000310 4a 27 59 3e a1 c1 74 bd 94 ec 48 3e 84 ac 68 be
       0.21206394 -0.05975497 0.19621497 -0.2272206
000320 dc e8 1f bd 82 72 6d be 5e 22 95 be fc 20 6e 3e
       -0.03904043 -0.23188213 -0.29127783 0.2325477
000330 1a 55 f2 3a 6d 25 5e 3e d3 6a 45 3e a8 65 80 bc
       0.0018488497 0.21693964 0.19279031 -0.015673473
000340 af a3 94 3e 55 fd 11 3e 0b f6 49 3d ab ab 82 be
       0.2903113 0.14256795 0.04930691 -0.25521597
000350 eb de 31 bd 18 16 5f be 65 94 a2 bd 8c 0c 24 3e
       -0.04342548 -0.21785772 -0.0793846 0.16020411
000360 e7 c0 5d 3e 7d 7d 39 3e e4 89 02 be 7e 3d 7b 3e
       0.21655618 0.18114276 -0.12747914 0.24535176
000370 c7 a4 1b be 39 7e 7d be c5 0a 83 be 93 94 88 be
       -0.15199576 -0.24755181 -0.25594154 -0.26675853
000380 3c 9e 93 3d df 8f 5a 3e 3e 28 4a bb 3b cf 7b 3e
       0.07207915 0.21343945 -0.003084674 0.24590771
000390 3d 5e 16 3e 47 4a 49 be a0 9d 51 3e fe 98 d4 3d
       0.14684387 -0.19657241 0.20470285 0.103807434
0003a0 3c dc 2f 3e 8d 21 22 bd 93 b2 8a bd 2a 0f 53 3e
       0.17173856 -0.039582778 -0.067723416 0.20611253
0003b0 d9 4a 25 3d 13 17 09 be 9f 31 05 be 2e 76 05 be
       0.040354583 -0.13387708 -0.1300721 -0.13033363
0003c0 17 51 5e 3b 86 43 6c 3d ed 84 a4 bd 7f 84 61 be
       0.0033922845 0.057681583 -0.08033166 -0.220232
0003d0 dd 3b 29 3e a1 8d 80 bd b0 25 19 bd a1 dd fd 3d
       0.16526742 -0.062770136 -0.037389457 0.12395788
0003e0 af 8c 5e be 7f 64 15 3e 53 95 84 be 16 4e 99 bb
       -0.21733354 0.14589117 -0.25895175 -0.004678498
0003f0 38 ac 58 3e d8 02 c2 bc 9f 39 6c 3e a1 19 95 be
       0.21159446 -0.023682997 0.23068856 -0.29121116

bias f4 [64]
000000 00 00 00 00 00 00 00 00 00 00 00 00 00 00 00 00
       0.0 0.0 0.0 0.0
000010 00 00 00 00 00 00 00 00 00 00 00 00 00 00 00 00
       0.0 0.0 0.0 0.0
000020 00 00 00 00 00 00 00 00 00 00 00 00 00 00 00 00
       0.0 0.0 0.0 0.0
000030 00 00 00 00 00 00 00 00 00 00 00 00 00 00 00 00
       0.0 0.0 0.0 0.0
000040 00 00 00 00 00 00 00 00 00 00 00 00 00 00 00 00
       0.0 0.0 0.0 0.0
000050 00 00 00 00 00 00 00 00 00 00 00 00 00 00 00 00
       0.0 0.0 0.0 0.0
000060 00 00 00 00 00 00 00 00 00 00 00 00 00 00 00 00
       0.0 0.0 0.0 0.0
000070 00 00 00 00 00 00 00 00 00 00 00 00 00 00 00 00
       0.0 0.0 0.0 0.0
000080 00 00 00 00 00 00 00 00 00 00 00 00 00 00 00 00
       0.0 0.0 0.0 0.0
000090 00 00 00 00 00 00 00 00 00 00 00 00 00 00 00 00
       0.0 0.0 0.0 0.0
0000a0 00 00 00 00 00 00 00 00 00 00 00 00 00 00 00 00
       0.0 0.0 0.0 0.0
0000b0 00 00 00 00 00 00 00 00 00 00 00 00 00 00 00 00
       0.0 0.0 0.0 0.0
0000c0 00 00 00 00 00 00 00 00 00 00 00 00 00 00 00 00
       0.0 0.0 0.0 0.0
0000d0 00 00 00 00 00 00 00 00 00 00 00 00 00 00 00 00
       0.0 0.0 0.0 0.0
0000e0 00 00 00 00 00 00 00 00 00 00 00 00 00 00 00 00
       0.0 0.0 0.0 0.0
0000f0 00 00 00 00 00 00 00 00 00 00 00 00 00 00 00 00
       0.0 0.0 0.0 0.0
