experiments/ppo_pendulum_first_try_20250829_064114/checkpoints/error.pt (torch, 220035 bytes, 22 tensors)

shared_layers.0.weight f4 [64, 3]
-0.21747756 0.004578754 0.15192235 -0.062678404 0.061271954 0.14980786 0.014081146 0.4686919
-0.07461613 -0.3272104 0.034785755 -0.01392304 0.37332577 0.16029176 -0.1553599 0.0024565489
0.035432916 0.31533948 0.07114014 -0.29611483 -0.057223972 -0.0033554137 0.24116114 0.0042329486
0.29621443 0.0990725 0.24238656 -0.06941156 -0.15140276 0.2205718 -0.041377094 0.1550929
-0.017302036 -0.067262694 0.016677488 -0.45166194 -0.18529254 0.08261729 -0.004943755 -0.285008
-0.11885745 0.03128895 -0.38373166 0.052314717 -0.058238056 0.23220138 0.07467755 -0.25807545
-0.03410726 0.024950517 0.21953267 0.28104332 -0.23891172 0.16223264 0.12362697 -0.023843842
-0.051019117 -0.31023988 0.049658995 0.09155387 0.11671503 0.09203391 0.23407526 -0.1479534
-0.06354528 -0.07524923 0.05293544 0.07305273 0.21693684 0.11656802 0.054648966 0.24727894
0.26764902 0.16192415 -0.20944376 0.11408234 -0.08515773 0.29566196 -0.12986855 0.08217925
0.27774107 -0.24782233 0.051016703 -0.11227267 -0.09282242 0.2461116 0.08588451 -0.027968114
0.17120622 0.16802956 -0.10269011 -0.0076250383 0.17129336 0.11030847 0.32338628 0.16353871
-0.1570363 0.12157581 -0.024621591 -0.19953553 -0.13830566 0.17146242 -0.0013092732 0.088462934
0.14858656 -0.22336815 0.023332259 0.08653186 0.08169416 -0.26070848 -0.05595381 -0.22076751
-0.016775876 -0.10269982 -0.059930667 0.19377758 -0.07584263 0.055183254 -0.30612144 -0.18961363
-0.07917379 -0.06351826 -0.04814002 -0.228831 0.034973405 -0.12289627 0.0014179283 0.06013439
0.32573032 0.14470766 -0.28399613 0.21972543 0.29291663 -0.06720121 -0.02366214 0.013214956
-0.31414968 0.07773259 0.21797764 -0.109895386 0.11650015 0.023528177 0.21205 -0.13724622
0.20580879 0.09866692 -0.21222506 -0.3292221 0.07467649 0.45218223 -0.023735933 -0.02259983
0.064779945 -0.21431047 0.33287412 0.011780661 -0.2187984 0.116650894 -0.37912944 0.21808977
0.04979862 0.10990918 0.19856814 -0.0723755 0.09500229 -0.016815713 0.01777754 0.045247827
-0.008680164 0.019607143 0.09553858 -0.16603479 -0.22931613 0.08440678 -0.22180282 -0.43886998
-0.087421276 0.14843327 0.10355965 0.13844061 -0.059017297 -0.27772343 0.07048969 0.078023
-0.1317983 -0.013563164 -0.0066302246 0.27691516 -0.13058516 -0.10952793 -0.36052874 -0.24595867
00000000: 70b2 5ebe 5f09 963b 8891 1b3e 895d 80bd
00000010: 4df8 7a3d 3b67 193e 9bb4 663c 62f8 ef3e
00000020: 57d0 98bd 1f88 a7be 827b 0e3d 761d 64bc
00000030: 8e24 bf3e 8623 243e aa16 1fbe 0dfe 203b
00000040: 1b22 113d 2d74 a13e ecb1 913d 5d9c 97be
00000050: af63 6abd 80e6 5bbb f2f2 763e 8cb4 8a3b
00000060: 6ba9 973e 86e6 ca3d 2f34 783e a627 8ebd
00000070: 5309 1bbe 93dd 613e 077b 29bd acd0 1e3e
00000080: 00bd 8dbc 06c1 89bd 3a9f 883c 3c40 e7be
00000090: 54bd 3dbe 4133 a93d 39ff a1bb 92ec 91be
000000a0: 896b f3bd d828 003d 7a78 c4be f547 563d
000000b0: 078b 6ebd 33c6 6d3e 8bf0 983d 7722 84be
000000c0: 0eb4 0bbd 0765 cc3c 2ccd 603e e9e4 8f3e
000000d0: 46a5 74be 5020 263e 2330 fd3d 2954 c3bc
000000e0: 6cf9 50bd c3d7 9ebe 3b67 4b3d 9880 bb3d
000000f0: 4a08 ef3d 467c bc3d 6db1 6f3e 1981 17be
00000100: 0724 82bd 451c 9abd d5d2 583d ab9c 953d
00000110: b124 5e3e 37bb ee3d 98d7 5f3d b136 7d3e
00000120: 4b09 893e 72cf 253e 6d78 56be 00a4 e93d
00000130: 2d67 aebd 0161 973e 43fc 04be 984d a83d
00000140: 1434 8e3e 23c5 7dbe e4f6 503d 37ef e5bd
00000150: ae19 bebd ae04 7c3e 38e4 af3d 631d e5bc
00000160: af50 2f3e f10f 2c3e 314f d2bd 75db f9bb
00000170: 8767 2f3e 68e9 e13d e392 a53e b176 273e
00000180: 20ce 20be bdfc f83d 38b3 c9bc 0b53 4cbe
00000190: 00a0 0dbe d893 2f3e eb9b abba 0e2c b53d
000001a0: 1327 183e 9fba 64be 4b23 bf3c 9e37 b13d
000001b0: 454f a73d 957b 85be d32f 65bd e110 62be
000001c0: 906d 89bc 4954 d2bd dc79 75bd a16d 463e
000001d0: 6153 9bbd d607 623d f3bb 9cbe 132a 42be
000001e0: de25 a2bd dd15 82bd 782e 45bd ac52 6abe
000001f0: 4640 0f3d 0ab1 fbbd c7d9 b93a 7a4f 763d
00000200: 20c6 a63e 3f2e 143e f167 91be b4ff 603e
00000210: 2bf9 953e caa0 89bd 1bd7 c1bc 8b83 583c
00000220: 3ad8 a0be 4432 9f3d 8835 5f3e d510 e1bd
00000230: a197 ee3d 2abe c03c a323 593e 468a 0cbe
00000240: 8abf 523e e211 ca3d 8751 59be cd8f a8be
00000250: fdef 983d 6e84 e73e dc71 c2bc 4723 b9bc
00000260: 59ab 843d 3474 5bbe 7a6e aa3e ac03 413c
00000270: b00c 60be aae6 ee3d 411d c2be ed52 5f3e
00000280: a3f9 4b3d 1018 e13d 7255 4b3e 9b39 94bd
00000290: 9090 c23d 1bc1 89bc 34a2 913c c955 393d
000002a0: 3f37 0ebc 299f a03c bba9 c33d 0605 2abe
000002b0: d9d1 6abe 76dd ac3d 4720 63be 91b3 e0be
000002c0: ed09 b3bd e4fe 173e 1517 d43d 60c3 0d3e
000002d0: 1fbc 71bd c431 8ebe e65c 903d 86ca 9f3d
000002e0: 22f6 06be 0838 5ebc 5b42 d9bb d3c7 8d3e
000002f0: 1eb8 05be 2e50 e0bd 3997 b8be 97dc 7bbe

shared_layers.0.bias f4 [64]
0.0 0.0 0.0 0.0 0.0 0.0 0.0 0.0
0.0 0.0 0.0 0.0 0.0 0.0 0.0 0.0
0.0 0.0 0.0 0.0 0.0 0.0 0.0 0.0
0.0 0.0 0.0 0.0 0.0 0.0 0.0 0.0
0.0 0.0 0.0 0.0 0.0 0.0 0.0 0.0
0.0 0.0 0.0 0.0 0.0 0.0 0.0 0.0
0.0 0.0 0.0 0.0 0.0 0.0 0.0 0.0
0.0 0.0 0.0 0.0 0.0 0.0 0.0 0.0
00000000: 0000 0000 0000 0000 0000 0000 0000 0000
00000010: 0000 0000 0000 0000 0000 0000 0000 0000
00000020: 0000 0000 0000 0000 0000 0000 0000 0000
00000030: 0000 0000 0000 0000 0000 0000 0000 0000
00000040: 0000 0000 0000 0000 0000 0000 0000 0000
00000050: 0000 0000 0000 0000 0000 0000 0000 0000
00000060: 0000 0000 0000 0000 0000 0000 0000 0000
00000070: 0000 0000 0000 0000 0000 0000 0000 0000
00000080: 0000 0000 0000 0000 0000 0000 0000 0000
00000090: 0000 0000 0000 0000 0000 0000 0000 0000
000000a0: 0000 0000 0000 0000 0000 0000 0000 0000
000000b0: 0000 0000 0000 0000 0000 0000 0000 0000
000000c0: 0000 0000 0000 0000 0000 0000 0000 0000
000000d0: 0000 0000 0000 0000 0000 0000 0000 0000
000000e0: 0000 0000 0000 0000 0000 0000 0000 0000
000000f0: 0000 0000 0000 0000 0000 0000 0000 0000

shared_layers.2.weight f4 [64, 64]
-0.060859207 0.13433126 -0.037519507 -0.2292078 0.055453636 0.0030072562 -0.058860328 0.14431229
0.2833403 -0.056666683 -0.1194836 0.14311121 0.34237012 0.20388547 0.38190094 -0.07238348
-0.07933353 0.102179416 0.027474876 0.057424687 -0.013882882 0.06737603 -0.06972239 0.019084547
0.0754645 -0.07423079 0.029353349 -0.0072555197 -0.061518382 -0.34095448 0.18864214 -0.30359387
-0.24334212 -0.050497357 -0.20028001 -0.25457922 0.17601095 -0.33184475 -0.15524378 -0.28110573
-0.037838206 -0.19258016 -0.31211588 0.021599835 -0.074127994 0.1854891 -0.09762639 0.022243176
-0.065791175 0.056819603 -0.1111144 -0.15759021 0.41837725 -0.18546286 0.18797365 0.35879543
0.11539686 0.10338703 -0.033105887 0.14360651 0.017285326 -0.0011918927 0.34030282 -0.02905427
0.23064795 -0.08222705 0.03349191 0.049897954 0.16278145 -0.038776584 0.0857888 0.06988146
0.023830816 0.20107682 -0.22489868 0.18393146 0.0047013843 -0.19015034 0.2315828 -0.26944122
0.2041624 -0.119115695 0.019811345 0.080758035 0.30562437 -0.15676409 0.13922998 -0.21635343
-0.31545 0.2860715 0.12579325 0.079660945 -0.0054337974 0.015784761 0.20910412 -0.25412703
0.094989166 -0.019251794 -0.16431189 -0.09398531 0.024398936 -0.2683923 0.1352896 0.0023381244
-0.1553335 0.23621365 -0.15848316 0.30618584 0.044892292 0.21498571 0.04316623 -0.081424765
-0.034003973 -0.05721592 0.36879203 0.14006516 0.1354898 -0.00023135084 -0.22054343 -0.062370155
-0.14647496 0.17245492 0.23433903 -0.036108784 -0.1743216 -0.02772652 -0.53458244 -0.04827766
0.11558331 -0.0049980395 -0.27862728 0.039557643 -0.072794326 0.0679866 -0.09145964 0.34527948
-0.4557939 0.014795861 -0.11637042 0.3954296 -0.15365735 0.09758424 -0.12615752 0.039417822
0.025713673 0.019535543 0.25369093 0.15283757 0.027477317 0.4235179 0.009423236 -0.20319234
-0.06426971 -0.25023648 0.14303261 -0.037664134 -0.06935728 0.09563389 -0.23844165 0.08073051
0.34076023 0.25976056 -0.04831302 -0.35730046 0.21136983 -0.03513826 0.19546843 -0.16731259
0.08709762 0.08498273 -0.043524206 0.09360911 -0.018225955 -0.028595785 0.159966 0.12608165
0.29668033 -0.20163754 -0.18195619 0.08741666 0.12660576 0.02064305 -0.09447889 0.015022791
-0.1041558 0.0053113876 -0.07595301 0.17575502 -0.036112018 0.20625848 0.15991783 -0.24378152
-0.18769477 0.049901716 0.2338047 -0.067158155 -0.13505459 -0.16015285 0.0920235 -0.15410243
0.20600751 -0.052008297 -0.32617527 0.021564027 -0.17710206 -0.0039980225 0.103355356 0.0677726
-0.1617019 0.06480772 0.075317904 0.08579817 -0.29710764 -0.026708657 -0.22622572 -0.030691203
0.0931988 -0.089322016 -0.03457126 0.26546434 -0.02186941 0.4383207 -0.40266153 0.05865239
0.088873215 0.15795502 -0.18307455 0.04475882 -0.01998242 0.14076546 -0.06460056 -0.07378823
-0.13861361 0.024733132 0.09059099 0.3878047 -0.084631234 0.13815057 -0.062707216 -0.23586583
-0.33155906 -0.14598413 0.060467098 0.17293403 -0.025156332 -0.0028685664 0.29336104 0.34374914
-0.088656075 0.24688962 -0.15367134 0.013182375 -0.3209965 0.24082658 -0.09902857 -0.042332605
00000000: 8147 79bd 228e 093e 0eae 19bd 73b5 6abe
00000010: 5a23 633d 6315 453b 8717 71bd 9ac6 133e
00000020: fb11 913e 531b 68bd d1b3 f4bd bf8b 123e
00000030: 234b af3e 5ac7 503e 8588 c33e ca3d 94bd
00000040: 9e79 a2bd 7143 d13d fe12 e13c 2636 6b3d
00000050: 0775 63bc 72fc 893d 9dca 8ebd 3257 9c3c
00000060: 228d 9a3d 5006 98bd 6f76 f03c b6bf edbb
00000070: b3fa 7bbd 9691 aebe 682b 413e a870 9bbe
00000080: ad2e 79be 51d6 4ebd 3416 4dbe 3558 82be
00000090: 373c 343e 8ee7 a9be 3af8 1ebe 17ed 8fbe
000000a0: 3cfc 1abd bc33 45be a7cd 9fbe 23f2 b03c
000000b0: 6bd0 97bd dbf0 3d3e 58f0 c7bd 5237 b63c
000000c0: 86bd 86bd acbb 683d f28f e3bd 545f 21be
000000d0: 8b35 d63e fae9 3dbe 2a7c 403e 09b4 b73e
000000e0: 3055 ec3d 94bc d33d 0a9a 07bd 960d 133e
000000f0: f599 8d3c 4839 9cba 2c3c ae3e 3803 eebc
00000100: fa2e 6c3e a866 a8bd d02e 093d cc61 4c3d
00000110: 2eb0 263e 32d4 1ebd 0ab2 af3d 031e 8f3d
00000120: d838 c33c 15e7 4d3e d74b 66be 8758 3c3e
00000130: 120e 9a3b c5b6 42be 0b24 6d3e 33f4 89be
00000140: f30f 513e eef2 f3bd 674b a23c 7864 a53d
00000150: cc7a 9c3e c486 20be 4e92 0e3e c18b 5dbe
00000160: aa82 a1be f777 923e f2cf 003e 4725 a33d
00000170: ff0d b2bb 0b4f 813c 641f 563e f01c 82be
00000180: ae89 c23d f0b5 9dbc 6041 28be 5f7b c0bd
00000190: 47e0 c73c b76a 89be 5b89 0a3e 383b 193b
000001a0: bf0f 1fbe fee1 713e 6949 22be 64c4 9c3e
000001b0: fbe0 373d 3725 5c3e 13cf 303d 07c2 a6bd
000001c0: c047 0bbd 3e5b 6abd 4fd2 bc3e 3e6d 0f3e
000001d0: d7bd 0a3e c596 72b9 23d6 61be d977 7fbd
000001e0: 88fd 15be 0698 303e 92f6 6f3e cee6 13bd
000001f0: 5d81 32be ba22 e3bc 65da 08bf ccbe 45bd
00000200: f1b6 ec3d 98c6 a3bb 3ca8 8ebe 3207 223d
00000210: 3115 95bd 8f3c 8b3d 314f bbbd 79c8 b03e
00000220: d15d e9be 576a 723c 9d53 eebd c075 ca3e
00000230: 5a58 1dbe 3fda c73d 702f 01be 9574 213d
00000240: 7ba5 d23c 0109 a03c c7e3 813e 7481 1c3e
00000250: 1c18 e13c 57d7 d83e eb63 1a3c a711 50be
00000260: d69f 83bd ff1e 80be 2477 123e b545 1abd
00000270: 310b 8ebd b3db c33d 0c2a 74be 0a56 a53d
00000280: 2078 ae3e 56ff 843e e0e3 45bd 16f0 b6be
00000290: 5571 583e 23ed 0fbd e028 483e fe53 2bbe
000002a0: 3d60 b23d 6d0b ae3d 7046 32bd 22b6 bf3d
000002b0: 994e 95bc b541 eabc 21ce 233e 8c1b 013e
000002c0: 7ce6 973e 127a 4ebe b952 3abe 8107 b33d
000002d0: f1a4 013e 9d1b a93c 267e c1bd 2722 763c
000002e0: a34f d5bd 260b ae3b 408d 9bbd 20f9 333e
000002f0: 32ea 13bd 6c35 533e 80c1 233e dda1 79be
00000300: 0f33 40be be65 4c3d 806a 6f3e 378a 89bd
00000310: c04b 0abe 1cff 23be d176 bc3d 07cd 1dbe
00000320: a2f3 523e a706 55bd 7200 a7be 0ba7 b03c
00000330: 3e5a 35be d801 83bb f9ab d33d 5ccc 8a3d
00000340: 2f95 25be e9b9 843d 4640 9a3d f3b6 af3d
00000350: 7e1e 98be 1dcc dabc b7a7 67be 1e6c fbbc
00000360: 03df be3d 76ee b6bd 989a 0dbd f1ea 873e
00000370: 7a27 b3bc 926b e03e a729 cebe 7d3d 703d
00000380: 2903 b63d f6be 213e e577 3bbe 0655 373d
00000390: 2cb2 a3bc d224 103e 4c4d 84bd 491e 97bd
000003a0: baf0 0dbe 239d ca3c c587 b93d 568e c63e
000003b0: 2453 adbd 5877 0d3e a46c 80bd d086 71be
000003c0: 1cc2 a9be dd7c 15be 59ac 773d 9e15 313e
000003d0: a714 cebc 8ffe 3bbb 6b33 963e e3ff af3e
000003e0: 5191 b5bd a2d0 7c3e 055c 1dbe e3fa 573c
000003f0: a759 a4be 3e9b 763e 7ecf cabd f464 2dbd

shared_layers.2.bias f4 [64]
0.0 0.0 0.0 0.0 0.0 0.0 0.0 0.0
0.0 0.0 0.0 0.0 0.0 0.0 0.0 0.0
0.0 0.0 0.0 0.0 0.0 0.0 0.0 0.0
0.0 0.0 0.0 0.0 0.0 0.0 0.0 0.0
0.0 0.0 0.0 0.0 0.0 0.0 0.0 0.0
0.0 0.0 0.0 0.0 0.0 0.0 0.0 0.0
0.0 0.0 0.0 0.0 0.0 0.0 0.0 0.0
0.0 0.0 0.0 0.0 0.0 0.0 0.0 0.0
00000000: 0000 0000 0000 0000 0000 0000 0000 0000
00000010: 0000 0000 0000 0000 0000 0000 0000 0000
00000020: 0000 0000 0000 0000 0000 0000 0000 0000
00000030: 0000 0000 0000 0000 0000 0000 0000 0000
00000040: 0000 0000 0000 0000 0000 0000 0000 0000
00000050: 0000 0000 0000 0000 0000 0000 0000 0000
00000060: 0000 0000 0000 0000 0000 0000 0000 0000
00000070: 0000 0000 0000 0000 0000 0000 0000 0000
00000080: 0000 0000 0000 0000 0000 0000 0000 0000
00000090: 0000 0000 0000 0000 0000 0000 0000 0000
000000a0: 0000 0000 0000 0000 0000 0000 0000 0000
000000b0: 0000 0000 0000 0000 0000 0000 0000 0000
000000c0: 0000 0000 0000 0000 0000 0000 0000 0000
000000d0: 0000 0000 0000 0000 0000 0000 0000 0000
000000e0: 0000 0000 0000 0000 0000 0000 0000 0000
000000f0: 0000 0000 0000 0000 0000 0000 0000 0000

output_layer.weight f4 [2, 64]
0.002324786 -0.0005639053 -0.001739415 0.00030405668 0.00029611302 -0.0008945034 0.0015215487 0.0014216708
0.00015508648 0.0012391439 0.00033857636 -0.00024252034 -0.0011847821 -0.0024686249 0.000116287585 0.002008166
-0.001881624 -0.0005053748 0.00036977037 -0.0012205213 0.0013182209 0.00029675095 0.00080845994 2.639549e-05
0.0012630507 0.0013703262 0.0005419244 0.00016120501 -0.0002814247 0.002318547 0.00070038886 0.0004062483
-0.002017297 0.0024177835 -0.0012734646 -0.0002771268 -0.000847751 0.00011216483 0.0023409093 -0.0022846912
8.507355e-05 -0.0016911183 -0.0018423536 -0.0011628914 0.00020452816 -0.0007349673 0.0007585264 0.0015903605
0.0004398697 0.001199733 0.0023244752 0.0024659918 -0.0016215113 -0.00043723272 9.761766e-05 7.667786e-05
-0.00077095634 -0.0005352593 0.0014093408 0.00039590793 0.001114479 -0.00010153029 0.0004044885 0.00033890567
0.00071357127 0.0004544445 0.001095373 0.000184839 -0.00086450926 -0.0011794667 -0.0010169814 0.0005726413
-0.0002481002 -0.0013588951 -0.00052160036 0.00050003827 -0.0012423279 0.00054228475 -0.00038504493 -0.00014280039
-0.0021463232 -0.0012874629 0.0005993789 0.0006519855 0.00015117758 -0.00368159 0.0012447503 -0.0015377128
-0.001432169 0.00077399594 -0.00051588786 0.0005337517 0.0002814096 0.0013079436 0.0009353742 0.0009386974
-0.00032269262 0.00080488145 -0.00070219947 -0.0012213815 -0.0013041694 0.0004697469 0.0016015727 0.0009838215
0.001712844 -0.0029287185 0.0006035137 -0.0011327154 0.0016555389 0.0015418186 -0.00081188214 -0.0016855674
0.0025800967 -0.0006776743 0.0014153102 -0.00046505127 -0.0017763557 0.0005805086 0.0008565637 -0.0022917846
-0.00019662424 0.00032906205 0.0010499079 -2.474657e-05 -0.0005546078 0.0019881553 -0.00075253734 0.0019919786
00000000: 705b 183b 0bd3 13ba 15fd e3ba cc69 9f39
00000010: 9e3f 9b39 1b7d 6aba b46e c73a 5b57 ba3a
00000020: b69e 2239 c56a a23a f382 b139 0f4d 7eb9
00000030: b14a 9bba a7c8 21bb 6cdf f338 6f9b 033b
00000040: d3a0 f6ba 217b 04ba bddd c139 e6f9 9fba
00000050: 27c8 ac3a 3d95 9b39 d4ee 533a e26b dd37
00000060: f38c a53a 849c b33a ee0f 0e3a 2409 2939
00000070: 2f8c 93b9 c4f2 173b 4d9a 373a b9fd d439
00000080: a134 04bb ad73 1e3b 62ea a6ba 544b 91b9
00000090: 9b3b 5eba 093a eb38 f169 193b c2ba 15bb
000000a0: 8469 b238 84a8 ddba 217b f1ba 296c 98ba
000000b0: 9c76 5639 d2aa 40ba d8d7 463a a573 d03a
000000c0: 509e e639 5c40 9d3a 3956 183b 7a9c 213b
000000d0: e488 d4ba 623c e5b9 15b8 cc38 1dce a038
000000e0: 011a 4aba a550 0cba a1b9 b83a dd91 cf39
000000f0: b613 923a a9ec d4b8 8711 d439 26af b139
00000100: f50e 3b3a 8242 ee39 9e92 8f3a 57d1 4139
00000110: 3ca0 62ba 5698 9aba 3c4c 85ba 4f1d 163a
00000120: 7213 82b9 f41c b2ba 02bc 08ba 0015 033a
00000130: 9bd5 a2ba 1d28 0e3a dbdf c9b9 b0bc 15b9
00000140: 54a9 0cbb 16c0 a8ba a31f 1d3a 02ea 2a3a
00000150: 6c85 1e39 d546 71bb e426 a33a 148d c9ba
00000160: 9eb7 bbba fde5 4a3a a63c 07ba 78eb 0b3a
00000170: 288a 9339 4e6f ab3a e633 753a eb12 763a
00000180: 122f a9b9 aefe 523a cf13 38ba c316 a0ba
00000190: aaf0 aaba 5d48 f639 ddeb d13a 92f3 803a
000001a0: 8281 e03a beef 3fbb 1e35 1e3a 9f77 94ba
000001b0: abfe d83a d916 ca3a 7dd4 54ba 42ee dcba
000001c0: d716 293b f4a5 31ba ee81 b93a 20d2 f3b9
000001d0: 9bd4 e8ba 462d 183a 048b 603a c431 16bb
000001e0: eb2c 4eb9 f685 ac39 109d 893a db96 cfb7
000001f0: 1963 11ba b64b 023b ed45 45ba db8b 023b

output_layer.bias f4 [2]
0.0 -1.5
00000000: 0000 0000 0000 c0bf

layers.0.weight f4 [64, 3]
0.08487337 0.24678919 0.2723762 0.14154556 -0.10037966 -0.06147523 -0.28574032 -0.27313432
-0.26134652 -0.007320746 -0.1496304 0.16036808 0.12915932 0.058394838 0.040192753 -0.1764641
-0.27438095 0.11469392 -0.17289545 -0.20212053 -0.25525218 0.077921025 -0.28256297 -0.03328939
0.1567011 0.049975056 0.15829518 -0.1706634 0.21523619 0.22471161 -0.26617065 0.24295092
0.28274015 0.29033875 -0.0061890683 -0.013558259 -0.024182713 0.25749126 0.030738756 -0.2655353
0.12317759 -0.09861513 0.13280214 -0.17628452 0.26984757 0.083067425 -0.17802282 0.29278088
0.027319109 -0.05711722 0.038976923 -0.2822113 0.2577594 0.27095962 -0.19156763 -0.057212256
-0.13114418 0.17924654 0.10844567 0.09572553 -0.2273458 -0.17329901 -0.08661478 0.23678543
0.17242743 0.22396457 0.20047422 -0.19038145 0.21918462 0.17908016 -0.08644647 -0.28290337
0.27344427 0.15606362 0.13769269 -0.032498218 -0.117818184 0.12187736 0.27806216 -0.10818129
0.18474928 -0.25394854 -0.19891015 0.0077353814 0.11351936 0.1277872 0.22879301 -0.09720278
-0.1740969 0.10024239 -0.13577794 -0.04871542 0.022832997 0.05591063 -0.14921676 0.259939
0.07616648 0.090129495 -0.22142339 -0.060367916 -0.20153166 0.20964593 -0.10917231 0.017691059
-0.2302007 0.255865 0.09908253 -0.26652282 0.13496283 -0.17202371 -0.23256658 0.06524009
0.24497679 -0.21919757 -0.2704008 -0.058094002 0.15693538 0.2035287 -0.0841946 0.19267805
0.072365664 -0.1384504 0.18502907 0.008573749 0.24179101 0.24179989 -0.10555424 -0.2253613
0.070866294 0.22870454 0.10292338 0.06779818 0.15119608 0.18146545 0.14308245 0.1750049
0.013675126 0.08211622 0.22661777 -0.0345354 0.22565459 0.18267974 0.2106993 -0.092179276
-0.19276538 0.19768414 -0.14178786 0.19650385 0.211411 -0.07103671 0.15416777 0.29703417
0.06756274 0.29101717 -0.029717274 -0.2670225 0.05400419 -0.10652742 -0.09572328 0.06282405
-0.11314354 -0.24826872 -0.14639507 -0.28210917 -0.1508702 0.08904494 0.058255177 -0.24305382
-0.17470068 0.17966539 0.009845518 0.042769004 -0.2616574 -0.10055992 0.24869063 0.008683553
0.06461241 0.2736578 0.20856841 0.29599026 0.14300233 0.29327026 -0.18148702 0.09111313
-0.2788375 -0.2198713 -0.28811997 0.0022903595 0.09641224 -0.11744707 -0.09029556 -0.15813048
00000000: 17d2 ad3d 4eb6 7c3e e574 8b3e 52f1 103e
00000010: da93 cdbd 73cd 7bbd 8e4c 92be 43d8 8bbe
00000020: 36cf 85be dee2 efbb b638 19be 8837 243e
00000030: 5742 043e 6d2f 6f3d 28a1 243d 01b3 34be
00000040: a97b 8cbe a5e4 ea3d 810b 31be aff8 4ebe
00000050: 6ab0 82be 0f95 9f3d 18ac 90be 755a 08bd
00000060: 4176 203e a5b2 4c3d 2218 223e 63c2 2ebe
00000070: e066 5c3e cd1a 663e 8547 88be 20c8 783e
00000080: 51c3 903e 48a7 943e abcd cabb 7623 5ebc
00000090: d31a c6bc e5d5 833e d8cf fb3c 3ef4 87be
000000a0: 8844 fc3d bbf6 c9bd 49fd 073e ee83 34be
000000b0: 7629 8a3e 411f aa3d 9d4b 36be 60e7 953e
000000c0: 53cc df3c bff3 69bd 44a6 1f3d 007e 90be
000000d0: 0af9 833e 38bb 8a3e 4e2a 44be 6657 6abd
000000e0: a94a 06be 688c 373e c318 de3d bf0b c43d
000000f0: 56cd 68be 4c75 31be 1763 b1bd e177 723e
00000100: d190 303e f856 653e 1d49 4d3e 5bf3 42be
00000110: ef71 603e ca60 373e d90a b1bd b6d8 90be
00000120: e300 8c3e 24cf 1f3e 50ff 0c3e da1c 05bd
00000130: a94a f1bd d69a f93d 2a5e 8e3e 278e ddbd
00000140: ea2e 3d3e 8b05 82be 1aaf 4bbe 1579 fd3b
00000150: d77c e83d a6da 023e b748 6a3e 4012 c7bd
00000160: 7546 32be e24b cd3d 5f09 0bbe d289 47bd
00000170: 440c bb3c 8b02 653d 47cc 18be b916 853e
00000180: 2cfd 9b3d d095 b83d d0bc 62be 5944 77bd
00000190: 515e 4ebe 6cad 563e bb95 dfbd d7ec 903c
000001a0: bbb9 6bbe bd00 833e c8eb ca3d ae75 88be
000001b0: b233 0a3e fc26 30be ef25 6ebe 999c 853d
000001c0: 32db 7a3e 5475 60be f971 8abe faf3 6dbd
000001d0: abb3 203e d469 503e 386e acbd 654d 453e
000001e0: 7334 943d f1c5 0dbe 4378 3d3e e978 0c3c
000001f0: 1098 773e 649a 773e d22c d8bd 1dc5 66be
00000200: 5922 913d 8631 6a3e 7ec9 d23d c6d9 8a3d
00000210: 25d3 1a3e 14d2 393e 3584 123e 7c34 333e
00000220: a30d 603c 8c2c a83d 7d0e 683e fe74 0dbd
00000230: ff11 673e 6610 3b3e 8fc1 573e 7dc8 bcbd
00000240: 4a64 45be b66d 4a3e d630 11be 4e38 493e
00000250: 207c 583e b27b 91bd 28de 1d3e dd14 983e
00000260: 555e 8a3d 3400 953e a471 f3bc 2cb7 88be
00000270: 7f33 5d3d 0c2b dabd 910a c4bd e5a9 803d
00000280: cdb7 e7bd 283a 7ebe 97e8 15be 9d70 90be
00000290: b87d 1abe 325d b63d fb9c 6e3d 1ae3 78be
000002a0: bce4 32be 34fa 373e 184f 213c 8d2e 2f3d
000002b0: f5f7 85be 5cf2 cdbd c2a8 7e3e 7645 0e3c
000002c0: 8353 843d e01c 8c3e f592 553e 098c 973e
000002d0: 346f 123e 8527 963e bcd7 39be 8599 ba3d
000002e0: cac3 8ebe f125 61be 7684 93be db19 163b
000002f0: c873 c53d 1788 f0bd e1ec b8bd f5ec 21be

layers.0.bias f4 [64]
0.0 0.0 0.0 0.0 0.0 0.0 0.0 0.0
0.0 0.0 0.0 0.0 0.0 0.0 0.0 0.0
0.0 0.0 0.0 0.0 0.0 0.0 0.0 0.0
0.0 0.0 0.0 0.0 0.0 0.0 0.0 0.0
0.0 0.0 0.0 0.0 0.0 0.0 0.0 0.0
0.0 0.0 0.0 0.0 0.0 0.0 0.0 0.0
0.0 0.0 0.0 0.0 0.0 0.0 0.0 0.0
0.0 0.0 0.0 0.0 0.0 0.0 0.0 0.0
00000000: 0000 0000 0000 0000 0000 0000 0000 0000
00000010: 0000 0000 0000 0000 0000 0000 0000 0000
00000020: 0000 0000 0000 0000 0000 0000 0000 0000
00000030: 0000 0000 0000 0000 0000 0000 0000 0000
00000040: 0000 0000 0000 0000 0000 0000 0000 0000
00000050: 0000 0000 0000 0000 0000 0000 0000 0000
00000060: 0000 0000 0000 0000 0000 0000 0000 0000
00000070: 0000 0000 0000 0000 0000 0000 0000 0000
00000080: 0000 0000 0000 0000 0000 0000 0000 0000
00000090: 0000 0000 0000 0000 0000 0000 0000 0000
000000a0: 0000 0000 0000 0000 0000 0000 0000 0000
000000b0: 0000 0000 0000 0000 0000 0000 0000 0000
000000c0: 0000 0000 0000 0000 0000 0000 0000 0000
000000d0: 0000 0000 0000 0000 0000 0000 0000 0000
000000e0: 0000 0000 0000 0000 0000 0000 0000 0000
000000f0: 0000 0000 0000 0000 0000 0000 0000 0000

layers.2.weight f4 [64, 64]
0.09809053 -0.040600255 0.14337687 0.051388476 -0.20443805 0.1917598 0.15551446 -0.05280026
0.08762777 -0.056239333 0.17680305 -0.20065266 -0.11219092 -0.034327578 0.16760372 0.07447795
0.06712991 0.11964918 0.07602056 -0.02368655 0.13431263 -0.16650505 0.0746996 0.046650846
0.14659072 -0.15943721 0.044409182 0.14986087 -0.05303053 0.090693116 -0.15189664 -0.10630832
0.20246948 -0.15231839 -0.056106362 -0.123338275 0.03398142 -0.08645937 -0.1513191 -0.020942528
0.07819734 0.07910103 -0.19859271 0.1714566 -0.08382728 -0.17841801 0.058436707 -0.2082065
-0.05864321 0.04605761 -0.11924059 0.16815189 -0.14987952 -0.0869649 -0.1850154 0.112275675
0.12651953 0.01930215 0.14564231 -0.06668754 0.036089648 -0.016631402 -0.053248882 -0.1736929
-0.16254474 0.114772595 0.16371647 0.08412851 0.16564123 -0.13662352 0.0385462 -0.064783975
0.14438003 0.14761192 0.07305586 -0.073580265 0.1590217 -0.04724155 -0.04890508 -0.1994589
-0.16030769 -0.16269332 0.16906351 -0.02790053 -0.032723874 -0.12781239 -0.052572362 0.037422918
0.12977569 0.118756324 -0.11250708 -0.1110475 0.1537968 -0.17872465 -0.13943367 -0.0119868405
0.10317204 0.2044716 0.20785905 0.21283357 -0.10038928 0.10084895 0.19174491 0.17521165
0.1485166 -0.13891959 0.095855184 0.07421938 -0.12103941 -0.10575618 -0.029180478 0.14485627
-0.12979165 0.06509557 -0.14784172 -0.072066195 0.18264125 -0.1612862 0.09273669 0.06757211
-0.13208322 -0.03409271 0.18241821 0.056081325 -0.016617542 0.16378345 -0.12900317 0.09266884
-0.17908722 -0.048301626 0.070203006 0.11008493 0.14715937 0.04959115 0.1445079 -0.17247543
-0.20294845 0.1762741 0.13776809 0.017495995 0.036860682 0.086927086 -0.04042733 0.15970524
0.026007941 -0.02016352 -0.1754273 0.10579551 0.15064014 -0.18407544 0.08356658 0.15551777
-0.1248844 -0.14678061 0.14903462 0.050624643 -0.06198857 0.09783016 -0.09840437 -0.025897423
-0.10520179 -0.12670608 -0.118622035 -0.16780607 -0.18463548 0.025631534 -0.21410131 -0.15441361
-0.062835045 -0.18279378 0.08991197 0.15734893 -0.028183041 -0.11907399 -0.19627245 0.08872788
-0.20320779 0.07680571 -0.15676737 0.007984629 0.10284736 0.1075215 -0.012027801 -0.19065669
-0.20891126 -0.14808813 -0.09250128 0.047161255 0.19335032 -0.13006102 -0.13360475 0.12971786
0.12048897 -0.18591434 0.037725974 0.08496724 0.04679373 -0.02937756 -0.18849106 0.063131854
-0.013198187 -0.13627458 -0.05211166 0.111813135 -0.19513772 0.050006658 -0.02839388 0.12444382
-0.12034191 0.030441947 -0.19986506 -0.094189465 0.0813355 -0.13408689 -0.1293086 -0.2131452
-0.08610738 0.18241405 0.16600877 -0.096999064 0.022014555 -0.05990491 0.109793745 -0.18691114
0.053063877 -0.06819897 -0.021497874 -0.13699995 -0.11344402 -0.03509306 0.15801542 0.1843731
0.10733069 0.19970089 -0.076948926 0.07615789 0.0671573 0.14916229 -0.08967596 0.0037593185
-0.080724016 0.03550927 -0.045302477 -0.1869293 -0.14219598 0.07287819 -0.18104869 -0.17214909
-0.08011318 0.094227634 -0.025898404 -0.032812193 -0.0851341 -0.01469522 0.08837877 0.13180324
00000000: b0e3 c83d 744c 26bd 63d1 123e b97c 523d
00000010: 3558 51be ae5c 443e 2f3f 1f3e 1645 58bd
00000020: 3076 b33d 375b 66bd dc0b 353e e477 4dbe
00000030: 5ac4 e5bd 139b 0cbd 4fa0 2b3e e587 983d
00000040: 687b 893d a10a f53d abb0 9b3d 4c0a c2bc
00000050: 4089 093e 4d80 2abe 1bfc 983d f514 3f3d
00000060: e11b 163e 8243 23be 67e6 353d 2175 193e
00000070: 8b36 59bd 50bd b93d cb8a 1bbe 2db8 d9bd
00000080: 2954 4f3e 5af9 1bbe c9cf 65bd c798 fcbd
00000090: 1a30 0b3d 9c11 b1bd 65f3 1abe aa8f abbc
000000a0: ed25 a03d b9ff a13d e35b 4bbe 5292 2f3e
000000b0: a3ad abbd 36b3 36be 545b 6f3d 1634 55be
000000c0: dd33 70bd e8a6 3c3d 6934 f4bd 0230 2c3e
000000d0: 047a 19be a71a b2bd ad74 3dbe caf0 e53d
000000e0: 568e 013e 8b1f 9e3c 4223 153e 7a93 88bd
000000f0: bdd2 133d 943e 88bc 801b 5abd 8ddc 31be
00000100: 2172 26be e50d eb3d 4aa5 273e 914b ac3d
00000110: db9d 293e 09e7 0bbe 9fe2 1d3d 76ad 84bd
00000120: 5cd8 133e 9427 173e 509e 953d 40b1 96bd
00000130: 96d6 223e 5b80 41bd b150 48bd f43e 4cbe
00000140: b327 24be 1499 26be fc1e 2d3e a78f e4bc
00000150: 7809 06bd 40e1 02be 1e56 57bd c648 193d
00000160: ebe3 043e 8436 f33d 1d6a e6bd df6c e3bd
00000170: e97c 1d3e 9803 37be b3c7 0ebe 7464 44bc
00000180: dd4b d33d 0161 513e 01d9 543e 0bf1 593e
00000190: e598 cdbd e589 ce3d c758 443e af6a 333e
000001a0: bc14 183e f040 0ebe b94f c43d 5500 983d
000001b0: 83e3 f7bd b296 d8bd e60b efbc 3455 143e
000001c0: 1ae8 04be d450 853d d263 17be 7197 93bd
000001d0: 4f06 3b3e 3628 25be bcec bd3d 3f63 8a3d
000001e0: d340 07be cca4 0bbd d7cb 3a3e 88b5 653d
000001f0: 8321 88bc d9b6 273e 6819 04be 29c9 bd3d
00000200: a462 37be edd7 45bd 98c6 8f3d 3574 e13d
00000210: f2b0 163e 1720 4b3d e1f9 133e 669d 30be
00000220: b8d1 4fbe 3381 343e 1413 0d3e c353 8f3c
00000230: 3afb 163d d406 b23d 2197 25bd c589 233e
00000240: 9b0e d53c f72d a5bc 37a3 33be 51ab d83d
00000250: 6941 1a3e 467e 3cbe f524 ab3d 0d40 1f3e
00000260: 64c3 ffbd a84d 16be 889c 183e c95b 4f3d
00000270: bae7 7dbd 2e5b c83d 3b88 c9bd d526 d4bc
00000280: 0974 d7bd 3dbf 01be 1cf0 f2bd 5bd5 2bbe
00000290: 1511 3dbe 39f9 d13c 603d 5bbe 9a1e 1ebe
000002a0: a9af 80bd 4b2e 3bbe c423 b83d 1420 213e
000002b0: 1fe0 e6bc 10dd f3bd a5fb 48be f6b6 b53d
000002c0: b415 50be 504c 9d3d a087 20be f6d1 023c
000002d0: a3a1 d23d 3b34 dc3d 4110 45bc 823b 43be
000002e0: d5ec 55be 6aa4 17be 5071 bdbd 292c 413d
000002f0: a0fd 453e b72e 05be afcf 08be c2d4 043e
00000300: ecc2 f63d 5460 3ebe 8d86 1a3d 4e03 ae3d
00000310: c8aa 3f3d 35a9 f0bc cd03 41be 464b 813d
00000320: 353d 58bc 908b 0bbe 0973 55bd 49fe e43d
00000330: 2fd2 47be c8d3 4c3d 489a e8bc 67dc fe3d
00000340: d275 f6bd 6461 f93c 6da9 4cbe 68e6 c0bd
00000350: 3a93 a63d 134e 09be 7969 04be bc42 5abe
00000360: 1159 b0bd c0ca 3a3e 34fe 293e 72a7 c6bd
00000370: de57 b43c da5e 75bd 8bdb e03d a265 3fbe
00000380: 8259 593d e7ab 8bbd 4f1c b0bc b749 0cbe
00000390: 5755 e8bd bebd 0fbd cbce 213e 4dcc 3c3e
000003a0: 31d0 db3d 647e 4c3e 6697 9dbd abf8 9b3d
000003b0: c489 893d 00be 183e 08a8 b7bd e65e 763b
000003c0: a252 a5bd 2b72 113d 178f 39bd 656a 3fbe
000003d0: d39b 11be 2941 953d d464 39be da47 30be
000003e0: 6112 a4bd 6bfa c03d e428 d4bc 1466 06bd
000003f0: c95a aebd 38c4 70bc eeff b43d 6ef7 063e

layers.2.bias f4 [64]
0.0 0.0 0.0 0.0 0.0 0.0 0.0 0.0
0.0 0.0 0.0 0.0 0.0 0.0 0.0 0.0
0.0 0.0 0.0 0.0 0.0 0.0 0.0 0.0
0.0 0.0 0.0 0.0 0.0 0.0 0.0 0.0
0.0 0.0 0.0 0.0 0.0 0.0 0.0 0.0
0.0 0.0 0.0 0.0 0.0 0.0 0.0 0.0
0.0 0.0 0.0 0.0 0.0 0.0 0.0 0.0
0.0 0.0 0.0 0.0 0.0 0.0 0.0 0.0
00000000: 0000 0000 0000 0000 0000 0000 0000 0000
00000010: 0000 0000 0000 0000 0000 0000 0000 0000
00000020: 0000 0000 0000 0000 0000 0000 0000 0000
00000030: 0000 0000 0000 0000 0000 0000 0000 0000
00000040: 0000 0000 0000 0000 0000 0000 0000 0000
00000050: 0000 0000 0000 0000 0000 0000 0000 0000
00000060: 0000 0000 0000 0000 0000 0000 0000 0000
00000070: 0000 0000 0000 0000 0000 0000 0000 0000
00000080: 0000 0000 0000 0000 0000 0000 0000 0000
00000090: 0000 0000 0000 0000 0000 0000 0000 0000
000000a0: 0000 0000 0000 0000 0000 0000 0000 0000
000000b0: 0000 0000 0000 0000 0000 0000 0000 0000
000000c0: 0000 0000 0000 0000 0000 0000 0000 0000
000000d0: 0000 0000 0000 0000 0000 0000 0000 0000
000000e0: 0000 0000 0000 0000 0000 0000 0000 0000
000000f0: 0000 0000 0000 0000 0000 0000 0000 0000

output_layer.weight f4 [1, 64]
0.14698397 -0.25822127 0.27657732 -0.074046016 -0.0040056445 0.15813912 -0.008725624 0.28917885
-0.22299628 -0.057485018 -0.24769081 -0.038147807 -0.16368647 -0.1402077 0.17626628 0.042884517
-0.1274581 -0.10315813 -0.24667796 -0.16055663 0.10820597 0.07038239 0.10495275 0.19473168
0.027930638 -0.1341971 -0.10816779 0.13466033 -0.02675296 -0.009331195 0.1743566 0.10616697
-0.17994875 -0.18318163 -0.20959331 0.008386076 0.13910188 0.23424375 0.03603048 0.13292526
0.054784756 0.24079917 0.09346802 0.27719122 0.07237465 0.008787412 0.11638686 -0.14703435
0.15283646 0.19822034 0.15967776 0.22670309 0.12160195 -0.14679748 0.16165285 0.14545552
-0.030322209 0.08818702 0.110275805 0.29739678 -0.04831525 0.075209245 0.1289165 0.21057573
00000000: f782 163e 9435 84be 8b9b 8d3e 70a5 97bd
00000010: c841 83bb 39ef 213e ebf5 0ebc 400f 943e
00000020: 2359 64be 6975 6bbd a9a2 7dbe e040 1cbd
00000030: 6d9d 27be 9b92 0fbe 267f 343e ada7 2f3d
00000040: 6084 02be 9244 d3bd 2699 7cbe f568 24be
00000050: 179b dd3d a424 903d 78f1 d63d be67 473e
00000060: cbce e43c f76a 09be 1387 ddbd 66e4 093e
00000070: 0629 dbbc dee1 18bc 898a 323e 126e d93d
00000080: 7c44 38be f793 3bbe a19f 56be c165 093c
00000090: b970 0e3e 98dd 6f3e b294 133d 8f1d 083e
000000a0: fb65 603d 0f94 763e 296c bf3d 02ec 8d3e
000000b0: 2939 943d 14f9 0f3c 3c5c ee3d 2c90 16be
000000c0: 2981 1c3e 46fa 4a3e 9182 233e db24 683e
000000d0: 710a f93d 1452 16be 5388 253e 4bf2 143e
000000e0: 4866 f8bc 659b b43d 48d8 e13d 6444 983e
000000f0: 36e6 45bd 4e07 9a3d b002 043e 2aa1 573e

weight f4 [64, 3]
-0.21747756 0.004578754 0.15192235 -0.062678404 0.061271954 0.14980786 0.014081146 0.4686919
-0.07461613 -0.3272104 0.034785755 -0.01392304 0.37332577 0.16029176 -0.1553599 0.0024565489
0.035432916 0.31533948 0.07114014 -0.29611483 -0.057223972 -0.0033554137 0.24116114 0.0042329486
0.29621443 0.0990725 0.24238656 -0.06941156 -0.15140276 0.2205718 -0.041377094 0.1550929
-0.017302036 -0.067262694 0.016677488 -0.45166194 -0.18529254 0.08261729 -0.004943755 -0.285008
-0.11885745 0.03128895 -0.38373166 0.052314717 -0.058238056 0.23220138 0.07467755 -0.25807545
-0.03410726 0.024950517 0.21953267 0.28104332 -0.23891172 0.16223264 0.12362697 -0.023843842
-0.051019117 -0.31023988 0.049658995 0.09155387 0.11671503 0.09203391 0.23407526 -0.1479534
-0.06354528 -0.07524923 0.05293544 0.07305273 0.21693684 0.11656802 0.054648966 0.24727894
0.26764902 0.16192415 -0.20944376 0.11408234 -0.08515773 0.29566196 -0.12986855 0.08217925
0.27774107 -0.24782233 0.051016703 -0.11227267 -0.09282242 0.2461116 0.08588451 -0.027968114
0.17120622 0.16802956 -0.10269011 -0.0076250383 0.17129336 0.11030847 0.32338628 0.16353871
-0.1570363 0.12157581 -0.024621591 -0.19953553 -0.13830566 0.17146242 -0.0013092732 0.088462934
0.14858656 -0.22336815 0.023332259 0.08653186 0.08169416 -0.26070848 -0.05595381 -0.22076751
-0.016775876 -0.10269982 -0.059930667 0.19377758 -0.07584263 0.055183254 -0.30612144 -0.18961363
-0.07917379 -0.06351826 -0.04814002 -0.228831 0.034973405 -0.12289627 0.0014179283 0.06013439
0.32573032 0.14470766 -0.28399613 0.21972543 0.29291663 -0.06720121 -0.02366214 0.013214956
-0.31414968 0.07773259 0.21797764 -0.109895386 0.11650015 0.023528177 0.21205 -0.13724622
0.20580879 0.09866692 -0.21222506 -0.3292221 0.07467649 0.45218223 -0.023735933 -0.02259983
0.064779945 -0.21431047 0.33287412 0.011780661 -0.2187984 0.116650894 -0.37912944 0.21808977
0.04979862 0.10990918 0.19856814 -0.0723755 0.09500229 -0.016815713 0.01777754 0.045247827
-0.008680164 0.019607143 0.09553858 -0.16603479 -0.22931613 0.08440678 -0.22180282 -0.43886998
-0.087421276 0.14843327 0.10355965 0.13844061 -0.059017297 -0.27772343 0.07048969 0.078023
-0.1317983 -0.013563164 -0.0066302246 0.27691516 -0.13058516 -0.10952793 -0.36052874 -0.24595867
00000000: 70b2 5ebe 5f09 963b 8891 1b3e 895d 80bd
00000010: 4df8 7a3d 3b67 193e 9bb4 663c 62f8 ef3e
00000020: 57d0 98bd 1f88 a7be 827b 0e3d 761d 64bc
00000030: 8e24 bf3e 8623 243e aa16 1fbe 0dfe 203b
00000040: 1b22 113d 2d74 a13e ecb1 913d 5d9c 97be
00000050: af63 6abd 80e6 5bbb f2f2 763e 8cb4 8a3b
00000060: 6ba9 973e 86e6 ca3d 2f34 783e a627 8ebd
00000070: 5309 1bbe 93dd 613e 077b 29bd acd0 1e3e
00000080: 00bd 8dbc 06c1 89bd 3a9f 883c 3c40 e7be
00000090: 54bd 3dbe 4133 a93d 39ff a1bb 92ec 91be
000000a0: 896b f3bd d828 003d 7a78 c4be f547 563d
000000b0: 078b 6ebd 33c6 6d3e 8bf0 983d 7722 84be
000000c0: 0eb4 0bbd 0765 cc3c 2ccd 603e e9e4 8f3e
000000d0: 46a5 74be 5020 263e 2330 fd3d 2954 c3bc
000000e0: 6cf9 50bd c3d7 9ebe 3b67 4b3d 9880 bb3d
000000f0: 4a08 ef3d 467c bc3d 6db1 6f3e 1981 17be
00000100: 0724 82bd 451c 9abd d5d2 583d ab9c 953d
00000110: b124 5e3e 37bb ee3d 98d7 5f3d b136 7d3e
00000120: 4b09 893e 72cf 253e 6d78 56be 00a4 e93d
00000130: 2d67 aebd 0161 973e 43fc 04be 984d a83d
00000140: 1434 8e3e 23c5 7dbe e4f6 503d 37ef e5bd
00000150: ae19 bebd ae04 7c3e 38e4 af3d 631d e5bc
00000160: af50 2f3e f10f 2c3e 314f d2bd 75db f9bb
00000170: 8767 2f3e 68e9 e13d e392 a53e b176 273e
00000180: 20ce 20be bdfc f83d 38b3 c9bc 0b53 4cbe
00000190: 00a0 0dbe d893 2f3e eb9b abba 0e2c b53d
000001a0: 1327 183e 9fba 64be 4b23 bf3c 9e37 b13d
000001b0: 454f a73d 957b 85be d32f 65bd e110 62be
000001c0: 906d 89bc 4954 d2bd dc79 75bd a16d 463e
000001d0: 6153 9bbd d607 623d f3bb 9cbe 132a 42be
000001e0: de25 a2bd dd15 82bd 782e 45bd ac52 6abe
000001f0: 4640 0f3d 0ab1 fbbd c7d9 b93a 7a4f 763d
00000200: 20c6 a63e 3f2e 143e f167 91be b4ff 603e
00000210: 2bf9 953e caa0 89bd 1bd7 c1bc 8b83 583c
00000220: 3ad8 a0be 4432 9f3d 8835 5f3e d510 e1bd
00000230: a197 ee3d 2abe c03c a323 593e 468a 0cbe
00000240: 8abf 523e e211 ca3d 8751 59be cd8f a8be
00000250: fdef 983d 6e84 e73e dc71 c2bc 4723 b9bc
00000260: 59ab 843d 3474 5bbe 7a6e aa3e ac03 413c
00000270: b00c 60be aae6 ee3d 411d c2be ed52 5f3e
00000280: a3f9 4b3d 1018 e13d 7255 4b3e 9b39 94bd
00000290: 9090 c23d 1bc1 89bc 34a2 913c c955 393d
000002a0: 3f37 0ebc 299f a03c bba9 c33d 0605 2abe
000002b0: d9d1 6abe 76dd ac3d 4720 63be 91b3 e0be
000002c0: ed09 b3bd e4fe 173e 1517 d43d 60c3 0d3e
000002d0: 1fbc 71bd c431 8ebe e65c 903d 86ca 9f3d
000002e0: 22f6 06be 0838 5ebc 5b42 d9bb d3c7 8d3e
000002f0: 1eb8 05be 2e50 e0bd 3997 b8be 97dc 7bbe

bias f4 [64]
0.0 0.0 0.0 0.0 0.0 0.0 0.0 0.0
0.0 0.0 0.0 0.0 0.0 0.0 0.0 0.0
0.0 0.0 0.0 0.0 0.0 0.0 0.0 0.0
0.0 0.0 0.0 0.0 0.0 0.0 0.0 0.0
0.0 0.0 0.0 0.0 0.0 0.0 0.0 0.0
0.0 0.0 0.0 0.0 0.0 0.0 0.0 0.0
0.0 0.0 0.0 0.0 0.0 0.0 0.0 0.0
0.0 0.0 0.0 0.0 0.0 0.0 0.0 0.0
00000000: 0000 0000 0000 0000 0000 0000 0000 0000
00000010: 0000 0000 0000 0000 0000 0000 0000 0000
00000020: 0000 0000 0000 0000 0000 0000 0000 0000
00000030: 0000 0000 0000 0000 0000 0000 0000 0000
00000040: 0000 0000 0000 0000 0000 0000 0000 0000
00000050: 0000 0000 0000 0000 0000 0000 0000 0000
00000060: 0000 0000 0000 0000 0000 0000 0000 0000
00000070: 0000 0000 0000 0000 0000 0000 0000 0000
00000080: 0000 0000 0000 0000 0000 0000 0000 0000
00000090: 0000 0000 0000 0000 0000 0000 0000 0000
000000a0: 0000 0000 0000 0000 0000 0000 0000 0000
000000b0: 0000 0000 0000 0000 0000 0000 0000 0000
000000c0: 0000 0000 0000 0000 0000 0000 0000 0000
000000d0: 0000 0000 0000 0000 0000 0000 0000 0000
000000e0: 0000 0000 0000 0000 0000 0000 0000 0000
000000f0: 0000 0000 0000 0000 0000 0000 0000 0000

weight f4 [64, 64]
-0.060859207 0.13433126 -0.037519507 -0.2292078 0.055453636 0.0030072562 -0.058860328 0.14431229
0.2833403 -0.056666683 -0.1194836 0.14311121 0.34237012 0.20388547 0.38190094 -0.07238348
-0.07933353 0.102179416 0.027474876 0.057424687 -0.013882882 0.06737603 -0.06972239 0.019084547
0.0754645 -0.07423079 0.029353349 -0.0072555197 -0.061518382 -0.34095448 0.18864214 -0.30359387
-0.24334212 -0.050497357 -0.20028001 -0.25457922 0.17601095 -0.33184475 -0.15524378 -0.28110573
-0.037838206 -0.19258016 -0.31211588 0.021599835 -0.074127994 0.1854891 -0.09762639 0.022243176
-0.065791175 0.056819603 -0.1111144 -0.15759021 0.41837725 -0.18546286 0.18797365 0.35879543
0.11539686 0.10338703 -0.033105887 0.14360651 0.017285326 -0.0011918927 0.34030282 -0.02905427
0.23064795 -0.08222705 0.03349191 0.049897954 0.16278145 -0.038776584 0.0857888 0.06988146
0.023830816 0.20107682 -0.22489868 0.18393146 0.0047013843 -0.19015034 0.2315828 -0.26944122
0.2041624 -0.119115695 0.019811345 0.080758035 0.30562437 -0.15676409 0.13922998 -0.21635343
-0.31545 0.2860715 0.12579325 0.079660945 -0.0054337974 0.015784761 0.20910412 -0.25412703
0.094989166 -0.019251794 -0.16431189 -0.09398531 0.024398936 -0.2683923 0.1352896 0.0023381244
-0.1553335 0.23621365 -0.15848316 0.30618584 0.044892292 0.21498571 0.04316623 -0.081424765
-0.034003973 -0.05721592 0.36879203 0.14006516 0.1354898 -0.00023135084 -0.22054343 -0.062370155
-0.14647496 0.17245492 0.23433903 -0.036108784 -0.1743216 -0.02772652 -0.53458244 -0.04827766
0.11558331 -0.0049980395 -0.27862728 0.039557643 -0.072794326 0.0679866 -0.09145964 0.34527948
-0.4557939 0.014795861 -0.11637042 0.3954296 -0.15365735 0.09758424 -0.12615752 0.039417822
0.025713673 0.019535543 0.25369093 0.15283757 0.027477317 0.4235179 0.009423236 -0.20319234
-0.06426971 -0.25023648 0.14303261 -0.037664134 -0.06935728 0.09563389 -0.23844165 0.08073051
0.34076023 0.25976056 -0.04831302 -0.35730046 0.21136983 -0.03513826 0.19546843 -0.16731259
0.08709762 0.08498273 -0.043524206 0.09360911 -0.018225955 -0.028595785 0.159966 0.12608165
0.29668033 -0.20163754 -0.18195619 0.08741666 0.12660576 0.02064305 -0.09447889 0.015022791
-0.1041558 0.0053113876 -0.07595301 0.17575502 -0.036112018 0.20625848 0.15991783 -0.24378152
-0.18769477 0.049901716 0.2338047 -0.067158155 -0.13505459 -0.16015285 0.0920235 -0.15410243
0.20600751 -0.052008297 -0.32617527 0.021564027 -0.17710206 -0.0039980225 0.103355356 0.0677726
-0.1617019 0.06480772 0.075317904 0.08579817 -0.29710764 -0.026708657 -0.22622572 -0.030691203
0.0931988 -0.089322016 -0.03457126 0.26546434 -0.02186941 0.4383207 -0.40266153 0.05865239
0.088873215 0.15795502 -0.18307455 0.04475882 -0.01998242 0.14076546 -0.06460056 -0.07378823
-0.13861361 0.024733132 0.09059099 0.3878047 -0.084631234 0.13815057 -0.062707216 -0.23586583
-0.33155906 -0.14598413 0.060467098 0.17293403 -0.025156332 -0.0028685664 0.29336104 0.34374914
-0.088656075 0.24688962 -0.15367134 0.013182375 -0.3209965 0.24082658 -0.09902857 -0.042332605
00000000: 8147 79bd 228e 093e 0eae 19bd 73b5 6abe
00000010: 5a23 633d 6315 453b 8717 71bd 9ac6 133e
00000020: fb11 913e 531b 68bd d1b3 f4bd bf8b 123e
00000030: 234b af3e 5ac7 503e 8588 c33e ca3d 94bd
00000040: 9e79 a2bd 7143 d13d fe12 e13c 2636 6b3d
00000050: 0775 63bc 72fc 893d 9dca 8ebd 3257 9c3c
00000060: 228d 9a3d 5006 98bd 6f76 f03c b6bf edbb
00000070: b3fa 7bbd 9691 aebe 682b 413e a870 9bbe
00000080: ad2e 79be 51d6 4ebd 3416 4dbe 3558 82be
00000090: 373c 343e 8ee7 a9be 3af8 1ebe 17ed 8fbe
000000a0: 3cfc 1abd bc33 45be a7cd 9fbe 23f2 b03c
000000b0: 6bd0 97bd dbf0 3d3e 58f0 c7bd 5237 b63c
000000c0: 86bd 86bd acbb 683d f28f e3bd 545f 21be
000000d0: 8b35 d63e fae9 3dbe 2a7c 403e 09b4 b73e
000000e0: 3055 ec3d 94bc d33d 0a9a 07bd 960d 133e
000000f0: f599 8d3c 4839 9cba 2c3c ae3e 3803 eebc
00000100: fa2e 6c3e a866 a8bd d02e 093d cc61 4c3d
00000110: 2eb0 263e 32d4 1ebd 0ab2 af3d 031e 8f3d
00000120: d838 c33c 15e7 4d3e d74b 66be 8758 3c3e
00000130: 120e 9a3b c5b6 42be 0b24 6d3e 33f4 89be
00000140: f30f 513e eef2 f3bd 674b a23c 7864 a53d
00000150: cc7a 9c3e c486 20be 4e92 0e3e c18b 5dbe
00000160: aa82 a1be f777 923e f2cf 003e 4725 a33d
00000170: ff0d b2bb 0b4f 813c 641f 563e f01c 82be
00000180: ae89 c23d f0b5 9dbc 6041 28be 5f7b c0bd
00000190: 47e0 c73c b76a 89be 5b89 0a3e 383b 193b
000001a0: bf0f 1fbe fee1 713e 6949 22be 64c4 9c3e
000001b0: fbe0 373d 3725 5c3e 13cf 303d 07c2 a6bd
000001c0: c047 0bbd 3e5b 6abd 4fd2 bc3e 3e6d 0f3e
000001d0: d7bd 0a3e c596 72b9 23d6 61be d977 7fbd
000001e0: 88fd 15be 0698 303e 92f6 6f3e cee6 13bd
000001f0: 5d81 32be ba22 e3bc 65da 08bf ccbe 45bd
00000200: f1b6 ec3d 98c6 a3bb 3ca8 8ebe 3207 223d
00000210: 3115 95bd 8f3c 8b3d 314f bbbd 79c8 b03e
00000220: d15d e9be 576a 723c 9d53 eebd c075 ca3e
00000230: 5a58 1dbe 3fda c73d 702f 01be 9574 213d
00000240: 7ba5 d23c 0109 a03c c7e3 813e 7481 1c3e
00000250: 1c18 e13c 57d7 d83e eb63 1a3c a711 50be
00000260: d69f 83bd ff1e 80be 2477 123e b545 1abd
00000270: 310b 8ebd b3db c33d 0c2a 74be 0a56 a53d
00000280: 2078 ae3e 56ff 843e e0e3 45bd 16f0 b6be
00000290: 5571 583e 23ed 0fbd e028 483e fe53 2bbe
000002a0: 3d60 b23d 6d0b ae3d 7046 32bd 22b6 bf3d
000002b0: 994e 95bc b541 eabc 21ce 233e 8c1b 013e
000002c0: 7ce6 973e 127a 4ebe b952 3abe 8107 b33d
000002d0: f1a4 013e 9d1b a93c 267e c1bd 2722 763c
000002e0: a34f d5bd 260b ae3b 408d 9bbd 20f9 333e
000002f0: 32ea 13bd 6c35 533e 80c1 233e dda1 79be
00000300: 0f33 40be be65 4c3d 806a 6f3e 378a 89bd
00000310: c04b 0abe 1cff 23be d176 bc3d 07cd 1dbe
00000320: a2f3 523e a706 55bd 7200 a7be 0ba7 b03c
00000330: 3e5a 35be d801 83bb f9ab d33d 5ccc 8a3d
00000340: 2f95 25be e9b9 843d 4640 9a3d f3b6 af3d
00000350: 7e1e 98be 1dcc dabc b7a7 67be 1e6c fbbc
00000360: 03df be3d 76ee b6bd 989a 0dbd f1ea 873e
00000370: 7a27 b3bc 926b e03e a729 cebe 7d3d 703d
00000380: 2903 b63d f6be 213e e577 3bbe 0655 373d
00000390: 2cb2 a3bc d224 103e 4c4d 84bd 491e 97bd
000003a0: baf0 0dbe 239d ca3c c587 b93d 568e c63e
000003b0: 2453 adbd 5877 0d3e a46c 80bd d086 71be
000003c0: 1cc2 a9be dd7c 15be 59ac 773d 9e15 313e
000003d0: a714 cebc 8ffe 3bbb 6b33 963e e3ff af3e
000003e0: 5191 b5bd a2d0 7c3e 055c 1dbe e3fa 573c
000003f0: a759 a4be 3e9b 763e 7ecf cabd f464 2dbd

bias f4 [64]
0.0 0.0 0.0 0.0 0.0 0.0 0.0 0.0
0.0 0.0 0.0 0.0 0.0 0.0 0.0 0.0
0.0 0.0 0.0 0.0 0.0 0.0 0.0 0.0
0.0 0.0 0.0 0.0 0.0 0.0 0.0 0.0
0.0 0.0 0.0 0.0 0.0 0.0 0.0 0.0
0.0 0.0 0.0 0.0 0.0 0.0 0.0 0.0
0.0 0.0 0.0 0.0 0.0 0.0 0.0 0.0
0.0 0.0 0.0 0.0 0.0 0.0 0.0 0.0
00000000: 0000 0000 0000 0000 0000 0000 0000 0000
00000010: 0000 0000 0000 0000 0000 0000 0000 0000
00000020: 0000 0000 0000 0000 0000 0000 0000 0000
00000030: 0000 0000 0000 0000 0000 0000 0000 0000
00000040: 0000 0000 0000 0000 0000 0000 0000 0000
00000050: 0000 0000 0000 0000 0000 0000 0000 0000
00000060: 0000 0000 0000 0000 0000 0000 0000 0000
00000070: 0000 0000 0000 0000 0000 0000 0000 0000
00000080: 0000 0000 0000 0000 0000 0000 0000 0000
00000090: 0000 0000 0000 0000 0000 0000 0000 0000
000000a0: 0000 0000 0000 0000 0000 0000 0000 0000
000000b0: 0000 0000 0000 0000 0000 0000 0000 0000
000000c0: 0000 0000 0000 0000 0000 0000 0000 0000
000000d0: 0000 0000 0000 0000 0000 0000 0000 0000
000000e0: 0000 0000 0000 0000 0000 0000 0000 0000
000000f0: 0000 0000 0000 0000 0000 0000 0000 0000

weight f4 [2, 64]
0.002324786 -0.0005639053 -0.001739415 0.00030405668 0.00029611302 -0.0008945034 0.0015215487 0.0014216708
0.00015508648 0.0012391439 0.00033857636 -0.00024252034 -0.0011847821 -0.0024686249 0.000116287585 0.002008166
-0.001881624 -0.0005053748 0.00036977037 -0.0012205213 0.0013182209 0.00029675095 0.00080845994 2.639549e-05
0.0012630507 0.0013703262 0.0005419244 0.00016120501 -0.0002814247 0.002318547 0.00070038886 0.0004062483
-0.002017297 0.0024177835 -0.0012734646 -0.0002771268 -0.000847751 0.00011216483 0.0023409093 -0.0022846912
8.507355e-05 -0.0016911183 -0.0018423536 -0.0011628914 0.00020452816 -0.0007349673 0.0007585264 0.0015903605
0.0004398697 0.001199733 0.0023244752 0.0024659918 -0.0016215113 -0.00043723272 9.761766e-05 7.667786e-05
-0.00077095634 -0.0005352593 0.0014093408 0.00039590793 0.001114479 -0.00010153029 0.0004044885 0.00033890567
0.00071357127 0.0004544445 0.001095373 0.000184839 -0.00086450926 -0.0011794667 -0.0010169814 0.0005726413
-0.0002481002 -0.0013588951 -0.00052160036 0.00050003827 -0.0012423279 0.00054228475 -0.00038504493 -0.00014280039
-0.0021463232 -0.0012874629 0.0005993789 0.0006519855 0.00015117758 -0.00368159 0.0012447503 -0.0015377128
-0.001432169 0.00077399594 -0.00051588786 0.0005337517 0.0002814096 0.0013079436 0.0009353742 0.0009386974
-0.00032269262 0.00080488145 -0.00070219947 -0.0012213815 -0.0013041694 0.0004697469 0.0016015727 0.0009838215
0.001712844 -0.0029287185 0.0006035137 -0.0011327154 0.0016555389 0.0015418186 -0.00081188214 -0.0016855674
0.0025800967 -0.0006776743 0.0014153102 -0.00046505127 -0.0017763557 0.0005805086 0.0008565637 -0.0022917846
-0.00019662424 0.00032906205 0.0010499079 -2.474657e-05 -0.0005546078 0.0019881553 -0.00075253734 0.0019919786
00000000: 705b 183b 0bd3 13ba 15fd e3ba cc69 9f39
00000010: 9e3f 9b39 1b7d 6aba b46e c73a 5b57 ba3a
00000020: b69e 2239 c56a a23a f382 b139 0f4d 7eb9
00000030: b14a 9bba a7c8 21bb 6cdf f338 6f9b 033b
00000040: d3a0 f6ba 217b 04ba bddd c139 e6f9 9fba
00000050: 27c8 ac3a 3d95 9b39 d4ee 533a e26b dd37
00000060: f38c a53a 849c b33a ee0f 0e3a 2409 2939
00000070: 2f8c 93b9 c4f2 173b 4d9a 373a b9fd d439
00000080: a134 04bb ad73 1e3b 62ea a6ba 544b 91b9
00000090: 9b3b 5eba 093a eb38 f169 193b c2ba 15bb
000000a0: 8469 b238 84a8 ddba 217b f1ba 296c 98ba
000000b0: 9c76 5639 d2aa 40ba d8d7 463a a573 d03a
000000c0: 509e e639 5c40 9d3a 3956 183b 7a9c 213b
000000d0: e488 d4ba 623c e5b9 15b8 cc38 1dce a038
000000e0: 011a 4aba a550 0cba a1b9 b83a dd91 cf39
000000f0: b613 923a a9ec d4b8 8711 d439 26af b139
00000100: f50e 3b3a 8242 ee39 9e92 8f3a 57d1 4139
00000110: 3ca0 62ba 5698 9aba 3c4c 85ba 4f1d 163a
00000120: 7213 82b9 f41c b2ba 02bc 08ba 0015 033a
00000130: 9bd5 a2ba 1d28 0e3a dbdf c9b9 b0bc 15b9
00000140: 54a9 0cbb 16c0 a8ba a31f 1d3a 02ea 2a3a
00000150: 6c85 1e39 d546 71bb e426 a33a 148d c9ba
00000160: 9eb7 bbba fde5 4a3a a63c 07ba 78eb 0b3a
00000170: 288a 9339 4e6f ab3a e633 753a eb12 763a
00000180: 122f a9b9 aefe 523a cf13 38ba c316 a0ba
00000190: aaf0 aaba 5d48 f639 ddeb d13a 92f3 803a
000001a0: 8281 e03a beef 3fbb 1e35 1e3a 9f77 94ba
000001b0: abfe d83a d916 ca3a 7dd4 54ba 42ee dcba
000001c0: d716 293b f4a5 31ba ee81 b93a 20d2 f3b9
000001d0: 9bd4 e8ba 462d 183a 048b 603a c431 16bb
000001e0: eb2c 4eb9 f685 ac39 109d 893a db96 cfb7
000001f0: 1963 11ba b64b 023b ed45 45ba db8b 023b

bias f4 [2]
0.0 -1.5
00000000: 0000 0000 0000 c0bf
