experiments/ppo_cartpole_homework_20250828_113737/checkpoints/final.pt (torch, 126605 bytes, 22 tensors)

layers.0.weight f4 [64, 4]
00000000: c2f6 7b3e 0132 d6bd dfd7 b5bd 35f4 813e
00000010: 8bcb f93c 2c52 f1bd 3181 e3bd ae04 03be
00000020: 1983 8c3e 0ba1 e0bd a983 8a3c 2521 70be
00000030: da9c 2f3e c8e7 54be 5216 2cbe e987 473e
00000040: 6b4e 393e 0292 303e 8101 0bbe 9daf 873e
00000050: e9d6 55be c2cf 05be a9a0 e3bb 4eed 8abe
00000060: f517 393e 82a8 77be 7a7a c2bc 884f 853e
00000070: 5962 84be 3c02 5e3e 975d 423c 29ec 38be
00000080: 6623 793e 913e 5cbd 6c36 87bd eb8f 4a3e
00000090: 5b53 68bd 4e28 913e e08d e8bd a956 c33d
000000a0: 85ca ffbc 3856 dcbd 1fed 173e 7721 babb
000000b0: 563b b33d 16ce 8b3d 43f8 46bc 1ca0 e7bd
000000c0: 674e e2bd 1519 433e 52fc 4dbe e725 65be
000000d0: d626 413e f03c fb3d 7e5d 9f3d 33ea fdbb
000000e0: 4e71 38be 2da0 afbd 5d0d 9fbd 05f9 173e
000000f0: 9ede b33a 842a 7c3e b091 4bbe f966 d5bc
00000100: 865f 59be 96ab b1bd 91c0 58be 51eb 8e3d
00000110: a47f 71be add7 42be fb3a 503e f0bb d73d
00000120: cf9a 893e 2f40 353e 131c 03bd 6fa8 b03d
00000130: ad7b a0bc 3516 cc3d b7f3 bb3d 76e7 e5bc
00000140: d8df 52be 8a55 a13d 9cb4 8a3e b18d 233d
00000150: c54a 973d 7c3f 873e 44d1 5ebe 0333 a53d
00000160: d056 033e bc60 063d a9a2 45bc 197f 6dbe
00000170: 7751 4dbe d3e3 913e 50f8 8ebd 014c 5ebd
00000180: c11a 0ebd 2fca 873d a4ae 43be 1d23 0cbd
00000190: 8152 6f3e 3d0c 18bc 6dcb 17be eeb7 8c3e
000001a0: a3f4 93bc 9405 5d3e cf4a 453d 92da 133e
000001b0: 89d9 a7bb 7827 193a 8ab8 263e d364 5ebe
000001c0: 004a 23bc 38b3 5bbd e296 e73d b7b9 5bbd
000001d0: d72f 12be 5740 913e f975 92be 86c6 313d
000001e0: 9750 973e feab 8ebe 43eb 853e 22f5 af3c
000001f0: bb52 713e b512 203d 2330 d3bc 8ab5 36be
00000200: 3c60 abbd 1b71 7e3e ffd7 533e 0ac1 2c3e
00000210: fda5 f33d 7cf8 84be 3878 453d 5542 4e3e
00000220: 421b 94be b548 17be 7263 5fbe 7a7a 5d3e
00000230: 1884 c2bd 3e72 8abe 9497 9b3d 590b 3fbe
00000240: c152 65bd 7655 76bd e327 823e 5ff4 f83d
00000250: b14a 6cbd 861d 4ebe 95b6 aabd 0f27 073e
00000260: aef4 0ebe 3410 6ebe dce2 72be ff03 d13d
00000270: 1631 cdbc 2577 913e 3fc0 b2bd e7a9 133e
00000280: 108d c2bd c188 373d 5900 ba3d 00d8 543e
00000290: c2f3 053d cc9b c93d 4510 443e 652e 093d
000002a0: c2d8 eabd bcdd 6abd 5047 88bd 45a6 683d
000002b0: 392e 393e 394d b03d c05e 2d3e fcd1 3d3e
000002c0: 7030 6cbd 5adf ea3d def3 d9bd 2790 30be
000002d0: 7dc5 8bbd 2f91 523d 9ad0 6abe 2aa5 ab3a
000002e0: fb10 5f3e 3b39 cabd 18a8 003e 009a c8bd
000002f0: bd5c 173e 59f0 553e a87a 4ebe ff5c 833e
00000300: 2a95 133e b590 85be f466 28be 6702 8cbe
00000310: b23e 803e c785 703e ea0f 8c3e ad3a 7fbe
00000320: 9696 083e 41fc 433e 2193 943d 369a f03d
00000330: d7d8 0cbe 7e1b 07be 1c8f c63c 9fa2 87be
00000340: ffac 0abe 984a 603e 3ce0 d23d 98da 1fbe
00000350: 586c 95be 9a97 be3d fb10 473e 0f2a 75be
00000360: 129f 3a3e f415 d0bd e13c 473b a09a 1a3c
00000370: 26f6 ba3b 3ec3 753e 777d d2bd c73e 683e
00000380: 3ce9 04bc cd3d 6b3e 279a 32be 8665 80be
00000390: ad39 90bd e118 0e3e 7514 d33d f362 373e
000003a0: 04c8 90bd b238 763e 11c9 39be a49d 693e
000003b0: 9048 06be 6a30 95bd 4a44 e1bd ed7d 26be
000003c0: fd13 5a3c 3004 963d 26b8 93be 01fb 4dbc
000003d0: c1f1 0f3e cecb 9abd d311 423e 4e6f 763c
000003e0: bc23 2cbe ea25 e6bd b402 933e da2e 203e
000003f0: d2f3 c73d d917 92be 0897 90be 94a2 54be
0.2460585 -0.10458756 -0.08879065 0.25381628 0.030492565 -0.11783251 -0.11108626 -0.12794754
0.2744377 -0.109682165 0.016908484 -0.23450144 0.17149678 -0.20791543 -0.1680539 0.1948544
0.1809632 0.17243198 -0.13574792 0.2650117 -0.20882763 -0.13067535 -0.0069466424 -0.27134174
0.18075545 -0.24185374 -0.023740042 0.2603724 -0.25856283 0.2168054 0.011863134 -0.18058838
0.2432991 -0.053770605 -0.06602177 0.19781463 -0.05672012 0.28351063 -0.113551855 0.095380135
-0.031224499 -0.107586324 0.14836548 -0.005680259 0.08751552 0.06826417 -0.012144151 -0.11309835
-0.1105011 0.19052537 -0.20115784 -0.2237774 0.18862471 0.12267482 0.07781504 -0.007748866
-0.18011972 -0.08575473 -0.07766221 0.14841087 0.0013722961 0.24625593 -0.19879794 -0.026050078
-0.21227846 -0.086753055 -0.21167208 0.06978477 -0.23583847 -0.19027586 0.20335 0.10533893
0.26875922 0.17700265 -0.032009196 0.08625876 -0.019590223 0.09965173 0.09177344 -0.02806447
-0.20593202 0.078776434 0.2709092 0.03993005 0.07387308 0.26415622 -0.21759516 0.0806637
0.12826085 0.032807097 -0.012062707 -0.23193015 -0.20050608 0.2849413 -0.069809556 -0.0542717
-0.034693483 0.0663036 -0.19109589 -0.034213174 0.23371316 -0.009280262 -0.14823695 0.27484077
-0.018060988 0.21584159 0.048167046 0.14438847 -0.0051223678 0.0005842368 0.16281334 -0.21718149
-0.009966373 -0.053637713 0.113080755 -0.05364391 -0.14276062 0.283694 -0.2860563 0.043402217
0.29553673 -0.27865595 0.26156053 0.021479193 0.23566715 0.03908034 -0.02577979 -0.17842689
-0.083679646 0.24847834 0.20687865 0.16870514 0.11896894 -0.2597083 0.048210353 0.20142491
-0.28927046 -0.1477383 -0.21815279 0.21628752 -0.09497851 -0.27040285 0.075972706 -0.18656673
-0.055987123 -0.060140096 0.25421056 0.12155985 -0.05768842 -0.2012845 -0.08335606 0.13198493
-0.13960525 -0.23248369 -0.23719352 0.1020584 -0.02504782 0.28411213 -0.08728074 0.14420281
-0.09499562 0.044808153 0.090820976 0.20785522 0.03270317 0.09844169 0.19146831 0.03349151
-0.114671245 -0.05734037 -0.06654227 0.056799192 0.18084039 0.08608479 0.16930676 0.18537134
-0.05766338 0.11468382 -0.10642217 -0.1724249 -0.06824777 0.05140799 -0.22931138 0.0013095487
0.21783821 -0.09874197 0.12564123 -0.09794998 0.1478147 0.20892467 -0.20163977 0.25656888
0.1441237 -0.26086965 -0.16445524 -0.27345583 0.25047833 0.23488532 0.2735589 -0.24924727
0.13338694 0.19139196 0.07254625 0.117481634 -0.13754593 -0.13194081 0.024238162 -0.26491258
-0.13542555 0.21903455 0.102966756 -0.1561073 -0.29184222 0.093062595 0.19440071 -0.23941825
0.18224743 -0.10160437 0.0030401277 0.00943628 0.0057056127 0.2400026 -0.10277837 0.22680198
-0.008112248 0.22972794 -0.17441617 -0.25077456 -0.07042251 0.13876678 0.10306636 0.1790884
-0.070694 0.24045065 -0.18143107 0.22814041 -0.13113618 -0.07284625 -0.10999353 -0.16258974
0.01331043 0.073250175 -0.28851432 -0.012572051 0.14057066 -0.07558404 0.18952112 0.015041186
-0.16810507 -0.112377 0.28713 0.15642872 0.09763302 -0.2853382 -0.28240228 -0.20765144

layers.0.bias f4 [64]
00000000: 0000 0000 0000 0000 0000 0000 0000 0000
00000010: 0000 0000 0000 0000 0000 0000 0000 0000
00000020: 0000 0000 0000 0000 0000 0000 0000 0000
00000030: 0000 0000 0000 0000 0000 0000 0000 0000
00000040: 0000 0000 0000 0000 0000 0000 0000 0000
00000050: 0000 0000 0000 0000 0000 0000 0000 0000
00000060: 0000 0000 0000 0000 0000 0000 0000 0000
00000070: 0000 0000 0000 0000 0000 0000 0000 0000
00000080: 0000 0000 0000 0000 0000 0000 0000 0000
00000090: 0000 0000 0000 0000 0000 0000 0000 0000
000000a0: 0000 0000 0000 0000 0000 0000 0000 0000
000000b0: 0000 0000 0000 0000 0000 0000 0000 0000
000000c0: 0000 0000 0000 0000 0000 0000 0000 0000
000000d0: 0000 0000 0000 0000 0000 0000 0000 0000
000000e0: 0000 0000 0000 0000 0000 0000 0000 0000
000000f0: 0000 0000 0000 0000 0000 0000 0000 0000
0.0 0.0 0.0 0.0 0.0 0.0 0.0 0.0
0.0 0.0 0.0 0.0 0.0 0.0 0.0 0.0
0.0 0.0 0.0 0.0 0.0 0.0 0.0 0.0
0.0 0.0 0.0 0.0 0.0 0.0 0.0 0.0
0.0 0.0 0.0 0.0 0.0 0.0 0.0 0.0
0.0 0.0 0.0 0.0 0.0 0.0 0.0 0.0
0.0 0.0 0.0 0.0 0.0 0.0 0.0 0.0
0.0 0.0 0.0 0.0 0.0 0.0 0.0 0.0

layers.2.weight f4 [64, 64]
00000000: 2cdc ee3d db23 12be f709 09be ec46 323e
00000010: 37ba 92bd 9210 f03c 8498 223e b5c8 883c
00000020: 9235 1ebe b6e9 b93d 8073 a23d 6b3c 1b3d
00000030: 7d92 cebc 812e 01be 21c0 49bc f720 02bc
00000040: 7715 36bd 43dc 1abe 8ff4 943d f9f8 313e
00000050: b5ca 4d3d 85ce d7bd 8e15 053e 7f6b 4a3c
00000060: c3f9 d6bd 958f 01be e6dc d3bd 5b6c 493e
00000070: 3621 8dbd 5295 2bbe 0000 1e3e 7434 8fbd
00000080: 8911 7bbd f17f 2b3d e107 f7bc c205 1e3e
00000090: 9840 403e dd4a 88bd 886c 19be c423 513e
000000a0: 1a5c 77bd 72b7 d93c f44d 48be e346 60bc
000000b0: 8864 42be e4eb 6d3c cccd 3b3e 61c5 0c3e
000000c0: e40d b7bd 8663 4cbd 21d2 07be 9d88 47be
000000d0: 674f a3bd 1c84 273e fb10 35bd e65f 19be
000000e0: 2f2c 523d d49b 3b3e 47d3 fd3d 9e6e 013d
000000f0: dd26 33bc 5de9 29be fd83 5a3e 77f8 513a
00000100: 2cb3 5bbe f206 29be 2590 fc3d 9400 5d3e
00000110: eddd acbd 5335 263e c2da e0bb 1f96 a63d
00000120: 3097 8e3d a0e8 0a3e d26b 4abd 0b68 a83c
00000130: 728e 283e 13d1 29be d83a 3fbd a512 20bd
00000140: 2d01 4fbd 5e69 70bd 3d46 bfbd 1ebc 113e
00000150: 3a69 bebd 2c1b 9ebd 5a9b 983d 0c27 3f3e
00000160: 07f3 ca3b 3a2f 49be 0ab8 0b3c 2f44 9b3d
00000170: aab3 4cbe 752b 753c e810 08be 515c b1bd
00000180: 46ab 553d 3af9 22be beaa 3dbd 86d8 31bd
00000190: 5665 4cbe 76d8 e33d 180e b73d 3976 4cbe
000001a0: 242a 4dbe 3a63 0ebc 76da 033e d7b6 a33d
000001b0: 29a1 543e 0be5 edbd 17c1 4bbd c54e 3b3d
000001c0: b785 f03d 9095 8ebc 9c80 29be 2a5a 01be
000001d0: 40a6 df3d 12aa b9ba 1086 28be 3d34 1b3e
000001e0: 97e9 1f3e 21df bebd dba3 e93d 8c21 0ab9
000001f0: a036 d93b 964f 393e 01f1 f73c c53a 073d
00000200: ec54 5e3b d455 ad3d be76 ec3d 5bef d63c
00000210: 33ce 583e c1a2 33be 87bd 553e 72b8 22bd
00000220: fe60 8ebd 5570 543e 9402 b43d 990d f3bd
00000230: d7a1 1ebe f7d1 53be 2135 513e 74a2 543e
00000240: 3761 5abe 637e 25be 57b5 5bbe a512 b2bd
00000250: 9f52 06be edbf b93d df18 52be 4bf0 ee3d
00000260: 65e8 ec3d 8d4d f13d 69f2 32be cf16 0c3e
00000270: 7d2c 783d 2262 333d df0b 0a3d adf2 fbbd
00000280: 85ac ffbd c1e8 ad3d eb0a 543e 6021 2c3e
00000290: 6a2b 5cbe c402 0dbe d94f b2bd 22ab 29be
000002a0: 464d b7bd 7818 2dbe 006a dbbd 476b 6ebd
000002b0: 46fa 27bc 921f 2ebe 20e5 c43d 30e6 04bd
000002c0: 68b9 513e 50fa 3abe b71c 84bd f926 263d
000002d0: 4ba2 0c3e a191 e43d e68f 053d 4fb9 493e
000002e0: d702 9ebd e837 233e 566a b93d 2ec2 233d
000002f0: 1eac 44bd 99f5 0e3e 8cde 1b3e 322f d4bd
00000300: 3d6b a33d f8b6 2b3e 927b 123e 7e3d 5dbe
00000310: e779 25be 85b3 2abe 7e75 283d 77e7 093e
00000320: 204c 5abe 3abf 9b3d e876 7cbd f2c5 0f3d
00000330: 2516 223e b776 03be 9cda c3bd 9695 003e
00000340: 64f3 18bc 7869 143e 202a 453c 1abd 4d3e
00000350: 4f2f a9bd cd64 a43d c728 16be f25b cf3d
00000360: d3f7 60bd adde ad3c 1ab6 58bd ddfc 23be
00000370: 490b 163e fff0 593e b3c2 053e 86ee e9bd
00000380: 2023 473c 8435 013c fac3 3f3e 5dd3 c73d
00000390: 1523 26be e0db 763d 0ede cd3d e95c 36be
000003a0: 5cb5 07be 032c 103e ad06 9fbd 684a ccbd
000003b0: 324b 233e c654 ee3d 6e41 35be ba6c 2f3e
000003c0: ca9c b23d 8150 39be 4e0c c63d d12c 583e
000003d0: ea3b 593e 9291 093e b965 fc3d b780 4cbe
000003e0: 9a45 2a3e 32d5 d53c 1886 debd 7097 8dbd
000003f0: d796 793d 375e 9a3d 9bff b4bb 623e 3cbe
0.11663088 -0.1427149 -0.13382708 0.17409867 -0.07164424 0.029304776 0.15878493 0.016697267
-0.15450123 0.0907778 0.07932186 0.037899416 -0.025216335 -0.12615396 -0.0123138735 -0.00794243
-0.044454064 -0.15123086 0.07273208 0.17380132 0.050242145 -0.10537437 0.12996504 0.012354731
-0.10496857 -0.12652428 -0.103448674 0.1967024 -0.068911 -0.1675618 0.15429688 -0.069924265
-0.06129602 0.04187006 -0.030155124 0.15431884 0.1877464 -0.06654904 -0.14982808 0.204238
-0.06039057 0.026576731 -0.19560987 -0.013688776 -0.18983662 0.014521573 0.18340224 0.13747169
-0.08938196 -0.0498996 -0.13263752 -0.19485708 -0.07974129 0.1635899 -0.044205647 -0.14977989
0.051311668 0.18321162 0.123938136 0.031599633 -0.010934559 -0.16592927 0.21339412 0.00080097414
-0.21455067 -0.16506556 0.12332181 0.21582252 -0.084407665 0.16231279 -0.0068620155 0.08134102
0.069624305 0.13565302 -0.04941923 0.020557424 0.16460589 -0.16583662 -0.046686977 -0.03908028
-0.05053823 -0.058694236 -0.09339569 0.14231917 -0.09297414 -0.077200264 0.07451506 0.18667239
0.006193522 -0.19646922 0.008527765 0.07581364 -0.19990411 0.014963974 -0.13287699 -0.08660186
0.052165292 -0.15915385 -0.04630541 -0.043419383 -0.19960532 0.11125271 0.08938235 -0.19966973
-0.20035607 -0.00869065 0.12876305 0.07993858 0.20764603 -0.11615952 -0.04974469 0.045729417
0.11744254 -0.017405301 -0.16552967 -0.12632051 0.109203815 -0.0014165065 -0.16457391 0.15156646
0.15616451 -0.09319902 0.11408206 -0.00013173203 0.0066288263 0.18096766 0.030266287 0.03301503
0.003392513 0.08463636 0.11546086 0.02623718 0.21172409 -0.17542554 0.2087308 -0.039726682
-0.069520935 0.20745976 0.08789554 -0.11867828 -0.15491425 -0.20685564 0.20430423 0.20765096
-0.21326147 -0.16161494 -0.21455894 -0.086949624 -0.13117455 0.0906981 -0.205173 0.11666926
0.11567763 0.1178237 -0.17475285 0.13680576 0.060589302 0.04379476 0.033702727 -0.12302146
-0.12484077 0.0849166 0.2070729 0.16809607 -0.21500936 -0.13770586 -0.08706636 -0.16569188
-0.089502856 -0.16903865 -0.10713577 -0.058207776 -0.010252541 -0.1700423 0.096140146 -0.032446086
0.20480883 -0.18259549 -0.064507894 0.04056451 0.13733785 0.11160589 0.032607935 0.19699596
-0.077153854 0.15939295 0.09053485 0.039980106 -0.048015706 0.13960876 0.15221614 -0.10360564
0.079794385 0.16769016 0.14304951 -0.21605489 -0.16159783 -0.16670044 0.041127674 0.13467203
-0.21318102 0.07604833 -0.061636835 0.035100885 0.1582876 -0.12838255 -0.09563181 0.12557063
-0.009335373 0.14493358 0.012033969 0.20091668 -0.082609765 0.08027039 -0.14663993 0.10124959
-0.054923844 0.021224344 -0.05290804 -0.16014428 0.14652742 0.21283339 0.13062553 -0.11422448
0.012154371 0.007886294 0.18727103 0.09757111 -0.1622432 0.060268283 0.10052119 -0.1780888
-0.13252777 0.14079289 -0.07764945 -0.09975129 0.15946653 0.11637263 -0.1770074 0.1713132
0.087213114 -0.18097116 0.09670316 0.21110846 0.21214262 0.13434437 0.123240896 -0.19970976
0.16628113 0.026102636 -0.1086542 -0.0691365 0.060934868 0.07537501 -0.0055236346 -0.18383172

layers.2.bias f4 [64]
00000000: 0000 0000 0000 0000 0000 0000 0000 0000
00000010: 0000 0000 0000 0000 0000 0000 0000 0000
00000020: 0000 0000 0000 0000 0000 0000 0000 0000
00000030: 0000 0000 0000 0000 0000 0000 0000 0000
00000040: 0000 0000 0000 0000 0000 0000 0000 0000
00000050: 0000 0000 0000 0000 0000 0000 0000 0000
00000060: 0000 0000 0000 0000 0000 0000 0000 0000
00000070: 0000 0000 0000 0000 0000 0000 0000 0000
00000080: 0000 0000 0000 0000 0000 0000 0000 0000
00000090: 0000 0000 0000 0000 0000 0000 0000 0000
000000a0: 0000 0000 0000 0000 0000 0000 0000 0000
000000b0: 0000 0000 0000 0000 0000 0000 0000 0000
000000c0: 0000 0000 0000 0000 0000 0000 0000 0000
000000d0: 0000 0000 0000 0000 0000 0000 0000 0000
000000e0: 0000 0000 0000 0000 0000 0000 0000 0000
000000f0: 0000 0000 0000 0000 0000 0000 0000 0000
0.0 0.0 0.0 0.0 0.0 0.0 0.0 0.0
0.0 0.0 0.0 0.0 0.0 0.0 0.0 0.0
0.0 0.0 0.0 0.0 0.0 0.0 0.0 0.0
0.0 0.0 0.0 0.0 0.0 0.0 0.0 0.0
0.0 0.0 0.0 0.0 0.0 0.0 0.0 0.0
0.0 0.0 0.0 0.0 0.0 0.0 0.0 0.0
0.0 0.0 0.0 0.0 0.0 0.0 0.0 0.0
0.0 0.0 0.0 0.0 0.0 0.0 0.0 0.0

output_layer.weight f4 [2, 64]
00000000: 0be8 10be 5e1a 07bd 54fc a33b 5a92 ae3d
00000010: 7af2 38bc 0c69 f3bb edf2 703e 8cf0 7b3e
00000020: 7241 c73d fe4f 0dbe abfd 7d3e 7fcc 043d
00000030: dcb9 46bd dd85 53be 474d 41be d5d0 053e
00000040: 8212 023e 7bf4 143d 4f5a 38be ebed 55bc
00000050: fa89 81be 45ef 993e 1a5e 8e3e ab95 08bd
00000060: ce48 72bd 1eff 483e 5d5a c1bc ddbd 55be
00000070: efa5 853e b931 2d3e fa08 b9bd 3d04 30be
00000080: 8f01 07be 52dc 0f3e 750d 4e3e fc46 6c3d
00000090: 93a7 44bd 5df0 9a3d 81ba 263e 3ca1 313e
000000a0: 0772 993d 2628 a73d 765a 6dbe 17b5 673e
000000b0: 845f 8bbd 0854 45be 909f cbbd 3a3b 87be
000000c0: afe9 b2bc 30b0 8fbe 6ceb e33d fd90 843e
000000d0: 4cf1 323d e57f 333e 982b 93bd df4d 683e
000000e0: 18c9 673e 5679 bdbb c728 8a3e 8651 f93d
000000f0: 7edf bd3d cbad 73be 08f4 7abe 457a 763e
00000100: f76a c13d 4e9b 2b3e 430f bdbd 5632 6f3e
00000110: cab0 563e 7bc9 963e 027c c43c 16ee 113e
00000120: f5b7 333d c56c 603e 3bcc a8bd 6cf3 6dbe
00000130: 265c 5b3d eab9 1abe 97d0 43be 694d 213e
00000140: 3be8 563e 5dae 38be acd4 283d 7689 7d3e
00000150: d918 5b3e 041c 95bd fa4d f73d fa81 04be
00000160: a1b0 513c 4913 2abe 12b5 96bd 7d2b aa3d
00000170: 7cd4 8fbe 0e8c a43d 4234 93be 8146 df3d
00000180: 545d fcbd 0357 08be 9b3f 2a3e 3610 9a3e
00000190: 4c5b 3d3e 2734 8a3d 18ce 40be 37a9 5cbe
000001a0: 6944 9bbd a5e6 693c cc92 5f3e 6ea9 8cbe
000001b0: ccef 903d 9abd 903e 2418 a23d 261c 673e
000001c0: 9379 81bd 570b 62bd 1a35 4b3e 2b2f bfbd
000001d0: 34c9 483e a867 323d 9ba8 45be f9c4 233e
000001e0: f133 473e a8c5 90be 89b4 b73d 4348 4f3e
000001f0: ad53 893d 0f25 663e 0693 c83d c039 61bd
-0.14151017 -0.03298413 0.005004445 0.08524008 -0.01128828 -0.007428294 0.23530169 0.2460348
0.097292796 -0.13800046 0.24803798 0.032421585 -0.048517093 -0.20656534 -0.18877135 0.13067944
0.12702373 0.036365967 -0.180032 -0.013057212 -0.2530058 0.3006536 0.2780617 -0.03334586
-0.059151463 0.1962857 -0.023602659 -0.20873208 0.2610316 0.16913499 -0.09034915 -0.17189117
-0.13184188 0.1404889 0.20122321 0.057684883 -0.048011374 0.07565377 0.16282083 0.17346662
0.07492452 0.081619546 -0.2317904 0.22627674 -0.068053275 -0.19270337 -0.099425435 -0.26412374
-0.021839945 -0.28064108 0.111288875 0.25891867 0.04368715 0.17529257 -0.07186049 0.22685955
0.22635305 -0.0057822866 0.26984236 0.121737525 0.092711434 -0.23796766 -0.24507153 0.2407008
0.0944423 0.16758463 -0.092314266 0.23359045 0.20965877 0.29450592 0.023984913 0.14250979
0.043876607 0.21916492 -0.08242079 -0.2323739 0.053554676 -0.15109983 -0.1912254 0.15752186
0.20987026 -0.18035264 0.041218445 0.24759468 0.21396197 -0.07280734 0.1207542 -0.12940207
0.012798459 -0.16608919 -0.07358755 0.08309076 -0.280918 0.08034526 -0.28750807 0.109021194
-0.123224884 -0.13314442 0.16625826 0.30090493 0.18491858 0.067482285 -0.18828619 -0.21548925
-0.075814076 0.014276181 0.21833342 -0.27473015 0.070769876 0.28269655 0.07914761 0.22569332
-0.063220166 -0.055186596 0.19844475 -0.093351685 0.19608003 0.043555886 -0.19302599 0.15993108
0.19453408 -0.282758 0.08969981 0.2024241 0.06705413 0.22475074 0.097936675 -0.054986715

output_layer.bias f4 [2]
00000000: 0000 0000 0000 0000
0.0 0.0

layers.0.weight f4 [64, 4]
00000000: 4dee 583e 93cb 0abe e2cd 94be 1db9 0ebd
00000010: 9236 66be 1b90 8d3d ec6c 0c3e 7860 643e
00000020: 0a07 80be 0805 36be af14 353e 303a 37bd
00000030: 8d60 2dbe 9c52 593c a76b d5bc 01f0 03be
00000040: 30ec d2bd 9534 853e 49c4 f9bd 2065 16be
00000050: 8ca7 4f3e 72bc 75bd b0b5 703c 84ac 0fbe
00000060: bc63 833e 6b89 c93d b79b 07bc 50d9 0c3e
00000070: d527 89be 24da 703e f530 8dbe 01c9 1c3e
00000080: 4aa4 66be be3e d53d 01ce 923d 24b6 9fbc
00000090: 587a 8ebe fe20 643e fff8 723e 24fd 763d
000000a0: e1cb 32be 0615 f03d 4d2c 8ebe d615 51be
000000b0: d56a 0f3e 51c4 193e 63a8 333e 0953 15bd
000000c0: 68f0 2abe 2550 1c3e 60ba 073e 485c 3d3e
000000d0: f989 1dbe 15dd eb3c 50e7 c0bd 6038 873e
000000e0: 6aaf 833e 125c 913e e495 2abd c07f 1d3c
000000f0: e45e 3fbe f34a adbd 559b 84bc 7749 97be
00000100: 65e1 22be ec9d 0cbe d788 afbd d6a1 833e
00000110: b714 aabd 394d 4a3c a8d3 90be 4707 0cbe
00000120: 2820 c23d 9a0d e43c 0a18 41be 4201 1cbe
00000130: 19f0 dfbd bf7a 5abe 8ee4 883e 93e3 4dbd
00000140: 415b c1bd fdac c33d e9ed 0d3e 0e94 17be
00000150: 4ecd 853e 2c4e 12be 253e 2c3d 0b5b 2e3e
00000160: 842c 053d a594 86bd bca9 2dbe 1e4b 97be
00000170: d716 61be a45a 863e c04d 073e dc8b b13d
00000180: 468b 193b 5a7b 973d bca3 d03d 17f4 2a3e
00000190: 1a46 94bd 2b5b 10bd 1de7 1f3d 8a62 05be
000001a0: 28c6 23be f57e 95be 2f31 b7bd 6129 e3bd
000001b0: 0d12 373e 575e c53d 412d 08be 5f47 8c3e
000001c0: d6be 833d 043d ba3d b12e b33d 90fc 8ebe
000001d0: cf78 663e 7206 273d 7f21 8c3e bd9d f53b
000001e0: f874 65be cffa 723e def3 efbc 9ae0 193e
000001f0: 287c 653e 0a31 623e ca55 1c3e a5b5 8bbe
00000200: 19d5 6e3e b354 b7bc f1bd b3bb 2b92 84be
00000210: b203 6fbe 7e0d 5cbe 5b48 b1bd 089d 59be
00000220: 4e63 b83d 0a60 883e 4442 31be 93c1 8a3d
00000230: edb4 b1ba e3e3 88be cf7d 90bc 36f6 853e
00000240: f831 d53d 04c7 94be 6b31 d33d c4bc 183e
00000250: df54 5dbe 02f3 82bd 7876 d13d 6996 b5bd
00000260: cd24 dcbd 1be8 8b3e b7a9 90be 522c ccbd
00000270: 4cea 92be 3fdf fdbd 7c03 123e c238 153e
00000280: 5c48 863e acc2 e83d d7c0 8b3e 4733 23bb
00000290: a482 eebb eaf4 1d3e c1c2 d7bd e46f 703e
000002a0: 95fa 023e e719 4cbd e480 4dbe 9760 73bd
000002b0: 2e82 c3bb 2714 7dbe c521 d8bd 4044 b2bc
000002c0: 0356 383e 8ac2 4cbe fb81 2a3e 9dd6 a9bd
000002d0: 77b7 22be 52c5 6f3e c8eb 30be 7e96 4d3e
000002e0: 4f1c 593e b14b 8f3e 10ca 8fbd 96cd 1abe
000002f0: d3e0 703e aca5 e9bd fb87 213d 5855 e23d
00000300: 678c ba3d 2826 1f3e efb1 843e c532 91be
00000310: 7082 c83a 6944 aebd 41ae 20be a8f3 6e3e
00000320: d15e 51bc dec0 90bd dfd8 a03b 9d64 cbbd
00000330: e971 bfbd f038 26be 4caa 243c 36bb 68be
00000340: f272 16bd c250 e3bc 2441 82be 6fe9 febd
00000350: ffa2 8f3e ea9d 95be 8013 3e3e 6376 12be
00000360: 7bd1 70be de4c 65be 4309 4bbe bce7 80be
00000370: 62b9 72be 4e75 efbd a404 1e3e 6b98 11be
00000380: 6150 dabd 6642 8c3e c12f d7bc 4c14 a73c
00000390: 4f77 2ebe 49fa 903e 5cfd 863e 205c 41bd
000003a0: afed 62be 68d7 b0bd 0ca3 8fbe 4409 923e
000003b0: 0c8c 30be bcf9 34be 1d57 493e 9bda d83d
000003c0: 9e9b 2d3e 9ff5 883d 1abf 67be c76e 3ebe
000003d0: e68c dbbd aa5b 49be 3dfc b0bc 65e1 e43c
000003e0: a329 103d 02ec ac3d 1b93 923e d5ea 38be
000003f0: e1f4 883c 626b 2dbd 7b0e b3bd 8439 8dbe
0.21184655 -0.1355422 -0.29063326 -0.034844507 -0.22481754 0.069122516 0.13713425 0.22302425
-0.2500537 -0.17775357 0.17683671 -0.044733226 -0.16931362 0.0132643245 -0.02605231 -0.12884523
-0.102989554 0.2601668 -0.121956415 -0.14687014 0.20278758 -0.05999417 0.014691755 -0.14030653
0.2566203 0.098406635 -0.008276871 0.13754773 -0.26788202 0.23520714 -0.27576414 0.15311052
-0.22523609 0.10412358 0.071681984 -0.019496031 -0.27827716 0.2227821 0.23727797 0.060300007
-0.17460586 0.1172276 -0.27768174 -0.20418486 0.14005597 0.15016295 0.17544703 -0.03645614
-0.1669327 0.15264948 0.1325469 0.18492234 -0.15384664 0.028791944 -0.09419119 0.26410198
0.25719768 0.28390557 -0.041646853 0.0096129775 -0.18688542 -0.08461561 -0.01618735 -0.29548237
-0.15906294 -0.13732117 -0.08571022 0.2570941 -0.08304732 0.012347513 -0.2828648 -0.13674651
0.094787896 0.027838517 -0.18856826 -0.15234855 -0.10934467 -0.21335886 0.26736873 -0.05026586
-0.094412334 0.09554479 0.13860287 -0.14802572 0.26133198 -0.14287633 0.042051453 0.17026918
0.032513157 -0.065713204 -0.1695928 -0.29549497 -0.21981369 0.26241028 0.13213253 0.08669254
0.002342896 0.07396574 0.1018748 0.16694675 -0.07239933 -0.035243195 0.039038766 -0.13025871
-0.1599356 -0.29198423 -0.08944928 -0.11091877 0.1787798 0.096371345 -0.13298513 0.27398202
0.064328834 0.09093669 0.0874914 -0.27927065 0.22507022 0.04077763 0.27369305 0.0074956105
-0.22407901 0.23728488 -0.02929109 0.15027085 0.22410643 0.2208902 0.15267101 -0.2728702
0.23323478 -0.022379255 -0.0054852893 -0.25892767 -0.23341253 -0.21489522 -0.08656379 -0.21251309
0.09003316 0.26635772 -0.17310435 0.067752026 -0.0013557948 -0.26736364 -0.017638115 0.26164407
0.104099214 -0.29058087 0.1031216 0.14915758 -0.21614407 -0.06394006 0.10227674 -0.08866579
-0.10749207 0.2732552 -0.28254482 -0.09969391 -0.2869438 -0.123960964 0.14259142 0.14572433
0.2622708 0.11365256 0.27295563 -0.002490239 -0.007278757 0.15425459 -0.10535193 0.23480183
0.12790902 -0.04982939 -0.20068699 -0.059418287 -0.0059664464 -0.24714719 -0.10553316 -0.02176106
0.18001561 -0.19996086 0.16651146 -0.08292887 -0.15890299 0.23415115 -0.17277443 0.2007694
0.21202205 0.27987435 -0.07020962 -0.15117487 0.23523264 -0.114085525 0.03943632 0.11051434
0.09108811 0.15541899 0.25917003 -0.28359047 0.0015297662 -0.08509142 -0.15691473 0.23335135
-0.012778954 -0.070680365 0.0049086655 -0.099313 -0.093478985 -0.16232657 0.010050368 -0.22727665
-0.036730714 -0.02774847 -0.25440323 -0.12446868 0.28054044 -0.2922204 0.18562126 -0.14302973
-0.2351741 -0.22392604 -0.19827752 -0.251768 -0.2370353 -0.11692296 0.15431458 -0.14218299
-0.10659862 0.27394408 -0.026267888 0.02039542 -0.170377 0.28315952 0.26365173 -0.047206998
-0.22160982 -0.086348355 -0.28054082 0.28522694 -0.17240924 -0.17673391 0.19662137 0.10588571
0.16953894 0.066874735 -0.22631493 -0.18596946 -0.107202336 -0.19663873 -0.021604652 0.027939508
0.035195958 0.084434524 0.28627858 -0.18058331 0.01671833 -0.042338736 -0.08742996 -0.27582943

layers.0.bias f4 [64]
00000000: 0000 0000 0000 0000 0000 0000 0000 0000
00000010: 0000 0000 0000 0000 0000 0000 0000 0000
00000020: 0000 0000 0000 0000 0000 0000 0000 0000
00000030: 0000 0000 0000 0000 0000 0000 0000 0000
00000040: 0000 0000 0000 0000 0000 0000 0000 0000
00000050: 0000 0000 0000 0000 0000 0000 0000 0000
00000060: 0000 0000 0000 0000 0000 0000 0000 0000
00000070: 0000 0000 0000 0000 0000 0000 0000 0000
00000080: 0000 0000 0000 0000 0000 0000 0000 0000
00000090: 0000 0000 0000 0000 0000 0000 0000 0000
000000a0: 0000 0000 0000 0000 0000 0000 0000 0000
000000b0: 0000 0000 0000 0000 0000 0000 0000 0000
000000c0: 0000 0000 0000 0000 0000 0000 0000 0000
000000d0: 0000 0000 0000 0000 0000 0000 0000 0000
000000e0: 0000 0000 0000 0000 0000 0000 0000 0000
000000f0: 0000 0000 0000 0000 0000 0000 0000 0000
0.0 0.0 0.0 0.0 0.0 0.0 0.0 0.0
0.0 0.0 0.0 0.0 0.0 0.0 0.0 0.0
0.0 0.0 0.0 0.0 0.0 0.0 0.0 0.0
0.0 0.0 0.0 0.0 0.0 0.0 0.0 0.0
0.0 0.0 0.0 0.0 0.0 0.0 0.0 0.0
0.0 0.0 0.0 0.0 0.0 0.0 0.0 0.0
0.0 0.0 0.0 0.0 0.0 0.0 0.0 0.0
0.0 0.0 0.0 0.0 0.0 0.0 0.0 0.0

layers.2.weight f4 [64, 64]
00000000: cb5d c6bd 41c6 c83d 8512 0b3d 7511 c0b9
00000010: d367 563d 921f c83d 3b91 703c 2e06 013e
00000020: dc48 883d e0aa 6b3d 5372 bfbc 6af4 3ebe
00000030: 4c44 313e 76ad a0bd f347 5fbc 32a1 3e3e
00000040: 38a2 71bd 4213 0abd c16b 9ebd 3c87 81bd
00000050: 31d2 18be c335 34be 2f16 1ebe 9797 07be
00000060: 677d 28be 749b cabd 12d8 e63d d30b 3a3c
00000070: 6adb ad3d 022d 363d 40b5 e0bc 2c08 b8bd
00000080: 2987 04be f3a1 33bb 5ff9 29be 93f8 bdbc
00000090: 0b15 38be 6bd0 59be e12e 35be 9837 273e
000000a0: 4b99 d33c 6f26 eabd 9345 f0bd e873 51be
000000b0: f93f debd b8c0 9e3d b7e9 403e 8541 53be
000000c0: fb18 f13d 50cd 8e3d 806d cd3c c0e8 22bb
000000d0: 7881 0dbe 23bd 4c3e 86f0 4b3e 67ee 383e
000000e0: 1ed1 e4bd 2010 de3c e0c3 d8bb f544 193e
000000f0: bb22 6d3d c477 adbd 7fca 1cbe 45ae f0bd
00000100: a4cf bfb9 4fdf 493c 80a7 bebd a8c9 b4bd
00000110: 007a 6e3d d7a0 ae3d 18a3 703d cc18 573e
00000120: 6ad4 03be c2b2 8a3d c434 ac3d c50f 1e3e
00000130: 4b63 babd 6d4f 0a3e 0da6 9f3d 36a0 e3bd
00000140: 5f57 663d 59a8 99bd a8b2 42bd 1afd d33c
00000150: df68 19bd c19a 1e3e a797 213c 10b3 dcbb
00000160: 0117 963c 3d46 66bc ea21 c33d fdc2 463e
00000170: 09e4 a83d f7a5 113d 72e0 90bd 3039 3ebe
00000180: e579 a63d 8892 593c f4ad 2e3d c2d1 943d
00000190: 8dc4 4f3e bf6e 1cbd 812c 0a3e 02a0 903d
000001a0: 90bc 043c 1b6a 483e 0508 48be 2575 2b3d
000001b0: ee52 9dbd f00d b8bd ac34 1d3e bbb1 123d
000001c0: 8412 4cbe 58f2 16be 4665 2dbe f289 58be
000001d0: 9bfa 2fbe cad8 bdbd 06b7 f03d 38f2 b6bd
000001e0: cd0a c3bd 21f6 c83d 33ca e63b e499 1dbe
000001f0: 1d44 573e 627d 6ebc 1a66 243d aee9 ef3d
00000200: 33df 06be 99a3 94bd 60d6 923c 30be e43d
00000210: 2cc8 1fbe 7eca 2c3d 0e81 94bc 1f69 1e3e
00000220: 1957 573e b883 40be f796 ea3d e670 8a3d
00000230: cf25 403c b49b 3cbe bf30 303e e89d 9fbd
00000240: 9b8f 21be 7a56 fdbd 78ee abbd 923c bbbd
00000250: 59a3 f03d 319a 73bd d3eb 22be 2887 a6bd
00000260: 2279 16be 0c96 bf3d f1a0 593e 1eb8 603c
00000270: f5a9 4abe faa0 9cb9 c5c4 4e3d bbc2 133e
00000280: f23d b03d 8e89 383e 4b26 3dbe ef5d 253e
00000290: 8a22 16be f382 b13c f18e db3d c8e1 1a3c
000002a0: 5975 d23d d405 473e 088c 853c 6616 d8bc
000002b0: 99fd 94bc d240 0f3c 116f 39be 1e63 013d
000002c0: 499e 65bd e654 823d db34 02be c3d2 c93d
000002d0: cba9 463e e73f 3abe 3291 a33d 5bb9 16bd
000002e0: d0ab e43d 7d8c c3bc 2306 ff3d 8ac7 023d
000002f0: 6c09 01be 4748 173e 8857 413e 0673 c83d
00000300: 4cbf c5bd cb52 2c3d 740c 3fbe 1517 013e
00000310: 0bd8 21be 15c2 3ebe 0a45 8cbd fcd7 243d
00000320: 4336 5b3e 7c13 e1bb af03 ae3d 2a6e 403e
00000330: 88f5 11bd 819b 863d 6e8b 573e e91b 18be
00000340: 06d5 14be 12b5 f43d cf0c 83bd f21b a4bd
00000350: 4752 9f3d 4b1a 3c3e 44b9 bb3d 10ab 143e
00000360: 7bfb 6d3d 09d7 473e c13b e13d c181 003e
00000370: 2d31 343e af70 273d 494c a7bd 1ec8 a8bc
00000380: 6435 683d d573 c8bd 9e1c 69bc 01ba b2bd
00000390: ee50 d13d d1d8 083e 48db 25be fab5 a93d
000003a0: 81f1 593e 64da 25be 7b2f 5d3e b572 11bd
000003b0: 3e42 553a 9478 cf3c f45e 2e3e 24c5 f3bc
000003c0: ecef 533d 72cb 9bbc 88ec 34be f9f6 f53b
000003d0: 7307 4e3e 82a3 f2bd 9ba4 f7bd d66e 843c
000003e0: 9f2d 4ebe cd1e a9bd 1341 8cbd bdfa fd3d
000003f0: 1549 b53d 1900 07be f266 93bc 714c ab3d
-0.09685858 0.09803439 0.03395321 -0.000366341 0.05234511 0.097716466 0.014683063 0.12600014
0.06654522 0.057536006 -0.023369944 -0.18647924 0.1731121 -0.07845585 -0.013627994 0.18616179
-0.058992594 -0.033709772 -0.07735396 -0.06324622 -0.14923932 -0.17598633 -0.1543815 -0.1324142
-0.16454087 -0.098929316 0.11271681 0.011355358 0.084891155 0.044476517 -0.027430177 -0.08985934
-0.12942185 -0.0027409762 -0.16599034 -0.023189818 -0.17976777 -0.21270911 -0.17693664 0.16329801
0.025829932 -0.11433112 -0.1173202 -0.20454371 -0.108520456 0.07751602 0.18839155 -0.20630462
0.11772343 0.06972754 0.025076628 -0.0024857968 -0.1381892 0.19994025 0.19915971 0.18059693
-0.111726984 0.027107298 -0.006615147 0.14967711 0.05789445 -0.08470109 -0.15311621 -0.11751989
-0.00036585063 0.012321307 -0.09309292 -0.088275254 0.058221817 0.085267715 0.05874929 0.21005553
-0.12873998 0.067723766 0.08408502 0.15435703 -0.0910097 0.13506861 0.077953435 -0.11114542
0.056235667 -0.07502813 -0.04753366 0.025877524 -0.03745353 0.15488721 0.009862817 -0.006735213
0.018321516 -0.014054832 0.09527953 0.1941032 0.08246619 0.035558667 -0.070740595 -0.18576503
0.08128718 0.013279565 0.042646363 0.07266571 0.20289822 -0.038191553 0.1349354 0.07061769
0.008101597 0.19571726 -0.19534309 0.041859765 -0.07681833 -0.08987033 0.15352124 0.03581403
-0.19928938 -0.14740884 -0.16933164 -0.21146372 -0.17185442 -0.09269865 0.11753659 -0.08932918
-0.095235445 0.0981257 0.007043147 -0.15390736 0.21022077 -0.014556261 0.040136434 0.11714493
-0.13171081 -0.07257766 0.017924488 0.11169088 -0.15603703 0.0421853 -0.018127944 0.15469788
0.21029319 -0.18800247 0.114545755 0.06759815 0.011727764 -0.18418771 0.17206095 -0.0779379
-0.15777437 -0.1237001 -0.08395094 -0.09142412 0.11749906 -0.05947322 -0.15910272 -0.08131248
-0.14694646 0.09354791 0.212528 0.013715772 -0.19791396 -0.00029874576 0.050480623 0.14429753
0.08605565 0.18021223 -0.18471639 0.16149114 -0.14661613 0.021668887 0.10720623 0.0094532445
0.102762885 0.19435817 0.016302124 -0.026377868 -0.018187331 0.008743482 -0.18108775 0.031588666
-0.056059156 0.06363849 -0.12715475 0.09854653 0.19400708 -0.1818844 0.07986678 -0.036797862
0.11165583 -0.023870701 0.12452342 0.031928577 -0.1260125 0.14773665 0.18881047 0.09787564
-0.096556276 0.042071145 -0.18657094 0.12606461 -0.1580507 -0.18628724 -0.06849106 0.04024504
0.21407418 -0.006868778 0.08496796 0.18792024 -0.035634547 0.06572629 0.21049282 -0.14854397
-0.14534387 0.11948599 -0.063989274 -0.08013143 0.07779365 0.18369405 0.09166196 0.1451838
0.05810116 0.19515623 0.10997725 0.12549497 0.17596884 0.040878948 -0.08168847 -0.020603236
0.056691542 -0.09787718 -0.014228014 -0.08726884 0.10220514 0.13363959 -0.1619693 0.082866624
0.21283533 -0.1619659 0.21600144 -0.035509784 0.0008135176 0.02532605 0.17028409 -0.02975709
0.05174248 -0.019017909 -0.17668355 0.007506248 0.20120029 -0.11847593 -0.12091943 0.016166132
-0.2013459 -0.08257828 -0.068483494 0.1240134 0.0885183 -0.13183631 -0.017993424 0.083641894

layers.2.bias f4 [64]
00000000: 0000 0000 0000 0000 0000 0000 0000 0000
00000010: 0000 0000 0000 0000 0000 0000 0000 0000
00000020: 0000 0000 0000 0000 0000 0000 0000 0000
00000030: 0000 0000 0000 0000 0000 0000 0000 0000
00000040: 0000 0000 0000 0000 0000 0000 0000 0000
00000050: 0000 0000 0000 0000 0000 0000 0000 0000
00000060: 0000 0000 0000 0000 0000 0000 0000 0000
00000070: 0000 0000 0000 0000 0000 0000 0000 0000
00000080: 0000 0000 0000 0000 0000 0000 0000 0000
00000090: 0000 0000 0000 0000 0000 0000 0000 0000
000000a0: 0000 0000 0000 0000 0000 0000 0000 0000
000000b0: 0000 0000 0000 0000 0000 0000 0000 0000
000000c0: 0000 0000 0000 0000 0000 0000 0000 0000
000000d0: 0000 0000 0000 0000 0000 0000 0000 0000
000000e0: 0000 0000 0000 0000 0000 0000 0000 0000
000000f0: 0000 0000 0000 0000 0000 0000 0000 0000
0.0 0.0 0.0 0.0 0.0 0.0 0.0 0.0
0.0 0.0 0.0 0.0 0.0 0.0 0.0 0.0
0.0 0.0 0.0 0.0 0.0 0.0 0.0 0.0
0.0 0.0 0.0 0.0 0.0 0.0 0.0 0.0
0.0 0.0 0.0 0.0 0.0 0.0 0.0 0.0
0.0 0.0 0.0 0.0 0.0 0.0 0.0 0.0
0.0 0.0 0.0 0.0 0.0 0.0 0.0 0.0
0.0 0.0 0.0 0.0 0.0 0.0 0.0 0.0

output_layer.weight f4 [1, 64]
00000000: 4c23 a4bd 4001 c1bd 1054 78be ad35 243e
00000010: 7c21 8fbe db28 5f3e f1e5 07be 00b5 293c
00000020: 9608 3dbd 3bac 83be c356 4ebd cebe e43d
00000030: 3b41 6bbc 7dfe 953e 8522 8f3e 9f61 7ebc
00000040: f0f7 5c3d 19ee 79be 84b9 6abe da3d 12be
00000050: 2ee3 4b3e a96b 90be 0ea8 ac3d d880 df3d
00000060: d917 6d3e 8656 8c3e 8d37 4a3e 84ae e73d
00000070: b7d5 b53d 93a8 5bbe de85 873e e076 58be
00000080: d21d 12bd 9a5f 883e 2182 2dbe 7f42 41be
00000090: 0a31 2d3e 5999 8c3e 7be2 04be f1f7 88bd
000000a0: 3499 ce3d dfa4 86be 6676 8fbd d6dc 35be
000000b0: 313d 3f3e 4a38 7f3e acd6 e4bd 6f79 27bd
000000c0: 1e04 35be 952a 433d 5bcb e9bd fdca 8cbc
000000d0: b907 53be 5eda 0ebe 0268 343e bdcf 10be
000000e0: 0aeb 31be 1a77 5e3e af8f 6fbe ac39 b63d
000000f0: a63a 83be 6cf1 393e a4ea 303e f9b5 e63d
-0.08014545 -0.094240665 -0.24250817 0.160361 -0.27955234 0.21792929 -0.1327131 0.010358095
-0.046150766 -0.2571734 -0.05037571 0.111692056 -0.014358814 0.29295722 0.27956024 -0.015526204
0.05394739 -0.24407233 -0.22922331 -0.14281407 0.19910881 -0.28207138 0.084304914 0.10913247
0.23153628 0.27409762 0.19747753 0.11312583 0.088786535 -0.21451025 0.2646932 -0.21139097
-0.03567297 0.26635438 -0.16944171 -0.18873022 0.16913238 0.27460745 -0.1297702 -0.06687916
0.10087815 -0.26297662 -0.070050046 -0.17760023 0.18675686 0.24923816 -0.11173758 -0.040887292
-0.17677352 0.04764803 -0.1141574 -0.017186636 -0.20608415 -0.13950488 0.17617801 -0.14141746
-0.17374817 0.21725121 -0.23394655 0.08897719 -0.25630683 0.18158501 0.17277008 0.11265177

weight f4 [64, 4]
00000000: c2f6 7b3e 0132 d6bd dfd7 b5bd 35f4 813e
00000010: 8bcb f93c 2c52 f1bd 3181 e3bd ae04 03be
00000020: 1983 8c3e 0ba1 e0bd a983 8a3c 2521 70be
00000030: da9c 2f3e c8e7 54be 5216 2cbe e987 473e
00000040: 6b4e 393e 0292 303e 8101 0bbe 9daf 873e
00000050: e9d6 55be c2cf 05be a9a0 e3bb 4eed 8abe
00000060: f517 393e 82a8 77be 7a7a c2bc 884f 853e
00000070: 5962 84be 3c02 5e3e 975d 423c 29ec 38be
00000080: 6623 793e 913e 5cbd 6c36 87bd eb8f 4a3e
00000090: 5b53 68bd 4e28 913e e08d e8bd a956 c33d
000000a0: 85ca ffbc 3856 dcbd 1fed 173e 7721 babb
000000b0: 563b b33d 16ce 8b3d 43f8 46bc 1ca0 e7bd
000000c0: 674e e2bd 1519 433e 52fc 4dbe e725 65be
000000d0: d626 413e f03c fb3d 7e5d 9f3d 33ea fdbb
000000e0: 4e71 38be 2da0 afbd 5d0d 9fbd 05f9 173e
000000f0: 9ede b33a 842a 7c3e b091 4bbe f966 d5bc
00000100: 865f 59be 96ab b1bd 91c0 58be 51eb 8e3d
00000110: a47f 71be add7 42be fb3a 503e f0bb d73d
00000120: cf9a 893e 2f40 353e 131c 03bd 6fa8 b03d
00000130: ad7b a0bc 3516 cc3d b7f3 bb3d 76e7 e5bc
00000140: d8df 52be 8a55 a13d 9cb4 8a3e b18d 233d
00000150: c54a 973d 7c3f 873e 44d1 5ebe 0333 a53d
00000160: d056 033e bc60 063d a9a2 45bc 197f 6dbe
00000170: 7751 4dbe d3e3 913e 50f8 8ebd 014c 5ebd
00000180: c11a 0ebd 2fca 873d a4ae 43be 1d23 0cbd
00000190: 8152 6f3e 3d0c 18bc 6dcb 17be eeb7 8c3e
000001a0: a3f4 93bc 9405 5d3e cf4a 453d 92da 133e
000001b0: 89d9 a7bb 7827 193a 8ab8 263e d364 5ebe
000001c0: 004a 23bc 38b3 5bbd e296 e73d b7b9 5bbd
000001d0: d72f 12be 5740 913e f975 92be 86c6 313d
000001e0: 9750 973e feab 8ebe 43eb 853e 22f5 af3c
000001f0: bb52 713e b512 203d 2330 d3bc 8ab5 36be
00000200: 3c60 abbd 1b71 7e3e ffd7 533e 0ac1 2c3e
00000210: fda5 f33d 7cf8 84be 3878 453d 5542 4e3e
00000220: 421b 94be b548 17be 7263 5fbe 7a7a 5d3e
00000230: 1884 c2bd 3e72 8abe 9497 9b3d 590b 3fbe
00000240: c152 65bd 7655 76bd e327 823e 5ff4 f83d
00000250: b14a 6cbd 861d 4ebe 95b6 aabd 0f27 073e
00000260: aef4 0ebe 3410 6ebe dce2 72be ff03 d13d
00000270: 1631 cdbc 2577 913e 3fc0 b2bd e7a9 133e
00000280: 108d c2bd c188 373d 5900 ba3d 00d8 543e
00000290: c2f3 053d cc9b c93d 4510 443e 652e 093d
000002a0: c2d8 eabd bcdd 6abd 5047 88bd 45a6 683d
000002b0: 392e 393e 394d b03d c05e 2d3e fcd1 3d3e
000002c0: 7030 6cbd 5adf ea3d def3 d9bd 2790 30be
000002d0: 7dc5 8bbd 2f91 523d 9ad0 6abe 2aa5 ab3a
000002e0: fb10 5f3e 3b39 cabd 18a8 003e 009a c8bd
000002f0: bd5c 173e 59f0 553e a87a 4ebe ff5c 833e
00000300: 2a95 133e b590 85be f466 28be 6702 8cbe
00000310: b23e 803e c785 703e ea0f 8c3e ad3a 7fbe
00000320: 9696 083e 41fc 433e 2193 943d 369a f03d
00000330: d7d8 0cbe 7e1b 07be 1c8f c63c 9fa2 87be
00000340: ffac 0abe 984a 603e 3ce0 d23d 98da 1fbe
00000350: 586c 95be 9a97 be3d fb10 473e 0f2a 75be
00000360: 129f 3a3e f415 d0bd e13c 473b a09a 1a3c
00000370: 26f6 ba3b 3ec3 753e 777d d2bd c73e 683e
00000380: 3ce9 04bc cd3d 6b3e 279a 32be 8665 80be
00000390: ad39 90bd e118 0e3e 7514 d33d f362 373e
000003a0: 04c8 90bd b238 763e 11c9 39be a49d 693e
000003b0: 9048 06be 6a30 95bd 4a44 e1bd ed7d 26be
000003c0: fd13 5a3c 3004 963d 26b8 93be 01fb 4dbc
000003d0: c1f1 0f3e cecb 9abd d311 423e 4e6f 763c
000003e0: bc23 2cbe ea25 e6bd b402 933e da2e 203e
000003f0: d2f3 c73d d917 92be 0897 90be 94a2 54be
0.2460585 -0.10458756 -0.08879065 0.25381628 0.030492565 -0.11783251 -0.11108626 -0.12794754
0.2744377 -0.109682165 0.016908484 -0.23450144 0.17149678 -0.20791543 -0.1680539 0.1948544
0.1809632 0.17243198 -0.13574792 0.2650117 -0.20882763 -0.13067535 -0.0069466424 -0.27134174
0.18075545 -0.24185374 -0.023740042 0.2603724 -0.25856283 0.2168054 0.011863134 -0.18058838
0.2432991 -0.053770605 -0.06602177 0.19781463 -0.05672012 0.28351063 -0.113551855 0.095380135
-0.031224499 -0.107586324 0.14836548 -0.005680259 0.08751552 0.06826417 -0.012144151 -0.11309835
-0.1105011 0.19052537 -0.20115784 -0.2237774 0.18862471 0.12267482 0.07781504 -0.007748866
-0.18011972 -0.08575473 -0.07766221 0.14841087 0.0013722961 0.24625593 -0.19879794 -0.026050078
-0.21227846 -0.086753055 -0.21167208 0.06978477 -0.23583847 -0.19027586 0.20335 0.10533893
0.26875922 0.17700265 -0.032009196 0.08625876 -0.019590223 0.09965173 0.09177344 -0.02806447
-0.20593202 0.078776434 0.2709092 0.03993005 0.07387308 0.26415622 -0.21759516 0.0806637
0.12826085 0.032807097 -0.012062707 -0.23193015 -0.20050608 0.2849413 -0.069809556 -0.0542717
-0.034693483 0.0663036 -0.19109589 -0.034213174 0.23371316 -0.009280262 -0.14823695 0.27484077
-0.018060988 0.21584159 0.048167046 0.14438847 -0.0051223678 0.0005842368 0.16281334 -0.21718149
-0.009966373 -0.053637713 0.113080755 -0.05364391 -0.14276062 0.283694 -0.2860563 0.043402217
0.29553673 -0.27865595 0.26156053 0.021479193 0.23566715 0.03908034 -0.02577979 -0.17842689
-0.083679646 0.24847834 0.20687865 0.16870514 0.11896894 -0.2597083 0.048210353 0.20142491
-0.28927046 -0.1477383 -0.21815279 0.21628752 -0.09497851 -0.27040285 0.075972706 -0.18656673
-0.055987123 -0.060140096 0.25421056 0.12155985 -0.05768842 -0.2012845 -0.08335606 0.13198493
-0.13960525 -0.23248369 -0.23719352 0.1020584 -0.02504782 0.28411213 -0.08728074 0.14420281
-0.09499562 0.044808153 0.090820976 0.20785522 0.03270317 0.09844169 0.19146831 0.03349151
-0.114671245 -0.05734037 -0.06654227 0.056799192 0.18084039 0.08608479 0.16930676 0.18537134
-0.05766338 0.11468382 -0.10642217 -0.1724249 -0.06824777 0.05140799 -0.22931138 0.0013095487
0.21783821 -0.09874197 0.12564123 -0.09794998 0.1478147 0.20892467 -0.20163977 0.25656888
0.1441237 -0.26086965 -0.16445524 -0.27345583 0.25047833 0.23488532 0.2735589 -0.24924727
0.13338694 0.19139196 0.07254625 0.117481634 -0.13754593 -0.13194081 0.024238162 -0.26491258
-0.13542555 0.21903455 0.102966756 -0.1561073 -0.29184222 0.093062595 0.19440071 -0.23941825
0.18224743 -0.10160437 0.0030401277 0.00943628 0.0057056127 0.2400026 -0.10277837 0.22680198
-0.008112248 0.22972794 -0.17441617 -0.25077456 -0.07042251 0.13876678 0.10306636 0.1790884
-0.070694 0.24045065 -0.18143107 0.22814041 -0.13113618 -0.07284625 -0.10999353 -0.16258974
0.01331043 0.073250175 -0.28851432 -0.012572051 0.14057066 -0.07558404 0.18952112 0.015041186
-0.16810507 -0.112377 0.28713 0.15642872 0.09763302 -0.2853382 -0.28240228 -0.20765144

bias f4 [64]
00000000: 0000 0000 0000 0000 0000 0000 0000 0000
00000010: 0000 0000 0000 0000 0000 0000 0000 0000
00000020: 0000 0000 0000 0000 0000 0000 0000 0000
00000030: 0000 0000 0000 0000 0000 0000 0000 0000
00000040: 0000 0000 0000 0000 0000 0000 0000 0000
00000050: 0000 0000 0000 0000 0000 0000 0000 0000
00000060: 0000 0000 0000 0000 0000 0000 0000 0000
00000070: 0000 0000 0000 0000 0000 0000 0000 0000
00000080: 0000 0000 0000 0000 0000 0000 0000 0000
00000090: 0000 0000 0000 0000 0000 0000 0000 0000
000000a0: 0000 0000 0000 0000 0000 0000 0000 0000
000000b0: 0000 0000 0000 0000 0000 0000 0000 0000
000000c0: 0000 0000 0000 0000 0000 0000 0000 0000
000000d0: 0000 0000 0000 0000 0000 0000 0000 0000
000000e0: 0000 0000 0000 0000 0000 0000 0000 0000
000000f0: 0000 0000 0000 0000 0000 0000 0000 0000
0.0 0.0 0.0 0.0 0.0 0.0 0.0 0.0
0.0 0.0 0.0 0.0 0.0 0.0 0.0 0.0
0.0 0.0 0.0 0.0 0.0 0.0 0.0 0.0
0.0 0.0 0.0 0.0 0.0 0.0 0.0 0.0
0.0 0.0 0.0 0.0 0.0 0.0 0.0 0.0
0.0 0.0 0.0 0.0 0.0 0.0 0.0 0.0
0.0 0.0 0.0 0.0 0.0 0.0 0.0 0.0
0.0 0.0 0.0 0.0 0.0 0.0 0.0 0.0

weight f4 [64, 64]
00000000: 2cdc ee3d db23 12be f709 09be ec46 323e
00000010: 37ba 92bd 9210 f03c 8498 223e b5c8 883c
00000020: 9235 1ebe b6e9 b93d 8073 a23d 6b3c 1b3d
00000030: 7d92 cebc 812e 01be 21c0 49bc f720 02bc
00000040: 7715 36bd 43dc 1abe 8ff4 943d f9f8 313e
00000050: b5ca 4d3d 85ce d7bd 8e15 053e 7f6b 4a3c
00000060: c3f9 d6bd 958f 01be e6dc d3bd 5b6c 493e
00000070: 3621 8dbd 5295 2bbe 0000 1e3e 7434 8fbd
00000080: 8911 7bbd f17f 2b3d e107 f7bc c205 1e3e
00000090: 9840 403e dd4a 88bd 886c 19be c423 513e
000000a0: 1a5c 77bd 72b7 d93c f44d 48be e346 60bc
000000b0: 8864 42be e4eb 6d3c cccd 3b3e 61c5 0c3e
000000c0: e40d b7bd 8663 4cbd 21d2 07be 9d88 47be
000000d0: 674f a3bd 1c84 273e fb10 35bd e65f 19be
000000e0: 2f2c 523d d49b 3b3e 47d3 fd3d 9e6e 013d
000000f0: dd26 33bc 5de9 29be fd83 5a3e 77f8 513a
00000100: 2cb3 5bbe f206 29be 2590 fc3d 9400 5d3e
00000110: eddd acbd 5335 263e c2da e0bb 1f96 a63d
00000120: 3097 8e3d a0e8 0a3e d26b 4abd 0b68 a83c
00000130: 728e 283e 13d1 29be d83a 3fbd a512 20bd
00000140: 2d01 4fbd 5e69 70bd 3d46 bfbd 1ebc 113e
00000150: 3a69 bebd 2c1b 9ebd 5a9b 983d 0c27 3f3e
00000160: 07f3 ca3b 3a2f 49be 0ab8 0b3c 2f44 9b3d
00000170: aab3 4cbe 752b 753c e810 08be 515c b1bd
00000180: 46ab 553d 3af9 22be beaa 3dbd 86d8 31bd
00000190: 5665 4cbe 76d8 e33d 180e b73d 3976 4cbe
000001a0: 242a 4dbe 3a63 0ebc 76da 033e d7b6 a33d
000001b0: 29a1 543e 0be5 edbd 17c1 4bbd c54e 3b3d
000001c0: b785 f03d 9095 8ebc 9c80 29be 2a5a 01be
000001d0: 40a6 df3d 12aa b9ba 1086 28be 3d34 1b3e
000001e0: 97e9 1f3e 21df bebd dba3 e93d 8c21 0ab9
000001f0: a036 d93b 964f 393e 01f1 f73c c53a 073d
00000200: ec54 5e3b d455 ad3d be76 ec3d 5bef d63c
00000210: 33ce 583e c1a2 33be 87bd 553e 72b8 22bd
00000220: fe60 8ebd 5570 543e 9402 b43d 990d f3bd
00000230: d7a1 1ebe f7d1 53be 2135 513e 74a2 543e
00000240: 3761 5abe 637e 25be 57b5 5bbe a512 b2bd
00000250: 9f52 06be edbf b93d df18 52be 4bf0 ee3d
00000260: 65e8 ec3d 8d4d f13d 69f2 32be cf16 0c3e
00000270: 7d2c 783d 2262 333d df0b 0a3d adf2 fbbd
00000280: 85ac ffbd c1e8 ad3d eb0a 543e 6021 2c3e
00000290: 6a2b 5cbe c402 0dbe d94f b2bd 22ab 29be
000002a0: 464d b7bd 7818 2dbe 006a dbbd 476b 6ebd
000002b0: 46fa 27bc 921f 2ebe 20e5 c43d 30e6 04bd
000002c0: 68b9 513e 50fa 3abe b71c 84bd f926 263d
000002d0: 4ba2 0c3e a191 e43d e68f 053d 4fb9 493e
000002e0: d702 9ebd e837 233e 566a b93d 2ec2 233d
000002f0: 1eac 44bd 99f5 0e3e 8cde 1b3e 322f d4bd
00000300: 3d6b a33d f8b6 2b3e 927b 123e 7e3d 5dbe
00000310: e779 25be 85b3 2abe 7e75 283d 77e7 093e
00000320: 204c 5abe 3abf 9b3d e876 7cbd f2c5 0f3d
00000330: 2516 223e b776 03be 9cda c3bd 9695 003e
00000340: 64f3 18bc 7869 143e 202a 453c 1abd 4d3e
00000350: 4f2f a9bd cd64 a43d c728 16be f25b cf3d
00000360: d3f7 60bd adde ad3c 1ab6 58bd ddfc 23be
00000370: 490b 163e fff0 593e b3c2 053e 86ee e9bd
00000380: 2023 473c 8435 013c fac3 3f3e 5dd3 c73d
00000390: 1523 26be e0db 763d 0ede cd3d e95c 36be
000003a0: 5cb5 07be 032c 103e ad06 9fbd 684a ccbd
000003b0: 324b 233e c654 ee3d 6e41 35be ba6c 2f3e
000003c0: ca9c b23d 8150 39be 4e0c c63d d12c 583e
000003d0: ea3b 593e 9291 093e b965 fc3d b780 4cbe
000003e0: 9a45 2a3e 32d5 d53c 1886 debd 7097 8dbd
000003f0: d796 793d 375e 9a3d 9bff b4bb 623e 3cbe
0.11663088 -0.1427149 -0.13382708 0.17409867 -0.07164424 0.029304776 0.15878493 0.016697267
-0.15450123 0.0907778 0.07932186 0.037899416 -0.025216335 -0.12615396 -0.0123138735 -0.00794243
-0.044454064 -0.15123086 0.07273208 0.17380132 0.050242145 -0.10537437 0.12996504 0.012354731
-0.10496857 -0.12652428 -0.103448674 0.1967024 -0.068911 -0.1675618 0.15429688 -0.069924265
-0.06129602 0.04187006 -0.030155124 0.15431884 0.1877464 -0.06654904 -0.14982808 0.204238
-0.06039057 0.026576731 -0.19560987 -0.013688776 -0.18983662 0.014521573 0.18340224 0.13747169
-0.08938196 -0.0498996 -0.13263752 -0.19485708 -0.07974129 0.1635899 -0.044205647 -0.14977989
0.051311668 0.18321162 0.123938136 0.031599633 -0.010934559 -0.16592927 0.21339412 0.00080097414
-0.21455067 -0.16506556 0.12332181 0.21582252 -0.084407665 0.16231279 -0.0068620155 0.08134102
0.069624305 0.13565302 -0.04941923 0.020557424 0.16460589 -0.16583662 -0.046686977 -0.03908028
-0.05053823 -0.058694236 -0.09339569 0.14231917 -0.09297414 -0.077200264 0.07451506 0.18667239
0.006193522 -0.19646922 0.008527765 0.07581364 -0.19990411 0.014963974 -0.13287699 -0.08660186
0.052165292 -0.15915385 -0.04630541 -0.043419383 -0.19960532 0.11125271 0.08938235 -0.19966973
-0.20035607 -0.00869065 0.12876305 0.07993858 0.20764603 -0.11615952 -0.04974469 0.045729417
0.11744254 -0.017405301 -0.16552967 -0.12632051 0.109203815 -0.0014165065 -0.16457391 0.15156646
0.15616451 -0.09319902 0.11408206 -0.00013173203 0.0066288263 0.18096766 0.030266287 0.03301503
0.003392513 0.08463636 0.11546086 0.02623718 0.21172409 -0.17542554 0.2087308 -0.039726682
-0.069520935 0.20745976 0.08789554 -0.11867828 -0.15491425 -0.20685564 0.20430423 0.20765096
-0.21326147 -0.16161494 -0.21455894 -0.086949624 -0.13117455 0.0906981 -0.205173 0.11666926
0.11567763 0.1178237 -0.17475285 0.13680576 0.060589302 0.04379476 0.033702727 -0.12302146
-0.12484077 0.0849166 0.2070729 0.16809607 -0.21500936 -0.13770586 -0.08706636 -0.16569188
-0.089502856 -0.16903865 -0.10713577 -0.058207776 -0.010252541 -0.1700423 0.096140146 -0.032446086
0.20480883 -0.18259549 -0.064507894 0.04056451 0.13733785 0.11160589 0.032607935 0.19699596
-0.077153854 0.15939295 0.09053485 0.039980106 -0.048015706 0.13960876 0.15221614 -0.10360564
0.079794385 0.16769016 0.14304951 -0.21605489 -0.16159783 -0.16670044 0.041127674 0.13467203
-0.21318102 0.07604833 -0.061636835 0.035100885 0.1582876 -0.12838255 -0.09563181 0.12557063
-0.009335373 0.14493358 0.012033969 0.20091668 -0.082609765 0.08027039 -0.14663993 0.10124959
-0.054923844 0.021224344 -0.05290804 -0.16014428 0.14652742 0.21283339 0.13062553 -0.11422448
0.012154371 0.007886294 0.18727103 0.09757111 -0.1622432 0.060268283 0.10052119 -0.1780888
-0.13252777 0.14079289 -0.07764945 -0.09975129 0.15946653 0.11637263 -0.1770074 0.1713132
0.087213114 -0.18097116 0.09670316 0.21110846 0.21214262 0.13434437 0.123240896 -0.19970976
0.16628113 0.026102636 -0.1086542 -0.0691365 0.060934868 0.07537501 -0.0055236346 -0.18383172

bias f4 [64]
00000000: 0000 0000 0000 0000 0000 0000 0000 0000
00000010: 0000 0000 0000 0000 0000 0000 0000 0000
00000020: 0000 0000 0000 0000 0000 0000 0000 0000
00000030: 0000 0000 0000 0000 0000 0000 0000 0000
00000040: 0000 0000 0000 0000 0000 0000 0000 0000
00000050: 0000 0000 0000 0000 0000 0000 0000 0000
00000060: 0000 0000 0000 0000 0000 0000 0000 0000
00000070: 0000 0000 0000 0000 0000 0000 0000 0000
00000080: 0000 0000 0000 0000 0000 0000 0000 0000
00000090: 0000 0000 0000 0000 0000 0000 0000 0000
000000a0: 0000 0000 0000 0000 0000 0000 0000 0000
000000b0: 0000 0000 0000 0000 0000 0000 0000 0000
000000c0: 0000 0000 0000 0000 0000 0000 0000 0000
000000d0: 0000 0000 0000 0000 0000 0000 0000 0000
000000e0: 0000 0000 0000 0000 0000 0000 0000 0000
000000f0: 0000 0000 0000 0000 0000 0000 0000 0000
0.0 0.0 0.0 0.0 0.0 0.0 0.0 0.0
0.0 0.0 0.0 0.0 0.0 0.0 0.0 0.0
0.0 0.0 0.0 0.0 0.0 0.0 0.0 0.0
0.0 0.0 0.0 0.0 0.0 0.0 0.0 0.0
0.0 0.0 0.0 0.0 0.0 0.0 0.0 0.0
0.0 0.0 0.0 0.0 0.0 0.0 0.0 0.0
0.0 0.0 0.0 0.0 0.0 0.0 0.0 0.0
0.0 0.0 0.0 0.0 0.0 0.0 0.0 0.0
