experiments/ppo_acrobot_first_try_20250829_001607/checkpoints/auto_step_57344.pt (torch, 460459 bytes, 44 tensors)

layers.0.weight f4 [128, 6]
0	0x3d076c33	0.03306217
1	0xbe58faee	-0.21189472
2	0xbe050a35	-0.12992175
3	0x3dac53b7	0.08414405
4	0x3ca0398b	0.019558689
5	0xbe00b73b	-0.12569897
6	0xbe05a10e	-0.13049719
7	0xbda2548e	-0.07926284
8	0xbd0fa1cf	-0.035066422
9	0xbdb59316	-0.08865945
10	0x3d8dda50	0.069264054
11	0xbb004119	-0.0019570051
12	0x3abeeb28	0.0014565932
13	0x3c98cb43	0.01865161
14	0x3e2aacc0	0.16667461
15	0x3e39058d	0.18068524
16	0xbe032465	-0.12806852
17	0x3d347a44	0.044061914
18	0x3c821222	0.015877787
19	0x3dd09e7b	0.10186478
20	0xbc9cd462	-0.01914424
21	0xbe2ca7bd	-0.16860862
22	0xbda2cf2e	-0.07949673
23	0xbd525bf3	-0.05135722
24	0xbe3081c6	-0.17237005
25	0xbb76d41f	-0.0037663055
26	0x3e15a767	0.1461464
27	0x3e2b4e13	0.16729002
28	0xbd9385b5	-0.07203237
29	0xbd8a0844	-0.06739858
30	0x3e0f206e	0.13977215
31	0x3c0c453b	0.008561428
32	0x3dd91a01	0.10600663
33	0x3de1f211	0.11032499
34	0xbc5f687f	-0.013635754
35	0x3dc0ade3	0.09408166
36	0xbdf2d520	-0.118570566
37	0xbde39aef	-0.111135356
38	0xba698971	-0.0008908725
39	0x3cf38b2a	0.029729445
40	0x3e1c41c0	0.15259457
41	0x3b7f0766	0.0038914322
42	0x3e5501e8	0.20801508
43	0xbe270ebe	-0.16314217
44	0x3e270bc2	0.16313079
45	0x3c43ff93	0.011962789
46	0x3c81ccde	0.015844759
47	0xbdee8954	-0.11647287
48	0xbd688520	-0.056767583
49	0x3d9c209a	0.07623406
50	0x3e014cc7	0.12626944
51	0x3e1f3721	0.15548374
52	0x3e336ee2	0.17522767
53	0x3d9566ff	0.072950356
54	0x3d26e59a	0.04074631
55	0x3d81d876	0.06340115
56	0xbd8689aa	-0.06569226
57	0x3c90ac01	0.017660143
58	0x3dc73238	0.09726375
59	0xbc57ec76	-0.013178935
60	0x3c1d80ee	0.009613259
61	0xbd07f8ea	-0.033196367
62	0x3cf06573	0.02934525
63	0xbe3e43f8	-0.18580616
64	0xbdab0a46	-0.08351569
65	0xbe4228b4	-0.1896084
66	0x3d649136	0.055802546
67	0x3cb88643	0.022524958
68	0x3e0e6e33	0.13909225
69	0xbd4776ff	-0.048697468
70	0x3e2fa73f	0.17153643
71	0xbd36b165	-0.04460277
72	0x3d807656	0.06272571
73	0x3d86165a	0.06547232
74	0xbe0a089a	-0.13479844
75	0x3d2ac5a2	0.041692384
76	0xbd0c26d0	-0.034216702
77	0xbd691c90	-0.056912005
78	0xbd879508	-0.06620222
79	0x3cdcadfa	0.026938427
80	0x3e0cc38c	0.1374647
81	0x3e2f5b9e	0.17124793
82	0x3e02a850	0.12759519
83	0x3e5d96f8	0.21639621
84	0x3df0e13c	0.1176171
85	0xbdcd4228	-0.10022384
86	0xbda78f46	-0.08181624
87	0x3dbcb4cb	0.09214171
88	0xbe0928bd	-0.13394447
89	0x3e4155bb	0.1888036
90	0xbc8885a7	-0.016665293
91	0x3d55d15a	0.052201606
92	0xbdf57c5d	-0.11986611
93	0xbddc644c	-0.107613176
94	0xbe0e69bb	-0.1390752
95	0x3e404218	0.18775213
96	0x3d0df909	0.034661327
97	0x3cb3897a	0.02191614
98	0x3e19aeb1	0.15008046
99	0xbdca9e04	-0.0989342
100	0xbcadeb4d	-0.021230364
101	0x3cd3b47b	0.025842896
102	0x3e3af2e7	0.18256722
103	0xbd401574	-0.04689546
104	0xbcfab400	-0.030603409
105	0x3d3f684c	0.046730325
106	0x3da3759d	0.07981417
107	0xbe13c23b	-0.14429562
108	0xbd4ccbdd	-0.049999107
109	0x3de2d18f	0.110751264
110	0xbe1837df	-0.14865063
111	0x3e321808	0.1739198
112	0x3c9106d2	0.017703447
113	0xbdfc5824	-0.12321499
114	0xbdc327fe	-0.09529112
115	0xbc32b066	-0.0109063145
116	0x3d97625d	0.07391808
117	0x3e0b5eef	0.13610433
118	0x3db7c26c	0.0897263
119	0x3d876644	0.066113025
120	0x3dc5591e	0.096361384
121	0xbbbf6a1d	-0.005841507
122	0x3bfb831c	0.0076755416
123	0xbc27e0a4	-0.01024643
124	0x3cd7bb7b	0.026334515
125	0xbd47be30	-0.04876536
126	0x3c9267a0	0.017871678
127	0xbe01b676	-0.1266726
128	0xbd56478a	-0.05231432
129	0xbd25b77e	-0.040458195
130	0x3d89da42	0.067310825
131	0x3db7fc4b	0.08983668
132	0x3dee77c3	0.116439365
133	0xbcbcaade	-0.023030695
134	0x3d74289e	0.059609048
135	0xbe098540	-0.13429737
136	0x3e2aadae	0.16667816
137	0xbd8f074e	-0.06983815
138	0xbd3e19fd	-0.046411503
139	0x3e1f0f90	0.1553328
140	0xbdb097c1	-0.08622695
141	0xbe081f4a	-0.13293186
142	0xbd7bc335	-0.06146546
143	0xbe18844b	-0.14894216
144	0x3d1ea5d8	0.03873238
145	0xbe53b5e2	-0.20674852
146	0xbe2b7535	-0.1674393
147	0x3cf45a51	0.029828222
148	0x3e3cf2f6	0.18452057
149	0xbe1ca294	-0.15296394
150	0xbdfaf4f4	-0.12253752
151	0x3c48ff0a	0.012267837
152	0x3ccaf31a	0.024774123
153	0x3c92ff6f	0.017944066
154	0xb7d999d0	-2.594004e-05
155	0xbd1092ff	-0.035296436
156	0xbd8b845f	-0.06812357
157	0xbe3e585b	-0.18588392
158	0xbcc69ed5	-0.024245659
159	0xbe46d4fb	-0.19417183
160	0x3dc2fcba	0.0952086
161	0x3c42c175	0.011886944
162	0xbe358693	-0.17727117
163	0x3e186fb8	0.14886367
164	0xbe32198d	-0.1739256
165	0xbe38cf0f	-0.18047737
166	0x3db7e5df	0.08979391
167	0xbdb5de5b	-0.088803016
168	0xbe27e1fa	-0.16394797
169	0xbe536c5d	-0.20646806
170	0xbe3dc9b5	-0.18533976
171	0xbbd49740	-0.006487757
172	0xbe437d2b	-0.19090717
173	0xbdaa7d4f	-0.08324682
174	0x3cb9ee69	0.02269669
175	0xbc8bb397	-0.017053409
176	0x3c63c7f8	0.013902657
177	0xbe1163f4	-0.14198285
178	0x3d81f6c1	0.06345893
179	0x3d727fcd	0.05920391
180	0x3d5b3bc8	0.05352381
181	0xbe41c7a8	-0.18923819
182	0xbe02997e	-0.12753865
183	0x3e252f0a	0.16131225
184	0xbd5dc499	-0.05414257
185	0x3e306fd3	0.17230158
186	0xbcb656d6	-0.022258203
187	0xbd18e145	-0.03732421
188	0x3ddaee52	0.10689987
189	0x3cde9ae5	0.027173469
190	0x3e27899a	0.16361085
191	0x3d9eafbf	0.07748365
192	0xbc032412	-0.008004205
193	0x3e3d8fb0	0.18511844
194	0x3ce527aa	0.027973015
195	0xbd1568c6	-0.036476873
196	0x3cff33ea	0.031152684
197	0x3d34887c	0.044075474
198	0xbe3ab454	-0.18232852
199	0xbdf39d24	-0.118952066
200	0xbd03947f	-0.03212404
201	0x3c6026d5	0.013681133
202	0xbca36ec9	-0.019950287
203	0x3dad42b4	0.08459988
204	0x3d2b5e01	0.041837696
205	0xbd3a3164	-0.04545726
206	0x3d1c2c0a	0.038127936
207	0xbe0052e2	-0.12531617
208	0x3d6d7c46	0.057979845
209	0x3ce6c9d4	0.028172411
210	0x3e006132	0.12537077
211	0xbd417bd2	-0.047237225
212	0x3e2f9f65	0.17150648
213	0xbd8a742b	-0.067604385
214	0x3da188d7	0.07887428
215	0x3d67e269	0.056612406
216	0xbae37bc5	-0.0017355612
217	0xbe381122	-0.17975286
218	0xbe5429dc	-0.20719093
219	0xbe0d027e	-0.13770482
220	0x3dad3057	0.08456486
221	0xbd45cd96	-0.048291765
222	0xbd51e1f8	-0.05124089
223	0x3de82149	0.11334474
224	0xbd8e69f6	-0.06953804
225	0xbc941e5c	-0.018080883
226	0xbb9e217f	-0.0048257704
227	0xbdf85a0b	-0.12126549
228	0x3ceb0f76	0.028693896
229	0x3df79ba5	0.12090234
230	0x3de311ca	0.11087377
231	0x3d9c029d	0.07617686
232	0xbd16b1e7	-0.036790755
233	0xbd48ca4f	-0.04902106
234	0xbe3b8e73	-0.18316059
235	0xbdd6995f	-0.10478472
236	0xbc3d0d55	-0.011538823
237	0x3e2540fd	0.16138072
238	0x3c827bfe	0.015928265
239	0x3ad51538	0.0016256934
240	0xbe04372c	-0.12911671
241	0x3e1357f6	0.14389023
242	0x3e3370be	0.17523476
243	0xbd9ee309	-0.07758147
244	0xbde6ba54	-0.11266008
245	0x3e09e351	0.1346562
246	0xbe042acc	-0.1290695
247	0x3e07725c	0.13227218
248	0xbdd93ffc	-0.10607907
249	0xbe3d20bf	-0.18469523
250	0xbb34b3b1	-0.0027572925
251	0xbd9de56a	-0.07709773
252	0xbd301817	-0.042991724
253	0x3db9400c	0.09045419
254	0xbd67819f	-0.0565201
255	0x3d05590a	0.032555617

layers.0.bias f4 [128]
0	0x3bc8c2fb	0.006126759
1	0x3c832cb4	0.016012527
2	0x3c01c615	0.007920762
3	0x3abf8268	0.0014611008
4	0xbb28e244	-0.002576963
5	0xbc030211	-0.007996098
6	0x3ca12279	0.019669758
7	0x3c804bce	0.015661146
8	0xbc13fc3a	-0.0090323035
9	0xbc7675ed	-0.015042764
10	0xba2c1e5a	-0.0006565802
11	0x3b00fa1e	0.0019680331
12	0xbbbaf0f4	-0.0057049934
13	0xbc683172	-0.014171945
14	0xbc3106eb	-0.010804872
15	0x3ba4ea99	0.005032849
16	0xbd19f0fc	-0.037583336
17	0x3bdecd43	0.0067993714
18	0x3ce27023	0.027641362
19	0xbbd029c2	-0.006352634
20	0xbbece232	-0.007229113
21	0x3bfd003f	0.0077209766
22	0x3bc1bef7	0.0059126574
23	0xbc3ecc62	-0.011645408
24	0x3bf23cc3	0.0073924973
25	0x3d8a921e	0.06766151
26	0x3cf40f23	0.029792374
27	0x3cd7005d	0.02624529
28	0x3c31825c	0.010834303
29	0x3c2939c2	0.010328712
30	0xbcbde028	-0.023178175
31	0xbcea2397	-0.028581424
32	0x3c62b8a0	0.013837963
33	0x3c5e5191	0.013569252
34	0xbaf81780	-0.0018927902
35	0x3b56d85e	0.0032782773
36	0xbc4fcac1	-0.012682618
37	0x3c5b7da1	0.0133966515
38	0xbd8e1d3c	-0.0693917
39	0x3cbe6b86	0.02324463
40	0x3b853afb	0.004065869
41	0xbc9739eb	-0.018460235
42	0xbbd68973	-0.006547147
43	0xbc27deff	-0.0102460375
44	0x3c9e1be7	0.019300414
45	0xbbea5aef	-0.0071519534
46	0x3c1545bf	0.009110867
47	0x3cc51790	0.024059087
48	0xbbcc5724	-0.006235974
49	0xbbfff10d	-0.007810718
50	0xbc8dbffe	-0.017303463
51	0xbc706ea8	-0.01467482
52	0x3cc95816	0.024578135
53	0x3bc3356d	0.0059572966
54	0xbdaefe3d	-0.08544586
55	0xbc6b7a59	-0.014372432
56	0x3926dddd	0.00015913644
57	0xbb89e0e3	-0.004207717
58	0xbbf81488	-0.007570807
59	0xbc05615e	-0.00814089
60	0xbc2cd96c	-0.010549884
61	0xbc644e86	-0.013934737
62	0xbc63a2a5	-0.013893758
63	0x3c959583	0.01825977
64	0xbb892f7e	-0.0041865697
65	0x3b901736	0.004397298
66	0x3b892a5c	0.004185958
67	0xbc54d995	-0.012991329
68	0xbbe68310	-0.007034667
69	0x3b2d026f	0.0026399156
70	0xbc325bcd	-0.010886145
71	0x3be96f55	0.0071238675
72	0x3c70478e	0.0146654975
73	0x3cc56677	0.02409671
74	0x3b0f9bd9	0.002191296
75	0x3be3baa6	0.0069497405
76	0xbb853f7c	-0.004066406
77	0xbc8617ea	-0.016368825
78	0xbabfed69	-0.0014642897
79	0x3c4627b0	0.012094423
80	0xbc22bd34	-0.009932805
81	0x3c91fa68	0.017819598
82	0x3cbef118	0.023308322
83	0x3c4be0ff	0.01244378
84	0xbb05e29b	-0.0020429257
85	0x3bafb881	0.0053625708
86	0x3c503a19	0.012709164
87	0x3c4aa59c	0.012368586
88	0xbaac0585	-0.0013124204
89	0xbc7721b4	-0.015083719
90	0x3c126e88	0.0089374855
91	0xbc9e3d51	-0.019316347
92	0xbc90bf14	-0.017669238
93	0xba6abb87	-0.00089543354
94	0x3baea7ca	0.0053300606
95	0xbb363bfb	-0.0027806747
96	0x3b551417	0.0032513195
97	0x3bb8d95e	0.0056411466
98	0x3ca421a7	0.020035578
99	0x3be05acf	0.0068467627
100	0x3d008585	0.031377334
101	0xbc00115b	-0.007816638
102	0xbbbd2f18	-0.0057734363
103	0x3b44edc9	0.0030048958
104	0x3c83523b	0.016030421
105	0x3b0c747a	0.002143173
106	0xbba8f92e	-0.0051566577
107	0x3bbcad27	0.005757946
108	0xbc41dcfd	-0.011832473
109	0x3ca3b71d	0.019984776
110	0xbbdfcc3c	-0.0068297666
111	0x39ab70d6	0.0003269973
112	0xbbd50141	-0.0065003936
113	0x3ce39595	0.027781287
114	0xbc193c67	-0.00935278
115	0xbbcd9d2b	-0.0062748394
116	0x3b07ec83	0.0020740337
117	0xbb6236f1	-0.003451761
118	0xbb0e4094	-0.0021705972
119	0xbc6d35fc	-0.014478203
120	0xbbf587fd	-0.0074930177
121	0xbc758a05	-0.01498652
122	0x3c8d3d76	0.01724122
123	0xbc268d16	-0.010165473
124	0x3c1a4e07	0.009418017
125	0xbbde98ab	-0.006793102
126	0xbb813a8b	-0.0039437464
127	0xbb9532f3	-0.0045531928

layers.2.weight f4 [128, 128]
0	0x3e0b6b04	0.13615042
1	0x3ca75807	0.020427717
2	0xbe1f42de	-0.15552852
3	0xbdeb30ce	-0.11483918
4	0x3dc878cf	0.097886674
5	0x3cb37146	0.021904599
6	0x3c5769c0	0.013147771
7	0xbe01d5c4	-0.12679201
8	0x3c6c9f8c	0.014442336
9	0xbd6e3af1	-0.05816168
10	0x3e0f6ecb	0.14007108
11	0x3d6ebc73	0.058285188
12	0x3ddf41cc	0.10901222
13	0x3de46fb2	0.11154117
14	0x3db71576	0.0893964
15	0xbd749789	-0.059714828
16	0xbd8010f9	-0.06253237
17	0xbc5782ad	-0.013153714
18	0x3d68d92e	0.056847744
19	0xbdcded08	-0.10054976
20	0x3d33b411	0.043872897
21	0xbe1fb9e6	-0.15598258
22	0x3be33293	0.006933519
23	0xbdb60f8e	-0.088896856
24	0xbdd3af64	-0.103361875
25	0xbdcfa639	-0.10139126
26	0x3d3dbb11	0.04632098
27	0xbda0865b	-0.07838126
28	0x3d98da8f	0.07463562
29	0xbe001f99	-0.12512054
30	0xbd6e04e5	-0.058110137
31	0x3dcac896	0.0990154
32	0xbe1635c6	-0.1466895
33	0xbdf40456	-0.119148895
34	0x3e0a3395	0.1349624
35	0xbd9de9a1	-0.07710577
36	0xbd19cdff	-0.03754997
37	0xbd9d1784	-0.07670501
38	0xbe09e5b6	-0.13466534
39	0x3de651ad	0.11246047
40	0x3da8ef9b	0.08248826
41	0xbdca33e3	-0.09873178
42	0x3d6e7e80	0.05822611
43	0x3d2ec708	0.04267028
44	0xbd922384	-0.0713568
45	0x3e00fd97	0.12596737
46	0xbd93a99e	-0.07210086
47	0xbdff3e5b	-0.12463065
48	0x3da0cbcd	0.07851372
49	0x3db378d6	0.08763282
50	0xbe101829	-0.14071716
51	0xbe041e71	-0.12902237
52	0x3d71ca11	0.059030596
53	0xbbb57c3f	-0.005538493
54	0xbde2dbfb	-0.11077114
55	0x3d9432f5	0.07236282
56	0x3d539c28	0.051662594
57	0x3dda0390	0.10645211
58	0x3dc2f4d9	0.09519357
59	0xbdb8515c	-0.08999893
60	0x3dd98e70	0.10622871
61	0xbd9278c1	-0.07151938
62	0xbdbcea01	-0.0922432
63	0x3cfc15c2	0.030772094
64	0xbd9a5ed9	-0.07537622
65	0xbd37f215	-0.0449086
66	0xbd632682	-0.055456646
67	0xbdd731e3	-0.10507562
68	0x3aa32a02	0.0012448432
69	0x3c9ae073	0.018905854
70	0x3d5e727b	0.054308396
71	0xbd8dbc2f	-0.06920659
72	0xbe043326	-0.12910137
73	0xbc7c1d65	-0.015387868
74	0xbc9e3e02	-0.019316677
75	0xbe0c3ba5	-0.13694628
76	0xbdf85f54	-0.121275574
77	0x3d704f43	0.05866934
78	0xbdf72297	-0.12067144
79	0x3dbc9225	0.09207562
80	0x3dc0d098	0.09414786
81	0xbcc0e663	-0.023547357
82	0xbdae6f27	-0.085172944
83	0xbda1e7dc	-0.07905552
84	0xbd98868b	-0.07447537
85	0x3d9180b4	0.07104626
86	0xbcd30ffd	-0.02576446
87	0x3d72fc92	0.0593229
88	0xbdd6a021	-0.10479761
89	0xbdb14b12	-0.08656897
90	0xbda354a7	-0.079751305
91	0x3d8ca2af	0.06866967
92	0xbe10bcf1	-0.14134575
93	0xbd3d32bb	-0.04619096
94	0x3d2875d0	0.04112798
95	0xbdd4d1e9	-0.103916
96	0xbdf31174	-0.11868563
97	0xbe1c503f	-0.15264986
98	0xbe06d5dd	-0.1316752
99	0x3d7e9137	0.062150206
100	0x3d7c53fc	0.06160353
101	0x3e224e3f	0.15850161
102	0x3e1bd529	0.15218033
103	0x3d314bee	0.043285303
104	0x3dc0a888	0.09407145
105	0x3d105b1b	0.035243135
106	0x3cb68e78	0.022284731
107	0xbdaf5653	-0.08561387
108	0xbcbea24a	-0.023270745
109	0x3cf3fee7	0.029784633
110	0x3e119fe8	0.14221156
111	0xbc4b0be3	-0.012392971
112	0xbc7246ae	-0.014787359
113	0x3da2fc29	0.07958252
114	0xbda90b5f	-0.08254122
115	0xbe016bf4	-0.12638837
116	0x3d0bb2da	0.034106113
117	0x3c867829	0.016414719
118	0x3c675c5a	0.014121139
119	0x3cd84fe0	0.026405275
120	0xbe168189	-0.14697851
121	0xbc2fbd18	-0.010726236
122	0x3df7eb11	0.12105382
123	0xbe1954d1	-0.14973761
124	0x3c3b24de	0.011422364
125	0x3da01214	0.07815948
126	0x3e1ccaec	0.15311784
127	0xbdb74181	-0.08948041
128	0xbd5ead05	-0.054364223
129	0xbe00d3c6	-0.12580785
130	0x3d03fb03	0.032221805
131	0x3e121d5e	0.14269015
132	0xb866630a	-5.492851e-05
133	0xbdf6ca7d	-0.1205034
134	0x3cfeb55b	0.031092336
135	0xbe228a1d	-0.15872999
136	0xbe180fb3	-0.14849739
137	0x3d55bc89	0.052181754
138	0xbdaabe69	-0.08337099
139	0xbda34fdf	-0.079742186
140	0x3e00e9a2	0.12589124
141	0xbdaadc7e	-0.08342837
142	0x3c93adb2	0.01802716
143	0xbd92f0c3	-0.07174828
144	0x3db0fbc1	0.08641768
145	0xbc414a86	-0.011797553
146	0xbe0fda65	-0.14048155
147	0xbd85c4a8	-0.0653165
148	0xbcc0de89	-0.023543613
149	0x3de3e466	0.11127548
150	0xbcda1d14	-0.026625194
151	0x3ca5aabe	0.020223018
152	0x3e066e5c	0.13128036
153	0xbcf0f907	-0.02941562
154	0xbccc4020	-0.024932921
155	0x3d7faa68	0.06241837
156	0xbcf8f6f6	-0.030391198
157	0xbc03c21a	-0.008041883
158	0xbd461489	-0.048359428
159	0x3d06771c	0.032828435
160	0xbdd39a88	-0.10332209
161	0xbd9767f1	-0.07392872
162	0x3d847124	0.06466892
163	0xbc8d7e3f	-0.017272113
164	0xbde8ae17	-0.1136133
165	0xbdabca95	-0.08388249
166	0xbd3b7481	-0.045765404
167	0xbd4ca544	-0.049962297
168	0x3c3b66e6	0.011438107
169	0xbe0e35eb	-0.13887756
170	0x3d8a7eac	0.06762442
171	0xbbb65e48	-0.0055654384
172	0xbe0fe6f0	-0.1405294
173	0x3ca6e76c	0.020374022
174	0xbdc98020	-0.09838891
175	0xbd8e8fca	-0.06961019
176	0x3d398632	0.045293994
177	0x3cdd7e8e	0.027037885
178	0x3e159cb6	0.14610562
179	0xbcb75450	-0.02237907
180	0x3d867250	0.06564772
181	0xbda0ee6e	-0.07857977
182	0x3c80da1a	0.015728999
183	0xbce76f09	-0.028251188
184	0x3da6adce	0.08138619
185	0x3cfa31bd	0.030541295
186	0xbde9edab	-0.11422285
187	0xbda0235d	-0.07819245
188	0x3d40f9d4	0.047113255
189	0xbdfc7008	-0.12326056
190	0x3d8bdd6b	0.068293415
191	0xbdbbf2cc	-0.09177169
192	0xbd82b843	-0.063828014
193	0xbbc9bcdf	-0.0061565484
194	0x3e0be202	0.13660434
195	0xbdcd8f6b	-0.100371204
196	0xbe073fde	-0.13207957
197	0xbdcc2676	-0.09968273
198	0x3d9a2fd5	0.075286545
199	0x3e05b0d3	0.13055734
200	0xbdbd31c9	-0.092380114
201	0x3d8c651a	0.06855221
202	0x3e0abafa	0.13547888
203	0xbdc63f48	-0.09680039
204	0x3e11d06c	0.14239663
205	0x3d36b421	0.044605378
206	0xbdec2f89	-0.11532504
207	0xbe13c417	-0.14430271
208	0xbe031da3	-0.12804274
209	0x3c44403d	0.011978206
210	0xbe0480c4	-0.12939745
211	0x3d8858ea	0.06657584
212	0xbda468e4	-0.08027819
213	0xbdc01dd7	-0.093806915
214	0xbdf11e47	-0.11773353
215	0xbde49d38	-0.111627996
216	0x3df75aaf	0.120778434
217	0x3de37d57	0.11107891
218	0xbd43a439	-0.047764037
219	0xbcf1680d	-0.02946856
220	0x3e089fe4	0.13342243
221	0x3cf9f3d5	0.030511776
222	0x3d358db6	0.0443246
223	0xbc1646ea	-0.009172181
224	0x3dd9d06f	0.10635459
225	0x3ce89483	0.028391128
226	0xbce446b5	-0.027865747
227	0x3df58f1b	0.11990186
228	0x3dd2b9c5	0.10289339
229	0xbd41d101	-0.047318462
230	0xbe0570f6	-0.13031372
231	0x3d845506	0.064615294
232	0x3e111554	0.14168292
233	0x3d0e5bd4	0.034755543
234	0xbd2218bf	-0.03957438
235	0xbde87b48	-0.11351639
236	0xbdf95a35	-0.12175409
237	0xbe242ec1	-0.1603346
238	0xbd923a18	-0.07139987
239	0xbe1b1381	-0.15144159
240	0xbdd35d18	-0.103204906
241	0xbe1e4613	-0.15456419
242	0x3c5a4bd3	0.013323742
243	0xbe11f93d	-0.14255233
244	0x3d787982	0.060662754
245	0x3d57e900	0.05271244
246	0x3d7bf506	0.06151297
247	0x3d47a40c	0.04874043
248	0x3d1570ac	0.036484405
249	0xbdf5c8b3	-0.12001171
250	0xbe1b2916	-0.15152392
251	0x3cb23271	0.021752568
252	0x3d307eb0	0.04308957
253	0xbd800bff	-0.06252288
254	0x3d9f0792	0.07765116
255	0xbda7c98a	-0.081927374

layers.2.bias f4 [128]
0	0x3b9384cf	0.004501916
1	0x3b6fccda	0.0036590607
2	0x3c0b6c46	0.008509701
3	0xbc304cf2	-0.010760533
4	0xbc4326f8	-0.011911146
5	0x3c36d746	0.011159724
6	0x3c1d2444	0.009591166
7	0x3ba0fe8f	0.0049131582
8	0xbb9a8e0f	-0.0047166417
9	0xbc97f2da	-0.018548418
10	0x3b1b4de3	0.0023697547
11	0xbc46c7de	-0.012132613
12	0xbc87ad16	-0.016562026
13	0xbbb28b60	-0.0054487437
14	0xbbbfa102	-0.005848051
15	0x3c68de24	0.014213119
16	0xbc2512a6	-0.010075247
17	0x3c9183e6	0.01776309
18	0x3b8b80e9	0.0042573106
19	0x3cefc3a1	0.029268088
20	0x3bd2ec1c	0.006436838
21	0xbc39dfec	-0.011344891
22	0x3c14be07	0.009078509
23	0x3c810609	0.015749948
24	0xbc7eb164	-0.015545223
25	0x3c572919	0.013132357
26	0x3c0b94a1	0.008519323
27	0xbc2523d2	-0.010079341
28	0x382c2246	4.1039915e-05
29	0xbbfb3377	-0.007666047
30	0x3c768483	0.015046242
31	0x3c83f2c0	0.016106963
32	0x3c14b9c6	0.009077495
33	0x3c02c810	0.007982269
34	0xbb34692c	-0.0027528508
35	0xbc49fb07	-0.012327916
36	0x3c3710fe	0.011173485
37	0x3c28fd43	0.010314289
38	0x3c59683f	0.013269483
39	0xba30080e	-0.00067150674
40	0xbc217a28	-0.0098557845
41	0x3ba4257f	0.0050093527
42	0xbc73ecdc	-0.014888015
43	0xbc1d8ff1	-0.009616838
44	0x3c083907	0.008314378
45	0xbc7ea3c1	-0.015541972
46	0x3c08ba21	0.008345158
47	0xbaf353b1	-0.0018564371
48	0x3c3187e1	0.010835619
49	0x3b139fb1	0.0022525603
50	0x3c40cbf0	0.0117673725
51	0xbc72f922	-0.014829906
52	0xbcc3d741	-0.023906352
53	0x3c3cc289	0.01152099
54	0xbc82f2eb	-0.015984973
55	0xbc81779c	-0.015804105
56	0xbc21c048	-0.009872504
57	0x3c8a68c2	0.016895656
58	0xbb96c378	-0.0046009384
59	0x3c275981	0.0102142105
60	0xbbfdc8e9	-0.0077448976
61	0x3c0fdb23	0.008780274
62	0xbb318dd6	-0.0027092597
63	0x3b38cc0c	0.0028197793
64	0x3c75203a	0.014961297
65	0xbad31fd4	-0.0016107508
66	0xbc05ce1e	-0.008166818
67	0xbabfbe79	-0.0014628909
68	0x3cb71837	0.022350414
69	0xbcdd00b9	-0.026977884
70	0xbc81c859	-0.015842604
71	0xbc57b746	-0.013166254
72	0xbc7279e9	-0.014799573
73	0xbc5ee52f	-0.013604446
74	0xbb45c856	-0.0030179224
75	0x3be00477	0.0068364698
76	0x3b8496bb	0.004046289
77	0x3c22a655	0.009927352
78	0xbc11d53e	-0.008900939
79	0xbc81000d	-0.015747095
80	0xbc5fb142	-0.013653101
81	0xbc2e1466	-0.010624981
82	0x3c3d8dfa	0.011569494
83	0xbb89251d	-0.0041853325
84	0xbc1c7771	-0.009549961
85	0xbc7f703a	-0.015590722
86	0xba95fb37	-0.0011442666
87	0x3ba926cb	0.005162095
88	0x3c5cf515	0.0134861665
89	0xbc0d1818	-0.008611701
90	0x3b5bb330	0.0033523552
91	0xbb7a8ee0	-0.0038232133
92	0x3c452cde	0.012034623
93	0xbc87a3da	-0.016557623
94	0xbc37eb1f	-0.011225491
95	0xbc8fe4a5	-0.01756508
96	0xbc2d51d1	-0.010578589
97	0xba4d7bdc	-0.0007838586
98	0xbc8c0b68	-0.017095283
99	0xbbc046d1	-0.005867817
100	0x3c24030a	0.01001049
101	0xb97ada57	-0.00023923196
102	0xbbd4f917	-0.0064994204
103	0x3c8289d5	0.015934864
104	0x3c53e3f5	0.012932767
105	0xbbb096c0	-0.0053890646
106	0x3c8c6c84	0.017141588
107	0x3c2bcbf9	0.010485643
108	0xbbdebdb8	-0.0067975186
109	0xbb8280af	-0.0039826254
110	0x3b3f5a84	0.0029198239
111	0x3a38b383	0.00070457923
112	0x3bf5b72d	0.007498643
113	0x3b9956a5	0.0046795183
114	0x3c2957ed	0.010335905
115	0x3c557b1e	0.013029842
116	0x3c1d3962	0.009596201
117	0xbc454263	-0.012039754
118	0xbc56a13f	-0.0130999675
119	0x3c68c094	0.01420607
120	0x3b336f1c	0.0027379459
121	0x3900c192	0.00012279142
122	0x3c6183bf	0.013764321
123	0xbc120b54	-0.008913834
124	0x3c135dfc	0.008994576
125	0xbab9e302	-0.0014182033
126	0x3c4e1235	0.012577583
127	0x3b75b8ff	0.00374943

output_layer.weight f4 [3, 128]
0	0x3db999c9	0.09062535
1	0xbdb087cb	-0.086196505
2	0x3e0b1499	0.13582076
3	0x3e15bd98	0.14623106
4	0xbe43277f	-0.19058035
5	0x3e20e69b	0.15712969
6	0x3dff6594	0.12470546
7	0x3dc45bcd	0.09587822
8	0xbdfa6ce8	-0.122278035
9	0xbd94a94a	-0.07258852
10	0x3de74582	0.112925544
11	0xbe087650	-0.13326383
12	0xbda8b4af	-0.08237588
13	0xbe41a7c5	-0.18911655
14	0x3daa3d02	0.083124176
15	0x3dbf9e6d	0.09356389
16	0xbe06aa1a	-0.13150826
17	0x3d768d36	0.060193263
18	0x3c9820eb	0.018570384
19	0x3d156455	0.036472637
20	0x3e37675d	0.17910524
21	0xbceed507	-0.029154314
22	0xbdaa99a4	-0.08330086
23	0xbd82c096	-0.06384389
24	0xbe1b59a9	-0.15170921
25	0xbd8f6494	-0.07001606
26	0x3ddb058e	0.10694419
27	0xbe2c4953	-0.16824846
28	0xbe255f18	-0.16149557
29	0x3e06297b	0.13101761
30	0x3df3809a	0.11889763
31	0xbcf5f680	-0.030024767
32	0x3d9054bd	0.070474125
33	0xbe042e18	-0.12908208
34	0x3ddc46e9	0.107557125
35	0x3ca38dfe	0.019965168
36	0xbcbf89fd	-0.023381228
37	0x3e0a8d23	0.13530402
38	0x3dfe351a	0.12412472
39	0xbe261b13	-0.16221265
40	0x3d113d6b	0.035458963
41	0xbdd884bd	-0.10572193
42	0x3d0dd479	0.034626458
43	0xbe3c01ff	-0.18360136
44	0x3d19346d	0.037403513
45	0xbd334ca2	-0.043774255
46	0x3c25ca8f	0.0101190945
47	0xbcb09388	-0.021554723
48	0x3e182c87	0.14860736
49	0x3c69c018	0.01426699
50	0xbe22d283	-0.15900616
51	0x3d7bb8ba	0.061455466
52	0xbe4d80d2	-0.20068672
53	0xbcbeb534	-0.023279764
54	0xbd9e8075	-0.07739345
55	0xbe36ac9b	-0.17839281
56	0xbdba96fe	-0.09110831
57	0x3de22b1b	0.11043378
58	0x3dc7e9d3	0.09761395
59	0x3dd01085	0.10159401
60	0xbe14006d	-0.14453287
61	0xbd143cc8	-0.036190778
62	0xbc4c234b	-0.012459586
63	0x3e0b20d4	0.13586742
64	0x3d407477	0.04698607
65	0x3e37657c	0.17909807
66	0xbe0f0e80	-0.13970375
67	0x3ca302fc	0.019898884
68	0xbd45c839	-0.04828665
69	0x3db49bf2	0.08818807
70	0xbc893d84	-0.016752966
71	0xbddfea60	-0.10933375
72	0xbdc71876	-0.097214624
73	0x3e1a1f84	0.15051085
74	0x3d953725	0.072859086
75	0x3dea657b	0.11445137
76	0xbde13dd5	-0.10998122
77	0x3e174561	0.1477256
78	0xbcecdb7c	-0.028913252
79	0xbe426504	-0.18983847
80	0x3d802989	0.06257922
81	0x3e065816	0.1311954
82	0xbe2c4906	-0.16824731
83	0x3d8f4294	0.06995121
84	0x3d9cf8ab	0.07664617
85	0xbe1132bd	-0.14179511
86	0xbd8a9fd2	-0.067687646
87	0x3d0dfae7	0.034663107
88	0x3dd3d18a	0.10342701
89	0x3da53333	0.08066406
90	0x3e251caf	0.16124223
91	0x3d48c39b	0.04901467
92	0xbd76bc61	-0.060238246
93	0xbe21e8c4	-0.1581145
94	0xbdd2b2ac	-0.10287985
95	0xbdb4dc50	-0.08831084
96	0xbd63251e	-0.05545532
97	0x3e0357cb	0.12826459
98	0x3d08f85f	0.03343999
99	0xbd0a083a	-0.03369925
100	0xbd909a27	-0.07060652
101	0xbd1792fd	-0.037005413
102	0x3dd73ec0	0.105100155
103	0xbdd16137	-0.102236204
104	0xbdfbf446	-0.12302451
105	0x3e0c1b9a	0.13682404
106	0x3d2d5084	0.042313114
107	0xbe1ac1c5	-0.1511298
108	0xbcad0b9e	-0.021123704
109	0xbe10d0d7	-0.14142166
110	0x3dd3182a	0.10307343
111	0x3e128400	0.14308167
112	0x3de1697b	0.11006447
113	0x3d05bc31	0.032650176
114	0x3d0718f0	0.032982767
115	0xbd823d62	-0.06359364
116	0x3da40a7d	0.08009813
117	0xbcfd4668	-0.030917361
118	0xbe02de25	-0.12780054
119	0x3cccc9ab	0.024998507
120	0xbe446c4e	-0.1918194
121	0xbdb441a2	-0.08801581
122	0x3d31a219	0.04336748
123	0x3ceb20e0	0.0287022
124	0xbdb0e555	-0.086374916
125	0x3d05ac2f	0.03263491
126	0xbd100c1d	-0.035167802
127	0x3e3f4df6	0.18682083
128	0xbe0868dd	-0.13321252
129	0xbd9964cc	-0.074899286
130	0xbda37ee6	-0.07983188
131	0x3e274930	0.16336513
132	0x3d70e9ea	0.058816828
133	0xbe1f52d0	-0.15558934
134	0xbe18c0a2	-0.14917234
135	0xbd9b7274	-0.075901896
136	0xbde2989d	-0.11064265
137	0x3db1d9b6	0.08684103
138	0xbcd3a54c	-0.025835656
139	0x3e2b7794	0.16744834
140	0x3db6191c	0.08891508
141	0xbd864543	-0.065561794
142	0x3d256de2	0.040387996
143	0xbe3f592e	-0.18686363
144	0xbd84406c	-0.064576
145	0xbe11a324	-0.1422239
146	0xbc82a707	-0.015948785
147	0xbe252e89	-0.16131033
148	0xbd82d70b	-0.063886724
149	0xbc4e1103	-0.012577298
150	0xbdea11be	-0.11429165
151	0xbdc4a071	-0.09600914
152	0xbd9bacc5	-0.076013125
153	0xbd925412	-0.071449414
154	0x3d04217e	0.032258503
155	0xbc9585b2	-0.018252227
156	0x3e176026	0.14782771
157	0x3e2a221a	0.16614571
158	0x3c69dbbd	0.014273581
159	0xbe3c94b7	-0.18416105
160	0xbe1c37ca	-0.15255657
161	0xbe016038	-0.12634361
162	0x3cf39afc	0.029736988
163	0x3df22317	0.11823099
164	0xbe208ea2	-0.1567941
165	0xbe0e1164	-0.13873821
166	0xbe30a66a	-0.17250982
167	0xbe1b4048	-0.1516124
168	0x3e060108	0.13086331
169	0xbde73a39	-0.11290402
170	0x3e33705e	0.17523333
171	0x3e095902	0.1341286
172	0xbde2c583	-0.110728286
173	0x3d81fd63	0.06347158
174	0x3ce0e879	0.027454602
175	0xbd5e4e10	-0.054273665
176	0xbe37c07c	-0.1794452
177	0xbd924696	-0.071423694
178	0xbe34d70e	-0.17660162
179	0x3e2117bd	0.15731712
180	0x3e534064	0.20630032
181	0xbe317419	-0.17329444
182	0x3e1caf4d	0.15301247
183	0x3d751562	0.059834845
184	0x3e092d38	0.13396156
185	0xbe2e5f45	-0.1702853
186	0x3d55f10f	0.052231845
187	0xbb0fa694	-0.0021919357
188	0xbd1964fa	-0.037449814
189	0xbde16492	-0.110055104
190	0xbd34eb22	-0.044169553
191	0x3be7b368	0.0070709474
192	0xbdab4c01	-0.08364106
193	0x3e1a41f1	0.15064217
194	0xbc9686c7	-0.018374814
195	0x3d0d5ec3	0.0345142
196	0xbdff8b92	-0.12477793
197	0x3db5f7c8	0.08885151
198	0x3e023f4b	0.12719457
199	0xbdb40489	-0.087899275
200	0x3d8541c5	0.06506685
201	0x3e27df91	0.16393878
202	0x3e069718	0.13143575
203	0xbd88b327	-0.066747956
204	0xbe05a0cc	-0.1304962
205	0x3dcd31fb	0.10019299
206	0xbc72be88	-0.014815934
207	0xbd9d9d59	-0.07696027
208	0x3df20e55	0.1181914
209	0x3e1bbb52	0.15208176
210	0xbe3274b7	-0.17427336
211	0x3d63c012	0.055603094
212	0x3db14732	0.086561576
213	0xbc363815	-0.011121769
214	0xbdb1623e	-0.08661316
215	0xbd924146	-0.07141356
216	0xbe131720	-0.1436429
217	0x3e2282bc	0.15870184
218	0x3e126234	0.14295274
219	0x3de64c6c	0.11245045
220	0xbe12c8e5	-0.14334448
221	0x3e2c4838	0.16824424
222	0x3e3d65a8	0.1849581
223	0x3e128eb2	0.14312246
224	0x3d20a3ef	0.03921884
225	0x3c392f07	0.011302716
226	0x3d9b8674	0.07594004
227	0x3cc33f0c	0.023833774
228	0xbdebc9ab	-0.115130745
229	0xbbdc70ea	-0.0067273276
230	0x3e4bb07b	0.1989154
231	0xbe0f6dc0	-0.1400671
232	0xbe376db4	-0.17912942
233	0x3e105993	0.1409667
234	0x3c0717d5	0.008245428
235	0xbe29a9ef	-0.16568731
236	0xba3a68f1	-0.00071109744
237	0x3de9d545	0.11417631
238	0xbde79458	-0.11307591
239	0x3e30edf5	0.17278273
240	0x3c1b101c	0.00946429
241	0x3cf6ada3	0.030112093
242	0xbc9fc5d5	-0.019503513
243	0xbe1480c5	-0.14502247
244	0xbe2f811f	-0.171391
245	0xbd0dff71	-0.034667436
246	0x3cf23a7a	0.0295689
247	0xbdf67216	-0.12033479
248	0xbd8b63f7	-0.06806176
249	0xbd34e59b	-0.04416428
250	0xbde0fc31	-0.10985602
251	0x3d899f37	0.06719821
252	0xbdd4d935	-0.103929915
253	0x3a2ba4ff	0.00065477187
254	0xbe0d2c8c	-0.13786525
255	0x3d1a0f8a	0.037612475

output_layer.bias f4 [3]
0	0x3befbd29	0.007316251
1	0xbc7c305c	-0.015392389
2	0x3c11c429	0.008896866

layers.0.weight f4 [128, 6]
0	0x3d8e95bf	0.069621556
1	0x3d5e4ce8	0.054272562
2	0x3dd46a7e	0.10371874
3	0x3e0a4ccf	0.13505863
4	0xbba909cf	-0.00515864
5	0xba34c68a	-0.00068960397
6	0xbb426c98	-0.0029666778
7	0xbdec8d87	-0.11550432
8	0x3df5c887	0.12001138
9	0xbdd543c6	-0.104133174
10	0x3d869211	0.06570829
11	0xbd02aee4	-0.03190507
12	0xbda7472a	-0.0816787
13	0xbda00786	-0.07813935
14	0xbdfe847d	-0.12427614
15	0xbe160dee	-0.14653751
16	0x3e54eb32	0.20792845
17	0x3d22627b	0.0396447
18	0x3e46357c	0.1935634
19	0xbe04fb0c	-0.12986392
20	0xbda66028	-0.08123809
21	0xba6bb781	-0.0008991883
22	0x3e30a020	0.17248583
23	0xbdb47e65	-0.0881317
24	0xbe0570d2	-0.13031319
25	0x3e29c444	0.16578776
26	0xbe03b25b	-0.12861006
27	0x3dfd6a70	0.12373817
28	0x3da83195	0.08212582
29	0x3de50c4c	0.11183986
30	0xbe0c0fc4	-0.13677889
31	0xbe05b598	-0.13057554
32	0xbbaf1e58	-0.0053441934
33	0x3d90dab5	0.07072965
34	0xbd52376c	-0.051322386
35	0x3d2564f9	0.0403795
36	0xbe0aed5b	-0.13567106
37	0x3e210b7e	0.1572704
38	0x3e6bee15	0.2304004
39	0x3e435d11	0.19078471
40	0x3e0af057	0.13568245
41	0xbdfce901	-0.123491295
42	0xbdb766b9	-0.0895514
43	0x3c274771	0.010209904
44	0xbda806ef	-0.082044475
45	0x3db39e04	0.087703735
46	0xbd1cb6ce	-0.038260274
47	0x3c4ee7ea	0.012628535
48	0xbd8f90ff	-0.07010078
49	0xbce9f0e4	-0.028557248
50	0xbe358b03	-0.1772881
51	0x3d5888ca	0.052864827
52	0x3d9e6727	0.077345185
53	0xbd06ab38	-0.03287813
54	0xbdc3628f	-0.09540283
55	0xbdcaef3e	-0.09908913
56	0xbe355742	-0.17709067
57	0x3c83e0d1	0.016098412
58	0xbe0ce28d	-0.13758297
59	0x3dca4987	0.098773055
60	0x3e219734	0.15780336
61	0x3e0893ab	0.13337581
62	0x3d5b517f	0.053544518
63	0x3e3a87e5	0.18215902
64	0x3e08095f	0.13284825
65	0x3d3c48e7	0.045967963
66	0x3e675538	0.22591102
67	0x3db32f6a	0.08749278
68	0x3c364632	0.011125134
69	0xbe29be1a	-0.16576424
70	0xbc1ec174	-0.0096896775
71	0x3dc2547e	0.09488772
72	0xbd8d2cd4	-0.06893316
73	0x3db7c051	0.08972228
74	0x3e2bbda7	0.16771565
75	0x3db81c35	0.08989755
76	0xbcd06412	-0.025438342
77	0xbb9c7416	-0.0047745807
78	0xbd8e9610	-0.06962216
79	0xbe4ae4e3	-0.19813876
80	0x3ce451a8	0.027870968
81	0xbe250cef	-0.16118215
82	0x3cd2a50c	0.025713466
83	0x3dbd6378	0.09247488
84	0xbdaab815	-0.08335892
85	0x3d3b3d4c	0.045712754
86	0x3e3d65f9	0.1849593
87	0x3e3843d6	0.17994627
88	0x3e1ef7bf	0.15524195
89	0x3dc21646	0.094769046
90	0xbc75573e	-0.014974413
91	0xbd6fd5b7	-0.058553424
92	0x3dbfb130	0.09359968
93	0x3d1e1821	0.03859723
94	0xbca61f0c	-0.020278476
95	0xbde8886a	-0.11354144
96	0xbe4e67da	-0.20156804
97	0xbd9182fc	-0.071050614
98	0x3e408494	0.18800575
99	0xbdd39ddd	-0.103328444
100	0xbe1418f4	-0.14462644
101	0x3e0ac06e	0.13549969
102	0x3de32f01	0.1109295
103	0x3cbb37b1	0.022853704
104	0xbc6cd6f2	-0.014455544
105	0x3e115b58	0.14195001
106	0x3e2e24a4	0.17006165
107	0x3e02e70b	0.12783448
108	0x3e760d84	0.24028593
109	0xbd8e9c23	-0.069633745
110	0x3cc98977	0.024601681
111	0xbbe5f9aa	-0.0070182877
112	0xb9c702d1	-0.00037958336
113	0xbbda3595	-0.0066592195
114	0xbe0fd0db	-0.14044516
115	0x3b33057e	0.0027316506
116	0x3dbf5a71	0.09343422
117	0xbdcadbbb	-0.099051915
118	0x3c26688b	0.010156761
119	0xbcb7a757	-0.022418661
120	0xbdf731d3	-0.1207005
121	0xbe42c8bd	-0.19021888
122	0x3dcf6743	0.101271175
123	0xbe2a971f	-0.1665921
124	0x3de1deed	0.11028848
125	0xbd5bbc37	-0.053646293
126	0x3cf2a232	0.029618356
127	0xbdd310b5	-0.10305921
128	0x3dbd2ff9	0.09237666
129	0xbd02922e	-0.03187769
130	0x3e12e373	0.14344577
131	0xbdbe973f	-0.09306192
132	0xbe089ba0	-0.13340616
133	0xbd2d1b56	-0.042262398
134	0x3dad1cae	0.08452736
135	0xbdd189df	-0.10231375
136	0xbe4a22cb	-0.19739835
137	0xbd868a46	-0.06569342
138	0xbc54db0d	-0.012991679
139	0x3d58d201	0.05293465
140	0x3db623ba	0.08893533
141	0x3c30c7d9	0.010789835
142	0x3e2dbf55	0.16967519
143	0xba327c82	-0.0006808714
144	0xbdcd8a5e	-0.10036157
145	0x3e11dd9b	0.14244692
146	0x3dd18649	0.10230691
147	0xbd407404	-0.04698564
148	0xbd3d7061	-0.04624975
149	0xbdc4e390	-0.096137166
150	0x3db50880	0.08839512
151	0x3e13e984	0.14444548
152	0x3d977810	0.07395947
153	0xbd2bf1a0	-0.04197848
154	0xbd99e92e	-0.075151786
155	0x3ce2ca1f	0.02768427
156	0x3bf42bf5	0.007451529
157	0x3cca5f3a	0.02470361
158	0x3de7b051	0.113129266
159	0x3e2aaa56	0.1666654
160	0x3de01fba	0.10943551
161	0x3d37e26c	0.044893667
162	0x3d2bc6e5	0.041937727
163	0xbda8aa71	-0.08235634
164	0x3d51167c	0.051046833
165	0x3e508704	0.20364004
166	0xbd350525	-0.04419436
167	0xbd784f6d	-0.06062262
168	0x3e101983	0.14072232
169	0xbdffa0d0	-0.124818444
170	0xbc36d388	-0.011158831
171	0x3d9ccb20	0.076559305
172	0x3c15661b	0.009118582
173	0x3d2c4e15	0.042066652
174	0x3d400c62	0.04688681
175	0x3d97ee31	0.07418478
176	0xbe2fae4c	-0.17156333
177	0x3da1ea6d	0.07906041
178	0xbe221fb3	-0.15832405
179	0xbe44bd17	-0.19212757
180	0x3d88e7cb	0.06684836
181	0xbd3c14f3	-0.045918416
182	0xbe026c25	-0.12736566
183	0x3e31eadc	0.17374748
184	0x3e03d077	0.12872492
185	0x3c7b7fba	0.015350277
186	0xbcb32b02	-0.021871094
187	0xbd154d49	-0.036450658
188	0x3e431568	0.19051135
189	0xbd82a68f	-0.06379425
190	0x3e006e8a	0.12542167
191	0xbd70d69c	-0.058798417
192	0xbdf8082b	-0.12110933
193	0x3e09bfc0	0.13452053
194	0x3bff35a6	0.007788378
195	0xbe1bb3ff	-0.15205382
196	0x3cf4f8d8	0.029903814
197	0x3dd06307	0.10175138
198	0xbcbd78fb	-0.023128977
199	0x3dc84d8e	0.097804174
200	0x3d8f693e	0.07002495
201	0x3dcc28dd	0.099687316
202	0xbd9c26ef	-0.076246135
203	0x3d31489f	0.043282147
204	0xbda07f6f	-0.07836806
205	0x3dedacc4	0.11605218
206	0x3df6da90	0.12053406
207	0x3e0831fc	0.13300318
208	0xbdb0a39a	-0.086249545
209	0xbdc5a24e	-0.09650098
210	0x3ddd75ae	0.10813461
211	0x3e132803	0.14370732
212	0x3e1f4558	0.15553796
213	0xbe06f9f0	-0.13181281
214	0xbcd70a01	-0.026249887
215	0xbd91dd6a	-0.071223095
216	0xbe116ea8	-0.14202368
217	0x3e321e9e	0.17394492
218	0x3de20309	0.11035735
219	0xbe15420e	-0.14575979
220	0x3dbf1673	0.09330454
221	0x3e120f92	0.14263752
222	0x3e0554d2	0.13020638
223	0x3debb2ee	0.115087375
224	0x3e202090	0.15637422
225	0xbd220ff1	-0.039565984
226	0xbdac46ea	-0.08411963
227	0x3c402723	0.011728081
228	0xbcb79442	-0.022409562
229	0x3e2cf217	0.16889225
230	0x3e38d972	0.18051699
231	0x3c8e7f23	0.017394608
232	0x3bde3aa0	0.006781891
233	0x3d295604	0.041341797
234	0xbd037818	-0.032096952
235	0x3d129d97	0.03579482
236	0x3e48a28a	0.19593254
237	0x3dbbebee	0.091758594
238	0xbd8617d2	-0.06547512
239	0x3dca6302	0.098821655
240	0x3e1079b7	0.1410893
241	0xbc47b05f	-0.012188046
242	0xbe323091	-0.17401339
243	0xbe18ad01	-0.14909746
244	0x3e1fec16	0.15617403
245	0xbe064b57	-0.13114677
246	0xbe5c1d05	-0.21495445
247	0x3da5705c	0.080780715
248	0x3d292435	0.041294295
249	0x3e041c23	0.12901358
250	0x3d67e002	0.056610115
251	0x3e273974	0.1633051
252	0x3e36c639	0.17849053
253	0xbd0d9168	-0.0345625
254	0xbdb34376	-0.087531015
255	0x3e1abd8f	0.15111373

layers.0.bias f4 [128]
0	0x3e4ad9ea	0.1980969
1	0xbe2ffb95	-0.17185815
2	0x3e249027	0.16070615
3	0x3e0bcdcc	0.13652724
4	0xbe0dc79c	-0.13845676
5	0xbe1e7881	-0.15475656
6	0xbe3d58d8	-0.18490922
7	0x3e2fdc63	0.17173915
8	0xbe19c3f7	-0.15016161
9	0x3e01b80a	0.12667862
10	0x3e4c1395	0.19929345
11	0x3e225357	0.15852104
12	0x3e47c3d6	0.19508299
13	0x3dffe165	0.124941625
14	0xbe1d4e3d	-0.15361877
15	0x3e2dd074	0.1697405
16	0xbe297797	-0.16549526
17	0xbdf737f7	-0.12071221
18	0x3e3a737f	0.18208121
19	0x3e0bffba	0.1367177
20	0x3dd418e5	0.10356311
21	0x3e18c635	0.1491936
22	0x3e026870	0.12735152
23	0x3e503cb4	0.20335656
24	0xbe31aa60	-0.17350149
25	0xbe0a686c	-0.13516396
26	0xbe16893a	-0.14700785
27	0x3e2c5983	0.16831021
28	0xbdef9b63	-0.116995595
29	0xbe048ff1	-0.12945534
30	0x3e15e943	0.14639764
31	0x3e2ffa05	0.17185219
32	0x3e07c991	0.13260485
33	0x3e1b7433	0.15181045
34	0x3e38bedc	0.18041557
35	0xbe0d1e7d	-0.13781162
36	0x3ddc384f	0.107529275
37	0xbe1834b9	-0.14863862
38	0x3e3cecb5	0.18449672
39	0xbe4197f3	-0.1890562
40	0xbdc66b17	-0.096883945
41	0xbe45c0eb	-0.19311874
42	0x3e1245b9	0.1428441
43	0xbe4792d4	-0.19489604
44	0xbe2a4059	-0.16626109
45	0xbe4961f2	-0.1966627
46	0xbe591904	-0.21200949
47	0xbe365196	-0.1780456
48	0xbe418ec2	-0.18902114
49	0xbe3cf0d9	-0.18451251
50	0x3e298f18	0.16558492
51	0xbe3cd155	-0.18439229
52	0xbe1e131c	-0.15436977
53	0xbe322a1b	-0.17398874
54	0xbe4bfb17	-0.19920002
55	0x3e1ba4cd	0.15199585
56	0x3ddf7ce5	0.109124936
57	0x3e07931f	0.13239716
58	0xbe2f3be9	-0.17112698
59	0x3e2f5bf1	0.17124917
60	0xbdf9ccbf	-0.12197255
61	0x3e6bf520	0.23042727
62	0xbe302b2f	-0.17203973
63	0xbe07aa91	-0.1324866
64	0xbe18d4c8	-0.1492492
65	0x3e38d5c9	0.18050303
66	0xbe470567	-0.19435655
67	0x3e3bc03e	0.18335053
68	0xbdf9495d	-0.12172196
69	0xbe2b1e02	-0.16710666
70	0x3e2f593b	0.17123882
71	0x3e05ec4d	0.13078423
72	0xbe51b8b0	-0.20480609
73	0x3e52a2c5	0.20569904
74	0x3e126026	0.1429449
75	0xbe2aeca0	-0.16691828
76	0x3e18404b	0.14868276
77	0x3e5bad9e	0.21452948
78	0x3e214d67	0.15752183
79	0x3e29677a	0.1654338
80	0x3e07ad00	0.13249588
81	0xbe170da2	-0.14751294
82	0x3e4caab9	0.19987
83	0xbe156ed9	-0.14593066
84	0x3e45c0ef	0.1931188
85	0xbe12ef64	-0.14349133
86	0xbde2c229	-0.11072189
87	0xbe04859e	-0.12941596
88	0x3e304999	0.17215575
89	0xbe27fa1c	-0.16404003
90	0xbdf9c903	-0.12196543
91	0x3df1995f	0.11796831
92	0x3e5c4cd5	0.21513684
93	0xbe0fa497	-0.1402763
94	0x3e12237b	0.14271347
95	0x3e2a182f	0.16610788
96	0x3e044149	0.1291553
97	0xbe3a6a71	-0.18204667
98	0x3e082792	0.13296345
99	0xbe6552cd	-0.22394867
100	0xbda31a44	-0.07963994
101	0x3e448614	0.19191772
102	0x3e1e1805	0.1543885
103	0x3e2a2753	0.16616563
104	0x3e550c04	0.20805365
105	0xbe0406cc	-0.12893218
106	0xbe0be4d5	-0.13661511
107	0xbe0592ac	-0.13044232
108	0x3e01f9ed	0.12692995
109	0x3e201b1c	0.15635341
110	0x3e4ec5a0	0.20192575
111	0xbe17f34a	-0.14838901
112	0x3e58e11b	0.21179621
113	0xbe43938c	-0.19099253
114	0xbe533abc	-0.20627874
115	0x3df2c40b	0.118537985
116	0x3e54a1c9	0.20764841
117	0x3e1600d4	0.14648753
118	0x3e3f6a0c	0.18692797
119	0x3e3f3054	0.1867078
120	0xbe40edc2	-0.18840697
121	0x3e270f42	0.16314414
122	0xbe3eee70	-0.18645644
123	0xbdd8f7f2	-0.10594167
124	0xbe1cc00a	-0.15307632
125	0x3e234756	0.15945181
126	0xbdf74842	-0.12074329
127	0xbe3ea047	-0.18615828

layers.2.weight f4 [128, 128]
0	0x3d216004	0.03939821
1	0x3db3a3f0	0.08771503
2	0xbce4837b	-0.027894726
3	0xbdf9752d	-0.12180553
4	0x3de8b377	0.11362355
5	0x3e46f8c3	0.19430833
6	0xbd9ae3eb	-0.07563003
7	0xbe350781	-0.17678644
8	0xbdddef4a	-0.108366564
9	0xbde01187	-0.10940843
10	0x3befe5ca	0.007321094
11	0xbdbf2842	-0.093338504
12	0xbd76f018	-0.060287565
13	0xbdd8cfbf	-0.105864994
14	0x3e2d0c02	0.16899112
15	0x3ddceb01	0.10787011
16	0x3c8ae8d5	0.016956726
17	0x3e117dff	0.1420822
18	0x3c10483c	0.0088062845
19	0xbdadb13d	-0.08481071
20	0xbd9d97b8	-0.07694954
21	0xbc8794b3	-0.016550398
22	0xbe1f8a33	-0.15580063
23	0xbb0f807a	-0.0021896646
24	0xbc4510dc	-0.012027945
25	0x3c13ea56	0.009028038
26	0x3d3e294a	0.046426095
27	0xbe0703f9	-0.13185109
28	0xbd1d46a7	-0.038397457
29	0x3e10a440	0.14125156
30	0x3d14e491	0.03635079
31	0xbda18cc1	-0.07888175
32	0x3dd11f84	0.10211089
33	0xbd66ed40	-0.056378603
34	0xbdf30e96	-0.118680164
35	0xbdca5955	-0.0988032
36	0x3ddafa29	0.106922455
37	0xbdc344da	-0.09534617
38	0xbe441e63	-0.19152217
39	0x3be60819	0.0070200083
40	0x3e0d4ae5	0.13798101
41	0x3e1d3eb5	0.15355952
42	0xbda94583	-0.082652114
43	0xbd7a4bc8	-0.061107427
44	0x3de2af87	0.110686354
45	0xbda96caa	-0.08272679
46	0xbcf58ee6	-0.029975366
47	0xbc1451b7	-0.009052685
48	0x3d88f764	0.06687811
49	0x3dc127ee	0.09431444
50	0xbd8f6e14	-0.070034176
51	0x3ddf1d13	0.10894217
52	0x3d7a2e79	0.061079476
53	0x3deb454b	0.11487826
54	0x3d957bde	0.072990164
55	0x3da508ea	0.08058341
56	0xbe072a94	-0.13199836
57	0x3de90f7f	0.11379909
58	0xbdc8286d	-0.097733356
59	0xbe35d614	-0.17757446
60	0xbcb6e70e	-0.022326972
61	0xbd04040d	-0.032230426
62	0xbd7307f1	-0.059333745
63	0x3da0c3d3	0.078498505
64	0xbd57eb19	-0.05271444
65	0x3c8862a1	0.016648592
66	0xbc20c656	-0.009812912
67	0x3c85a815	0.0163155
68	0x3c96474b	0.018344542
69	0xbc5429f2	-0.012949454
70	0xbd265b65	-0.040614504
71	0xbd01a2db	-0.03164945
72	0x3d255c13	0.040371012
73	0xbcaf5eaf	-0.021407453
74	0xbd031cbe	-0.032009833
75	0x3dcd74d8	0.10032052
76	0xbe3002a2	-0.17188504
77	0x3cee8001	0.029113771
78	0xbe3165bb	-0.17323963
79	0x3cfca821	0.030841889
80	0xbbc1624f	-0.005901612
81	0x3e36637d	0.1781139
82	0xbb4c2583	-0.0031150288
83	0xbb2f36b0	-0.0026735477
84	0x3db80342	0.089849964
85	0x3bead09d	0.007165982
86	0xbd60ca2a	-0.0548803
87	0x3e30fb5a	0.17283383
88	0x3d1cbb24	0.03826441
89	0x3dc9cd0c	0.09853563
90	0x3e3b6d3d	0.1830339
91	0x3d920664	0.07130125
92	0xbd87df51	-0.06634391
93	0xbd06d27b	-0.032915574
94	0xbe113acf	-0.1418259
95	0xbe208d79	-0.15678968
96	0xbd90d99c	-0.07072756
97	0x3e31017b	0.17285721
98	0xbdf8ae29	-0.121425934
99	0xbd117505	-0.03551199
100	0xbc8aa458	-0.016924068
101	0xbdc571f2	-0.09640874
102	0xbd9b147f	-0.07572269
103	0xbc8922ef	-0.01674029
104	0xbe3402e5	-0.17579229
105	0x3da97a2c	0.082752556
106	0xbd4b8241	-0.049684767
107	0xbd9cd161	-0.07657123
108	0x3d05c410	0.032657683
109	0xbe3154ed	-0.17317553
110	0xbe39dc3f	-0.18150423
111	0x3da415f7	0.08012002
112	0xbd70c1d3	-0.058778595
113	0x3cc08c58	0.023504421
114	0xbdc6badf	-0.097036116
115	0xbdb48cfd	-0.08815954
116	0xbd73b80b	-0.05950169
117	0xbdf48afc	-0.11940572
118	0xbd2e6a13	-0.04258163
119	0xbd3a0e1a	-0.045423605
120	0x3e0df5c3	0.13863282
121	0xbdd9e668	-0.1063965
122	0x3be6d416	0.0070443256
123	0x3d4faa7d	0.0506997
124	0x3db1148d	0.08646498
125	0xbb863a88	-0.004096333
126	0xbd62d492	-0.055378504
127	0xbc061547	-0.008183784
128	0x3dfcbf06	0.12341122
129	0x3d8ddcfd	0.06926916
130	0x3da74d3d	0.08169029
131	0x3de07777	0.10960286
132	0x3ac1643f	0.0014754607
133	0x3cd8a5aa	0.026446182
134	0xbc987ec4	-0.018615134
135	0x3bb28dac	0.0054490175
136	0xbd72f32e	-0.059313945
137	0xbd955dae	-0.072932586
138	0xbc186de1	-0.009303541
139	0x3da70e20	0.08156991
140	0x3e136f88	0.14398015
141	0x3dab558b	0.083659254
142	0x3daefce6	0.0854433
143	0x3da92eaa	0.082608536
144	0x3dfba42b	0.12287172
145	0xbce47539	-0.027887927
146	0xbd7ad0dc	-0.06123434
147	0x3c2d1b36	0.01056557
148	0x3d42f336	0.047595225
149	0x3e15ea6f	0.1464021
150	0x3dffa709	0.12483031
151	0x3cafce97	0.021460814
152	0xbde73d83	-0.11291029
153	0x3c90d9f7	0.017682059
154	0xbc6861ec	-0.014183503
155	0xbd91eafa	-0.07124896
156	0xbde35b3f	-0.11101388
157	0xbe18167a	-0.14852324
158	0x3df91bf7	0.12163537
159	0xbcc8c25d	-0.024506742
160	0xbc3a6837	-0.011377386
161	0x3e2aaa20	0.1666646
162	0x3c2512f1	0.010075317
163	0xbcfe4374	-0.031038024
164	0xbd8d6e2f	-0.069057815
165	0x3b81c77f	0.0039605494
166	0x3cba5a9a	0.02274828
167	0xbd6d65b3	-0.057958316
168	0x3d5dcb05	0.054148693
169	0xbd334791	-0.043769423
170	0x3d34e8b1	0.044167224
171	0x3cc2e73b	0.0237919
172	0xbd7efd85	-0.062253494
173	0xbe2ef118	-0.17084157
174	0x3c3764f8	0.011193506
175	0xbe14d607	-0.1453477
176	0xbe18d45b	-0.14924757
177	0xbe0cb547	-0.13741027
178	0x3e045e03	0.12926488
179	0xbd936656	-0.071972534
180	0x3bec8453	0.0072179227
181	0xbddf0ffe	-0.10891722
182	0xbe5999bd	-0.21250053
183	0x3dbcb1f8	0.09213632
184	0xbe00c1b1	-0.12573887
185	0xbdf54f6d	-0.1197804
186	0xbd6045f1	-0.0547542
187	0x3e3a0a6d	0.1816804
188	0xbc3e40bc	-0.011612114
189	0xbd38246c	-0.04495661
190	0xbe427690	-0.1899054
191	0x3da29695	0.079388775
192	0xbdfeb70d	-0.12437258
193	0xbb4e3d6a	-0.003146971
194	0xbd7adaa7	-0.06124368
195	0x3dcafe0e	0.09911738
196	0x3dc2fa2e	0.09520374
197	0xbc165d8e	-0.009177579
198	0xbd760d8e	-0.06007152
199	0x3ddd092e	0.107927665
200	0x3dd1de2d	0.10247455
201	0x3d360ffc	0.044448838
202	0x3d12ac7c	0.035809025
203	0xbd17843d	-0.036991347
204	0x3e2aa09e	0.16662833
205	0x3e42ece9	0.19035687
206	0x3e0a811b	0.13525812
207	0x3d322ee5	0.043501753
208	0xbd7621db	-0.06009088
209	0xbdfd2c1e	-0.1236193
210	0xbc8e431e	-0.017365988
211	0xbdddfe41	-0.10839511
212	0xbdf5ebfb	-0.120079
213	0x3d0798fb	0.033104878
214	0x3df5c913	0.120012425
215	0xbdfc4248	-0.1231733
216	0xbc500233	-0.012695837
217	0xbe0df882	-0.1386433
218	0xbe19c064	-0.15014797
219	0x3e0aa03c	0.13537687
220	0x3d91a71c	0.07111952
221	0x3cc89456	0.024484795
222	0x3d8b89dc	0.06813404
223	0x3d6b8653	0.05750115
224	0x3d96cdd3	0.073634766
225	0x3dd66636	0.10468714
226	0x3ddb1ec3	0.10699227
227	0xbcf5d16f	-0.030007092
228	0x3d0492fb	0.032366734
229	0xb9cd9a7f	-0.00039215756
230	0xbd40d6f1	-0.047079984
231	0xbc0b6b22	-0.008509429
232	0x3e08e172	0.1336725
233	0x3dda55bb	0.10660883
234	0x3e0fcd7e	0.14043233
235	0x3dd93579	0.10605902
236	0xbdccedce	-0.10006295
237	0xbdae846b	-0.085213505
238	0x3df0e774	0.11762896
239	0x3d4dc02b	0.050232094
240	0x3e146b9f	0.14494179
241	0xbe3c0181	-0.18359949
242	0xbd324dd2	-0.043531246
243	0x3e2dd63e	0.16976258
244	0xbd935f08	-0.0719586
245	0x38c0dead	9.19675e-05
246	0x3e0849e3	0.13309436
247	0x3dd479e4	0.10374811
248	0xbd914892	-0.0709392
249	0x3c680a5b	0.014162625
250	0xbd446e53	-0.047956776
251	0xbde191b8	-0.11014122
252	0xbe27e05a	-0.16394177
253	0x3b17dd26	0.0023172586
254	0x3e1be78d	0.15225048
255	0xbe358bc8	-0.17729104

layers.2.bias f4 [128]
0	0xbdce2793	-0.10066142
1	0x3dcdc6e2	0.100476995
2	0xbdf5b3f8	-0.11997217
3	0xbe040307	-0.1289178
4	0x3e03bbbf	0.12864588
5	0x3dd1f385	0.10251526
6	0x3dceb27e	0.100926384
7	0xbdcfced0	-0.10146868
8	0x3dd074a9	0.10178501
9	0xbe13c0a5	-0.14428957
10	0x3dd2ede8	0.10299283
11	0x3e1e1e40	0.15441227
12	0xbdd68575	-0.10474674
13	0xbdcaaf3e	-0.09896706
14	0x3def43c5	0.11682848
15	0x3dd56942	0.10420467
16	0xbdca1289	-0.098668166
17	0xbded5b06	-0.11589627
18	0xbddd0ee4	-0.10793856
19	0xbdd60dfd	-0.10451887
20	0x3ddfd649	0.109295435
21	0x3df4b44e	0.11948453
22	0x3dcdb1e9	0.10043699
23	0x3dd38315	0.10327736
24	0xbdc84136	-0.09778063
25	0x3dd9ebfc	0.106407136
26	0xbdd024f4	-0.10163298
27	0x3de05d25	0.10955266
28	0xbdef9314	-0.11697975
29	0xbdd947ca	-0.10609396
30	0x3dce65ae	0.100779876
31	0xbdd272b3	-0.102757834
32	0x3e48a4a8	0.19594061
33	0xbe2ec4e4	-0.17067295
34	0x3dd9d90f	0.10637104
35	0x3e02c69d	0.12771077
36	0x3df9a452	0.12189545
37	0x3dc4312b	0.095796905
38	0x3e06810f	0.1313517
39	0x3e079682	0.13241008
40	0x3dd67560	0.10471606
41	0x3debeb0d	0.11519442
42	0x3dcc8abe	0.099874005
43	0x3dc4cb81	0.09609128
44	0x3dde7057	0.10861271
45	0xbdf859c3	-0.12126496
46	0x3e4005fa	0.1875228
47	0xbdce9ec2	-0.100888744
48	0x3e342acc	0.1759445
49	0xbddcc950	-0.10780585
50	0x3ddc02fd	0.107427575
51	0x3de04438	0.10950512
52	0xbe08d845	-0.1336375
53	0xbde09474	-0.10965815
54	0xbdc9cf1a	-0.098539546
55	0xbdf391a9	-0.11893017
56	0x3de11e33	0.10992088
57	0xbdc9885a	-0.0984046
58	0x3e10312c	0.14081258
59	0x3dc97f79	0.098387666
60	0xbddc2f56	-0.10751216
61	0xbe2f0410	-0.17091393
62	0x3e406c2d	0.18791266
63	0xbe0045f3	-0.12526684
64	0xbdfe0c98	-0.12404746
65	0xbdc8031a	-0.097662166
66	0xbdd1bfc5	-0.10241655
67	0x3dd69661	0.10477901
68	0xbdceff67	-0.10107308
69	0x3de9238f	0.113837354
70	0xbddf63bc	-0.10907695
71	0x3dcbb864	0.09947279
72	0xbdde3ef3	-0.1085185
73	0x3dcd6943	0.10029843
74	0xbdd0669e	-0.10175823
75	0xbdd70af6	-0.105001375
76	0x3dd6cb92	0.10488047
77	0x3dcf95f5	0.10136024
78	0x3dfe8830	0.124283195
79	0xbde4e53c	-0.111765355
80	0x3dcf377b	0.10118004
81	0x3dcc7985	0.099841155
82	0xbe0e0d7f	-0.13872336
83	0xbdcb7fa9	-0.099364586
84	0xbde20f2a	-0.110380486
85	0x3df6b6b1	0.12046564
86	0xbddb5fee	-0.107116565
87	0xbddec537	-0.108774595
88	0xbdefccf8	-0.117090166
89	0x3ded3a9b	0.11583444
90	0x3de09871	0.10966576
91	0x3dcfa740	0.10139322
92	0x3e13b6da	0.14425221
93	0x3dcf43c1	0.10120345
94	0x3dcb993b	0.09941336
95	0xbdcb9b94	-0.099417835
96	0x3e072174	0.13196355
97	0xbdd788c8	-0.10524136
98	0xbe0e2a16	-0.13883242
99	0x3dcdea62	0.100544706
100	0xbdccc537	-0.09998553
101	0xbdd5053a	-0.104013875
102	0x3dd2a93c	0.10286185
103	0x3ddd0f1d	0.10793898
104	0x3dcfa751	0.10139335
105	0x3dcb9ecf	0.099424
106	0xbe02e3df	-0.12782238
107	0x3e34f5e1	0.1767192
108	0x3dcb6e8d	0.09933195
109	0x3dd5a278	0.10431379
110	0xbddbecf0	-0.107385516
111	0xbddf1b32	-0.10893859
112	0x3df499a0	0.11943364
113	0xbddddf6e	-0.108336315
114	0x3e2389e8	0.15970576
115	0x3dcfa343	0.101385616
116	0x3defd1db	0.11709949
117	0x3dd03bb2	0.10167636
118	0xbddb0553	-0.10694375
119	0xbdd1bbcd	-0.10240898
120	0xbdca416f	-0.09875762
121	0x3dee72f8	0.11643022
122	0x3de07b62	0.109610334
123	0x3de52590	0.11188805
124	0xbdd77739	-0.10520787
125	0x3df35c1e	0.11882804
126	0x3de1d11b	0.11026212
127	0x3ddecd95	0.108790554
