experiments/ppo_pendulum_first_try_20250829_064734/checkpoints/final.pt (torch, 214863 bytes, 44 tensors)

shared_layers.0.weight f4 [64, 3]
000000 d1 d2 99 bd 61 5d 60 be 2e aa 67 3e 72 50 38 bd
       -0.07510913 -0.21910621 0.22623512 -0.044998594
000010 8d c1 ba bd f7 d3 5e 3c d4 6c 39 bd 71 e5 07 be
       -0.09118948 0.013600341 -0.045269802 -0.13271119
000020 36 6f 39 3e b2 a1 19 be 90 b2 17 3e 65 de f3 3d
       0.1810883 -0.15003088 0.1481421 0.11907653
000030 3d bb d6 3e 34 59 a2 3e 91 bc 7d 3d 6f 38 ac 3e
       0.41939726 0.31708682 0.06194741 0.33636805
000040 e3 37 a8 bd b0 61 54 3e 26 81 be bc 0d 03 5f bd
       -0.082137845 0.2074039 -0.023254942 -0.05444627
000050 34 c7 2e be 37 b2 82 be 7e ec b7 3c f4 1e e3 3d
       -0.17068177 -0.25526592 0.022451635 0.11089888
000060 e1 a4 f3 39 f6 8d b1 3d db f0 09 be 59 b4 52 be
       0.00046471416 0.08669655 -0.13470785 -0.2057661
000070 a5 64 fa bd 1d 82 b1 3d d0 04 9e 3e 73 b9 6d 3d
       -0.12226228 0.08667395 0.30863047 0.058038186
000080 12 9c 21 3e 05 1e 84 bd b9 37 4e 3e b2 13 d4 3e
       0.15782192 -0.06451038 0.20138444 0.41421276
000090 f2 79 5c bc 41 e7 52 3e 13 51 90 3e e3 59 c2 bd
       -0.013456808 0.20596029 0.28186855 -0.09489801
0000a0 37 29 d5 3b e8 6b 95 bc 0d b6 ad bd e8 18 02 3b
       0.0065051573 -0.01823993 -0.08481989 0.001985127
0000b0 04 01 a3 bd 50 61 34 be e6 b9 eb bd be 03 59 bd
       -0.07959178 -0.17615247 -0.11510067 -0.052982084
0000c0 2f 42 ad bd 34 29 88 3e e0 7b 18 3d 30 e3 a1 3c
       -0.08459889 0.26593935 0.03722751 0.019761652
0000d0 db f2 42 3d bd f5 21 be 02 ee 8a bd 05 4d 8b bd
       0.047594886 -0.15816398 -0.06783678 -0.068018
0000e0 f6 80 8c 3d e1 5a b1 be eb ef 9f be 2c 4c 91 3d
       0.06860535 -0.34639648 -0.3123773 0.07094607
0000f0 73 48 c2 bd d7 13 2f 3e 24 85 01 3d 3b 9e b8 be
       -0.09486475 0.17097412 0.031621113 -0.3605822
000100 e2 6e df bb 7b 97 ac 3d af ef 7d 3d e1 f0 12 be
       -0.006818638 0.0842733 0.06199616 -0.143497
000110 6e cf 29 be be 29 b9 3a fa e4 41 bd a9 1d 7e 3c
       -0.16583034 0.001412682 -0.04733751 0.015510001
000120 b1 82 89 3d 19 79 e2 3d 5b 94 b9 3c d1 69 1a 3e
       0.067143805 0.11058254 0.02265375 0.15079428
000130 50 3a 89 be 06 97 43 bd 0a 4a 2a 3e d1 04 94 be
       -0.268023 -0.04775145 0.16629806 -0.28909925
000140 3b f6 d8 3d 99 ee 51 bd 2d 82 8b bd 5f 17 88 be
       0.1059384 -0.051252935 -0.068119384 -0.2658033
000150 0a ac c0 3e 0b bb d1 3d 19 23 66 3d 8b 8a 17 be
       0.37631255 0.10240754 0.056185815 -0.14798944
000160 37 38 a8 be 7c 58 a8 3d e8 0b 04 3e 92 e1 91 bd
       -0.3285539 0.08220002 0.12895167 -0.07123102
000170 77 80 1b 3e 0e b7 3c 3e ff 14 c2 be ba 76 c6 bd
       0.15185724 0.18429205 -0.37906644 -0.09690614
000180 f2 72 65 be dd 47 46 bc 5f 37 5c 3d 61 d7 bf be
       -0.2240713 -0.0121020945 0.053763743 -0.3746901
000190 ab fd b1 bc 6a 83 5b 3e 80 dd 95 bd 12 c5 e8 3d
       -0.021727404 0.21436849 -0.073176384 0.11365713
0001a0 b6 98 72 3e 09 4a 07 3c 83 96 18 be 38 ca 59 3c
       0.23691067 0.008257397 -0.14901166 0.013292842
0001b0 d9 cd b0 3e c4 29 7b be 1c b5 0e be 7c 99 2a 3e
       0.3453205 -0.24527651 -0.13936275 0.16660112
0001c0 cc 0f 8d be d0 a2 c7 3d 11 de cd bc a2 3c aa 3d
       -0.27551115 0.09747851 -0.025130304 0.08312346
0001d0 37 e3 66 3e 0a b1 37 be dc ee 77 be 85 75 d1 3e
       0.22547613 -0.17938629 -0.24212211 0.40909973
0001e0 7a 8f 30 be d9 9d 2b be 8c 16 98 be ec ad 5f bd
       -0.17242232 -0.16759433 -0.29704702 -0.054609224
0001f0 d9 86 9d bd 77 91 8d 3e 26 ca d2 bd f9 5b 9f bd
       -0.07691736 0.27650043 -0.10292463 -0.07781214
000200 49 4c cd be 23 1d 64 3e 8f 21 6d be 73 26 5e 3d
       -0.40097263 0.2227674 -0.23157333 0.054235887
000210 68 0a 37 be b3 8c 67 3e 50 75 21 be 3d db 5c bd
       -0.17875063 0.22612266 -0.15767407 -0.05392002
000220 00 1a c0 bd db c4 e9 3d 5e b7 a7 bd 52 a5 40 bd
       -0.09379959 0.114145 -0.081892714 -0.04703266
000230 db e2 46 3c d7 3d 1c 3d 1f 55 2e bd b6 7b a3 3d
       0.0121390475 0.038144913 -0.042561647 0.0798258
000240 00 49 aa bd ed 9b 67 3e 54 56 b5 be a6 09 09 3e
       -0.08314705 0.22618075 -0.35417426 0.13382587
000250 2b 54 92 bd 18 ac 5a 3e db b6 f3 39 be 7b b1 bd
       -0.0714496 0.21354711 0.0004648481 -0.0866618
000260 05 a7 0b 3e 8d 69 a0 bd e0 01 1f 3e 88 5e 64 bc
       0.13637932 -0.07832632 0.15528059 -0.013938554
000270 83 52 92 bd 6c 4f 94 be 55 38 3a 3e 61 66 1f bd
       -0.07144644 -0.28966844 0.18185551 -0.038915996
000280 99 8f 1b be 52 d1 80 be 9e b1 11 bb ac f2 2f be
       -0.15191497 -0.251597 -0.0022231112 -0.17182416
000290 5a c9 84 bd 49 92 8f be ae 3c a4 bd fa 16 0b be
       -0.06483717 -0.28041294 -0.08019386 -0.13582984
0002a0 2f 72 70 bb 7d 66 52 be 84 4c df 3d 81 0d a4 bd
       -0.0036689152 -0.20546909 0.10903266 -0.08010388
0002b0 7e 0d 1c 3e 2c 8b be 3d 2f 51 52 3d 1d 80 a8 3d
       0.15239522 0.09303889 0.051346954 0.08227561
0002c0 a0 7a 5b 3e 6d 04 67 3e 5e 00 ec 3c 12 d7 1f be
       0.21433496 0.22560282 0.028808769 -0.15609387
0002d0 2e 6d f3 be 6d 94 37 3d 18 bf 0a 3d f5 56 c4 3c
       -0.47544235 0.044819284 0.033873647 0.023967246
0002e0 b0 c1 42 be 0f 40 dc bd a1 48 95 bd 53 1d c4 3e
       -0.19019198 -0.10754406 -0.072892435 0.38303623
0002f0 bc c2 33 be 9a 5f 50 be 63 bd fb bd 89 2b 80 be
       -0.17554754 -0.20348969 -0.12291982 -0.25033215

shared_layers.0.bias f4 [64]
000000 97 ab ee bb 4b 62 48 3d e7 75 cc bb 4d b2 5f 3d
       -0.0072836387 0.048921864 -0.006239641 0.0546134
000010 55 ec 25 bd 82 1c 5e bd 1a 38 d9 bc b4 6d 48 3d
       -0.040508587 -0.054226406 -0.02651601 0.048932746
000020 8c 87 5a bd 60 99 66 3d a3 c2 3d bd 53 f9 37 3d
       -0.053351924 0.056298614 -0.0463282 0.04491551
000030 e3 eb 28 3d c7 5e 5e 3d 18 06 72 3d 80 03 2e bc
       0.041240584 0.054289605 0.059087843 -0.010620952
000040 61 4d 69 3d d2 27 38 bd b5 83 72 3d af 51 25 3d
       0.05695856 -0.04495985 0.059207637 0.040361103
000050 00 aa 21 bd 37 fd 41 3d dd 48 6b bd 89 0b 5b bd
       -0.039468765 0.047360625 -0.057442535 -0.053477798
000060 e9 d3 55 bd 6a 20 16 3d e2 1b 6c bd 3e 31 df 3c
       -0.052204046 0.036652006 -0.05764378 0.02724516
000070 36 0f 33 bd 80 a8 5e 3d 89 17 39 bd 02 1c 59 bd
       -0.04371568 0.054359913 -0.04518846 -0.053005226
000080 46 6d 52 3d 5c ec 3d 3d 2c 53 5e 3d ef f5 e7 bc
       0.051373743 0.046367988 0.054278538 -0.028315512
000090 98 a2 34 bd ad ba 5f bd 4f 00 c5 3c 80 d6 5a 3d
       -0.044100374 -0.054621387 0.024047999 0.05342722
0000a0 03 8f 17 3d 9f c3 5b 3d 98 46 36 bd 74 66 51 bd
       0.03700162 0.053653356 -0.044500917 -0.051123098
0000b0 85 76 5b 3d 85 99 52 bd a3 a1 c9 3c eb b9 01 bd
       0.053579826 -0.05141594 0.024613207 -0.031671446
0000c0 04 81 ce 3c 38 f9 3a bd 7b 32 10 bc 40 f1 5b 3d
       0.025208004 -0.04564783 -0.008801098 0.05369687
0000d0 96 ba 65 bd d9 94 e1 3c 61 15 94 bd bb 6b 08 3d
       -0.056086145 0.027536796 -0.0723064 0.033305865
0000e0 09 be 72 3d 7c 11 87 3d aa d2 96 bc a4 da 5e bd
       0.059263263 0.06595132 -0.018411 -0.05440773
0000f0 f2 5b 3a 3d 8f 5e 54 bd be 10 56 3d b0 76 39 3d
       0.045497842 -0.05184799 0.05226206 0.045279205

shared_layers.2.weight f4 [64, 64]
000000 21 a3 4b 3e 59 0d ba 3e a5 30 11 3e ee 37 09 3b
       0.19886447 0.36338308 0.14178713 0.0020937878
000010 de a0 2d 3e 30 37 9f 3c d8 98 01 3d 7b b1 9c be
       0.16955897 0.019435495 0.031639904 -0.30604157
000020 5a b7 d5 3c cc 92 66 bd 1c f8 30 be 57 dd 0b be
       0.026088405 -0.05629234 -0.17282146 -0.13658653
000030 7d 72 a9 3d fb 1a 0e be 5b 2f 62 be b1 ea 50 be
       0.0827379 -0.1387748 -0.22088377 -0.20402028
000040 b4 5a 7e 3e 9d 3c e4 bd 60 f2 9b 3c 0d ac 16 be
       0.24839288 -0.111443736 0.019036472 -0.1471407
000050 70 fc 60 3d 96 2d 93 be 4d 51 29 3d 98 1d 0a be
       0.054928243 -0.28745717 0.0413373 -0.13487852
000060 d2 52 0c bd a7 82 93 3d 5b e6 81 be 4e 98 97 be
       -0.03425867 0.07202654 -0.2537106 -0.29608387
000070 a7 36 72 be c2 5b 45 be 56 5a 45 3d 17 be 1a 3e
       -0.2365366 -0.19273284 0.048181854 0.15111576
000080 6f 7e f6 bb 24 67 93 be dc 35 52 be e8 41 25 bd
       -0.0075223963 -0.28789628 -0.20528358 -0.040346056
000090 ea 25 68 bd f4 1d b9 3d c1 05 fc bd ec a3 f0 be
       -0.056676783 0.09038916 -0.12305785 -0.47000062
0000a0 ee 86 ba 3c 4a 7a 91 be cf ce 25 bd 85 2b 9e be
       0.022769418 -0.28413612 -0.04048043 -0.30892578
0000b0 11 48 ab 3d 42 07 99 be 00 36 bb 3d fa cd 70 3d
       0.08363355 -0.2988835 0.09141159 0.058790185
0000c0 81 d0 be 3d 9c 0d d4 3c 4f 08 12 3d fd 15 a9 be
       0.09317113 0.025885396 0.035652455 -0.33024588
0000d0 d4 60 0d be db d9 ee bb fb af 88 3d 6f 7b df 3c
       -0.13806468 -0.007289154 0.066741906 0.027280537
0000e0 6d d6 22 be c6 b6 79 be 1e 8f 0f 3c b3 5c 16 be
       -0.1590211 -0.24386129 0.008762149 -0.146838
0000f0 95 37 08 3d ac 14 9c 3e 82 fc 0f 3e b9 ce 7c bd
       0.033256132 0.3048452 0.14061168 -0.061720584
000100 2a 74 b8 3e e2 74 99 bd 22 24 40 be 7c 44 37 3d
       0.36026126 -0.07492997 -0.18763784 0.044743046
000110 64 0a a9 3d 5f 30 a1 bc 89 1b bf 3e 26 b0 80 3e
       0.08253935 -0.019676385 0.37325695 0.2513439
000120 bd d3 ae bc 3e 25 64 3d 25 d3 51 bd 9d 2f 20 be
       -0.021341199 0.05569958 -0.051226754 -0.15643163
000130 84 5f 39 3d 70 fa 84 3c 02 c3 fb bd 78 b3 b2 bc
       0.045257106 0.0162327 -0.12293054 -0.021814093
000140 1f 0d 13 be 42 98 67 3e 3c 1c 2e 3e 3f 00 8b bd
       -0.14360474 0.22616675 0.17002958 -0.06787156
000150 0f f2 b6 bb 27 91 79 bd 36 2b 0d bb 29 d3 b7 3c
       -0.005583055 -0.060929444 -0.0021540648 0.022439556
000160 cf a2 f0 3c 21 2a 0e 3e f1 d1 6d bd dc 87 5b 3d
       0.029374508 0.13883258 -0.058061544 0.053596362
000170 cc a7 6b be ba da aa 3e 4d 69 c2 be a8 95 a9 3d
       -0.23013228 0.3337 -0.37970963 0.08280498
000180 0d f2 89 be 90 08 1e be b3 28 30 3d 93 cb 15 be
       -0.26942483 -0.15432954 0.043007564 -0.14628439
000190 d8 7c c9 be 9e 55 15 be 6d eb 33 3d 22 5b a5 bd
       -0.3935306 -0.14583442 0.04392569 -0.08074023
0001a0 50 49 3e be b5 f8 0c 3f 1e a1 3b 3e 64 1d 31 be
       -0.18582654 0.55066997 0.1832318 -0.17296368
0001b0 21 82 5d be c1 e8 57 be b3 87 45 3c ee 3e 07 3e
       -0.21631671 -0.21084882 0.012056279 0.132076
0001c0 36 be 6b be 86 88 8e 3d 38 fe af 3d 4a a0 f0 3d
       -0.23021778 0.069596335 0.0859341 0.11749323
0001d0 bf 45 d4 3d 2c be 5c be f1 3f 39 3c 5e 7a 2b be
       0.103648655 -0.2155692 0.011306749 -0.16745898
0001e0 4b 88 85 3d 34 35 9d 3c e0 4e a5 3d c5 04 17 3e
       0.065201364 0.019190408 0.08071685 0.14747913
0001f0 28 3c 6c bd 28 1b 82 3e 7f 5a 42 3e a6 81 71 bd
       -0.057674557 0.25411344 0.18979834 -0.058961533
000200 69 04 91 3e 5d 50 e2 be cd 1d be be 11 51 9f 3d
       0.28323677 -0.44201937 -0.3713211 0.07779134
000210 c0 32 4a bc d8 f3 6e 3e ec e2 94 3d b6 88 02 bd
       -0.012341201 0.23335207 0.072698444 -0.03186866
000220 d1 a2 93 3e 97 df b1 3e 5b d9 89 bd ee 16 a3 ba
       0.28835157 0.34740898 -0.067309104 -0.0012442747
000230 8a 31 31 3e d0 eb 22 3e 6c 03 86 bc 57 cb 80 be
       0.17304054 0.15910268 -0.016359054 -0.25155136
000240 84 a2 7f 3e 03 da b7 bd 0a 9c 95 bd b6 f3 37 3e
       0.24964339 -0.08977129 -0.07305153 0.17964062
000250 de 38 3d 3e 28 39 74 3e 80 ff 77 bd 1b a8 3c 3e
       0.18478724 0.23849928 -0.0605464 0.18423502
000260 24 be 00 3e e2 3a 24 be c5 0a 75 be 13 df 91 3d
       0.12572533 -0.16038087 -0.2392989 0.07122626
000270 40 24 af bd 73 e9 00 be 69 b1 6c 3e a6 e3 7c bc
       -0.08551836 -0.12589054 0.23114552 -0.015435135
000280 71 10 21 be c8 93 b0 3d 4a c9 38 3e a1 fa 58 3d
       -0.15728928 0.08621937 0.18045536 0.052973393
000290 2d f3 67 3e 49 8a 52 be a2 e5 c2 bd ed 98 d0 3d
       0.22651358 -0.20560564 -0.09516455 0.10185418
0002a0 57 56 4c be f1 9b 08 be 92 8f 4a 3e be bb 0e be
       -0.19954811 -0.13340737 0.1978133 -0.13938805
0002b0 2b ea 86 3c b9 e0 18 be 3d be ed bc 74 72 50 bc
       0.016469082 -0.14929475 -0.029021377 -0.0127226
0002c0 0f b1 aa 3d 35 74 cf 3c 07 94 01 3e 78 45 4a 3d
       0.083345525 0.025323967 0.12654124 0.049382657
0002d0 5c 70 b0 be d9 ab 2a 3e ff c3 eb bc c8 06 9b 3d
       -0.34460723 0.16667117 -0.028779982 0.07569653
0002e0 4d 3e 89 3e de b6 2c be e1 f0 90 3e b1 a0 38 be
       0.26805344 -0.16866633 0.28308776 -0.18030049
0002f0 51 db f9 3c 82 ac 11 3e 0a 8c ec bd 6d dd c6 3d
       0.030500086 0.14225963 -0.11550148 0.09710202
000300 da ff fa bc bf 76 48 3c 0d 2d 33 3d 51 a3 77 3d
       -0.030639578 0.0122353425 0.043744136 0.060458485
000310 87 cf f2 bd 61 3a 83 3e 3e 3b 85 3d 8d ce f8 bd
       -0.11855989 0.25630477 0.0650544 -0.121487714
000320 62 52 d3 bb f6 82 de 3b ec 85 9f 3d 89 b1 29 be
       -0.00644903 0.006790514 0.077892154 -0.1657163
000330 13 4a 72 3e 7f 55 e8 bd 89 b7 b0 3d 06 0b ad bb
       0.2366107 -0.11344432 0.086287566 -0.005280855
000340 76 c1 ca 3c dc ea e0 be 99 0c 80 be 54 cb c4 3c
       0.024750452 -0.43929183 -0.2500961 0.024022736
000350 13 f5 93 3d 19 25 36 3e 66 c3 86 be 5d de a6 3d
       0.072244786 0.17787589 -0.26320952 0.08147881
000360 0d 21 ac 3e b6 e4 71 3e 5e 44 a7 3d be c0 e0 bd
       0.33618966 0.23622403 0.08167337 -0.10974263
000370 ef 94 b3 3d da 26 f2 bd f8 b7 e6 be a1 45 3a 3e
       0.08768641 -0.118238166 -0.45062232 0.18190624
000380 79 42 21 3e f1 cf d2 bc c2 f3 28 3e 0d f6 4f be
       0.15748014 -0.02573392 0.16499236 -0.20308705
000390 34 af e2 3d d6 90 95 be 05 32 c5 3d 1d 2f 74 3d
       0.110685736 -0.29212064 0.09628681 0.059615243
0003a0 17 c5 94 bd d7 92 7c 3c 38 02 89 bc 50 eb 26 3e
       -0.072641544 0.015415869 -0.01672469 0.16300702
0003b0 73 e6 58 bd 03 45 b8 3e 80 72 49 3d 81 76 0f 3e
       -0.05295415 0.35990152 0.04918146 0.1401005
0003c0 58 22 0d bd 27 4a 28 be f3 55 8b 3d 69 ad 32 be
       -0.03445658 -0.16434537 0.06803503 -0.17448963
0003d0 fe d9 be 3b 60 f5 5a 3e 29 7c 7b 3d 02 b3 69 be
       0.0058243265 0.21382666 0.061397705 -0.22822192
0003e0 ae b3 e2 be ee dd c5 bd d2 7b c2 bd e0 67 40 3e
       -0.4427771 -0.0966147 -0.09496273 0.18789625
0003f0 e8 ff 80 3e 74 67 b3 3e a2 ab 7f 3d c8 d1 61 3b
       0.2519524 0.35039866 0.06241954 0.0034457315

shared_layers.2.bias f4 [64]
000000 43 b3 45 bd e3 88 57 3d 09 69 5b 3d 5f 4c 40 bd
       -0.04826666 0.05262078 0.053566966 -0.046947833
000010 d8 5a 25 3d 35 8a 44 3d c5 bf fd 3c ed cb 62 3d
       0.04036984 0.047983367 0.030975232 0.05537026
000020 61 2a f0 3c 3b cd 22 bd d9 d5 8a 3d 92 59 33 bd
       0.029317083 -0.039746504 0.067790695 -0.043786593
000030 e7 56 4f 3d 37 4a 48 bd ba 29 4a bd 50 53 86 3d
       0.050619986 -0.0488989 -0.0493562 0.06558859
000040 da 83 43 bd 44 b5 46 3d eb 55 4f 3d a5 3b 3d bd
       -0.047733165 0.048512712 0.050619047 -0.04619946
000050 b0 2d 43 3d 4e 61 3d bd 63 73 64 bd 03 5a 62 3c
       0.047650993 -0.046235375 -0.055774104 0.013815406
000060 d9 9f 53 bd 5d 8e 24 3d 4b e4 57 bd 27 54 48 bd
       -0.051666114 0.04017483 -0.05270795 -0.04890838
000070 71 57 6c 3d 0a d3 9d bc 5d 2b 46 bd 34 9a 29 3d
       0.057700578 -0.01926567 -0.0483812 0.041406825
000080 2a 7c 18 3d 3b ca ed bc a8 9c 54 3d 02 46 2b bd
       0.037227787 -0.029027095 0.05190721 -0.04181481
000090 fa 56 54 3d 5c 92 62 3d 57 ea 25 bd e1 1b e5 bc
       0.05184076 0.05531536 -0.040506687 -0.027967395
0000a0 e2 66 04 3d 47 b6 44 3d da e1 3c bd be bc 48 bd
       0.03232468 0.048025396 -0.046113826 -0.049008124
0000b0 af 1c b9 bc 37 45 81 3d c2 95 24 bd 4d d0 65 3d
       -0.022596685 0.0631203 -0.040181883 0.056106854
0000c0 5e 09 1f bd 72 b7 3d 3d bd e7 68 bd 4c 56 22 3d
       -0.038827293 0.046317525 -0.056861628 0.03963308
0000d0 57 9a 4e bd a0 6f 40 bd 11 8a 2c bd d6 da 4a 3d
       -0.05044016 -0.046981454 -0.042123858 0.049525104
0000e0 93 d3 62 bd 47 61 2e 3d d7 7a f4 bc 97 aa d0 bc
       -0.055377554 0.04257324 -0.02984373 -0.025471969
0000f0 9d 4e 42 3d 5a b6 0e 3d 3a b6 04 3d f8 47 37 3d
       0.047438253 0.034841873 0.032400347 0.04474637

output_layer.weight f4 [2, 64]
000000 e4 0d 8f bb 0e ab 9b 3b c0 32 46 3a e4 d7 2d bc
       -0.0043656696 0.004750616 0.0007560663 -0.010610554
000010 91 99 3e 3b 83 86 ee 3b 07 55 fc 3b dd 77 9b 3c
       0.0029083232 0.0072792186 0.0077005657 0.018978054
000020 1a eb 9a 3b 32 7f 04 bc 18 99 2c 3b 8a 2a c4 3a
       0.0047277333 -0.008086966 0.0026336368 0.0014966291
000030 1a 4b 20 3c bb 7b 25 ba 38 21 da bb 87 e5 0d ba
       0.009783531 -0.0006312688 -0.006656792 -0.00054129254
000040 a4 fd f9 bb 8f 6c 6f 3b a0 ed f9 3b d9 2f 97 bb
       -0.0076291133 0.0036533212 0.007627204 -0.004613858
000050 3c 80 e0 3b 31 ae ed bb bb c7 8c 39 a3 ed b3 3b
       0.006851224 -0.0072534312 0.00026851692 0.005490975
000060 c2 90 a8 bb d2 6a bb 3b 0d 90 17 bc 23 29 73 bc
       -0.0051442096 0.005719521 -0.009250653 -0.014841351
000070 14 fb 83 3c 20 cb 87 ba 2a bb 4d bc f6 ac 6a 3b
       0.016110934 -0.0010360219 -0.01255683 0.003580866
000080 d0 4a a0 3b ac ba 80 bb da 8c 3e 3c 33 82 27 bc
       0.004891731 -0.003928503 0.011630261 -0.010223913
000090 23 03 a3 3c ab 30 0c 3c e4 29 4e 3a 0a 92 c6 bb
       0.019898957 0.008556525 0.00078645186 -0.0060598897
0000a0 90 c3 ab 3b 5d a4 da 3a 09 cf ad bb 8d e3 ce ba
       0.0052418187 0.0016681064 -0.0053042215 -0.0015784368
0000b0 3c 54 44 bb 99 09 5b 3b f2 3a a6 3a c2 17 0d 3c
       -0.0029957434 0.0033422469 0.0012682362 0.008611621
0000c0 7e 47 a2 bb 07 79 4f 3c 2b 74 ea bb 72 21 d6 3b
       -0.00495237 0.0126631325 -0.0071549616 0.0065347487
0000d0 28 4f e5 bb 7a a6 67 bb fd 2c cf bb 83 c4 09 3c
       -0.0069979616 -0.003534703 -0.0063225017 0.008408668
0000e0 47 a0 1a bc 1f d6 c2 3b a2 ba b7 3a 04 f3 24 bb
       -0.009437627 0.0059459354 0.0014017413 -0.0025169263
0000f0 db 95 98 39 a4 3f 8c 3b 22 fc 9c 3b 8c 5c 08 3c
       0.0002910335 0.0042800475 0.0047907988 0.008322846
000100 c8 a7 31 bc b1 91 24 3c 23 21 ad 3c 36 75 93 bc
       -0.010843225 0.010044501 0.021133965 -0.018000226
000110 8e 9e e0 3c 96 67 ea 3c 70 e3 ff 3b 26 d6 5a 3d
       0.027419355 0.028613847 0.007809095 0.053426884
000120 41 7e 57 3b 75 81 05 bc cd 23 c6 3c 24 65 e5 bc
       0.003288165 -0.008148541 0.024186993 -0.02800233
000130 63 8c 25 3c 57 d9 4c bc 2d 15 3a bc 12 a2 01 3d
       0.010104272 -0.01250299 -0.011357588 0.031648703
000140 07 d1 ad bc 8b 60 5b 3c ee d3 d4 3c 4c 63 f7 bc
       -0.021217836 0.013389717 0.025979962 -0.030198716
000150 da e9 b9 3c da 48 8a bc 9f 83 ca bc f8 ca 40 bb
       0.022694517 -0.016880441 -0.024720965 -0.0029417854
000160 15 6a 87 bc ca 6e be 3c e8 30 29 bd b9 c1 81 bc
       -0.016530076 0.023246188 -0.041306406 -0.015839444
000170 97 9f 3d 3d 35 62 05 bb 43 04 c3 bc 84 ad df 3c
       0.046294775 -0.0020352725 -0.023805743 0.027304418
000180 45 08 2b 3c 65 4c 7a bc da 6b 9c 3c f5 3d 95 bc
       0.010438983 -0.015277003 0.019094396 -0.01821802
000190 d2 c4 db 3c a8 26 bf 3c e6 d9 9b bc 8e ec 72 bb
       0.02682725 0.023333862 -0.0190248 -0.0037067267
0001a0 dd dc 9d 3b ce ae 81 3c b6 80 8c bc 28 46 69 bc
       0.0048175887 0.015830424 -0.017151218 -0.014237918
0001b0 3f 10 af ba 22 e9 3c 3c 91 81 3a bc dc d5 55 3c
       -0.0013356282 0.011530193 -0.01138343 0.013051476
0001c0 88 75 b4 bc e6 7b 91 3c 9b 94 28 bd ee 44 db 3c
       -0.0220287 0.017759275 -0.041157346 0.026766267
0001d0 d0 96 73 bc 03 8b ad bc 0a 76 1a bc 19 3b c5 3c
       -0.0148674995 -0.02118445 -0.009427557 0.024076032
0001e0 49 57 3d bd 5f 06 89 3c b3 d0 d9 bb 00 a5 0a b5
       -0.04622582 0.01672667 -0.0066471933 -5.164911e-07
0001f0 b2 45 e8 3b d9 1e 96 3b 0d ee be 3b 1a f5 77 3c
       0.0070883865 0.004581314 0.0058267177 0.01513412

output_layer.bias f4 [2]
000000 4e ed fa 3c 90 3c ba bf
       0.030630734 -1.4549732

layers.0.weight f4 [64, 3]
000000 3a 70 34 3e f9 cd fd bd 12 98 81 3e c6 fc dd 3d
       0.17620936 -0.12392802 0.25311333 0.10839228
000010 bc c7 66 3e f8 8a 20 be cb 10 4d 3e c0 fb 51 be
       0.2253713 -0.15678012 0.20025937 -0.20506191
000020 d1 4e 51 3e 57 77 44 be b9 51 cb bd aa 8e 86 bd
       0.20440222 -0.1918615 -0.09927697 -0.0657018
000030 ed e9 e8 bd 28 ed f2 bd e1 60 ae 3d 2f 28 67 3d
       -0.11372743 -0.1186164 0.08514572 0.056434806
000040 d5 2c 7a be ad a9 c7 bd 4c ac 62 be 8d b3 8c be
       -0.24431165 -0.0974916 -0.22136039 -0.27480736
000050 e4 ea 06 3d de 41 83 3e 99 66 73 be a6 3b e6 3d
       0.032938853 0.2563619 -0.23769607 0.11241846
000060 d5 cb 22 3e f4 fe 22 3e df 14 82 3e 62 36 8d be
       0.15898068 0.1591757 0.25406548 -0.27580553
000070 10 f4 8d be ef 0f 7f be 4e d0 fd ba 66 57 4f bd
       -0.27725267 -0.24908422 -0.0019364448 -0.05062046
000080 dd 4a 88 3e 76 4f ad 3d 92 6d df 3d 7d 7a 2e 3e
       0.26619616 0.084624216 0.10909571 0.17038913
000090 a1 b3 73 bc d6 28 11 3e fb 01 78 3e 1b f4 14 bd
       -0.01487437 0.14175734 0.24219505 -0.03636561
0000a0 bd 61 2a be 9d 60 b9 bd 10 8d 1f 3d 3b 1d e7 bd
       -0.16638847 -0.09051631 0.038952887 -0.11284872
0000b0 f0 51 74 be a1 14 63 3e 0f 37 b2 3d e7 61 2e be
       -0.23859382 0.22175838 0.08701908 -0.17029534
0000c0 9d c2 7a 3d 1a 7e 7e 3e 82 c1 76 3e 2a 9c d6 bc
       0.061220754 0.24852791 0.24097255 -0.026197512
0000d0 c2 01 17 3e 6d 59 32 3e 03 b0 68 3e 35 bf 04 3e
       0.14746764 0.17416926 0.22723393 0.12963565
0000e0 db ce 6e bd 2b f3 00 3d 4e 0d 73 3e 65 32 4b 3e
       -0.05830274 0.031481903 0.23735544 0.19843443
0000f0 bb e7 7b be 46 9d ef bc cc c5 76 3e d9 4f 2a bc
       -0.24600117 -0.029249799 0.24098891 -0.010395014
000100 4c ed 53 be 82 76 0a 3e 07 3d b5 bc 96 81 fd bd
       -0.2069599 0.1352177 -0.022123827 -0.12378232
000110 71 c4 7e be bf 98 31 3e 39 9c 93 be 62 54 1e be
       -0.24879624 0.17343424 -0.28830126 -0.15461877
000120 5a 9a 88 be 77 54 b9 3d 68 b4 f9 3d 45 46 8d be
       -0.2668026 0.090493135 0.12192613 -0.27592674
000130 7e dc 40 3e 18 15 09 be f5 14 55 bd 93 84 fb bd
       0.18834111 -0.13386953 -0.05202194 -0.12281146
000140 63 f2 11 be 88 2e 39 3d 0d 77 45 be f2 6c 94 be
       -0.1425262 0.04521039 -0.19283696 -0.2898937
000150 91 37 1b bd 97 f1 99 be 94 29 52 be 1f 0b 1b be
       -0.03789479 -0.3006713 -0.20523673 -0.15140961
000160 79 0e 43 be 65 6d ac ba 66 9f 90 be 6d f9 22 3d
       -0.1904849 -0.0013155161 -0.2824661 0.039788652
000170 df 42 8c 3e 82 77 80 3e 22 52 cc 3d cf 05 ce 3d
       0.2739477 0.25091177 0.09976603 0.10059702
000180 47 27 5d 3e 0e 8a f5 bd cf f8 00 3e e5 4b 7e 3e
       0.21597014 -0.119892225 0.12594913 0.24833639
000190 b6 b5 0f 3e a5 04 62 3d 80 cc 06 3e 50 9d 86 be
       0.14034161 0.05518021 0.13163948 -0.26291895
0001a0 a1 89 63 3b 0b 5f 6a 3e 85 55 95 3e ff 51 44 be
       0.0034719484 0.22887819 0.2916681 -0.19171904
0001b0 7b 92 64 be a5 a6 ae 3d 1d dc a7 3d f3 94 2d be
       -0.22321503 0.08527879 0.0819628 -0.16951351
0001c0 6e ba 26 be 03 79 78 3e 5a 8b fe bb f1 9d 04 3d
       -0.16282055 0.24264912 -0.007768077 0.032377187
0001d0 13 2a 20 bd be de b4 3d 20 3b d7 3d 21 28 7b bd
       -0.039102625 0.08831547 0.10509324 -0.061317567
0001e0 dd d7 8e 3e 29 3c a5 bd d5 7a 4f be 07 55 f8 bd
       0.27899066 -0.08068115 -0.202617 -0.12125593
0001f0 00 d1 8e 3e 6e 74 94 be 8d 31 03 3d 9b a1 ae bd
       0.2789383 -0.2899508 0.032029677 -0.085269175
000200 be 34 8f be fb 15 eb 3d f2 a0 fe bd 41 12 39 3e
       -0.27969927 0.11478802 -0.12433042 0.1807337
000210 fe ff 33 be c4 2d 43 3e fb bf 86 bd 10 d6 9f bc
       -0.17578122 0.19060427 -0.06579586 -0.019511253
000220 ef 40 b0 3d f8 35 ef 3d ad bb 67 3e f6 e7 d6 bc
       0.08606135 0.116802156 0.22630186 -0.026233654
000230 59 fe 7a 3e f5 9e d5 bc b8 c0 d7 bd 70 7b 5a bb
       0.24511088 -0.026076773 -0.10534805 -0.0033337735
000240 de b0 a6 3d 07 18 44 3e 47 a2 89 be cf be 5d be
       0.081392035 0.1914979 -0.2688162 -0.21654819
000250 9e 50 80 3d 22 dd f8 bc 1a dc 4f 3d d4 71 55 3e
       0.062653765 -0.030378882 0.050747015 0.20844203
000260 f8 3a 5d 3e 96 41 2c 3e 72 6a b7 3d ae 73 d7 3d
       0.21604526 0.16821894 0.0895585 0.10520111
000270 42 b9 94 3e 69 0d 7a bd f4 54 67 3e 47 40 02 be
       0.2904759 -0.061047945 0.22591001 -0.12719832
000280 ce 76 f8 3d 1b 7a 0f bc 88 8d 25 3d 96 96 08 3e
       0.12132035 -0.00875714 0.040418178 0.13338694
000290 55 2b 8e bd bb 4e 21 be 79 fe 1e 3e 04 ed 3e be
       -0.06941859 -0.1575269 0.15526761 -0.18645102
0002a0 a2 a1 a1 bc a2 5c 91 be da be 0a bb e9 fb e5 3c
       -0.019730393 -0.28390986 -0.0021170885 0.028074222
0002b0 d9 f0 96 be b6 ab 51 be 36 26 3b 3e 19 d1 48 be
       -0.29480627 -0.20475659 0.18276295 -0.19611014
0002c0 cb 3c cc bd 67 ad 37 3d 76 b4 4c bc 86 15 de bd
       -0.09972533 0.044843104 -0.012494197 -0.10843949
0002d0 fa 15 81 be aa 90 c1 b9 61 62 9f bd b8 6c 95 be
       -0.2521208 -0.00036919612 -0.07782436 -0.29184508
0002e0 70 c6 77 3e 09 d3 a3 3d 37 cd a7 3d b5 98 db 3a
       0.24196792 0.07999236 0.081934385 0.0016753884
0002f0 81 da ac bd da c4 83 3a 2c 59 9a 3d 97 c5 a3 3d
       -0.08440114 0.0010053173 0.075365394 0.07996672

layers.0.bias f4 [64]
000000 f2 46 df bc 86 5b e8 bc 86 61 e1 3c 6f 07 e5 bc
       -0.027255509 -0.028363954 0.027512323 -0.027957646
000010 6f ed ea 3c 9c b3 e3 3c 34 83 e0 3c 7d 87 8e bc
       0.02867767 0.027795605 0.027406313 -0.01739859
000020 70 70 de bc 04 8f e0 bc 2d 4d df 3c 7e d9 e2 bc
       -0.027153224 -0.027411945 0.02725848 -0.027691599
000030 de c1 e1 bc f6 db e5 3c f1 2e df bc d5 00 e9 3c
       -0.027558263 0.028058987 -0.027244063 0.02844278
000040 9b 2c de bc a8 8e e5 bc ce 7d b8 bc 7d 04 e4 bc
       -0.027120879 -0.028022125 -0.022520926 -0.027834171
000050 b8 a0 df bc cc aa e6 3c a7 1b e0 3c 4a b9 e4 bc
       -0.027298316 0.028157614 0.027356936 -0.027920384
000060 e6 86 e2 bc d4 69 e4 3c ec aa e3 bc b1 2e df 3c
       -0.027652215 0.027882494 -0.027791463 0.027243944
000070 e5 c1 e3 bc ad ff f0 3c fe f5 dd 3c 14 33 e3 bc
       -0.027802417 0.02941879 0.027094837 -0.027734317
000080 f4 c6 e3 bc 72 da df 3c a7 d1 3b bc 8b b7 e4 bc
       -0.02780483 0.027325843 -0.011463559 -0.027919551
000090 ea 5c c6 bc ba 68 df 3c f7 49 f2 3c b2 28 e9 bc
       -0.024214227 0.027271617 0.029576285 -0.028461788
0000a0 7e 40 e4 3c c5 35 e1 bc 78 d5 bb bc 72 86 e0 3c
       0.027862784 -0.02749146 -0.022928938 0.027407859
0000b0 5c fa e2 bc a9 c5 f3 3c f5 c9 e2 bc 28 ed 0a bd
       -0.027707271 0.029757338 -0.027684191 -0.033917576
0000c0 60 5d de bc af 99 e4 bc d5 1d e0 bc 35 53 e0 bc
       -0.027144134 -0.027905313 -0.027357975 -0.027383426
0000d0 6a a4 e0 bc 8c 5a f1 3c 47 43 e5 3c 15 51 e1 bc
       -0.027422149 0.029462121 0.027986182 -0.027504483
0000e0 7c ce ee 3c 36 aa df bc 40 dc e0 3c 09 82 e3 3c
       0.029151194 -0.027302843 0.027448773 0.027771967
0000f0 a9 fe ed 3c 0e 7d e1 bc e8 d0 dd 3c d4 d2 eb 3c
       0.029052095 -0.027525451 0.027077153 0.028787054

layers.2.weight f4 [64, 64]
000000 43 88 28 3e 57 87 cc bd 0d 70 21 be a9 bb 32 3e
       0.1645823 -0.099867515 -0.157654 0.17454399
000010 6f 33 4a 3e 1b 35 44 be c6 1d 50 ba 7a 85 a2 bc
       0.19746183 -0.19160883 -0.0007939007 -0.019839037
000020 8a 69 1b 3e b2 fb 00 3e 0f bf 5d bd 5f 8d 0b 3e
       0.15176979 0.12596014 -0.054137286 0.13628148
000030 81 17 75 3d 00 18 2b bc cb bc 6a bd b0 a6 50 3e
       0.05983687 -0.010442734 -0.057308953 0.20376086
000040 43 c8 55 be 41 35 8d 3d 75 25 b5 bd 61 d6 92 bd
       -0.20877175 0.06894923 -0.08845035 -0.07169796
000050 8b ec dc 3d 7f bb 14 be 1e 79 25 be 1b b0 af 3d
       0.107873045 -0.14524649 -0.16159484 0.08578511
000060 1c 0a 06 3e a7 17 04 3e 9a a0 71 3d 59 3c 27 be
       0.13089794 0.12899648 0.058991052 -0.16331615
000070 db c8 2e be c1 47 b2 3d 13 6b 43 be 0a ca da 3d
       -0.17068808 0.08705092 -0.19083814 0.10683067
000080 1a ef 44 3e be 11 13 3e 0b 59 2a be 97 b7 1e be
       0.19231835 0.14362237 -0.1663553 -0.15499721
000090 95 99 4f 3a 77 6d 47 3e 90 4a 2e 3e 75 97 8b bd
       0.0007919309 0.19475351 0.17020631 -0.068159975
0000a0 d8 c3 66 3d ac 27 c2 bd a4 c4 48 bd b8 a1 e8 bd
       0.056339115 -0.09480223 -0.049015656 -0.113589704
0000b0 e1 94 c1 bc d4 f2 3a 3e 31 2f 14 bd b3 e0 17 3e
       -0.023630561 0.18256694 -0.036177818 0.1483181
0000c0 96 be 39 be 7a 4e 1b 3e 35 10 5d be bd 2f 9a 3d
       -0.18139109 0.15166655 -0.21588214 0.075286366
0000d0 12 e9 6d 3d c0 1f 13 be 3c 57 50 3e 91 38 f0 3d
       0.0580836 -0.1436758 0.20345777 0.11729539
0000e0 84 10 0b 3e 5a a4 af 3d af 6d df bb 99 9c dc 3d
       0.13580519 0.085762694 -0.006818495 0.10772056
0000f0 d7 24 52 bd 23 8e 25 3e f2 01 e0 bd 48 ea d8 bd
       -0.051304664 0.16167502 -0.10937871 -0.105915606
000100 4d 98 3b 3e 2f 6e 46 3e aa b6 5b be 55 b6 b0 bd
       0.18319817 0.19377969 -0.214564 -0.08628527
000110 56 24 06 3e 9a 56 88 3d 9b 73 8f bd e4 9f 38 3e
       0.13099799 0.06657143 -0.07004472 0.18029743
000120 86 72 f7 bd 4f 8c 50 be f2 8e 83 bd 01 06 2f 3e
       -0.120823905 -0.20366023 -0.06423749 0.17092134
000130 11 5d 45 bd 00 a3 ad bd f2 df 0c bd 17 fa 17 be
       -0.04818446 -0.084783554 -0.03439326 -0.14841495
000140 9a 6c 5a bd 2f c8 27 3e 10 ca 07 3e a5 38 dc 3d
       -0.053326227 0.16384958 0.13260674 0.107529916
000150 4b 72 29 3e 93 70 07 be 64 cf f1 bd 7a 2b 34 3e
       0.16547506 -0.13226537 -0.11807135 0.1759471
000160 b1 fe 2c 3e 58 c9 53 3e aa 06 81 3d a0 5a 10 be
       0.16894032 0.20682275 0.06300099 -0.1409707
000170 f7 8f 0a bd 3a 81 05 be 39 94 3f 3e ce b0 62 3d
       -0.0338287 -0.13037577 0.18708886 0.055344395
000180 7a 99 78 3d f4 95 43 be 0d 74 29 be c4 73 09 3e
       0.06069324 -0.19100171 -0.16548176 0.13423067
000190 4c 71 e7 bc f7 15 5d be 34 44 3e 3e 97 5f 92 bd
       -0.028252266 -0.2159041 0.18580705 -0.071471386
0001a0 32 0e 24 bc 50 43 1f 3e 4a 3d 37 be 26 ab 58 3e
       -0.01001315 0.15553021 -0.17894474 0.21159038
0001b0 bb 33 4f bd 9e 70 11 3e d4 c6 d6 3d 41 2d c2 3d
       -0.050586443 0.14203116 0.10487142 0.09481288
0001c0 56 96 26 3e 53 88 bf 3d 10 e7 a1 3c 90 f7 1c be
       0.16268286 0.09352174 0.0197635 -0.15328813
0001d0 4a 28 d2 3d c5 fb 90 bd c8 3a 2e 3d 48 2f 12 bd
       0.10261591 -0.07079271 0.042536527 -0.035689622
0001e0 f2 3b 50 be 8d c4 3d 3e 1a 0e 28 3e 36 f1 0d 3c
       -0.20335367 0.1853201 0.1641163 0.008663466
0001f0 d8 ed 01 be 42 82 6d bd 41 79 9a bd f1 e9 bb 3d
       -0.12688386 -0.05798555 -0.075426586 0.0917548
000200 79 d4 76 3d 30 54 ba 3d eb d0 5b bd d1 53 03 be
       0.060261223 0.09098089 -0.053666037 -0.12824942
000210 eb 31 a0 bc 9f 64 d1 bd 3c 7f 28 be c3 c8 e5 3c
       -0.019555053 -0.1022427 -0.16454786 0.028049832
000220 7e 20 25 3d fa c0 d7 3d f6 9e 11 be f0 25 15 3e
       0.04031419 0.10534854 -0.14220795 0.14565253
000230 54 e9 56 3e 99 f2 a5 3d 96 86 ce bc 30 73 95 3d
       0.20987445 0.081029125 -0.02521066 0.07297361
000240 7a 7b e7 bd 65 80 a2 bc 57 9b 68 3d da e8 3b 3e
       -0.11302848 -0.019836614 0.05678877 0.18350545
000250 47 bb 0d 3d 83 a5 4c be f9 f8 67 bd ea a7 d1 3d
       0.03460243 -0.19985013 -0.056633923 0.10237105
000260 e7 b5 d2 bd 0e 05 b3 bd 29 a4 d5 bd a5 5f 4e 3a
       -0.10288601 -0.087411985 -0.10431702 0.00078725285
000270 00 18 46 3b ef bc 96 bc 3a b4 51 be c9 25 07 be
       0.0030226707 -0.018400637 -0.20478907 -0.13198008
000280 49 42 02 3e bc 44 30 bc 7f de 26 bc ce e2 09 3d
       0.12720598 -0.010758575 -0.010184883 0.033663563
000290 bb 60 24 3e ff b4 18 be 73 41 8f bd b4 35 fd 3d
       0.16052525 -0.14912795 -0.06994905 0.12363759
0002a0 26 e6 01 3b 3e f6 74 3d 01 32 96 3d dc e9 c0 bd
       0.0019821017 0.059805147 0.07333756 -0.09419605
0002b0 73 70 05 3d 95 41 51 3d 3e e8 84 3c 4a 85 97 bd
       0.032577943 0.051087935 0.016224023 -0.0739847
0002c0 f5 fc 56 3e 5e 78 25 3e a0 8c d8 3c 4f c7 37 3e
       0.20994933 0.16159198 0.026434243 0.17947124
0002d0 56 37 92 bc ce 88 b6 3d 14 ab 5e bd 8b e6 8c 3d
       -0.017848652 0.08912812 -0.05436237 0.0687991
0002e0 ef 61 c6 bd 67 16 07 3d 32 a8 4d 3e ec 49 a3 bd
       -0.09686648 0.03298035 0.20083693 -0.07973084
0002f0 2d 23 c3 3d 50 54 ca bd 1a ab 89 3d 64 fc ad 3d
       0.095281936 -0.098793626 0.06722088 0.08495405
000300 eb 8b 56 be 8b 33 5f 3d 9d 5d f1 bd fc 38 26 bc
       -0.20951812 0.054492515 -0.117854334 -0.010145422
000310 0c 20 f9 bd 26 a4 50 3e db 37 a4 bc d5 11 34 3e
       -0.121643156 0.20375118 -0.020046165 0.17584927
000320 d8 7c 30 be 76 88 05 bc a9 87 17 bd b5 31 ac bc
       -0.17235124 -0.008150211 -0.03699461 -0.021019796
000330 33 0e 73 3d 9b 03 6e bd 63 b6 b0 3c 9a 60 26 be
       0.059339713 -0.058108907 0.021571344 -0.16247788
000340 61 4d 42 be ef ff fd 3d a1 f6 0b 3e 07 7d 87 3d
       -0.1897483 0.12402331 0.136683 0.06615644
000350 cc 5a ee bd f2 f2 bc 3d 20 82 2f be 18 97 3c 3e
       -0.11638412 0.09226026 -0.17139482 0.18417013
000360 9d be 20 3d 36 a7 93 bc f6 a6 6b 3d 16 87 c0 3d
       0.039244283 -0.018024068 0.057532273 0.094007656
000370 56 25 bb 3d 04 8f e9 bc 01 f3 ad bd d4 97 f4 3d
       0.09137981 -0.028510578 -0.08493615 0.119430214
000380 d2 9b 35 3e e9 78 40 3e ce 39 a2 3d 14 98 3e be
       0.17735222 0.18796124 0.079211816 -0.186127
000390 0b 56 42 3e 5e 44 e8 3d 5c 39 bb bd a9 de 33 be
       0.18978135 0.11341165 -0.091418 -0.17565407
0003a0 cf 89 3f be 5e ed a5 bd d5 77 11 3e 87 48 24 be
       -0.18704914 -0.08101915 0.14205869 -0.16043292
0003b0 54 ea f9 bd 03 86 d7 3d ea 29 cf 3d 19 d0 bc bd
       -0.12202898 0.105236076 0.10115416 -0.09219379
0003c0 ba ac c1 3c 03 56 5a 3e 3d 77 47 3e f6 62 69 3d
       0.023641933 0.21321873 0.1947908 0.056979142
0003d0 90 2e 48 bd 8a 1b 06 3e e8 cf 50 be cb 54 4b 3e
       -0.04887253 0.13096443 -0.2039181 0.19856565
0003e0 45 62 48 bd bb b0 5a 3e 9e b6 0a 3e 39 2e 3c 3e
       -0.048921842 0.2135648 0.13546225 0.18377008
0003f0 bb c0 75 3d a6 96 0c 3e 05 1d 55 3e 65 b8 eb bd
       0.059998255 0.13729343 0.20811851 -0.1150978

layers.2.bias f4 [64]
000000 c5 2d e4 3c 5b ec e5 bc c3 8b e4 bc 21 b6 e5 bc
       0.027853856 -0.028066805 -0.027898675 -0.028040947
000010 6c f2 d8 bc 29 92 df bc 8a 63 e6 3c 0d bc e5 3c
       -0.026482783 -0.027291374 0.028123636 0.028043771
000020 60 2c e5 bc 01 01 e5 3c f5 d3 02 3d 82 d1 e1 3c
       -0.027975261 0.02795458 0.03194042 0.027565721
000030 19 07 e2 bc 5c ec e3 bc 1b ca e6 3c 07 2a e5 bc
       -0.027591275 -0.027822666 0.028172543 -0.027974142
000040 e7 8d e5 3c 9c 02 e6 3c 43 4b e4 bc cc 3a e5 bc
       0.028021766 0.028077416 -0.027867919 -0.027982138
000050 78 10 e0 3c 2c 57 e2 3c c8 dd e5 bc da 1e e7 bc
       0.027351603 0.027629457 -0.028059855 -0.028212953
000060 5d 47 ed 3c 72 24 e5 3c f0 38 e2 bc 89 66 e6 bc
       0.028964693 0.02797148 -0.02761504 -0.028125064
000070 e5 77 e5 bc 21 d8 e3 bc 2b ad e9 3c 24 46 e1 bc
       -0.028011272 -0.02781302 0.028524956 -0.027499266
000080 7a 52 e0 bc ec 9d e1 bc 62 10 be 3c 4f 9f e6 3c
       -0.027383078 -0.027541123 0.023201171 0.028152136
000090 1a 49 e4 3c 33 15 e4 bc 1a b8 de bc 26 4d e2 3c
       0.027866889 -0.02784214 -0.027187396 0.027624678
0000a0 34 83 ea 3c a9 ec ef 3c cf 6e e5 bc 93 41 e3 bc
       0.028627016 0.029287653 -0.02800694 -0.02774123
0000b0 ec 92 e2 bc 49 81 de 3c b3 04 e0 3c 77 f0 e5 bc
       -0.027657948 0.027161257 0.02734599 -0.028068764
0000c0 62 bb e5 bc 0f e0 e5 3c 29 36 e5 bc 73 f7 e6 3c
       -0.028043453 0.028060941 -0.027979927 0.028194165
0000d0 00 3f e0 bc e3 da e2 bc 87 0f e8 3c 13 5d e5 3c
       -0.02737379 -0.027692264 0.028327717 0.027998483
0000e0 ac 14 e4 3c 53 0b e5 3c 1d f7 e2 bc e9 cf e4 bc
       0.027841888 0.027959501 -0.027705723 -0.02793117
0000f0 d7 4c e5 bc 5a f2 e8 3c 56 4b e3 bc cc 77 e6 3c
       -0.027990742 0.028435875 -0.027745884 0.028133295

output_layer.weight f4 [1, 64]
000000 cf 25 fb bd 1d de 02 3e 06 d9 86 3e 08 0e 70 3e
       -0.12263071 0.12780042 0.2633745 0.23442852
000010 65 53 7b 3e 51 f5 25 3e 34 44 8e bd 37 af 01 be
       0.24543531 0.16206862 -0.069466025 -0.12664495
000020 45 e2 4e 3e 12 84 ec bb 3f 96 cb bb 91 51 47 be
       0.20203502 -0.0072178924 -0.006212979 -0.19464709
000030 63 42 9c 3b 9f e7 27 3e b7 ee 41 be 28 c1 69 3e
       0.004768656 0.1639695 -0.18938719 0.2282759
000040 32 0e 6a bd bb f1 61 be 86 0d 7e 3e d2 84 9d 3d
       -0.057142444 -0.22064869 0.24809846 0.07691349
000050 f0 d1 51 bd 71 76 63 bd 1e 02 9e 3e d7 3b 79 3e
       -0.051225603 -0.055532876 0.3086099 0.24339233
000060 d8 c2 95 bc 30 a2 5e be e2 02 5a 3d e6 e6 dc 3d
       -0.018281385 -0.21741557 0.053225406 0.10786228
000070 e7 e1 8c 3e f9 0d 59 3e b9 41 6d bc 98 42 82 3e
       0.275161 0.21196736 -0.0144810015 0.25441432
000080 13 1c e7 3b 59 89 1b 3d 55 59 65 bb 30 f0 89 bd
       0.0070529073 0.03797278 -0.0034995873 -0.06735265
000090 61 8e 91 be 23 22 24 3d b3 42 7b 3e 2e 34 6e be
       -0.2842894 0.040071618 0.24537162 -0.23262092
0000a0 8f 67 e3 bd 63 af d7 bc b2 e6 d7 3d 7c 42 6a 3e
       -0.111037366 -0.026328748 0.105420485 0.22876924
0000b0 ed d8 75 3e 37 dd d2 bd 68 16 d9 bd f8 b7 8b 3e
       0.24008532 -0.102961 -0.10599977 0.27288795
0000c0 b0 52 bc 3d 78 8d 84 be 1c 0b 1a 3e 4a f3 43 be
       0.09195459 -0.25889182 0.150433 -0.19135776
0000d0 9c 40 66 3e 0c f7 83 3e a5 1b 7c bc 8f 76 09 be
       0.22485584 0.2577442 -0.01538745 -0.13424133
0000e0 88 29 6a be 2d ce 82 be c3 78 0f 3d 27 a9 4f 3d
       -0.22867405 -0.25547925 0.035027277 0.050698426
0000f0 89 15 3f 3b 8e 86 c6 bc ff 5c 6e 3e 63 c5 96 be
       0.0029157123 -0.024234083 0.23277663 -0.2944747

exp_avg f4 [64, 3]
000000 d2 d8 0d b9 33 5d 65 b8 fc 3b 91 b6 05 24 90 ba
       -0.0001352758 -5.4684653e-05 -4.32832e-06 -0.0010997063
000010 54 e1 f0 39 c7 1a 5a ba 04 2c 14 b9 f5 1b 40 b8
       0.0004594425 -0.000832003 -0.00014130777 -4.5802404e-05
000020 76 0d a3 b8 ed ff da b9 01 1c d7 39 ba 4e 8a ba
       -7.774953e-05 -0.0004177088 0.0004102886 -0.0010552027
000030 44 7e 3c 3a 67 4c ec b9 10 d6 b8 b8 0b 50 15 3a
       0.0007190446 -0.00045070352 -8.813676e-05 0.0005695826
000040 e2 a4 94 b9 e9 0e e7 b9 12 e0 b8 39 80 c1 13 b8
       -0.00028351607 -0.00044070862 0.0003526216 -3.5227742e-05
000050 c8 8c d1 39 1f 75 2a ba 14 d8 0e 3a 95 3a c3 ba
       0.00039968477 -0.0006502438 0.0005449068 -0.0014894778
000060 c5 10 28 3a 3a f3 48 b9 42 c6 15 3a 63 88 88 ba
       0.000641119 -0.00019164095 0.00057134416 -0.0010416623
000070 36 f4 5b 3a b1 ed f8 ba 16 99 13 3a 8e c9 a4 b9
       0.0008390577 -0.0018991736 0.00056304166 -0.00031430688
000080 48 78 dd b8 f9 28 1c 39 9e 8c b5 38 f4 47 ce 38
       -0.00010560505 0.00014892583 8.6569446e-05 9.836248e-05
000090 5a 8f 12 39 26 b5 b4 38 56 92 97 b6 97 ef 4d ba
       0.00013977048 8.6168104e-05 -4.5171864e-06 -0.0007855831
0000a0 19 37 d9 39 9c 89 14 3a ad 82 99 b7 bf b6 3b 38
       0.00041430516 0.00056662573 -1.8299872e-05 4.475447e-05
0000b0 ae d8 8a b7 53 3b fd 38 2c 49 f6 38 ea 67 96 b9
       -1.6551781e-05 0.0001207503 0.000117438234 -0.00028687652
0000c0 2a bd 52 b9 67 7a bd 39 9f 2f b6 39 07 4b e8 38
       -0.0002009763 0.00036140086 0.00034749226 0.00011076597
0000d0 b1 1d 25 b9 c8 cf 13 39 01 50 49 ba d4 04 01 3a
       -0.00015746687 0.00014096417 -0.0007679463 0.0004921679
0000e0 1c 93 4c ba b8 4b 4a ba 9b 56 ef 39 40 77 de ba
       -0.00078039034 -0.00077169714 0.00045650158 -0.0016972795
0000f0 06 22 1d 3a 1c fd 9f b8 c6 dd 90 39 30 20 10 ba
       0.00059941446 -7.628856e-05 0.00027631054 -0.00054979604
000100 de ad f9 39 53 6b 89 ba 08 98 2b 39 a6 9e 5c b9
       0.00047622522 -0.0010484256 0.00016364467 -0.00021039936
000110 19 6c bb 39 bb 7b 45 3a 76 67 b3 b9 03 d4 9c 39
       0.00035747958 0.0007533391 -0.00034218625 0.000299126
000120 33 1a 7e 3a a7 e1 06 ba 4e 00 9b 3a 96 bd 59 ba
       0.0009693235 -0.0005145319 0.0011825652 -0.00083061436
000130 59 dd 10 39 4a 73 82 ba 3a 4f 26 3a f1 30 e4 b9
       0.00013815369 -0.0009952572 0.0006344203 -0.00043524013
000140 69 d8 11 ba 23 6f 8b b9 f6 df ee 37 87 eb 7c b9
       -0.00055635587 -0.0002659495 2.84761e-05 -0.00024120334
000150 60 2a ab 39 a5 dc 88 b9 f3 78 7a 38 13 18 95 ba
       0.00032647233 -0.00026104334 5.9717288e-05 -0.0011374973
000160 30 fe 1e 3a 07 e1 cf ba d9 a0 b3 b7 a3 97 aa b8
       0.00060650986 -0.001585991 -2.1413363e-05 -8.134476e-05
000170 31 d8 fc b8 43 20 23 38 15 2b 3f b8 ca ea 5b 39
       -0.00012056565 3.8892274e-05 -4.5578072e-05 0.00020972933
000180 f4 c3 20 ba bb 79 f3 39 f2 24 86 ba dc 71 1e b9
       -0.0006132715 0.00046439268 -0.0010234399 -0.0001511047
000190 88 08 95 39 a9 fb fe b9 31 2a 67 b9 8e 0c 59 39
       0.0002842585 -0.00048634157 -0.00022045594 0.0002069941
0001a0 bf 49 b3 b9 a2 49 d9 38 4c 5c 50 38 43 ab 33 ba
       -0.00034196486 0.000103610815 4.9677023e-05 -0.0006853828
0001b0 85 37 62 38 b2 92 b6 b9 d4 70 09 3a 4a 5e 2e 3a
       5.3934305e-05 -0.00034823042 0.0005242948 0.00066516234
0001c0 fd 23 c6 b9 94 4b 1b ba 08 07 ac 38 66 c0 b0 38
       -0.00037792316 -0.0005924043 8.202909e-05 8.428171e-05
0001d0 54 11 f2 37 e4 08 98 38 5a d5 23 39 cf 80 5a 39
       2.8856717e-05 7.249581e-05 0.00015624371 0.00020838085
0001e0 73 cd a3 b9 6b 4f 02 39 7c c5 63 b9 cc 71 ed b8
       -0.00031242854 0.00012427352 -0.00021721976 -0.00011322237
0001f0 99 0e 94 38 60 83 db b5 a1 77 aa b8 56 7c 8c b8
       7.059909e-05 -1.6355007e-06 -8.128514e-05 -6.6988796e-05
000200 34 b8 91 36 c6 55 19 3a 0b 79 bb b9 27 e3 44 b9
       4.342781e-06 0.0005849268 -0.00035757603 -0.00018776637
000210 f3 75 b4 b9 cf 3e a1 39 54 54 85 38 fa 46 5c 3a
       -0.00034420154 0.0003075511 6.3576415e-05 0.00084029103
000220 22 1e e9 b9 5d 72 af 3a 7a a5 12 ba 16 0f 68 39
       -0.00044463674 0.0013385523 -0.0005594116 0.00022130864
000230 ef 3d 99 ba 36 cb cd 38 33 07 b2 b8 d0 6b f0 b9
       -0.0011691431 9.813013e-05 -8.4890424e-05 -0.00045856694
000240 03 80 f9 b8 ae 23 55 b6 2b 7a ca b8 26 31 b1 39
       -0.00011897089 -3.1760242e-06 -9.654866e-05 0.0003379669
000250 26 cc 1c b9 4b 88 96 39 8b ac 24 b9 74 5a a4 b7
       -0.0001495337 0.00028711776 -0.00015704536 -1.9592444e-05
000260 d6 f6 c4 b8 dd 0e 19 ba 94 d4 c4 39 41 4c cf 38
       -9.391985e-05 -0.00058387016 0.00037542416 9.8847326e-05
000270 8a fa f0 b7 48 8a 7d b8 9b fc 47 b8 7c bf 1f b9
       -2.8726896e-05 -6.0448685e-05 -4.7680554e-05 -0.00015234755
000280 68 db c0 38 8b 6c 9d b9 a7 9e 09 39 c2 be 22 b9
       9.196141e-05 -0.00030026244 0.00013124441 -0.00015520587
000290 70 fc 80 39 1e 85 a6 b9 e3 22 49 39 cf 12 8b 36
       0.00024602143 -0.00031761167 0.0001918185 4.1447124e-06
0002a0 1f fd 39 ba 5d 68 88 39 bf 79 14 ba a3 d8 ae b9
       -0.0007094908 0.00026017698 -0.00056638935 -0.00033349273
0002b0 3b fc ca 39 b0 2b c5 b9 5a a5 a2 38 e3 39 c8 37
       0.0003871637 -0.00037607318 7.755561e-05 2.3868814e-05
0002c0 dd df 4e 36 e2 13 c2 39 f4 25 03 ba 36 81 85 3a
       3.0826698e-06 0.00037017377 -0.0005002909 0.0010185603
0002d0 b8 f9 99 b9 91 a3 ee 39 16 54 35 ba 84 c0 b2 39
       -0.0002936849 0.00045516764 -0.0006917132 0.0003409424
0002e0 5d 73 74 b9 29 5d 45 3a 63 d8 2c b9 40 6e 3e 39
       -0.0002331263 0.00075288356 -0.00016483809 0.00018160883
0002f0 8e df 55 38 b7 0a b0 b9 3b 58 8b 39 cb 27 95 b9
       5.099136e-05 -0.0003357732 0.00026577883 -0.00028449143

exp_avg_sq f4 [64, 3]
000000 c8 d9 4d 32 47 bf 11 32 9a 85 77 33 43 6b 86 34
       1.1982088e-08 8.483602e-09 5.763068e-08 2.5037488e-07
000010 2d 73 8e 34 90 06 5c 36 77 74 13 32 e0 8e 9e 31
       2.6533363e-07 3.2786375e-06 8.583007e-09 4.614648e-09
000020 94 18 28 33 0d 39 be 33 25 5b c4 33 51 3b 69 35
       3.9137902e-08 8.857942e-08 9.14354e-08 8.688558e-07
000030 df 12 ab 34 d4 64 a7 34 0e 3e 54 36 4a 66 09 35
       3.1864963e-07 3.1179536e-07 3.1626582e-06 5.118533e-07
000040 78 9c ff 34 2d f4 50 36 82 1d 97 32 89 2e f6 32
       4.7611297e-07 3.1136544e-06 1.7592132e-08 2.8659331e-08
000050 0a fb 60 34 df 42 63 34 16 0c 78 34 cd d8 05 36
       2.0952953e-07 2.116535e-07 2.3101197e-07 1.994474e-06
000060 c8 43 b0 33 42 45 f3 33 0d f8 2e 35 21 5b 36 35
       8.207968e-08 1.1328167e-07 6.518101e-07 6.7932893e-07
000070 cf 7b 32 35 0c 1d d2 36 a9 3f 6c 34 27 f0 60 34
       6.649033e-07 6.261869e-06 2.2002372e-07 2.0948993e-07
000080 00 8d e4 35 1e 7a c0 32 ac 19 5a 32 74 2c 07 33
       1.702836e-06 2.2407274e-08 1.2695107e-08 3.1472567e-08
000090 0d 2a 24 32 7d 91 ad 31 87 50 e6 32 56 ff 99 34
       9.555618e-09 5.0515028e-09 2.6812144e-08 2.8684252e-07
0000a0 cb c2 83 34 fa ae 5e 36 76 fc 4c 32 c3 39 4e 32
       2.4542382e-07 3.3182428e-06 1.1931766e-08 1.2003912e-08
0000b0 ee 31 2e 34 75 57 0e 32 8f fe 43 32 b9 00 38 34
       1.6223177e-07 8.285373e-09 1.1408374e-08 1.7136598e-07
0000c0 1a c9 08 34 7d d5 ed 33 07 21 fc 35 5b fe dc 32
       1.2739147e-07 1.1075006e-07 1.8785075e-06 2.5727038e-08
0000d0 15 6d cb 32 f9 28 55 34 81 5c 61 34 c0 bd 67 34
       2.3681915e-08 1.9852077e-07 2.098841e-07 2.1582582e-07
0000e0 40 21 23 36 c0 4b 3b 34 13 17 7f 34 97 87 0c 36
       2.4308247e-06 1.744329e-07 2.375712e-07 2.094055e-06
0000f0 c1 30 1a 33 d2 6f 29 33 91 3d 98 34 2c 5c 9a 34
       3.590026e-08 3.945008e-08 2.8357002e-07 2.87518e-07
000100 6c 41 a4 34 6c 51 14 36 c6 cf 26 33 d5 50 f5 32
       3.059498e-07 2.2101112e-06 3.8838856e-08 2.8558512e-08
000110 43 65 88 34 74 61 d3 34 ca ea af 34 5b 96 35 36
       2.5405652e-07 3.937272e-07 3.2767122e-07 2.705862e-06
000120 ce e8 9c 34 40 84 9f 34 6d 55 40 36 20 92 79 33
       2.9226652e-07 2.9712282e-07 2.8659954e-06 5.810773e-08
000130 3a f6 96 33 eb c4 30 35 c5 c0 13 35 59 2b f2 34
       7.029708e-08 6.585166e-07 5.5042284e-07 4.5107552e-07
000140 38 7c a5 36 f0 ab e7 32 06 63 1c 33 3d 1b ee 33
       4.931844e-06 2.6970127e-08 3.641164e-08 1.1087693e-07
000150 54 a9 e2 33 a6 d0 ff 33 d1 f6 9a 35 fa db 1d 35
       1.0554746e-07 1.1912316e-07 1.1545727e-06 5.8807166e-07
000160 2f 33 24 35 36 1e b3 36 b2 8c b8 32 24 cf b4 32
       6.116924e-07 5.3381327e-06 2.14844e-08 2.1048955e-08
000170 c7 bf 57 34 5b 02 ee 32 2c 4b d1 32 eb 7b 22 34
       2.0093204e-07 2.7707918e-08 2.4364986e-08 1.5132507e-07
000180 e8 04 6f 34 82 58 6f 34 9e cc f9 35 b1 57 ba 33
       2.2260394e-07 2.2290808e-07 1.8611497e-06 8.677251e-08
000190 7e 56 ca 33 f2 c4 0a 35 a1 92 13 34 b1 65 d6 33
       9.422091e-08 5.16956e-07 1.3743785e-07 9.983649e-08
0001a0 97 53 f6 34 56 92 31 32 03 d8 18 32 5f 43 a9 34
       4.588189e-07 1.0336029e-08 8.89668e-09 3.1527722e-07
0001b0 e9 88 3e 33 50 4a 80 33 3c 34 12 35 a3 da 23 35
       4.436234e-08 5.973982e-08 5.446525e-07 6.104039e-07
0001c0 17 a2 00 35 55 41 99 36 e2 f9 8b 31 39 c3 ce 31
       4.791959e-07 4.567361e-06 4.073841e-09 6.0175833e-09
0001d0 cc 8b 2e 33 c0 f1 09 34 ef 1e cb 33 1b db 90 34
       4.0639677e-08 1.2847067e-07 9.458551e-08 2.698151e-07
0001e0 a0 8b 62 33 c4 e0 58 33 3f a7 23 34 dc 4b a4 33
       5.2746714e-08 5.0495842e-08 1.5241402e-07 7.650644e-08
0001f0 bc 75 4e 33 c2 fc 40 34 fa f6 5e 32 1c 21 dc 31
       4.807019e-08 1.7973346e-07 1.2978257e-08 6.406607e-09
000200 6d 21 b8 32 2c 1b c3 34 ca f0 ad 34 a9 47 53 36
       2.143562e-08 3.634135e-07 3.2398958e-07 3.1483162e-06
000210 be 25 ca 34 7e 3f af 34 d8 35 29 36 31 33 d4 34
       3.7652893e-07 3.2642487e-07 2.5214304e-06 3.9525324e-07
000220 f4 3e b3 34 40 a7 2b 36 75 fa 3a 33 32 78 a7 33
       3.3387153e-07 2.5578338e-06 4.353429e-08 7.798407e-08
000230 67 e8 63 35 05 1a 98 32 e7 09 91 32 f7 37 04 35
       8.490228e-07 1.7706961e-08 1.6884725e-08 4.925527e-07
000240 b2 08 37 32 61 34 69 32 34 75 14 33 95 6d e4 33
       1.0653979e-08 1.3574295e-08 3.456553e-08 1.063701e-07
000250 34 8b db 33 cc b7 01 35 74 5d 6f 31 f8 c9 42 31
       1.0223303e-07 4.8323705e-07 3.48322e-09 2.8345521e-09
000260 ac 18 c6 32 c4 09 36 34 e7 1e 1c 34 2e 63 0e 36
       2.3061453e-08 1.6953624e-07 1.4539874e-07 2.121738e-06
000270 e2 b7 84 32 07 56 28 32 5b 39 a9 33 19 36 57 32
       1.5450443e-08 9.798447e-09 7.880109e-08 1.25269475e-08
000280 d3 06 4d 32 68 e4 72 33 bb 89 78 32 60 63 60 32
       1.1934122e-08 5.655275e-08 1.4466816e-08 1.3061111e-08
000290 39 f4 da 33 b4 7d 62 33 9f 12 8b 33 2c a5 30 35
       1.019584e-07 5.2734052e-08 6.476079e-08 6.5805466e-07
0002a0 eb 21 5e 34 07 e2 6b 34 a9 3b b3 35 a3 7b 02 34
       2.06877e-07 2.1968309e-07 1.3353903e-06 1.2152172e-07
0002b0 4c 97 db 33 26 fc 8f 35 98 9b 9e 32 2b 28 6d 32
       1.0225503e-07 1.0727715e-06 1.8464377e-08 1.3804349e-08
0002c0 ad fe 95 33 16 c0 32 34 6e 64 2c 34 16 72 91 35
       6.9846784e-08 1.6647422e-07 1.6055284e-07 1.0836545e-06
0002d0 1e 35 31 34 1c 7f 6c 34 72 47 0d 36 e5 14 82 33
       1.6503733e-07 2.2025455e-07 2.1052224e-06 6.0573974e-08
0002e0 bb e4 37 33 03 5b cd 34 5a 0b 40 34 5a 26 15 34
       4.2816037e-08 3.8250445e-07 1.7885523e-07 1.3890659e-07
0002f0 86 dd 7d 35 a7 14 48 34 b5 81 26 34 7f 32 48 35
       9.4572204e-07 1.8633965e-07 1.5507142e-07 7.457929e-07

exp_avg f4 [64]
000000 02 fa e6 37 18 9d 1d bb 7c 19 5e b8 07 3d b0 ba
       2.7534556e-05 -0.0024049934 -5.295266e-05 -0.0013445922
000010 f3 de 0f 3b 85 e0 4d 3b 13 bb 01 3a a4 ab 02 bb
       0.0021952956 0.0031414342 0.00049488357 -0.0019938732
000020 e2 fe ce 3a bb 16 78 bb ae 62 02 3b a4 3b e2 b9
       0.0015792514 -0.0037855345 0.0019895243 -0.00043150515
000030 24 3e 1e b9 03 cc 13 bb bc fd f5 b9 25 ed 2f 39
       -0.00015091203 -0.002255202 -0.00046919088 0.00016777644
000040 2e 87 9b ba fa c7 6b 3a 93 01 1d bb 4b 89 d2 ba
       -0.0011865848 0.00089943374 -0.0023957237 -0.0016062645
000050 0e 7a 89 3a a8 2f 03 bb e4 d9 74 3a 25 27 25 3b
       0.0010488646 -0.002001742 0.00093403296 0.0025200334
000060 cf 3b 24 3b b8 7b a2 ba 57 69 51 3b e6 1e 0f ba
       0.0025060063 -0.001239649 0.0031953657 -0.00054596213
000070 fd 50 9f 3a d1 00 6a bb ae b4 0e 3a 66 57 ee 39
       0.0012154874 -0.0035706053 0.00054437935 0.00045460014
000080 bc e8 fe ba 63 b3 a1 ba d4 6d a8 ba c1 4b a7 38
       -0.0019448022 -0.0012336787 -0.0012850114 7.977291e-05
000090 ee ff 6d 3a c9 80 41 3b e6 3f 61 b9 91 55 6d ba
       0.0009078969 0.0029526225 -0.00021481476 -0.0009053583
0000a0 89 65 81 ba d4 f1 40 ba 4c 63 95 39 f4 29 09 3b
       -0.0009872179 -0.0007360254 0.00028493477 0.0020929547
0000b0 85 45 1d bb 71 c2 26 3b 87 18 80 ba bf c7 f7 39
       -0.0023997736 0.0025445486 -0.0009772935 0.00047260334
0000c0 02 47 a9 b9 f6 36 b1 3a 25 5d 68 b8 13 a3 dc ba
       -0.00032287097 0.0013520408 -5.5399858e-05 -0.0016833268
0000d0 c1 6a f6 39 8b 1f 13 ba 21 98 29 3a c8 49 63 ba
       0.00047000314 -0.0005612305 0.00064695074 -0.0008670357
0000e0 f8 e8 1a bb de 52 c8 ba 26 d3 6c 39 09 1c 00 3b
       -0.0023637395 -0.0015283485 0.00022585373 0.001954796
0000f0 7a 33 ce ba 69 a0 81 3a 71 bf bf ba 9e 5b f8 ba
       -0.0015731894 0.0009889725 -0.0014629198 -0.0018948202
