experiments/config_test_learning_rate_override_20250828_130747/checkpoints/final.pt (torch, 212301 bytes, 22 tensors)

layers.0.weight f4 [64, 4]
-0.09526923 0.10663563 -0.16470963 0.027756011 -0.2106597 0.16945662 0.10255118 0.06595162
-0.15056968 0.18122694 0.27057695 0.044314746 -0.14806776 -0.015253754 0.039662875 0.2223314
-0.02593294 0.049434 -0.25414252 0.22412424 -0.27539223 0.08986259 -0.085396625 -0.17708774
0.27383277 0.29259184 -0.2282726 -0.25608948 0.26492247 -0.029112514 0.12600394 0.108865105
0.22508162 0.02569346 -0.10458112 0.045667637 -0.079203874 -0.22157946 0.050185937 -0.14142345
0.09954061 -0.07028246 0.24517812 -0.19606423 0.10151907 -0.2684491 -0.14853868 0.049118668
-0.28190628 -0.21052447 0.15630418 -0.053905025 0.19175963 -0.027242348 0.25585485 -0.23553914
-0.055730116 0.112125486 -0.19077486 0.1836737 -0.18697742 0.017603874 0.19573583 0.2437039
0.23922262 -0.22392052 -0.21851204 -0.017802598 -0.19948721 -0.054869395 0.24375875 0.0455045
-0.19592644 -0.20164908 0.16490616 0.12885855 0.06406272 0.10946078 0.028900193 -0.27601546
-0.23729008 -0.1630868 0.058457002 0.01308745 -0.24162139 -0.119562596 -0.18321835 0.24303125
-0.012646059 -0.2303409 -0.09592273 -0.13845244 0.004953495 0.06544996 -0.10608138 0.082079165
0.28569338 -0.014464845 -0.23268655 -0.08920406 -0.2715184 -0.07310439 -0.107805945 -0.23870222
-0.060434956 -0.050557856 -0.2515375 -0.031005945 -0.18022539 -0.17932037 -0.041792672 0.083304435
-0.15160458 0.25356713 0.07956598 -0.07078037 0.15233907 0.08586564 0.16584939 0.13541143
0.27989414 -0.24649581 0.048718035 0.15747695 -0.21155463 -0.03718535 -0.05893798 -0.015254922
-0.041202877 -0.12567154 -0.26496732 -0.04318519 0.2533876 0.2663195 -0.033683505 0.087730594
-0.035976294 -0.026338141 -0.24709782 -0.006932124 -0.13179082 0.2482812 -0.21582945 0.19249277
0.20224334 -0.2551238 0.29419738 0.26309142 -0.12808862 -0.22111675 -0.018906517 0.07124793
-0.22946271 -0.11114256 -0.17550004 -0.12574764 -0.06708759 -0.20676455 0.28015095 -0.09792809
0.2707451 -0.20208517 0.2586114 -0.27906582 -0.09151983 -0.22374326 0.083245866 0.25388896
0.1705395 0.04487508 -0.04080982 -0.103447095 0.07343948 -0.2675394 0.20936237 0.09512947
-0.19723009 0.116665035 -0.2599681 -0.18803807 -0.24989095 0.2137283 -0.07398182 -0.008662349
-0.18439493 0.11459554 0.13916089 -0.27937108 0.23680754 0.23293464 -0.259449 0.03881579
0.1823295 0.031572618 -0.16941093 0.2884303 -0.13641998 -0.28017488 0.26064086 -0.11853085
-0.09589493 0.12172235 0.069464654 0.2707389 0.23594417 -0.27746367 -0.018474722 0.18753818
-0.25892204 -0.06119802 -0.19898541 0.0841159 -0.043633945 0.26443487 0.11099217 0.08427734
-0.17525387 0.2245452 -0.063375615 -0.26435214 -0.023384415 0.020377964 0.19746761 0.0062205517
-0.10390484 -0.2735567 0.17049226 0.268128 0.22614062 0.19765434 -0.10545876 -0.096137606
-0.0757748 0.12460668 -0.15332398 0.20869619 -0.068710975 -0.13198327 -0.24457465 0.11964989
0.13082308 0.14559862 -0.025734322 -0.06519695 -0.04733639 -0.09576211 0.16907227 0.021305256
-0.15673234 0.07551973 0.21827337 -0.21764009 -0.11196416 0.09241473 0.2664129 -0.2271553
00000000: 841c c3bd c863 da3d a4a9 28be 9360 e33c
00000010: 2db7 57be 0986 2d3e 5a06 d23d a511 873d
00000020: f02e 1abe 8e93 393e 1089 8a3e 6183 353d
00000030: 139f 17be e2ea 79bc 8a75 223d d8aa 633e
00000040: 5171 d4bc 4e7b 4a3d f81e 82be d380 653e
00000050: 3600 8dbe e109 b83d 6de4 aebd 7d56 35be
00000060: cf33 8c3e 99ce 953e 4bc0 69be 291e 83be
00000070: eba3 873e 5e7d eebc 2d07 013e abf4 de3d
00000080: cc7b 663e 177b d23c a02e d6bd fd0d 3b3d
00000090: a435 a2bd bae5 62be c58f 4d3d 4fd1 10be
000000a0: f3db cb3d 40f0 8fbd f90f 7b3e 10c5 48be
000000b0: 3be9 cf3d 2972 89be 861a 18be a830 493d
000000c0: 0556 90be ba93 57be 340e 203e 84cb 5cbd
000000d0: a35c 443e 582b dfbc 68ff 823e 2c31 71be
000000e0: 4345 64bd 0ca2 e53d 7c5a 43be f514 3c3e
000000f0: 0277 3fbe 0036 903c f96e 483e 848d 793e
00000100: c6f6 743e 6c4b 65be 9fc1 5fbe c1d6 91bc
00000110: 6046 4cbe bbbe 60bd e59b 793e ed62 3a3d
00000120: f1a0 48be 197d 4ebe 29dd 283e 7ff3 033e
00000130: 5133 833d f92c e03d 19c0 ec3c e651 8dbe
00000140: 2cfc 72be 3a00 27be 9c70 6f3d be6c 563c
00000150: 996b 77be 3cdd f4bd 979d 3bbe 2fdd 783e
00000160: 6a31 4fbc 7cde 6bbe 2373 c4bd 7ac6 0dbe
00000170: ee50 a23b a10a 863d 3241 d9bd 1f19 a83d
00000180: 6746 923e f5fd 6cbc 6245 6ebe 9eb0 b6bd
00000190: 7604 8bbe c1b7 95bd 5dc9 dcbd 5b6e 74be
000001a0: a58a 77bd c115 4fbd 86c9 80be 2e00 febc
000001b0: 018d 38be c29f 37be cb2e 2bbd 849b aa3d
000001c0: 3b3e 1bbe 8dd3 813e 7df3 a23d 4cf5 90bd
000001d0: c6fe 1b3e 53da af3d 6cd4 293e 4ba9 0a3e
000001e0: 494e 8f3e 6669 7cbe 908c 473d a341 213e
000001f0: c7a1 58be aa4f 18bd f468 71bd c8ef 79bc
00000200: 59c4 28bd 0ab0 00be cca9 87be f4e2 30bd
00000210: 05bc 813e 085b 883e b7f7 09bd 19ac b33d
00000220: e15b 13bd 16c3 d7bc 3607 7dbe df26 e3bb
00000230: 2cf4 06be 6d3d 7e3e 6502 5dbe d31c 453e
00000240: e118 4f3e 969f 82be 0aa1 963e ebb3 863e
00000250: aa29 03be 6e6c 62be d7e1 9abc 6fea 913d
00000260: 46f8 6abe b69e e3bd 48b6 33be fdc3 00be
00000270: 3865 89bd 16ba 53be f26f 8f3e 868e c8bd
00000280: 1a9f 8a3e 6aef 4ebe b768 843e b7e1 8ebe
00000290: c06e bbbd f41c 65be cf7c aa3d bcfd 813e
000002a0: e8a1 2e3e efce 373d 3328 27bd 12dc d3bd
000002b0: 7067 963d edfa 88be 1763 563e 3dd3 c23d
000002c0: aff6 49be 14ee ee3d 8a1a 85be 0d8d 40be
000002d0: 6ae3 7fbe 97db 5a3e c883 97bd 86ec 0dbc
000002e0: 06d2 3cbe 11b1 ea3d 3180 0e3e ba09 8fbe
000002f0: ad7d 723e 6b86 6e3e 80d6 84be 4efd 1e3d
00000300: 96b4 3a3e 4a52 013d 0f7a 2dbe 23ad 933e
00000310: aeb1 0bbe 1573 8fbe b872 853e 4dc0 f2bd
00000320: 9064 c4bd 9149 f93d 7c43 8e3d 4a9e 8a3e
00000330: 599b 713e b80f 8ebe 4d58 97bc 020a 403e
00000340: 6e91 84be c6aa 7abd d5c2 4bbe f544 ac3d
00000350: 82b9 32bd 0264 873e dd4f e33d 9999 ac3d
00000360: c075 33be 2def 653e 13cb 81bd 2a59 87be
00000370: ac90 bfbc b0ef a63c f334 4a3e c5d5 cb3b
00000380: 10cc d4bd a00f 8cbe 8695 2e3e 1348 893e
00000390: 6891 673e e665 4a3e c3fa d7bd cbe3 c4bd
000003a0: d12f 9bbd c931 ff3d f600 1dbe 74b4 553e
000003b0: 57b8 8cbd 9f26 07be c771 7abe 000b f53d
000003c0: 7cf6 053e ce17 153e c9d0 d2bc fb85 85bd
000003d0: cde3 41bd ed1e c4bd 4821 2d3e 5c88 ae3c
000003e0: 717e 20be 17aa 9a3d 0e83 5f3e 0bdd 5ebe
000003f0: 774d e5bd ef43 bd3d 4667 883e 669b 68be

layers.0.bias f4 [64]
0.0 0.0 0.0 0.0 0.0 0.0 0.0 0.0
0.0 0.0 0.0 0.0 0.0 0.0 0.0 0.0
0.0 0.0 0.0 0.0 0.0 0.0 0.0 0.0
0.0 0.0 0.0 0.0 0.0 0.0 0.0 0.0
0.0 0.0 0.0 0.0 0.0 0.0 0.0 0.0
0.0 0.0 0.0 0.0 0.0 0.0 0.0 0.0
0.0 0.0 0.0 0.0 0.0 0.0 0.0 0.0
0.0 0.0 0.0 0.0 0.0 0.0 0.0 0.0
00000000: 0000 0000 0000 0000 0000 0000 0000 0000
00000010: 0000 0000 0000 0000 0000 0000 0000 0000
00000020: 0000 0000 0000 0000 0000 0000 0000 0000
00000030: 0000 0000 0000 0000 0000 0000 0000 0000
00000040: 0000 0000 0000 0000 0000 0000 0000 0000
00000050: 0000 0000 0000 0000 0000 0000 0000 0000
00000060: 0000 0000 0000 0000 0000 0000 0000 0000
00000070: 0000 0000 0000 0000 0000 0000 0000 0000
00000080: 0000 0000 0000 0000 0000 0000 0000 0000
00000090: 0000 0000 0000 0000 0000 0000 0000 0000
000000a0: 0000 0000 0000 0000 0000 0000 0000 0000
000000b0: 0000 0000 0000 0000 0000 0000 0000 0000
000000c0: 0000 0000 0000 0000 0000 0000 0000 0000
000000d0: 0000 0000 0000 0000 0000 0000 0000 0000
000000e0: 0000 0000 0000 0000 0000 0000 0000 0000
000000f0: 0000 0000 0000 0000 0000 0000 0000 0000

layers.2.weight f4 [64, 64]
-0.21632062 0.12737708 0.13030949 -0.11175721 0.0013803473 -0.008144519 0.17147213 0.08943689
0.16741624 -0.11914267 -0.09437346 -0.20367904 -0.1323263 -0.14531513 -0.17333613 0.15771136
-0.17718601 0.061321106 0.14618348 -0.092354506 -0.100304656 -0.16247363 0.17255123 0.09968365
0.14246218 -0.008742501 0.101005666 -0.18476655 0.18519062 -0.19669352 0.11981176 -0.099281326
-0.07977753 -0.073448196 -0.07216962 -0.17779362 -0.115843765 0.16582337 -0.1461378 -0.17393179
0.11343112 0.16545835 -0.046003617 -0.14241397 -0.1072291 0.06112284 -0.17315908 0.06745945
0.17528744 0.0028350262 -0.0778343 0.032477908 -0.0023420118 0.048567876 -0.017881101 0.09883991
-0.0032592064 0.112145744 -0.124588355 0.1235264 -0.141908 -0.13231412 -0.09379065 0.07081265
0.1817817 0.059487183 -0.19086552 -0.027174404 0.011489981 0.18601304 0.16921821 0.1670511
-0.057398338 0.20312726 0.07726288 0.03154332 -0.07704073 -0.086612806 0.13534853 -0.065808594
-0.14469466 0.1929386 -0.131314 0.009550676 -0.16957426 0.11280304 -0.20169328 0.17567231
0.16614878 -0.15007462 -0.028520966 0.15008274 -0.005271088 -0.051373042 -0.20652631 -0.034554753
0.14884399 0.018930156 -0.1812007 0.16459848 -0.18636072 -0.16346382 0.106736936 0.08482836
0.17095189 0.17432642 -0.066460334 0.06914835 -0.20111321 0.0462007 0.19864365 -0.15576449
0.15336871 0.020132238 -0.117666386 0.13976261 -0.09224781 -0.03936266 0.07635841 -0.19629763
0.11449403 -0.026055068 0.06547833 -0.18365622 -0.13555168 -0.12689188 0.027836805 -0.09407559
-0.17532274 -0.019301789 0.068652496 -0.049970396 0.10795224 -0.21585502 0.03882727 0.13921925
-0.112933144 0.00064833637 -0.07189825 0.107655786 -0.14581533 0.1287567 -0.18170322 0.19914043
-0.16283745 -0.20854196 -0.01584372 0.09204572 -0.06704159 0.08241289 0.16762356 -0.20121443
0.18812467 0.07821347 -0.18204033 0.18909277 0.13541126 0.21017456 0.016048184 -0.015839899
-0.1630107 -0.20181833 0.088333294 0.15694277 0.15082964 -0.042425044 -0.0063239895 -0.1635667
0.09912536 -0.10532345 -0.04632007 -0.104599364 -0.18695924 -0.029165018 -0.06116976 -0.14366703
0.18833926 0.11208115 -0.01170291 -0.20779252 -0.08202022 -0.14028035 -0.07956839 0.18343559
0.08839127 0.025432128 0.144963 -0.036631726 0.16141161 -0.09928257 -0.013962073 -0.012045996
0.0069043175 -0.16831861 -0.037464138 -0.026815161 0.21331197 0.06570182 -0.024339816 -0.012720116
-0.13944682 0.01602707 -0.14617951 0.13283595 -0.21398784 -0.07665911 -0.06420293 -0.15008608
-0.052760433 0.010209439 -0.21638376 -0.2099005 0.21057032 -0.21534553 0.010157923 -0.07504757
0.1520686 0.20894362 0.0120262 -0.12441902 -0.08937445 0.05675155 -0.1126567 -0.07327166
-0.07269099 -0.004509809 0.17355321 -0.059030663 -0.1939274 0.20628344 0.027366323 -0.0571708
0.046762086 0.14392757 -0.07362917 -0.2073859 -0.2038672 -0.15225911 0.104078785 -0.03480588
0.21516064 -0.025315754 0.05550389 0.060449105 -0.19273795 -0.017844167 0.15173525 -0.05463829
0.0895663 -0.0515542 0.15901667 0.1412666 0.059849083 0.04204175 0.05528309 -0.036452375
00000000: 2783 5dbe 236f 023e da6f 053e f7e0 e4bd
00000010: c5ec b43a 9770 05bc 6496 2f3e b02a b73d
00000020: 2a6f 2b3e 1201 f4bd df46 c1bd 3d91 50be
00000030: 8c80 07be 7dcd 14be 077f 31be 167f 213e
00000040: 4070 35be d72b 7b3d 1fb1 153e 5c24 bdbd
00000050: 876c cdbd 7d5f 26be 45b1 303e f126 cc3d
00000060: 9be1 113e b53c 0fbc 0fdc ce3d 7133 3dbe
00000070: 9ca2 3d3e 076a 49be de5f f53d 0254 cbbd
00000080: 6762 a3bd 026c 96bd aacd 93bd 880f 36be
00000090: 7f3f edbd 9acd 293e 26a5 15be 2d1b 32be
000000a0: 934e e83d ea6d 293e 4a6e 3cbd f8d4 11be
000000b0: ee9a dbbd f15b 7a3d 9d50 31be 2e28 8a3d
000000c0: 8d7e 333e d9cb 393b 9767 9fbd 8e07 053d
000000d0: 707c 19bb 1cef 463d 637b 92bc 946c ca3d
000000e0: 6998 55bb abac e53d 2e28 ffbd 69fb fc3d
000000f0: 5550 11be 5a7d 07be 5015 c0bd 3906 913d
00000100: fb24 3a3e d5a8 733d 4072 43be db9c debc
00000110: 7940 3c3c 347a 3e3e 8a47 2d3e 720f 2b3e
00000120: 851a 6bbd 9800 503e 003c 9e3d 9133 013d
00000130: 88c7 9dbd 0e62 b1bd ce98 0a3e a8c6 86bd
00000140: d62a 14be b291 453e 2d77 06be 707a 1c3c
00000150: e0a4 2dbe 4805 e73d af88 4ebe 71e3 333e
00000160: e822 2a3e 29ad 19be cda4 e9bc 4aaf 193e
00000170: 17b9 acbb 8a6c 52bd a27b 53be 4989 0dbd
00000180: 8f6a 183e 6a13 9b3c ad8c 39be 818c 283e
00000190: 58d5 3ebe 0f63 27be e598 da3d 7eba ad3d
000001a0: 030e 2f3e a082 323e 5b1c 88bd a69d 8d3d
000001b0: 9ff0 4dbe f23c 3d3d 3e69 4b3e ba80 1fbe
000001c0: b00c 1d3e 5dec a43c 13fb f0bd ee1d 0f3e
000001d0: 6bec bcbd be3a 21bd cc61 9c3d 3f02 49be
000001e0: d97b ea3d 7071 d5bc 8119 863d 6010 3cbe
000001f0: 0fce 0abe f2ef 01be 030a e43c b4aa c0bd
00000200: ce87 33be c91e 9ebc ae99 8c3d c2ad 4cbd
00000210: 1016 dd3d 1909 5dbe 5809 1f3d 7e8f 0e3e
00000220: 7e49 e7bd 1ef5 293a 643f 93bd a37a dc3d
00000230: 9d50 15be ccd8 033e 6910 3abe 78eb 4b3e
00000240: dcbe 26be 068c 55be b0ca 81bc 7782 bc3d
00000250: 1a4d 89bd 17c8 a83d 83a5 2b3e 280b 4ebe
00000260: c1a3 403e 622e a03d c868 3abe 89a1 413e
00000270: 40a9 0a3e 0038 573e 7b77 833c adc2 81bc
00000280: 47ec 26be 77a9 4ebe 16e8 b43d 9bb5 203e
00000290: 1673 1a3e e2c5 2dbd 7839 cfbb 077e 27be
000002a0: 3d02 cb3d d2b3 d7bd 1dba 3dbd 3138 d6bd
000002b0: 3e72 3fbe 7aeb eebc 248d 7abd 731d 13be
000002c0: 02dc 403e cd8a e53d 90bd 3fbc 90c7 54be
000002d0: 38fa a7bd a7a5 0fbe c1f4 a2bd 8ad6 3b3e
000002e0: 7b06 b53d 0a57 d03c 2e71 143e 260b 16bd
000002f0: 1649 253e a954 cbbd 2ec1 64bc 925c 45bc
00000300: 9d3d e23b b75b 2cbe ff73 19bd 78ab dbbc
00000310: 746e 5a3e ad8e 863d 4b64 c7bc 0968 50bc
00000320: 26cb 0ebe 344b 833c 15b0 15be 2606 083e
00000330: a11f 5bbe 74ff 9cbd d37c 83bd 2ab0 19be
00000340: 531b 58bd 7e45 273c b493 5dbe 28f0 56be
00000350: bf9f 573e 8a83 5cbe 6b6d 263c 8ab2 99bd
00000360: dfb7 1b3e 51f5 553e 8a09 453c 66cf febd
00000370: f409 b7bd 5074 683d 8eb8 e6bd 740f 96bd
00000380: 04df 94bd 05c7 93bb efb7 313e 23ca 71bd
00000390: e894 46be f73b 533e 572f e03c ee2b 6abd
000003a0: 9a89 3f3d c061 133e e4ca 96bd f85c 54be
000003b0: 90c2 50be d0e9 1bbe 4227 d53d 9c90 0ebd
000003c0: 1253 5c3e fc62 cfbc 0c58 633d 7b99 773d
000003d0: 195d 45be ee2d 92bc 7c60 1b3e 66cc 5fbd
000003e0: 896e b73d 7f2a 53bd 44d5 223e 31a8 103e
000003f0: 5024 753d f833 2c3d 8570 623d 164f 15bd

layers.2.bias f4 [64]
0.0 0.0 0.0 0.0 0.0 0.0 0.0 0.0
0.0 0.0 0.0 0.0 0.0 0.0 0.0 0.0
0.0 0.0 0.0 0.0 0.0 0.0 0.0 0.0
0.0 0.0 0.0 0.0 0.0 0.0 0.0 0.0
0.0 0.0 0.0 0.0 0.0 0.0 0.0 0.0
0.0 0.0 0.0 0.0 0.0 0.0 0.0 0.0
0.0 0.0 0.0 0.0 0.0 0.0 0.0 0.0
0.0 0.0 0.0 0.0 0.0 0.0 0.0 0.0
00000000: 0000 0000 0000 0000 0000 0000 0000 0000
00000010: 0000 0000 0000 0000 0000 0000 0000 0000
00000020: 0000 0000 0000 0000 0000 0000 0000 0000
00000030: 0000 0000 0000 0000 0000 0000 0000 0000
00000040: 0000 0000 0000 0000 0000 0000 0000 0000
00000050: 0000 0000 0000 0000 0000 0000 0000 0000
00000060: 0000 0000 0000 0000 0000 0000 0000 0000
00000070: 0000 0000 0000 0000 0000 0000 0000 0000
00000080: 0000 0000 0000 0000 0000 0000 0000 0000
00000090: 0000 0000 0000 0000 0000 0000 0000 0000
000000a0: 0000 0000 0000 0000 0000 0000 0000 0000
000000b0: 0000 0000 0000 0000 0000 0000 0000 0000
000000c0: 0000 0000 0000 0000 0000 0000 0000 0000
000000d0: 0000 0000 0000 0000 0000 0000 0000 0000
000000e0: 0000 0000 0000 0000 0000 0000 0000 0000
000000f0: 0000 0000 0000 0000 0000 0000 0000 0000

output_layer.weight f4 [2, 64]
-0.1600012 -0.23612806 0.15253453 0.24616887 0.13665996 0.13368934 -0.24724439 -0.26584834
0.118128814 0.053780794 -0.032423493 0.25181 0.27698603 -0.18120906 -0.058022387 0.013095563
0.07956544 -0.061539188 0.26992264 -0.053000834 -0.07386766 -0.11974104 -0.102510594 0.27914104
-0.24642812 0.1839362 -0.18203554 -0.20722619 -0.20642821 -0.016602159 0.119147696 -0.11449671
-0.034131106 0.03750737 -0.24169189 0.20307985 -0.16189821 -0.051427644 0.23187295 -0.032072797
0.2157994 0.2857939 -0.053052448 -0.27004343 -0.0817493 0.0530137 0.07324261 -0.26620656
0.05574831 -0.12096989 0.27382493 -0.09384695 -0.004932811 0.25746384 -0.1446535 -0.10026154
-0.19510248 0.089121275 0.14193441 0.121931404 -0.03235538 -0.10305765 -0.07011784 -0.049510807
0.08411392 0.05377666 -0.24576332 0.21336791 0.06597689 -0.19646282 0.11536869 0.2472734
0.04461455 -0.1648437 -0.27616355 0.14493454 0.23961367 -0.13474266 -0.18787375 0.030796928
0.11683351 0.03150443 0.06544295 -0.054651834 0.10397725 -0.03104738 -0.25229618 -0.055125635
0.085134804 0.28028008 -0.030473227 0.050040066 0.09320608 -0.071513325 -0.03773809 -0.14356065
-0.20648806 0.1385258 0.2161101 0.19034709 -0.12650801 -0.11629878 0.0767854 0.21869896
0.2566525 0.009138567 -0.21317299 0.06194434 -0.10222571 -0.010999083 0.14996813 0.16087894
0.09936965 -0.22951919 0.08583677 0.2638805 -0.1273728 0.29878655 0.30074123 0.18907431
-0.107176386 -0.08481714 0.24821754 0.19919448 0.013655591 -0.1408379 0.07200092 0.07076085
00000000: 5bd7 23be 8ecb 71be 0332 1c3e b113 7c3e
00000010: 97f0 0b3e dce5 083e a22d 7dbe 461d 88be
00000020: 85ed f13d 4049 5c3d 7fce 04bd 3eed 803e
00000030: 1dd1 8d3e de8e 39be e2a8 6dbd c68e 563c
00000040: 35f3 a23d 8410 7cbd 4d33 8a3e 6717 59bd
00000050: ed47 97bd ca3a f5bd 13f1 d1bd 93eb 8e3e
00000060: a757 7cbe c559 3c3e 8667 3abe 1a33 54be
00000070: eb61 53be 4001 88bc b503 f43d 407d eabd
00000080: 0fcd 0bbd 54a1 193d 147e 77be 2af4 4f3e
00000090: a5c8 25be cba5 52bd 1a70 6d3e c45e 03bd
000000a0: 85fa 5c3e 9453 923e 864d 59bd 2243 8abe
000000b0: 2d6c a7bd e524 593d 3900 963d 3a4c 88be
000000c0: 5758 643d 10bf f7bd c832 8c3e d432 c0bd
000000d0: 6ba3 a1bb 4dd2 833e 0c20 14be ec55 cdbd
000000e0: f2c8 47be 3785 b63d 4157 113e 2cb7 f93d
000000f0: 1387 04bd e40f d3bd f199 8fbd d8cb 4abd
00000100: eb43 ac3d ea44 5c3d 61a9 7bbe 1e7d 5a3e
00000110: e41e 873d 8d2d 49be 6b46 ec3d 3d35 7d3e
00000120: bfbd 363d c9cc 28be 4f65 8dbe b869 143e
00000130: 495d 753e fbf9 09be fa61 40be d749 fc3c
00000140: 6846 ef3d ca0a 013d f406 863d 9ada 5fbd
00000150: 06f2 d43d 1357 febc f72c 81be 6bcb 61bd
00000160: 285b ae3d df80 8f3e fda2 f9bc d0f6 4c3d
00000170: d4e2 be3d 9475 92bd 4193 1abd 9001 13be
00000180: 9b71 53be b5d9 0d3e f74b 5d3e 59ea 423e
00000190: 518b 01be 0e2e eebd aa41 9d3d 9ff2 5f3e
000001a0: f567 833e eeb9 153c 054a 5abe 59b9 7d3d
000001b0: b75b d1bd 7f35 34bc 3f91 193e 73bd 243e
000001c0: 5182 cb3d 1407 6bbe 30cb af3d 581b 873e
000001d0: 046e 02be 8dfa 983e c1fa 993e b29c 413e
000001e0: 4b7f dbbd 9cb4 adbd bd2c 7e3e a3f9 4b3e
000001f0: b3bb 5f3c cf37 10be 3875 933d 11eb 903d

output_layer.bias f4 [2]
0.0 0.0
00000000: 0000 0000 0000 0000

layers.0.weight f4 [64, 4]
0.01317679 0.049894545 0.07578531 -0.25788498 0.024241243 0.07396245 0.2636345 0.085943684
0.28615874 0.0574568 -0.15373679 0.063313544 -0.12102654 0.22751503 -0.1777518 -0.21441232
-0.16014162 0.19930527 -0.12576038 -0.11829714 0.043846548 0.17036185 -0.12845118 -0.24469544
-0.21851827 -0.2844285 -0.10033551 0.11107231 -0.13536005 0.0005709579 0.10875859 -0.20468883
-0.19589822 -0.22551024 0.17561927 0.019980835 0.22590117 0.034081377 0.04694011 -0.041862573
0.07350502 0.03585994 -0.083067894 0.27886215 0.13392887 -0.21869168 -0.11514111 -0.043391135
0.1652729 -0.05352114 -0.12664726 0.20071653 0.2817311 -0.24703713 -0.2941733 -0.082748175
0.08972073 0.24725193 0.058321346 -0.29547527 -0.083038114 -0.026001353 -0.066932775 0.09267591
0.16447546 -0.13084932 -0.21572626 -0.08029401 0.26438552 0.057801377 0.27977553 0.13042295
-0.2525613 0.18659554 0.07820172 -0.24016063 0.114185944 -0.101885885 -0.10041164 -0.29327103
0.23729193 0.1682779 -0.12364907 -0.08950643 -0.025777454 -0.006675257 -0.07625124 -0.024881179
0.22024615 0.26658604 -0.10311052 -0.21249951 -0.08247441 -0.22391178 -0.184287 -0.025704259
-0.14026815 0.037605885 0.03030227 0.22199684 -0.2800719 -0.0019295501 -0.15340574 -0.11102397
0.1401965 0.118499115 -0.00046019405 0.0022047246 -0.16889133 0.20031458 -0.17204174 0.08101288
-0.28043494 0.11449986 -0.18781897 0.14488725 0.06586805 -0.19593172 0.272617 -0.09197376
-0.04131743 -0.19193162 -0.29590863 0.27989963 -0.27891603 -0.26502976 0.086505644 0.23312914
-0.27814427 -0.09191664 0.23959474 -0.19321078 -0.22665219 -0.06095266 -0.19477773 -0.28405148
-0.0905191 -0.11661861 0.25085157 0.14026237 -0.02906517 0.009923598 0.021365914 0.08815011
-0.28140536 0.21459356 0.051552534 -0.25727463 -0.26761743 0.067289606 -0.08657898 -0.06356619
-0.12870571 0.1049133 -0.124337055 0.16981621 0.16920127 -0.1910619 -0.16924995 0.24335851
0.20553963 0.19011658 0.07123755 -0.14117114 -0.17314623 -0.17465794 -0.07681668 0.15657681
-0.2697242 0.26258734 0.10467545 0.21374686 -0.029217117 0.0042876373 0.09213835 -0.07891694
-0.024078319 -0.1255747 0.16230306 -0.05809231 0.10669667 -0.23685603 0.14482263 -0.14863913
0.07154835 0.0427251 0.14673929 0.23323445 -0.25179508 0.21902995 0.005919811 -0.26477516
0.09271958 0.2469832 0.07079386 0.039508276 0.23833288 0.111325845 -0.14287385 0.12240404
-0.023227582 0.16017331 0.12425282 0.0026274545 0.2388302 0.11334629 -0.05113069 -0.28465068
0.023838094 -0.19955981 -0.074599914 0.12676735 0.037153337 0.051642865 0.003642176 -0.22859332
0.21438484 -0.08645313 -0.28504905 -0.22114494 0.23634122 -0.2288833 -0.055122152 0.1512106
0.083126746 -0.050109237 0.21513937 -0.25603217 0.21121897 0.25647596 0.05884673 -0.10615522
-0.28605893 -0.025064003 0.2601135 0.0722761 0.11503498 -0.23805647 0.27619016 0.19284107
-0.0104384655 0.07830954 -0.26158208 0.20731314 0.27278972 -0.17892107 0.049367674 0.24591883
0.19798985 0.07461822 -0.1909117 0.020191882 0.24407044 0.008985894 0.1345824 0.10194534
00000000: 77e3 573c 395e 4c3d 5435 9b3d 8009 84be
00000010: 9295 c63c a079 973d 1afb 863e 3e03 b03d
00000020: 6683 923e d257 6b3d 2d6d 1dbe 88aa 813d
00000030: c3dc f7bd b3f9 683e 9104 36be e78e 5bbe
00000040: 2afc 23be ae16 4c3e 54c7 00be c545 f2bd
00000050: 7098 333d 5673 2e3e b588 03be 7191 7abe
00000060: 41c3 5fbe 9da0 91be b47c cdbd e179 e33d
00000070: d39b 0abe 56ac 153a d3bc de3d f399 51be
00000080: 8b99 48be 28ec 66be 8ad5 333e d9ae a33c
00000090: a352 673e ea98 0b3d 4644 403d 1778 2bbd
000000a0: cd89 963d dfe1 123d 801f aabd 05c7 8e3e
000000b0: a624 093e b6f0 5fbe 1acf ebbd e7ba 31bd
000000c0: 4d3d 293e fc38 5bbd d2af 01be a288 4d3e
000000d0: 0f3f 903e 4df7 7cbe e29d 96be e077 a9bd
000000e0: 81bf b73d 9c2f 7d3e 5de2 6e3d 8948 97be
000000f0: e30f aabd ca00 d5bc 0d14 89bd decc bd3d
00000100: 416c 283e 5dfd 05be 58e7 5cbe 3071 a4bd
00000110: 8a5d 873e 23c1 6c3d bd3e 8f3e 988d 053e
00000120: b74f 81be e712 3f3e 3928 a03d abec 75be
00000130: 52da e93d 8ca9 d0bd 9ea4 cdbd 9f27 96be
00000140: a8fc 723e 0b51 2c3e b93b fdbd 264f b7bd
00000150: 3d2b d3bc 1dbc dabb 9c29 9cbd 9dd3 cbbc
00000160: 3588 613e f77d 883e 9c2b d3bd 7999 59be
00000170: 58e8 a8bd 2149 65be bbb5 3cbe bd91 d2bc
00000180: 74a2 0fbe a108 1a3d 773c f83c 2453 633e
00000190: 9665 8fbe f5e8 fcba 6516 1dbe 8960 e3bd
000001a0: ac8f 0f3e aaaf f23d 3346 f1b9 247d 103b
000001b0: d9f1 2cbe 441f 4d3e b62b 30be 15ea a53d
000001c0: 2b95 8fbe e77e ea3d 9e53 40be 535d 143e
000001d0: d4e5 863d 53a2 48be 7594 8b3e bd5c bcbd
000001e0: 773c 29bd b989 44be 5681 97be 014f 8f3e
000001f0: 15ce 8ebe fbb1 87be df29 b13d 68b9 6e3e
00000200: ed68 8ebe cb3e bcbd 5358 753e 0cd9 45be
00000210: 8317 68be 7fa9 79bd d073 47be 326f 91be
00000220: 1462 b9bd bdd5 eebd 9e6f 803e f0a0 0f3e
00000230: 141a eebc 9696 223c 9207 af3c 0b88 b43d
00000240: 5d14 90be 6abe 5b3e c028 533d 80b9 83be
00000250: 2705 89be 22cf 893d 5250 b1bd fe2e 82bd
00000260: 6ecb 03be c9dc d63d 6da4 febd 4de4 2d3e
00000270: 1943 2d3e bba5 43be dc4f 2dbe f932 793e
00000280: fb78 523e ecad 423e fee4 913d 2b8f 10be
00000290: 3f4d 31be 88d9 32be 1052 9dbd ac55 203e
000002a0: 4a19 8abe d971 863e 1560 d63d 75e0 5a3e
000002b0: bc58 efbc 4f7f 8c3b 08b3 bc3d 349f a1bd
000002c0: e53f c5bc a796 00be c632 263e 34f2 6dbd
000002d0: c983 da3d 638a 72be 624c 143e db34 18be
000002e0: f187 923d 8400 2f3d d342 163e 03d5 6e3e
000002f0: 49eb 80be 6349 603e f9fa c13b 9c90 87be
00000300: c3e3 bd3d 2ae9 7c3e 5ffc 903d 6ed3 213d
00000310: 890d 743e cefe e33d 864d 12be f8ae fa3d
00000320: c547 bebc 7904 243e 4378 fe3d 5f31 2c3b
00000330: e78f 743e 1a22 e83d 6a6e 51bd bcbd 91be
00000340: 1b48 c33c 6859 4cbe d7c7 98bd 4dcf 013e
00000350: 192e 183d 7887 533d 93b1 6e3b 5e14 6abe
00000360: b387 5b3e 570e b1bd f3f1 91be d273 62be
00000370: 6f03 723e 6260 6abe c4c7 61bd f4d6 1a3e
00000380: 5b3e aa3d 583f 4dbd 7f4d 5c3e a616 83be
00000390: c949 583e d150 833e 4509 713d e867 d9bd
000003a0: 5176 92be 0653 cdbc 992d 853e 7e05 943d
000003b0: 7697 eb3d 13c5 73be cc68 8d3e 2178 453e
000003c0: 1906 2bbc c160 a03d 16ee 85be e549 543e
000003d0: 18ab 8b3e 1637 37be c235 4a3d 25d2 7b3e
000003e0: dabd 4a3e 70d1 983d 5b7e 43be 7269 a53c
000003f0: 9aed 793e 9239 133c f8cf 093e b8c8 d03d

layers.0.bias f4 [64]
0.0 0.0 0.0 0.0 0.0 0.0 0.0 0.0
0.0 0.0 0.0 0.0 0.0 0.0 0.0 0.0
0.0 0.0 0.0 0.0 0.0 0.0 0.0 0.0
0.0 0.0 0.0 0.0 0.0 0.0 0.0 0.0
0.0 0.0 0.0 0.0 0.0 0.0 0.0 0.0
0.0 0.0 0.0 0.0 0.0 0.0 0.0 0.0
0.0 0.0 0.0 0.0 0.0 0.0 0.0 0.0
0.0 0.0 0.0 0.0 0.0 0.0 0.0 0.0
00000000: 0000 0000 0000 0000 0000 0000 0000 0000
00000010: 0000 0000 0000 0000 0000 0000 0000 0000
00000020: 0000 0000 0000 0000 0000 0000 0000 0000
00000030: 0000 0000 0000 0000 0000 0000 0000 0000
00000040: 0000 0000 0000 0000 0000 0000 0000 0000
00000050: 0000 0000 0000 0000 0000 0000 0000 0000
00000060: 0000 0000 0000 0000 0000 0000 0000 0000
00000070: 0000 0000 0000 0000 0000 0000 0000 0000
00000080: 0000 0000 0000 0000 0000 0000 0000 0000
00000090: 0000 0000 0000 0000 0000 0000 0000 0000
000000a0: 0000 0000 0000 0000 0000 0000 0000 0000
000000b0: 0000 0000 0000 0000 0000 0000 0000 0000
000000c0: 0000 0000 0000 0000 0000 0000 0000 0000
000000d0: 0000 0000 0000 0000 0000 0000 0000 0000
000000e0: 0000 0000 0000 0000 0000 0000 0000 0000
000000f0: 0000 0000 0000 0000 0000 0000 0000 0000

layers.2.weight f4 [64, 64]
-0.071319886 -0.11350132 0.01310584 0.07343258 -0.18596616 -0.09574036 -0.042551536 0.20032826
-0.16608831 0.07289107 -0.2070477 0.16100243 0.068090774 -0.05766903 -0.05536013 -0.11938794
0.13187027 -0.13402578 -0.065828905 -0.038035378 0.21279173 0.19217828 -0.04158928 -0.010125558
-0.14279032 0.14172356 0.10992179 -0.004203243 -0.078826316 -0.036129754 0.0171231 0.10444993
-0.1526585 -0.17853823 0.022264056 0.14408867 0.06921478 -0.10907601 -0.115008004 -0.0117003545
0.08207858 -0.20178625 -0.17735481 0.08844239 -0.106269345 0.122115314 -0.1460645 0.19067085
-0.043733746 -0.0064687035 -0.0051561324 -0.015904915 0.12847322 0.16874923 -0.098804474 0.13972063
0.0798484 -0.012239155 -0.11004031 0.17270947 0.07570594 -0.18294953 0.20811777 -0.19916306
-0.20424438 0.028801026 0.047608122 0.20317419 0.2105273 0.0037208362 -0.17965643 0.14653635
-0.13980827 -0.06765909 0.061097365 0.18372644 0.09775947 -0.1651483 0.09128823 0.09324863
-0.0555911 -0.15415116 -0.074595354 -0.098685645 -0.0139454 -0.19457531 0.024237584 -0.13327356
-0.13584667 0.0904414 0.18707897 -0.21235003 -0.025724731 -0.022622138 0.08258448 -0.14857343
0.07736454 -0.08597918 -0.016578363 0.0652238 0.1779514 0.1709204 0.15634817 -0.21333055
-0.05898782 0.076687865 0.14004369 -0.1581618 -0.13590421 0.13244653 -0.08771813 -0.04233311
-0.009105822 -0.13384785 -0.18972513 -0.051346973 0.0039923014 0.06455541 0.08754595 0.031166911
0.10624643 0.030098448 -0.064066395 0.19206162 -0.0811842 -0.15345086 -0.14350908 0.115805104
0.0050934926 0.029161869 0.20060068 -0.14075263 -0.16461296 -0.10466283 -0.07441012 -0.010807111
0.16397779 0.16343611 0.0028572225 0.15079798 -0.038623374 0.16458572 -0.15021169 -0.12381149
0.10481709 0.15371864 0.15222408 0.042284746 0.12154745 0.14843462 -0.10460076 0.077567175
-0.1654556 0.01618807 -0.1274559 0.14071098 0.20826387 0.07035399 0.105991684 -0.010488131
0.060696334 -0.010062815 -0.20007913 0.19794689 0.014045722 0.07650516 -0.022547418 0.17881034
-0.07636886 0.054514762 -0.14400952 0.14388591 -0.15500775 0.21309552 -0.19857495 0.06261076
0.21498643 -0.05039486 -0.10562901 0.009974572 0.09427592 0.08058924 -0.089089826 -0.20783697
-0.1514772 0.21154353 0.17278868 -0.16796114 -0.11034383 -0.016694145 -0.076451525 0.17481184
-0.0152953435 0.16330023 -0.20673557 -0.16966519 0.08131614 -0.04306582 -0.20740195 -0.016274145
-0.051945265 0.09246048 0.028694304 -0.105656885 0.08358508 -0.010601228 0.14038147 0.20255816
0.10341034 -0.110142924 -0.21284866 -0.14507979 -0.13055982 -0.113432795 -0.13220605 0.06419054
0.2055994 -0.040493198 -0.046630353 -0.10793734 -0.098357886 -0.005176186 -0.01218018 -0.00035963053
-0.10759175 -0.15821081 -0.10705979 0.0017394617 -0.14693302 0.057476074 -0.050552763 0.14998919
-0.19839267 -0.031242585 0.06035588 -0.18106131 -0.061544824 -0.1819915 0.16478154 0.07345202
-0.16911735 -0.17010026 0.13717757 0.14542718 0.19524279 0.052018125 0.19093756 -0.12478265
-0.10332667 0.17785396 -0.15534255 -0.13152426 -0.003421213 0.13139339 0.13854411 -0.03259431
00000000: 2910 92bd 6173 e8bd e1b9 563c d263 963d
00000010: ea6d 3ebe 8613 c4bd 854a 2ebd da22 4d3e
00000020: 0e13 2abe ea47 953d 5004 54be d2dd 243e
00000030: 2d73 8b3d 5c36 6cbd 4ec1 62bd aa81 f4bd
00000040: 0009 073e 0e3e 09be 4ed1 86bd fcca 1bbd
00000050: 13e6 593e 62ca 443e 8559 2abd abe5 25bc
00000060: a037 12be fb1f 113e ad1e e13d 5cbb 89bb
00000070: b16f a1bd cbfc 13bd be45 8c3c d8e9 d53d
00000080: 8352 1cbe bad2 36be 1c63 b63c fb8b 133e
00000090: 7bc0 8d3d 3e63 dfbd 5189 ebbd d8b2 3fbc
000000a0: d118 a83d 0ea1 4ebe 809c 35be 4921 b53d
000000b0: bea3 d9bd 9817 fa3d ef91 15be 383f 433e
000000c0: 2822 33bd 6bf7 d3bb c6f4 a8bb 064b 82bc
000000d0: 7c8e 033e 99cc 2c3e 005a cabd ed12 0f3e
000000e0: 8f87 a33d bd86 48bc d05c e1bd c0da 303e
000000f0: b70b 9b3d 1f57 3bbe d31c 553e 67f1 4bbe
00000100: 7025 51be 21f0 eb3c bc00 433d e50c 503e
00000110: 7894 573e 46d9 733b dbf7 37be a00d 163e
00000120: e629 0fbe d990 8abd 3b41 7a3d c922 3c3e
00000130: 1e36 c83d a31c 29be 53f5 ba3d 23f9 be3d
00000140: 7eb3 63bd cdd9 1dbe 73c5 98bd b31b cabd
00000150: 3f7b 64bc c03e 47be e68d c63c dd78 08be
00000160: 641b 0bbe 5739 b93d a191 3f3e 4972 59be
00000170: acbc d2bc 1052 b9bc 0d22 a93d a223 18be
00000180: 4d71 9e3d da15 b0bd 59cf 87bc 0e94 853d
00000190: e438 363e c205 2f3e bc19 203e 5373 5abe
000001a0: 369d 71bd 870e 9d3d 9d67 0f3e 2bf5 21be
000001b0: 792a 0bbe 10a0 073e 90a5 b3bd 7c65 2dbd
000001c0: 9630 15bc 690f 09be 4e47 42be 3451 52bd
000001d0: dad1 823b a035 843d 4b4b b33d c051 ff3c
000001e0: ba97 d93d 0591 f63c 3e35 83bd cdab 443e
000001f0: e743 a6bd 3922 1dbe 0bf4 12be 3a2b ed3d
00000200: 50e7 a63b dfe4 ee3c 446a 4d3e 7521 10be
00000210: 4d90 28be 7759 d6bd 5564 98bd 4f10 31bc
00000220: cbe9 273e cc5b 273e 3d40 3b3b c96a 1a3e
00000230: 8b33 1ebd 2989 283e 18d1 19be e190 fdbd
00000240: 58aa d63d 6b68 1d3e a1e0 1b3e c532 2d3d
00000250: dfed f83d 3fff 173e ec38 d6bd 8adb 9e3d
00000260: 316d 29be d89c 843c cd83 02be 8a16 103e
00000270: 2043 553e c115 903d 2b12 d93d 69d6 2bbc
00000280: b89c 783d 81de 24bc 8be1 4cbe 97b2 4a3e
00000290: 0720 663c bdae 9c3d 5db5 b8bc 0f1a 373e
000002a0: 4767 9cbd df4a 5f3d 3b77 13be d456 133e
000002b0: 5aba 1ebe b635 5a3e 3b57 4bbe 123a 803d
000002c0: 6725 5c3e d76a 4ebd 0654 d8bd 636c 233c
000002d0: bc13 c13d f90b a53d ba74 b6bd 37d3 54be
000002e0: d71c 1bbe de9e 583e 84ef 303e 01fe 2bbe
000002f0: f2fb e1bd 29c2 88bc 9e92 9cbd e001 333e
00000300: 5299 7abc 2d38 273e 7db2 53be b6bc 2dbe
00000310: 1489 a63d c965 30bd 2d61 54be 5b51 85bc
00000320: 8fc4 54bd ec5b bd3d 5110 eb3c a362 d8bd
00000330: a82e ab3d c6b0 2dbc 29c0 0f3e 686b 4f3e
00000340: cdc8 d33d 9d92 e1bd 00f5 59be cc8f 14be
00000350: 79b1 05be 744f e8bd 0661 07be 5476 833d
00000360: a688 523e 32dc 25bd 78ff 3ebd 410e ddbd
00000370: dc6f c9bd ff9c a9bb 618f 47bc cb8c bcb9
00000380: 1059 dcbd 0402 22be 2a42 dbbd a6fe e33a
00000390: 9c75 16be 086c 6b3d 6a10 4fbd c496 193e
000003a0: 7327 4bbe 73f0 ffbc ba37 773d 2368 39be
000003b0: 6d16 7cbd fb5b 3abe 7ebc 283e 036e 963d
000003c0: 192d 2dbe c32e 2ebe 4778 0c3e ddea 143e
000003d0: baed 473e f510 553d 2385 433e 0c8e ffbd
000003e0: ef9c d3bd 591f 363e 1e12 1fbe 4cae 06be
000003f0: 6e36 60bb fd8b 063e 82de 0d3e 9c81 05bd

layers.2.bias f4 [64]
0.0 0.0 0.0 0.0 0.0 0.0 0.0 0.0
0.0 0.0 0.0 0.0 0.0 0.0 0.0 0.0
0.0 0.0 0.0 0.0 0.0 0.0 0.0 0.0
0.0 0.0 0.0 0.0 0.0 0.0 0.0 0.0
0.0 0.0 0.0 0.0 0.0 0.0 0.0 0.0
0.0 0.0 0.0 0.0 0.0 0.0 0.0 0.0
0.0 0.0 0.0 0.0 0.0 0.0 0.0 0.0
0.0 0.0 0.0 0.0 0.0 0.0 0.0 0.0
00000000: 0000 0000 0000 0000 0000 0000 0000 0000
00000010: 0000 0000 0000 0000 0000 0000 0000 0000
00000020: 0000 0000 0000 0000 0000 0000 0000 0000
00000030: 0000 0000 0000 0000 0000 0000 0000 0000
00000040: 0000 0000 0000 0000 0000 0000 0000 0000
00000050: 0000 0000 0000 0000 0000 0000 0000 0000
00000060: 0000 0000 0000 0000 0000 0000 0000 0000
00000070: 0000 0000 0000 0000 0000 0000 0000 0000
00000080: 0000 0000 0000 0000 0000 0000 0000 0000
00000090: 0000 0000 0000 0000 0000 0000 0000 0000
000000a0: 0000 0000 0000 0000 0000 0000 0000 0000
000000b0: 0000 0000 0000 0000 0000 0000 0000 0000
000000c0: 0000 0000 0000 0000 0000 0000 0000 0000
000000d0: 0000 0000 0000 0000 0000 0000 0000 0000
000000e0: 0000 0000 0000 0000 0000 0000 0000 0000
000000f0: 0000 0000 0000 0000 0000 0000 0000 0000

output_layer.weight f4 [1, 64]
-0.014498254 -0.10985053 0.07479976 0.27903253 -0.24504206 -0.044266142 0.13052702 0.19384171
0.24334554 -0.11003025 -0.17949913 0.20958868 0.20961711 -0.026410298 0.05110975 0.09383534
0.23900898 -0.25655958 -0.13223019 -0.00708044 0.07099161 0.18024175 0.24511804 -0.24320042
-0.13757281 0.16852507 -0.09447108 0.072192505 -0.27267975 -0.20282142 -0.18290184 0.076492205
0.20608404 0.13198937 -0.26029342 -0.21884051 0.0069045634 -0.06497541 -0.26893732 0.2564742
0.17558317 0.14346252 -0.047558647 -0.060544673 -0.13149069 -0.008559128 0.0924585 -0.05124383
0.1466182 0.11565949 -0.26063293 -0.20318067 -0.039121646 0.13412489 -0.023144994 -0.05698448
0.22517061 -0.20347048 0.003565265 0.1916496 0.3016903 -0.19481911 -0.3006937 0.0069256066
00000000: 168a 6dbc 51f9 e0bd 9e30 993d 5add 8e3e
00000010: 4eec 7abe 6a50 35bd e0a8 053e 717e 463e
00000020: 932f 793e 8a57 e1bd 9fce 37be 6a9e 563e
00000030: dea5 563e 695a d8bc 7558 513d be2c c03d
00000040: c5be 743e c75b 83be 5a67 07be 0903 e8bb
00000050: 0d64 913d 4b91 383e 3900 7b3e 8809 79be
00000060: e3df 0cbe d691 2c3e 0e7a c1bd aad9 933d
00000070: ae9c 8bbe 6bb0 4fbe 9f4a 3bbe f2a7 9c3d
00000080: b207 533e 3928 073e 2e45 85be ba17 60be
00000090: ad3f e23b d411 85bd 27b2 89be 9650 833e
000000a0: 13cc 333e d7e7 123e dbcc 42bd b1fd 77bd
000000b0: 7fa5 06be 963b 0cbc e25a bd3d 0de5 51bd
000000c0: 1523 163e e2de ec3d ae71 85be 980e 50be
000000d0: 053e 20bd 0958 093e 929a bdbc 8f68 69bd
000000e0: 2093 663e 915a 50be 39a7 693b cb3f 443e
000000f0: 2777 9a3e a97e 47be 86f4 99be 33f0 e23b

weight f4 [64, 4]
-0.09526923 0.10663563 -0.16470963 0.027756011 -0.2106597 0.16945662 0.10255118 0.06595162
-0.15056968 0.18122694 0.27057695 0.044314746 -0.14806776 -0.015253754 0.039662875 0.2223314
-0.02593294 0.049434 -0.25414252 0.22412424 -0.27539223 0.08986259 -0.085396625 -0.17708774
0.27383277 0.29259184 -0.2282726 -0.25608948 0.26492247 -0.029112514 0.12600394 0.108865105
0.22508162 0.02569346 -0.10458112 0.045667637 -0.079203874 -0.22157946 0.050185937 -0.14142345
0.09954061 -0.07028246 0.24517812 -0.19606423 0.10151907 -0.2684491 -0.14853868 0.049118668
-0.28190628 -0.21052447 0.15630418 -0.053905025 0.19175963 -0.027242348 0.25585485 -0.23553914
-0.055730116 0.112125486 -0.19077486 0.1836737 -0.18697742 0.017603874 0.19573583 0.2437039
0.23922262 -0.22392052 -0.21851204 -0.017802598 -0.19948721 -0.054869395 0.24375875 0.0455045
-0.19592644 -0.20164908 0.16490616 0.12885855 0.06406272 0.10946078 0.028900193 -0.27601546
-0.23729008 -0.1630868 0.058457002 0.01308745 -0.24162139 -0.119562596 -0.18321835 0.24303125
-0.012646059 -0.2303409 -0.09592273 -0.13845244 0.004953495 0.06544996 -0.10608138 0.082079165
0.28569338 -0.014464845 -0.23268655 -0.08920406 -0.2715184 -0.07310439 -0.107805945 -0.23870222
-0.060434956 -0.050557856 -0.2515375 -0.031005945 -0.18022539 -0.17932037 -0.041792672 0.083304435
-0.15160458 0.25356713 0.07956598 -0.07078037 0.15233907 0.08586564 0.16584939 0.13541143
0.27989414 -0.24649581 0.048718035 0.15747695 -0.21155463 -0.03718535 -0.05893798 -0.015254922
-0.041202877 -0.12567154 -0.26496732 -0.04318519 0.2533876 0.2663195 -0.033683505 0.087730594
-0.035976294 -0.026338141 -0.24709782 -0.006932124 -0.13179082 0.2482812 -0.21582945 0.19249277
0.20224334 -0.2551238 0.29419738 0.26309142 -0.12808862 -0.22111675 -0.018906517 0.07124793
-0.22946271 -0.11114256 -0.17550004 -0.12574764 -0.06708759 -0.20676455 0.28015095 -0.09792809
0.2707451 -0.20208517 0.2586114 -0.27906582 -0.09151983 -0.22374326 0.083245866 0.25388896
0.1705395 0.04487508 -0.04080982 -0.103447095 0.07343948 -0.2675394 0.20936237 0.09512947
-0.19723009 0.116665035 -0.2599681 -0.18803807 -0.24989095 0.2137283 -0.07398182 -0.008662349
-0.18439493 0.11459554 0.13916089 -0.27937108 0.23680754 0.23293464 -0.259449 0.03881579
0.1823295 0.031572618 -0.16941093 0.2884303 -0.13641998 -0.28017488 0.26064086 -0.11853085
-0.09589493 0.12172235 0.069464654 0.2707389 0.23594417 -0.27746367 -0.018474722 0.18753818
-0.25892204 -0.06119802 -0.19898541 0.0841159 -0.043633945 0.26443487 0.11099217 0.08427734
-0.17525387 0.2245452 -0.063375615 -0.26435214 -0.023384415 0.020377964 0.19746761 0.0062205517
-0.10390484 -0.2735567 0.17049226 0.268128 0.22614062 0.19765434 -0.10545876 -0.096137606
-0.0757748 0.12460668 -0.15332398 0.20869619 -0.068710975 -0.13198327 -0.24457465 0.11964989
0.13082308 0.14559862 -0.025734322 -0.06519695 -0.04733639 -0.09576211 0.16907227 0.021305256
-0.15673234 0.07551973 0.21827337 -0.21764009 -0.11196416 0.09241473 0.2664129 -0.2271553
00000000: 841c c3bd c863 da3d a4a9 28be 9360 e33c
00000010: 2db7 57be 0986 2d3e 5a06 d23d a511 873d
00000020: f02e 1abe 8e93 393e 1089 8a3e 6183 353d
00000030: 139f 17be e2ea 79bc 8a75 223d d8aa 633e
00000040: 5171 d4bc 4e7b 4a3d f81e 82be d380 653e
00000050: 3600 8dbe e109 b83d 6de4 aebd 7d56 35be
00000060: cf33 8c3e 99ce 953e 4bc0 69be 291e 83be
00000070: eba3 873e 5e7d eebc 2d07 013e abf4 de3d
00000080: cc7b 663e 177b d23c a02e d6bd fd0d 3b3d
00000090: a435 a2bd bae5 62be c58f 4d3d 4fd1 10be
000000a0: f3db cb3d 40f0 8fbd f90f 7b3e 10c5 48be
000000b0: 3be9 cf3d 2972 89be 861a 18be a830 493d
000000c0: 0556 90be ba93 57be 340e 203e 84cb 5cbd
000000d0: a35c 443e 582b dfbc 68ff 823e 2c31 71be
000000e0: 4345 64bd 0ca2 e53d 7c5a 43be f514 3c3e
000000f0: 0277 3fbe 0036 903c f96e 483e 848d 793e
00000100: c6f6 743e 6c4b 65be 9fc1 5fbe c1d6 91bc
00000110: 6046 4cbe bbbe 60bd e59b 793e ed62 3a3d
00000120: f1a0 48be 197d 4ebe 29dd 283e 7ff3 033e
00000130: 5133 833d f92c e03d 19c0 ec3c e651 8dbe
00000140: 2cfc 72be 3a00 27be 9c70 6f3d be6c 563c
00000150: 996b 77be 3cdd f4bd 979d 3bbe 2fdd 783e
00000160: 6a31 4fbc 7cde 6bbe 2373 c4bd 7ac6 0dbe
00000170: ee50 a23b a10a 863d 3241 d9bd 1f19 a83d
00000180: 6746 923e f5fd 6cbc 6245 6ebe 9eb0 b6bd
00000190: 7604 8bbe c1b7 95bd 5dc9 dcbd 5b6e 74be
000001a0: a58a 77bd c115 4fbd 86c9 80be 2e00 febc
000001b0: 018d 38be c29f 37be cb2e 2bbd 849b aa3d
000001c0: 3b3e 1bbe 8dd3 813e 7df3 a23d 4cf5 90bd
000001d0: c6fe 1b3e 53da af3d 6cd4 293e 4ba9 0a3e
000001e0: 494e 8f3e 6669 7cbe 908c 473d a341 213e
000001f0: c7a1 58be aa4f 18bd f468 71bd c8ef 79bc
00000200: 59c4 28bd 0ab0 00be cca9 87be f4e2 30bd
00000210: 05bc 813e 085b 883e b7f7 09bd 19ac b33d
00000220: e15b 13bd 16c3 d7bc 3607 7dbe df26 e3bb
00000230: 2cf4 06be 6d3d 7e3e 6502 5dbe d31c 453e
00000240: e118 4f3e 969f 82be 0aa1 963e ebb3 863e
00000250: aa29 03be 6e6c 62be d7e1 9abc 6fea 913d
00000260: 46f8 6abe b69e e3bd 48b6 33be fdc3 00be
00000270: 3865 89bd 16ba 53be f26f 8f3e 868e c8bd
00000280: 1a9f 8a3e 6aef 4ebe b768 843e b7e1 8ebe
00000290: c06e bbbd f41c 65be cf7c aa3d bcfd 813e
000002a0: e8a1 2e3e efce 373d 3328 27bd 12dc d3bd
000002b0: 7067 963d edfa 88be 1763 563e 3dd3 c23d
000002c0: aff6 49be 14ee ee3d 8a1a 85be 0d8d 40be
000002d0: 6ae3 7fbe 97db 5a3e c883 97bd 86ec 0dbc
000002e0: 06d2 3cbe 11b1 ea3d 3180 0e3e ba09 8fbe
000002f0: ad7d 723e 6b86 6e3e 80d6 84be 4efd 1e3d
00000300: 96b4 3a3e 4a52 013d 0f7a 2dbe 23ad 933e
00000310: aeb1 0bbe 1573 8fbe b872 853e 4dc0 f2bd
00000320: 9064 c4bd 9149 f93d 7c43 8e3d 4a9e 8a3e
00000330: 599b 713e b80f 8ebe 4d58 97bc 020a 403e
00000340: 6e91 84be c6aa 7abd d5c2 4bbe f544 ac3d
00000350: 82b9 32bd 0264 873e dd4f e33d 9999 ac3d
00000360: c075 33be 2def 653e 13cb 81bd 2a59 87be
00000370: ac90 bfbc b0ef a63c f334 4a3e c5d5 cb3b
00000380: 10cc d4bd a00f 8cbe 8695 2e3e 1348 893e
00000390: 6891 673e e665 4a3e c3fa d7bd cbe3 c4bd
000003a0: d12f 9bbd c931 ff3d f600 1dbe 74b4 553e
000003b0: 57b8 8cbd 9f26 07be c771 7abe 000b f53d
000003c0: 7cf6 053e ce17 153e c9d0 d2bc fb85 85bd
000003d0: cde3 41bd ed1e c4bd 4821 2d3e 5c88 ae3c
000003e0: 717e 20be 17aa 9a3d 0e83 5f3e 0bdd 5ebe
000003f0: 774d e5bd ef43 bd3d 4667 883e 669b 68be

bias f4 [64]
0.0 0.0 0.0 0.0 0.0 0.0 0.0 0.0
0.0 0.0 0.0 0.0 0.0 0.0 0.0 0.0
0.0 0.0 0.0 0.0 0.0 0.0 0.0 0.0
0.0 0.0 0.0 0.0 0.0 0.0 0.0 0.0
0.0 0.0 0.0 0.0 0.0 0.0 0.0 0.0
0.0 0.0 0.0 0.0 0.0 0.0 0.0 0.0
0.0 0.0 0.0 0.0 0.0 0.0 0.0 0.0
0.0 0.0 0.0 0.0 0.0 0.0 0.0 0.0
00000000: 0000 0000 0000 0000 0000 0000 0000 0000
00000010: 0000 0000 0000 0000 0000 0000 0000 0000
00000020: 0000 0000 0000 0000 0000 0000 0000 0000
00000030: 0000 0000 0000 0000 0000 0000 0000 0000
00000040: 0000 0000 0000 0000 0000 0000 0000 0000
00000050: 0000 0000 0000 0000 0000 0000 0000 0000
00000060: 0000 0000 0000 0000 0000 0000 0000 0000
00000070: 0000 0000 0000 0000 0000 0000 0000 0000
00000080: 0000 0000 0000 0000 0000 0000 0000 0000
00000090: 0000 0000 0000 0000 0000 0000 0000 0000
000000a0: 0000 0000 0000 0000 0000 0000 0000 0000
000000b0: 0000 0000 0000 0000 0000 0000 0000 0000
000000c0: 0000 0000 0000 0000 0000 0000 0000 0000
000000d0: 0000 0000 0000 0000 0000 0000 0000 0000
000000e0: 0000 0000 0000 0000 0000 0000 0000 0000
000000f0: 0000 0000 0000 0000 0000 0000 0000 0000

weight f4 [64, 64]
-0.21632062 0.12737708 0.13030949 -0.11175721 0.0013803473 -0.008144519 0.17147213 0.08943689
0.16741624 -0.11914267 -0.09437346 -0.20367904 -0.1323263 -0.14531513 -0.17333613 0.15771136
-0.17718601 0.061321106 0.14618348 -0.092354506 -0.100304656 -0.16247363 0.17255123 0.09968365
0.14246218 -0.008742501 0.101005666 -0.18476655 0.18519062 -0.19669352 0.11981176 -0.099281326
-0.07977753 -0.073448196 -0.07216962 -0.17779362 -0.115843765 0.16582337 -0.1461378 -0.17393179
0.11343112 0.16545835 -0.046003617 -0.14241397 -0.1072291 0.06112284 -0.17315908 0.06745945
0.17528744 0.0028350262 -0.0778343 0.032477908 -0.0023420118 0.048567876 -0.017881101 0.09883991
-0.0032592064 0.112145744 -0.124588355 0.1235264 -0.141908 -0.13231412 -0.09379065 0.07081265
0.1817817 0.059487183 -0.19086552 -0.027174404 0.011489981 0.18601304 0.16921821 0.1670511
-0.057398338 0.20312726 0.07726288 0.03154332 -0.07704073 -0.086612806 0.13534853 -0.065808594
-0.14469466 0.1929386 -0.131314 0.009550676 -0.16957426 0.11280304 -0.20169328 0.17567231
0.16614878 -0.15007462 -0.028520966 0.15008274 -0.005271088 -0.051373042 -0.20652631 -0.034554753
0.14884399 0.018930156 -0.1812007 0.16459848 -0.18636072 -0.16346382 0.106736936 0.08482836
0.17095189 0.17432642 -0.066460334 0.06914835 -0.20111321 0.0462007 0.19864365 -0.15576449
0.15336871 0.020132238 -0.117666386 0.13976261 -0.09224781 -0.03936266 0.07635841 -0.19629763
0.11449403 -0.026055068 0.06547833 -0.18365622 -0.13555168 -0.12689188 0.027836805 -0.09407559
-0.17532274 -0.019301789 0.068652496 -0.049970396 0.10795224 -0.21585502 0.03882727 0.13921925
-0.112933144 0.00064833637 -0.07189825 0.107655786 -0.14581533 0.1287567 -0.18170322 0.19914043
-0.16283745 -0.20854196 -0.01584372 0.09204572 -0.06704159 0.08241289 0.16762356 -0.20121443
0.18812467 0.07821347 -0.18204033 0.18909277 0.13541126 0.21017456 0.016048184 -0.015839899
-0.1630107 -0.20181833 0.088333294 0.15694277 0.15082964 -0.042425044 -0.0063239895 -0.1635667
0.09912536 -0.10532345 -0.04632007 -0.104599364 -0.18695924 -0.029165018 -0.06116976 -0.14366703
0.18833926 0.11208115 -0.01170291 -0.20779252 -0.08202022 -0.14028035 -0.07956839 0.18343559
0.08839127 0.025432128 0.144963 -0.036631726 0.16141161 -0.09928257 -0.013962073 -0.012045996
0.0069043175 -0.16831861 -0.037464138 -0.026815161 0.21331197 0.06570182 -0.024339816 -0.012720116
-0.13944682 0.01602707 -0.14617951 0.13283595 -0.21398784 -0.07665911 -0.06420293 -0.15008608
-0.052760433 0.010209439 -0.21638376 -0.2099005 0.21057032 -0.21534553 0.010157923 -0.07504757
0.1520686 0.20894362 0.0120262 -0.12441902 -0.08937445 0.05675155 -0.1126567 -0.07327166
-0.07269099 -0.004509809 0.17355321 -0.059030663 -0.1939274 0.20628344 0.027366323 -0.0571708
0.046762086 0.14392757 -0.07362917 -0.2073859 -0.2038672 -0.15225911 0.104078785 -0.03480588
0.21516064 -0.025315754 0.05550389 0.060449105 -0.19273795 -0.017844167 0.15173525 -0.05463829
0.0895663 -0.0515542 0.15901667 0.1412666 0.059849083 0.04204175 0.05528309 -0.036452375
00000000: 2783 5dbe 236f 023e da6f 053e f7e0 e4bd
00000010: c5ec b43a 9770 05bc 6496 2f3e b02a b73d
00000020: 2a6f 2b3e 1201 f4bd df46 c1bd 3d91 50be
00000030: 8c80 07be 7dcd 14be 077f 31be 167f 213e
00000040: 4070 35be d72b 7b3d 1fb1 153e 5c24 bdbd
00000050: 876c cdbd 7d5f 26be 45b1 303e f126 cc3d
00000060: 9be1 113e b53c 0fbc 0fdc ce3d 7133 3dbe
00000070: 9ca2 3d3e 076a 49be de5f f53d 0254 cbbd
00000080: 6762 a3bd 026c 96bd aacd 93bd 880f 36be
00000090: 7f3f edbd 9acd 293e 26a5 15be 2d1b 32be
000000a0: 934e e83d ea6d 293e 4a6e 3cbd f8d4 11be
000000b0: ee9a dbbd f15b 7a3d 9d50 31be 2e28 8a3d
000000c0: 8d7e 333e d9cb 393b 9767 9fbd 8e07 053d
000000d0: 707c 19bb 1cef 463d 637b 92bc 946c ca3d
000000e0: 6998 55bb abac e53d 2e28 ffbd 69fb fc3d
000000f0: 5550 11be 5a7d 07be 5015 c0bd 3906 913d
00000100: fb24 3a3e d5a8 733d 4072 43be db9c debc
00000110: 7940 3c3c 347a 3e3e 8a47 2d3e 720f 2b3e
00000120: 851a 6bbd 9800 503e 003c 9e3d 9133 013d
00000130: 88c7 9dbd 0e62 b1bd ce98 0a3e a8c6 86bd
00000140: d62a 14be b291 453e 2d77 06be 707a 1c3c
00000150: e0a4 2dbe 4805 e73d af88 4ebe 71e3 333e
00000160: e822 2a3e 29ad 19be cda4 e9bc 4aaf 193e
00000170: 17b9 acbb 8a6c 52bd a27b 53be 4989 0dbd
00000180: 8f6a 183e 6a13 9b3c ad8c 39be 818c 283e
00000190: 58d5 3ebe 0f63 27be e598 da3d 7eba ad3d
000001a0: 030e 2f3e a082 323e 5b1c 88bd a69d 8d3d
000001b0: 9ff0 4dbe f23c 3d3d 3e69 4b3e ba80 1fbe
000001c0: b00c 1d3e 5dec a43c 13fb f0bd ee1d 0f3e
000001d0: 6bec bcbd be3a 21bd cc61 9c3d 3f02 49be
000001e0: d97b ea3d 7071 d5bc 8119 863d 6010 3cbe
000001f0: 0fce 0abe f2ef 01be 030a e43c b4aa c0bd
00000200: ce87 33be c91e 9ebc ae99 8c3d c2ad 4cbd
00000210: 1016 dd3d 1909 5dbe 5809 1f3d 7e8f 0e3e
00000220: 7e49 e7bd 1ef5 293a 643f 93bd a37a dc3d
00000230: 9d50 15be ccd8 033e 6910 3abe 78eb 4b3e
00000240: dcbe 26be 068c 55be b0ca 81bc 7782 bc3d
00000250: 1a4d 89bd 17c8 a83d 83a5 2b3e 280b 4ebe
00000260: c1a3 403e 622e a03d c868 3abe 89a1 413e
00000270: 40a9 0a3e 0038 573e 7b77 833c adc2 81bc
00000280: 47ec 26be 77a9 4ebe 16e8 b43d 9bb5 203e
00000290: 1673 1a3e e2c5 2dbd 7839 cfbb 077e 27be
000002a0: 3d02 cb3d d2b3 d7bd 1dba 3dbd 3138 d6bd
000002b0: 3e72 3fbe 7aeb eebc 248d 7abd 731d 13be
000002c0: 02dc 403e cd8a e53d 90bd 3fbc 90c7 54be
000002d0: 38fa a7bd a7a5 0fbe c1f4 a2bd 8ad6 3b3e
000002e0: 7b06 b53d 0a57 d03c 2e71 143e 260b 16bd
000002f0: 1649 253e a954 cbbd 2ec1 64bc 925c 45bc
00000300: 9d3d e23b b75b 2cbe ff73 19bd 78ab dbbc
00000310: 746e 5a3e ad8e 863d 4b64 c7bc 0968 50bc
00000320: 26cb 0ebe 344b 833c 15b0 15be 2606 083e
00000330: a11f 5bbe 74ff 9cbd d37c 83bd 2ab0 19be
00000340: 531b 58bd 7e45 273c b493 5dbe 28f0 56be
00000350: bf9f 573e 8a83 5cbe 6b6d 263c 8ab2 99bd
00000360: dfb7 1b3e 51f5 553e 8a09 453c 66cf febd
00000370: f409 b7bd 5074 683d 8eb8 e6bd 740f 96bd
00000380: 04df 94bd 05c7 93bb efb7 313e 23ca 71bd
00000390: e894 46be f73b 533e 572f e03c ee2b 6abd
000003a0: 9a89 3f3d c061 133e e4ca 96bd f85c 54be
000003b0: 90c2 50be d0e9 1bbe 4227 d53d 9c90 0ebd
000003c0: 1253 5c3e fc62 cfbc 0c58 633d 7b99 773d
000003d0: 195d 45be ee2d 92bc 7c60 1b3e 66cc 5fbd
000003e0: 896e b73d 7f2a 53bd 44d5 223e 31a8 103e
000003f0: 5024 753d f833 2c3d 8570 623d 164f 15bd

bias f4 [64]
0.0 0.0 0.0 0.0 0.0 0.0 0.0 0.0
0.0 0.0 0.0 0.0 0.0 0.0 0.0 0.0
0.0 0.0 0.0 0.0 0.0 0.0 0.0 0.0
0.0 0.0 0.0 0.0 0.0 0.0 0.0 0.0
0.0 0.0 0.0 0.0 0.0 0.0 0.0 0.0
0.0 0.0 0.0 0.0 0.0 0.0 0.0 0.0
0.0 0.0 0.0 0.0 0.0 0.0 0.0 0.0
0.0 0.0 0.0 0.0 0.0 0.0 0.0 0.0
00000000: 0000 0000 0000 0000 0000 0000 0000 0000
00000010: 0000 0000 0000 0000 0000 0000 0000 0000
00000020: 0000 0000 0000 0000 0000 0000 0000 0000
00000030: 0000 0000 0000 0000 0000 0000 0000 0000
00000040: 0000 0000 0000 0000 0000 0000 0000 0000
00000050: 0000 0000 0000 0000 0000 0000 0000 0000
00000060: 0000 0000 0000 0000 0000 0000 0000 0000
00000070: 0000 0000 0000 0000 0000 0000 0000 0000
00000080: 0000 0000 0000 0000 0000 0000 0000 0000
00000090: 0000 0000 0000 0000 0000 0000 0000 0000
000000a0: 0000 0000 0000 0000 0000 0000 0000 0000
000000b0: 0000 0000 0000 0000 0000 0000 0000 0000
000000c0: 0000 0000 0000 0000 0000 0000 0000 0000
000000d0: 0000 0000 0000 0000 0000 0000 0000 0000
000000e0: 0000 0000 0000 0000 0000 0000 0000 0000
000000f0: 0000 0000 0000 0000 0000 0000 0000 0000
