experiments/ppo_pendulum_first_try_20250829_045330/checkpoints/auto_step_26624.pt (torch, 145929 bytes, 40 tensors)

shared_layers.0.weight f4 [64, 3]
-0.11271678 -0.076225884 -0.070603065 0.053006552 -0.22124591 -0.16858706 0.14818214 -0.17605293
-0.05178735 0.38458923 0.5246596 -0.1981384 -0.017134894 0.009619906 0.047065858 -0.076447
-0.093788385 0.06400393 0.09129273 0.032174535 0.032782245 -0.06278612 -0.0031291407 -0.11524105
0.0065315417 0.18930654 0.13000908 0.1388974 0.26812747 -0.0048538866 0.07921115 -0.15403287
0.10050517 0.20725775 -0.005304011 -0.09730572 -0.14265843 0.38820583 0.12689942 0.039039154
-0.121697 0.48072815 -0.010156464 0.32837987 -0.100540884 -0.096473396 -0.066635214 -0.08717656
0.0181718 0.13631041 0.14927591 0.03391613 -0.05140079 0.10666895 -0.059366174 0.44491294
0.14377514 -0.23095752 0.15752137 -0.07452665 -0.28649247 0.133868 -0.1276656 0.16234234
0.23350063 0.1146556 0.1768824 0.13266264 0.08826705 -0.06499181 0.2783173 0.11640101
-0.3431115 0.0051131914 -0.036876407 -0.10864367 -0.2855548 -0.17047933 -0.15724438 -0.21243206
0.068192616 0.10842302 -0.032267723 -0.46892366 -0.009437104 -0.18116535 0.12651253 0.17581864
0.11514125 -0.051781088 -0.08602815 0.3744952 -0.56355214 -0.2707077 -0.12014638 -0.07701862
0.28273407 0.02884534 0.13808121 0.26900724 0.009460474 0.03835904 -0.19387248 -0.28407732
-0.15863417 -0.051907368 0.23757428 0.081993885 0.040545885 0.39950928 -0.3383149 -0.024863986
-0.2782822 -0.04499663 -0.13443965 0.3580784 0.12381575 -0.19304627 0.001185754 0.03114598
-0.21587986 -0.048902128 0.42024562 -0.21740952 -0.23227336 0.51013047 0.16127846 -0.22594574
-0.10350524 -0.19841714 0.19326063 0.013826219 0.05118759 0.14877783 -0.13529672 0.057287686
0.11236255 -0.018610537 -0.16742493 -0.16015054 -0.06798973 0.21307349 0.18739994 0.051787283
-0.22165683 0.023365311 0.03518238 0.26183814 0.032776017 0.090651125 -0.10719114 0.12254479
-0.12194449 -0.04176978 -0.15758225 -0.20026597 0.121136874 -0.07098976 -0.14219284 0.06997503
0.21525897 0.0936433 -0.22264016 0.030026387 -0.14533855 0.135558 -0.114697866 0.48475933
0.25667945 0.22975723 0.03587133 -0.11528932 0.099849835 -0.3757581 -0.03896553 0.5086971
-0.31610578 -0.16766462 0.12516151 -0.14463866 0.30372825 -0.2208389 -0.18526256 -0.07799346
-0.023218961 0.29547113 -0.23640142 -0.05631304 -0.05887337 0.2812824 -0.01680304 0.07788791
00000000: 0ed8 e6bd 511c 9cbd 5798 90bd 661d 593d
00000010: 4a8e 62be 16a2 2cbe 0fbd 173e 3847 34be
00000020: f91e 54bd e1e8 c43e 1750 063f cbe4 4abe
00000030: 7a5e 8cbc cf9c 1d3c 21c8 403d 3f90 9cbd
00000040: 2014 c0bd 7e14 833d aff7 ba3d 72c9 033d
00000050: ad46 063d 0296 80bd 4512 4dbb 8003 ecbd
00000060: 8b06 d63b 93d9 413e 1a21 053e 1f3b 0e3e
00000070: 0148 893e 5a0d 9fbb 7539 a23d cbba 1dbe
00000080: a8d5 cd3d 603b 543e 45cd adbb 3948 c7bd
00000090: 0d15 12be eac2 c63e ecf1 013e 85e7 1f3d
000000a0: 473c f9bd 0022 f63e 4c67 26bc 6821 a83e
000000b0: 61e8 cdbd d893 c5bd 0b78 88bd a089 b2bd
000000c0: 07dd 943c f594 0b3e c9db 183e a4eb 0a3d
000000d0: a389 52bd 4075 da3d f229 73bd a1cb e33e
000000e0: ca39 133e 2180 6cbe 484d 213e 6ea1 98bd
000000f0: 24af 92be b114 093e c5ba 02be 123d 263e
00000100: ca1a 6f3e 8ed0 ea3d a920 353e b7d8 073e
00000110: 5bc5 b43d 6d1a 85bd 9b7f 8e3e a763 ee3d
00000120: 4fac afbe 8f8c a73b b70b 17bd 9380 debd
00000130: 3d34 92be 2292 2ebe ac04 21be ca87 59be
00000140: 92a8 8b3d e30c de3d 292b 04bd c316 f0be
00000150: 159e 1abc 6983 39be 808c 013e cd09 343e
00000160: 2dcf eb3d 6818 54bd 872f b0bd d6bd bf3e
00000170: f444 10bf 339a 8abe 4e0f f6bd f0bb 9dbd
00000180: 85c2 903e 104d ec3c 2965 0d3e 51bb 893e
00000190: 1b00 1b3c 5e1e 1d3d 8286 46be 9572 91be
000001a0: ff70 22be d29c 54bd ac46 733e 69ec a73d
000001b0: 7113 263d 7b8c cc3e 9c37 adbe 8faf cbbc
000001c0: 017b 8ebe 634e 38bd 8caa 09be 0d56 b73e
000001d0: 1d93 fd3d ecad 45be 4d6b 9b3a db25 ff3c
000001e0: 9c0f 5dbe 994d 48bd 6f2a d73e 9aa0 5ebe
000001f0: 11d9 6dbe e997 023f 2e26 253e 525e 67be
00000200: 8efa d3bd dd2d 4bbe 1de6 453e 5e87 623c
00000210: 14aa 513d 3759 183e 398b 0abe 7ea6 6a3d
00000220: 561e e63d 2075 98bc 7171 2bbe 81fe 23be
00000230: 333e 8bbd f02f 5a3e c5e5 3f3e e71e 543d
00000240: 02fa 62be 9c68 bf3c 661b 103d a60f 863e
00000250: 2540 063d 4ca7 b93d 0787 dbbd c3f8 fa3d
00000260: 08be f9bd ca16 2bbd 3e5d 21be 8612 4dbe
00000270: 9c16 f83d 1463 91bd 009b 11be 124f 8f3d
00000280: d96c 5c3e 0fc8 bf3d c8fb 63be e6f9 f53c
00000290: a1d3 14be b7cf 0a3e b7e6 eabd 6032 f83e
000002a0: 7d6b 833e 7b45 6b3e d1ed 123d cf1c ecbd
000002b0: 127e cc3d 5e63 c0be 529a 1fbd f939 023f
000002c0: 9ed8 a1be 46b0 2bbe 572a 003e 281c 14be
000002d0: 4582 9b3e 9823 62be 78b5 3dbe 09bb 9fbd
000002e0: b135 bebc fe47 973e 3713 72be 81a8 66bd
000002f0: 3425 71bd 3f04 903e 87a6 89bc b283 9f3d

shared_layers.0.bias f4 [64]
-0.037237775 -0.056932688 -0.0041569467 -0.05055584 -0.038409293 -0.045221783 0.06077914 0.010170343
0.060362738 0.0024750126 0.013068809 0.158908 -0.02569191 0.10362134 -0.0016898602 0.009670736
-0.09882531 -0.07538355 0.007337824 0.007975534 0.004029237 0.017828807 0.011290358 -0.026043711
-0.011433251 -0.044441868 -0.05508325 -0.019863602 -0.04896979 0.033647716 -0.10360256 -0.0078029176
-0.052357886 0.019405471 0.020529518 -0.024781993 -0.07547271 -0.003636025 -0.00544178 -0.0006625106
0.0019625176 0.046053953 0.029988248 0.010665868 -0.014336056 0.029868783 0.008827872 0.025055537
-0.05391183 0.026690362 0.071911685 0.102196366 0.068025194 0.039298214 0.057210643 0.08213696
0.044098202 -0.06292251 -0.06215096 -0.03933925 0.09399051 0.044495344 -0.02548943 0.0036160399
00000000: a386 18bd 4032 69bd ff36 88bb a413 4fbd
00000010: 1053 1dbd 7a3a 39bd 8cf3 783d 83a1 263c
00000020: eb3e 773d d233 223b 8f1e 563c c7b8 223e
00000030: d777 d2bc 6d37 d43d 4d7e ddba 0272 1e3c
00000040: ed64 cabd b162 9abd 2172 f03b d0ab 023c
00000050: b107 843b b80d 923c 32fb 383c 9f59 d5bc
00000060: 8852 3bbc ad08 36bd f99e 61bd feb8 a2bc
00000070: 8c94 48bd 30d2 093d 942d d4bd 9eaf ffbb
00000080: 3975 56bd 39f8 9e3c 852d a83c 9b03 cbbc
00000090: 7091 9abd 604a 6ebb f650 b2bb 55ac 2dba
000000a0: 959d 003b 12a3 3c3d eaa9 f53c e5bf 2e3c
000000b0: c7e1 6abc 61af f43c c7a2 103c 4541 cd3c
000000c0: a7d2 5cbd bfa5 da3c 6f46 933d 544c d13d
000000d0: cb50 8b3d 2af7 203d b555 6a3d 6c37 a83d
000000e0: 51a0 343d 84dd 80bd 0192 7ebd 3222 21bd
000000f0: 197e c03d c040 363d 36cf d0bc 15fb 6c3b

shared_layers.2.weight f4 [64, 64]
-0.33694804 -0.17572142 0.04450993 -0.35833493 -0.39676747 0.03892835 -0.13426171 0.16175047
-0.41075316 -0.18377073 0.20616947 0.05315746 0.102432296 -0.3802943 0.12903152 0.1662467
0.10767202 0.05304194 0.137996 -0.111595884 0.0811659 -0.2517513 -0.042839017 -0.025760125
0.09546523 0.06420883 0.04303489 -0.0682409 0.14814842 0.17259158 0.0643014 -0.37681672
0.09408433 -0.103883706 -0.03803524 0.13331015 0.122409515 0.07534752 0.20707387 -0.087237194
0.04289697 0.19637205 -0.2446736 -0.26176172 -0.03949129 0.053883154 0.098368324 -0.3295051
-0.16444896 0.23499213 -0.15943539 -0.13326326 -0.043461848 0.12805192 -0.22832935 -0.099410646
-0.20824485 0.26457158 0.1130008 -0.16478258 -0.05315479 -0.01720145 0.045321606 -0.035308205
-0.31742778 0.021587111 -0.11208365 0.2892405 -0.11418973 0.078920126 0.26604176 -0.13154046
0.14513497 -0.11549358 0.07681689 0.46891034 -0.3110935 -0.06171727 0.100021884 -0.17597966
-0.036336634 -0.012659454 0.07048301 0.08033102 0.072414786 0.054237872 0.113283105 0.11588511
0.050987456 -0.42071158 0.09118933 0.073088124 0.023835327 -0.11654348 -0.22135203 -0.022526026
-0.25457105 -0.1950739 -0.13058652 0.2819168 0.18225715 0.120276354 -0.07233947 0.12127033
-0.09143655 -0.17159563 -0.11692133 -0.2909287 0.14800355 -0.04166156 0.41159946 0.16536826
0.15142135 0.11380478 -0.109861694 -0.19799526 -0.07853053 -0.14660344 -0.059405692 -0.029005278
-0.06344363 -0.15148605 0.23450732 0.10934734 -0.2982721 -0.17889503 -0.012951909 0.07382615
0.24111639 0.017885987 0.0507723 0.0009115506 -0.030322304 -0.20661788 -0.39777973 0.07921783
-0.014180304 -0.020311601 0.10718727 0.30462548 -0.17557593 0.44264686 -0.2328877 0.109864585
-0.00870857 -0.008468984 -0.031360794 -0.23543441 0.21455784 0.27285 -0.17328468 -0.0003242924
0.026182778 -0.11787612 0.016654141 -0.0004840885 0.08979193 0.22512107 0.03554986 -0.2506999
0.056682933 0.022608433 -0.07288676 -0.012052603 0.03246558 -0.09486919 0.27824736 -0.2902424
0.034274045 -0.07222695 0.19078363 0.10476205 -0.078187175 0.0038375156 0.29363278 -0.29132774
0.20589112 0.06776788 0.46995556 0.18238096 -0.18953654 0.042887207 0.114496455 -0.15202168
-0.18001325 -0.12155568 0.05343836 0.0371432 -0.31397495 0.06803391 -0.13170937 0.10779723
-0.019720223 -0.0026764167 0.060139976 -0.07946242 0.06663669 0.24933249 0.0015710971 0.17988983
0.023860179 -0.07217516 -0.12259584 -0.078316264 -0.14467175 -0.0992535 -0.0675671 -0.30477324
0.27302745 0.07122096 -0.1428263 -0.2312211 -0.4943906 0.09923949 0.14679307 0.31094602
-0.015887612 0.110506244 0.05516067 0.35933772 -0.18080778 0.1921019 -0.020896759 -0.1735796
-0.03968318 -0.21662529 0.05184651 -0.24035098 0.28614265 -0.25279826 -0.06508996 0.043627553
-0.1305676 0.04206247 0.14307944 0.13644706 -0.05116233 -0.002264095 0.01545446 -0.112629265
-0.113860294 -0.024504827 -0.041091245 0.022351224 0.31117323 0.15191792 -0.22910531 0.09589835
-0.25876516 -0.27807316 0.30804414 0.13345513 -0.3002268 0.22160022 0.044715453 -0.20479934
00000000: 7484 acbe 51f0 33be 0b50 363d ad77 b7be
00000010: 1b25 cbbe 5573 1f3d e77b 09be eaa1 253e
00000020: 3d4e d2be 652e 3cbe 171e 533e a3bb 593d
00000030: 06c8 d13d efb5 c2be d720 043e 933c 2a3e
00000040: 2683 dc3d 8142 593d d34e 0d3e 628c e4bd
00000050: 4f3a a63d 8ce5 80be f777 2fbd e606 d3bc
00000060: 4683 c33d eb7f 833d 5a45 303d e3c1 8bbd
00000070: 38b4 173e d9bb 303e 74b0 833d 1fee c0be
00000080: 49af c03d fbc0 d4bd d7ca 1bbd 7582 083e
00000090: d7b1 fa3d cd4f 9a3d 2c0b 543e 6aa9 b2bd
000000a0: bcb4 2f3d c115 493e b78b 7abe a205 86be
000000b0: 9ec1 21bd 95b4 5c3d 5575 c93d e4b4 a8be
000000c0: 4f65 28be c7a1 703e 0843 23be 2a76 08be
000000d0: 0d05 32bd 0b20 033e 2bcf 69be cf97 cbbd
000000e0: 233e 55be ed75 873e f76c e73d c4bc 28be
000000f0: d6b8 59bd 0eea 8cbc 26a3 393d 569f 10bd
00000100: e585 a2be 74d7 b03c 1d8c e5bd 5517 943e
00000110: 4edc e9bd e0a0 a13d a036 883e 8bb2 06be
00000120: 439e 143e e687 ecbd 2c52 9d3d 0415 f03e
00000130: a647 9fbe 40cb 7cbd 46d8 cc3d 0334 34be
00000140: b9d5 14bd 9969 4fbc 6559 903d 9784 a43d
00000150: 344e 943d 8828 5e3d f900 e83d 2c55 ed3d
00000160: 39d8 503d 8267 d7be 79c1 ba3d 3aaf 953d
00000170: 4e42 c33c 59ae eebd 1baa 62be 8088 b8bc
00000180: 2357 82be 74c1 47be 79b8 05be 6657 903e
00000190: 9ea1 3a3e 7353 f63d b726 94bd 945c f83d
000001a0: 1643 bbbd c4b6 2fbe 7374 efbd 9bf4 94be
000001b0: 3e8e 173e 50a5 2abd 2abd d23e 4c56 293e
000001c0: 330e 1b3e 7b12 e93d 2bff e0bd 45bf 4abe
000001d0: 9dd4 a0bd 361f 16be 6253 73bd 7a9c edbc
000001e0: bcee 81bd 291f 1bbe b022 703e 80f1 df3d
000001f0: 1fb7 98be 4230 37be 3e34 54bc 2a32 973d
00000200: 37e7 763e a285 923c 9ef6 4f3d 20f5 6e3a
00000210: 7b66 f8bc a393 53be c9a9 cbbe f53c a23d
00000220: 8154 68bc 8464 a6bc 0085 db3d dff7 9b3e
00000230: 2dca 33be 9ca2 e23e 1d7a 6ebe af00 e13d
00000240: 64ae 0ebc 7ec1 0abc 2d74 00bd b815 71be
00000250: 0db5 5b3e ffb2 8b3e 8a71 31be ca05 aab9
00000260: 447d d63c 0969 f1bd 446e 883c 42cd fdb9
00000270: d5e4 b73d 2386 663e bb9c 113d bd5b 80be
00000280: 5d2c 683d 5235 b93c a745 95bd 4878 45bc
00000290: a1fa 043d c74a c2bd 7076 8e3e a79a 94be
000002a0: f162 0c3d b9eb 93bd c95c 433e 7c8d d63d
000002b0: 9920 a0bd d47e 7b3b 0957 963e e928 95be
000002c0: 1fd5 523e e3c9 8a3d 049e f03e 13c2 3a3e
000002d0: de15 42be 7faa 2f3d 1e7d ea3d 92ab 1bbe
000002e0: 6555 38be 2ff2 f8bd 2fe2 5a3d 7823 183d
000002f0: 53c1 a0be 5d55 8b3d d2de 06be cbc4 dc3d
00000300: 4e8c a1bc d266 2fbb 5655 763d 31bd a2bd
00000310: d178 883d 0451 7f3e 45ed cd3a 0a35 383e
00000320: 6c76 c33c 92d0 93bd 8713 fbbd 4764 a0bd
00000330: d524 14be 6b45 cbbd 9f60 8abd 3d0b 9cbe
00000340: 41ca 8b3e 4bdc 913d 0f41 12be 39c5 6cbe
00000350: c420 fdbe 133e cb3d ec50 163e 5134 9f3e
00000360: bd26 82bc 1951 e23d 28f0 613d 1dfb b73e
00000370: ad25 39be 5cb6 443e ae2f abbc dabe 31be
00000380: d58a 22bd 05d3 5dbe 025d 543d 911e 76be
00000390: 4a81 923e c66e 81be e34d 85bd ceb2 323d
000003a0: 83b3 05be b249 2c3d 6b83 123e c7b8 0b3e
000003b0: 978f 51bd 3661 14bb b434 7d3c 2caa e6bd
000003c0: 962f e9bd 59be c8bc 4b4f 28bd ea19 b73c
000003d0: 1952 9f3e 5f90 1b3e 959a 6abe 5b66 c43d
000003e0: de7c 84be 9b5f 8ebe f6b7 9d3e 76a8 083e
000003f0: 54b7 99be 2beb 623e 8d27 373d ebb6 51be

shared_layers.2.bias f4 [64]
-0.057513494 0.04941334 -0.037902843 0.015278052 0.012103108 -0.031838816 0.07425961 -0.02035659
0.017131643 -0.02884258 0.040829293 0.019321958 0.046900567 0.052712057 0.03651544 0.042092096
-0.0828529 0.031368043 -0.06919426 0.021413993 0.029028766 -0.001324987 -0.03899224 -0.0010086835
-0.10120048 0.018471682 -0.006092916 0.029895345 0.024083236 0.019047277 0.02080029 0.048879262
0.06925877 -0.03186012 -0.023666034 -0.13228013 -0.09737382 0.044491034 0.060206924 -0.031250324
0.0072541274 -0.042328767 0.00732373 -0.06251542 -0.081485 0.014146264 0.040141884 -0.06213211
-0.08830876 -0.011042976 -0.02893592 0.023549411 0.057155456 0.039925907 -0.0244009 0.035667747
0.007501184 -0.05957489 -0.022191314 0.03332916 -0.09118283 0.016342398 0.05469528 -0.061281513
00000000: 4593 6bbd a465 4a3d 0340 1bbd cb50 7a3c
00000010: 1d4c 463c 6b69 02bd 6c15 983d ddc2 a6bc
00000020: a957 8c3c 4647 ecbc 9e3c 273d 1549 9e3c
00000030: cf1a 403d 99e8 573d 3791 153d c368 2c3d
00000040: c8ae a9bd c77b 003d b8b5 8dbd 666c af3c
00000050: bccd ed3c 30ab adba 54b6 1fbd cd35 84ba
00000060: 3242 cfbd ed51 973c 15a7 c7bb 15e7 f43c
00000070: 354a c53c 0909 9c3c 5f65 aa3c 9f35 483d
00000080: 8bd7 8d3d c27f 02bd 45df c1bc 7174 07be
00000090: ed6b c7bd 3b3c 363d 899b 763d 5700 00bd
000000a0: 08b4 ed3b ee60 2dbd e6fb ef3b 1608 80bd
000000b0: 9ce1 a6bd bbc5 673c d16b 243d 3d7e 7ebd
000000c0: 39db b4bd 99ed 34bc 060b edbc b2ea c03c
000000d0: d71b 6a3d 5989 233d 65e4 c7bc 5818 123d
000000e0: 7ecc f53b cd04 74bd 8fca b5bc 2884 083d
000000f0: 10be babd 7ee0 853c 2808 603d 5302 7bbd

mean_layer.weight f4 [1, 64]
0.011236961 0.008748221 -0.004069712 0.007014952 0.0019261831 0.00802078 -0.036632497 0.025234101
0.05734693 -0.004342821 0.00044041587 0.018159173 0.004412362 0.0003022342 0.0070567816 0.014969012
0.038600355 -0.01904147 -0.013216729 -0.014143496 0.007679418 -0.018391237 -0.0060297004 0.039813
0.04695075 -0.0007848435 -0.0016936725 0.014450251 0.009465226 0.028970947 -0.006137573 0.006756519
0.0011252308 0.014196114 -0.065362714 -0.002693378 0.048004866 -0.001875766 -0.031120945 -0.052142337
0.04957445 0.045625307 -0.046263147 -0.0006610404 0.004584527 -0.008498446 0.02077052 0.030877313
-0.0028360984 -0.0558762 -0.0026056143 -0.0027173192 0.013001019 0.0007777518 -0.020016413 0.0019397854
0.0063196635 0.031219421 -0.063694224 0.021714874 -0.0051718797 0.050143044 -0.044958916 0.03521592
00000000: 3b1b 383c b354 0f3c 385b 85bb afdd e53b
00000010: fb77 fc3a 9769 033c f50b 16bd bfb7 ce3c
00000020: 9de4 6a3d 394e 8ebb 9ee7 e639 8cc2 943c
00000030: 9395 903b 3075 9e39 933c e73b 9640 753c
00000040: 681b 1e3d dbfc 9bbc fb8a 58bc 1fba 67bc
00000050: a1a3 fb3b 38a9 96bc cb94 c5bb f512 233d
00000060: 6e4f 403d f5bd 4dba 38fe ddba bfc0 6c3c
00000070: 0914 1b3c 7b54 ed3c b21d c9bb ca65 dd3b
00000080: 7b7c 933a d196 683c e3dc 85bd 6283 30bb
00000090: c0a0 443d 43dc f5ba 5af1 febc 3493 55bd
000000a0: 940e 4b3d 9ae1 3a3d 6d7e 3dbd ac49 2dba
000000b0: cd39 963b 113d 0bbc f026 aa3c 6bf2 fc3c
000000c0: d6dd 39bb 71de 64bd f4c2 2abb 0d15 32bb
000000d0: 3a02 553c 0ae2 4b3a 76f9 a3bc 6640 fe3a
000000e0: 2e15 cf3b dfbf ff3c 1e72 82bd 64e3 b13c
000000f0: df78 a9bb cb62 4d3d d726 38bd 923e 103d

layers.0.weight f4 [64, 3]
-0.27522498 0.23625974 0.0043445895 0.16770571 0.0790121 -0.098858304 -0.18637367 -0.102851145
-0.08150404 0.29362312 -0.0478155 0.0623527 0.06896951 0.021341786 -0.051494956 0.12125282
0.17165168 0.07249203 0.09325408 -0.24862139 -0.10181513 -0.12984353 -0.063422546 -0.06543555
-0.26097146 0.1671597 0.05336927 0.028370026 0.080681786 0.18885124 0.10280872 -0.04658666
-0.055448156 0.103840694 -0.12883256 -0.15915701 -0.04257455 -0.039225403 0.07349067 -0.06965479
-0.24251401 -0.05556231 0.22813937 0.0895437 0.1711404 -0.16684616 0.019336347 0.017410548
-0.10822846 -0.011571862 0.12630926 -0.20890963 0.030696196 -0.085829325 0.24471293 0.023769781
-0.123938836 -0.2582329 0.031538032 0.076800324 -0.006173028 -0.050034214 0.035918344 -0.18499038
0.08220638 0.13404827 0.17961581 0.13526943 -0.053962532 -0.13267913 -0.03636409 0.11258155
0.30927753 -0.104422435 -0.062391203 -0.15926027 -0.17370982 -0.04621567 -0.23067369 -0.11859293
0.056902092 0.27437446 0.041949037 -0.21786721 -0.032387137 -0.2243996 0.060215417 0.098479666
0.020460442 0.043594413 -0.1079137 0.038651437 0.10338423 0.13962923 -0.18670122 -0.041782543
-0.16602811 -0.024791695 0.009767552 -0.06192308 0.0055485307 0.07308041 0.060788818 0.04107883
0.09887809 0.18165056 0.14239654 0.008289613 0.27647445 0.09564443 -0.02933695 -0.19941401
0.061987866 -0.12680753 0.21150762 0.20627485 -0.009178275 0.19880676 -0.06499167 0.014243889
0.0016033459 0.05330212 0.0808426 -0.001094151 -0.21345839 -0.19255786 -0.21183851 0.18167175
0.07512886 0.19744313 -0.28302747 0.18100551 0.26251918 -0.15674332 -0.182979 -0.1552967
-0.07411048 0.013544755 -0.17066662 0.23400381 -0.054740813 0.05257829 -0.011376312 0.046173245
-0.16881597 -0.15333252 -0.16157275 -0.23699205 -0.19902062 -0.019512245 -0.29655486 -0.13648497
-0.12400492 -0.086209156 0.1013402 0.038733378 -0.23053026 0.06815959 -0.012939422 0.18293336
0.045651782 -0.24853821 0.0018763392 0.17501128 0.020757504 -0.12701228 0.07855499 0.039015155
-0.074476644 0.13863684 0.10762414 -0.26463023 0.06655907 -0.0032759148 0.11953005 0.18484373
-0.0321539 0.11603279 0.1793096 0.06454061 0.037531853 0.09499335 0.016385086 -0.20369868
-0.06691772 -0.1811675 0.044505324 -0.258349 -0.21203671 0.0017601126 0.116274826 -0.0985036
00000000: 4aea 8cbe 13ee 713e 0f5d 8e3b 0cbb 2b3e
00000010: 19d1 a13d 3976 cabd bdd8 3ebe 9fa3 d2bd
00000020: 97eb a6bd c555 963e 30da 43bd 8b65 7f3d
00000030: e33f 8d3d f8d4 ae3c 60ec 52bd 6653 f83d
00000040: 75c5 2f3e b476 943d fffb be3d 9b96 7ebe
00000050: 7384 d0bd b4f5 04be aee3 81bd 1303 86bd
00000060: 0d9e 85be ea2b 2b3e bc99 5a3d 4268 e83c
00000070: 7e3c a53d 3862 413e 618d d23d a7d1 3ebd
00000080: 9b1d 63bd 6eaa d43d afec 03be 0efa 22be
00000090: a762 2ebd d1aa 20bd 4782 963d 2ca7 8ebd
000000a0: 9855 78be 4e95 63bd 5e9d 693e b062 b73d
000000b0: 6e3f 2f3e b8d9 2abe 4267 9e3c 91a0 8e3c
000000c0: e2a6 ddbd e897 3dbc 3757 013e 68ec 55be
000000d0: 9776 fb3c 49c7 afbd 0796 7a3e d8b8 c23c
000000e0: a5d3 fdbd 1a37 84be 062e 013d 7d49 9d3d
000000f0: 1d47 cabb adf0 4cbd 1d1f 133d 1e6e 3dbe
00000100: d25b a83d f343 093e 35ed 373e 1284 0a3e
00000110: d107 5dbd 0add 07be 83f2 14bd 2891 e63d
00000120: a059 9e3e 6edb d5bd eb8d 7fbd 2015 23be
00000130: fde0 31be a44c 3dbd b935 6cbe dae0 f2bd
00000140: 2b12 693d cf7a 8c3e c1d2 2b3d 9518 5fbe
00000150: 60a8 04bd 02c9 65be 71a4 763d b5af c93d
00000160: a89c a73c 0e90 323d dc01 ddbd f850 1e3d
00000170: 1cbb d33d f7fa 0e3e 9b2e 3fbe 2c24 2bbd
00000180: 4603 2abe f417 cbbc 1508 203c 0ea3 7dbd
00000190: 73d0 b53b 2fab 953d b2fd 783d 4642 283d
000001a0: 9980 ca3d 9b02 3a3e 66d0 113e 28d1 073c
000001b0: 0f8e 8d3e 3ae1 c33d 0b54 f0bc 3033 4cbe
000001c0: fde6 7d3d d5d9 01be 7495 583e b739 533e
000001d0: 7a60 16bc 0094 4b3e 5a1a 85bd 335f 693c
000001e0: 5c27 d23a 5353 5a3d ce90 a53d 9e69 8fba
000001f0: d694 5abe e32d 45be 32ec 58be 2908 3a3e
00000200: 29dd 993d 882e 4a3e fae8 90be 8259 393e
00000210: ea68 863e 5281 20be d95e 3bbe 1906 1fbe
00000220: 3cc7 97bd d2ea 5d3c 3bc3 2ebe b29e 6f3e
00000230: e737 60bd 555c 573d b663 3abc 2820 3d3d
00000240: 18de 2cbe 3303 1dbe 5473 25be 0bae 72be
00000250: 10cc 4bbe 25d8 9fbc 0ad6 97be b7c2 0bbe
00000260: 4bf6 fdbd 6d8e b0bd 738b cf3d e4a6 1e3d
00000270: 2010 6cbe 4197 8b3d dfff 53bc e252 3b3e
00000280: 5dfd 3a3d cd80 7ebe 7fef f53a 2836 333e
00000290: a40b aa3c 820f 02be 70e1 a03d 5bce 1f3d
000002a0: 3687 98bd d1f6 0d3e 0c6a dc3d 9d7d 87be
000002b0: 1f50 883d bbb0 56bb 2ccc f43d ad47 3d3e
000002c0: cfb3 03bd 99a2 ed3d f09c 373e de2d 843d
000002d0: 00bb 193d e08b c23d 043a 863c 6396 50be
000002e0: 280c 89bd f983 39be 374b 363d 5246 84be
000002f0: 2720 59be 94b3 e63a 7f21 ee3d 41bc c9bd

layers.0.bias f4 [64]
0.20746495 0.28720024 0.22916527 -0.2264804 -0.32091928 -0.21803418 0.26742354 -0.18754457
0.25340143 -0.18903038 0.29391113 -0.16566321 -0.2477258 0.27812484 0.20629182 0.23607819
-0.23212157 0.17948021 0.2796565 0.20551991 0.23971167 0.16392641 -0.2588817 -0.27269718
-0.23551372 -0.24763708 0.24163508 -0.14873047 0.30915362 -0.32635906 0.20458907 -0.27415913
0.30896813 0.2300763 0.21150956 -0.2786747 -0.25027123 0.22458428 -0.29603496 -0.328183
-0.28312597 -0.16029236 0.18426421 0.21906024 -0.1458043 0.2585321 0.29639512 0.21140175
0.2434338 0.29840344 0.2626509 -0.22659235 0.27180153 0.2596586 -0.34569725 0.3001631
0.25025204 0.27774897 0.28529978 0.23488858 0.25310814 0.19474074 -0.13549113 -0.20769243
00000000: b171 543e e90b 933e 4daa 6a3e 7aea 67be
00000010: 884f a4be 5a44 5fbe bdeb 883e af0b 40be
00000020: d5bd 813e 2e91 41be 857b 963e 9ea3 29be
00000030: d5ab 7dbe 6166 8e3e 2a3e 533e 7bbe 713e
00000040: 47b1 6dbe a9c9 373e 232f 8f3e d073 523e
00000050: fa76 753e 53dc 273e 248c 84be f79e 8bbe
00000060: 822a 71be 9394 7dbe 306f 773e cd4c 18be
00000070: 6249 9e3e 8918 a7be cc7f 513e 965e 8cbe
00000080: 1231 9e3e 1f99 6b3e f695 583e 73ae 8ebe
00000090: 8d23 80be 6cf9 653e e591 97be 9a07 a8be
000000a0: e3f5 90be ae23 24be c2af 3c3e 5451 603e
000000b0: b94d 15be 525e 843e 1ac1 973e b379 583e
000000c0: b646 793e 56c8 983e 2e7a 863e d307 68be
000000d0: 9229 8b3e f9f1 843e 3bff b0be faae 993e
000000e0: 0921 803e 1d35 8e3e d012 923e a286 703e
000000f0: 6497 813e 1e6a 473e 30be 0abe 53ad 54be

layers.2.weight f4 [64, 64]
-0.08580157 -0.2381543 -0.24646378 -0.0790388 0.13241377 0.026030295 0.1062943 0.20082457
-0.04713397 0.22577341 -0.340838 0.17948616 -0.15573712 -0.19922785 -0.20797648 0.074534215
0.24121241 -0.24410662 0.04779965 -0.1328315 -0.08024802 0.15304016 0.24223517 -0.086489506
-0.09880921 0.059968214 0.05170461 0.019303413 -0.08580404 0.20207772 -0.16360958 0.2001922
-0.10072496 -0.22588581 -0.20736219 0.21165648 0.25670964 0.048841085 0.2211912 0.33341652
0.09736154 0.1613904 -0.21271485 0.18327013 0.20018016 -0.28220162 -0.0664742 0.07027969
-0.13036661 -0.20040585 0.16422875 0.27564296 -0.29415387 -0.10031421 0.33049017 -0.29239833
0.19707897 -0.11079868 -0.08442704 -0.10888608 -0.18353404 -0.055967763 0.010192647 0.0032150645
-0.15626414 -0.18522838 0.0561609 0.013943996 0.15799622 0.0047755386 -0.18449844 0.16807878
0.103279345 0.023333194 0.018863156 -0.007511292 0.026873367 -0.1595538 0.18051429 -0.37303558
-0.13637505 -0.114680484 0.12018081 0.1514307 -0.053784337 0.050103016 0.19716029 -0.08821242
0.07996622 -0.07210731 -0.3075551 -0.13703373 -0.16725452 0.2222561 -0.08548957 0.32799122
-0.25490332 -0.26359245 -0.2033708 0.15740441 0.13830785 0.0176647 0.061976705 0.036321282
-0.014775964 -0.046729956 -0.16249211 0.12505557 0.0052323793 -0.2626232 0.041992232 -0.0401089
-0.16611464 -0.05351681 -0.19182567 0.3123314 -0.05790898 -0.16498074 0.15129636 -0.19666252
-0.13362679 -0.15818436 -0.13043384 0.10440048 -0.30933893 0.09717979 0.17845662 0.07415176
0.003190596 0.13924487 0.19514492 -0.26555887 0.06684926 0.04961318 -0.13688298 -0.24295992
0.024782421 -0.067912206 0.18859302 0.12238313 -0.1116943 0.23119308 0.14505413 0.39986727
0.0065322244 -0.054569405 -0.122421086 0.07102067 0.16131434 -0.06401983 -0.15726301 -0.25484487
-0.059317105 -0.01629776 0.17128433 -0.14309229 0.30188814 -0.35013732 -0.03441588 -0.024251914
0.41163486 0.21706364 0.104577795 -0.33193776 -0.2225215 -0.064471364 -0.21508574 -0.13339053
0.05673326 -0.21496187 0.18488647 0.008197697 0.099056765 0.21636094 0.28237092 -0.06571417
-0.05822396 0.14383626 -0.12725231 -0.3295777 0.030944752 0.25367254 -0.23382232 0.24606487
-0.1558687 0.29340237 0.05500195 -0.0149570005 0.25556514 -0.033800144 0.11714252 -0.21652474
0.009727775 -0.06577592 0.011273103 -0.077953815 -0.19404517 0.07161119 0.019701965 -0.22283655
0.18916197 -0.15440507 0.09904165 -0.0043448643 -0.072169274 0.16123429 0.22827996 0.21632484
-0.115816146 0.09926079 0.22463508 0.12634538 0.08000838 0.095613465 0.08845641 -0.061556064
-0.20306003 -0.1349672 0.24026574 0.051388472 0.28745764 -0.042033333 -0.16919625 -0.31032926
-0.026946362 -0.06368793 -0.10915613 -0.07785809 -0.09432496 -0.017495476 -0.173276 -0.34867024
0.03203203 -0.041441 0.09522254 -0.13002019 -0.08491206 -0.0101637645 0.117511116 0.3051562
-0.059982788 0.07045488 0.22169685 -0.14285292 -0.013398299 0.21806791 -0.27352366 -0.025457615
0.20384012 0.026437888 -0.081086285 0.15558524 0.22458161 0.14945924 0.015208513 -0.17385419
00000000: bcb8 afbd b9de 73be 0061 7cbe 18df a1bd
00000010: 7a97 073e 7c3d d53c d3b0 d93d f5a4 4d3e
00000020: 8d0f 41bd 2531 673e 5182 aebe 38cb 373e
00000030: 8d79 1fbe 6302 4cbe c9f7 54be 65a5 983d
00000040: 6300 773e 16f7 79be 91c9 433d fb04 08be
00000050: 1359 a4bd 8fb6 1c3e 7f0c 783e 6921 b1bd
00000060: 7c5c cabd 3ba1 753d 37c8 533d 3122 9e3c
00000070: 07ba afbd 76ed 4e3e 4589 27be 2fff 4c3e
00000080: e348 cebd 9c4e 67be c156 54be 7abc 583e
00000090: 726f 833e 970d 483d f27f 623e 92b5 aa3e
000000a0: 7d65 c73d 8643 253e ecd1 59be 2aab 3b3e
000000b0: 07fc 4c3e bb7c 90be a023 88bd ccee 8f3d
000000c0: d37e 05be 3137 4dbe 952b 283e 1321 8d3e
000000d0: 569b 96be 8971 cdbd 0236 a93e 3cb5 95be
000000e0: 12cf 493e 6bea e2bd 15e8 acbd aaff debd
000000f0: 59f0 3bbe 743e 65bd 0fff 263c d5b3 523b
00000100: b503 20be 82ac 3dbe f908 663d 5c75 643c
00000110: c3c9 213e 1f7c 9c3b 29ed 3cbe d81c 2c3e
00000120: 1f84 d33d 4125 bf3c e886 9a3c 4921 f6bb
00000130: 8925 dc3c 1262 23be bdd8 383e 85fe bebe
00000140: e7a5 0bbe 9add eabd 5b21 f63d a610 1b3e
00000150: f74c 5cbd d238 4d3d 63e4 493e b7a8 b4bd
00000160: 54c5 a33d ffac 93bd dd77 9dbe 9252 0cbe
00000170: c544 2bbe 1a97 633e 2815 afbd 77ee a73e
00000180: b082 82be 97f5 86be 6f40 50be 9f2e 213e
00000190: 93a0 0d3e 90b5 903c 49db 7d3d a0c5 143d
000001a0: e316 72bc e967 3fbd 5564 26be 910e 003e
000001b0: 6174 ab3b 8c76 86be 0c00 2c3d 3b49 24bd
000001c0: f519 2abe 7134 5bbd f36d 44be e7e9 9f3e
000001d0: f731 6dbd b6f0 28be 6fed 1a3e e661 49be
000001e0: 76d5 08be 15fb 21be 7390 05be ebcf d53d
000001f0: ac61 9ebe 3306 c73d 55bd 363e e1dc 973d
00000200: 5119 513b 3596 0e3e 12d4 473e 55f7 87be
00000210: 44e8 883d 3137 4b3d 0d2b 0cbe 7cca 78be
00000220: 8104 cb3c 8e15 8bbd 871e 413e 02a4 fa3d
00000230: fbbf e4bd e1bd 6c3e 1289 143e 67bb cc3e
00000240: 450c d63b 2b84 5fbd e8b7 fabd 4973 913d
00000250: 962f 253e d41c 83bd 8e09 21be 077b 82be
00000260: 7ef6 72bd e182 85bc 2965 2f3e c986 12be
00000270: 1591 9a3e 3345 b3be aaf7 0cbd f3ab c6bc
00000280: cec1 d23e ee45 5e3e e22c d63d bff3 a9be
00000290: addc 63be 9009 84bd 703f 5cbe 8797 08be
000002a0: 2361 683d f71e 5cbe e152 3d3e a24f 063c
000002b0: 46de ca3d b98d 5d3e ec92 903e 2795 86bd
000002c0: 3f7c 6ebd d049 133e 6e4e 02be 69be a8be
000002d0: d97f fd3c 5ee1 813e 1e6f 6fbe 6ef8 7b3e
000002e0: 0b9c 1fbe d638 963e ba49 613d 350e 75bc
000002f0: 6fd9 823e 0572 0abd 6be8 ef3d a9b8 5dbe
00000300: 3f61 1f3c 87b5 86bd d2b2 383c 40a6 9fbd
00000310: c7b3 46be e3a8 923d 0466 a13c 442f 64be
00000320: adb3 413e 5d1c 1ebe 59d6 ca3d 5d5f 8ebb
00000330: 7ccd 93bd 9a1a 253e 39c2 693e 4284 5d3e
00000340: 0431 edbd 3e49 cb3d bd06 663e af60 013e
00000350: 6fdb a33d fed0 c33d a228 b53d 3622 7cbd
00000360: f8ee 4fbe d734 0abe 3908 763e b87c 523d
00000370: a62d 933e 252b 2cbd c841 2dbe 7ae3 9ebe
00000380: 9ebe dcbc d16e 82bd 408d dfbd 1074 9fbd
00000390: 722d c1bd ac52 8fbc 446f 31be e884 b2be
000003a0: 0534 033d 0abe 29bd 0904 c33d 0324 05be
000003b0: 60e6 adbd eb85 26bc aba9 f03d 6f3d 9c3e
000003c0: 83b0 75bd a64a 903d 8004 633e 0948 12be
000003d0: 8a84 5bbc 324d 5f3e 4b0b 8cbe 7d8c d0bc
000003e0: 77bb 503e 4594 d83c 9110 a6bd bd51 1f3e
000003f0: b9f8 653e d80b 193e 202d 793c d506 32be

layers.2.bias f4 [64]
-0.1352438 -0.15103266 0.17958567 0.14284737 -0.14648405 0.14846587 0.14476895 -0.13545194
0.13156001 0.16125283 -0.16342232 0.17523721 -0.21112254 0.16956694 0.15100254 -0.138514
-0.13817011 -0.1591674 0.20226939 -0.14752501 0.14562602 0.17723024 0.14878553 -0.172617
0.14898194 -0.18848376 -0.27841827 0.15301862 -0.16481416 0.16073407 0.13889179 -0.15716594
-0.13396324 0.15118621 -0.14247358 -0.14512378 -0.14194357 -0.15777819 -0.15039195 -0.18207943
0.1590352 -0.13874458 -0.2080599 -0.16291739 0.14953609 0.2355808 0.18250851 -0.1457351
-0.14321467 -0.14326675 0.14687426 -0.15002301 -0.15871555 0.16215834 -0.15532996 0.29217795
0.22507577 -0.14313665 -0.14654955 -0.1677695 0.15752362 -0.14806634 0.1740242 0.14593783
00000000: 5a7d 0abe 4ea8 1abe 4ee5 373e 9546 123e
00000010: eaff 15be 7007 183e 503e 143e eab3 0abe
00000020: abb7 063e 761f 253e 2e58 27be 6271 333e
00000030: 8230 58be f5a2 2d3e 69a0 1a3e 9dd6 0dbe
00000040: 777c 0dbe c7fc 22be b51f 4f3e cc10 17be
00000050: fd1e 153e d87b 353e 3c5b 183e 83c2 30be
00000060: b98e 183e e301 41be d78c 8ebe eab0 1c3e
00000070: 0bc5 28be 7997 243e a639 0e3e 1cf0 20be
00000080: a92d 09be 8fd0 1a3e 98e4 11be 549b 14be
00000090: a859 11be 9b90 21be 5900 1abe 0873 3abe
000000a0: 20da 223e 0f13 0ebe a80d 55be d1d3 26be
000000b0: fd1f 193e 183c 713e 83e3 3a3e 953b 15be
000000c0: dea6 12be 85b4 12be 3566 163e a29f 19be
000000d0: 5486 22be d60c 263e d10e 1fbe 5998 953e
000000e0: 437a 663e 6a92 12be 1611 16be c5cb 2bbe
000000f0: df4d 213e b49e 17be 6633 323e ba70 153e

output_layer.weight f4 [1, 64]
0.44146922 0.38106605 -0.35122085 -0.5629215 0.41930002 -0.33004516 -0.3530875 0.4716299
-0.49265456 -0.18291803 0.32334992 -0.33455604 0.24425168 -0.47307125 -0.57366407 0.45087513
0.5416106 0.3921723 -0.31324613 0.32765025 -0.42745924 -0.2944327 -0.35593072 0.17774864
-0.59542185 0.2668506 0.2659677 -0.224523 0.20724133 -0.2215474 -0.48339185 0.25114167
0.48054507 -0.32965094 0.48202783 0.61552584 0.4644332 0.45593473 0.33519235 0.18175182
-0.31604695 0.46531224 0.2366512 0.24308152 -0.34112412 -0.29199922 -0.3218483 0.34797245
0.44796234 0.48783612 -0.3189945 0.34183854 0.42531812 -0.25358656 0.24670744 -0.2783285
-0.14759809 0.45676214 0.31665558 0.29232916 -0.39485836 0.3158907 -0.34316745 -0.4703457
00000000: 4108 e23e 171b c33e 38d3 b3be a01b 10bf
00000010: 7eae d63e aefb a8be e3c7 b4be 7979 f13e
00000020: 383d fcbe dd4e 3bbe 1f8e a53e ee4a abbe
00000030: 1d1d 7a3e 6536 f2be a6db 12bf 1bd9 e63e
00000040: fea6 0a3f cfca c83e cc61 a0be c6c1 a73e
00000050: f0db dabe e2bf 96be 8d3c b6be bd03 363e
00000060: 916d 18bf a4a0 883e eb2c 883e 5be9 65be
00000070: 1237 543e 52dd 62be 237f f7be a495 803e
00000080: 010a f63e 02c8 a8be 5acc f63e 1a93 1d3f
00000090: 30ca ed3e 4770 e93e 559e ab3e 261d 3a3e
000000a0: e8d0 a1be 683d ee3e b154 723e 5dea 783e
000000b0: d2a7 aebe ec80 95be 4dc9 a4be 7229 b23e
000000c0: 525b e53e a8c5 f93e 3f53 a3be 7605 af3e
000000d0: 4cc3 d93e 19d6 81be e0a0 7c3e 1381 8ebe
000000e0: f423 17be badc e93e ae20 a23e 2bac 953e
000000f0: e02a cabe 6dbc a13e a5b3 afbe 27d1 f0be

exp_avg f4 [64, 3]
-0.00071943953 -0.00039987653 0.0012841815 -0.00026221137 -0.00011203826 0.0005586034 -0.0004428227 -0.0002252089
0.0007580284 0.0008298707 0.00043062432 0.00058635854 0.00033588512 0.00027522855 -0.00062827073 0.00018174983
0.0001870976 -0.0004123507 0.0006632755 0.00041707684 -0.001054396 -0.0005110385 -0.00035917136 0.0010949199
0.0007093075 0.00026027454 -0.0008929096 0.0007389546 0.00037745252 -0.0006334978 0.0004365355 0.0002620615
-0.0007558708 -0.00036901605 -0.00018137744 0.0007868168 0.001066903 0.00040369926 -0.0018088276 -0.0011954621
-0.00019351697 -0.00057411735 0.00020344576 -1.1851944e-05 0.00016192022 -0.00071697065 -0.0004646396 0.001309534
0.0005082788 0.00033085866 -0.0011574255 0.00060908194 0.00038182782 -0.0005586361 0.0014539525 0.0005162607
-0.0029383628 -0.0006093749 -0.0003924177 0.001655926 -0.0007493897 -0.00041497903 0.0013556529 0.0009293806
0.00050448487 -0.0015673096 0.000884494 0.0005064866 -0.0010084767 0.00096519303 0.00044459032 -0.0016566563
-0.0010011246 -0.00060741126 0.0018986335 -0.000559691 -0.00020002859 0.00090990134 -0.0001196652 9.925231e-05
-0.0002830394 0.0009159399 7.988437e-05 0.0004925221 -0.00011799935 1.2361092e-05 -0.0005962555 0.00012479974
-7.056862e-05 0.00017300273 0.0020946322 0.00041190346 0.00069912756 -0.0012875373 -0.0007991611 0.0024854357
0.0009726909 0.00050469604 -0.0018884433 0.0011126741 0.0007162819 -0.0020636104 -0.0006404686 -0.0002828966
0.0011669553 0.00082863396 0.00038855706 -0.001607236 0.0010888728 0.00025291258 0.00060733873 -0.0013723776
-0.00066254754 0.0018082638 0.0010761752 0.0003809797 -0.0018679047 -0.00012038669 3.006028e-06 0.00017755228
-0.0007202968 -8.558415e-05 -0.00026081034 -0.0013962856 -0.00033846102 -0.00087081926 -0.0007679855 -0.00033833567
0.0012910821 -0.00010521675 -9.536739e-05 -0.00011830753 1.774501e-05 -5.0243274e-05 -0.00019077206 0.00023700813
0.0002838424 0.00022704854 -0.0013278312 -0.0006987938 0.00231057 0.0015039394 0.0007881414 -0.0028118836
-0.00019739449 -7.360347e-05 4.4724522e-05 0.0010967628 0.00062624074 -0.0019076258 -0.0003969185 -0.00022577328
0.00072194537 3.044116e-06 -2.2707289e-05 0.0003778709 -0.00044750838 -0.0002492775 0.00054300315 0.00092395657
0.00045426495 -0.0018438546 -0.0005799803 -0.00021266926 0.0011343505 -0.0014224931 -0.00012662895 -0.00058031536
0.000974504 0.0005565583 -0.0018681176 0.00080102705 0.000104106235 0.00029955368 0.0011329507 0.0002911287
0.00067993806 -1.3039571e-06 -4.6763413e-05 -0.0002167368 -0.00035417816 -0.00012290564 0.0004148075 -0.00033016785
-0.0001434822 -0.00011290747 -0.0010785998 -0.0006588888 0.0015773104 0.0011186542 0.0006013063 -0.0022096199
00000000: c598 3cba 85a6 d1b9 fb51 a83a 6a79 89b9
00000010: 15f6 eab8 3d6f 123a a82a e8b9 0e26 6cb9
00000020: 6db6 463a ae8b 593a 6bc5 e139 dbb5 193a
00000030: bd19 b039 8d4c 9039 89b2 24ba 1994 3e39
00000040: a12f 4439 c630 d8b9 aadf 2d3a 1bab da39
00000050: a933 8aba 37f7 05ba 2a4f bcb9 6a83 8f3a
00000060: d2f0 393a 7575 8839 2612 6aba 67b6 413a
00000070: d2e4 c539 5111 26ba cede e439 4d65 8939
00000080: a125 46ba 7f78 c1b9 2330 3eb9 6242 4e3a
00000090: 53d7 8b3a 99a7 d339 2f16 edba 0db1 9cba
000000a0: d1ea 4ab9 5d80 16ba 0e54 5539 b6d7 46b7
000000b0: 21c9 2939 16f3 3bba df9a f3b9 aba4 ab3a
000000c0: 033e 053a 1977 ad39 c1b4 97ba ccaa 1f3a
000000d0: 1030 c839 6f71 12ba 8d92 be3a ab55 073a
000000e0: 8c91 40bb 75be 1fba 6abd cdb9 a80b d93a
000000f0: b172 44ba 8b91 d9b9 2ab0 b13a ada1 733a
00000100: 683f 043a 2f6e cdba 63dd 673a bec5 043a
00000110: dd2e 84ba 0205 7d3a e717 e939 2924 d9ba
00000120: 2b38 83ba ae3a 1fba 92db f83a 3ab8 12ba
00000130: c4be 51b9 7286 6e3a c4f4 fab8 ae25 d038
00000140: e864 94b9 b01b 703a 9887 a738 991c 013a
00000150: 6b76 f7b8 7c62 4f37 074e 1cba addc 0239
00000160: 3dfe 93b8 1168 3539 1946 093b bff4 d739
00000170: a845 373a 95c2 a8ba cb7e 51ba b1e2 223b
00000180: 2efc 7e3a 944d 043a a485 f7ba 26d7 913a
00000190: ddc4 3b3a a33d 07bb 1fe5 27ba bd51 94b9
000001a0: 86f4 983a af38 593a 3fb7 cb39 e4a9 d2ba
000001b0: 82b8 8e3a 5a99 8439 d035 1f3a 5ae1 b3ba
000001c0: d0ae 2dba 4403 ed3a 730e 8d3a 3bbe c739
000001d0: 7bd4 f4ba 1d78 fcb8 2bbb 4936 542d 3a39
000001e0: 4dd2 3cba a47b b3b8 5fbd 88b9 9203 b7ba
000001f0: 7873 b1b9 b147 64ba a252 49ba a562 b1b9
00000200: 8739 a93a d0a7 dcb8 faff c7b8 df1b f8b8
00000210: 1edb 9437 4ebc 52b8 fc09 48b9 6385 7839
00000220: afd0 9439 e113 6e39 9f0a aeba 422f 37ba
00000230: ef6c 173b d51f c53a 469b 4e3a 9447 38bb
00000240: aefb 4eb9 905b 9ab8 9796 3b38 41c1 8f3a
00000250: 4e2a 243a 4d09 faba 8019 d0b9 8ebd 6cb9
00000260: ef40 3d3a 8449 4c36 887b beb7 f91c c639
00000270: 8f9f eab9 76b1 82b9 5358 0e3a ad35 723a
00000280: 692a ee39 7ead f1ba d209 18ba f8ff 5eb9
00000290: 7dae 943a f372 baba b3c7 04b9 4e20 18ba
000002a0: db75 7f3a ffe5 113a a0db f4ba 04fc 513a
000002b0: 9c53 da38 6a0d 9d39 847f 943a a2a2 9839
000002c0: df3d 323a a003 afb5 d523 44b8 d743 63b9
000002d0: fdb0 b9b9 3be0 00b9 857a d939 611a adb9
000002e0: b673 16b9 bdc8 ecb8 ce5f 8dba 47b9 2cba
000002f0: c1bd ce3a ce9f 923a fca0 1d3a 45cf 10bb

exp_avg_sq f4 [64, 3]
1.5368006e-06 1.1499924e-06 3.2002787e-05 7.127171e-07 3.734204e-07 9.290802e-06 1.6591067e-06 1.1886613e-06
3.1545027e-05 1.107529e-05 4.9682044e-06 7.214625e-05 1.3537303e-06 1.1199091e-06 2.51577e-05 1.7386353e-06
1.8171031e-06 4.4918168e-05 7.2078876e-07 4.7847226e-07 1.3792214e-05 2.7937776e-06 2.168255e-06 5.1843428e-05
9.79925e-07 6.221218e-07 1.5187102e-05 3.1087413e-06 1.7199765e-06 4.694649e-05 1.551431e-06 1.0364652e-06
3.0027342e-05 5.4261604e-06 4.128295e-06 8.012074e-05 6.19914e-06 4.3716136e-06 9.969467e-05 5.8309142e-06
3.0955682e-06 9.323558e-06 1.6879105e-06 1.0184995e-06 2.7495797e-05 2.8891525e-06 2.2010547e-06 5.2299936e-05
3.607293e-06 2.6093148e-06 4.9988103e-05 2.4970686e-06 2.1356266e-06 4.1718664e-05 1.0400764e-05 7.3031097e-06
0.0001801102 3.539483e-06 2.7157073e-06 7.347396e-05 2.5652114e-06 1.6481e-06 4.120718e-05 3.540362e-06
2.452473e-06 5.2348776e-05 2.4625342e-06 1.733563e-06 3.2411568e-05 4.6115656e-06 3.4037853e-06 7.2459174e-05
2.9626117e-06 2.3867394e-06 6.342278e-05 1.0135295e-06 7.1366696e-07 1.5463462e-05 1.5019003e-06 1.4116862e-06
3.7575297e-05 4.1115104e-06 2.0928753e-06 8.828464e-06 1.0009103e-06 6.320857e-07 1.5695252e-05 1.7165854e-06
1.6064695e-06 4.448061e-05 1.5482881e-05 7.972501e-06 2.2651458e-05 6.8078107e-06 5.1423212e-06 0.00012260003
6.813552e-06 4.615911e-06 9.2882045e-05 3.13084e-06 2.4533656e-06 6.334513e-05 1.4902383e-06 8.8401214e-07
1.7224598e-05 4.2297324e-06 2.9356258e-06 7.1678485e-05 3.2917474e-06 1.6353034e-06 1.0545206e-05 6.991888e-06
4.2370802e-06 9.442896e-05 5.4030793e-06 4.0132913e-06 9.7846976e-05 5.9481204e-07 4.7092598e-07 1.1493962e-05
2.8627444e-06 1.2172081e-06 8.202744e-06 1.0879077e-05 5.2421124e-06 1.9672112e-05 3.390583e-06 2.5777053e-06
5.8903453e-05 4.34348e-07 3.408488e-07 7.267694e-06 4.7717685e-07 2.9172762e-07 5.41414e-06 9.946763e-07
7.725216e-07 2.1513539e-05 8.130927e-06 5.541006e-06 0.00013095004 6.611415e-06 4.816182e-06 0.00013491692
1.043248e-06 9.636169e-07 2.5368014e-05 3.7555237e-06 2.7328435e-06 6.717677e-05 2.5279828e-06 2.0440439e-06
4.2821746e-05 5.333929e-07 2.9646534e-07 5.666819e-06 2.0292757e-06 1.7094009e-06 3.4990608e-05 2.9513744e-06
2.4417238e-06 6.485756e-05 2.1943454e-06 1.1897221e-06 2.2805278e-05 5.827025e-06 3.494336e-06 9.705908e-06
2.5036775e-06 1.7318841e-06 5.1406707e-05 2.4594442e-06 1.4677066e-06 7.6133165e-06 3.849659e-06 1.5669476e-06
7.2368016e-06 5.5915456e-07 2.566532e-07 4.237953e-06 2.6216592e-06 1.9350794e-06 3.2349257e-05 1.2553145e-06
5.219045e-07 1.8960452e-06 2.7686874e-06 2.078984e-06 5.241495e-05 4.3530085e-06 3.1223005e-06 7.769514e-05
00000000: 1144 ce35 7059 9a35 bb3a 0638 8c51 3f35
00000010: 827a c834 b1df 1b37 79ae de35 178a 9f35
00000020: 374f 0438 02d0 3937 8db4 a636 394d 9738
00000030: d2b1 b535 c94f 9635 c009 d337 0e5b e935
00000040: 30e3 f335 8466 3c38 3a7c 4135 5d70 0035
00000050: 1c65 6737 bc7c 3b36 5682 1136 7572 5938
00000060: f785 8335 e2ff 2635 1bcc 7e37 c59f 5036
00000070: f1d9 e635 69e8 4438 c33a d035 ac1c 8b35
00000080: 3ae3 fb37 5d12 b636 c985 8a36 7f06 a838
00000090: 3502 d036 e0af 9236 2b13 d138 2ca7 c336
000000a0: 75bd 4f36 606c 1c37 2a8c e235 60b3 8835
000000b0: c6a6 e637 43e3 4136 d5b5 1336 a15c 5b38
000000c0: d214 7236 b01b 2f36 51aa 5138 5093 2736
000000d0: c951 0f36 13fb 2e38 f17e 2e37 3c0d f536
000000e0: f7db 3c39 db87 6d36 7f3f 3636 0816 9a38
000000f0: ff25 2c36 4934 dd35 dfd5 2c38 f596 6d36
00000100: 2a95 2436 1291 5b38 0442 2536 c5ac e835
00000110: a8f1 0738 0cbd 9a36 966c 6436 39f5 9738
00000120: 48d1 4636 df2b 2036 d901 8538 9c08 8835
00000130: d292 3f35 88b7 8137 e794 c935 2b79 bd35
00000140: 2b9a 1d38 9bf5 8936 5373 0c36 f71d 1437
00000150: 0457 8635 99ac 2935 4ca9 8337 6d65 e635
00000160: df9d d735 b190 3a38 3ce1 8137 a2c1 0537
00000170: a303 be37 a66e e436 348c ac36 328e 0039
00000180: f79f e436 60e2 9a36 abc9 c238 6c1b 5236
00000190: 80a4 2436 28d8 8438 3304 c835 da4c 6d35
000001a0: 8b7d 9037 20ed 8d36 ab01 4536 1852 9638
000001b0: cae7 5c36 997c db35 51eb 3037 dc9b ea36
000001c0: 3e2c 8e36 2908 c638 194c b536 e9a9 8636
000001d0: 3233 cd38 2cab 1f35 93d3 fc34 31d6 4037
000001e0: 931d 4036 f45e a335 849e 0937 4885 3637
000001f0: 67e5 af36 8a05 a537 c689 6336 a4fc 2c36
00000200: 1a0f 7738 5630 e934 e7fd b634 04dd f336
00000210: 5817 0035 bd9e 9c34 1cab b536 d180 8535
00000220: 485f 4f35 f977 b437 116a 0837 e1ec b936
00000230: a24f 0939 9fd7 dd36 b09a a136 7c78 0d39
00000240: ba05 8c35 a055 8135 65cd d437 6807 7c36
00000250: e565 3736 41e1 8c38 6aa6 2936 682c 0936
00000260: 809b 3338 7b2e 0f35 e329 9f34 9b25 be36
00000270: b12e 0836 916e e535 e1c2 1238 3a10 4636
00000280: 7fdc 2336 2304 8838 9142 1336 8aae 9f35
00000290: f64d bf37 c385 c336 3c80 6a36 8fd6 2237
000002a0: da04 2836 1673 e835 889d 5738 ee0c 2536
000002b0: 04fe c435 e475 ff36 522c 8136 e94f d235
000002c0: a7d3 f236 cf18 1635 26ca 8934 bd33 8e36
000002d0: c3ef 2f36 69dc 0136 c0ae 0738 477c a835
000002e0: 0119 0c35 9e7b fe35 b0cd 3936 ac84 0b36
000002f0: 20d8 5b38 0f10 9236 b788 5136 43f0 a238

exp_avg f4 [64]
0.00068350526 0.00028422955 0.0005153258 -0.0005989264 -0.00036847356 -0.00025521705 -0.0006073643 0.00050600816
-0.0006630856 -0.000591859 -0.00040567011 0.00051958696 -0.0012236376 0.0007912912 -0.00013414852 0.000671249
-0.0005335518 -0.0005758144 -0.0016068742 0.00058348937 0.00050097855 -0.00087440124 -0.00074164954 -0.0010185771
0.0008130998 0.00050465064 -4.8306883e-05 -0.00048783293 -2.9750825e-05 4.0239925e-07 -0.0011854104 0.0011075211
-0.00076142745 -0.0009477418 0.00056297076 -0.0009020459 -0.0006216923 0.0013508395 -0.0011984612 3.279094e-05
0.00044007914 0.000698425 0.0008647872 -1.1638782e-05 7.674552e-06 -0.00010659311 0.0012225911 -0.0013293548
8.442328e-05 -0.00092454214 0.0003621503 1.7206556e-05 0.00048322126 -0.00090439117 0.00053377356 0.000932335
-0.00093099364 -0.0004418498 -0.0007266163 -7.1220515e-05 0.00045166732 0.00029036967 0.0009187341 -0.00096854044
00000000: 432d 333a a504 9539 ee16 073a 4501 1dba
00000010: af2f c1b9 a7ce 85b9 8737 1fba a2a5 043a
00000020: ecd2 2dba fc26 1bba 1fb0 d4b9 e434 083a
00000030: 7762 a0ba a76e 4f3a 38aa 0cb9 c2f6 2f3a
00000040: 0ede 0bba 40f2 16ba c09d d2ba 4ff5 183a
00000050: 1a54 033a 1338 65ba 426b 42ba c781 85ba
00000060: 3426 553a 884a 043a 1f9d 4ab8 d4c3 ffb9
00000070: 6991 f9b7 5509 d834 c65f 9bba 3e2a 913a
00000080: 889a 47ba e071 78ba 5494 133a 4777 6cba
00000090: 10f9 22ba a70e b13a af15 9dba 0189 0938
000000a0: 6cba e639 8216 373a e3b2 623a 3044 43b7
000000b0: f3c1 0037 bd8a dfb8 5a3f a03a bf3d aeba
000000c0: 670c b138 f95c 72ba fede bd39 cc56 9037
000000d0: dc58 fd39 aa14 6dba f0ec 0b3a f167 743a
000000e0: ed0d 74ba 14a8 e7b9 657a 3eba 395c 95b8
000000f0: c3cd ec39 c23c 9839 34d7 703a a6e5 7dba

exp_avg_sq f4 [64]
2.7709207e-06 1.1173684e-06 2.9483238e-06 1.687355e-05 2.6704213e-06 3.6619645e-06 1.2479637e-06 5.1543293e-06
1.6871737e-06 4.8753054e-06 2.6316134e-06 1.01014575e-05 1.1093002e-05 9.054675e-06 2.7875103e-06 5.3977533e-06
6.635457e-06 4.9260807e-06 1.8499755e-05 6.495275e-06 4.389528e-06 6.2842246e-06 4.3566547e-06 8.352249e-06
5.641222e-06 1.7900107e-06 2.9995824e-06 6.3291277e-06 1.6287777e-06 3.4078985e-06 2.4091421e-05 1.2425621e-05
1.1982696e-05 5.9034633e-06 2.4787014e-06 7.511613e-06 5.20024e-06 1.1690864e-05 9.841932e-06 1.1434613e-06
4.152171e-06 1.6387377e-05 6.368306e-06 8.5451444e-07 7.8580047e-07 1.7759479e-06 1.4169907e-05 1.1786952e-05
2.041963e-06 6.7280516e-06 4.8227316e-06 8.4552886e-07 3.942857e-06 5.454035e-06 3.5397984e-06 9.550985e-06
4.2103375e-06 4.129923e-06 5.5913542e-06 8.5249013e-07 4.977301e-06 1.8064625e-06 5.017924e-06 7.746198e-06
00000000: 0ef4 3936 7cf8 9535 d1db 4536 ac8b 8d37
00000010: 7d35 3336 12c0 7536 b57f a735 5af3 ac36
00000020: d972 e235 8e96 a336 c69a 3036 6e79 2937
00000030: 151c 3a37 88e9 1737 1011 3b36 591e b536
00000040: 24a6 de36 b64a a536 ec2f 9b37 fdf1 d936
00000050: c249 9336 14dd d236 612f 9236 a320 0c37
00000060: ba49 bd36 4d40 f035 6f4c 4936 cb5e d436
00000070: 609c da35 40b3 6436 ef17 ca37 a377 5037
00000080: 4a09 4937 5d16 c636 c457 2636 440c fc36
00000090: b97d ae36 e123 4437 c71e 2537 0879 9935
000000a0: e152 8b36 a077 8937 55af d536 c961 6535
000000b0: ccef 5235 1b5d ee35 4abb 6d37 93c0 4537
000000c0: a808 0936 86c1 e136 f3d2 a136 4df8 6235
000000d0: e24c 8436 ce01 b736 468d 6d36 2b3d 2037
000000e0: 8646 8d36 c593 8a36 5e9d bb36 add6 6435
000000f0: b102 a736 9475 f235 a45f a836 abf5 0137
