experiments/ppo_pendulum_first_try_20250829_065358/checkpoints/final.pt (torch, 215183 bytes, 44 tensors)

shared_layers.0.weight f4 [64, 3]
000000 4b 7e be be 67 89 31 bd 81 fb a4 bd bc 92 f3 be
       -0.3720573 -0.043343928 -0.08055783 -0.47572887
000010 dd 39 e1 3d 08 f1 81 bd 66 d2 88 bc 77 47 8a be
       0.10997365 -0.06344801 -0.016701888 -0.27007648
000020 93 5c 3f be b7 0d a9 bd 38 87 db bc e6 d8 3b 3e
       -0.18687658 -0.08254569 -0.026797876 0.18344459
000030 9c 68 99 be 69 7a cd 3e 94 f5 81 3d 77 2a 66 3c
       -0.29962623 0.40132454 0.063456684 0.01404821
000040 e9 ae 1e 3c 84 b3 96 bd 52 84 fe 3d 48 c6 33 be
       0.0096852565 -0.07358459 0.12427582 -0.17556107
000050 40 55 91 bd 86 41 88 3e 47 b0 69 bc 6f 73 9b be
       -0.07096338 0.2661249 -0.014263219 -0.30361506
000060 96 b9 a9 3d d5 74 da 3d ac c0 79 bd 64 06 25 3e
       0.08287351 0.10666815 -0.06097476 0.16115719
000070 02 b2 04 3e 0c de f1 bc 9d 23 42 3e c4 6b 53 bd
       0.1295853 -0.029524826 0.18958898 -0.051616445
000080 6f 41 df bb 5a f0 64 be df 13 2a 3d 77 01 f3 3e
       -0.00681322 -0.22357312 0.041522857 0.47462055
000090 d5 f7 52 bc 16 ab e5 3d b9 07 3c 3e 0c 58 8e 3e
       -0.012876471 0.11214273 0.18362321 0.2780155
0000a0 e2 aa 85 3e 22 4a c9 bc 92 21 b8 3a 71 30 8a be
       0.26106936 -0.024571482 0.0014048091 -0.26990083
0000b0 f2 fe 05 3e 89 1f cb bd e4 7f 7e 3d e3 a3 a2 3e
       0.13085535 -0.09918124 0.062133685 0.3176566
0000c0 a3 94 c2 be 1c 10 cb bd 58 dc 83 bc 30 e9 61 be
       -0.38004026 -0.09915182 -0.016096279 -0.2206161
0000d0 64 57 4f be 44 db 02 ba 09 a2 88 3e cc b3 f7 3c
       -0.2024818 -0.00049917796 0.26686123 0.030237101
0000e0 ae 60 23 be 5c 7a 2a 3e 81 63 db 3d 30 cd cb 3e
       -0.15954849 0.16648239 0.10712338 0.39804983
0000f0 0b 7a 6d 3e 22 b6 41 3e 8f af 92 3d fe 18 8e be
       0.23191087 0.18917134 0.071623914 -0.27753443
000100 86 90 1c 3e 57 16 45 bd 45 a6 27 3c 25 3f 06 bd
       0.15289506 -0.048117008 0.010232513 -0.032775063
000110 af a0 83 3d ed 54 dd 3d 42 c5 89 3c d2 23 a0 3c
       0.06427132 0.10807214 0.016817693 0.01954833
000120 35 d2 5d 3e 05 d9 de bd 34 48 12 be f7 85 08 3d
       0.21662219 -0.10881237 -0.14285356 0.033330884
000130 b1 5e 19 3e 60 09 0f 3e a0 c4 ce bc 70 ea f4 3e
       0.14977528 0.1396842 -0.025240242 0.47835112
000140 0d 28 90 bd 86 ab 45 3e 8f 8d da 3d e4 d3 6a be
       -0.07038889 0.19303712 0.106715314 -0.22932392
000150 a3 e7 c8 3d 63 82 52 3d 88 f5 a9 3e 7b 3f 0c be
       0.09809806 0.051393878 0.33195138 -0.13696091
000160 04 a6 fe bd cb 8a 82 be a2 16 9e be b8 0d 32 be
       -0.12434009 -0.25496516 -0.30876642 -0.17388046
000170 7f 6f 84 3d 44 f3 7e 3c 89 0d d6 bd 77 8f 61 bd
       0.06466579 0.015560929 -0.104518004 -0.05506846
000180 c6 9b a6 bd ba 04 a8 3d 75 e3 06 3f 3d 6a d2 bc
       -0.0813518 0.082040265 0.5269082 -0.025685424
000190 4a f9 94 be 15 62 14 bc d7 2d 08 3d 7e 33 78 3d
       -0.29096442 -0.009056588 0.03324684 0.06059598
0001a0 b1 23 3a 3e 55 1c 50 be 81 38 b0 3e 51 8b 20 be
       0.18177678 -0.20323308 0.3441811 -0.15678145
0001b0 b5 34 dc 3d e2 b8 ea 3d dc 0f c7 bd 2c 9d 6f bd
       0.107522406 0.11461045 -0.09719822 -0.0584995
0001c0 5c fb b9 3d 01 2c ff bd 1b ef 93 3e ad c6 71 3e
       0.09081146 -0.12459565 0.2889336 0.23610945
0001d0 24 5d 5f 3d 3a a6 32 be 09 f9 f6 bd b3 a0 a4 bd
       0.054532185 -0.17446223 -0.120592184 -0.080384634
0001e0 08 6b 5c 3e 6b 55 29 3e de 25 29 be 49 56 97 be
       0.21525204 0.1653649 -0.16518351 -0.29558018
0001f0 a3 61 b8 3d 60 9e 6d bd 62 ec 3c 3e d1 93 b8 3e
       0.09002998 -0.058012366 0.18449548 0.36050275
000200 2a 95 cb bd c0 32 99 be e8 55 8a 3c 3b 55 6e 3e
       -0.0994056 -0.29921532 0.016886666 0.232747
000210 18 f4 38 3b 63 be 80 bd 14 76 aa be dd ec 7c 3e
       0.0028221663 -0.062863134 -0.3329321 0.24699731
000220 ae 17 05 be 7f e3 db be 2f fb 8c 3e f8 09 af 3d
       -0.12997314 -0.42947003 0.27535388 0.08546823
000230 57 c2 8a 3d 5a eb 4a bc 9c b2 01 be 7d 3b 1a 3e
       0.06775349 -0.012385214 -0.1266579 0.15061755
000240 f3 04 43 3e 6e 6d 25 3e 81 a7 cc 3c 48 6b 56 3e
       0.19044857 0.16155025 0.024982216 0.20939362
000250 4c 73 40 3d 4d 8d ee 3d 42 bc 42 be cd 2b ea bd
       0.046984956 0.11648045 -0.19017127 -0.114341356
000260 f2 d4 c4 3d 2e f4 9a be 96 e7 9f 3c 2b fe e9 3d
       0.096109286 -0.3026442 0.019519608 0.11425432
000270 df ed a6 3e 59 e2 ce be e9 8d ae 3e 37 81 e2 bd
       0.32603356 -0.40407065 0.34092644 -0.11059802
000280 4d 91 88 3e 0b 45 c3 3d e0 1f db bd bb 05 a0 3c
       0.26673356 0.09534653 -0.10699439 0.019533983
000290 0a 33 3a be 3b 56 8b bd fe c3 da 3d 20 0e ae bd
       -0.18183532 -0.068035565 0.10681914 -0.08498788
0002a0 b1 fe ec 3c e0 10 4a be 62 b1 3d 3e e5 24 96 be
       0.02893004 -0.19733 0.18524697 -0.29325023
0002b0 b1 ef 08 3e 61 b4 27 be 6e 7b b5 3e 54 34 08 3e
       0.13372685 -0.16377403 0.35445732 0.13301212
0002c0 0b 93 c8 3c 01 08 82 be 2f 66 71 3e 9d b6 87 bd
       0.024484178 -0.25396731 0.23574136 -0.066266276
0002d0 44 f8 b1 3e ae 47 e0 3d fd 70 57 3e f8 52 36 3e
       0.34759724 0.10951172 0.21039195 0.17805088
0002e0 02 c5 f1 bd ea f0 7b 3e 2c fc 7e be 93 ac 41 be
       -0.118051544 0.2460362 -0.24900883 -0.18913488
0002f0 10 65 95 bd 6e 6d 3f bd ee 8c 6e bc d3 ad 8d 3d
       -0.07294667 -0.04673522 -0.014559967 0.0691792

shared_layers.0.bias f4 [64]
000000 af a7 41 3d 74 79 74 3d 8a 32 cf ba 59 0b a2 3b
       0.047279056 0.05968614 -0.0015807908 0.0049452004
000010 c2 08 0c 3d a9 df 14 bc b1 0f c7 bc 97 37 ef bc
       0.03418804 -0.009086528 -0.024299474 -0.029201312
000020 3b 97 b0 3c 3a d0 bd bc 81 2d 94 bd b2 a0 05 3c
       0.021556487 -0.02317058 -0.07235242 0.0081559885
000030 af a2 3d bb e2 87 75 bd c4 68 12 3c a3 5b 31 3b
       -0.0028936078 -0.05994404 0.008936111 0.0027062676
000040 7c e1 63 3d 09 04 8b 3d d4 ec 23 bd 1c ce 6f bc
       0.05563496 0.06787879 -0.04002078 -0.014636543
000050 90 77 50 bd 46 74 73 3d f2 df ac 3c 6c c9 91 bd
       -0.050895274 0.05943706 0.02110288 -0.07118496
000060 bd 1a e1 bb cc 99 fb ba fc b0 e7 bb 4d 36 63 bc
       -0.0068696425 -0.0019195615 -0.0070706587 -0.013867927
000070 a8 1d d7 bb 55 5b ce 3c 71 62 84 3d ed 67 90 3c
       -0.0065648146 0.025190035 0.06464089 0.01762768
000080 14 ae f6 37 7e 79 04 bd 60 6e 96 bc 55 25 12 3d
       2.9406547e-05 -0.032342426 -0.018363178 0.035680134
000090 0e 45 6c bd 31 bc 12 bc 0e 37 58 bd ce b9 07 3d
       -0.057683043 -0.008956001 -0.05278688 0.03313618
0000a0 ee f5 22 bd 87 47 18 3d 45 a5 5d bd 17 68 8e 3c
       -0.039785318 0.03717759 -0.05411269 0.017383618
0000b0 33 cd c0 bc f6 53 27 3b c8 9c 6d bd d8 ff a2 3a
       -0.023535347 0.0025532222 -0.058010846 0.0012435867
0000c0 c4 ab 92 bd 12 8b ee bc d0 24 92 3c 77 ce 8a 3d
       -0.07161668 -0.029119048 0.01783982 0.06777661
0000d0 1c 13 fc bc 93 b9 23 3c 39 7a b3 3c b1 3b d4 3c
       -0.03077083 0.009992975 0.021908866 0.02590737
0000e0 21 ad db bc be 48 17 3d b4 73 6a bd 7f 3f 78 3d
       -0.026815953 0.036934607 -0.05723925 0.06060743
0000f0 34 96 1c bd 7a bb 23 bd 78 a3 18 3d 89 4e 51 3c
       -0.038229182 -0.039973713 0.03726527 0.012775072

shared_layers.2.weight f4 [64, 64]
000000 99 30 d3 3d 47 be a0 3e ae 53 67 3e ff 76 fd bd
       0.10312004 0.3139517 0.22590515 -0.12376212
000010 fa 6c fa be ea 48 6b be 50 eb e7 b8 92 e3 7f bd
       -0.48911268 -0.22977033 -0.00011058769 -0.062472887
000020 ee 38 83 3e 51 b5 1d be f9 e5 f2 3c 78 bd 5a bd
       0.2562937 -0.15401198 0.029650675 -0.053403348
000030 6e bd bc bd 4c 3a a3 3c 9d 92 16 3e ec 79 b5 be
       -0.09215818 0.019925259 0.14704366 -0.35444582
000040 5d 09 6c 3d 99 d8 58 bd d5 23 86 3e 43 6c 14 be
       0.057626117 -0.05294094 0.26199213 -0.14494424
000050 38 23 44 3d 4f 42 6e be 28 ce 12 3e cb 03 39 3e
       0.04788515 -0.23267482 0.14336455 0.18067853
000060 60 53 47 3e 6b c5 39 be ee a9 1f 3e 78 6f ad 3d
       0.19465399 -0.18141715 0.15592167 0.084685266
000070 e9 52 36 3e 91 99 dc bd 01 87 a5 be 33 fa db bd
       0.17805065 -0.10771478 -0.32329562 -0.10741081
000080 94 2c c3 be 46 36 cb bd d0 11 10 be 33 81 2e be
       -0.38119948 -0.09922461 -0.14069295 -0.17041473
000090 d0 d2 73 be 92 2f 5c be ae cf e6 3c e8 47 fe 3d
       -0.23810887 -0.21502522 0.028175201 0.12416059
0000a0 2e 11 20 3e 2f 28 29 be 08 cb 5e 3e 17 a9 3c 3e
       0.15631554 -0.16519235 0.21757138 0.18423878
0000b0 b5 32 ec 3d b0 c7 65 3e e9 c7 3d be e1 d4 8e 3e
       0.11533109 0.22439456 -0.18533291 0.2789679
0000c0 e8 a1 f2 bd f2 38 be bd 11 e4 ae bd d3 3e 4e be
       -0.118472874 -0.09288205 -0.08539594 -0.20141153
0000d0 e1 16 be bd aa 5e 02 3c 56 09 32 3e 3f 98 1b 3d
       -0.092817076 0.00795714 0.17386374 0.03798699
0000e0 48 39 8e bd 79 b2 b9 bd e9 a8 1a 3b 87 8f 0d be
       -0.06944519 -0.09067244 0.0023599213 -0.13824283
0000f0 77 fc 04 3e 22 52 d2 bb 12 73 39 be fb 1c 43 3e
       0.12986933 -0.0064184824 -0.18110302 0.19054024
000100 67 7e a1 bd a2 0f 59 be 46 bc 2a be e2 86 20 be
       -0.078854375 -0.2119737 -0.16673383 -0.15676454
000110 8b 4a 8a be 43 37 24 be 2e 5c 54 bc 9a 1f 39 3e
       -0.27009997 -0.16036706 -0.0129614305 0.18078461
000120 8b ab 45 bd 4c 03 22 3d 08 4c 65 3c 68 82 66 be
       -0.0482593 0.039553925 0.013995178 -0.22510684
000130 2e ac 64 be e5 12 3c bd 23 a9 17 be d0 45 b3 be
       -0.22331306 -0.045916457 -0.14810614 -0.350142
000140 cc 8d bf be 12 84 c7 3e f8 95 71 bb 8c c5 b6 bd
       -0.3741287 0.3896795 -0.003686307 -0.08924398
000150 3e 17 e3 3d 04 dc ab 3d 02 96 98 3c 52 50 91 3e
       0.110884175 0.08391574 0.018626217 0.28381592
000160 97 1e 09 3e ba 88 ff 3d 00 e0 9f be b6 3e 2a 3d
       0.13390575 0.124772504 -0.31225586 0.041563712
000170 05 c1 81 3e e8 57 9d bd ca 90 34 be f5 86 1a be
       0.25342575 -0.076827824 -0.17633358 -0.15090545
000180 5c b6 01 be 90 55 ee 3d b9 79 c8 3d 27 4d ff bd
       -0.12667221 0.116374135 0.09788842 -0.124658875
000190 00 e8 81 bc 81 a9 36 be 7f 2f 3e 3e bf 47 d0 be
       -0.015857697 -0.17838098 0.18572806 -0.40679738
0001a0 46 ef 95 3c f8 ca 4c be a4 1b e7 bd de b9 b3 be
       0.018302571 -0.19999301 -0.11284569 -0.35102743
0001b0 dd d8 76 be ef 8c 4d bc 32 1f c8 3e c8 1a de bc
       -0.24106164 -0.012545808 0.390863 -0.02711238
0001c0 4a 09 4d 3d c5 d7 01 3e c2 99 da bd ea 5f 02 3b
       0.050057687 0.12679966 -0.10673858 0.0019893595
0001d0 fa 27 4c bd 64 66 35 be 4d 7d 46 3d b2 50 ac bc
       -0.049842812 -0.1771484 0.04845934 -0.021034572
0001e0 7d a7 ef bd 3f c0 d2 be aa 49 3e be 8e 5c 0d 3e
       -0.11701868 -0.41162297 -0.18582788 0.13804838
0001f0 43 39 e4 bd cc aa 34 3e 9f 9d d7 3d 55 b8 91 be
       -0.11143734 0.17643279 0.10528111 -0.28460947
000200 ac 32 00 3e d0 d5 42 3b 0c 95 0c bc ba 3f 00 be
       0.1251933 0.0029729493 -0.008580457 -0.1252431
000210 9a bf 47 3d ab 2c d2 be fc af 54 be ea c1 ad be
       0.04876671 -0.41049704 -0.20770258 -0.33937007
000220 a3 a9 78 3c 52 f5 81 3d ce 02 e7 bd 3c 1f fb bd
       0.015177163 0.06345619 -0.11279832 -0.12261817
000230 f2 2f 84 3e 6e e1 81 3e cb 68 27 be fe 95 d6 bc
       0.2581783 0.25367302 -0.16348569 -0.026194569
000240 77 58 0e be bf 37 ac 3d 84 e3 0d 3f 08 00 a1 bd
       -0.13900934 0.0840907 0.55425286 -0.07861334
000250 2c 49 6c be 64 f0 12 3e 14 50 22 3e 2c 45 94 bc
       -0.23074788 0.14349514 0.1585086 -0.01809939
000260 56 98 92 3e 1b ab 11 3e 2e 12 20 be 17 b4 8b 3e
       0.28631848 0.14225428 -0.15631935 0.27285835
000270 a3 8d 6b be 5c e6 f9 3a a3 56 09 3e 9e ed 1b 3e
       -0.23003249 0.0019065845 0.13411956 0.15227363
000280 ac e9 c7 bc d0 b7 11 be 6a 56 84 bc cf 10 6c 3e
       -0.024403416 -0.14230275 -0.016154487 0.23053287
000290 76 86 55 3d 63 e7 b4 3d c2 2d a1 3e 30 2a 00 3e
       0.052130185 0.08833196 0.31480223 0.12516093
0002a0 54 34 ce 3d 39 40 ef bd 45 45 5f 3d 85 e1 d2 be
       0.100685745 -0.116821714 0.05450942 -0.41187683
0002b0 e9 25 4d 3e c9 d8 1b be a4 39 84 3d eb 97 23 3c
       0.20033993 -0.15219416 0.064563066 0.009984951
0002c0 e9 78 18 3e 7f 5b 38 3e ac 33 41 3d c0 5e 65 be
       0.14889874 0.18003653 0.04716842 -0.22399426
0002d0 15 2c 53 3e ea 64 12 3d 19 35 e9 3d a2 95 ed bd
       0.20622285 0.03574077 0.11387081 -0.11600806
0002e0 77 89 d8 3d df a9 ce 3d 26 17 1a 3d 43 74 9f bd
       0.10573094 0.10090994 0.037619732 -0.07785847
0002f0 d8 80 46 be d7 f0 9d bc 91 a9 8b be ae b5 91 bd
       -0.19385087 -0.01927988 -0.27277806 -0.07114731
000300 9e d8 87 be eb 7a 86 be 57 f4 db bd 33 4f ce be
       -0.26532453 -0.26265654 -0.107399635 -0.402948
000310 d4 0f c3 3b 5f d1 65 3d fe bf 96 3d 86 19 89 bc
       0.0059528146 0.056107875 0.07360838 -0.016735803
000320 56 53 e5 3e 1f 97 34 3c 85 a1 1e be 53 60 7d 3d
       0.44790143 0.011022358 -0.15491302 0.06185944
000330 0f f6 03 3e c1 49 7e be ef 63 44 bd 47 86 3a 3e
       0.12886833 -0.24832822 -0.047946867 0.18215285
000340 0d 95 8b bd dc 4a 3c 3e a6 b7 99 bd 1b 11 9a be
       -0.068155386 0.18387932 -0.07505731 -0.30091175
000350 91 e5 39 3e b8 c6 dd 3d be 1b 78 3e 79 af d7 3d
       0.18153979 0.10828918 0.24229333 0.10531516
000360 37 29 76 3d 24 f4 83 be 4c 1d 80 3e 02 d9 c5 3d
       0.0600979 -0.25772202 0.25022352 0.096605316
000370 b2 54 af bd 63 d5 e7 3d b6 5f 15 bd 6e 42 5e 3d
       -0.08561076 0.11319997 -0.03646823 0.05426257
000380 4a 67 1b be da b7 0b 3f 71 b8 5f bd e4 0a 19 3d
       -0.1517612 0.5457741 -0.054619256 0.0373639
000390 ca 78 72 be 9f 56 34 3c 6d 4d 0a 3e 6d 1d 1f bc
       -0.2367889 0.01100698 0.13506098 -0.0097116055
0003a0 f8 34 73 3d 83 e3 0d 3e 97 a3 1b 3e fe 4f 1e be
       0.059376687 0.1385632 0.15199123 -0.15460202
0003b0 1f fe 4f 3e bf 5f 29 3e db 6c 1e 3e a3 0c ec bd
       0.20311783 0.1654043 0.15471213 -0.11525848
0003c0 29 a9 99 3e 50 54 84 3b 7e 21 4b be 42 20 d9 3d
       0.3001187 0.004038371 -0.19836995 0.10601856
0003d0 d8 77 f4 3d 10 25 14 be 72 97 e1 bd 5f b2 5d 3e
       0.11936921 -0.14467263 -0.11015214 0.21650074
0003e0 6b 55 92 3c 8a c1 12 3e 43 be 69 3e 42 05 4d be
       0.017862996 0.14331642 0.22826485 -0.20021537
0003f0 cd 47 24 3e e1 c8 2e be 0f 48 e0 bd 82 3d ef bd
       0.16043015 -0.17068817 -0.10951244 -0.116816536

shared_layers.2.bias f4 [64]
000000 a1 85 c6 bb 0b 19 3a bd e9 06 97 bc 10 5d 72 bc
       -0.0060584103 -0.04543404 -0.018435912 -0.014792696
000010 69 9c f3 bc be a2 79 3d 24 4f a5 3b 74 fb 3c bd
       -0.029737668 0.06094622 0.0050448347 -0.046138242
000020 0d 30 1d bd ed d8 24 bd c7 0b 4a bc 28 65 0c bd
       -0.038375903 -0.04024594 -0.0123319095 -0.034276158
000030 15 12 61 3d 3d 69 42 3c 86 81 77 3c 04 c6 1a 3d
       0.054948885 0.011865911 0.015106564 0.0377865
000040 77 d5 97 bb d9 5c f1 b9 d3 32 38 3d cd db 0c 3d
       -0.0046336013 -0.0004603628 0.044970345 0.034389306
000050 7d 0d f0 3c aa 8d 10 3c 91 30 7b bb b3 29 30 3d
       0.029303307 0.008822838 -0.0038328508 0.043008517
000060 2b 21 49 3d 92 00 4c 3d a6 84 1b 3d e2 ad b7 3c
       0.049103897 0.04980523 0.0379683 0.022421781
000070 a6 0f 4e bb 3c 47 2d bd 07 2e cb 3b 27 31 46 bd
       -0.0031442433 -0.042304263 0.0062005552 -0.04838672
000080 0b e9 9d bc c3 82 8f bc 2c e8 a7 bc f1 2a 6a 3b
       -0.019276163 -0.017518407 -0.02049645 0.0035731161
000090 d8 5c 37 bd 46 27 1d bd d4 09 20 bd 93 32 0c 3d
       -0.044766277 -0.038367532 -0.039071873 0.03422792
0000a0 19 8e 0a bd ae 52 9d bc 83 46 29 3d 2b 85 7d bd
       -0.03382692 -0.019204464 0.04132701 -0.061894577
0000b0 eb 3c 2b bd 34 46 1a 3d eb 04 61 bd cd 14 4d bc
       -0.041806143 0.037664607 -0.05493633 -0.012517166
0000c0 f7 4b 6e bd b1 31 4c bb 20 b1 9e 3c 6c 21 c7 bc
       -0.058177914 -0.0031157548 0.01937157 -0.024307929
0000d0 27 bf 00 3d 5f 28 03 bc b2 a9 57 bc 92 3a d3 bb
       0.031432297 -0.008005231 -0.013163017 -0.006446191
0000e0 41 97 ee 3b 94 af f1 3b f9 1f 10 3d 52 ca 41 bd
       0.0072812145 0.007375667 0.03518674 -0.04731209
0000f0 7e b1 e0 3c eb 97 0f 3d 4a 79 1a 3c f9 a8 15 bc
       0.027428385 0.03505699 0.009428332 -0.0091345245

output_layer.weight f4 [2, 64]
000000 5a 91 4d 3c 3d 5d 7e 3b ff bb 4b 3c a0 30 8a 3c
       0.012546862 0.0038812899 0.0124349585 0.01686889
000010 2a 14 bb bb 95 cd 46 3b ab e0 88 3c 93 ef 25 bc
       -0.005709191 0.0030334939 0.016708693 -0.01012792
000020 a0 fa 35 bc a5 48 26 3c 86 fa 36 3c b4 68 f6 3b
       -0.011107117 0.010149156 0.011168128 0.007519806
000030 83 80 22 3c b9 0a 4f 3c 57 0e 59 bc 65 04 97 3b
       0.009918335 0.012636834 -0.013248048 0.004608678
000040 c0 a0 88 bc 38 50 92 bc 8b 05 28 3c 5d 40 92 3c
       -0.016678214 -0.017860517 0.010255228 0.017852956
000050 8e bc 87 3c bb 94 0c 3c 80 14 81 bc c6 54 f1 bb
       0.016569402 0.008580382 -0.015756845 -0.007364842
000060 6a a6 a2 bb e3 c7 12 3c 13 ba ca bb 9b 70 5f bc
       -0.0049636858 0.0089587895 -0.0061867326 -0.013637687
000070 89 76 8c 3c 18 6e 6d bc 21 a7 57 3c 75 a2 1d 3b
       0.017146366 -0.01449158 0.013162405 0.002405313
000080 13 15 16 3c 14 6d 0d bc 46 cc cc bb 0f 1a 1f 3c
       0.009160298 -0.008631963 -0.006249937 0.009710803
000090 cb 02 4d bc 9b 95 61 bc 2c 83 19 bc 1b a1 65 3c
       -0.012512873 -0.013768579 -0.009369653 0.014015461
0000a0 87 bc 33 3c d7 58 8a bc ca 68 0a bc 80 be 70 bb
       0.010970241 -0.016888065 -0.008447835 -0.003673464
0000b0 7f a1 db bb 2a 4a 03 3c e3 9a 67 bb 90 48 43 bc
       -0.0067026014 0.008013288 -0.0035340122 -0.011919156
0000c0 14 3f 12 3b 01 1c 70 3c b0 cb 67 bc 29 db 50 3c
       0.002231543 0.014655114 -0.014147684 0.012747564
0000d0 9f c5 5c 3c 6d e0 11 3c 2a 3a 89 3c 9b 97 73 3c
       0.013474851 0.008903605 0.016751368 0.0148676885
0000e0 fe d2 a1 3c c4 06 99 bc ee 45 30 bc ed 23 06 bc
       0.01975393 -0.018679984 -0.01075886 -0.008187276
0000f0 92 b8 54 bc 58 88 6e 3c 5f 1e 01 bc e2 8f 64 bc
       -0.012983458 0.014558874 -0.007880776 -0.01395032
000100 6c 96 d0 bc da 7f 33 bd 78 9a e0 bc 53 8f 20 bd
       -0.025462352 -0.0438231 -0.027417406 -0.039199185
000110 41 06 cb bc 06 d8 57 3d f0 bc 1d 3b 10 4a 7c bd
       -0.024783256 0.05269625 0.0024068914 -0.06159407
000120 c4 1a 50 bd f4 3e 55 bd 40 be 96 bc b1 a0 1f bd
       -0.050806776 -0.05206199 -0.018401265 -0.038971607
000130 89 21 8e 3d 06 b1 93 3c 34 b8 73 3c b2 ea d9 3c
       0.0693999 0.018028747 0.01487546 0.02660117
000140 55 09 a1 bb b4 d8 3a 3c 65 2d 5f 3d 13 8f 6d 3d
       -0.0049144425 0.011404205 0.05448665 0.057997774
000150 00 6c 37 3d e8 dd 8d 3b 49 b9 94 ba 48 df 0f 3d
       0.04478073 0.004329432 -0.0011346723 0.035125047
000160 7e 17 54 3d 09 39 72 3d 4a c3 3a 3d ce d4 28 3d
       0.051780216 0.059136424 0.0455964 0.04121857
000170 f0 2b 65 bb cf 13 7d bd 76 bd 38 3b 9c ab 2f bd
       -0.0034968816 -0.06178647 0.00281891 -0.04288827
000180 ff 7c ff bc 7c 1d 5c bc 00 ec 8f bc e0 c7 e7 bb
       -0.031187532 -0.013434764 -0.017568588 -0.0070733875
000190 d2 0f 65 bd d6 7b 44 bd 41 08 53 bd d1 f4 37 3d
       -0.05592329 -0.04796966 -0.051521543 0.04491121
0001a0 9a 85 2d bd e3 86 fb bc 63 f8 52 3d 1d 6f 5a bd
       -0.04236374 -0.030703967 0.05150641 -0.053328622
0001b0 97 87 2e bd 0b b4 40 3d b8 cf 5a bd f3 ab 91 bc
       -0.042609777 0.047046702 -0.053420752 -0.017782187
0001c0 f4 27 f8 bc d3 2f 7a bb 47 f6 f7 3c dc 91 1f bd
       -0.030292489 -0.0038175478 0.030268801 -0.03895746
0001d0 56 c6 3b 3d c5 d6 0b bc b5 d4 e3 bc 0c 15 8f bc
       0.045843445 -0.008535092 -0.027811388 -0.01746609
0001e0 12 77 3f 3c 6f 4a a9 3c 8d af 4a 3d a5 1d 5d bd
       0.011686103 0.020665376 0.049483825 -0.05398335
0001f0 62 a5 2f 3d 8c c6 53 3d c5 a5 4d 3c 93 30 2d bc
       0.04288233 0.05170302 0.01255173 -0.010570663

output_layer.bias f4 [2]
000000 70 64 b9 3b f2 3f ba bf
       0.005657725 -1.4550765

layers.0.weight f4 [64, 3]
000000 f5 30 68 3d 8a 98 0e 3e 8f b1 16 be d4 58 96 be
       0.056687314 0.13925377 -0.1471617 -0.29364645
000010 fc 38 02 be c0 4c b0 3d 75 32 6c be 54 9a 50 3e
       -0.1271705 0.08608389 -0.23066123 0.20371372
000020 10 21 b0 3b 74 a0 d9 bd cc d7 42 3d 93 de 18 be
       0.005375035 -0.10626307 0.04756908 -0.14928655
000030 3d df 12 3e 17 23 19 be 25 25 58 bc fb ba 90 3e
       0.14342971 -0.14954792 -0.01319245 0.28267655
000040 c2 f2 b6 3d 91 81 2c be dc 74 be bc 8f 39 27 be
       0.08933021 -0.168463 -0.023249082 -0.1633055
000050 b2 26 80 be 7c 10 f4 3d b2 97 1d 3e e5 52 b3 3d
       -0.25029522 0.11917207 0.15389898 0.08756045
000060 1b 77 1f 3e 12 32 74 be 76 4b 81 3e bc f4 78 be
       0.15572779 -0.23847225 0.25252885 -0.24312109
000070 dd cd 88 3d a3 3b 70 3e bd 88 ac bd ae 31 9b 3b
       0.0667989 0.2346025 -0.08424518 0.004736147
000080 51 b9 03 3e 32 78 8a be 02 9b 07 3e bb 0d 04 3e
       0.12863661 -0.27044827 0.13242725 0.12895863
000090 1a df ee 3d 29 d7 65 be 9a 6e 5e 3e 34 90 de 3d
       0.11663647 -0.22445358 0.21721879 0.10867348
0000a0 3a 8b 12 3d ff 61 50 3e 29 b1 23 bd e9 16 b1 bd
       0.035777308 0.20349883 -0.039963875 -0.08646948
0000b0 fd 5a dd 3d be f7 fc 3d 31 d2 77 be 3f e1 8d 3e
       0.1080837 0.123519406 -0.24201275 0.27710912
0000c0 cd 9a 80 bd f0 09 05 3e ec 5b 81 bd c2 4d f6 3d
       -0.06279526 0.12992072 -0.06316361 0.1202655
0000d0 a0 fa 95 be 56 02 c9 3c 8e de 84 3e 73 b5 fb bd
       -0.29292774 0.024537247 0.25951046 -0.12290468
0000e0 e4 ca 45 3e 1a 5c 10 3d 6b 78 90 3d ec 5c ac bd
       0.19315678 0.035244085 0.07054218 -0.08416161
0000f0 be 59 9e 3d ce 14 81 3e c0 64 1e 3e 5c 5f 6d be
       0.07731961 0.25211185 0.1546812 -0.23180908
000100 63 51 60 be 20 c8 f9 3c c0 f3 80 3e fc df d6 bc
       -0.21906047 0.030490935 0.25185966 -0.026229851
000110 0a f3 91 3e c0 ec 7a 3e d5 e7 0c bd 5e 2a 1d bd
       0.28505737 0.24504375 -0.03440078 -0.038370483
000120 66 00 7c be 97 49 65 3e a7 25 17 3e 88 aa b6 bd
       -0.24609527 0.22391354 0.14760457 -0.08919245
000130 d5 1d 79 3e 53 3f 92 3e c0 86 85 be 10 be d9 bd
       0.24327786 0.28563938 -0.2607937 -0.10631955
000140 e4 af f7 3d 7d 29 1c be b8 cc 75 bc 01 e8 4c be
       0.12094095 -0.15250202 -0.015002422 -0.20010377
000150 34 b4 5a bd 08 34 80 be d7 ec 68 be 3e 4f 0d be
       -0.05339451 -0.25039697 -0.22746597 -0.1379976
000160 cc e9 d5 bd 04 61 5c be e3 5a ce 3d a4 d2 82 3e
       -0.10444984 -0.21521384 0.10075929 0.2555133
000170 0e 8b d2 bc e1 db 5e be 91 06 9e bd ee 94 30 bd
       -0.025701072 -0.21763565 -0.07716096 -0.04311078
000180 73 b6 3f 3e 8e cd ff bb 92 11 b4 3d 6f f3 b7 bc
       0.18721943 -0.0078064865 0.08792414 -0.022454945
000190 03 80 ea 3d b2 8f 2b 3e aa cb 38 3e d5 4e 28 be
       0.114501975 0.16754034 0.18046442 -0.16436322
0001a0 f0 1f 19 3e 42 11 81 3e b8 04 2f 3e b0 79 4c 3e
       0.1495359 0.2520848 0.17091644 0.19968295
0001b0 6b 15 3e be 76 b5 6d 3d b6 84 37 be b5 e2 2b bc
       -0.18562858 0.058034383 -0.17921719 -0.010491063
0001c0 a7 79 e2 bc 99 5e 4e be fb 45 40 3e 9d d5 18 be
       -0.027645899 -0.20153274 0.18776695 -0.14925237
0001d0 fa 95 e6 bd 12 57 43 3e bb e4 5d be 19 b9 3b 3d
       -0.112590745 0.19076183 -0.21669285 0.04583082
0001e0 8f 42 94 be be dd 84 3d ee 22 47 bd ba 64 cb 3d
       -0.2895703 0.064876065 -0.048617296 0.099313214
0001f0 ff 4f 84 3e d7 5f 6c bc 24 11 22 bd ad d1 54 be
       0.25842282 -0.014427147 -0.039567128 -0.2078311
000200 48 ba 86 be 77 cf 8a bc 85 a0 02 3d 10 3c 56 3e
       -0.26313996 -0.01694463 0.031891365 0.2092135
000210 87 44 da bd 15 9d 90 be 05 62 da ba 4b b1 d9 bc
       -0.10657602 -0.28244844 -0.0016661292 -0.026573798
000220 ed 94 da bd 97 08 66 be de 39 93 3e 30 dc 02 3e
       -0.106729366 -0.22464214 0.28755087 0.12779307
000230 d8 0f 11 3d f7 25 28 3e 3e 93 49 bd 46 7f 8d 3c
       0.0354155 0.16420732 -0.049212687 0.017272603
000240 46 58 70 3e f3 d9 79 be 43 f7 a1 bd 35 5d 14 3e
       0.23471174 -0.24399547 -0.079084896 0.1448868
000250 18 48 5d be fe a4 17 be 9e 25 57 be 11 bf 57 be
       -0.21609533 -0.14809033 -0.21010444 -0.2106898
000260 bf 56 2e bb 15 b7 45 be 65 db 81 3c c8 31 5e bd
       -0.0026601998 -0.19308122 0.015851686 -0.054246694
000270 88 cb 76 3e 28 31 57 3e 37 30 05 be 24 43 71 3e
       0.24101079 0.21014845 -0.13006674 0.23560768
000280 97 2f 87 3e 84 cd 8d 3e 4a d2 11 3d 89 82 62 3d
       0.26403496 0.27695858 0.035600938 0.05530027
000290 f6 bc 0d 3c ff a8 1d be 0d ff 3d bc 0d 96 1d be
       0.008651009 -0.15396498 -0.011596453 -0.15389271
0002a0 1b d9 1b 3e d4 e9 19 bd ea db 44 be a5 e3 43 be
       0.15219538 -0.03757651 -0.19224516 -0.19129808
0002b0 ef 64 1c bc 07 96 62 3d ef d5 cb bd d6 1b df bc
       -0.009545549 0.05531886 -0.09952914 -0.027234953
0002c0 fe c4 8a be 40 58 41 be e2 24 09 bd fa 21 03 3e
       -0.27103418 -0.18881321 -0.03348244 0.1280593
0002d0 c6 47 db 3d 4e 64 e5 3d b3 19 13 3d 9e 1e 3e 3e
       0.10707049 0.11200772 0.03591318 0.18566367
0002e0 a3 f6 58 be 7b b8 e9 bd 0e 23 28 3d 5b dc 32 be
       -0.21187834 -0.1141214 0.041049056 -0.17466871
0002f0 75 ec 73 bd 98 7c 1b 3e d9 ad c1 3b 52 42 bc bd
       -0.059551675 0.15184247 0.005910617 -0.09192337

layers.0.bias f4 [64]
000000 b6 14 db bc 92 24 e2 3c 79 2f ea 3c bc 2d d8 3c
       -0.026743274 0.027605329 0.02858709 0.026388995
000010 ad bd d3 3c 33 f0 d7 3c c1 63 d1 3c 9d e1 d3 3c
       0.02584728 0.026359653 0.025560262 0.025864417
000020 22 9c d8 3c d2 f7 ca bc a2 10 dd 3c 7f 05 d4 bc
       0.026441637 -0.024776373 0.02698547 -0.025881527
000030 81 25 e8 3c ab 85 d3 3c 5b 43 d8 bc d6 5a ef 3c
       0.028338196 0.025820574 -0.026399305 0.029218119
000040 89 1e e7 bc 8e aa d9 bc f0 6a d2 bc 94 e5 d5 3c
       -0.028212802 -0.026570585 -0.025685757 0.026110448
000050 36 1d d6 bc 7a a8 e4 3c c3 32 ce bc 1e c1 da bc
       -0.026136976 0.027912367 -0.02517069 -0.026703414
000060 f1 74 dc bc 8e 83 d0 bc ee 84 ad bc 0d 74 d2 3c
       -0.02691123 -0.025453355 -0.02118155 0.025690103
000070 c5 90 d1 3c ea 61 d3 3c 91 8c d0 3c f8 fe b7 bc
       0.025581727 0.025803525 0.025457652 -0.022460446
000080 14 b0 b5 3c ce cf d7 3c 54 95 d8 3c 8d 89 cd 3c
       0.022178687 0.026344206 0.026438393 0.025090003
000090 ea ac d8 bc e6 6d d2 3c e3 c9 d7 bc 15 1a e0 bc
       -0.02644964 0.02568717 -0.026341384 -0.027356187
0000a0 40 2e df 3c 67 fc d1 3c 9e f1 cf bc 13 dd d5 3c
       0.027243733 0.02563305 -0.025383767 0.026106393
0000b0 9c 2e d3 bc 43 5d d2 3c 84 c6 b7 3c 0c 76 dc bc
       -0.025779061 0.025679236 0.022433527 -0.026911758
0000c0 11 88 d1 3c b1 70 cc 3c d5 50 ef 3c d5 77 dc 3c
       0.025577577 0.02495608 0.029213348 0.02691261
0000d0 c2 c8 d3 3c 1e 57 48 bc 3c c6 da 3c 7a 55 d5 bc
       0.025852565 -0.012227802 0.026705854 -0.026041735
0000e0 fa d3 e1 bc a4 2a df 3c 43 27 d2 bc ac 6e d8 3c
       -0.027566899 0.027242012 -0.025653487 0.02641996
0000f0 ef d5 d1 3c c1 91 d3 3c a8 13 d8 3c c3 00 d2 3c
       0.025614707 0.025826337 0.02637656 0.025635129

layers.2.weight f4 [64, 64]
000000 55 21 22 be 5e d1 19 3e 0a 00 99 bd 5f 4a 36 be
       -0.15833028 0.15021273 -0.074707106 -0.17801808
000010 77 ca 17 be 54 a1 7f 3d 8e 64 00 be 16 1a 50 3d
       -0.14823328 0.062409714 -0.12538359 0.050806127
000020 fa 85 fb bd b2 15 f7 bc 86 70 2f 3e 18 47 df bd
       -0.122814134 -0.030161712 0.17132768 -0.10902232
000030 13 e6 fe bc 37 8d 45 3e ad 76 60 bc df c2 24 3e
       -0.031115567 0.1929215 -0.0137001695 0.16089962
000040 f1 3b 7a 3d c1 dc 3a 3e 83 6e 47 be a2 30 d5 3d
       0.06109232 0.18248273 -0.1947575 0.104096666
000050 c6 a2 41 be 82 b6 ff 3d b5 db d7 bd 68 4f 51 3d
       -0.1890975 0.124859825 -0.10539953 0.05110112
000060 84 1c 57 be e8 d7 12 bd e1 71 4c 3e 99 80 b1 3d
       -0.21006972 -0.035850435 0.19965316 0.08667106
000070 d0 6e 45 be 93 23 f8 bd 2a 02 43 3d f3 6e 31 3d
       -0.19280553 -0.1211616 0.047609486 0.0433187
000080 bc 57 41 be 28 f3 dd bd 70 93 36 bd 7f 07 31 3e
       -0.18881124 -0.10837394 -0.0445742 0.17288016
000090 67 d1 9a bc 55 c1 ce 3d ba b7 c9 3d ee 60 32 be
       -0.018898679 0.10095469 0.09849496 -0.17419788
0000a0 e6 96 7c 3c 7a dd d2 bd 6d 1f 37 3e 20 5a 3b 3e
       0.015416836 -0.102961496 0.17883082 0.18296099
0000b0 ce 93 85 3d 40 60 25 3d c4 27 64 bd e4 01 02 be
       0.06522332 0.040374994 -0.055701986 -0.12696034
0000c0 6a 51 39 be d4 90 3c be 88 68 02 3e f2 1b 18 be
       -0.18097463 -0.18414623 0.12735188 -0.1485441
0000d0 c9 a9 96 3c 15 af fc 3d 70 d8 3d 3e aa bb 37 be
       0.018391507 0.12338082 0.18539596 -0.17942682
0000e0 ea 27 55 3e d9 5a bd 3d df 09 c5 bd 90 11 bc 3d
       0.20816007 0.092458434 -0.096210234 0.09183037
0000f0 a8 01 f7 bc 86 c7 ec bd 28 91 a0 bc 92 2c 58 bd
       -0.030152157 -0.115614936 -0.019600466 -0.05277688
000100 95 22 04 3d 3f 5e cf 3d 7a 6c f4 bd 40 58 18 3d
       0.032259542 0.10125398 -0.11934753 0.037193537
000110 36 c8 3c 3d 34 9f a8 bd 4d da 35 be 8b fa a9 bd
       0.046089374 -0.082334906 -0.17759056 -0.082997404
000120 34 2a 16 be 7a 97 9a 3b e9 c1 e7 3c c3 c1 b6 bd
       -0.14664537 0.0047177644 0.028290706 -0.08923676
000130 9e 05 06 be e4 17 b5 bd a1 ad 25 3e 9f 93 0b be
       -0.1308808 -0.088424474 0.16179515 -0.13630532
000140 03 d7 1e be 0b 1b cf bd 3e e4 4c be 9f 2e 06 be
       -0.15511708 -0.1011258 -0.20008942 -0.13103722
000150 1b 42 5c be 1c ff 4e 3e cc 6f 74 bd 03 0d ab bd
       -0.21509592 0.20214504 -0.05967693 -0.08352091
000160 39 82 4e bd 1a 20 2e 3e 5f 59 48 be ee ce 28 be
       -0.05041716 0.17004433 -0.19565342 -0.16485187
000170 0b a4 4d 3d a4 dd 1a 3e 74 80 29 be 24 15 44 be
       0.05020527 0.15123612 -0.16552907 -0.1914869
000180 ee 50 52 3e 47 aa 0c 3d 4f 96 17 3e dc 8d 16 3e
       0.20538685 0.034342077 0.14803432 0.14702553
000190 d6 9a 4f 3c 5a 00 2c be 7b b2 11 3d 6f ca a6 bd
       0.012671193 -0.16797009 0.035570603 -0.0814408
0001a0 b6 26 5a be 2c 6a b8 bc 50 63 75 bd a1 df 69 bd
       -0.2130383 -0.022511564 -0.059909165 -0.057098035
0001b0 32 35 d3 3c 83 68 00 be be 16 1f be 3d 5a c2 bd
       0.025782201 -0.12539868 -0.15536019 -0.09489868
0001c0 8c 32 d9 3d b1 7a 27 3e 86 ca 3b 3e e7 65 3b be
       0.10605344 0.16355397 0.18338975 -0.18300591
0001d0 4e b7 82 bd a0 f9 86 3b a4 96 00 be 7d 69 80 bd
       -0.06382619 0.004119113 -0.12557465 -0.0627012
0001e0 0c 2b db bb 80 91 00 be 0d 14 05 3d b2 27 76 3c
       -0.006688481 -0.12555504 0.032489825 0.015024113
0001f0 d6 aa 4c 3b da 42 9a bc 3a 89 26 3e 2b 40 1b be
       0.0031229756 -0.018830705 0.16263285 -0.15161197
000200 45 45 c1 3d d3 3e 20 3e 52 5b 72 3d db 85 48 3d
       0.0943704 0.15648966 0.05916912 0.04895578
000210 6a 50 b0 3d 8f 1b 0a 3e 98 44 35 3d 9e 48 3b be
       0.08609088 0.13487075 0.04425487 -0.1828942
000220 64 bd eb bd 5d ae 31 3e aa f2 1c 3e ad 91 1f 3e
       -0.11510733 0.1735167 0.15326944 0.15582915
000230 d3 fb b6 bc ef 5a 26 be 4d b6 26 3e 72 3e bc bc
       -0.022336876 -0.16245626 0.1628048 -0.022978995
000240 3a f3 bc 3c 3a 7f ac bd 6c 75 18 bc 94 e3 24 be
       0.023065198 -0.08422704 -0.009305339 -0.16102439
000250 ee 16 56 be 57 fb fb 3c ce f5 38 3d a6 1a 4b be
       -0.20907184 0.030759497 0.045156293 -0.19834384
000260 b2 df 17 be 0c 09 16 be 24 d5 09 3e f4 dd 4a be
       -0.14831427 -0.14651889 0.13460213 -0.19811231
000270 4d 08 4d 3e cb 35 0d 3e a2 ab 30 3e 03 84 3f be
       0.20022698 0.13790052 0.17252973 -0.18702702
000280 c1 84 ee bd 50 e7 6f bd 09 8e 69 3d e0 06 02 be
       -0.116464145 -0.058570206 0.05702022 -0.12697935
000290 da 12 54 3e 3f ca 8e bd 65 eb 04 be aa 6f e4 bd
       0.20710316 -0.06972169 -0.12980421 -0.11154111
0002a0 37 b2 5d be 74 c8 01 3e 86 a3 ec 3d 74 88 3b 3e
       -0.21650015 0.12674123 0.11554627 0.18313771
0002b0 2d ea 2c bd 38 b9 3e bd 11 37 3c be be cd 42 be
       -0.042215515 -0.046563357 -0.18380381 -0.19023797
0002c0 16 40 d6 bd fd db d3 3d c8 16 24 be df 46 3f 3e
       -0.10461442 0.10344694 -0.16024315 0.18679379
0002d0 c9 72 b5 bd 61 d1 12 3d 44 eb 22 3d a5 3f 5b be
       -0.08859784 0.03584421 0.039775148 -0.21410997
0002e0 17 0d 52 bd 93 f8 e1 bd 54 4c 10 3c 72 fa 62 3d
       -0.051282015 -0.1103374 0.008807261 0.055414625
0002f0 04 8b 58 be 5c db e2 3d ff 18 36 be 07 74 bd bd
       -0.2114678 0.11076996 -0.17782973 -0.09250646
000300 a6 87 ce bd 4b cf 1e be 32 a1 07 3e 08 90 eb bd
       -0.10084467 -0.15508763 0.13245085 -0.11502081
000310 d3 d3 49 3e e8 96 f3 3d 16 56 4e be 0d d1 56 be
       0.19709711 0.118940175 -0.20150027 -0.20978184
000320 42 59 d9 3d 31 57 99 bd 0c bc fb 3d 4f 40 ab 3d
       0.10612728 -0.074873336 0.122917265 0.08361875
000330 8c da e5 3d 4e ce f7 3d 37 c1 bf 3d 9b a9 48 bd
       0.11223325 0.12099896 0.09363025 -0.048989873
000340 72 45 d7 3c 8c c2 ba 3d 5b 5d 02 3e c9 e2 8d 3d
       0.026278231 0.09119138 0.12730925 0.069280215
000350 09 86 28 be 35 7b ab bd bb 94 c0 3d 57 6c d2 3d
       -0.1645738 -0.08373109 0.09403368 0.102745704
000360 ab 6c 3f be 3a 92 a0 3d 6c 13 11 be 0b 6d 4a bd
       -0.18693797 0.078403905 -0.14167565 -0.049420398
000370 dc 79 d9 bd df ff 97 3d 44 f7 76 3c c2 26 00 bd
       -0.10618946 0.074218504 0.015073601 -0.031286962
000380 c2 ae a1 3d f9 c7 65 bc 11 aa f1 bd 36 7c 19 be
       0.078946605 -0.014024728 -0.11800016 -0.14988789
000390 92 a9 bd bc 7c 89 05 3e e8 b8 18 be cb 1e 3e be
       -0.023152146 0.13040727 -0.14914286 -0.18566434
0003a0 48 94 18 be 1c 07 2d 3d fc 93 92 3d af 49 39 be
       -0.14900315 0.04224311 0.07157132 -0.18094514
0003b0 33 75 c2 bd 9d e9 b3 bc 47 a1 20 3d 7b 19 87 bc
       -0.0949501 -0.021961981 0.039216306 -0.016491642
0003c0 02 60 12 3e 3a d8 0e 3e 5d 7d 0e be 02 7f 13 3e
       0.14294437 0.13949671 -0.1391501 0.14403918
0003d0 ed ae 0a 3e c6 35 3d be ff 49 b9 3d 2e 91 48 3e
       0.13543291 -0.18477544 0.09047317 0.19586632
0003e0 3e ec 1f be 92 87 1d be 93 31 2a be 7f 2d 7e 3d
       -0.15617463 -0.15383747 -0.16620474 0.062055107
0003f0 37 90 38 bd e9 7d 97 3c 7a d8 83 3d 8e 73 17 3e
       -0.04505941 0.018492656 0.06437774 0.14790174

layers.2.bias f4 [64]
000000 a8 12 d8 3c 28 35 d8 3c bb 6d d2 bc a6 ff d5 bc
       0.026376083 0.026392534 -0.02568709 -0.02612288
000010 3e a5 d4 3c 8a a4 d5 bc 7d b6 d5 bc 79 db d5 bc
       0.0259577 -0.026079435 -0.026087994 -0.02610563
000020 81 60 d6 3c d2 b5 d4 bc 29 70 d7 3c eb 4d d6 3c
       0.026169064 -0.025965605 0.0262986 0.026160201
000030 4a f7 d6 3c be fc d5 bc 64 94 d7 3c ea 81 d5 bc
       0.026240963 -0.026121493 0.026315875 -0.026062924
000040 84 46 d4 bc 5b c7 d6 3c f8 bb d3 bc 8b 88 d4 bc
       -0.02591253 0.026218107 -0.025846466 -0.025944015
000050 88 0d d1 3c 4e c6 d7 3c 53 93 d5 bc 88 2b d5 3c
       0.025519148 0.026339676 -0.026071226 0.026021734
000060 7e a5 d6 3c 07 30 d7 bc 06 ca d8 3c 49 ae d6 3c
       0.02620196 -0.026268018 0.02646352 0.026206153
000070 a1 ce d5 3c 13 93 d6 bc 8d 9b d5 bc 0d 13 d6 bc
       0.026099505 -0.026193177 -0.026075149 -0.026132131
000080 89 53 d2 bc f4 b7 d7 bc cc 68 d6 3c 6e a5 d5 3c
       -0.025674598 -0.026332833 0.026173018 0.02607986
000090 c1 f8 d6 bc bc e1 d7 3c d5 2b d5 3c 97 29 d9 bc
       -0.026241662 0.026352756 0.026021877 -0.02650909
0000a0 82 48 d7 bc f6 8d d5 bc 1c 91 d5 3c 86 c1 d6 3c
       -0.026279692 -0.026068669 0.02607017 0.026215326
0000b0 7a e2 d5 bc f0 b7 d8 3c aa 27 d5 3c af a2 d5 3c
       -0.026108969 0.026454896 0.02601989 0.02607855
0000c0 b0 fb d5 bc a0 70 d5 3c 0d 6a d8 3c 6d bf d6 bc
       -0.02612099 0.02605468 0.026417756 -0.026214326
0000d0 55 fa d8 3c 12 2e d6 bc 7e 22 d5 bc 59 bd d3 bc
       0.026486555 -0.026145015 -0.026017424 -0.025847124
0000e0 a1 e1 d4 3c 0b 8e d6 3c e0 5f d9 bc 73 d9 d6 3c
       0.025986494 0.026190778 -0.026534975 0.026226735
0000f0 66 ea d2 3c f5 47 d8 3c b2 c4 d6 bc 2e da d5 3c
       0.025746536 0.0264015 -0.026216839 0.026105013

output_layer.weight f4 [1, 64]
000000 2a 32 69 be b6 3d 88 bd 95 5b 4e 3e 1e 5d 85 3d
       -0.22773042 -0.066523954 0.20152123 0.06511901
000010 e9 6e 12 be 3e 6e 8d 3e eb 9a 15 3e 86 ae 37 3e
       -0.14300121 0.2762317 0.14609878 0.17937669
000020 31 a4 69 be 2d d7 53 3e c0 b7 9f be c0 be 2c bd
       -0.2281654 0.20687552 -0.31194878 -0.0421741
000030 52 97 50 be d9 15 19 3e a3 22 9a be 54 23 94 3d
       -0.20370224 0.1494974 -0.3010455 0.07233301
000040 28 7c 6e 3c 38 b0 64 bd 0c 85 8c 3e f8 2f 63 3d
       0.014555968 -0.055832118 0.27445257 0.05546567
000050 db 2c 3b bc 47 e7 9a bd 75 e4 8b 3e 89 ee e4 bd
       -0.011424269 -0.07563644 0.27322736 -0.111783095
000060 fe 94 91 be 01 1f 18 3e 0f ac cb bc 86 ff d0 bd
       -0.28433985 0.14855577 -0.024862317 -0.10204987
000070 a5 8c 45 be bd d7 e3 3d 93 40 63 3d 42 67 bf 3d
       -0.19291933 0.11125133 0.055481505 0.09345867
000080 99 54 ae 3d 6e fd 4b 3e c5 74 57 be cd f6 98 be
       0.085122295 0.19920895 -0.21040638 -0.29875794
000090 11 38 77 3d 3f 37 1c bc 4f 0d e8 bc 49 0c 85 3d
       0.060356203 -0.009534656 -0.028326659 0.06496484
0000a0 84 f9 29 3e 65 a5 7a 3e 70 28 0f be 1b f7 81 be
       0.16599089 0.24477156 -0.1398027 -0.2538384
0000b0 a5 e6 95 3d db 5a cd bc 9c 14 73 be 09 47 23 be
       0.073193826 -0.025067737 -0.2373833 -0.15945067
0000c0 a7 97 9a 3e c6 e2 8f be f4 aa 6c be 29 51 95 3d
       0.30193827 -0.28102702 -0.23112088 0.07290871
0000d0 f7 fd 2c bd a4 cf 9b 3e 5c 92 37 3e 70 c6 f0 3d
       -0.042234387 0.30431855 0.17926925 0.11756599
0000e0 5f 08 0d be c3 d7 95 be 3d b9 c9 3d 4d 06 8c be
       -0.13772725 -0.29266176 0.098497845 -0.27348557
0000f0 ac 48 73 be 94 c8 7c be 51 55 92 3e 63 cd 33 be
       -0.23758191 -0.2468589 0.28580716 -0.17558818

exp_avg f4 [64, 3]
000000 10 3c e2 39 97 68 6a b8 5f 52 0b ba 5e 1e ee 39
       0.0004315083 -5.5887354e-05 -0.00053147034 0.00045417523
000010 a9 9b b8 b7 54 d0 ff b9 50 3c d8 36 66 28 b9 b7
       -2.2006994e-05 -0.00048792607 6.444323e-06 -2.207253e-05
000020 d0 d8 33 36 da 7e e3 38 f2 85 1f b7 e7 e4 33 39
       2.679928e-06 0.000108478314 -9.508325e-06 0.00017156043
000030 e7 1e 10 39 26 20 c8 37 47 25 17 b9 1b 91 b8 b8
       0.00013744422 2.3856828e-05 -0.00014414369 -8.800832e-05
000040 bc 4b 27 37 68 7b e4 b7 e9 3b 28 b9 a4 11 d8 36
       9.971609e-06 -2.7237184e-05 -0.00016044047 6.4393553e-06
000050 a3 9f 5b b8 e9 b5 33 b9 3d da 0a 37 40 ca b0 b9
       -5.2362342e-05 -0.00017138537 8.2762535e-06 -0.00033720024
000060 f5 9a 00 38 c8 26 67 35 b7 4b e1 37 09 c1 26 b9
       3.0661893e-05 8.611064e-07 2.6857348e-05 -0.00015902905
000070 15 15 e0 37 61 1a 95 b9 ba 08 b5 b9 da cf 27 38
       2.6712698e-05 -0.00028439148 -0.00034529512 4.000948e-05
000080 95 a0 0b b9 f6 70 bd 38 38 6a dd 36 d6 2c 2e 39
       -0.00013315894 9.033263e-05 6.5986787e-06 0.00016610636
000090 ad e0 9c 35 a3 97 51 36 ef b1 07 39 45 9d a8 b9
       1.1688295e-06 3.123169e-06 0.00012940889 -0.00032160632
0000a0 ca 4e da 38 ec 07 92 b7 b7 57 1e 38 0a a3 b6 b6
       0.00010409726 -1.7408245e-05 3.7751826e-05 -5.443003e-06
0000b0 49 96 44 39 c4 e9 67 38 76 32 d9 b5 fb bd 2e 39
       0.00018748002 5.5292403e-05 -1.6182446e-06 0.00016664706
0000c0 33 6a b4 39 05 2f 10 b8 7f 02 d8 b7 f6 74 b9 39
       0.000344114 -3.4376066e-05 -2.5750369e-05 0.00035373092
0000d0 e8 e7 9e b8 d8 02 e0 38 41 c9 84 b9 4d 4b 0c 37
       -7.577223e-05 0.00010681682 -0.00025326948 8.362183e-06
0000e0 41 26 c2 b9 9f c6 6d b8 54 14 a9 b5 38 8d 8f 38
       -0.00037031065 -5.6690184e-05 -1.2597397e-06 6.8450754e-05
0000f0 02 af 47 b9 f9 b7 58 38 6c d3 e2 39 16 32 a7 39
       -0.00019043314 5.166975e-05 0.000432636 0.0003189004
000100 72 27 92 b7 c9 99 30 b9 75 99 3a 38 e9 04 12 36
       -1.7422924e-05 -0.00016841957 4.4488774e-05 2.1758553e-06
000110 91 af 24 b9 15 5a 96 b9 81 a7 fe 37 dc 93 70 38
       -0.00015705662 -0.00028677346 3.035716e-05 5.7358164e-05
000120 ea e1 3f b9 7b 3d b9 37 2f b5 fb b9 92 07 7e b7
       -0.00018299339 2.2082348e-05 -0.00048009443 -1.5141342e-05
000130 a4 5e dd b5 59 e4 b0 38 7b 36 3c b8 8b ef bb 37
       -1.6493327e-06 8.434867e-05 -4.487343e-05 2.2403683e-05
000140 4a c8 ec b8 f2 af 05 b9 5f a0 59 37 56 b4 db b8
       -0.00011290664 -0.00012749413 1.2971547e-05 -0.00010476324
000150 52 a3 f1 b7 b3 ff 6b b6 52 43 a3 38 1a da dc 38
       -2.880549e-05 -3.5166565e-06 7.784985e-05 0.00010531042
000160 07 b5 57 b7 ab 2e 3a b9 cc 7f b2 39 7a 5b 67 b8
       -1.2857147e-05 -0.00017755727 0.00034046022 -5.5159886e-05
000170 34 cc 99 39 58 ff a8 38 a4 72 41 b7 4b cc 3a b9
       0.00029334577 8.058426e-05 -1.1530388e-05 -0.00017814447
000180 2f 8d 05 38 da c3 a2 b6 e1 48 90 38 40 d3 28 b8
       3.184116e-05 -4.8507763e-06 6.88003e-05 -4.0251063e-05
000190 28 3f 31 b7 42 f7 8a b8 95 8f a9 b8 45 af 54 b6
       -1.0564727e-05 -6.626408e-05 -8.085292e-05 -3.1692482e-06
0001a0 f7 50 81 b8 69 1e 0e 39 d4 cc 98 b7 e9 49 69 b9
       -6.16628e-05 0.00013553504 -1.8215193e-05 -0.00022248145
0001b0 2e e5 23 b9 ba e6 e3 37 2e 85 57 38 6c 67 b2 37
       -0.00015630267 2.716795e-05 5.1384028e-05 2.1267413e-05
0001c0 a1 3c 32 37 db 84 c2 b8 93 4a 22 b9 cc ac fc 37
       1.0623743e-05 -9.275387e-05 -0.00015477305 3.0121206e-05
0001d0 13 d8 81 b8 40 67 2b 39 11 c7 24 b8 8b 74 f2 b7
       -6.191446e-05 0.00016346294 -3.9286042e-05 -2.8902918e-05
0001e0 e9 61 54 b9 c5 3f e0 37 a7 b1 25 b9 2e 80 9c 39
       -0.0002025437 2.6732576e-05 -0.00015801807 0.0002985014
0001f0 23 4d 0a b8 80 bb ab b9 39 da 27 b9 d8 94 45 38
       -3.2973603e-05 -0.0003275536 -0.00016007655 4.710708e-05
000200 5e 09 58 b8 57 80 6a 39 82 39 5b b6 ac 90 01 3a
       -5.1507137e-05 0.0002236379 -3.2667017e-06 0.0004942517
000210 53 34 9a b8 01 52 08 b6 6c 2a 98 b8 ef 69 42 b8
       -7.3530384e-05 -2.0313312e-06 -7.2558265e-05 -4.6351863e-05
000220 46 7e 06 37 f1 4f 13 b9 cc e8 df b9 72 a8 81 38
       8.016423e-06 -0.00014048793 -0.00042707322 6.182575e-05
000230 e5 c8 5d 39 4a 4e 29 b7 d9 1d 4a b6 dd c0 62 b9
       0.00021151041 -1.0091413e-05 -3.011772e-06 -0.00021624887
000240 da 8c ad b9 a3 5e 64 38 c5 e9 c2 b8 d3 54 77 b9
       -0.00033102074 5.4447573e-05 -9.294184e-05 -0.00023587355
000250 b6 fc 46 38 a2 fb a2 39 d2 e6 35 39 f7 64 00 b8
       4.7442234e-05 0.0003108653 0.00017347492 -3.061161e-05
000260 a0 25 5f 39 d0 87 cb 39 30 74 7b b8 1a 57 26 3a
       0.00021280954 0.00038820365 -5.995127e-05 0.00063453766
000270 c7 d1 f0 b8 24 ad 07 37 9b 03 43 39 fb 7d 89 37
       -0.00011483166 8.0869395e-06 0.00018597992 1.6390337e-05
000280 67 c0 86 37 73 2f 13 b8 bc 6a 0b 39 77 b9 2f b7
       1.606364e-05 -3.509172e-05 0.00013295835 -1.0473995e-05
000290 a7 8b 1a b8 f3 e6 27 39 20 b4 b1 b7 fe 4e e8 b9
       -3.6846523e-05 0.00016012396 -2.1183921e-05 -0.00044309342
0002a0 8d d5 c6 b8 ae 45 d8 36 3f 11 87 38 f8 28 8f 39
       -9.481153e-05 6.4454134e-06 6.440514e-05 0.0002730561
0002b0 ca 84 86 b7 19 39 a8 b9 3f 0d 00 ba 5d ac bf 38
       -1.603588e-05 -0.00032085998 -0.00048847863 9.139695e-05
0002c0 de 81 30 38 6d cb 6e 39 0d 89 2c 36 80 17 ea b7
       4.2082618e-05 0.00022773231 2.5709771e-06 -2.7905917e-05
0002d0 99 63 74 b9 7e 56 1c 38 64 e5 92 39 b5 f4 03 b9
       -0.00023306756 3.727385e-05 0.000280182 -0.00012584294
0002e0 9c ca 28 37 8e eb 8a 38 b8 0c 44 39 a5 05 29 b8
       1.0060754e-05 6.624228e-05 0.00018696755 -4.0297997e-05
0002f0 2e 27 47 b9 d1 7e 3c 39 f1 e1 36 b7 0c 4d e7 39
       -0.00018992714 0.0001797632 -1.0900651e-05 0.00044117158

exp_avg_sq f4 [64, 3]
000000 4c 32 18 35 75 bf 43 35 2d 19 15 34 cb d6 4e 35
       5.6697604e-07 7.292177e-07 1.3885865e-07 7.7053545e-07
000010 f1 f0 37 35 d3 0e 1f 34 40 76 ae 33 93 21 85 34
       6.852343e-07 1.4813422e-07 8.124016e-08 2.479761e-07
000020 69 bf e6 32 27 b5 8c 34 92 7f 50 35 bd e1 a0 33
       2.6862567e-08 2.6208838e-07 7.767168e-07 7.491642e-08
000030 33 9c 28 34 8d 89 ad 34 5f f7 0e 33 a1 72 f4 33
       1.5703044e-07 3.2323842e-07 3.3286934e-08 1.1382986e-07
000040 69 df bf 34 da 85 22 33 3f 7b c5 33 7b e7 35 34
       3.5739075e-07 3.78403e-08 9.195946e-08 1.694115e-07
000050 10 a4 1b 33 e6 42 0d 35 b9 8d 64 35 55 dc e0 33
       3.6237964e-08 5.2623943e-07 8.514285e-07 1.0470891e-07
000060 3d 8c 9f 32 75 18 64 33 10 7a 03 32 5d da 5e 33
       1.857381e-08 5.310763e-08 7.652957e-09 5.1887003e-08
000070 1e 69 9b 33 38 c7 eb 32 96 f8 64 34 37 6a db 33
       7.236871e-08 2.7448195e-08 2.132459e-07 1.02173026e-07
000080 cc f8 55 33 ea e7 8a 35 ec 68 3b 36 51 84 8b 34
       4.9819207e-08 1.0349297e-06 2.7926244e-06 2.598704e-07
000090 11 9f 7f 34 e9 90 5d 35 5c 83 92 33 85 5e 98 34
       2.3806594e-07 8.253979e-07 6.822549e-08 2.8380978e-07
0000a0 dc 00 31 34 b7 49 6d 33 19 1d 98 33 27 c8 64 34
       1.6484722e-07 5.5247906e-08 7.0833444e-08 2.130697e-07
0000b0 90 24 c2 32 38 11 b3 34 69 c4 91 35 7b 0d d2 33
       2.26012e-08 3.3353876e-07 1.0860505e-06 9.781339e-08
0000c0 cb 1e c4 34 e4 0c a6 34 0f 61 57 33 1c d5 ac 34
       3.653025e-07 3.092929e-07 5.0146863e-08 3.2192554e-07
0000d0 2f 30 14 34 61 ae 54 33 79 6d d9 34 06 37 cd 34
       1.3801103e-07 4.9518693e-08 4.0499052e-07 3.822426e-07
0000e0 53 75 8f 33 f9 3f 0c 35 0b 10 e8 35 8a 49 02 34
       6.6802976e-08 5.2247157e-07 1.7290016e-06 1.2133947e-07
0000f0 d1 4c 19 34 3c 7b 1c 34 21 ea 3f 33 82 5b 9b 34
       1.4277181e-07 1.4573465e-07 4.4683592e-08 2.893758e-07
000100 52 b9 46 34 d8 64 35 33 86 d7 8f 33 31 6b 21 34
       1.8507606e-07 4.2234063e-08 6.69816e-08 1.503329e-07
000110 47 dd b3 32 ca b9 f5 33 e7 41 20 33 64 d3 c6 32
       2.0938968e-08 1.14424964e-07 3.731284e-08 2.3146363e-08
000120 79 4b 95 34 33 67 48 35 2f 3a e4 33 bb d7 8e 33
       2.7808326e-07 7.465598e-07 1.0627661e-07 6.6516314e-08
000130 85 b0 66 34 77 94 e7 32 5a 5f a7 33 eb 35 63 34
       2.1484637e-07 2.6959453e-08 7.793888e-08 2.1160638e-07
000140 14 02 df 32 c6 a6 af 34 a6 eb 56 35 55 60 b2 33
       2.5961562e-08 3.2717634e-07 8.0064126e-07 8.3062936e-08
000150 7b 05 10 35 62 72 f7 35 ce ef 1d 34 f3 ec b2 34
       5.3652155e-07 1.8436224e-06 1.4709005e-07 3.3327487e-07
000160 b8 a8 7c 35 67 56 9e 33 dd b2 95 34 0f a5 13 34
       9.4122834e-07 7.373165e-08 2.7883553e-07 1.375049e-07
000170 46 40 6f 33 e2 36 22 34 c7 31 02 35 ea 78 7a 33
       5.570498e-08 1.5107392e-07 4.850121e-07 5.831763e-08
000180 be c2 00 35 05 e7 cd 35 c7 34 eb 33 ca ec b8 32
       4.7967103e-07 1.5340926e-06 1.09526404e-07 2.1528098e-08
000190 dc 34 c0 32 1d 59 c5 31 1e 97 fe 33 0a 3f da 34
       2.237578e-08 5.7435856e-09 1.1855285e-07 4.065153e-07
0001a0 cd be fc 32 14 bb 2d 34 37 66 da 34 1c 46 10 33
       2.9423427e-08 1.6179939e-07 4.0680035e-07 3.3591377e-08
0001b0 26 31 68 33 c2 b8 18 33 f4 e5 97 32 24 86 4d 33
       5.406141e-08 3.5558294e-08 1.7683284e-08 4.7852282e-08
0001c0 07 bf 2c 34 1a f2 78 32 22 5d 6f 33 f4 bc d7 32
       1.6088244e-07 1.4490547e-08 5.5731228e-08 2.511522e-08
0001d0 6a 9d 38 32 01 41 87 33 e1 e1 de 33 34 10 80 32
       1.0746001e-08 6.2982515e-08 1.0378768e-07 1.490853e-08
0001e0 fd 2f c1 34 7b 71 bd 34 c8 b6 48 33 d6 4f 91 34
       3.5983967e-07 3.528656e-07 4.6732367e-08 2.7066443e-07
0001f0 f0 b2 04 35 0d 8b b3 33 75 93 2f 34 75 b7 c4 33
       4.943422e-07 8.36063e-08 1.635179e-07 9.160332e-08
000200 ca b1 90 32 fd 71 18 35 95 4d a2 35 1a 84 32 34
       1.6844655e-08 5.679029e-07 1.209252e-06 1.66256e-07
000210 16 15 a1 34 f9 b0 26 35 8a 54 75 33 f3 68 19 35
       3.000393e-07 6.209735e-07 5.7120396e-08 5.714966e-07
000220 d7 54 04 36 17 cc 1d 34 c5 2a 18 35 e2 ca f9 34
       1.9718916e-06 1.4696012e-07 5.668665e-07 4.652748e-07
000230 43 36 ad 33 46 d4 28 33 b8 18 0c 34 9c ff dc 32
       8.0658104e-08 3.930861e-08 1.3047509e-07 2.5727608e-08
000240 4b 08 7b 34 14 d1 e2 33 d9 c7 33 33 d5 16 8e 34
       2.3379214e-07 1.0561976e-07 4.1858446e-08 2.6466174e-07
000250 02 a1 17 35 32 92 8a 33 b9 ab 37 34 f0 e9 ce 34
       5.648618e-07 6.4527185e-08 1.7105675e-07 3.8540702e-07
000260 df 93 57 33 8f 1b d0 34 a6 e7 55 34 60 1d ca 33
       5.0193076e-08 3.876307e-07 1.9921444e-07 9.411701e-08
000270 76 90 19 35 a8 43 ad 35 16 a9 bf 33 35 48 76 31
       5.720716e-07 1.2909195e-06 8.924887e-08 3.5838756e-09
000280 e3 a0 c5 31 81 fc 3b 31 9f 15 0b 34 76 c6 d0 34
       5.7517453e-09 2.7355613e-09 1.295325e-07 3.8887418e-07
000290 c5 e0 01 33 55 89 65 34 72 ba 1e 35 8a 9b a4 33
       3.023958e-08 2.1377248e-07 5.91309e-07 7.6651375e-08
0002a0 c1 aa 67 34 f6 a9 1a 35 e8 4c 23 33 e3 d3 08 35
       2.1575671e-07 5.7616796e-07 3.802134e-08 5.0972284e-07
0002b0 dd cc 68 35 1c f6 99 33 f0 54 59 35 1e b9 15 35
       8.672485e-07 7.169385e-08 8.09624e-07 5.5776206e-07
0002c0 7f 4e e5 33 9c d1 09 34 08 de dd 33 97 a2 fd 32
       1.0677922e-07 1.2835375e-07 1.0331502e-07 2.9527014e-08
0002d0 a6 88 d9 34 c0 d6 28 35 bb 49 7b 33 08 7f 1c 34
       4.0518825e-07 6.289738e-07 5.850755e-08 1.4574846e-07
0002e0 1d 0e af 34 51 27 ba 32 0c 2e b7 33 33 76 fc 33
       3.260656e-07 2.1671129e-08 8.5299774e-08 1.1756165e-07
0002f0 d6 cf db 32 c7 ea 62 34 44 8a 2e 35 2f 45 c7 33
       2.5589468e-08 2.1133302e-07 6.5021254e-07 9.279244e-08
