experiments/ppo_cartpole_homework_20250831_005013/checkpoints/final.pt (torch, 70600 bytes, 22 tensors)

layers.0.weight f4 [64, 4]
0.1419557 -0.12991756 -0.090055294 -0.06544058 0.026384281 0.063131005 0.24700685 -0.20450784
0.03171143 0.027435264 -0.29658398 -0.002821716 -0.2847257 0.052146934 -0.25911722 0.03187931
-0.10454999 0.0227568 0.19358727 -0.23007812 -0.24039339 0.12050225 -0.20793529 0.06886611
0.21357061 -0.075684495 -0.026713103 -0.06279135 0.008072553 -0.17225106 -0.0055350056 0.03624736
0.010661233 -0.26326472 0.07935037 -0.2886127 -0.16984215 -0.09161679 -0.0748724 0.19179238
-0.0237473 0.20825735 0.033683717 -0.2712741 -0.29548866 0.11981327 -0.12342683 0.1332329
0.059251294 0.0004393373 0.012749457 -0.045262046 -0.02355899 0.033318955 -0.2177671 0.28144082
0.02807552 -0.17964575 0.16734828 -0.2938485 0.18508317 0.24022302 -0.18482134 0.105553664
-0.26331198 -0.11551575 0.1723789 0.16814324 0.26967767 -0.16547106 -0.20095904 0.27251333
-0.20688912 0.09219476 -0.23572555 -0.21474741 -0.12740198 0.0046436894 0.007387113 0.18229541
0.07617341 -0.12655637 -0.17204635 0.0800682 -0.048813004 -0.1603725 0.2818919 0.20531878
0.25552973 -0.29148912 -0.1484475 -0.23142955 0.17448716 -0.29516605 -0.10042566 -0.18050057
0.20847353 0.24293232 -0.0340687 0.2102345 -0.2656632 -0.08078686 -0.19820766 -0.005319816
0.059587974 -0.20644002 -0.032936487 -0.12486616 -0.26407 -0.056050226 -0.269704 -0.26504853
0.16616726 0.19538459 -0.09523998 0.2897077 0.25668508 0.099509135 0.029087443 -0.15810551
-0.28731236 -0.08185863 0.10864053 0.273847 -0.1776969 -0.19449554 0.13436465 0.2451484
0.07517611 -0.24099997 0.089237526 0.18277034 -0.29457748 -0.08117566 0.14579487 0.1590865
0.1011502 -0.17688166 0.007427658 -0.0790014 0.02683934 0.26847708 0.04096184 -0.29421014
0.04868149 0.1806843 -0.20258845 0.21490654 0.1774366 -0.12806995 0.24498753 -0.009215602
-0.2628841 0.02929155 0.067294315 -0.12915029 -0.2097824 -0.2927482 -0.29295695 -0.15298003
0.22550836 0.25251636 -0.10392999 -0.25431237 -0.25878504 -0.21093962 -0.24815868 0.22340657
0.04028971 -0.045522347 0.17200917 0.16518523 0.0010466262 0.016171735 0.21031679 -0.1679686
0.10905059 -0.17353955 -0.07497006 -0.011819579 -0.12734705 -0.22668293 -0.25561485 0.061816037
-0.06752951 0.18082535 -0.056839205 0.10041412 -0.16301492 -0.17213786 0.130384 -0.117666155
-0.17277205 -0.010010212 0.104407355 0.0062580868 -0.25538453 0.019052621 -0.05037432 0.04726617
-0.08141175 -0.21193548 -0.20304008 0.20981765 -0.11202273 -0.037686158 0.1536886 0.20892431
-0.023679208 -0.005502534 0.023117421 -0.018926205 0.17058982 -0.28878954 0.26699582 -0.19195187
-0.22888106 -0.15562792 -0.04807218 -0.14243339 -0.015886432 -0.18232664 0.18531443 -0.05276449
-0.043763157 -0.110074475 0.23847166 0.032953873 0.11025178 -0.0021512902 -0.1624872 0.2613465
0.20223907 -0.23468423 0.0358479 -0.2644442 -0.20767273 -0.27162054 -0.1994421 -0.2339507
-0.23264714 -0.07889917 0.011172524 0.2095488 0.28701258 -0.14994195 -0.12734036 0.12701246
-0.24374133 -0.28707275 0.28845254 -0.08086926 -0.23864846 -0.04600485 -0.17251632 -0.020749524
00000000: d65c 113e 1c09 05be e96e b8bd b605 86bd
00000010: d923 d83c d44a 813d 5def 7c3e 816a 51be
00000020: d8e3 013d ebbf e03c dbd9 97be 8aec 38bb
00000030: 91c7 91be 0698 553d 03ab 84be e193 023d
00000040: 4e1e d6bd 786c ba3c be3b 463e 9999 6bbe
00000050: af29 76be e2c9 f63d fdec 54be ad09 8d3d
00000060: 41b2 5a3e 7900 9bbd 70d5 dabc c098 80bd
00000070: be42 043c 9562 30be fe5e b5bb 1d78 143d
00000080: 74ac 2e3c a2ca 86be 7282 a23d 0bc5 93be
00000090: 1aeb 2dbe 95a1 bbbd b356 99bd 3965 443e
000000a0: b389 c2bc 6a41 553e f0f7 093d 70e4 8abe
000000b0: 4a4a 97be a960 f53d 35c7 fcbd 356e 083e
000000c0: 7cb1 723d db56 e639 19e3 503c b264 39bd
000000d0: c8fe c0bc 7579 083d 57fe 5ebe 0319 903e
000000e0: a2fe e53c 0ef5 37be 595d 2b3e 5073 96be
000000f0: 7186 3d3e 06fd 753e ce41 3dbe 852c d83d
00000100: d4d0 86be 8693 ecbd 1884 303e be2d 2c3e
00000110: 3113 8a3e 3f71 29be 35c8 4dbe de86 8b3e
00000120: beda 53be 9bd0 bc3d 0a62 71be bfe6 5bbe
00000130: aa75 02be 172a 983b 980f f23b a6ab 3a3e
00000140: ce00 9c3d fe97 01be eb2c 30be ccfa a33d
00000150: 25f0 47bd b038 24be 2354 903e 163f 523e
00000160: cbd4 823e 103e 95be 9f02 18be defb 6cbe
00000170: c3ac 323e 0120 97be f8ab cdbd 24d5 38be
00000180: 167a 553e 40c3 783e 9f8b 0bbd b647 573e
00000190: 0205 88be 9573 a5bd f3f6 4abe da51 aebb
000001a0: 8512 743d 0365 53be 69e8 06bd d4b9 ffbd
000001b0: 2f34 87be ec94 65bd a516 8abe 71b4 87be
000001c0: c027 2a3e e612 483e 2e0d c3bd 9154 943e
000001d0: 3a6c 833e 72cb cb3d ca48 ee3c 69e6 21be
000001e0: 9b1a 93be 7fa5 a7bd ed7e de3d ad35 8c3e
000001f0: 2df6 35be d729 47be e396 093e 2f08 7b3e
00000200: eff5 993d b2c8 76be 2ac2 b63d 2628 3b3e
00000210: dcd2 96be 6d3f a6bd 404b 153e 92e7 223e
00000220: d627 cf3d 7720 35be b663 f33b 7ccb a1bd
00000230: 2dde db3c d475 893e 9ac7 273d b6a2 96be
00000240: 3e66 473d 4e05 393e 5973 4fbe 7610 5c3e
00000250: f1b1 353e c524 03be 03de 7a3e 09fd 16bc
00000260: bf98 86be d5f4 ef3c 9ad1 893d f93f 04be
00000270: 33d1 56be 18e3 95be 74fe 95be cca6 1cbe
00000280: aaeb 663e d349 813e 3fd9 d4bd 3b35 82be
00000290: 797f 84be 8e00 58be 4f1d 7ebe b1c4 643e
000002a0: d306 253d a475 3abd 2c23 303e 5126 293e
000002b0: f32e 893a 967a 843c 495d 573e f6ff 2bbe
000002c0: ea55 df3d 5ab4 31be e789 99bd e8a6 41bc
000002d0: 4467 02be 921f 68be f3df 82be d032 7d3d
000002e0: e94c 8abd 482a 393e 3ad0 68bd eba5 cd3d
000002f0: 62ed 26be e844 30be 6283 053e f4fa f0bd
00000300: 28eb 30be df01 24bc 86d3 d53d a310 cd3b
00000310: c3c1 82be 3e14 9c3c 4e55 4ebd 2c9a 413d
00000320: 34bb a6bd 9d05 59be bde9 4fbe 70da 563e
00000330: 2c6c e5bd cd5c 1abd 8b60 1d3e 41f0 553e
00000340: e6fa c1bc 9a4e b4bb bf60 bd3c 210b 9bbc
00000350: 19af 2e3e 39dc 93be adb3 883e 088f 44be
00000360: cc5f 6abe ed5c 1fbe 56e7 44bd 0fda 11be
00000370: 4324 82bc d6b3 3abe 11c3 3d3e 941f 58bd
00000380: ff40 33bd ba6e e1bd ea31 743e a4fa 063d
00000390: afcb e13d a9fc 0cbb 0b63 26be 35cf 853e
000003a0: c217 4f3e 1051 70be 3fd5 123d 3b65 87be
000003b0: 29a8 54be d911 8bbe 8d3a 4cbe c690 6fbe
000003c0: 0d3b 6ebe e395 a1bd f60c 373c f693 563e
000003d0: 50f3 923e 628a 19be 8365 02be 8e0f 023e
000003e0: 5497 79be 33fb 92be 0db0 933e c89e a5bd
000003f0: 4360 74be 956f 3cbd 1ea8 30be e8fa a9bc

layers.0.bias f4 [64]
0.0 0.0 0.0 0.0 0.0 0.0 0.0 0.0
0.0 0.0 0.0 0.0 0.0 0.0 0.0 0.0
0.0 0.0 0.0 0.0 0.0 0.0 0.0 0.0
0.0 0.0 0.0 0.0 0.0 0.0 0.0 0.0
0.0 0.0 0.0 0.0 0.0 0.0 0.0 0.0
0.0 0.0 0.0 0.0 0.0 0.0 0.0 0.0
0.0 0.0 0.0 0.0 0.0 0.0 0.0 0.0
0.0 0.0 0.0 0.0 0.0 0.0 0.0 0.0
00000000: 0000 0000 0000 0000 0000 0000 0000 0000
00000010: 0000 0000 0000 0000 0000 0000 0000 0000
00000020: 0000 0000 0000 0000 0000 0000 0000 0000
00000030: 0000 0000 0000 0000 0000 0000 0000 0000
00000040: 0000 0000 0000 0000 0000 0000 0000 0000
00000050: 0000 0000 0000 0000 0000 0000 0000 0000
00000060: 0000 0000 0000 0000 0000 0000 0000 0000
00000070: 0000 0000 0000 0000 0000 0000 0000 0000
00000080: 0000 0000 0000 0000 0000 0000 0000 0000
00000090: 0000 0000 0000 0000 0000 0000 0000 0000
000000a0: 0000 0000 0000 0000 0000 0000 0000 0000
000000b0: 0000 0000 0000 0000 0000 0000 0000 0000
000000c0: 0000 0000 0000 0000 0000 0000 0000 0000
000000d0: 0000 0000 0000 0000 0000 0000 0000 0000
000000e0: 0000 0000 0000 0000 0000 0000 0000 0000
000000f0: 0000 0000 0000 0000 0000 0000 0000 0000

layers.2.weight f4 [64, 64]
0.14942664 0.06490231 -0.2007446 -0.18030354 -0.20082445 -0.059056446 -0.1494504 -0.15741947
-0.000507158 0.10955527 -0.07819339 -0.039841067 0.15976958 -0.08482482 -0.17262596 0.20721589
-0.087162085 -0.17024043 0.05241461 0.18338238 -0.08872111 -0.13612866 0.19168273 -0.11236433
0.15783304 0.09811708 0.16447389 -0.16090433 -0.014625482 0.1014011 -0.018865168 0.18813363
-0.0358801 0.18619618 0.09787228 -0.14580898 -0.09781093 0.1923647 -0.17051755 0.0877636
-0.024663907 0.21266602 -0.15993668 -0.032369636 0.14290327 -0.06343344 0.1182567 0.12206408
0.20059797 0.04963048 -0.06156947 -0.016727595 -0.04199343 0.027172623 0.112545125 -0.18927579
-0.068227254 -0.15731247 -0.124932945 0.21121784 -0.15433115 0.18398103 -0.12209221 -0.067894004
-0.073579 0.00082585454 0.14818586 -0.16126363 -0.045419756 -0.08843504 0.030233277 0.14008056
0.21330155 -0.13884647 -0.06219063 -0.013443997 0.14465865 -0.013988038 -0.05317416 -0.1252464
-0.033448786 0.14087822 -0.02934269 -0.07052552 0.108371 -0.15106097 0.16947411 0.015459595
0.19497886 0.10432096 -0.02418963 -0.19572087 -0.018282568 0.11354042 0.07946675 -0.039564595
-0.07030268 -0.06147976 0.13324668 0.0876512 0.11669747 0.13689913 0.16480276 -0.21137589
0.17938238 0.0656607 -0.13594565 0.1903729 -0.21570434 0.08200871 0.18712687 0.12266049
-0.06300353 0.12009182 -0.17342386 -0.016060675 -0.1482533 0.09691217 0.0026998874 -0.061811697
0.04292216 0.10823237 -0.03133555 -0.13496478 0.15344864 0.056237034 -0.009378062 0.20065367
-0.046237506 -0.21365367 -0.029841306 0.082282215 0.15691361 0.17281155 0.029422779 0.21592402
-0.041081037 -0.09203147 -0.2098398 0.058838304 0.14945851 -0.18839791 -0.01879001 0.058406226
0.08367898 -0.035877597 0.0843618 -0.17564425 0.16887785 0.045138326 0.09842623 0.10930703
-0.09653868 -0.11476828 -0.07139048 -0.09035948 0.11089551 -0.17125201 0.16914272 -0.16533957
-0.063019454 -0.003562727 0.12789777 0.166946 -0.016213158 -0.11326059 -0.16824386 -0.20654655
0.07002907 -0.12155842 0.11328312 -0.08975249 -0.02856319 -0.13235712 -0.2036428 0.10283458
-0.17751883 0.20558688 -0.14142425 0.1424722 0.16599602 -0.029940672 0.14720711 0.109288886
-0.12497543 -0.004156347 0.16150253 0.029894732 0.16466117 0.18152581 0.113100134 -0.21624604
-0.15374042 -0.009243155 -0.08620401 -0.1298578 -0.032423012 -0.0858938 0.12829487 -0.048618928
-0.10792774 0.14036925 -0.14317718 -0.08199075 0.112640955 -0.059333798 -0.11226101 0.13935724
-0.021731062 -0.15405527 0.20688964 0.05836808 0.082526095 0.07815274 0.066339806 0.16255258
0.14462654 -0.05416125 -0.18986285 -0.19064036 -0.18427815 -0.040694512 -0.20669506 0.10253019
-0.110619344 -0.18663833 -0.09358743 -0.04172847 0.07504581 -0.04657383 0.022952475 0.1883569
0.04951029 0.18384822 -0.08631922 -0.032620195 0.04120002 0.07124814 0.1117888 0.09168883
0.17324461 -0.13482511 0.18129964 0.061453693 -0.18810341 0.15192902 0.19433281 -0.1625035
-0.15828773 0.16167098 0.115561 0.11401733 -0.066162385 -0.018898513 0.09967815 0.13236474
00000000: 4c03 193e 81eb 843d fe8f 4dbe 7ea1 38be
00000010: eda4 4dbe 2ce5 71bd 8709 19be 9232 21be
00000020: ccf2 04ba 835e e03d db23 a0bd 6330 23bd
00000030: a39a 233e a3b8 adbd dcc4 30be 6730 543e
00000040: 0982 b2bd 8253 2ebe b4b0 563d 97c8 3b3e
00000050: 6ab3 b5bd 5065 0bbe 7a48 443e 451f e6bd
00000060: fc9e 213e 9cf1 c83d d86b 283e 1bc4 24be
00000070: b89f 6fbc 61ab cf3d 208b 9abc 1aa6 403e
00000080: 03f7 12bd 36aa 3e3e 4371 c83d f34e 15be
00000090: 1951 c8bd 40fb 443e 279c 2ebe 67bd b33d
000000a0: f60b cabc 1fc5 593e 71c6 23be 0696 04bd
000000b0: 3c55 123e 64e9 81bd 9230 f23d bbfc f93d
000000c0: 8e69 4d3e 5549 4b3d 4530 7cbd 4f08 89bc
000000d0: 4e01 2cbd 1f99 de3c 0f7e e63d 83d1 41be
000000e0: bbba 8bbd 8516 21be d8dc ffbd 7d49 583e
000000f0: fc08 1ebe 8665 3c3e 7b0b fabd 030c 8bbd
00000100: 96b0 96bd 297e 583a 09be 173e 4b22 25be
00000110: 110a 3abd 6e1d b5bd c7ab f73c 4771 0f3e
00000120: b96b 5a3e c52d 0ebe 9abb 7ebd 3644 5cbc
00000130: 6621 143e 152e 65bc 26cd 59bd 9840 00be
00000140: 9801 09bd 6142 103e 1560 f0bc af6f 90bd
00000150: 9df1 dd3d baaf 1abe 9f8a 2d3e 3e4a 7d3c
00000160: 8aa8 473e 3aa6 d53d 5529 c6bc 0d6b 48be
00000170: 53c5 95bc e187 e83d 77bf a23d 7c0e 22bd
00000180: dafa 8fbd 33d2 7bbd d171 083e 7982 b33d
00000190: 15ff ee3d 492f 0c3e 0ec2 283e ec72 58be
000001a0: 04b0 373e 1e79 863d 5635 0bbe 1df1 423e
000001b0: 99e1 5cbe 2ff4 a73d 309e 3f3e 6c35 fb3d
000001c0: ff07 81bd b3f2 f53d 0696 31be ad91 83bc
000001d0: b7cf 17be e379 c63d 98f0 303b 432e 7dbd
000001e0: 26cf 2f3d efa8 dd3d b559 00bd 3534 0abe
000001f0: a421 1d3e ce58 663d 71a6 19bc 2878 4d3e
00000200: 8a63 3dbd 07c8 5abe c175 f4bc 9483 a83d
00000210: f6ad 203e 83f5 303e 0a08 f13c 301b 5d3e
00000220: 9744 28bd ff7a bcbd 3fe0 56be 6f00 713d
00000230: a70b 193e 62eb 40be 82ed 99bc 5e3b 6f3d
00000240: e35f ab3d 63f4 12bd e1c5 ac3d 16dc 33be
00000250: 51ee 2c3e f7e2 383d b193 c93d 5ddc df3d
00000260: 12b6 c5bd a20b ebbd 2c35 92bd 640e b9bd
00000270: 2f1d e33d b05c 2fbe c033 2d3e c74e 29be
00000280: 5810 81bd a47c 69bb a2f7 023e e4f3 2a3e
00000290: 75d1 84bc 2bf5 e7bd 1e48 2cbe f080 53be
000002a0: 676b 8f3d 9ff3 f8bd fb00 e83d 27d0 b7bd
000002b0: 5afd e9bc a088 07be bd87 50be f09a d23d
000002c0: 7fc7 35be 5e85 523e 85d1 10be 3be4 113e
000002d0: dcfa 293e 2446 f5bc 76bd 163e dad2 df3d
000002e0: 1ef3 ffbd f731 88bb eb60 253e cce5 f43c
000002f0: f09c 283e e7e1 393e 0ba1 e73d 9a6f 5dbe
00000300: 216e 1dbe 9a70 17bc ba8b b0bd 71f9 04be
00000310: fecd 04bd 17e9 afbd bb5f 033e a424 47bd
00000320: 3809 ddbd f5bc 0f3e 0a9d 12be c4ea a7bd
00000330: 4db0 e63d ff07 73bd 1ae9 e5bd aab3 0e3e
00000340: 5705 b2bc aac0 1dbe e1da 533e 5e13 6f3d
00000350: 7103 a93d 8b0e a03d 2add 873d 2f74 263e
00000360: fb18 143e 30d8 5dbd 686b 42be 3a37 43be
00000370: 69b3 3cbe 4aaf 26bd dfa7 53be 59fb d13d
00000380: 658c e2bd 1e1e 3fbe c4aa bfbd 79eb 2abd
00000390: 9eb1 993d 33c4 3ebd d406 bc3c a2e0 403e
000003a0: 4dcb 4a3d b542 3c3e 22c8 b0bd c19c 05bd
000003b0: 5ac1 283d 8bea 913d 87f1 e43d 5ac7 bb3d
000003c0: 0967 313e 980f 0abe 9da6 393e deb6 7b3d
000003d0: 2e9e 40be 4893 1b3e 2eff 463e 5167 26be
000003e0: 2e16 22be 148d 253e 3fab ec3d eb81 e93d
000003f0: 2580 87bd 0ed1 9abc 0f24 cc3d 9f8a 073e

layers.2.bias f4 [64]
0.0 0.0 0.0 0.0 0.0 0.0 0.0 0.0
0.0 0.0 0.0 0.0 0.0 0.0 0.0 0.0
0.0 0.0 0.0 0.0 0.0 0.0 0.0 0.0
0.0 0.0 0.0 0.0 0.0 0.0 0.0 0.0
0.0 0.0 0.0 0.0 0.0 0.0 0.0 0.0
0.0 0.0 0.0 0.0 0.0 0.0 0.0 0.0
0.0 0.0 0.0 0.0 0.0 0.0 0.0 0.0
0.0 0.0 0.0 0.0 0.0 0.0 0.0 0.0
00000000: 0000 0000 0000 0000 0000 0000 0000 0000
00000010: 0000 0000 0000 0000 0000 0000 0000 0000
00000020: 0000 0000 0000 0000 0000 0000 0000 0000
00000030: 0000 0000 0000 0000 0000 0000 0000 0000
00000040: 0000 0000 0000 0000 0000 0000 0000 0000
00000050: 0000 0000 0000 0000 0000 0000 0000 0000
00000060: 0000 0000 0000 0000 0000 0000 0000 0000
00000070: 0000 0000 0000 0000 0000 0000 0000 0000
00000080: 0000 0000 0000 0000 0000 0000 0000 0000
00000090: 0000 0000 0000 0000 0000 0000 0000 0000
000000a0: 0000 0000 0000 0000 0000 0000 0000 0000
000000b0: 0000 0000 0000 0000 0000 0000 0000 0000
000000c0: 0000 0000 0000 0000 0000 0000 0000 0000
000000d0: 0000 0000 0000 0000 0000 0000 0000 0000
000000e0: 0000 0000 0000 0000 0000 0000 0000 0000
000000f0: 0000 0000 0000 0000 0000 0000 0000 0000

output_layer.weight f4 [2, 64]
0.24437639 -0.27069864 -0.24289112 -0.11784756 0.25070658 -0.29244658 0.037035618 0.1037208
-0.25161695 0.030812671 0.16909958 -0.20200051 -0.22713606 -0.29236415 0.18275654 0.29456702
-0.086943634 -0.0981822 -0.1667781 0.20343518 -0.22204453 -0.19602615 -0.012264167 -0.139715
0.18393001 -0.07502693 -0.29449233 0.031764586 -0.05426103 0.083732024 -0.28091213 -0.18037611
-0.23989391 0.29634318 0.04761852 0.21272029 0.13241225 -0.24923469 -0.16357782 -0.19487986
0.280523 0.03692175 -0.20777942 -0.26559448 0.2377034 -0.09589418 -0.18257806 -0.13442335
-0.18547955 -0.29779074 0.16390699 -0.27674615 -0.25818908 -0.023290746 -0.03220086 -0.29726642
-0.11425295 -0.17843872 -0.12225007 0.11950845 0.048529852 -0.16086912 -0.07791584 0.106868066
-0.25441417 -0.07560758 0.1459629 0.27385485 0.11210158 0.004259204 0.16371627 -0.15993209
-0.07243443 -0.02041168 -0.29528624 -0.15599705 -0.24133803 0.12077278 0.2961431 -0.26972178
-0.22745585 0.20640543 -0.20924981 -0.10996517 0.016933912 0.042581905 -0.088029794 -0.07628931
-0.14603536 0.24571128 0.08817946 0.107824475 0.0426195 -0.26655823 -0.2516784 -0.1418902
-0.17234172 -0.2777148 0.16321717 -0.13997746 0.15383491 -0.13916518 0.16141729 0.25159425
0.17721178 -0.18817167 0.10987261 0.019265495 -0.17791553 0.1961089 -0.2069114 0.22107568
-0.004468392 0.041703206 0.015595971 0.29129818 -0.17463994 0.09436104 -0.112967804 0.25136313
0.1762503 0.03852736 0.121083185 0.029615628 -0.03855083 0.20909177 0.028895548 -0.050108682
00000000: ce3d 7a3e 0399 8abe 73b8 78be 105a f1bd
00000010: 9d5c 803e 8fbb 95be a9b2 173d 926b d43d
00000020: f0d3 80be db6a fc3c 7128 2d3e 39d9 4ebe
00000030: 5b96 68be c1b0 95be 8824 3b3e 7dd1 963e
00000040: 810f b2bd c013 c9bd e1c7 2abe 5051 503e
00000050: a45f 63be 14bb 48be a5ef 48bc 7311 0fbe
00000060: 2658 3c3e b8a7 99bd b3c7 96be 951b 023d
00000070: d040 5ebd b27b ab3d b7d3 8fbe 84b4 38be
00000080: c0a6 75be 4bba 973e a30b 433d 59d3 593e
00000090: 1497 073e 6137 7fbe f280 27be 968e 47be
000000a0: b6a0 8f3e 433b 173d 21c4 54be 00fc 87be
000000b0: 8568 733e 2b64 c4bd bef5 3abe 46a6 09be
000000c0: 5aee 3dbe 0778 98be 3cd7 273e acb1 8dbe
000000d0: 5c31 84be 3ccc bebc 0de5 03bd 4e33 98be
000000e0: 73fd e9bd a4b8 36be 3f5e fabd d9c0 f43d
000000f0: 3dc7 463d e0ba 24be 5792 9fbd a5dd da3d
00000100: 9342 82be 26d8 9abd 4c77 153e b436 8c3e
00000110: 8395 e53d cb90 8b3b 3da5 273e 3dc5 23be
00000120: 8158 94bd 6536 a7bc c22f 97be b1bd 1fbe
00000130: 5121 77be b857 f73d 12a0 973e f918 8abe
00000140: 30ea 68be f25b 533e 9545 56be 6b35 e1bd
00000150: fdb8 8a3c 5d6a 2e3d f748 b4bd 923d 9cbd
00000160: 4b8a 15be bd9b 7b3e 6f97 b43d 14d3 dc3d
00000170: c991 2e3d 527a 88be fedb 80be aa4b 11be
00000180: 597a 30be a230 8ebe 6722 273e 4056 0fbe
00000190: e686 1d3e 5181 0ebe 934a 253e f6d0 803e
000001a0: 0177 353e 13b0 40be e404 e13d acd2 9d3c
000001b0: 7d2f 36be c5d0 483e 95e0 53be aa61 623e
000001c0: 976b 92bb fbd0 2a3d 3e86 7f3c 0925 953e
000001d0: d0d4 32be 5c40 c13d aa5b e7bd abb2 803e
000001e0: f57a 343e ddce 1d3d 76fa f73d 799c f23c
000001f0: 7ae7 1dbd 271c 563e 5bb6 ec3c c33e 4dbd

output_layer.bias f4 [2]
0.0 0.0
00000000: 0000 0000 0000 0000

layers.0.weight f4 [64, 4]
0.02812913 -0.11442104 -0.20350495 0.04597624 -0.29035914 0.15180461 0.27179956 -0.0195546
-0.24810705 -0.119801015 0.29228345 0.16093683 -0.26158383 -0.05950986 -0.04843723 -0.15475573
-0.21547548 0.26938027 -0.15815729 0.26900658 0.021568215 -0.11836523 -0.087633505 0.013571121
-0.22279157 -0.28380424 -0.113151394 -0.22173877 -0.036562234 0.18297468 -0.25880232 -0.2146824
-0.27689323 -0.1983886 -0.23498571 0.027924813 -0.20789096 -0.19563806 0.124200195 0.22793199
0.06505981 0.0696701 -0.032911487 0.27431172 -0.22445253 0.0032559542 0.0070913294 -0.0411089
-0.25051668 0.2803822 -0.22845706 -0.18210189 0.27702558 -0.12327503 -0.061859306 -0.12403434
0.08139078 0.11101243 0.011275391 -0.10786242 -0.2687068 -0.09512423 0.22226045 -0.17651643
0.26194823 -0.14243214 -0.26443887 0.031549886 -0.10173018 0.27441213 0.21278074 -0.02696965
-0.062027365 -0.18868865 0.18590993 -0.048335318 -0.12879686 0.17111385 0.03996652 -0.19080001
-0.080572344 0.12782152 0.17241515 0.052297145 0.040918 0.2713765 0.07391982 0.2091653
-0.089397505 0.16567601 0.17829275 0.2356508 0.22412193 0.23564634 0.002757765 0.26677752
0.22424565 -0.15818086 -0.16794504 0.024567725 0.03455864 -0.22375678 -0.27608848 0.2953702
0.058079492 0.023645425 -0.10920671 0.28404763 -0.0015474361 -0.2488842 0.09742165 -0.19391392
0.2600276 -0.24029253 -0.10669097 0.2934584 -0.27713 0.10951541 -0.22689769 -0.16068435
0.14154916 -0.08173476 -0.10979856 0.007557862 0.02186205 -0.17752552 -0.048789598 0.28794232
0.03661411 -0.006790943 -0.055405542 0.25827515 -0.29270196 0.21029045 -0.02176159 -0.22553144
-0.07732673 -0.09361103 0.1599249 -0.07803869 0.2707118 0.0031767765 0.1959047 -0.04069619
0.22373873 0.034162253 0.27481407 0.2540827 0.053903572 -0.29159018 0.15935288 -0.29158247
0.056743808 -0.020470243 -0.2402277 -0.16304278 0.09559154 -0.07141364 0.2878478 0.23644452
0.012975163 0.08417815 -0.13807234 -0.018826313 0.0972201 0.27629423 -0.25810066 -0.15725489
-0.036413934 -0.07726621 0.1259767 0.042020112 0.114507936 -0.017832555 0.16266641 -0.018263288
0.071532555 -0.23391522 -0.1664101 0.23906833 0.12831534 -0.01738911 0.0904952 0.14583887
0.2530073 -0.22796291 -0.17163081 -0.08891136 -0.045416296 0.28486884 -0.04186006 0.119835824
-0.09169055 -0.07836532 -0.1061435 0.27013898 0.28481713 -0.018049832 -0.14267081 0.25208634
0.26310444 0.025520232 -0.25960866 0.23042454 -0.28496754 0.018599652 0.07324543 -0.2496411
0.07968538 -0.018002171 -0.05357468 -0.21588954 0.18809451 -0.24953593 -0.23040059 -0.06524083
-0.10049475 0.14141095 -0.21275805 0.24731378 -0.14826064 -0.21152046 -0.2762681 -0.2269309
0.059752528 -0.23021936 -0.17715643 -0.20426752 0.21223094 0.27770114 -0.0784366 0.27053115
-0.04482487 0.06804137 0.025325792 -0.093558095 -0.25619546 0.18263716 0.22634724 0.0024234904
-0.1198876 0.104114264 0.09578311 0.009748104 0.067473315 0.14344166 0.23319352 -0.010808788
0.16747965 -0.22524105 0.01826088 -0.21242619 -0.23136407 -0.053142957 -0.031220887 -0.15926708
00000000: 106f e63c 9455 eabd 9a63 50be 9551 3c3d
00000010: f4a9 94be ab72 1b3e 5029 8b3e f830 a0bc
00000020: c60f 7ebe 3c5a f5bd 2da6 953e a0cc 243e
00000030: 51ee 85be 9cc0 73bd 1e66 46bd 4978 1ebe
00000040: 9ba5 5cbe 36ec 893e fcf3 21be 3bbb 893e
00000050: d3af b03c 7869 f2bd 3279 b3bd 6859 5e3c
00000060: 7923 64be ca4e 91be ebbb e7bd 7d0f 63be
00000070: 48c2 15bd b75d 3b3e bd81 84be b4d5 5bbe
00000080: f3c4 8dbe 6226 4bbe 18a0 70be 94c2 e43c
00000090: 5ee1 54be 5855 48be ac5c fe3d 0167 693e
000000a0: 143e 853d 33af 8e3d 32ce 06bd 9672 8c3e
000000b0: e2d6 65be d961 553b 625e e83b ce61 28bd
000000c0: b943 80be 418e 8f3e a6f0 69be eb78 3abe
000000d0: 4cd6 8d3e 9e77 fcbd 2f60 7dbd b705 febd
000000e0: 36b0 a63d 7c5a e33d 6bbc 383c f9e6 dcbd
000000f0: f093 89be 7ed0 c2bd 3e98 633e b9c0 34be
00000100: 141e 863e bbd9 11be 8864 87be 743a 013d
00000110: ea57 d0bd bf7f 8c3e 32e3 593e 75ef dcbc
00000120: 6810 7ebd 9937 41be 2c5f 3e3e 41fb 45bd
00000130: 53e3 03be 7838 2f3e efb3 233d 1461 43be
00000140: 1d03 a5bd a5e3 023e 998d 303e 8835 563d
00000150: a299 273d dcf1 8a3e 4663 973d 6e2f 563e
00000160: 0a16 b7bd f9a6 293e 6092 363e 714e 713e
00000170: 3880 653e 464d 713e 9ebb 343b 1097 883e
00000180: a7a0 653e 2afa 21be c9f9 2bbe 4142 c93c
00000190: 5c8d 0d3d 7f20 65be 785b 8dbe c33a 973e
000001a0: c3e4 6d3d 0db4 c13c c4a7 dfbd b16e 913e
000001b0: 57d3 caba 80db 7ebe 0185 c73d 5f91 46be
000001c0: 5622 853e 3f0f 76be cc80 dabd 2e40 963e
000001d0: fce3 8dbe 9e49 e03d de57 68be 708a 24be
000001e0: 43f2 103e 8e64 a7bd 11de e0bd f1a7 f73b
000001f0: 0b18 b33c 40c9 35be 9ad7 47bd 2d6d 933e
00000200: adf8 153d 8f86 debb ecf0 62bd a43c 843e
00000210: 08dd 95be 6156 573e 5d45 b2bc b7f1 66be
00000220: 7a5d 9ebd 24b7 bfbd 5ac3 233e c0d2 9fbd
00000230: bd9a 8a3e 7731 503b 3e9b 483e 0cb1 26bd
00000240: c41b 653e b8ed 0b3d 6eb4 8c3e 2117 823e
00000250: fec9 5c3d 4f4b 95be 672d 233e 4c4a 95be
00000260: 326c 683d 36b1 a7bc 40fe 75be b0f4 26be
00000270: 7fc5 c33d 5141 92bd c960 933e 831e 723e
00000280: c795 543c 9865 ac3d d662 0dbe a439 9abc
00000290: 551b c73d 7076 8d3e c525 84be 6d07 21be
000002a0: c726 15bd bf3d 9ebd 0900 013e 481d 2c3d
000002b0: 2383 ea3d 9415 92bc 0692 263e e49c 95bc
000002c0: a97f 923d 7987 6fbe 6967 2abe 54ce 743e
000002d0: 1965 033e 9b73 8ebc 8c55 b93d c956 153e
000002e0: 2c8a 813e 1c6f 69be fdbf 2fbe 2917 b6bd
000002f0: 7006 3abd 54da 913e 7475 2bbd 7c6c f53d
00000300: 41c8 bbbd ff7d a0bd c361 d9bd a84f 8a3e
00000310: 8dd3 913e 3edd 93bc 4c18 12be 7611 813e
00000320: a0b5 863e ce0f d13c 6deb 84be 69f4 6b3e
00000330: 44e7 91be 4c5e 983c b301 963d eba1 7fbe
00000340: 1732 a33d 4a79 93bc 2071 5bbd 2612 5dbe
00000350: d99b 403e 5986 7fbe 22ee 6bbe fc9c 85bd
00000360: 31d0 cdbd 08ce 103e 3fdd 59be d33f 7d3e
00000370: a3d1 17be d298 58be 0373 8dbe 9360 68be
00000380: 11bf 743d a0be 6bbe 7f68 35be 812b 51be
00000390: 1153 593e d82e 8e3e 5ea3 a0bd 0f83 8a3e
000003a0: 489a 37bd 4659 8b3d 0978 cf3c 639b bfbd
000003b0: 0d2c 83be 3c05 3b3e 92c7 673e 6cd3 1e3b
000003c0: a187 f5bd dc39 d53d ef29 c43d 83b6 1f3c
000003d0: 732f 8a3d 5fe2 123e 48ca 6e3e 5817 31bc
000003e0: c97f 2b3e 97a5 66be d797 953c 4086 59be
000003f0: b4ea 6cbe 6eac 59bd f2c2 ffbc e916 23be

layers.0.bias f4 [64]
0.0 0.0 0.0 0.0 0.0 0.0 0.0 0.0
0.0 0.0 0.0 0.0 0.0 0.0 0.0 0.0
0.0 0.0 0.0 0.0 0.0 0.0 0.0 0.0
0.0 0.0 0.0 0.0 0.0 0.0 0.0 0.0
0.0 0.0 0.0 0.0 0.0 0.0 0.0 0.0
0.0 0.0 0.0 0.0 0.0 0.0 0.0 0.0
0.0 0.0 0.0 0.0 0.0 0.0 0.0 0.0
0.0 0.0 0.0 0.0 0.0 0.0 0.0 0.0
00000000: 0000 0000 0000 0000 0000 0000 0000 0000
00000010: 0000 0000 0000 0000 0000 0000 0000 0000
00000020: 0000 0000 0000 0000 0000 0000 0000 0000
00000030: 0000 0000 0000 0000 0000 0000 0000 0000
00000040: 0000 0000 0000 0000 0000 0000 0000 0000
00000050: 0000 0000 0000 0000 0000 0000 0000 0000
00000060: 0000 0000 0000 0000 0000 0000 0000 0000
00000070: 0000 0000 0000 0000 0000 0000 0000 0000
00000080: 0000 0000 0000 0000 0000 0000 0000 0000
00000090: 0000 0000 0000 0000 0000 0000 0000 0000
000000a0: 0000 0000 0000 0000 0000 0000 0000 0000
000000b0: 0000 0000 0000 0000 0000 0000 0000 0000
000000c0: 0000 0000 0000 0000 0000 0000 0000 0000
000000d0: 0000 0000 0000 0000 0000 0000 0000 0000
000000e0: 0000 0000 0000 0000 0000 0000 0000 0000
000000f0: 0000 0000 0000 0000 0000 0000 0000 0000

layers.2.weight f4 [64, 64]
-0.21076663 -0.10606878 -0.14719805 -0.102092974 0.19693485 -0.10989288 -0.20150416 0.025375709
-0.14526676 0.07750012 0.12920156 -0.17884547 0.0378089 -0.055102833 -0.10303161 -0.079855755
-0.14979891 -0.20945723 -0.20897368 -0.10223606 -0.15444545 0.21058398 0.12030108 0.15318929
-0.0074164052 0.18761171 -0.00202458 -0.041096136 0.0752048 -0.123810716 0.010023327 -0.06447186
-0.21574304 0.1560425 -0.1527784 -0.0050843814 -0.07237243 0.077356875 0.06382688 -0.018419309
-0.019898532 0.20645504 -0.007733398 0.1570419 -0.05579476 0.046760872 0.11163768 -0.057897676
0.065346085 0.11057506 0.17427346 -0.088691145 -0.20146084 0.049826972 -0.02300417 0.05911705
-0.05340374 0.15013294 -0.19475819 0.1009191 -0.12824981 0.100861624 -0.11220157 0.0788744
-0.026639475 -0.15400946 -0.16049884 -0.059996355 -0.029736158 -0.09646677 0.09507034 0.0659333
-0.07817496 0.19639423 -0.17076054 0.055134322 0.019755598 -0.102035776 0.21293454 0.0502607
-0.0845421 0.014110762 0.15447266 -0.1196625 -0.06926573 -0.18924248 0.089669354 0.09830433
-0.14293768 -0.12430283 -0.027194407 -0.10460205 0.19800048 -0.04010311 0.030846795 0.02966255
-0.07817179 0.08382932 0.16516106 -0.037154987 0.024193244 -0.14656219 0.06424499 -0.14741713
-0.14331143 0.20952563 0.14683293 -0.16105114 -0.12364709 -0.12943345 -0.12756191 -0.15391941
-0.00928556 -0.07831774 -0.0052613835 0.065670274 -0.14766265 0.08324316 -0.20286034 0.11870814
-0.17841513 -0.12307695 -0.038013313 -0.017850026 -0.13347702 0.15881316 -0.0018276013 -0.20084265
0.18491171 -0.08958539 0.10387179 0.18702248 -0.15261422 0.027218254 0.19657813 -0.19460832
-0.14226608 -0.021612184 0.06536771 0.10659457 -0.18550429 -0.056971367 0.1555338 0.11887789
0.1571559 0.01478945 0.1872048 0.1491012 0.15879698 0.036541343 -0.16868176 -0.17440028
-0.18204838 -0.057137944 -0.17343028 -0.13769025 -0.04428287 0.05653875 0.021769777 -0.083635546
-0.15446146 0.006874017 -0.11163495 -0.0012358396 0.12545048 0.04784405 -0.098383725 -0.11087961
-0.208777 -0.012899984 0.21624061 0.20002413 0.15323107 0.2107582 0.06761035 0.08610242
-0.20349701 -0.12558152 0.20454744 0.17523277 -0.13122314 -0.08198796 0.0016560192 0.045926835
0.12903558 0.20246826 -0.19856314 -0.043720532 0.1353631 -0.13641019 0.104689054 0.20596655
0.032502968 -0.060959075 0.07836962 0.09482874 0.07130747 0.2038992 -0.004852973 0.21405204
0.06600921 -0.024788903 0.18236865 0.13622333 0.0738946 -0.191037 -0.14722078 -0.019752966
0.20796108 0.16809167 -0.20373756 0.20894583 -0.09104152 -0.011657434 0.045568675 -0.057628043
-0.0070367204 0.20225435 -0.12328234 -0.1785863 -0.009237012 0.20430371 -0.16189913 0.014366328
-0.1390436 -0.07879883 0.0925321 -0.08128824 0.060434315 -0.120597035 0.20853715 -0.042592626
-0.117221504 0.19461659 -0.017358458 0.05582945 -0.09637437 -0.17406827 -0.20427579 0.14728266
0.092314035 0.15767576 0.13278894 0.16694044 0.03448855 0.17494744 0.11471418 0.053430013
0.07741234 -0.1411531 -0.10678539 0.16784209 -0.020151362 0.0061332826 0.19720806 -0.1012251
00000000: 35d3 57be 973a d9bd 16bb 16be 1f16 d1bd
00000010: 4aa9 493e 850f e1bd 1b57 4ebe b8e0 cf3c
00000020: cfc0 14be 62b8 9e3d 6a4d 043e 4423 37be
00000030: 81dd 1a3d 82b3 61bd 3d02 d3bd 6a8b a3bd
00000040: e364 19be f57b 56be 32fd 55be 2461 d1bd
00000050: f326 1ebe 54a3 573e 6a60 f63d a7dd 1c3e
00000060: 5105 f3bb 491d 403e d1ae 04bb 6c54 28bd
00000070: f904 9a3d 7990 fdbd e138 243c d309 84bd
00000080: beeb 5cbe 9bc9 1f3e f171 1cbe e29a a6bb
00000090: ff37 94bd 486d 9e3d abb7 823d 17e4 96bc
000000a0: 3f02 a3bc f368 533e 7268 fdbb 98cf 203e
000000b0: 0c89 64bd 5488 3f3d 4ca2 e43d 1d26 6dbd
000000c0: 2bd4 853d 2d75 e23d be74 323e b4a3 b5bd
000000d0: c04b 4ebe 5e17 4c3d 3e73 bcbc b824 723d
000000e0: e1bd 5abd 73bc 193e b16e 47be acae ce3d
000000f0: eb53 03be 8a90 ce3d f0c9 e5bd e788 a13d
00000100: 073b dabc a8b4 1dbe cf59 24be bdbe 75bd
00000110: 3e99 f3bc 5f90 c5bd 3db4 c23d 0a08 873d
00000120: 321a a0bd 921b 493e dadb 2ebe 87d4 613d
00000130: 7ed6 a13c 22f8 d0bd 830b 5a3e 2ade 4d3d
00000140: 6924 adbd d330 673c 152e 1e3e 9d11 f5bd
00000150: 31db 8dbd c8c8 41be 91a4 b73d c853 c93d
00000160: 415e 12be 7b92 febd cec6 debc 9939 d6bd
00000170: a3c0 4a3e 2943 24bd 6bb2 fc3c e0fe f23c
00000180: 8818 a0bd b5ae ab3d fb1f 293e d42f 18bd
00000190: e930 c63c 6614 16be e192 833d 84f4 16be
000001a0: 3bc0 12be e38d 563e 5f5b 163e 97ea 24be
000001b0: af3a fdbd 348a 04be 979f 02be 0d9d 1dbe
000001c0: 7622 18bc 0d65 a0bd af67 acbb 237e 863d
000001d0: e134 17be 647b aa3d 9fba 4fbe 411d f33d
000001e0: 75b2 36be c50f fcbd d9b3 1bbd 383a 92bc
000001f0: 33ae 08be eb9f 223e 208c efba b2a9 4dbe
00000200: 7f59 3d3e 8c78 b7bd bcba d43d d282 3f3e
00000210: e746 1cbe d1f8 de3c c74b 493e 6747 47be
00000220: 33ae 11be 090c b1bc 82df 853d 414e da3d
00000230: d6f4 3dbe cf5a 69bd 4144 1f3e 4076 f33d
00000240: 7aed 203e 734f 723c 9db2 3f3e fcad 183e
00000250: ad9b 223e 60ac 153d e9ba 2cbe fd95 32be
00000260: e46a 3abe 7a09 6abd b597 31be acfe 0cbe
00000270: f461 35bd 2d95 673d 8856 b23c 1d49 abbd
00000280: 252b 1ebe 6f3f e13b dda0 e4bd e5fb a1ba
00000290: 1776 003e 1ff8 433d 687d c9bd d914 e3bd
000002a0: a3c9 55be 745a 53bc 2e6e 5d3e 20d3 4c3e
000002b0: 9be8 1c3e ffd0 573e 4c77 8a3d 7756 b03d
000002c0: 8561 50be 7198 00be e274 513e 3870 333e
000002d0: 5c5f 06be 4ee9 a7bd c90e d93a c71d 3c3d
000002e0: e721 043e d753 4f3e 2354 4bbe 4d14 33bd
000002f0: a09c 0a3e 1daf 0bbe 3767 d63d e5e8 523e
00000300: d521 053d 39b0 79bd 4080 a03d 9235 c23d
00000310: a709 923d f4ca 503e b005 9fbb 7530 5b3e
00000320: d62f 873d 1912 cbbc d9be 3a3e 217e 0b3e
00000330: 0d56 973d 349f 43be 0bc1 16be f9d0 a1bc
00000340: c0f3 543e 3920 2c3e 94a0 50be e5f5 553e
00000350: fa73 babd d2fe 3ebc 38a6 3a3d 620b 6cbd
00000360: 4a94 e6bb c41b 4f3e 747b fcbd 54df 36be
00000370: d656 17bc fe34 513e e3c8 25be bf60 6b3c
00000380: 7261 0ebe 4861 a1bd 7881 bd3d 737a a6bd
00000390: f989 773d 94fb f6bd c38a 553e 9b75 2ebd
000003a0: d411 f0bd 9249 473e 5333 8ebc 6cad 643d
000003b0: ed5f c5bd f43e 32be ac2d 51be 44d1 163e
000003c0: 240f bd3d c175 213e d3f9 073e 6ff2 2a3e
000003d0: de43 0d3d 6c25 333e 45ef ea3d 6ed9 5a3d
000003e0: 5c8a 9e3d 708a 10be 4cb2 dabd ccde 2b3e
000003f0: 7814 a5bc b4f9 c83b e9f0 493e 1b4f cfbd

layers.2.bias f4 [64]
0.0 0.0 0.0 0.0 0.0 0.0 0.0 0.0
0.0 0.0 0.0 0.0 0.0 0.0 0.0 0.0
0.0 0.0 0.0 0.0 0.0 0.0 0.0 0.0
0.0 0.0 0.0 0.0 0.0 0.0 0.0 0.0
0.0 0.0 0.0 0.0 0.0 0.0 0.0 0.0
0.0 0.0 0.0 0.0 0.0 0.0 0.0 0.0
0.0 0.0 0.0 0.0 0.0 0.0 0.0 0.0
0.0 0.0 0.0 0.0 0.0 0.0 0.0 0.0
00000000: 0000 0000 0000 0000 0000 0000 0000 0000
00000010: 0000 0000 0000 0000 0000 0000 0000 0000
00000020: 0000 0000 0000 0000 0000 0000 0000 0000
00000030: 0000 0000 0000 0000 0000 0000 0000 0000
00000040: 0000 0000 0000 0000 0000 0000 0000 0000
00000050: 0000 0000 0000 0000 0000 0000 0000 0000
00000060: 0000 0000 0000 0000 0000 0000 0000 0000
00000070: 0000 0000 0000 0000 0000 0000 0000 0000
00000080: 0000 0000 0000 0000 0000 0000 0000 0000
00000090: 0000 0000 0000 0000 0000 0000 0000 0000
000000a0: 0000 0000 0000 0000 0000 0000 0000 0000
000000b0: 0000 0000 0000 0000 0000 0000 0000 0000
000000c0: 0000 0000 0000 0000 0000 0000 0000 0000
000000d0: 0000 0000 0000 0000 0000 0000 0000 0000
000000e0: 0000 0000 0000 0000 0000 0000 0000 0000
000000f0: 0000 0000 0000 0000 0000 0000 0000 0000

output_layer.weight f4 [1, 64]
0.006303085 -0.1209193 -0.29666707 0.046174996 0.0040192264 -0.13806969 0.2932579 -0.12474396
-0.24741693 0.2918889 -0.15266526 0.2512425 0.20167163 -0.26151863 -0.122420594 -0.20940045
-0.23003061 -0.2426981 0.25397608 0.05552408 -0.019340036 -0.24397792 0.06321183 -0.2861056
0.18314005 0.007501044 0.14659727 0.24226773 -0.21469387 -0.09273112 -0.2493871 -0.30049634
-0.2857671 0.1796142 -0.13580103 -0.06106593 0.15109186 -0.08535293 0.2519443 0.013010077
0.08694407 -0.114582136 -0.17919424 0.099599354 0.19505793 0.1888631 0.099111855 0.17652158
-0.22229473 -0.070404805 -0.2251072 0.14610322 0.08180179 0.2938628 0.2518387 -0.2847181
0.015083543 -0.2518633 -0.24225591 0.3010014 0.14073282 -0.16569188 -0.23162593 -0.28683668
00000000: 1c8a ce3b 8aa4 f7bd bfe4 97be fe21 3d3d
00000010: b7b3 833b 2462 0dbe e625 963e c379 ffbd
00000020: dd5a 7dbe 7672 953e 4854 1cbe dba2 803e
00000030: 0283 4e3e c5e5 85be a6b7 fabd 126d 56be
00000040: 258d 6bbe da85 78be 2709 823e 386d 633d
00000050: ff6e 9ebc 59d5 79be 3475 813d 6f7c 92be
00000060: 1189 3b3e 51cb f53b 981d 163e 0815 783e
00000070: b6d8 5bbe d0e9 bdbd 555f 7fbe a8da 99be
00000080: 1150 92be c9ec 373e 6d0f 0bbe 4520 7abd
00000090: d3b7 1a3e 84cd aebd d8fe 803e 3828 553c
000000a0: bc0f b23d 0aaa eabd b27e 37be bffa cb3d
000000b0: 44bd 473e 5465 413e 28fb ca3d 13c2 343e
000000c0: 3ba1 63be 6530 90bd 8082 66be 159c 153e
000000d0: b287 a73d 2f75 963e 01f1 803e 92c6 91be
000000e0: f720 773c 3af4 80be ef11 78be db1c 9a3e
000000f0: 441c 103e 22ab 29be 592f 6dbe 42dc 92be

weight f4 [64, 4]
0.1419557 -0.12991756 -0.090055294 -0.06544058 0.026384281 0.063131005 0.24700685 -0.20450784
0.03171143 0.027435264 -0.29658398 -0.002821716 -0.2847257 0.052146934 -0.25911722 0.03187931
-0.10454999 0.0227568 0.19358727 -0.23007812 -0.24039339 0.12050225 -0.20793529 0.06886611
0.21357061 -0.075684495 -0.026713103 -0.06279135 0.008072553 -0.17225106 -0.0055350056 0.03624736
0.010661233 -0.26326472 0.07935037 -0.2886127 -0.16984215 -0.09161679 -0.0748724 0.19179238
-0.0237473 0.20825735 0.033683717 -0.2712741 -0.29548866 0.11981327 -0.12342683 0.1332329
0.059251294 0.0004393373 0.012749457 -0.045262046 -0.02355899 0.033318955 -0.2177671 0.28144082
0.02807552 -0.17964575 0.16734828 -0.2938485 0.18508317 0.24022302 -0.18482134 0.105553664
-0.26331198 -0.11551575 0.1723789 0.16814324 0.26967767 -0.16547106 -0.20095904 0.27251333
-0.20688912 0.09219476 -0.23572555 -0.21474741 -0.12740198 0.0046436894 0.007387113 0.18229541
0.07617341 -0.12655637 -0.17204635 0.0800682 -0.048813004 -0.1603725 0.2818919 0.20531878
0.25552973 -0.29148912 -0.1484475 -0.23142955 0.17448716 -0.29516605 -0.10042566 -0.18050057
0.20847353 0.24293232 -0.0340687 0.2102345 -0.2656632 -0.08078686 -0.19820766 -0.005319816
0.059587974 -0.20644002 -0.032936487 -0.12486616 -0.26407 -0.056050226 -0.269704 -0.26504853
0.16616726 0.19538459 -0.09523998 0.2897077 0.25668508 0.099509135 0.029087443 -0.15810551
-0.28731236 -0.08185863 0.10864053 0.273847 -0.1776969 -0.19449554 0.13436465 0.2451484
0.07517611 -0.24099997 0.089237526 0.18277034 -0.29457748 -0.08117566 0.14579487 0.1590865
0.1011502 -0.17688166 0.007427658 -0.0790014 0.02683934 0.26847708 0.04096184 -0.29421014
0.04868149 0.1806843 -0.20258845 0.21490654 0.1774366 -0.12806995 0.24498753 -0.009215602
-0.2628841 0.02929155 0.067294315 -0.12915029 -0.2097824 -0.2927482 -0.29295695 -0.15298003
0.22550836 0.25251636 -0.10392999 -0.25431237 -0.25878504 -0.21093962 -0.24815868 0.22340657
0.04028971 -0.045522347 0.17200917 0.16518523 0.0010466262 0.016171735 0.21031679 -0.1679686
0.10905059 -0.17353955 -0.07497006 -0.011819579 -0.12734705 -0.22668293 -0.25561485 0.061816037
-0.06752951 0.18082535 -0.056839205 0.10041412 -0.16301492 -0.17213786 0.130384 -0.117666155
-0.17277205 -0.010010212 0.104407355 0.0062580868 -0.25538453 0.019052621 -0.05037432 0.04726617
-0.08141175 -0.21193548 -0.20304008 0.20981765 -0.11202273 -0.037686158 0.1536886 0.20892431
-0.023679208 -0.005502534 0.023117421 -0.018926205 0.17058982 -0.28878954 0.26699582 -0.19195187
-0.22888106 -0.15562792 -0.04807218 -0.14243339 -0.015886432 -0.18232664 0.18531443 -0.05276449
-0.043763157 -0.110074475 0.23847166 0.032953873 0.11025178 -0.0021512902 -0.1624872 0.2613465
0.20223907 -0.23468423 0.0358479 -0.2644442 -0.20767273 -0.27162054 -0.1994421 -0.2339507
-0.23264714 -0.07889917 0.011172524 0.2095488 0.28701258 -0.14994195 -0.12734036 0.12701246
-0.24374133 -0.28707275 0.28845254 -0.08086926 -0.23864846 -0.04600485 -0.17251632 -0.020749524
00000000: d65c 113e 1c09 05be e96e b8bd b605 86bd
00000010: d923 d83c d44a 813d 5def 7c3e 816a 51be
00000020: d8e3 013d ebbf e03c dbd9 97be 8aec 38bb
00000030: 91c7 91be 0698 553d 03ab 84be e193 023d
00000040: 4e1e d6bd 786c ba3c be3b 463e 9999 6bbe
00000050: af29 76be e2c9 f63d fdec 54be ad09 8d3d
00000060: 41b2 5a3e 7900 9bbd 70d5 dabc c098 80bd
00000070: be42 043c 9562 30be fe5e b5bb 1d78 143d
00000080: 74ac 2e3c a2ca 86be 7282 a23d 0bc5 93be
00000090: 1aeb 2dbe 95a1 bbbd b356 99bd 3965 443e
000000a0: b389 c2bc 6a41 553e f0f7 093d 70e4 8abe
000000b0: 4a4a 97be a960 f53d 35c7 fcbd 356e 083e
000000c0: 7cb1 723d db56 e639 19e3 503c b264 39bd
000000d0: c8fe c0bc 7579 083d 57fe 5ebe 0319 903e
000000e0: a2fe e53c 0ef5 37be 595d 2b3e 5073 96be
000000f0: 7186 3d3e 06fd 753e ce41 3dbe 852c d83d
00000100: d4d0 86be 8693 ecbd 1884 303e be2d 2c3e
00000110: 3113 8a3e 3f71 29be 35c8 4dbe de86 8b3e
00000120: beda 53be 9bd0 bc3d 0a62 71be bfe6 5bbe
00000130: aa75 02be 172a 983b 980f f23b a6ab 3a3e
00000140: ce00 9c3d fe97 01be eb2c 30be ccfa a33d
00000150: 25f0 47bd b038 24be 2354 903e 163f 523e
00000160: cbd4 823e 103e 95be 9f02 18be defb 6cbe
00000170: c3ac 323e 0120 97be f8ab cdbd 24d5 38be
00000180: 167a 553e 40c3 783e 9f8b 0bbd b647 573e
00000190: 0205 88be 9573 a5bd f3f6 4abe da51 aebb
000001a0: 8512 743d 0365 53be 69e8 06bd d4b9 ffbd
000001b0: 2f34 87be ec94 65bd a516 8abe 71b4 87be
000001c0: c027 2a3e e612 483e 2e0d c3bd 9154 943e
000001d0: 3a6c 833e 72cb cb3d ca48 ee3c 69e6 21be
000001e0: 9b1a 93be 7fa5 a7bd ed7e de3d ad35 8c3e
000001f0: 2df6 35be d729 47be e396 093e 2f08 7b3e
00000200: eff5 993d b2c8 76be 2ac2 b63d 2628 3b3e
00000210: dcd2 96be 6d3f a6bd 404b 153e 92e7 223e
00000220: d627 cf3d 7720 35be b663 f33b 7ccb a1bd
00000230: 2dde db3c d475 893e 9ac7 273d b6a2 96be
00000240: 3e66 473d 4e05 393e 5973 4fbe 7610 5c3e
00000250: f1b1 353e c524 03be 03de 7a3e 09fd 16bc
00000260: bf98 86be d5f4 ef3c 9ad1 893d f93f 04be
00000270: 33d1 56be 18e3 95be 74fe 95be cca6 1cbe
00000280: aaeb 663e d349 813e 3fd9 d4bd 3b35 82be
00000290: 797f 84be 8e00 58be 4f1d 7ebe b1c4 643e
000002a0: d306 253d a475 3abd 2c23 303e 5126 293e
000002b0: f32e 893a 967a 843c 495d 573e f6ff 2bbe
000002c0: ea55 df3d 5ab4 31be e789 99bd e8a6 41bc
000002d0: 4467 02be 921f 68be f3df 82be d032 7d3d
000002e0: e94c 8abd 482a 393e 3ad0 68bd eba5 cd3d
000002f0: 62ed 26be e844 30be 6283 053e f4fa f0bd
00000300: 28eb 30be df01 24bc 86d3 d53d a310 cd3b
00000310: c3c1 82be 3e14 9c3c 4e55 4ebd 2c9a 413d
00000320: 34bb a6bd 9d05 59be bde9 4fbe 70da 563e
00000330: 2c6c e5bd cd5c 1abd 8b60 1d3e 41f0 553e
00000340: e6fa c1bc 9a4e b4bb bf60 bd3c 210b 9bbc
00000350: 19af 2e3e 39dc 93be adb3 883e 088f 44be
00000360: cc5f 6abe ed5c 1fbe 56e7 44bd 0fda 11be
00000370: 4324 82bc d6b3 3abe 11c3 3d3e 941f 58bd
00000380: ff40 33bd ba6e e1bd ea31 743e a4fa 063d
00000390: afcb e13d a9fc 0cbb 0b63 26be 35cf 853e
000003a0: c217 4f3e 1051 70be 3fd5 123d 3b65 87be
000003b0: 29a8 54be d911 8bbe 8d3a 4cbe c690 6fbe
000003c0: 0d3b 6ebe e395 a1bd f60c 373c f693 563e
000003d0: 50f3 923e 628a 19be 8365 02be 8e0f 023e
000003e0: 5497 79be 33fb 92be 0db0 933e c89e a5bd
000003f0: 4360 74be 956f 3cbd 1ea8 30be e8fa a9bc

bias f4 [64]
0.0 0.0 0.0 0.0 0.0 0.0 0.0 0.0
0.0 0.0 0.0 0.0 0.0 0.0 0.0 0.0
0.0 0.0 0.0 0.0 0.0 0.0 0.0 0.0
0.0 0.0 0.0 0.0 0.0 0.0 0.0 0.0
0.0 0.0 0.0 0.0 0.0 0.0 0.0 0.0
0.0 0.0 0.0 0.0 0.0 0.0 0.0 0.0
0.0 0.0 0.0 0.0 0.0 0.0 0.0 0.0
0.0 0.0 0.0 0.0 0.0 0.0 0.0 0.0
00000000: 0000 0000 0000 0000 0000 0000 0000 0000
00000010: 0000 0000 0000 0000 0000 0000 0000 0000
00000020: 0000 0000 0000 0000 0000 0000 0000 0000
00000030: 0000 0000 0000 0000 0000 0000 0000 0000
00000040: 0000 0000 0000 0000 0000 0000 0000 0000
00000050: 0000 0000 0000 0000 0000 0000 0000 0000
00000060: 0000 0000 0000 0000 0000 0000 0000 0000
00000070: 0000 0000 0000 0000 0000 0000 0000 0000
00000080: 0000 0000 0000 0000 0000 0000 0000 0000
00000090: 0000 0000 0000 0000 0000 0000 0000 0000
000000a0: 0000 0000 0000 0000 0000 0000 0000 0000
000000b0: 0000 0000 0000 0000 0000 0000 0000 0000
000000c0: 0000 0000 0000 0000 0000 0000 0000 0000
000000d0: 0000 0000 0000 0000 0000 0000 0000 0000
000000e0: 0000 0000 0000 0000 0000 0000 0000 0000
000000f0: 0000 0000 0000 0000 0000 0000 0000 0000

weight f4 [64, 64]
0.14942664 0.06490231 -0.2007446 -0.18030354 -0.20082445 -0.059056446 -0.1494504 -0.15741947
-0.000507158 0.10955527 -0.07819339 -0.039841067 0.15976958 -0.08482482 -0.17262596 0.20721589
-0.087162085 -0.17024043 0.05241461 0.18338238 -0.08872111 -0.13612866 0.19168273 -0.11236433
0.15783304 0.09811708 0.16447389 -0.16090433 -0.014625482 0.1014011 -0.018865168 0.18813363
-0.0358801 0.18619618 0.09787228 -0.14580898 -0.09781093 0.1923647 -0.17051755 0.0877636
-0.024663907 0.21266602 -0.15993668 -0.032369636 0.14290327 -0.06343344 0.1182567 0.12206408
0.20059797 0.04963048 -0.06156947 -0.016727595 -0.04199343 0.027172623 0.112545125 -0.18927579
-0.068227254 -0.15731247 -0.124932945 0.21121784 -0.15433115 0.18398103 -0.12209221 -0.067894004
-0.073579 0.00082585454 0.14818586 -0.16126363 -0.045419756 -0.08843504 0.030233277 0.14008056
0.21330155 -0.13884647 -0.06219063 -0.013443997 0.14465865 -0.013988038 -0.05317416 -0.1252464
-0.033448786 0.14087822 -0.02934269 -0.07052552 0.108371 -0.15106097 0.16947411 0.015459595
0.19497886 0.10432096 -0.02418963 -0.19572087 -0.018282568 0.11354042 0.07946675 -0.039564595
-0.07030268 -0.06147976 0.13324668 0.0876512 0.11669747 0.13689913 0.16480276 -0.21137589
0.17938238 0.0656607 -0.13594565 0.1903729 -0.21570434 0.08200871 0.18712687 0.12266049
-0.06300353 0.12009182 -0.17342386 -0.016060675 -0.1482533 0.09691217 0.0026998874 -0.061811697
0.04292216 0.10823237 -0.03133555 -0.13496478 0.15344864 0.056237034 -0.009378062 0.20065367
-0.046237506 -0.21365367 -0.029841306 0.082282215 0.15691361 0.17281155 0.029422779 0.21592402
-0.041081037 -0.09203147 -0.2098398 0.058838304 0.14945851 -0.18839791 -0.01879001 0.058406226
0.08367898 -0.035877597 0.0843618 -0.17564425 0.16887785 0.045138326 0.09842623 0.10930703
-0.09653868 -0.11476828 -0.07139048 -0.09035948 0.11089551 -0.17125201 0.16914272 -0.16533957
-0.063019454 -0.003562727 0.12789777 0.166946 -0.016213158 -0.11326059 -0.16824386 -0.20654655
0.07002907 -0.12155842 0.11328312 -0.08975249 -0.02856319 -0.13235712 -0.2036428 0.10283458
-0.17751883 0.20558688 -0.14142425 0.1424722 0.16599602 -0.029940672 0.14720711 0.109288886
-0.12497543 -0.004156347 0.16150253 0.029894732 0.16466117 0.18152581 0.113100134 -0.21624604
-0.15374042 -0.009243155 -0.08620401 -0.1298578 -0.032423012 -0.0858938 0.12829487 -0.048618928
-0.10792774 0.14036925 -0.14317718 -0.08199075 0.112640955 -0.059333798 -0.11226101 0.13935724
-0.021731062 -0.15405527 0.20688964 0.05836808 0.082526095 0.07815274 0.066339806 0.16255258
0.14462654 -0.05416125 -0.18986285 -0.19064036 -0.18427815 -0.040694512 -0.20669506 0.10253019
-0.110619344 -0.18663833 -0.09358743 -0.04172847 0.07504581 -0.04657383 0.022952475 0.1883569
0.04951029 0.18384822 -0.08631922 -0.032620195 0.04120002 0.07124814 0.1117888 0.09168883
0.17324461 -0.13482511 0.18129964 0.061453693 -0.18810341 0.15192902 0.19433281 -0.1625035
-0.15828773 0.16167098 0.115561 0.11401733 -0.066162385 -0.018898513 0.09967815 0.13236474
00000000: 4c03 193e 81eb 843d fe8f 4dbe 7ea1 38be
00000010: eda4 4dbe 2ce5 71bd 8709 19be 9232 21be
00000020: ccf2 04ba 835e e03d db23 a0bd 6330 23bd
00000030: a39a 233e a3b8 adbd dcc4 30be 6730 543e
00000040: 0982 b2bd 8253 2ebe b4b0 563d 97c8 3b3e
00000050: 6ab3 b5bd 5065 0bbe 7a48 443e 451f e6bd
00000060: fc9e 213e 9cf1 c83d d86b 283e 1bc4 24be
00000070: b89f 6fbc 61ab cf3d 208b 9abc 1aa6 403e
00000080: 03f7 12bd 36aa 3e3e 4371 c83d f34e 15be
00000090: 1951 c8bd 40fb 443e 279c 2ebe 67bd b33d
000000a0: f60b cabc 1fc5 593e 71c6 23be 0696 04bd
000000b0: 3c55 123e 64e9 81bd 9230 f23d bbfc f93d
000000c0: 8e69 4d3e 5549 4b3d 4530 7cbd 4f08 89bc
000000d0: 4e01 2cbd 1f99 de3c 0f7e e63d 83d1 41be
000000e0: bbba 8bbd 8516 21be d8dc ffbd 7d49 583e
000000f0: fc08 1ebe 8665 3c3e 7b0b fabd 030c 8bbd
00000100: 96b0 96bd 297e 583a 09be 173e 4b22 25be
00000110: 110a 3abd 6e1d b5bd c7ab f73c 4771 0f3e
00000120: b96b 5a3e c52d 0ebe 9abb 7ebd 3644 5cbc
00000130: 6621 143e 152e 65bc 26cd 59bd 9840 00be
00000140: 9801 09bd 6142 103e 1560 f0bc af6f 90bd
00000150: 9df1 dd3d baaf 1abe 9f8a 2d3e 3e4a 7d3c
00000160: 8aa8 473e 3aa6 d53d 5529 c6bc 0d6b 48be
00000170: 53c5 95bc e187 e83d 77bf a23d 7c0e 22bd
00000180: dafa 8fbd 33d2 7bbd d171 083e 7982 b33d
00000190: 15ff ee3d 492f 0c3e 0ec2 283e ec72 58be
000001a0: 04b0 373e 1e79 863d 5635 0bbe 1df1 423e
000001b0: 99e1 5cbe 2ff4 a73d 309e 3f3e 6c35 fb3d
000001c0: ff07 81bd b3f2 f53d 0696 31be ad91 83bc
000001d0: b7cf 17be e379 c63d 98f0 303b 432e 7dbd
000001e0: 26cf 2f3d efa8 dd3d b559 00bd 3534 0abe
000001f0: a421 1d3e ce58 663d 71a6 19bc 2878 4d3e
00000200: 8a63 3dbd 07c8 5abe c175 f4bc 9483 a83d
00000210: f6ad 203e 83f5 303e 0a08 f13c 301b 5d3e
00000220: 9744 28bd ff7a bcbd 3fe0 56be 6f00 713d
00000230: a70b 193e 62eb 40be 82ed 99bc 5e3b 6f3d
00000240: e35f ab3d 63f4 12bd e1c5 ac3d 16dc 33be
00000250: 51ee 2c3e f7e2 383d b193 c93d 5ddc df3d
00000260: 12b6 c5bd a20b ebbd 2c35 92bd 640e b9bd
00000270: 2f1d e33d b05c 2fbe c033 2d3e c74e 29be
00000280: 5810 81bd a47c 69bb a2f7 023e e4f3 2a3e
00000290: 75d1 84bc 2bf5 e7bd 1e48 2cbe f080 53be
000002a0: 676b 8f3d 9ff3 f8bd fb00 e83d 27d0 b7bd
000002b0: 5afd e9bc a088 07be bd87 50be f09a d23d
000002c0: 7fc7 35be 5e85 523e 85d1 10be 3be4 113e
000002d0: dcfa 293e 2446 f5bc 76bd 163e dad2 df3d
000002e0: 1ef3 ffbd f731 88bb eb60 253e cce5 f43c
000002f0: f09c 283e e7e1 393e 0ba1 e73d 9a6f 5dbe
00000300: 216e 1dbe 9a70 17bc ba8b b0bd 71f9 04be
00000310: fecd 04bd 17e9 afbd bb5f 033e a424 47bd
00000320: 3809 ddbd f5bc 0f3e 0a9d 12be c4ea a7bd
00000330: 4db0 e63d ff07 73bd 1ae9 e5bd aab3 0e3e
00000340: 5705 b2bc aac0 1dbe e1da 533e 5e13 6f3d
00000350: 7103 a93d 8b0e a03d 2add 873d 2f74 263e
00000360: fb18 143e 30d8 5dbd 686b 42be 3a37 43be
00000370: 69b3 3cbe 4aaf 26bd dfa7 53be 59fb d13d
00000380: 658c e2bd 1e1e 3fbe c4aa bfbd 79eb 2abd
00000390: 9eb1 993d 33c4 3ebd d406 bc3c a2e0 403e
000003a0: 4dcb 4a3d b542 3c3e 22c8 b0bd c19c 05bd
000003b0: 5ac1 283d 8bea 913d 87f1 e43d 5ac7 bb3d
000003c0: 0967 313e 980f 0abe 9da6 393e deb6 7b3d
000003d0: 2e9e 40be 4893 1b3e 2eff 463e 5167 26be
000003e0: 2e16 22be 148d 253e 3fab ec3d eb81 e93d
000003f0: 2580 87bd 0ed1 9abc 0f24 cc3d 9f8a 073e

bias f4 [64]
0.0 0.0 0.0 0.0 0.0 0.0 0.0 0.0
0.0 0.0 0.0 0.0 0.0 0.0 0.0 0.0
0.0 0.0 0.0 0.0 0.0 0.0 0.0 0.0
0.0 0.0 0.0 0.0 0.0 0.0 0.0 0.0
0.0 0.0 0.0 0.0 0.0 0.0 0.0 0.0
0.0 0.0 0.0 0.0 0.0 0.0 0.0 0.0
0.0 0.0 0.0 0.0 0.0 0.0 0.0 0.0
0.0 0.0 0.0 0.0 0.0 0.0 0.0 0.0
00000000: 0000 0000 0000 0000 0000 0000 0000 0000
00000010: 0000 0000 0000 0000 0000 0000 0000 0000
00000020: 0000 0000 0000 0000 0000 0000 0000 0000
00000030: 0000 0000 0000 0000 0000 0000 0000 0000
00000040: 0000 0000 0000 0000 0000 0000 0000 0000
00000050: 0000 0000 0000 0000 0000 0000 0000 0000
00000060: 0000 0000 0000 0000 0000 0000 0000 0000
00000070: 0000 0000 0000 0000 0000 0000 0000 0000
00000080: 0000 0000 0000 0000 0000 0000 0000 0000
00000090: 0000 0000 0000 0000 0000 0000 0000 0000
000000a0: 0000 0000 0000 0000 0000 0000 0000 0000
000000b0: 0000 0000 0000 0000 0000 0000 0000 0000
000000c0: 0000 0000 0000 0000 0000 0000 0000 0000
000000d0: 0000 0000 0000 0000 0000 0000 0000 0000
000000e0: 0000 0000 0000 0000 0000 0000 0000 0000
000000f0: 0000 0000 0000 0000 0000 0000 0000 0000
