experiments/ppo_cartpole_homework_20250828_112549/checkpoints/final.pt (torch, 126349 bytes, 22 tensors)

layers.0.weight f4 [64, 4]
00000000: b2ab 493e afa1 923e aa4e 423e 771a 6fbd
00000010: 9d25 92be 4bf1 383e 3bc8 cc3c 3c2b f8bc
00000020: ef06 1bbd daa0 83bd 9a89 923e dd3d adbd
00000030: 7644 4fbd 73f4 5abe 22c8 cdbd cab2 27be
00000040: 9ff8 2a3d 4e6f 63be 8786 8b3e 2a7f 253d
00000050: 5f77 023e 010e 463e 10ca 1ebd d85d 833e
00000060: df0c 273d 4bcf 64be 633f c1bd 526a 58bc
00000070: f517 55be 77e6 2abe 3f2b 5d3e e704 4fbe
00000080: 2806 ffbd f6c7 6cbe 3320 563e 9a62 0e3c
00000090: a3a7 cf3d 5882 68be f697 4c3e 6a85 c1bd
000000a0: 6ec9 19bd 6c31 573e bcf3 52be f225 4ebe
000000b0: fa7e 913d e330 49be 158c 86be 1b40 923e
000000c0: bcb5 0ebe 8b06 33be 5699 3c3e 2e15 463e
000000d0: cf20 a73d fb17 95be a54f 3e3d 3e78 e4bd
000000e0: 37f7 0e3e 2ed3 43be bfee 2fbc 4dde 833d
000000f0: dfbc 8c3c 0d19 db3d 4f90 963e 3df0 10be
00000100: 071d 95be 8629 523e 6793 87be ca73 7d3e
00000110: b6be cbbd 5c86 103e 580c 90be f40a 93bd
00000120: 6227 7e3e 5770 74be 040b 31bc 9983 50bd
00000130: 2623 6bbe 7415 a5bc bc02 05be 1564 76be
00000140: f93d 57be 3762 97be 3b07 c5bc 06e9 45be
00000150: 4702 18be 9001 87be 460f 61be a3b8 7ebe
00000160: b9fa 383d dace 043e 2a4e 61be fc06 3a3e
00000170: 8477 203e 5359 46be 61b4 3e3d 509f 95be
00000180: 52ea e0bc c4b6 8b3d cc22 893e 48b8 8dbe
00000190: 1955 3abe 78f0 df3d 0dbd 8e3c e5d7 b8bd
000001a0: bff0 933e cc66 55be 4d19 b93d 9710 f43d
000001b0: ff86 8c3d 3adb 7abd 691b 21bb dc2b 83be
000001c0: 3e59 aebd a9c6 45be 52bd 13be 6020 53be
000001d0: 975e b83d 56f9 713e a18c 583e e811 4b3d
000001e0: b5fd 7cbe 3232 3c3e 7018 02be 7eab 2c3e
000001f0: d457 95bc d03e 2cbe 0984 04be e188 993d
00000200: 46f1 78be 1b85 ef3d 868f 663e 365d 3abd
00000210: a67d 9ebc 6d5e 5a3e edd7 373e 1395 003d
00000220: b1a6 ef3d 4dca 823e 0943 73bd 5565 80be
00000230: f668 05be ee98 363e 20b3 70be 4100 f93d
00000240: 3ff2 2e3e 6329 4c3e a6ce a3bd b7ff 6bbe
00000250: bfb7 02bd bfad 1a3e 12e3 2b3e b4d5 b93d
00000260: 2932 be3c ce26 37be 781e 94be 5cf1 84be
00000270: 1879 9bbd 0b4a 87be 672d a53d 44db 5fbc
00000280: 638b 1ebe 00f4 af3d fc51 93be 8f1b 503e
00000290: 9331 97be 4444 f7bd 7a52 b53d 8f87 86be
000002a0: 4928 68bd 20ae 8cbe c672 593e e4ed 61be
000002b0: 4574 493e 862e e3bc eff5 d8bc 5b62 39be
000002c0: 8072 c63d a001 a03d 08b4 d1bd b0e6 feba
000002d0: 51ef 523e df00 333d 9283 8ebe 04cb d6bd
000002e0: b784 e5bd bc28 573e 8016 16be 307e 2ebd
000002f0: 156c 7e3d 9a03 6a3e d690 313e b75a 543e
00000300: 1777 6f3e 489b 48be f446 763e b8fd 8ebe
00000310: 41f1 8e3c 6397 7bbe 0386 fa3d 6d25 6b3e
00000320: 96b8 2dbe 32a0 343e 67d2 c73d 3287 083d
00000330: 3830 7e3e 5be8 d43c d542 193e 44c3 6ebe
00000340: 1d49 953e 3b83 623e 4f94 40be 2785 153e
00000350: 898c 0f3c 6788 663e 97ce 95be 28a2 01bd
00000360: e1e6 6abe cbcc 6dbe d0a1 4ebe 1489 3abe
00000370: 6902 d9bd fe1c 1dbe 1be0 973d 5889 3e3d
00000380: 855a d43c 2856 9fbd 22d9 8fbe 5497 05be
00000390: 4b7a 81be 6916 b83d 0fa2 7cbe 4ad3 903e
000003a0: 3c89 60be 2e7d 693c ced9 293e 1efa db3d
000003b0: 776e 08bc 24ff 733d 918c 91be e128 5b3e
000003c0: 71dd 003c 1ef0 2fbd 0539 92be ec87 3cbe
000003d0: b995 61be 6233 96be 92f6 313c 4ec3 933e
000003e0: f165 fd3d 5dcc 943b ac69 1cbe c868 4e3e
000003f0: e190 e33d 04e5 f43d de28 81be 0c95 87be
0.19694403 0.2863898 0.1897532 -0.05837485 -0.28544322 0.18060796 0.024997821 -0.030294053
-0.03784841 -0.064271644 0.28620607 -0.08459065 -0.0506024 -0.21382312 -0.10047938 -0.16376796
0.04174101 -0.22210428 0.27251074 0.040404476 0.12740849 0.1934128 -0.03876692 0.25657535
0.04078376 -0.22344701 -0.09435918 -0.0132089425 -0.2080992 -0.16689478 0.21598528 -0.20216714
-0.12452346 -0.23123154 0.2091072 0.008690501 0.10139396 -0.22705972 0.19979843 -0.09449275
-0.037545614 0.21014947 -0.2060079 -0.20131662 0.07104297 -0.19647555 -0.2627875 0.28564534
-0.13936514 -0.17482965 0.18417868 0.19344017 0.081605546 -0.29119858 0.046462674 -0.11155747
0.13961492 -0.19123527 -0.010738074 0.06438885 0.017179905 0.106981374 0.29406974 -0.14154144
-0.2912371 0.20523652 -0.26479647 0.24751201 -0.099484846 0.14113754 -0.28134418 -0.071798235
0.24819711 -0.23870979 -0.010805849 -0.05090675 -0.22962627 -0.020151831 -0.12989324 -0.24061616
-0.21019734 -0.2956712 -0.0240513 -0.19327173 -0.14844619 -0.2636838 -0.21978483 -0.24875121
0.045160983 0.12969533 -0.22002473 0.18166727 0.15670592 -0.19370012 0.04655874 -0.29223108
-0.027455483 0.06821969 0.2678436 -0.27679658 -0.18196525 0.10934538 0.01742413 -0.090255536
0.28894612 -0.20839995 0.09038029 0.11917227 0.06861686 -0.061244227 -0.0024582988 -0.256194
-0.08513115 -0.19314064 -0.14427689 -0.20617819 0.090024166 0.2363027 0.21147396 0.049577624
-0.24706157 0.18378523 -0.12704635 0.16862294 -0.018230356 -0.16820836 -0.12940992 0.07496811
-0.24310789 0.1169531 0.22515687 -0.04549905 -0.019347023 0.21325083 0.17953463 0.03139217
0.11701716 0.25544968 -0.0593901 -0.2507731 -0.1302832 0.17831776 -0.23505831 0.121582516
0.17084597 0.19937663 -0.079983994 -0.23046766 -0.031913515 0.15105341 0.16785839 0.09073964
0.023217278 -0.17885897 -0.28929496 -0.25965393 -0.07591456 -0.26423678 0.080653004 -0.013663117
-0.1548286 0.08591461 -0.28773487 0.20323013 -0.2953001 -0.120735675 0.08853622 -0.26275298
-0.056679044 -0.27476597 0.21235189 -0.22063404 0.1967326 -0.027732145 -0.026484458 -0.18103926
0.09689808 0.0781281 -0.10239416 -0.0019447412 0.20599104 0.043702003 -0.27834755 -0.10487941
-0.11206954 0.21011633 -0.1465702 -0.04260081 0.062114794 0.22852936 0.17340407 0.2073773
0.23385273 -0.19590485 0.24050504 -0.27927947 0.017449023 -0.24569468 0.12232592 0.22963496
-0.16964945 0.17639235 0.09756928 0.033332057 0.24823081 0.025989702 0.149669 -0.23316675
0.29157344 0.22120373 -0.18806575 0.14601575 0.008761534 0.22512971 -0.29259178 -0.031648785
-0.22939636 -0.23222654 -0.20178914 -0.18216354 -0.10596163 -0.15343091 0.074157916 0.0465177
0.02592207 -0.07780105 -0.28095347 -0.13046008 -0.25288615 0.089886494 -0.24671195 0.282862
-0.21927351 0.014251037 0.16586992 0.107410654 -0.008327118 0.059569493 -0.28427556 0.21402313
0.007865296 -0.042953603 -0.28559127 -0.18411225 -0.22029771 -0.29336077 0.01086201 0.28859943
0.123729594 0.0045409636 -0.15274686 0.20157158 0.11111618 0.11957744 -0.25226492 -0.264809

layers.0.bias f4 [64]
00000000: 0000 0000 0000 0000 0000 0000 0000 0000
00000010: 0000 0000 0000 0000 0000 0000 0000 0000
00000020: 0000 0000 0000 0000 0000 0000 0000 0000
00000030: 0000 0000 0000 0000 0000 0000 0000 0000
00000040: 0000 0000 0000 0000 0000 0000 0000 0000
00000050: 0000 0000 0000 0000 0000 0000 0000 0000
00000060: 0000 0000 0000 0000 0000 0000 0000 0000
00000070: 0000 0000 0000 0000 0000 0000 0000 0000
00000080: 0000 0000 0000 0000 0000 0000 0000 0000
00000090: 0000 0000 0000 0000 0000 0000 0000 0000
000000a0: 0000 0000 0000 0000 0000 0000 0000 0000
000000b0: 0000 0000 0000 0000 0000 0000 0000 0000
000000c0: 0000 0000 0000 0000 0000 0000 0000 0000
000000d0: 0000 0000 0000 0000 0000 0000 0000 0000
000000e0: 0000 0000 0000 0000 0000 0000 0000 0000
000000f0: 0000 0000 0000 0000 0000 0000 0000 0000
0.0 0.0 0.0 0.0 0.0 0.0 0.0 0.0
0.0 0.0 0.0 0.0 0.0 0.0 0.0 0.0
0.0 0.0 0.0 0.0 0.0 0.0 0.0 0.0
0.0 0.0 0.0 0.0 0.0 0.0 0.0 0.0
0.0 0.0 0.0 0.0 0.0 0.0 0.0 0.0
0.0 0.0 0.0 0.0 0.0 0.0 0.0 0.0
0.0 0.0 0.0 0.0 0.0 0.0 0.0 0.0
0.0 0.0 0.0 0.0 0.0 0.0 0.0 0.0

layers.2.weight f4 [64, 64]
00000000: b2c5 243e 1686 193e 9961 103e d7cd 1d3e
00000010: 5a7f 5c3e 03a5 15be 53d7 153e 8727 49be
00000020: c359 42be e45d 1ebe 120f d13c dcb6 343c
00000030: f5d5 903c 35c6 373d 5830 0bbe b077 16be
00000040: 5cac b9bd 0d4c 593e 4acf 663d fd95 313e
00000050: 6de9 a7bd 1742 9c3d 01d1 41be 8de0 e83d
00000060: ea85 e5bd e6fd 2cbe 105d 7cbc a298 b23d
00000070: 94a9 15be 2175 843d 9114 b0bd 0b65 263e
00000080: 89e8 e0bd a9fa 99bd 8ce9 58be cfff cebd
00000090: 45f6 5bbb 8bb8 113e c171 833d 4354 df3d
000000a0: 31a4 3ebe 5da4 0c3e 4148 753c cf03 d83d
000000b0: ec89 56bd 9312 2abe 4d2d aa3c 6c6a 8b3c
000000c0: 7adc 16be 618b f73d b51c ff3b 8084 30bd
000000d0: a671 c7bd 9063 98bd 06ad d3bd b31c 4cbd
000000e0: d701 e1bd bf11 3dbe 21d9 fe3d c582 2bbe
000000f0: 324c f33d ee28 253d 8233 3ebe 797e e0bd
00000100: 5caa 54bc 271f a63d 6ee1 c63d 3b8a 853d
00000110: 4295 77bc 97e0 57be 5b04 13bd 41ae afbd
00000120: 5e3b 423e e2c2 0cbe 7fd8 97bd df05 573c
00000130: 214a 29bd 0766 39be 3757 483e ebee 05be
00000140: 6fc7 5d3d dcb5 30be 4ec0 543e 9565 b5bc
00000150: e2ef 213e 0951 0bbe ae70 da3d 5190 c0bd
00000160: 2a05 363e 4c73 703d 1f87 04be d49b 54bd
00000170: 2785 aebd cc7c c9bc d7ed 263e 81b4 3ebd
00000180: 07e6 0abe e637 223e 860b c4bd a13b 523e
00000190: 65c0 da3d f5a8 183e 0550 16be 6956 61bd
000001a0: a089 e0bd fac7 f2bd 0e5f debd b779 283d
000001b0: 3db7 65bc 7370 d2bd 8d97 2abd cf6d d23d
000001c0: 306e 1bbc 6f08 ecbc 62b1 70bd e2d1 57be
000001d0: a899 00be cb91 55be 8262 48be 0b1c 34be
000001e0: 9457 0f3e e5eb 983d 3e33 3fbd 068e 103e
000001f0: a8eb 6cbb 9a00 6abd 4d66 3b3e d011 ff3d
00000200: a835 4c3e 7a27 9fbd 26c0 e4bc 9331 26be
00000210: e28b 27be e305 c2bd b473 e33c 5541 c03d
00000220: f865 463e cab8 26be e590 063d ea95 133e
00000230: bc6a 5abe db1d d53d f7d5 1c3e b4f8 57be
00000240: 4e17 253e 1b71 e0bc 6d6c a53b d16c 0f3e
00000250: e0ca ccbd 67cc 343c 087f bfbd 3889 5bbe
00000260: bcec 50be bd1d 4c3e a2ac 6b3d 28dc 43be
00000270: 3ecf efbb 2a73 203e bc4e 563d c0bd 86bd
00000280: 0ee7 48bd 6b82 71bb 0038 00be 3478 483e
00000290: cb78 7dbd 5fd2 863d b6af a93d a16b bdbc
000002a0: 73ab b13d 2e0a b13d 6af5 0dbe ec03 06be
000002b0: d1a0 1d3e 49f8 4abe 6f83 5a3e c2a6 37be
000002c0: fb05 913d 06d4 70bc 54ae 763d 65ad 09bd
000002d0: c8c3 243e 10d0 4f3e b288 433e 6d05 15be
000002e0: 30bc 6fbb 292a 243e b322 0f3d ecc4 a5bd
000002f0: 4d61 7d3b fcad f0bd 9256 5b3e b011 553e
00000300: 84d2 b63d 912a 1dbd 2472 5a3e f175 1bbe
00000310: ece7 2e3d 7bfe 293e 1fa0 c5bc 3a48 06bc
00000320: d2a8 99bd b5e1 313e 5c33 7f3d 406c 133d
00000330: bd51 833d d3ce 463d 7a5e d7bc 5b22 173e
00000340: dae2 44be b2a6 50be 6640 1e3e cca9 25be
00000350: 0bd2 a93d c69c 143e f2ee 3e3e 9a32 5b3e
00000360: fe61 f8bd df72 79bc f9dc 26bd e528 ef3d
00000370: 8ac1 50be 6807 133e a8af b3bd e6b4 d33c
00000380: 6c83 e7bc 38da 0d3e 71b1 2b3d b91b 0ebe
00000390: ed26 3cbc e4f0 c0bc 78e9 83bc 3dd5 f2bd
000003a0: 7396 1f3e d1e2 dc3d 340d 20bd 9537 f0bd
000003b0: e402 0c3e 2037 593e a3e7 2f3e 16d0 1d3b
000003c0: fd89 543e 1045 c43b 4ce7 2bbe 413a 113d
000003d0: 73a0 00bb 355a e03c e73c 44be f35b 99bd
000003e0: dca6 e93c eb17 22be 31e3 263e 13a8 3f3d
000003f0: 7d41 203e daf7 0e3e 0f74 fb3d dd4f 333e
0.1609104 0.14992556 0.1409973 0.15410553 0.21532956 -0.14613728 0.14632921 -0.19643985
-0.18979554 -0.15465504 0.025519881 0.011029925 0.017680148 0.04486676 -0.1359266 -0.14694095
-0.09066078 0.21220417 0.05635003 0.17342372 -0.08198819 0.07629793 -0.18927385 0.11370955
-0.11207183 -0.1689373 -0.015403047 0.08720519 -0.1461547 0.06467653 -0.08597673 0.16249482
-0.109818526 -0.07518513 -0.21182841 -0.10107385 -0.0033563536 0.14230554 0.06418181 0.109047435
-0.18617322 0.13734575 0.01497084 0.105476014 -0.052377626 -0.16608648 0.020773554 0.01701852
-0.14732543 0.12087131 0.0077854046 -0.04309511 -0.097384736 -0.07440865 -0.10335736 -0.049832057
-0.10986679 -0.18463801 0.12443758 -0.16749103 0.118797675 0.040322237 -0.18574336 -0.10961623
-0.01298007 0.081114106 0.09710966 0.06520506 -0.015111269 -0.21081768 -0.035892826 -0.08578158
0.1896796 -0.13746217 -0.0741434 0.013123958 -0.04133046 -0.18105327 0.1956452 -0.13079421
0.054145273 -0.17256874 0.20776483 -0.022143165 0.15814164 -0.13605131 0.10666023 -0.09402526
0.17775407 0.058703706 -0.1294217 -0.05190642 -0.085214905 -0.02459564 0.16301666 -0.04655886
-0.13564311 0.15841636 -0.095725104 0.20530559 0.106812276 0.14908202 -0.14678963 -0.055014048
-0.1096375 -0.11854549 -0.10857974 0.0411317 -0.014020738 -0.10275354 -0.041648436 0.102748506
-0.00948672 -0.028812615 -0.058762915 -0.21076158 -0.12558615 -0.20856397 -0.19568828 -0.17588823
0.13998252 0.07466868 -0.046679728 0.14116678 -0.0036151204 -0.05712948 0.18300743 0.12454569
0.19942343 -0.077712014 -0.027923655 -0.16229849 -0.16361955 -0.09473779 0.027765132 0.09387461
0.19374835 -0.16281429 0.032853026 0.14412656 -0.21329778 0.10406085 0.15315996 -0.21090966
0.16122171 -0.027397683 0.0050483258 0.14006354 -0.09999633 0.011035061 -0.09350401 -0.21439064
-0.20402807 0.19933219 0.057537682 -0.19126952 -0.0073184064 0.15668932 0.05232118 -0.06579161
-0.049048476 -0.0036851417 -0.12521362 0.19577104 -0.061882775 0.06583094 0.08285467 -0.02312261
0.086752795 0.0864452 -0.1386315 -0.13087434 0.15393378 -0.19821276 0.213392 -0.17934707
0.07081219 -0.014698988 0.060224846 -0.033612628 0.1609031 0.20294213 0.19095114 -0.14552851
-0.0036580674 0.16031708 0.0349452 -0.080942005 0.0038662732 -0.11751935 0.21419743 0.20807528
0.089268714 -0.038370673 0.21332604 -0.1518171 0.042701647 0.16600983 -0.024124203 -0.008195931
-0.07502903 0.17371257 0.06230484 0.035991907 0.06412075 0.048537087 -0.026290167 0.147592
-0.19227162 -0.20376089 0.15454254 -0.16178054 0.08292016 0.1451293 0.18645838 0.21406022
-0.121280655 -0.015225141 -0.04073808 0.11677722 -0.2038633 0.14358294 -0.08773738 0.025843095
-0.028260909 0.13852775 0.04191727 -0.13877763 -0.01148389 -0.023552366 -0.016102538 -0.11857078
0.15584736 0.10785449 -0.03907509 -0.117293514 0.13672978 0.21212435 0.17178206 0.0024080328
0.20755763 0.005989678 -0.16787452 0.035455946 -0.0019626885 0.027386764 -0.19163857 -0.07488241
0.028521948 -0.15829436 0.16297604 0.046791147 0.15649982 0.13961735 0.12277996 0.17510934

layers.2.bias f4 [64]
00000000: 0000 0000 0000 0000 0000 0000 0000 0000
00000010: 0000 0000 0000 0000 0000 0000 0000 0000
00000020: 0000 0000 0000 0000 0000 0000 0000 0000
00000030: 0000 0000 0000 0000 0000 0000 0000 0000
00000040: 0000 0000 0000 0000 0000 0000 0000 0000
00000050: 0000 0000 0000 0000 0000 0000 0000 0000
00000060: 0000 0000 0000 0000 0000 0000 0000 0000
00000070: 0000 0000 0000 0000 0000 0000 0000 0000
00000080: 0000 0000 0000 0000 0000 0000 0000 0000
00000090: 0000 0000 0000 0000 0000 0000 0000 0000
000000a0: 0000 0000 0000 0000 0000 0000 0000 0000
000000b0: 0000 0000 0000 0000 0000 0000 0000 0000
000000c0: 0000 0000 0000 0000 0000 0000 0000 0000
000000d0: 0000 0000 0000 0000 0000 0000 0000 0000
000000e0: 0000 0000 0000 0000 0000 0000 0000 0000
000000f0: 0000 0000 0000 0000 0000 0000 0000 0000
0.0 0.0 0.0 0.0 0.0 0.0 0.0 0.0
0.0 0.0 0.0 0.0 0.0 0.0 0.0 0.0
0.0 0.0 0.0 0.0 0.0 0.0 0.0 0.0
0.0 0.0 0.0 0.0 0.0 0.0 0.0 0.0
0.0 0.0 0.0 0.0 0.0 0.0 0.0 0.0
0.0 0.0 0.0 0.0 0.0 0.0 0.0 0.0
0.0 0.0 0.0 0.0 0.0 0.0 0.0 0.0
0.0 0.0 0.0 0.0 0.0 0.0 0.0 0.0

output_layer.weight f4 [2, 64]
00000000: e5aa ecbb 3afe 4bbe aedd 0bbd 8d4e 00be
00000010: 7c0b f2bd dfe1 3fbe b90a 85bc b155 20be
00000020: 67aa b0bc a79c 953e 788d f93d 9d4a 98be
00000030: 47c1 98be e552 1c3e 7cbd 90bc 7961 b9bd
00000040: 54f7 bb3d f3e8 ec3d 42eb 903d 69ab 4ebe
00000050: 5cc8 763e d6a2 28be 5b36 73bd df3e 92bd
00000060: 7e63 1abe ccbd bd3d 9152 943e 0ed3 6c3e
00000070: 11fe 9cbd 6d56 9bbd 488a c9bd fc73 4cbe
00000080: 2f98 f6bc 108a 8abd 9220 fbbd 4547 473d
00000090: 470b 47be d115 a0bd ea9b 1fbd 3d7a 4ebe
000000a0: 8d65 483c 5ab2 5bbe a635 34bb bfc4 3ebe
000000b0: 3a0b f6bd 8ff2 f33d ef6d 91be 8d3d 3cbe
000000c0: 3c04 d8bd 12eb 2ebd 11b6 97be f148 453e
000000d0: e639 7c3d fa42 2e3d 1123 413e 6921 913e
000000e0: e771 133c 9f82 643e d515 9d3d d262 34be
000000f0: 73c2 bc3d a06e 0fbe 7122 16be 5685 3fbe
00000100: b7c0 613e d091 903e b40e a43d df6a 79be
00000110: d228 8fbe a52a 30be 0fbc 99be cd60 4bbe
00000120: 5d26 333e ce41 8fbd cddb 1c3e 7019 21bd
00000130: 176e f73d 77e0 813e 36c8 2f3e 4b54 4ebe
00000140: 2e55 ad3d e26a 0d3e 7b8b 1b3e 1c9f 4abd
00000150: 2f93 94bd 7c85 73be 8063 c03c e349 00be
00000160: 3e17 de3c ed78 06be c609 d83d 67a3 8fbd
00000170: 0ba7 aebd 34e7 903d 51a9 843e d603 813e
00000180: b555 8d3e bfee e8bd 1002 94bd 3fcc 613e
00000190: 1229 353e b8cc 223e 4dab 2dbe 75b0 183d
000001a0: 9843 bdbc 07e3 563e 8b8b dabc a19d 12be
000001b0: 8285 4fbe 669a f1bd dd67 f3bd 35de 3c3e
000001c0: 53a8 863e 7635 773d 211c 61be 368a 9bbd
000001d0: eadb 90be 438a 053e f1d5 51be 0310 07be
000001e0: 7163 8a3e 2694 92be bdee 8cbe af23 7d3e
000001f0: 9b9e 86be 7361 c0bd f38c e0bc b5c0 66bc
-0.0072225207 -0.19921198 -0.034146957 -0.12529965 -0.11818597 -0.18738507 -0.016240465 -0.15657689
-0.02156563 0.2922108 0.12185186 -0.29744425 -0.2983496 0.15265997 -0.017668478 -0.090517946
0.091780335 0.11567869 0.07076122 -0.20182575 0.24099869 -0.16468367 -0.05937801 -0.07140898
-0.15077016 0.092647165 0.28969243 0.23127386 -0.07665647 -0.07584844 -0.09840828 -0.1996612
-0.030101864 -0.067646146 -0.12262072 0.048651952 -0.19437896 -0.07816661 -0.03896705 -0.20163818
0.012231243 -0.21454754 -0.0027497797 -0.1862974 -0.1201386 0.11911499 -0.28404185 -0.18382855
-0.10547683 -0.04270465 -0.29631093 0.19266106 0.061578654 0.042544343 0.18861033 0.28345802
0.008999324 0.22315453 0.0767018 -0.17615822 0.09216776 -0.14007044 -0.14661576 -0.18703207
0.22046171 0.28236246 0.08010617 -0.24357174 -0.2796083 -0.17203768 -0.3002629 -0.19861145
0.17495103 -0.06994973 0.15318222 -0.0393309 0.12081545 0.25366566 0.17166218 -0.20149343
0.08463512 0.13810304 0.15189926 -0.049468145 -0.072546355 -0.23781389 0.023484945 -0.12528186
0.027110692 -0.13132067 0.10548739 -0.070135884 -0.08527955 0.070753485 0.25910428 0.2519824
0.27604452 -0.11373662 -0.07226956 0.2205057 0.17691448 0.15898407 -0.16959877 0.037277658
-0.02310352 0.20985042 -0.026677867 -0.14317943 -0.20265773 -0.11797027 -0.11885045 0.1844414
0.26300296 0.06035372 -0.21983387 -0.07594721 -0.2829278 0.13041024 -0.20491768 -0.13189702
0.27028993 -0.28628653 -0.27525893 0.24720643 -0.2629288 -0.09393587 -0.02741096 -0.014084031

output_layer.bias f4 [2]
00000000: 0000 0000 0000 0000
0.0 0.0

layers.0.weight f4 [64, 4]
00000000: 80f0 8e3e ea81 7cbe 2d89 213e 4905 e93d
00000010: 26d9 45be 68a9 483e 19e0 53bd f438 8abc
00000020: 4c4f c1bd e536 943d 38d9 e63d b688 593e
00000030: b2ba 3abe 5d82 653e 5e05 b83c a46f 60bd
00000040: b86f 0dbe ae4f 8abe a0e6 cbbc 1586 1abe
00000050: 51a2 33bd 6888 90be fd3e 1a3e aada 8bbe
00000060: ea3e 413e e621 88be de4e 64be 03a6 5d3e
00000070: f6d1 46be 07e6 97be fa7f 7b3e b996 5fbd
00000080: 098b 53bd 1ad9 9ebd 54a0 483e 929d 2ebe
00000090: 6ff4 d7bd 4c0f 2e3e 2952 963e 49b2 6c3e
000000a0: ab0a efbd 395c ef3c a13e 1e3e d672 ea3d
000000b0: 47da 763d dd0f 213d 56af 0dbd 61e4 603d
000000c0: 5f69 2fbd 02c3 73be 0748 34bd 38c7 94be
000000d0: 57bb ce3c 63f3 3ebc 6f84 043e c12b ee3d
000000e0: baea acbc 44cf 92be e9c4 f0bc 22a9 8e3e
000000f0: 61b0 853e 63b3 163e 5f90 48be 7e4d 653e
00000100: 4a62 843e e1fe 78be 851c 6c3e 00e7 643d
00000110: 4485 88be 8b8f 9fbd 59e7 1a3e 3175 113e
00000120: 734d e43d 87e5 1abe fc24 943e d556 4cbd
00000130: 8f1b 96be b0bd 563d b358 17be 1f57 643d
00000140: a68e 79bc c29b 443e 7ee4 483e 5c23 abbd
00000150: 9203 49be b899 393e 216f 24be 6217 09be
00000160: 2f16 e33d 81a2 383e 1aa5 2d3e 939c 8f3e
00000170: b778 d2bd bed2 c0bc ff1e df3d 6153 5a3e
00000180: 275d 38be 4fae 363e 3cdd fabd b8f4 8e3e
00000190: b52f d9bd 25e6 723e 65ac 0cbe 4f12 f1bd
000001a0: 4d1d 123d 0c9f 94be 3844 a6bd 87e9 b4bd
000001b0: 81e5 8e3e b277 f1bd a117 af3d f931 903d
000001c0: e9aa 84be f65e 92be cda1 473e 3cf4 23be
000001d0: cbf3 efbc 0dea 8f3e 48b1 5d3d da2c debb
000001e0: d810 793e 3ff1 a63d e14d c93d db16 9dbd
000001f0: 9ff0 873e 4027 883c 9932 31bd 8b0e 8e3e
00000200: 6baa 96be 15d1 7abe c25a 88be 5a48 1d3b
00000210: 7c79 cf3d 6467 d7bd 20ba 2e3e 203c 1b3e
00000220: b098 46bd 9ab7 bb3c 2798 6c3e 835c 6cbe
00000230: 5649 423e 3637 d8bd 3219 c2bc 12ff 82be
00000240: d059 08be 524a 493e 6b0a 69be 6ca4 50bc
00000250: 9984 88bd b825 7e3d 35af 04be 5e96 5bbe
00000260: dc74 82be 0fdf 7dbc 3ca3 26bd c04b 90be
00000270: 79d6 a6bd 5627 e9bd 60e9 973e 263b edbc
00000280: dcd8 ce3d 7a9b 91be 9e0e 363d 05d8 203d
00000290: 5b08 4dbd ca6b 583e 01d0 aebd 26ed 96be
000002a0: 4ffc e6bb eb73 3e3e c6e5 b0bd af4d 9c3d
000002b0: f755 fabd 63ca db3d bf60 1dbd 19a0 553e
000002c0: 0670 4a3e 13aa 1fbd 56b0 dcbc 24ec 36bd
000002d0: 57f2 073e efac 14be 93b2 153e 6dc4 17be
000002e0: aa2e 503e 1856 fb3c 7dae babd efe9 8fbe
000002f0: 67e3 733e 8ea9 f23d c8b3 003e e3b1 cfbc
00000300: b852 50be 7f99 33be 20a8 843d 5c07 a13d
00000310: 74db 83be 4253 3f3d 7db6 8bbd 31a4 553e
00000320: 5155 1bbd 5551 883e 389c 3abe af50 b3bd
00000330: 9dcf f3bc 7104 563e 2b2a 873e 98bc 263e
00000340: 6284 9abd 9886 803e 88d5 37be 1a5f 90be
00000350: 1dcc 1cbe fcd7 e33d 821d 413e d65f a3b8
00000360: cf51 6a3e 0e6a 1bbe 62b9 65bd b308 3a3e
00000370: 2527 3d3e 5391 39bd b95f 23bd 2027 e0bd
00000380: d05d 253e b08e 41be 6e78 363e 991c 113e
00000390: 587e 56be aa69 623e 0e27 1b3d f91e e1bc
000003a0: c1d2 94be 776c 8a3e 1ae2 00be 722d 8a3c
000003b0: 12ee ff3d d7cb e93d 103c 863e 8a8e 9a3d
000003c0: 1537 3bbe 61c7 2cbe b389 a33d 21d8 973e
000003d0: ec52 13be 8451 84be f99f 463e e8bb 813d
000003e0: 9c3a 293d f32e 893b 0411 853e 99af 81bd
000003f0: 337f ff3d ef51 02be 80af a83d fb93 83be
0.27917862 -0.24658933 0.15774985 0.11377961 -0.19321117 0.19595873 -0.051727388 -0.01687286
-0.09438953 0.07237033 0.112719 0.21243557 -0.18235281 0.22413011 0.022463497 -0.05479397
-0.13812149 -0.27013916 -0.024890244 -0.1509021 -0.04385597 -0.2822907 0.1506309 -0.27315265
0.18871656 -0.26588362 -0.2229571 0.2164536 -0.19416031 -0.29667684 0.24560538 -0.0545871
-0.051646266 -0.077562526 0.1959241 -0.17052296 -0.10544669 0.16998023 0.29359558 0.23114885
-0.11671957 0.02921878 0.15453579 0.114476845 0.06026676 0.03932177 -0.03459104 0.0549053
-0.0428251 -0.23804858 -0.044014003 -0.29058242 0.025235815 -0.011654708 0.12941144 0.11629439
-0.02110802 -0.28673756 -0.02939077 0.27863413 0.2611113 0.14716868 -0.19586323 0.22392842
0.2585624 -0.24315979 0.23057754 0.05588436 -0.26664174 -0.077910505 0.15127315 0.14204861
0.11147585 -0.1512662 0.28934467 -0.049887497 -0.293179 0.052426994 -0.1477993 0.055747148
-0.015231764 0.19200042 0.19618413 -0.08356354 -0.19630268 0.18125045 -0.16058017 -0.13387826
0.110882156 0.1803074 0.16957512 0.28049144 -0.10276931 -0.02353799 0.10894584 0.21320869
-0.18004285 0.17839931 -0.12249228 0.2792108 -0.106048025 0.23720606 -0.13737638 -0.1177107
0.035672475 -0.29027593 -0.081184804 -0.08833604 0.27909473 -0.11790408 0.08549429 0.070407815
-0.25911644 -0.28588074 0.19495316 -0.16011137 -0.029291054 0.28108254 0.054124147 -0.006780249
0.24322832 0.08151483 0.09829307 -0.07670375 0.26550767 0.016620278 -0.043261144 0.2774547
-0.29426894 -0.24493821 -0.26631743 0.0023999424 0.10130593 -0.10517767 0.17063189 0.15159655
-0.048485458 0.022914696 0.23104917 -0.23082165 0.18973288 -0.10557406 -0.023693655 -0.25585228
-0.13315511 0.19657257 -0.2275788 -0.012734514 -0.06665916 0.06204769 -0.12957461 -0.2144408
-0.25479782 -0.015495076 -0.040683016 -0.28182793 -0.08146376 -0.11384456 0.29670238 -0.028958868
0.100999564 -0.28438932 0.044447534 0.039268512 -0.050056797 0.21134868 -0.08535767 -0.29477805
-0.0070491205 0.18598907 -0.08637576 0.076320045 -0.12223428 0.107319616 -0.038422342 0.20861854
0.19769296 -0.038980555 -0.026939552 -0.044658795 0.13276039 -0.14519094 0.14618902 -0.14821024
0.20330301 0.030680701 -0.09115312 -0.28108165 0.23817216 0.11848746 0.12568581 -0.025353378
-0.20344055 -0.17539023 0.0647738 0.07862732 -0.25753367 0.04671026 -0.06821916 0.20863415
-0.03792316 0.2662455 -0.18223655 -0.087556235 -0.029762084 0.20900132 0.2639936 0.1628288
-0.07544781 0.25102687 -0.1795255 -0.28197557 -0.15312238 0.1112518 0.18858913 -7.7902965e-05
0.2288277 -0.15177175 -0.056084998 0.18167381 0.18471964 -0.045304608 -0.03988621 -0.109449625
0.16149068 -0.18902087 0.17819378 0.14171065 -0.20946634 0.2211062 0.037879042 -0.02748059
-0.29067042 0.27035877 -0.12586251 0.016867373 0.1249658 0.114158325 0.262177 0.075467184
-0.18282731 -0.16872932 0.079852484 0.2965708 -0.14387101 -0.2584344 0.19396962 0.063346684
0.04131566 0.004186505 0.25989544 -0.06332321 0.12475433 -0.12726568 0.08236599 -0.25698838

layers.0.bias f4 [64]
00000000: 0000 0000 0000 0000 0000 0000 0000 0000
00000010: 0000 0000 0000 0000 0000 0000 0000 0000
00000020: 0000 0000 0000 0000 0000 0000 0000 0000
00000030: 0000 0000 0000 0000 0000 0000 0000 0000
00000040: 0000 0000 0000 0000 0000 0000 0000 0000
00000050: 0000 0000 0000 0000 0000 0000 0000 0000
00000060: 0000 0000 0000 0000 0000 0000 0000 0000
00000070: 0000 0000 0000 0000 0000 0000 0000 0000
00000080: 0000 0000 0000 0000 0000 0000 0000 0000
00000090: 0000 0000 0000 0000 0000 0000 0000 0000
000000a0: 0000 0000 0000 0000 0000 0000 0000 0000
000000b0: 0000 0000 0000 0000 0000 0000 0000 0000
000000c0: 0000 0000 0000 0000 0000 0000 0000 0000
000000d0: 0000 0000 0000 0000 0000 0000 0000 0000
000000e0: 0000 0000 0000 0000 0000 0000 0000 0000
000000f0: 0000 0000 0000 0000 0000 0000 0000 0000
0.0 0.0 0.0 0.0 0.0 0.0 0.0 0.0
0.0 0.0 0.0 0.0 0.0 0.0 0.0 0.0
0.0 0.0 0.0 0.0 0.0 0.0 0.0 0.0
0.0 0.0 0.0 0.0 0.0 0.0 0.0 0.0
0.0 0.0 0.0 0.0 0.0 0.0 0.0 0.0
0.0 0.0 0.0 0.0 0.0 0.0 0.0 0.0
0.0 0.0 0.0 0.0 0.0 0.0 0.0 0.0
0.0 0.0 0.0 0.0 0.0 0.0 0.0 0.0

layers.2.weight f4 [64, 64]
00000000: 363f 58bd 7a70 abbd a424 43be ccd7 75ba
00000010: 6cf2 a13c 1676 2fbd 0e99 1ebd 111c 1d3e
00000020: 4f66 833d 3e41 31bc bb6d 5b3e 88c1 3cbe
00000030: eb39 99bd d887 763d e95a 80bd 25c1 033e
00000040: 8637 21bc dbc5 f0bd 3f43 d1bc 7eb0 b53b
00000050: ae99 5fbc 9848 12be 8372 56be 01ad 52bd
00000060: 2d07 293e 0fe8 353e c34d 49bd d4c1 febd
00000070: d250 bcbc 9ebd 1b3e 9ef5 5c3e 0a37 4b3e
00000080: e9b4 4b3c 27f6 0e3d 0c2c 553d 441e 013d
00000090: ed0c a9bd 325b 4abe 9ce9 2d3e 4b2c 133e
000000a0: e0b4 20be 5f89 39be 1163 3bbe 6b94 2dbe
000000b0: f00c 52be 009d 4abe 61b5 713d 70b9 073e
000000c0: 00cc f3bd f971 483e 77a4 e73d cf76 223e
000000d0: 384d 15be ce7a 413e a5e6 adbd 0936 213e
000000e0: 8c4b 1bbd 7deb 593d 484b 8a3c 0928 933d
000000f0: 5a8c 4a3d 5e9c 75bd 84fb a4bd e98b 903c
00000100: 8629 a53d 12b3 edbd 6431 e9bd 1cbc 11be
00000110: d9da 11bd 1af7 573e bc10 5dbe 0a31 30bd
00000120: aee7 39be b55c 793d 8325 e2bd 695b ea3d
00000130: f6d4 46be bd59 5a3e adfa 19be 2c7b 42be
00000140: 906d 173e 3474 11be 5d61 3ebe fd25 003d
00000150: c48c 01bc 79f5 4cbd b16c 85bd eecc 3d3e
00000160: 20a1 eabd dd29 a8bd 3e24 c6bd fb76 663d
00000170: 3b7d 363e c633 403e 2815 d8bd dc03 3ebe
00000180: 311a 26be 9816 403e 12ca a93d 56c4 cbbd
00000190: 202a c8bc c649 c5bd f91a 503e 0f90 40bd
000001a0: a3d1 0d3e 92bb 373e 05d3 4ebe 8d18 dd3d
000001b0: 13e8 edbd 9cfe fb3c 672e 10be 4fa8 26bc
000001c0: a7d4 d03d 2b86 b33d 1578 023d 648f 56bd
000001d0: 6f3a be3d ed10 843d 239b 25bd 2248 f0bd
000001e0: c130 d7bd 74c3 0a3e ec24 f53d 0feb 14bd
000001f0: c36a 4cbe d01b 133e f830 0e3e 39d5 e2bd
00000200: 0b58 093e 00b3 02be 9b44 16be 77e9 0e3e
00000210: 945b c4bb 8289 5cbe 09e6 203e b5bc 5e3d
00000220: 92b4 06be b709 b03d a516 4ebe 75e6 99bd
00000230: 1058 473e e71a 5bbe 133c 42be 51e0 c83c
00000240: 1cae cf3d b976 2d3e c8e5 a1bd 626b b23d
00000250: 6715 1c3e e1ef 2e3e c436 12be 2726 41bb
00000260: 3d0e 33bd cb19 7ebd c001 5d3e d3cd afbb
00000270: 494c 44bd 1e4d 09be ca50 233e 56bd 99bd
00000280: ca27 153e f0a7 563d 4969 d13d 0da9 22be
00000290: f3bf 503e 11dd 043d 3d99 39be b878 213d
000002a0: f20e 05bb 0c1f 8d3d f71e 053c 08fd 8a3c
000002b0: 6270 51be e09e 1f3e c31a d93d 4526 4d3d
000002c0: 4804 8dbd 06b7 533e 3d32 25bd c1f7 943c
000002d0: 5061 1abd 4b8a a33d 6f5f a2bd e0a8 913d
000002e0: d484 da3d e33d 49be 001b 0abe cb6b a3bd
000002f0: 9558 a93c ae3a 233e ae8f 1e3e e1fe 283e
00000300: 54f9 9dbc 4c36 a53b b045 a8bd 06c3 603d
00000310: 0a9b dbbd a955 e53d 9c7d 203e 198a 49be
00000320: d1f5 073e 5c47 2abe 0cb1 30bc 5c13 afbd
00000330: 898c 81bd a099 15be 3829 8cbd e27d b53c
00000340: ff31 813c 4b01 5b3d fe67 c53c 0ead 9ebd
00000350: aa17 f8bd 9c73 213e 75a9 d7bd 738d 55be
00000360: fc00 c7bd 38c4 563e 7f06 143e 9a2f 09be
00000370: cee0 293e f7d7 b3bd 8a26 383e c960 f23d
00000380: 4aed c2bd f7ce 1ebe e714 20be c706 4cbd
00000390: fcb3 283e 5511 483e e0b8 2bbe f52f b3bd
000003a0: 39e7 c93d 94e6 343e b5a3 573d 66f4 fcbd
000003b0: 8941 87bc 8c58 5a3e 7a58 633c c9d3 383d
000003c0: dbf0 003e 5303 143e b848 09bc fa56 a2bd
000003d0: 2664 213e 8957 0dbe da10 583e e3df cbbc
000003e0: 02ba d73d 8cd8 46be 4c10 b9bd 5772 23bc
000003f0: 8072 783d c41e 4ebe 4cd9 7abc d925 4f3d
-0.052794658 -0.083710626 -0.19056946 -0.00093781645 0.019768916 -0.042837225 -0.038720183 0.15342738
0.06415998 -0.010818778 0.21428578 -0.18433201 -0.0748175 0.060188144 -0.0626734 0.12866648
-0.009839898 -0.11756488 -0.02554476 0.005544721 -0.01364748 -0.14285505 -0.2094212 -0.05143452
0.16506644 0.17764305 -0.049146425 -0.124393135 -0.022987757 0.15209052 0.2157807 0.19845214
0.012433269 0.034902718 0.05204396 0.031523004 -0.082544185 -0.19761351 0.16983646 0.14372365
-0.15693998 -0.18118809 -0.1829951 -0.16951148 -0.20512748 -0.19786453 0.059010867 0.13254333
-0.11904144 0.19574727 0.11310666 0.15865634 -0.14580238 0.18894503 -0.084912576 0.15743269
-0.037913844 0.053203095 0.0168816 0.071853705 0.049450256 -0.059963576 -0.08055785 0.01764484
0.080645606 -0.116064206 -0.11386374 -0.14231914 -0.0356091 0.21090356 -0.21588415 -0.043015517
-0.18154785 0.060879428 -0.11042311 0.11443216 -0.19417176 0.21323295 -0.15037031 -0.18992299
0.14787889 -0.14204484 -0.18591829 0.03128623 -0.007907096 -0.05003879 -0.06514872 0.18535206
-0.114565134 -0.0821111 -0.096748814 0.056265812 0.17821209 0.1876975 -0.1055091 -0.1855616
-0.16220929 0.18758619 0.08290495 -0.099495575 -0.02443415 -0.09633212 0.20322789 -0.047012385
0.13849501 0.17942646 -0.20197685 0.10795698 -0.1161653 0.030761056 -0.14080201 -0.010171964
0.1019681 0.08765825 0.0318528 -0.05238284 0.09288489 0.06448541 -0.040431153 -0.11732508
-0.10507346 0.13551122 0.11969933 -0.03635698 -0.19962601 0.14366078 0.13885868 -0.11075825
0.13412492 -0.12763596 -0.14674608 0.13956247 -0.0059923623 -0.2153683 0.15712751 0.054379184
-0.1315482 0.08595603 -0.20125826 -0.07514659 0.19467187 -0.21396981 -0.18968229 0.024521025
0.101406306 0.1693982 -0.079051554 0.08711888 0.1524254 0.17083694 -0.14278704 -0.0029472203
-0.04371475 -0.062036317 0.21582699 -0.0053651123 -0.047924314 -0.13408324 0.15948787 -0.07506816
0.1456596 0.05240625 0.1022516 -0.158848 0.20385723 0.032437388 -0.18124862 0.039421767
-0.0020303098 0.06890687 0.008125058 0.016966358 -0.20453027 0.1558795 0.106008075 0.050085325
-0.06885582 0.20675287 -0.040331114 0.018184545 -0.03769046 0.07985362 -0.07928359 0.071122885
0.10669866 -0.19652514 -0.13486862 -0.07979544 0.020672122 0.15940353 0.15484497 0.16503479
-0.019283928 0.005041873 -0.08216417 0.05487349 -0.10722931 0.11197979 0.15672916 -0.19681586
0.13277365 -0.16628784 -0.010784399 -0.085486144 -0.06325633 -0.14609385 -0.06843799 0.022154752
0.01577091 0.05346803 0.024097439 -0.07747851 -0.121138886 0.15766758 -0.10530368 -0.2085474
-0.09716985 0.20973289 0.14455603 -0.13397065 0.16589662 -0.087814264 0.17983451 0.118348666
-0.095179155 -0.15508638 -0.15632974 -0.04981115 0.16474909 0.19537862 -0.16769743 -0.087493815
0.09858555 0.17666084 0.052646358 -0.12351303 -0.016510742 0.2132284 0.013876075 0.04512385
0.12591879 0.14454393 -0.008379154 -0.07926746 0.1576086 -0.13802923 0.21100178 -0.024887031
0.10533525 -0.19418544 -0.090363115 -0.009975991 0.06065607 -0.20128924 -0.015310597 0.050573204

layers.2.bias f4 [64]
00000000: 0000 0000 0000 0000 0000 0000 0000 0000
00000010: 0000 0000 0000 0000 0000 0000 0000 0000
00000020: 0000 0000 0000 0000 0000 0000 0000 0000
00000030: 0000 0000 0000 0000 0000 0000 0000 0000
00000040: 0000 0000 0000 0000 0000 0000 0000 0000
00000050: 0000 0000 0000 0000 0000 0000 0000 0000
00000060: 0000 0000 0000 0000 0000 0000 0000 0000
00000070: 0000 0000 0000 0000 0000 0000 0000 0000
00000080: 0000 0000 0000 0000 0000 0000 0000 0000
00000090: 0000 0000 0000 0000 0000 0000 0000 0000
000000a0: 0000 0000 0000 0000 0000 0000 0000 0000
000000b0: 0000 0000 0000 0000 0000 0000 0000 0000
000000c0: 0000 0000 0000 0000 0000 0000 0000 0000
000000d0: 0000 0000 0000 0000 0000 0000 0000 0000
000000e0: 0000 0000 0000 0000 0000 0000 0000 0000
000000f0: 0000 0000 0000 0000 0000 0000 0000 0000
0.0 0.0 0.0 0.0 0.0 0.0 0.0 0.0
0.0 0.0 0.0 0.0 0.0 0.0 0.0 0.0
0.0 0.0 0.0 0.0 0.0 0.0 0.0 0.0
0.0 0.0 0.0 0.0 0.0 0.0 0.0 0.0
0.0 0.0 0.0 0.0 0.0 0.0 0.0 0.0
0.0 0.0 0.0 0.0 0.0 0.0 0.0 0.0
0.0 0.0 0.0 0.0 0.0 0.0 0.0 0.0
0.0 0.0 0.0 0.0 0.0 0.0 0.0 0.0

output_layer.weight f4 [1, 64]
00000000: e757 2abe ccd2 0a3c 39e0 7bbe d078 8abe
00000010: b0e9 09be 4b22 82be 2a8a c9bd 7037 673e
00000020: 8549 d9bc 7445 8e3e 0362 373e 566f c23d
00000030: 548b 17be 507c 913e 26f7 99be 9e2d 193e
00000040: 70d3 82bd a611 80be 98e1 8dbb 53ba 68be
00000050: 91e4 6d3e 0b55 db3d fd8c 993e 15e1 2e3e
00000060: fe1b 153e c27b ad3d 6b53 50be a439 9bbe
00000070: 2eaa 7c3e 1fcb 69be ee68 8b3e 18bf d63d
00000080: 103c bd3d ce6c 803e a2fd b83d d98a 87be
00000090: 7f38 70bd 7892 ffbd eece 273e 558f 83be
000000a0: f77d 76be bc8b 353e f7c4 95be 4f92 4bbe
000000b0: df6e 98bc 1b19 53be 5fad a53c 403c 90be
000000c0: bdbc 22be c741 77bd 9ff5 7e3d 140f cebd
000000d0: 8246 6bbd 2e76 f13d f293 80be ee38 9bbe
000000e0: 4f3b 7a3d 3589 153e c43b 853e c1aa 973d
000000f0: 459f 503e 2e53 67be a707 15be f418 423d
-0.16635095 0.008473109 -0.24597253 -0.27045298 -0.13468051 -0.25416788 -0.09840806 0.22579741
-0.026524315 0.27787364 0.17908482 0.09493892 -0.14799243 0.28415155 -0.30071372 0.14958808
-0.06387985 -0.25013465 -0.0043298714 -0.22727327 0.23231722 0.1070958 0.29990378 0.1707805
0.1456146 0.084708706 -0.20344321 -0.30317414 0.24674293 -0.22831391 0.27228492 0.10485667
0.09239972 0.2508301 0.090327516 -0.2647312 -0.05864763 -0.124791086 0.16387531 -0.2569529
-0.2407149 0.17729086 -0.29251835 -0.19880031 -0.018607555 -0.20615046 0.020224271 -0.28170967
-0.1589231 -0.060365465 0.06224596 -0.1006147 -0.05744029 0.11790119 -0.25112873 -0.3031687
0.061091717 0.14603122 0.2602216 0.074056156 0.20373257 -0.22590324 -0.145537 0.04738708

weight f4 [64, 4]
00000000: b2ab 493e afa1 923e aa4e 423e 771a 6fbd
00000010: 9d25 92be 4bf1 383e 3bc8 cc3c 3c2b f8bc
00000020: ef06 1bbd daa0 83bd 9a89 923e dd3d adbd
00000030: 7644 4fbd 73f4 5abe 22c8 cdbd cab2 27be
00000040: 9ff8 2a3d 4e6f 63be 8786 8b3e 2a7f 253d
00000050: 5f77 023e 010e 463e 10ca 1ebd d85d 833e
00000060: df0c 273d 4bcf 64be 633f c1bd 526a 58bc
00000070: f517 55be 77e6 2abe 3f2b 5d3e e704 4fbe
00000080: 2806 ffbd f6c7 6cbe 3320 563e 9a62 0e3c
00000090: a3a7 cf3d 5882 68be f697 4c3e 6a85 c1bd
000000a0: 6ec9 19bd 6c31 573e bcf3 52be f225 4ebe
000000b0: fa7e 913d e330 49be 158c 86be 1b40 923e
000000c0: bcb5 0ebe 8b06 33be 5699 3c3e 2e15 463e
000000d0: cf20 a73d fb17 95be a54f 3e3d 3e78 e4bd
000000e0: 37f7 0e3e 2ed3 43be bfee 2fbc 4dde 833d
000000f0: dfbc 8c3c 0d19 db3d 4f90 963e 3df0 10be
00000100: 071d 95be 8629 523e 6793 87be ca73 7d3e
00000110: b6be cbbd 5c86 103e 580c 90be f40a 93bd
00000120: 6227 7e3e 5770 74be 040b 31bc 9983 50bd
00000130: 2623 6bbe 7415 a5bc bc02 05be 1564 76be
00000140: f93d 57be 3762 97be 3b07 c5bc 06e9 45be
00000150: 4702 18be 9001 87be 460f 61be a3b8 7ebe
00000160: b9fa 383d dace 043e 2a4e 61be fc06 3a3e
00000170: 8477 203e 5359 46be 61b4 3e3d 509f 95be
00000180: 52ea e0bc c4b6 8b3d cc22 893e 48b8 8dbe
00000190: 1955 3abe 78f0 df3d 0dbd 8e3c e5d7 b8bd
000001a0: bff0 933e cc66 55be 4d19 b93d 9710 f43d
000001b0: ff86 8c3d 3adb 7abd 691b 21bb dc2b 83be
000001c0: 3e59 aebd a9c6 45be 52bd 13be 6020 53be
000001d0: 975e b83d 56f9 713e a18c 583e e811 4b3d
000001e0: b5fd 7cbe 3232 3c3e 7018 02be 7eab 2c3e
000001f0: d457 95bc d03e 2cbe 0984 04be e188 993d
00000200: 46f1 78be 1b85 ef3d 868f 663e 365d 3abd
00000210: a67d 9ebc 6d5e 5a3e edd7 373e 1395 003d
00000220: b1a6 ef3d 4dca 823e 0943 73bd 5565 80be
00000230: f668 05be ee98 363e 20b3 70be 4100 f93d
00000240: 3ff2 2e3e 6329 4c3e a6ce a3bd b7ff 6bbe
00000250: bfb7 02bd bfad 1a3e 12e3 2b3e b4d5 b93d
00000260: 2932 be3c ce26 37be 781e 94be 5cf1 84be
00000270: 1879 9bbd 0b4a 87be 672d a53d 44db 5fbc
00000280: 638b 1ebe 00f4 af3d fc51 93be 8f1b 503e
00000290: 9331 97be 4444 f7bd 7a52 b53d 8f87 86be
000002a0: 4928 68bd 20ae 8cbe c672 593e e4ed 61be
000002b0: 4574 493e 862e e3bc eff5 d8bc 5b62 39be
000002c0: 8072 c63d a001 a03d 08b4 d1bd b0e6 feba
000002d0: 51ef 523e df00 333d 9283 8ebe 04cb d6bd
000002e0: b784 e5bd bc28 573e 8016 16be 307e 2ebd
000002f0: 156c 7e3d 9a03 6a3e d690 313e b75a 543e
00000300: 1777 6f3e 489b 48be f446 763e b8fd 8ebe
00000310: 41f1 8e3c 6397 7bbe 0386 fa3d 6d25 6b3e
00000320: 96b8 2dbe 32a0 343e 67d2 c73d 3287 083d
00000330: 3830 7e3e 5be8 d43c d542 193e 44c3 6ebe
00000340: 1d49 953e 3b83 623e 4f94 40be 2785 153e
00000350: 898c 0f3c 6788 663e 97ce 95be 28a2 01bd
00000360: e1e6 6abe cbcc 6dbe d0a1 4ebe 1489 3abe
00000370: 6902 d9bd fe1c 1dbe 1be0 973d 5889 3e3d
00000380: 855a d43c 2856 9fbd 22d9 8fbe 5497 05be
00000390: 4b7a 81be 6916 b83d 0fa2 7cbe 4ad3 903e
000003a0: 3c89 60be 2e7d 693c ced9 293e 1efa db3d
000003b0: 776e 08bc 24ff 733d 918c 91be e128 5b3e
000003c0: 71dd 003c 1ef0 2fbd 0539 92be ec87 3cbe
000003d0: b995 61be 6233 96be 92f6 313c 4ec3 933e
000003e0: f165 fd3d 5dcc 943b ac69 1cbe c868 4e3e
000003f0: e190 e33d 04e5 f43d de28 81be 0c95 87be
0.19694403 0.2863898 0.1897532 -0.05837485 -0.28544322 0.18060796 0.024997821 -0.030294053
-0.03784841 -0.064271644 0.28620607 -0.08459065 -0.0506024 -0.21382312 -0.10047938 -0.16376796
0.04174101 -0.22210428 0.27251074 0.040404476 0.12740849 0.1934128 -0.03876692 0.25657535
0.04078376 -0.22344701 -0.09435918 -0.0132089425 -0.2080992 -0.16689478 0.21598528 -0.20216714
-0.12452346 -0.23123154 0.2091072 0.008690501 0.10139396 -0.22705972 0.19979843 -0.09449275
-0.037545614 0.21014947 -0.2060079 -0.20131662 0.07104297 -0.19647555 -0.2627875 0.28564534
-0.13936514 -0.17482965 0.18417868 0.19344017 0.081605546 -0.29119858 0.046462674 -0.11155747
0.13961492 -0.19123527 -0.010738074 0.06438885 0.017179905 0.106981374 0.29406974 -0.14154144
-0.2912371 0.20523652 -0.26479647 0.24751201 -0.099484846 0.14113754 -0.28134418 -0.071798235
0.24819711 -0.23870979 -0.010805849 -0.05090675 -0.22962627 -0.020151831 -0.12989324 -0.24061616
-0.21019734 -0.2956712 -0.0240513 -0.19327173 -0.14844619 -0.2636838 -0.21978483 -0.24875121
0.045160983 0.12969533 -0.22002473 0.18166727 0.15670592 -0.19370012 0.04655874 -0.29223108
-0.027455483 0.06821969 0.2678436 -0.27679658 -0.18196525 0.10934538 0.01742413 -0.090255536
0.28894612 -0.20839995 0.09038029 0.11917227 0.06861686 -0.061244227 -0.0024582988 -0.256194
-0.08513115 -0.19314064 -0.14427689 -0.20617819 0.090024166 0.2363027 0.21147396 0.049577624
-0.24706157 0.18378523 -0.12704635 0.16862294 -0.018230356 -0.16820836 -0.12940992 0.07496811
-0.24310789 0.1169531 0.22515687 -0.04549905 -0.019347023 0.21325083 0.17953463 0.03139217
0.11701716 0.25544968 -0.0593901 -0.2507731 -0.1302832 0.17831776 -0.23505831 0.121582516
0.17084597 0.19937663 -0.079983994 -0.23046766 -0.031913515 0.15105341 0.16785839 0.09073964
0.023217278 -0.17885897 -0.28929496 -0.25965393 -0.07591456 -0.26423678 0.080653004 -0.013663117
-0.1548286 0.08591461 -0.28773487 0.20323013 -0.2953001 -0.120735675 0.08853622 -0.26275298
-0.056679044 -0.27476597 0.21235189 -0.22063404 0.1967326 -0.027732145 -0.026484458 -0.18103926
0.09689808 0.0781281 -0.10239416 -0.0019447412 0.20599104 0.043702003 -0.27834755 -0.10487941
-0.11206954 0.21011633 -0.1465702 -0.04260081 0.062114794 0.22852936 0.17340407 0.2073773
0.23385273 -0.19590485 0.24050504 -0.27927947 0.017449023 -0.24569468 0.12232592 0.22963496
-0.16964945 0.17639235 0.09756928 0.033332057 0.24823081 0.025989702 0.149669 -0.23316675
0.29157344 0.22120373 -0.18806575 0.14601575 0.008761534 0.22512971 -0.29259178 -0.031648785
-0.22939636 -0.23222654 -0.20178914 -0.18216354 -0.10596163 -0.15343091 0.074157916 0.0465177
0.02592207 -0.07780105 -0.28095347 -0.13046008 -0.25288615 0.089886494 -0.24671195 0.282862
-0.21927351 0.014251037 0.16586992 0.107410654 -0.008327118 0.059569493 -0.28427556 0.21402313
0.007865296 -0.042953603 -0.28559127 -0.18411225 -0.22029771 -0.29336077 0.01086201 0.28859943
0.123729594 0.0045409636 -0.15274686 0.20157158 0.11111618 0.11957744 -0.25226492 -0.264809

bias f4 [64]
00000000: 0000 0000 0000 0000 0000 0000 0000 0000
00000010: 0000 0000 0000 0000 0000 0000 0000 0000
00000020: 0000 0000 0000 0000 0000 0000 0000 0000
00000030: 0000 0000 0000 0000 0000 0000 0000 0000
00000040: 0000 0000 0000 0000 0000 0000 0000 0000
00000050: 0000 0000 0000 0000 0000 0000 0000 0000
00000060: 0000 0000 0000 0000 0000 0000 0000 0000
00000070: 0000 0000 0000 0000 0000 0000 0000 0000
00000080: 0000 0000 0000 0000 0000 0000 0000 0000
00000090: 0000 0000 0000 0000 0000 0000 0000 0000
000000a0: 0000 0000 0000 0000 0000 0000 0000 0000
000000b0: 0000 0000 0000 0000 0000 0000 0000 0000
000000c0: 0000 0000 0000 0000 0000 0000 0000 0000
000000d0: 0000 0000 0000 0000 0000 0000 0000 0000
000000e0: 0000 0000 0000 0000 0000 0000 0000 0000
000000f0: 0000 0000 0000 0000 0000 0000 0000 0000
0.0 0.0 0.0 0.0 0.0 0.0 0.0 0.0
0.0 0.0 0.0 0.0 0.0 0.0 0.0 0.0
0.0 0.0 0.0 0.0 0.0 0.0 0.0 0.0
0.0 0.0 0.0 0.0 0.0 0.0 0.0 0.0
0.0 0.0 0.0 0.0 0.0 0.0 0.0 0.0
0.0 0.0 0.0 0.0 0.0 0.0 0.0 0.0
0.0 0.0 0.0 0.0 0.0 0.0 0.0 0.0
0.0 0.0 0.0 0.0 0.0 0.0 0.0 0.0

weight f4 [64, 64]
00000000: b2c5 243e 1686 193e 9961 103e d7cd 1d3e
00000010: 5a7f 5c3e 03a5 15be 53d7 153e 8727 49be
00000020: c359 42be e45d 1ebe 120f d13c dcb6 343c
00000030: f5d5 903c 35c6 373d 5830 0bbe b077 16be
00000040: 5cac b9bd 0d4c 593e 4acf 663d fd95 313e
00000050: 6de9 a7bd 1742 9c3d 01d1 41be 8de0 e83d
00000060: ea85 e5bd e6fd 2cbe 105d 7cbc a298 b23d
00000070: 94a9 15be 2175 843d 9114 b0bd 0b65 263e
00000080: 89e8 e0bd a9fa 99bd 8ce9 58be cfff cebd
00000090: 45f6 5bbb 8bb8 113e c171 833d 4354 df3d
000000a0: 31a4 3ebe 5da4 0c3e 4148 753c cf03 d83d
000000b0: ec89 56bd 9312 2abe 4d2d aa3c 6c6a 8b3c
000000c0: 7adc 16be 618b f73d b51c ff3b 8084 30bd
000000d0: a671 c7bd 9063 98bd 06ad d3bd b31c 4cbd
000000e0: d701 e1bd bf11 3dbe 21d9 fe3d c582 2bbe
000000f0: 324c f33d ee28 253d 8233 3ebe 797e e0bd
00000100: 5caa 54bc 271f a63d 6ee1 c63d 3b8a 853d
00000110: 4295 77bc 97e0 57be 5b04 13bd 41ae afbd
00000120: 5e3b 423e e2c2 0cbe 7fd8 97bd df05 573c
00000130: 214a 29bd 0766 39be 3757 483e ebee 05be
00000140: 6fc7 5d3d dcb5 30be 4ec0 543e 9565 b5bc
00000150: e2ef 213e 0951 0bbe ae70 da3d 5190 c0bd
00000160: 2a05 363e 4c73 703d 1f87 04be d49b 54bd
00000170: 2785 aebd cc7c c9bc d7ed 263e 81b4 3ebd
00000180: 07e6 0abe e637 223e 860b c4bd a13b 523e
00000190: 65c0 da3d f5a8 183e 0550 16be 6956 61bd
000001a0: a089 e0bd fac7 f2bd 0e5f debd b779 283d
000001b0: 3db7 65bc 7370 d2bd 8d97 2abd cf6d d23d
000001c0: 306e 1bbc 6f08 ecbc 62b1 70bd e2d1 57be
000001d0: a899 00be cb91 55be 8262 48be 0b1c 34be
000001e0: 9457 0f3e e5eb 983d 3e33 3fbd 068e 103e
000001f0: a8eb 6cbb 9a00 6abd 4d66 3b3e d011 ff3d
00000200: a835 4c3e 7a27 9fbd 26c0 e4bc 9331 26be
00000210: e28b 27be e305 c2bd b473 e33c 5541 c03d
00000220: f865 463e cab8 26be e590 063d ea95 133e
00000230: bc6a 5abe db1d d53d f7d5 1c3e b4f8 57be
00000240: 4e17 253e 1b71 e0bc 6d6c a53b d16c 0f3e
00000250: e0ca ccbd 67cc 343c 087f bfbd 3889 5bbe
00000260: bcec 50be bd1d 4c3e a2ac 6b3d 28dc 43be
00000270: 3ecf efbb 2a73 203e bc4e 563d c0bd 86bd
00000280: 0ee7 48bd 6b82 71bb 0038 00be 3478 483e
00000290: cb78 7dbd 5fd2 863d b6af a93d a16b bdbc
000002a0: 73ab b13d 2e0a b13d 6af5 0dbe ec03 06be
000002b0: d1a0 1d3e 49f8 4abe 6f83 5a3e c2a6 37be
000002c0: fb05 913d 06d4 70bc 54ae 763d 65ad 09bd
000002d0: c8c3 243e 10d0 4f3e b288 433e 6d05 15be
000002e0: 30bc 6fbb 292a 243e b322 0f3d ecc4 a5bd
000002f0: 4d61 7d3b fcad f0bd 9256 5b3e b011 553e
00000300: 84d2 b63d 912a 1dbd 2472 5a3e f175 1bbe
00000310: ece7 2e3d 7bfe 293e 1fa0 c5bc 3a48 06bc
00000320: d2a8 99bd b5e1 313e 5c33 7f3d 406c 133d
00000330: bd51 833d d3ce 463d 7a5e d7bc 5b22 173e
00000340: dae2 44be b2a6 50be 6640 1e3e cca9 25be
00000350: 0bd2 a93d c69c 143e f2ee 3e3e 9a32 5b3e
00000360: fe61 f8bd df72 79bc f9dc 26bd e528 ef3d
00000370: 8ac1 50be 6807 133e a8af b3bd e6b4 d33c
00000380: 6c83 e7bc 38da 0d3e 71b1 2b3d b91b 0ebe
00000390: ed26 3cbc e4f0 c0bc 78e9 83bc 3dd5 f2bd
000003a0: 7396 1f3e d1e2 dc3d 340d 20bd 9537 f0bd
000003b0: e402 0c3e 2037 593e a3e7 2f3e 16d0 1d3b
000003c0: fd89 543e 1045 c43b 4ce7 2bbe 413a 113d
000003d0: 73a0 00bb 355a e03c e73c 44be f35b 99bd
000003e0: dca6 e93c eb17 22be 31e3 263e 13a8 3f3d
000003f0: 7d41 203e daf7 0e3e 0f74 fb3d dd4f 333e
0.1609104 0.14992556 0.1409973 0.15410553 0.21532956 -0.14613728 0.14632921 -0.19643985
-0.18979554 -0.15465504 0.025519881 0.011029925 0.017680148 0.04486676 -0.1359266 -0.14694095
-0.09066078 0.21220417 0.05635003 0.17342372 -0.08198819 0.07629793 -0.18927385 0.11370955
-0.11207183 -0.1689373 -0.015403047 0.08720519 -0.1461547 0.06467653 -0.08597673 0.16249482
-0.109818526 -0.07518513 -0.21182841 -0.10107385 -0.0033563536 0.14230554 0.06418181 0.109047435
-0.18617322 0.13734575 0.01497084 0.105476014 -0.052377626 -0.16608648 0.020773554 0.01701852
-0.14732543 0.12087131 0.0077854046 -0.04309511 -0.097384736 -0.07440865 -0.10335736 -0.049832057
-0.10986679 -0.18463801 0.12443758 -0.16749103 0.118797675 0.040322237 -0.18574336 -0.10961623
-0.01298007 0.081114106 0.09710966 0.06520506 -0.015111269 -0.21081768 -0.035892826 -0.08578158
0.1896796 -0.13746217 -0.0741434 0.013123958 -0.04133046 -0.18105327 0.1956452 -0.13079421
0.054145273 -0.17256874 0.20776483 -0.022143165 0.15814164 -0.13605131 0.10666023 -0.09402526
0.17775407 0.058703706 -0.1294217 -0.05190642 -0.085214905 -0.02459564 0.16301666 -0.04655886
-0.13564311 0.15841636 -0.095725104 0.20530559 0.106812276 0.14908202 -0.14678963 -0.055014048
-0.1096375 -0.11854549 -0.10857974 0.0411317 -0.014020738 -0.10275354 -0.041648436 0.102748506
-0.00948672 -0.028812615 -0.058762915 -0.21076158 -0.12558615 -0.20856397 -0.19568828 -0.17588823
0.13998252 0.07466868 -0.046679728 0.14116678 -0.0036151204 -0.05712948 0.18300743 0.12454569
0.19942343 -0.077712014 -0.027923655 -0.16229849 -0.16361955 -0.09473779 0.027765132 0.09387461
0.19374835 -0.16281429 0.032853026 0.14412656 -0.21329778 0.10406085 0.15315996 -0.21090966
0.16122171 -0.027397683 0.0050483258 0.14006354 -0.09999633 0.011035061 -0.09350401 -0.21439064
-0.20402807 0.19933219 0.057537682 -0.19126952 -0.0073184064 0.15668932 0.05232118 -0.06579161
-0.049048476 -0.0036851417 -0.12521362 0.19577104 -0.061882775 0.06583094 0.08285467 -0.02312261
0.086752795 0.0864452 -0.1386315 -0.13087434 0.15393378 -0.19821276 0.213392 -0.17934707
0.07081219 -0.014698988 0.060224846 -0.033612628 0.1609031 0.20294213 0.19095114 -0.14552851
-0.0036580674 0.16031708 0.0349452 -0.080942005 0.0038662732 -0.11751935 0.21419743 0.20807528
0.089268714 -0.038370673 0.21332604 -0.1518171 0.042701647 0.16600983 -0.024124203 -0.008195931
-0.07502903 0.17371257 0.06230484 0.035991907 0.06412075 0.048537087 -0.026290167 0.147592
-0.19227162 -0.20376089 0.15454254 -0.16178054 0.08292016 0.1451293 0.18645838 0.21406022
-0.121280655 -0.015225141 -0.04073808 0.11677722 -0.2038633 0.14358294 -0.08773738 0.025843095
-0.028260909 0.13852775 0.04191727 -0.13877763 -0.01148389 -0.023552366 -0.016102538 -0.11857078
0.15584736 0.10785449 -0.03907509 -0.117293514 0.13672978 0.21212435 0.17178206 0.0024080328
0.20755763 0.005989678 -0.16787452 0.035455946 -0.0019626885 0.027386764 -0.19163857 -0.07488241
0.028521948 -0.15829436 0.16297604 0.046791147 0.15649982 0.13961735 0.12277996 0.17510934

bias f4 [64]
00000000: 0000 0000 0000 0000 0000 0000 0000 0000
00000010: 0000 0000 0000 0000 0000 0000 0000 0000
00000020: 0000 0000 0000 0000 0000 0000 0000 0000
00000030: 0000 0000 0000 0000 0000 0000 0000 0000
00000040: 0000 0000 0000 0000 0000 0000 0000 0000
00000050: 0000 0000 0000 0000 0000 0000 0000 0000
00000060: 0000 0000 0000 0000 0000 0000 0000 0000
00000070: 0000 0000 0000 0000 0000 0000 0000 0000
00000080: 0000 0000 0000 0000 0000 0000 0000 0000
00000090: 0000 0000 0000 0000 0000 0000 0000 0000
000000a0: 0000 0000 0000 0000 0000 0000 0000 0000
000000b0: 0000 0000 0000 0000 0000 0000 0000 0000
000000c0: 0000 0000 0000 0000 0000 0000 0000 0000
000000d0: 0000 0000 0000 0000 0000 0000 0000 0000
000000e0: 0000 0000 0000 0000 0000 0000 0000 0000
000000f0: 0000 0000 0000 0000 0000 0000 0000 0000
0.0 0.0 0.0 0.0 0.0 0.0 0.0 0.0
0.0 0.0 0.0 0.0 0.0 0.0 0.0 0.0
0.0 0.0 0.0 0.0 0.0 0.0 0.0 0.0
0.0 0.0 0.0 0.0 0.0 0.0 0.0 0.0
0.0 0.0 0.0 0.0 0.0 0.0 0.0 0.0
0.0 0.0 0.0 0.0 0.0 0.0 0.0 0.0
0.0 0.0 0.0 0.0 0.0 0.0 0.0 0.0
0.0 0.0 0.0 0.0 0.0 0.0 0.0 0.0
